10_epoch_edge_detector.pth (torch, 24958 bytes, 19 tensors)

model.0.weight f4 [32, 25]
000000 d3 2f 3e bd d3 74 f2 bd fd 08 1c be 9f 70 56 3d
       -0.046432327 -0.11838689 -0.15237804 0.052353498
000010 b9 65 8e bd a7 56 5f bd cf aa 8e be cd fa f7 3d
       -0.06952996 -0.054525997 -0.27864692 0.12108383
000020 e1 d0 64 3d 22 df f1 3d f2 02 9c 3d 9d 45 36 bd
       0.055863265 0.11810137 0.07617749 -0.044499982
000030 b6 c5 33 be 4f 86 9c 3e 7a 73 52 3c 42 dc 78 3d
       -0.1755589 0.3057122 0.012844915 0.06075693
000040 33 30 c5 be ce 75 e6 be 94 73 3e be 5b 95 90 3d
       -0.38513336 -0.45011753 -0.18598777 0.07059737
000050 ac f8 55 3d d0 13 f9 bd 33 03 f7 3b 18 a0 18 3e
       0.052239105 -0.12161982 0.007538223 0.14904821
000060 81 94 fb 3d 1e 86 ca be b9 47 cf be 6f 4d 7c be
       0.12284184 -0.39555448 -0.40484408 -0.24638914
000070 df 8b e4 be ca b9 da be 26 9f dc be 64 b8 66 3e
       -0.44637963 -0.4271987 -0.4309017 0.22531277
000080 a9 af 61 3f 61 31 bb 3e 8d 76 c8 be 74 9e 1e be
       0.8815866 0.3656111 -0.39152947 -0.15490133
000090 76 58 ac be 7d 99 24 3f 05 32 85 be 73 83 8e be
       -0.3366124 0.64296705 -0.26014724 -0.27834663
0000a0 a2 d2 81 bd 92 9c 14 3d 81 11 87 3e 38 fb 35 3e
       -0.06339003 0.03628213 0.26380542 0.17771614
0000b0 30 32 68 bd 64 1a 1e 3e d2 70 64 3e 90 05 9d 3e
       -0.056688488 0.15439755 0.22308663 0.30668306
0000c0 ce ec 5a 3e 7c d9 0b 3e c6 9c 40 bd 75 5a 77 3d
       0.21379396 0.13657182 -0.04702451 0.060389
0000d0 b2 d2 62 3e d0 32 73 3e 91 7d 73 3e d8 ba 59 be
       0.22150686 0.23749852 0.23778369 -0.21262681
0000e0 79 32 ea bd e0 fb 91 3e fc a7 ce 3e 01 81 ad bc
       -0.11435408 0.28512478 0.40362537 -0.021179678
0000f0 c2 2a 0e bf f7 09 92 be 0d 71 5e 3f 67 90 3f be
       -0.55533993 -0.28523228 0.8689125 -0.18707429
000100 5f 37 0a be bc e6 b9 be 71 80 c7 3e 95 ba 24 3f
       -0.13497685 -0.3630885 0.3896518 0.643472
000110 8e 57 a7 3d 18 f7 c2 be d2 a3 09 3d d3 5d ef bd
       0.081709966 -0.38079143 0.033603497 -0.116878174
000120 1b 3f 50 be eb 28 01 bf 5b 75 ee be 48 21 55 bd
       -0.20336573 -0.5045306 -0.4657391 -0.052033693
000130 15 34 17 bd 85 ca df bc f0 6f c4 bc 02 39 ed bc
       -0.036914904 -0.027318249 -0.023979157 -0.028957848
000140 07 4e 52 bd b7 62 ff bc 92 5d 02 bb 3c 43 2c bc
       -0.051343944 -0.031175 -0.0019892198 -0.010514077
000150 c2 e8 5b bd 66 bd f4 bc 49 e2 b2 3c 88 09 9c 3c
       -0.053688772 -0.029875468 0.021836417 0.019047514
000160 2b 9b 0b bd f4 c0 fd bc 46 c1 b0 bd cd f1 d1 bd
       -0.034083527 -0.030975796 -0.08630614 -0.10251198
000170 d2 3d 1e be 48 63 ec bd 17 0a 20 bd e7 b7 10 bd
       -0.1545327 -0.11542374 -0.039072122 -0.035331633
000180 38 e9 14 bd 4c 73 8f bd d3 3d 6b bd 44 46 65 bd
       -0.036355227 -0.07004413 -0.057432007 -0.055975214
000190 3e a5 62 bc c6 9a 89 be 98 5c bf bd 70 41 4d be
       -0.013833342 -0.26875895 -0.09343833 -0.20044494
0001a0 e5 cb 46 bd d7 13 b9 3c 79 dc 87 be aa fc 80 bf
       -0.048534293 0.022592468 -0.26535395 -1.0077107
0001b0 8e cd f8 be 3d 0a 10 3e 7b f3 4a 3e 92 ee a9 3d
       -0.48594326 0.14066406 0.19819443 0.08297457
0001c0 c2 d6 c3 c0 b2 e3 99 be 87 c1 c0 3e 38 d5 be 3e
       -6.1199656 -0.3005653 0.3764765 0.37272048
0001d0 ea 2e b9 3d d6 53 88 bf e7 99 ac bd 4b 3a ab 3e
       0.09042151 -1.0650585 -0.08427792 0.33442912
0001e0 dc 37 42 3e 2f 56 b5 bd 1a 76 0d bc 78 59 01 be
       0.18966621 -0.08854329 -0.008634115 -0.12631786
0001f0 cc 3a 4d 3e 3e b6 f9 bd 63 c3 c5 bd 85 81 1d bd
       0.2004196 -0.12192963 -0.09656408 -0.038453598
000200 01 09 f0 bd 44 73 fc 3d 10 da 52 bd 73 ed 85 3e
       -0.11720467 0.12326673 -0.05147749 0.26157722
000210 27 36 a4 3d 97 b2 d0 be c5 04 e2 3e 88 fb 0c be
       0.08018141 -0.40761253 0.44144264 -0.13767827
000220 31 ac 2a 3f 5b 52 d1 be 75 15 c6 bf 42 b7 04 3e
       0.66668993 -0.40883145 -1.5475298 0.12960532
000230 22 e9 52 3d b5 96 5b 3e 0c 3f 42 be 4f 56 c1 be
       0.051491864 0.21444209 -0.18969363 -0.3776116
000240 e0 aa ab 3e 31 c5 06 be 15 41 62 bb 51 af 08 bd
       0.33528805 -0.1316116 -0.0034523655 -0.03337032
000250 64 d0 b1 bd 3e 4d 57 3d f4 7c a0 bd ae a2 5d bb
       -0.086823255 0.0525639 -0.07836333 -0.0033818888
000260 66 0c 91 3e bd 59 fa 3d b6 eb 43 3e 4c b1 c8 bd
       0.28329772 0.122241475 0.19132885 -0.09799442
000270 13 d1 e2 bc c1 a2 a3 3e 0a 61 90 3a 95 21 a6 bd
       -0.027687585 0.3196011 0.0011015248 -0.08111874
000280 2c c1 51 3c 96 8b 54 bf f5 b7 88 bf 7a a6 07 bf
       0.012802403 -0.8302549 -1.0681139 -0.529884
000290 bb c7 ca be a5 62 26 3e b8 60 7c 3d 17 7d b2 bc
       -0.39605507 0.16248567 0.061615676 -0.021788163
0002a0 0f 8c 1a 3e 64 31 b1 bb 62 69 52 3e e6 9e 14 3e
       0.1509249 -0.005407499 0.20548013 0.1451374
0002b0 09 8e 05 3e c4 28 eb 3d 3c 28 b4 3d dc 19 ab 3d
       0.13042463 0.11482385 0.087967366 0.08354542
0002c0 cf d9 f5 3d 9c b4 05 3e 4a 7c d9 bd 81 ab cc be
       0.12004434 0.13057178 -0.106194094 -0.39974597
0002d0 41 d1 91 3c 5d 9e b1 bd 88 2a 69 be 2e 77 2e bf
       0.017799975 -0.086727835 -0.2277013 -0.68150604
0002e0 b2 f3 b1 be 61 04 ad bb 88 2e a8 be 8e 27 86 bf
       -0.34756237 -0.005280063 -0.32848 -1.0480821
0002f0 43 53 8d be 81 8c bc bd 80 8e 42 b9 4b 7a 83 be
       -0.27602586 -0.092064865 -0.00018554367 -0.2567924
000300 85 ab cc bd f7 71 19 bd 66 8d 8e bd 7f 0a 6e bd
       -0.09993652 -0.0374622 -0.06960563 -0.05811548
000310 88 65 93 bd 18 44 1c 3b 6e 84 2c 3e 21 4a 4d 3e
       -0.071971 0.0023844298 0.16847393 0.20047809
000320 e7 c7 8a be 23 70 84 3e a2 2d 87 3d 1f c1 28 3e
       -0.27105638 0.25866804 0.06600501 0.1647992
000330 d8 c6 0b 3e 7d 5c 8d be ad e2 99 be 7a c7 c6 bf
       0.13650072 -0.27609625 -0.30055752 -1.5529625
000340 e1 51 f5 bd 93 0b 8a bb 69 59 40 3e f4 f2 c8 be
       -0.11978508 -0.0042128055 0.18784107 -0.3924786
000350 5f bf b0 c0 af 0c 01 bf 4a 84 b6 be ae 1b 4f 3e
       -5.5233607 -0.5040998 -0.35647804 0.20225403
000360 cf 2e 16 3e e7 ff 37 bc 52 f4 a3 be d5 0f 6a 3d
       0.14666294 -0.0112304455 -0.3202234 0.057144005
000370 da 61 5a 3e 48 b1 0f 3e 07 bc c9 3d 0e 09 09 3e
       0.2132639 0.14032471 0.098503165 0.1338236
000380 fa d8 12 be 5a ac 5d 3b 90 07 a0 bb f6 13 b7 ba
       -0.14340582 0.0033824653 -0.004883714 -0.0013967741
000390 63 25 22 b9 8f 1d dc bb f8 41 3d b9 bb 24 b9 3a
       -0.00015463452 -0.006717391 -0.0001804902 0.0014125326
0003a0 b3 9c 41 bb 0e 13 9b bb 1b f1 18 bc 7c af fe b9
       -0.0029542863 -0.004732496 -0.009334828 -0.000485774
0003b0 93 fd 6a bb 81 f2 e1 bb 4f 2e 08 b9 b6 80 bf ba
       -0.0035856708 -0.006895364 -0.00012987222 -0.0014610502
0003c0 a1 ce 8b bb d1 27 1a bb 57 37 b3 3b fe 73 f3 bb
       -0.0042665754 -0.0023522268 0.0054692435 -0.007429599
0003d0 2f 72 e5 ba 74 05 81 3a 9f c1 86 bb ff 9e b0 bb
       -0.0017505343 0.0009843544 -0.004112437 -0.0053900476
0003e0 d3 e1 6b bb e3 e2 81 3a c3 5b 63 3d a4 74 e1 bd
       -0.0035992756 0.0009909536 0.055507433 -0.110085756
0003f0 07 52 4a 3c cc ea 0c 3e e1 03 09 be 23 c0 2b 3e
       0.012348658 0.13761443 -0.13380386 0.16772513

model.0.bias f4 [32]
000000 97 bf 17 3f c5 27 84 3d c3 83 0b 3d a1 b9 4c bc
       0.5927672 0.06452898 0.034061205 -0.012495429
000010 10 06 5b 3d 0a a1 f2 3d e0 a9 ed bd e2 fe fa 3d
       0.05347258 0.11847122 -0.11604667 0.12255646
000020 26 f2 3c 3d 57 c2 ec bb 00 cf e6 bd 2b 84 b3 bd
       0.04612937 -0.0072253156 -0.11269951 -0.087654434
000030 47 9e 83 3d c0 c5 18 bd 5d 4b 7e 3d a5 4a a0 bd
       0.064266734 -0.037297964 0.06208359 -0.07826737
000040 b0 b6 0a 3e 00 94 d2 3d 27 0f 83 bd c5 78 0a 3d
       0.13546252 0.10282135 -0.063993745 0.03380658
000050 2a e9 c8 bb b5 f3 eb 3d 19 48 03 3d 08 12 98 3d
       -0.006131311 0.11521093 0.03205118 0.07425314
000060 44 0e df bc 5c 57 19 bd 27 5e 69 3d df 50 32 bd
       -0.027228482 -0.037436828 0.056974556 -0.043534156
000070 ca ce 9b bd 96 60 8a bd 91 2f 6b 3c 85 f7 ff 3c
       -0.07607801 -0.067567036 0.014354602 0.031245956

model.2.weight f4 [16, 32]
000000 27 bb d0 3d ba 9e 1e 3f 20 bd a7 bd 6a 44 8a bb
       0.101919465 0.6196095 -0.081903696 -0.0042195814
000010 ee 88 3c 3f 55 49 78 be f8 71 5e 3e 16 52 34 3e
       0.7364644 -0.24246724 0.21723163 0.17609438
000020 ff 26 45 3f 17 ba e5 3b 5e ae 92 be 51 50 db be
       0.7701263 0.007010709 -0.28648657 -0.42834714
000030 a4 69 9d 3f c5 76 94 bd 23 f8 a4 3f c9 ce 23 bf
       1.2297864 -0.07249216 1.2888225 -0.63987404
000040 8c a9 2f be 11 16 66 be e9 f7 7b be 13 1b 29 3f
       -0.17154521 -0.22469355 -0.24606289 0.66056937
000050 25 84 c9 3b 3a d6 67 be a9 27 05 bd 04 4b bf 3e
       0.006149786 -0.22640315 -0.032508526 0.3736192
000060 be d0 7f 3f 2e e2 ff be 86 cc da 3e ba 5e 92 3c
       0.9992789 -0.4997725 0.42734164 0.017867435
000070 2c 17 3a 3f 78 f6 db 3e e7 9f 13 3e 21 70 19 3f
       0.7269161 0.42961478 0.14416467 0.5993672
000080 cc 34 e5 3e a6 cb a3 3e 51 14 4e 3e aa fd 84 3d
       0.44766843 0.3199131 0.20124938 0.06493695
000090 cc eb bc 3e c6 cf 20 bf fa 0b ac 3e fb c0 fa 3d
       0.3689865 -0.6281704 0.33602887 0.12243839
0000a0 61 5e a0 3e 94 4b 56 bb 9e cf 74 bf 10 22 ef be
       0.31322005 -0.0032698857 -0.956293 -0.46705675
0000b0 a3 24 10 3f b4 01 62 bf d3 b0 5a 3d 2c 54 2f bf
       0.56305903 -0.8828385 0.05339129 -0.6848781
0000c0 21 48 7f bd a1 9d aa be 74 22 85 bf b6 81 59 3e
       -0.062324647 -0.33323386 -1.0401139 0.21240887
0000d0 2c 43 fe bb 37 be c3 bd 69 c8 fb 3d ef e8 17 3e
       -0.0077594724 -0.09557765 0.122940846 0.14834951
0000e0 8d b1 f2 3e 51 17 83 be 06 1c 0a 3e 12 6e 41 bf
       0.47401085 -0.25603727 0.13487253 -0.7555858
0000f0 76 01 ad 3d 83 71 28 bd f3 77 a1 3e a8 a5 c2 3e
       0.08447544 -0.04112388 0.31536826 0.3801701
000100 01 c7 bd bb ea 86 db ba 54 4f b4 bb 21 aa eb bb
       -0.0057915454 -0.0016748582 -0.0055026207 -0.007191912
000110 d2 6b 83 3b f1 09 0d bc c8 c4 83 ba 36 1d 13 bc
       0.004010656 -0.008608327 -0.0010053152 -0.008979132
000120 ba 67 a4 bb 9b 58 ae 3b 8b 72 a8 bb b2 b9 c1 bb
       -0.005017248 0.005320621 -0.0051406077 -0.005912029
000130 98 4d 97 bb d6 92 18 3a 62 de 9a bb 1a c8 04 bb
       -0.004617404 0.000582022 -0.004726217 -0.0020260871
000140 a0 59 0a b9 57 a6 ff bb af 53 4f 39 ad 1a 34 bb
       -0.00013194093 -0.0078018117 0.00019772233 -0.002748172
000150 d4 f4 fa 3a 49 f2 7f bb b0 7d f0 ba d8 aa e1 ba
       0.0019146451 -0.0039054325 -0.0018348005 -0.0017217053
000160 8f 17 9d 3a ac 2f 17 bb 1e 98 96 bb 88 84 3e bb
       0.001198517 -0.0023069186 -0.0045957705 -0.0029070694
000170 ac 0e b3 bb b2 d0 59 bb 93 11 8a bb 71 fd a8 bb
       -0.0054643955 -0.0033235964 -0.004213521 -0.0051571657
000180 91 ff 15 bd df 0b 1b bd a4 12 0d 3b 98 3c ad ba
       -0.03662068 -0.037853118 0.0021526003 -0.0013216911
000190 0f ed 3e 3c 6d 81 42 bc 8b e1 cd bc ed 7b 15 bd
       0.011653199 -0.011871678 -0.025131961 -0.036495138
0001a0 32 aa 3b bb 6d 06 32 3b 5e fd 95 bc cc 8f 0f bb
       -0.002863538 0.0027164475 -0.018309291 -0.0021905778
0001b0 1d 56 aa 3c 8a a2 c8 bc 03 14 30 bc 3b 91 80 3b
       0.020793015 -0.024491567 -0.010746959 0.003923563
0001c0 7c 2e 42 3b a6 6f 08 3c 5c 03 e5 bb ed 82 45 bc
       0.0029629758 0.0083274 -0.006988926 -0.012055141
0001d0 b0 28 9d bb 6b 39 2b bc df 45 99 bc ff f1 53 bd
       -0.00479611 -0.010450701 -0.018710075 -0.051744457
0001e0 16 9c a8 bb 8c 4d 9f bb af d1 43 bc 3d 65 89 bc
       -0.00514556 -0.004861539 -0.011951848 -0.016771907
0001f0 01 12 03 b9 26 a7 2b 3c 2f 58 5f bc 6d b1 23 3c
       -0.0001249984 0.010476863 -0.013631864 0.009991032
000200 b1 68 6d 3e 09 92 dd be d1 92 c6 be 2f b4 da 3c
       0.23184468 -0.43275478 -0.38783887 0.026697246
000210 e9 9f ae be 67 e0 da 3e b1 37 c2 3d 83 52 4c 3c
       -0.34106377 0.4274933 0.094832785 0.012470844
000220 e9 bd 08 bf c6 b2 b1 3a d4 1b ad 3e 59 2d dd 3e
       -0.5341478 0.0013557307 0.33810294 0.4319866
000230 47 28 5c bf a4 3d bf 3e 60 86 99 bf cc b4 51 3e
       -0.8599896 0.37351716 -1.1994133 0.20479125
000240 f5 ec c5 3d a1 74 17 3f 62 d1 1e 3f df 8e ac be
       0.096643366 0.59162337 0.6203824 -0.33702752
000250 37 79 af 3b ca c2 9d 3e ee 40 09 3e 77 f8 06 3f
       0.005355026 0.30812675 0.13403675 0.5272288
000260 ae 2b 34 bf f7 9a 84 3e bc 64 af be a7 bc a0 3e
       -0.7037915 0.2589948 -0.34256542 0.3139393
000270 c4 e4 ad be 80 a6 71 be 85 9c 3c bc 03 00 81 be
       -0.33963597 -0.23598671 -0.011511927 -0.2519532
000280 77 06 98 3c 4f 07 f8 be 25 b5 a6 bf a4 c3 57 3d
       0.01855777 -0.48443076 -1.3024031 0.05267681
000290 e3 27 40 bf 84 bf bd 3e 73 9d 7a 3e 57 02 77 3d
       -0.7506086 0.37060177 0.24474125 0.060304966
0002a0 d5 b6 21 bf 6f 0d 9f bb 4c e4 56 3f 3d 9d eb bd
       -0.63169605 -0.0048538963 0.83942103 -0.115046
0002b0 cf db 89 bf f2 a6 18 3f 34 96 23 bf 94 5f f9 3e
       -1.0770205 0.5962974 -0.63901067 0.48705733
0002c0 56 c7 37 3c e3 92 ab 3e df 27 2b 3f 05 a1 9d bd
       0.011216959 0.33510503 0.66857713 -0.07696728
0002d0 50 2c b8 3c 20 a1 40 be a9 24 ac 3e dc 09 b1 bc
       0.022482067 -0.18811464 0.3362172 -0.021611147
0002e0 5c 34 83 be 2a e6 21 be b1 a1 cd be 2d c4 20 3e
       -0.25625885 -0.15810457 -0.40162423 0.15699835
0002f0 09 8a 97 be d1 78 36 be 6d e9 32 bf 18 2e 1b bf
       -0.295975 -0.17819525 -0.6988743 -0.6061721
000300 46 cd 28 3e 0e 00 d6 3c 20 06 88 3e 9d 44 5d bc
       0.16484556 0.026123073 0.26567173 -0.013505128
000310 de e3 4e 3f 6f 1b ad be b5 5f 34 3e eb af 92 3f
       0.8081645 -0.33809993 0.17614634 1.1459936
000320 dc 8b 9d 3f e9 53 71 bb af 09 02 3c 66 5b 33 bd
       1.2308307 -0.0036823696 0.007936879 -0.043788336
000330 15 fb 33 3f c1 13 58 bf e8 d8 c2 bf a2 2a 9d bf
       0.70304996 -0.8440514 -1.5222445 -1.2278636
000340 f8 53 1c 3c 8a d1 b1 be 4a b8 9d be 26 e0 64 3d
       0.009541504 -0.34730178 -0.30804664 0.055877827
000350 92 0b d6 bc 26 ec b5 be 36 a9 27 bc 4e 4a 78 3f
       -0.026128564 -0.3553173 -0.010233214 0.9698838
000360 78 e7 52 3c 59 8b af 3d 16 7a f5 3e 1f ae 1f bf
       0.012872569 0.085715 0.47944707 -0.6237506
000370 2a e5 cb 3e 12 c5 8c 3e 0d 08 0c 40 6b bc 85 3f
       0.39823276 0.27494103 2.1879914 1.0448126
000380 25 94 b8 3d 25 1f c1 be b1 82 9a be e3 6a 3a 3d
       0.09012631 -0.37719074 -0.30177835 0.04551209
000390 91 c4 13 3f 12 a0 82 be 3d db 29 3e 69 d6 85 3e
       0.5772181 -0.2551275 0.16587539 0.26140144
0003a0 bc 7d 0d 3f 43 fe 68 bb 8c 31 65 bf 5c ef c5 bd
       0.5526998 -0.0035551942 -0.8952873 -0.09664795
0003b0 4f 8a 19 3f 5d 48 69 bf d7 78 21 ba 8b 58 d1 be
       0.5997667 -0.9112604 -0.0006159669 -0.40887865
0003c0 63 cd 5b be de f4 99 be 8d 32 ab bf 61 9e dd bc
       -0.21465068 -0.3006963 -1.3374802 -0.02705306
0003d0 a5 0b 01 bc 08 5e 80 be 6d 95 b8 3b 0d 80 ab be
       -0.007876311 -0.2507174 0.0056330473 -0.33496132
0003e0 8a b1 33 3f 2d c4 43 be ac 29 ee 3e 64 3d 12 bf
       0.7019278 -0.19117804 0.46516168 -0.57124925
0003f0 22 a8 b5 be 6d 57 c0 be 2e 6c 64 3f f9 a9 20 3f
       -0.35479838 -0.375667 0.8922757 0.6275936

model.2.bias f4 [16]
000000 9c fd 78 be 31 69 a6 3e ef 2b ab bb cc ff fb bc
       -0.24315494 0.3250213 -0.005223743 -0.030761622
000010 8e 3a a6 3e 6e dd 89 3e c0 ec 39 3d 63 ad 20 3f
       0.3246655 0.2692675 0.045391798 0.6276457
000020 4b 95 e7 3d 21 ca f5 bb 3b 60 4d 3e 07 b1 87 3e
       0.11307772 -0.0075009023 0.2005624 0.2650225
000030 bc 61 49 bd 83 12 41 bb d2 2a 0d 3f 5f 35 75 3e
       -0.049165472 -0.0029460497 0.55143464 0.2394614

model.4.weight f4 [2, 16]
000000 99 3b b8 bf 2b 8c 0e c0 b9 47 ae 3a 8e af 73 3c
       -1.4393188 -2.2273052 0.0013296522 0.0148733985
000010 bd 7e 39 3f 69 98 d7 3f 9c 5b d3 bf 6c 28 5d c0
       0.7245901 1.6843387 -1.6512332 -3.4555922
000020 5f f5 6a 3f d6 fd 79 bb 18 78 af 3f 2f ac f0 3f
       0.91780657 -0.0038145683 1.3708525 1.8802546
000030 a9 bf e1 bf 4a 4d 99 3a 24 a6 8d c0 ae c2 9e 3f
       -1.7636615 0.0011696008 -4.426531 1.2403162
000040 c6 e7 b7 3f fd de 0d 40 b5 33 0e 3b 5e 45 be bb
       1.4367607 2.2167351 0.00216983 -0.005806609
000050 5d 17 3b bf d4 b2 d7 bf 24 26 d3 3f 66 38 5d 40
       -0.73082525 -1.6851449 1.6496015 3.4565673
000060 7a f1 68 bf 54 27 90 ba e8 6c af bf 07 e7 ee bf
       -0.90993464 -0.0010998049 -1.370511 -1.8664254
000070 bd 30 e2 3f 66 09 b2 3a 7e 45 8d 40 d3 ab 9e bf
       1.7671124 0.0013583123 4.414733 -1.2396187

model.4.bias f4 [2]
000000 49 f6 4d 3d 09 95 66 bd
       0.050283704 -0.056294475

exp_avg f4 [32, 25]
000000 de ee 63 b9 fd 47 12 b9 0d eb ad b8 a2 fe 9f b9
       -0.00021737392 -0.00013950463 -8.2930645e-05 -0.0003051656
000010 ec 3b f3 b8 70 88 26 b9 f5 b0 1c b9 35 7f ab b8
       -0.00011598304 -0.0001588182 -0.00014943241 -8.1776096e-05
000020 7f 2d 2d b9 e4 4e 07 b8 06 13 bb b8 f6 83 aa b7
       -0.00016515514 -3.225998e-05 -8.920398e-05 -2.0327028e-05
000030 f3 20 1e 38 86 5d 61 38 c2 93 8d b8 96 89 9b b8
       3.7700822e-05 5.373128e-05 -6.750926e-05 -7.416603e-05
000040 51 5a 92 38 8b 46 87 39 d7 a0 0e 39 98 b7 68 b7
       6.978645e-05 0.00025801765 0.00013602093 -1.3871024e-05
000050 7e af 10 38 bc 4d 29 39 c6 a6 e6 39 76 74 3a 39
       3.4495715e-05 0.00016146054 0.00043993274 0.00017781727
000060 74 17 11 38 08 89 cf 3a a1 b5 cc 3a bb 6c b3 39
       3.4592536e-05 0.0015833685 0.0015618094 0.0003422255
000070 a0 a1 05 b8 0e d9 29 3a da 11 ca 3a da da b9 3a
       -3.1860196e-05 0.0006479182 0.0015416697 0.0014179603
000080 54 b2 a7 b8 c1 50 00 3a 2a c2 a3 3a 4f 2b 2e 3b
       -7.996397e-05 0.0004894846 0.0012493778 0.0026576107
000090 f9 79 37 3b 86 13 a3 3a fe 6a b2 3a fc 27 b9 3a
       0.0027996285 0.0012441732 0.0013612208 0.0014126296
0000a0 14 72 44 3b 5e 38 60 3b 52 c0 25 3b 64 bd 2c 3b
       0.0029975222 0.0034213285 0.0025291634 0.0026358003
0000b0 10 4d 2c 3b 87 b6 78 3b 00 78 81 3b 89 c8 35 3b
       0.002629105 0.0037950592 0.0039510727 0.0027737936
0000c0 04 b6 30 3b 03 9a 2d 3b f4 eb c5 3c 95 e6 d2 3c
       0.0026963959 0.0026489503 0.024160363 0.025744716
0000d0 23 89 cb 3c 27 0d c8 3c 08 5a c3 3c 61 81 c9 3c
       0.024845665 0.024420334 0.023846641 0.024597825
0000e0 f5 1d cd 3c 1c 28 c8 3c ea 16 c3 3c d1 a0 af 3c
       0.025038699 0.024433188 0.023814637 0.021438988
0000f0 3e fd d4 3c 1f 60 cc 3c 08 82 99 3c 85 3d 92 3c
       0.025999662 0.024948178 0.018738762 0.0178516
000100 d3 06 8e 3c 28 97 9e 3c 23 15 99 3c ff 05 86 3c
       0.017337238 0.019359186 0.018686837 0.016360281
000110 34 d1 89 3c d6 ec 8c 3c 18 4b 97 3c 40 7d 8f 3c
       0.016823389 0.017202776 0.018468425 0.017515779
000120 b2 40 85 3c 29 12 85 3c 76 cc 89 3c 04 00 00 80
       0.0162662 0.016244011 0.016821127 -6e-45
000130 04 00 00 80 04 00 00 80 04 00 00 80 04 00 00 00
       -6e-45 -6e-45 -6e-45 6e-45
000140 04 00 00 80 04 00 00 00 04 00 00 00 04 00 00 00
       -6e-45 6e-45 6e-45 6e-45
000150 04 00 00 00 04 00 00 80 04 00 00 00 04 00 00 00
       6e-45 -6e-45 6e-45 6e-45
000160 04 00 00 00 04 00 00 00 04 00 00 80 04 00 00 80
       6e-45 6e-45 -6e-45 -6e-45
000170 04 00 00 00 04 00 00 00 04 00 00 80 04 00 00 80
       6e-45 6e-45 -6e-45 -6e-45
000180 04 00 00 80 04 00 00 80 04 00 00 80 04 00 00 80
       -6e-45 -6e-45 -6e-45 -6e-45
000190 c5 93 d6 38 8a 43 bb 38 f5 20 de 36 34 4d 09 37
       0.000102318394 8.929435e-05 6.6199523e-06 8.183812e-06
0001a0 50 cd 41 38 60 9e d5 38 3c 49 bb 38 c9 d0 e0 36
       4.6205998e-05 0.00010186131 8.930496e-05 6.700026e-06
0001b0 be 19 a3 37 c9 0f 51 38 68 6b d4 38 f8 05 ba 38
       1.9443101e-05 4.9844184e-05 0.00010128954 8.870283e-05
0001c0 d2 c3 01 37 e2 da 24 38 fd 10 51 38 82 6d d4 38
       7.734592e-06 3.9304497e-05 4.9845305e-05 0.00010129345
0001d0 50 62 b9 38 8a b2 a0 37 69 84 49 38 72 1a 51 38
       8.8397996e-05 1.9156625e-05 4.804545e-05 4.9854112e-05
0001e0 07 85 d4 38 84 7f bb 38 6c a3 22 38 c3 56 45 38
       0.00010133726 8.9406065e-05 3.877601e-05 4.7049263e-05
0001f0 56 b2 50 38 64 bf c2 b9 64 71 a8 b9 02 97 21 b9
       4.9757153e-05 -0.0003714516 -0.0003212794 -0.00015410411
000200 bc cf 86 b8 68 4b 45 b8 40 9f d1 b9 e2 a9 bf b9
       -6.4283115e-05 -4.7038688e-05 -0.00039982237 -0.0003655693
000210 f9 17 2c b9 68 2f 4f b8 e6 6e 39 b8 00 8e d4 b9
       -0.00016412129 -4.9396796e-05 -4.421072e-05 -0.0004054159
000220 bc 06 c9 b9 cf 72 3b b9 8d 41 08 b8 49 ff e3 b7
       -0.00038342725 -0.00017876479 -3.2485976e-05 -2.7179385e-05
000230 13 e8 d2 b9 69 44 c3 b9 d1 d5 65 b9 22 ce 18 b9
       -0.0004022723 -0.00037244268 -0.00021918795 -0.0001457264
000240 8a d6 f3 b8 cc 01 d0 b9 5c 3f c0 b9 1f 1d 8f b9
       -0.00011627104 -0.0003967419 -0.000366683 -0.00027296782
000250 43 21 76 b9 44 a2 46 b9 e5 6b ca b4 6c 61 ca b4
       -0.00023472779 -0.000189432 -3.7703936e-07 -3.7696316e-07
000260 26 22 cb b4 77 d4 cc b4 77 d4 cc b4 e2 6b ca b4
       -3.7836543e-07 -3.815255e-07 -3.815255e-07 -3.7703927e-07
000270 04 69 ca b4 b9 a8 ca b4 05 d3 ca b4 ae 9b ca b4
       -3.770184e-07 -3.7748194e-07 -3.777897e-07 -3.7738704e-07
000280 6a ab 4c b5 00 54 a0 b4 f5 4c 7e b4 f8 be 80 b4
       -7.624536e-07 -2.986344e-07 -2.368359e-07 -2.3980806e-07
000290 8c b7 80 b4 04 88 64 b5 ca 84 64 b5 f2 0d 10 b5
       -2.3975406e-07 -8.513455e-07 -8.512985e-07 -5.3664473e-07
0002a0 ed f1 a3 b4 36 65 a7 b4 8f df 69 b5 92 df 69 b5
       -3.053714e-07 -3.1179815e-07 -8.7124585e-07 -8.71246e-07
0002b0 7f df 69 b5 98 37 2d b5 96 e9 9b b4 bd ac 18 b4
       -8.7124494e-07 -6.452842e-07 -2.9040956e-07 -1.4218945e-07
0002c0 27 af 18 b4 fa 91 06 b4 6f 57 98 b2 0c a3 1f b2
       -1.4219823e-07 -1.2532828e-07 -1.773489e-08 -9.292091e-09
0002d0 b7 ac 18 b4 89 67 16 b4 dc 83 4a b3 38 13 d3 99
       -1.4218936e-07 -1.4007504e-07 -4.7151715e-08 -2.1824651e-23
0002e0 83 0f 36 ad 83 b7 0e b4 e2 74 d9 b3 4a c7 78 11
       -1.03489465e-11 -1.3291542e-07 -1.0126111e-07 1.9625161e-28
0002f0 24 e4 2f 9b 4d 41 58 ad 76 77 0a b4 53 6e 81 b2
       -1.4549377e-22 -1.2292678e-11 -1.2895711e-07 -1.5067746e-08
000300 a4 3f fc af 1e 3d 02 b0 4a 44 02 b0 85 b1 b1 b3
       -4.5883752e-10 -4.738058e-10 -4.739077e-10 -8.2744954e-08
000310 93 aa 00 b0 ac ce 02 b0 c0 f2 02 b0 aa bc 02 b0
       -4.680853e-10 -4.7587423e-10 -4.7638693e-10 -4.756183e-10
000320 23 d2 92 34 ba fc 59 ad 37 c6 ff ad cc 72 02 ae
       2.7347514e-07 -1.23911385e-11 -2.9078169e-11 -2.9660538e-11
000330 83 ce e7 ad b4 01 43 37 ab d0 e4 33 cf c0 11 ab
       -2.635337e-11 1.1623302e-05 1.0655034e-07 -5.1781924e-13
000340 27 1d 48 ad 2b 22 c9 ad ea 54 a1 37 98 f5 8d 37
       -1.1375157e-11 -2.2866228e-11 1.9232237e-05 1.6922873e-05
000350 cf b5 b0 35 96 5a ef aa 70 af b0 ad 61 21 a0 37
       1.3165935e-06 -4.2517785e-13 -2.0086793e-11 1.908903e-05
000360 54 21 a0 37 0d f6 9e 37 bf 04 c8 36 cb ea 05 b4
       1.9089006e-05 1.8949644e-05 5.961017e-06 -1.2472007e-07
000370 ff 20 a0 37 01 21 a0 37 04 21 a0 37 20 53 9e 37
       1.9088851e-05 1.9088855e-05 1.908886e-05 1.8873776e-05
000380 37 98 4a 37 04 00 00 00 04 00 00 00 04 00 00 00
       1.20755785e-05 6e-45 6e-45 6e-45
000390 04 00 00 00 04 00 00 00 00 00 00 00 04 00 00 00
       6e-45 6e-45 0.0 6e-45
0003a0 04 00 00 00 04 00 00 00 04 00 00 00 00 00 00 00
       6e-45 6e-45 6e-45 0.0
0003b0 00 00 00 00 04 00 00 80 04 00 00 00 04 00 00 00
       0.0 -6e-45 6e-45 6e-45
0003c0 00 00 00 00 04 00 00 80 04 00 00 80 04 00 00 80
       0.0 -6e-45 -6e-45 -6e-45
0003d0 04 00 00 00 00 00 00 00 04 00 00 00 04 00 00 80
       6e-45 0.0 6e-45 -6e-45
0003e0 04 00 00 80 04 00 00 00 55 a5 97 3b fd ea 59 3b
       -6e-45 6e-45 0.0046278634 0.0033251636
0003f0 5e 6a 82 3b 67 83 08 3c 56 2b c1 3b 77 d0 a8 3b
       0.003979965 0.00833211 0.0058950586 0.005151804

exp_avg_sq f4 [32, 25]
000000 8a 55 18 38 1a cb 4a 38 0d 6f 79 38 f9 b1 88 38
       3.631929e-05 4.8349706e-05 5.946965e-05 6.518135e-05
000010 43 dc 8d 38 9b 98 14 38 b7 25 27 38 40 41 63 38
       6.764431e-05 3.5428075e-05 3.9851027e-05 5.4181786e-05
000020 71 ab 84 38 6e bf 90 38 b7 2f 12 38 e7 58 11 38
       6.326184e-05 6.9021116e-05 3.485355e-05 3.465349e-05
000030 fe dc 29 38 ac 22 62 38 82 53 82 38 26 a1 09 38
       4.0498555e-05 5.391489e-05 6.2144376e-05 3.2813427e-05
000040 df 0e 00 38 ce f1 06 38 97 a9 58 38 c6 bf 70 38
       3.0531428e-05 3.2173288e-05 5.1656356e-05 5.7399062e-05
000050 ba 2f 03 38 50 1f ee 37 3d 9b 0e 38 54 3b 49 38
       3.1277283e-05 2.8386392e-05 3.4000015e-05 4.7977388e-05
000060 fa 7a 57 38 08 71 b0 3b e6 99 a0 3b 52 5b a9 3b
       5.1374525e-05 0.005384568 0.0049011586 0.005168357
000070 77 84 af 3b dc 73 c1 3b 79 09 d0 3b 38 1a c8 3b
       0.005356367 0.005903704 0.0063487855 0.006106641
000080 04 48 b9 3b 78 52 ce 3b 9a b7 d8 3b 93 8e e7 3b
       0.005654337 0.006296452 0.006613684 0.0070665567
000090 9b c6 ea 3b 67 68 07 3c 20 9d f7 3b da 46 f4 3b
       0.007164789 0.008264638 0.0075565726 0.007454735
0000a0 10 c5 f5 3b da 65 07 3c f2 b8 1c 3c e1 67 15 3c
       0.0075002983 0.008264029 0.009565579 0.009119005
0000b0 dd 54 09 3c f0 c2 05 3c ae 82 11 3c bb fe 1e 3c
       0.008382049 0.0081641525 0.008881254 0.009704287
0000c0 84 a5 1b 3c a8 ce 12 3c 84 7a b5 3b b3 56 c6 3b
       0.009499911 0.0089604035 0.0055382866 0.006052816
0000d0 5b f4 e5 3b 19 61 f1 3b b8 34 ef 3b 87 bc ad 3b
       0.007017655 0.0073663113 0.0072999857 0.005302015
0000e0 f9 c5 b5 3b 49 08 e2 3b a9 62 f7 3b d7 df ed 3b
       0.005547282 0.0068979603 0.007549603 0.00725935
0000f0 35 d3 a3 3b 74 bc a8 3b 40 53 d6 3b 40 26 d7 3b
       0.004999543 0.0051494185 0.006540686 0.006565839
000100 3e 11 da 3b c5 b4 a1 3b 3a 95 ac 3b 64 8b b0 3b
       0.0066548875 0.0049348795 0.0052668126 0.0053877104
000110 7e 70 ba 3b 8b e1 c6 3b 21 97 9a 3b 61 88 9c 3b
       0.0056896796 0.0060693673 0.004717723 0.004777
000120 80 54 a7 3b 80 47 a9 3b 62 d1 b4 3b f7 df 53 08
       0.0051065087 0.005165994 0.0055181244 6.375877e-34
000130 c3 a1 77 08 4f 4b 0c 09 1c c3 78 09 22 68 82 09
       7.451901e-34 1.6887297e-33 2.9943654e-33 3.1394288e-33
000140 e3 55 37 08 0b ed 54 08 ca 51 0c 09 46 1e 80 09
       5.517052e-34 6.407507e-34 1.6890344e-33 3.0843348e-33
000150 cc 6d 0e 0b 15 b3 29 08 30 1d 33 08 55 5b 80 08
       2.7430807e-32 5.1067098e-34 5.3900163e-34 7.725192e-34
000160 bc d3 c7 0a 89 35 1d 0b 45 06 ce 07 7d 37 bc 07
       1.9242649e-32 3.0277376e-32 3.099912e-34 2.831971e-34
000170 86 5f c4 06 e3 95 f9 08 83 7c 02 09 24 7a 5e 06
       7.3867365e-35 1.5021381e-33 1.5706726e-33 4.1843294e-35
000180 00 3c 6f 05 61 89 06 06 54 8c 03 07 ba 3c 7b 08
       1.1248746e-35 2.530353e-35 9.896583e-35 7.560395e-34
000190 d5 bc 63 38 56 57 e4 37 15 a2 6b 37 e5 26 9b 38
       5.429688e-05 2.7220387e-05 1.4044829e-05 7.3982206e-05
0001a0 a1 f8 38 39 87 1e 5d 38 4e 23 e5 37 f2 95 a0 35
       0.00017640229 5.2718937e-05 2.7315367e-05 1.1964569e-06
0001b0 f5 7c a6 38 72 3a 52 39 e4 cb 8f 38 8a 3d 3a 38
       7.938772e-05 0.00020048933 6.856749e-05 4.440317e-05
0001c0 d1 f5 4f 34 7a 41 ec 38 22 fb 7e 39 78 10 8c 38
       1.9367805e-07 0.00011265553 0.00024316882 6.678788e-05
0001d0 be b5 ab 38 fd be 8e 38 b0 2c 48 39 d8 e7 84 39
       8.1877675e-05 6.806662e-05 0.00019090134 0.0002534974
0001e0 6a 2c db 38 f5 f5 c4 38 8c 98 b7 38 1c 95 52 39
       0.000104510065 9.3918214e-05 8.754534e-05 0.00020082708
0001f0 c9 99 86 39 19 95 57 3a 1c 8d 3e 3a e6 30 f5 39
       0.0002567305 0.00082238164 0.0007268952 0.00046766474
000200 b2 21 a3 39 5f 08 87 39 32 d6 5a 3a 52 53 3b 3a
       0.00031114888 0.00025755443 0.00083479576 0.00071458996
000210 fd 9d c8 39 46 01 11 39 42 d8 d4 38 c3 2d 68 3a
       0.00038264683 0.00013828752 0.00010149229 0.00088569167
000220 7f c9 45 3a 18 bc c5 39 a1 d4 97 38 b7 a5 a7 38
       0.0007544979 0.0003771491 7.239846e-05 7.994047e-05
000230 0d 1b 60 3a 72 b8 40 3a d1 be d1 39 0f 56 14 39
       0.0008548953 0.0007351703 0.00040005756 0.00014146439
000240 f6 39 e3 38 0a af 50 3a 34 bd 2b 3a 9d 0a d2 39
       0.000108349996 0.0007960653 0.0006551326 0.0004006223
000250 99 89 83 39 79 f6 3a 39 fd f2 dd 38 5a f3 f8 38
       0.00025088785 0.0001783016 0.00010583361 0.00011870889
000260 0f f5 03 39 75 82 f6 38 e4 03 c8 38 08 ec d8 38
       0.00012584425 0.000117544936 9.537468e-05 0.00010343647
000270 b7 5e eb 38 c7 a3 f6 38 ad 06 bd 38 cb 8c a5 38
       0.00011223315 0.000117607 9.013466e-05 7.894038e-05
000280 ec 04 d5 38 92 de c7 38 b0 d7 8e 38 27 b9 86 38
       0.00010157548 9.5305164e-05 6.8112626e-05 6.424105e-05
000290 63 b9 87 38 f2 49 d8 38 6e 39 95 38 17 b7 91 38
       6.4718326e-05 0.00010313456 7.115571e-05 6.948242e-05
0002a0 28 ab 8e 38 7a c9 8a 38 e2 07 9b 38 d8 73 93 38
       6.802968e-05 6.617881e-05 7.392444e-05 7.031084e-05
0002b0 46 83 93 38 4c 31 8f 38 70 b9 8e 38 19 e8 45 37
       7.033958e-05 6.8279536e-05 6.805628e-05 1.17961545e-05
0002c0 58 5d e9 37 c2 56 e9 37 95 33 e9 37 16 b5 b1 37
       2.7819231e-05 2.7816164e-05 2.7799784e-05 2.1184369e-05
0002d0 70 c9 ba 33 d2 d1 c5 37 0c 36 e9 37 ca 3c b8 36
       8.697941e-08 2.3581935e-05 2.7800932e-05 5.490704e-06
0002e0 6d 77 08 2d 65 bd cd 32 b4 24 3f 35 8a a4 f0 33
       7.757223e-12 2.3951268e-08 7.1206455e-07 1.12058004e-07
0002f0 c3 c5 95 31 45 a7 01 32 18 c8 8b 32 2f a4 b7 2f
       4.3589536e-09 7.546821e-09 1.6272722e-08 3.3404166e-10
000300 7a 41 6d 31 7f c1 29 32 e6 a6 3a 32 f6 1d a7 31
       3.4525258e-09 9.881091e-09 1.0864573e-08 4.863746e-09
000310 1b e7 3f 2f 39 ec 9f 31 5c 84 3b 32 12 bb 57 32
       1.7453454e-10 4.6543644e-09 1.0914928e-08 1.2557182e-08
000320 13 56 98 37 d7 ac 43 36 68 d0 fd 35 ae cb 04 36
       1.8159893e-05 2.915787e-06 1.8910623e-06 1.978809e-06
000330 e8 9e 0a 36 d6 f1 bd 37 87 46 98 36 07 f4 13 31
       2.0656098e-06 2.264317e-05 4.5381635e-06 2.1530029e-09
000340 4c 8a 0b 34 86 7e 63 34 b5 1b 88 38 36 27 2f 38
       1.2995696e-07 2.1187051e-07 6.490146e-05 4.175977e-05
000350 7c 6c d8 33 c9 cc 41 35 71 29 d1 35 2b 76 8b 38
       1.0078017e-07 7.2196104e-07 1.5583774e-06 6.650047e-05
000360 41 a3 8a 38 2a 2d 49 38 d8 6f 20 38 07 9b c2 37
       6.610761e-05 4.7964197e-05 3.8251135e-05 2.3198792e-05
000370 a3 f2 8a 38 42 80 8a 38 61 d4 7c 38 e8 06 3a 38
       6.6255474e-05 6.604243e-05 6.0279275e-05 4.4352288e-05
000380 26 80 25 38 f4 01 00 00 f4 01 00 00 f4 01 00 00
       3.9458413e-05 7e-43 7e-43 7e-43
000390 f4 01 00 00 f4 01 00 00 00 00 00 00 f4 01 00 00
       7e-43 7e-43 0.0 7e-43
0003a0 f4 01 00 00 f4 01 00 00 f4 01 00 00 00 00 00 00
       7e-43 7e-43 7e-43 0.0
0003b0 00 00 00 00 f4 01 00 00 f4 01 00 00 f4 01 00 00
       0.0 7e-43 7e-43 7e-43
0003c0 00 00 00 00 f4 01 00 00 f4 01 00 00 f4 01 00 00
       0.0 7e-43 7e-43 7e-43
0003d0 f4 01 00 00 00 00 00 00 f4 01 00 00 f4 01 00 00
       7e-43 0.0 7e-43 7e-43
0003e0 f4 01 00 00 f4 01 00 00 53 b9 bb 3c 34 10 c8 3c
       7e-43 7e-43 0.022915518 0.024421789
0003f0 3e 0e ea 3c 4d e7 0d 3d 44 a5 1d 3d 6d a9 b2 3c
       0.028571244 0.034644414 0.038487688 0.021809304

exp_avg f4 [32]
000000 70 1a 7e ba 42 28 00 3c f9 90 e9 3c 04 00 00 00
       -0.00096932705 0.007822098 0.028511511 6e-45
000010 fa 10 09 3a 86 cf 94 ba 7e 69 92 b5 e6 f2 6d b5
       0.0005228665 -0.0011353351 -1.090855e-06 -8.8642844e-07
000020 a6 84 f9 37 04 00 00 00 e0 69 14 3c a8 6b 6d bb
       2.9744882e-05 6e-45 0.009058446 -0.0036227498
000030 3d d8 1b 3a 95 b8 23 bb fa 79 35 3d 7c d8 42 bc
       0.0005945003 -0.0024981846 0.04430578 -0.011892434
000040 b4 d0 2b ba ed 4d a5 ba 9b 45 92 bd ac b0 88 3c
       -0.00065542315 -0.0012611725 -0.071421824 0.016685806
000050 04 00 00 00 82 79 53 ba 1b 5b b5 3b fa 1c 37 bb
       6e-45 -0.00080671173 0.0055345423 -0.0027940855
000060 8c 36 6a 39 17 20 43 39 dc 29 63 38 74 57 9f bc
       0.000223363 0.00018608604 5.4160002e-05 -0.01945088
000070 ea ef dc 3a 7a 78 6a 3b fd 9a 13 b5 11 2c 9e 35
       0.0016856168 0.0035777376 -5.4987305e-07 1.1784742e-06

exp_avg_sq f4 [32]
000000 e8 88 60 39 05 0d 99 3c 18 bc 7a 3c 0e a5 24 0d
       0.00021413306 0.018682966 0.015303634 5.073508e-31
000010 19 d3 1e 3b 5d 5c 38 3b 8b 87 67 39 2f 09 ef 39
       0.002423471 0.0028131225 0.0002208037 0.00045592475
000020 40 e4 21 3a f4 01 00 00 18 06 81 3d 6f 02 99 3b
       0.00061756745 7e-43 0.062999904 0.0046694796
000030 fb a2 c6 39 cd 07 38 3d 03 aa 5c 3d 93 03 98 3c
       0.00037886933 0.044929314 0.053873073 0.018556392
000040 97 a6 16 39 3b 0e 0d 3a e6 22 cc 3d 0c 35 f0 3b
       0.00014367174 0.00053808436 0.09967594 0.0073305424
000050 f4 01 00 00 36 67 a6 39 b1 37 12 3b 09 f7 be 3b
       7e-43 0.00031738885 0.0022311027 0.0058277887
000060 e9 be 3c 3a 0f 70 0d 3a 12 64 b5 39 19 4a ab 3c
       0.00072000787 0.0005395421 0.00034597568 0.020909356
000070 a8 3d 33 3c 08 60 e6 3b 2a 55 d8 37 89 b7 ea 39
       0.010939993 0.007030491 2.5788864e-05 0.00044768702

exp_avg f4 [16, 32]
000000 f2 f8 d4 b9 56 2d 50 39 34 fe 42 ba 04 00 00 00
       -0.0004062127 0.00019853315 -0.0007438392 6e-45
000010 e0 76 e2 35 59 11 1e 38 23 98 ee b4 fc 00 df b1
       1.6872909e-06 3.768629e-05 -4.444165e-07 -6.490266e-09
000020 8e e0 d9 34 04 00 00 80 90 fb 8a b9 96 9d db 38
       4.0582785e-07 -6e-45 -0.0002650884 0.000104720864
000030 8d 56 58 36 ba 19 92 39 62 df 21 b9 f6 13 96 39
       3.2236887e-06 0.00027866458 -0.00015437373 0.00028625102
000040 0a b8 5d 37 2b 3f 90 35 a3 f6 d9 39 50 ba 18 b9
       1.3215476e-05 1.074722e-06 0.00041573224 -0.00014565256
000050 04 00 00 80 65 d6 34 38 ab 83 ef 38 80 83 ea b9
       -6e-45 4.3115015e-05 0.00011420933 -0.00044729933
000060 64 a5 a9 35 09 61 10 37 f4 bf c1 36 74 93 fc b9
       1.2639616e-06 8.605662e-06 5.7741945e-06 -0.00048175047
000070 6e 4c 62 ba 40 5e 78 38 0a 23 f8 af 00 7a 9c b1
       -0.0008632605 5.9215585e-05 -4.5135834e-10 -4.5540673e-09
000080 aa 81 65 ba ee d0 85 3a 0d bd bc b8 04 00 00 00
       -0.0008754978 0.0010209361 -8.999752e-05 6e-45
000090 b7 0f c2 32 9d a8 81 37 ba d6 55 b3 be 2f 2c b2
       2.2591719e-08 1.5456515e-05 -4.978822e-08 -1.0022573e-08
0000a0 dd 52 74 b4 04 00 00 00 5a e5 05 39 07 b0 6b 39
       -2.2754416e-07 6e-45 0.00012769309 0.00022476922
0000b0 00 78 c5 b2 dc a1 84 3a 09 d7 48 ba cd f3 62 38
       -2.2988388e-08 0.0010119039 -0.0007661437 5.4109656e-05
0000c0 16 cc ac 37 d4 7d 2c b2 5a d4 3b b7 dc c9 e8 b8
       2.0599033e-05 -1.0040328e-08 -1.11955105e-05 -0.00011100221
0000d0 04 00 00 80 db 33 98 38 3c 8e b4 37 61 0e f9 39
       -6e-45 7.257584e-05 2.1523905e-05 0.00047503694
0000e0 64 19 08 b2 e9 df d0 b7 84 fd d7 30 14 41 2e ba
       -7.922015e-09 -2.4899799e-05 1.5715362e-09 -0.00066472706
0000f0 f8 5d e0 b8 82 9f cd b9 12 c9 3f b0 fa 62 61 b2
       -0.000106986554 -0.0003921949 -6.9771133e-10 -1.3119228e-08
000100 04 00 00 00 04 00 00 00 00 00 00 00 04 00 00 00
       6e-45 6e-45 0.0 6e-45
000110 00 00 00 00 04 00 00 00 04 00 00 00 04 00 00 00
       0.0 6e-45 6e-45 6e-45
000120 00 00 00 00 00 00 00 00 04 00 00 00 04 00 00 00
       0.0 0.0 6e-45 6e-45
000130 04 00 00 00 04 00 00 00 00 00 00 00 04 00 00 00
       6e-45 6e-45 0.0 6e-45
000140 04 00 00 00 04 00 00 00 04 00 00 00 00 00 00 00
       6e-45 6e-45 6e-45 0.0
000150 04 00 00 00 00 00 00 00 00 00 00 00 00 00 00 00
       6e-45 0.0 0.0 0.0
000160 00 00 00 00 04 00 00 00 04 00 00 00 00 00 00 00
       0.0 6e-45 6e-45 0.0
000170 00 00 00 00 04 00 00 00 04 00 00 00 00 00 00 00
       0.0 6e-45 6e-45 0.0
000180 04 00 00 00 04 00 00 80 04 00 00 80 04 00 00 00
       6e-45 -6e-45 -6e-45 6e-45
000190 04 00 00 00 04 00 00 00 04 00 00 00 04 00 00 00
       6e-45 6e-45 6e-45 6e-45
0001a0 04 00 00 80 00 00 00 00 04 00 00 00 04 00 00 80
       -6e-45 0.0 6e-45 -6e-45
0001b0 04 00 00 00 04 00 00 00 04 00 00 00 04 00 00 00
       6e-45 6e-45 6e-45 6e-45
0001c0 04 00 00 80 04 00 00 00 04 00 00 00 04 00 00 00
       -6e-45 6e-45 6e-45 6e-45
0001d0 04 00 00 80 04 00 00 00 04 00 00 00 04 00 00 00
       -6e-45 6e-45 6e-45 6e-45
0001e0 04 00 00 00 04 00 00 80 04 00 00 00 04 00 00 00
       6e-45 -6e-45 6e-45 6e-45
0001f0 04 00 00 00 04 00 00 00 04 00 00 00 04 00 00 00
       6e-45 6e-45 6e-45 6e-45
000200 56 d6 88 b8 3b 98 24 b9 b5 29 eb b9 04 00 00 80
       -6.5249085e-05 -0.00015696969 -0.00044853767 -6e-45
000210 a9 0a 65 b5 48 97 f1 b7 85 66 0a b1 d6 00 61 31
       -8.532466e-07 -2.8799885e-05 -2.0139919e-09 3.2742284e-09
000220 c1 bd 6b b4 04 00 00 00 4b 72 84 38 9f 06 d6 b8
       -2.1955113e-07 6e-45 6.315539e-05 -0.000102055485
000230 f0 dd da b5 6c d3 4d b9 2b a8 38 ba 37 a7 f7 ba
       -1.6306858e-06 -0.00019629084 -0.0007044102 -0.0018894438
000240 ae 7a 8d b7 cb 74 94 b7 7e 57 b4 ba e7 54 b0 ba
       -1.6865637e-05 -1.769736e-05 -0.0013758985 -0.0013453037
000250 04 00 00 00 4c c7 f9 b7 98 93 b5 b8 80 fd 76 36
       6e-45 -2.9775918e-05 -8.658244e-05 3.6804413e-06
000260 8c a9 2e b5 90 06 d8 b8 43 13 44 b6 3f f7 ce b9
       -6.5066774e-07 -0.00010300905 -2.9217488e-06 -0.00039475595
000270 2e 37 9a 39 1e 27 85 b9 46 e5 7a 2f 9e e5 89 30
       0.0002941428 -0.0002539688 2.2818822e-10 1.0033323e-09
000280 34 3b df b8 c2 30 30 ba 5c 4a d8 ba 04 00 00 80
       -0.00010644496 -0.00067211327 -0.0016501653 -6e-45
000290 14 98 04 b6 31 df 8b b8 1e f6 f4 b1 46 05 00 32
       -1.9758054e-06 -6.669609e-05 -7.129315e-09 7.45178e-09
0002a0 c2 85 08 b5 04 00 00 00 80 e3 94 b5 43 13 9a b9
       -5.085859e-07 6e-45 -1.109307e-06 -0.0002938752
0002b0 60 8b 7d b6 a2 a5 4f ba dd a9 d4 ba 2e 4c 95 bb
       -3.7781065e-06 -0.00079211046 -0.001622494 -0.0045562005
0002c0 0d c3 23 b8 ce 6a 28 b8 f8 97 58 bb f8 e0 5f bb
       -3.9043884e-05 -4.015379e-05 -0.0033049565 -0.0034161191
0002d0 04 00 00 00 50 8f 90 b8 6c 22 66 b9 07 10 b8 b9
       6e-45 -6.893149e-05 -0.00021947332 -0.00035107156
0002e0 6b 38 ca b5 2f c4 8c b9 bc f5 e2 b6 c3 64 76 ba
       -1.5066593e-06 -0.0002684905 -6.763932e-06 -0.000939917
0002f0 7c 22 52 39 22 ca 46 ba 5e 25 11 30 b3 41 1f 31
       0.00020040007 -0.0007583221 5.2803795e-10 2.317489e-09
000300 0f 40 90 39 46 9c 5b b8 86 66 73 ba 04 00 00 80
       0.00027513548 -5.235921e-05 -0.00092849915 -6e-45
000310 eb e3 05 b1 4c c0 90 36 7e 42 18 b1 ef 71 98 b1
       -1.9483604e-09 4.3139207e-06 -2.2156708e-09 -4.436735e-09
000320 79 ba e7 b0 04 00 00 80 91 29 f3 b9 a2 e3 2d 38
       -1.6860461e-09 -6e-45 -0.0004637954 4.1458414e-05
000330 0f 2f 20 b1 fc 68 cc b8 e0 04 e2 36 0b 14 41 38
       -2.3309814e-09 -9.747033e-05 6.7358924e-06 4.6033452e-05
000340 ec 6b 9c 36 a4 91 7d b1 2a 85 a0 37 bc 4f 2d b9
       4.661726e-06 -3.6899133e-09 1.9135496e-05 -0.00016528269
000350 04 00 00 80 4a af 27 38 6e c2 43 38 a8 70 cd b9
       -6e-45 3.9979153e-05 4.66727e-05 -0.00039184582
000360 c6 8e 78 ab 9d 31 06 b8 29 0d 10 b1 37 6a 82 b9
       -8.8305437e-13 -3.1994296e-05 -2.0962239e-09 -0.00024874668
000370 74 27 77 ba f0 61 f2 b8 1d 64 0e b0 4e e1 9b b0
       -0.0009428181 -0.000115577015 -5.180157e-10 -1.134177e-09
000380 17 95 28 bb 84 97 df b8 fd d2 20 3b 04 00 00 00
       -0.002572363 -0.000106616906 0.0024539821 6e-45
000390 03 70 f0 b2 14 f4 88 b4 e9 1a 93 b3 d4 f4 85 b2
       -2.7990614e-08 -2.5509564e-07 -6.850116e-08 -1.5594573e-08
0003a0 6f a9 bc b4 04 00 00 80 9a f3 37 ba 5b 05 02 39
       -3.5141008e-07 -6e-45 -0.00070171955 0.00012399761
0003b0 97 99 19 b3 92 77 08 39 a0 fe 01 3b 5f 35 c0 3b
       -3.5762778e-08 0.00013014514 0.0019835606 0.0058657373
0003c0 e9 7b 66 b4 2a 2b 86 b2 81 49 64 3b 58 46 9f 3b
       -2.1465497e-07 -1.5619282e-08 0.003483385 0.0048606806
0003d0 04 00 00 80 c6 9d f4 b3 30 88 28 b9 4b b2 5b 38
       -6e-45 -1.1390834e-07 -0.00016072462 5.2379717e-05
0003e0 40 47 53 b2 8a 82 dc b6 a5 34 99 b1 60 a9 ac 39
       -1.2298017e-08 -6.5717077e-06 -4.458871e-09 0.0003293259
0003f0 24 d5 9e ba 19 f3 80 b9 6d 38 95 b0 dc 36 af b2
       -0.0012117964 -0.00024595184 -1.0857214e-09 -2.0397628e-08

exp_avg_sq f4 [16, 32]
000000 95 b8 2a 39 01 fd 8c 39 5f 83 5d 39 ba ff 87 08
       0.00016281226 0.00026891383 0.00021125142 8.185138e-34
000010 b4 aa 36 35 08 b3 c0 36 15 35 53 36 92 59 03 2f
       6.804869e-07 5.742888e-06 3.1472348e-06 1.1946202e-10
000020 36 81 e0 34 f4 01 00 00 df c9 9d 39 46 a8 6f 38
       4.1817265e-07 7e-43 0.0003009578 5.7138757e-05
000030 b3 d6 45 35 38 9d 9f 39 65 48 0c 39 12 b5 19 39
       7.370065e-07 0.0003044398 0.0001337841 0.00014658671
000040 38 f8 95 36 8f 42 0d 35 73 af 04 3a 09 b8 3a 39
       4.4694425e-06 5.262345e-07 0.00050615444 0.000178069
000050 f4 01 00 00 21 05 34 36 f8 fa 3a 38 41 d4 c6 39
       7e-43 2.6825076e-06 4.457959e-05 0.00037923644
000060 da 69 35 36 25 e3 61 37 d1 7f fe 36 f1 4b e2 39
       2.7032715e-06 1.3463931e-05 7.5846697e-06 0.0004316266
000070 01 a4 43 3a 35 28 06 3a 99 f8 40 30 fc 47 b0 34
       0.0007463098 0.00051176857 7.020247e-10 3.283493e-07
000080 61 4f 4c 39 02 c4 2b 39 1d fe e8 38 83 ac 87 09
       0.00019484527 0.0001638085 0.00011109954 3.2662297e-33
000090 a1 30 06 35 e4 7b 14 36 ea a1 e1 35 4c 6c 8c 33
       4.9989654e-07 2.2125832e-06 1.681093e-06 6.538957e-08
0000a0 84 c1 c6 34 f4 01 00 00 dd f4 95 38 55 c1 e1 37
       3.7021175e-07 7e-43 7.150483e-05 2.6912117e-05
0000b0 2a 43 de 33 08 da 0f 39 14 76 72 38 d5 3c a5 38
       1.0349898e-07 0.00013718766 5.7807265e-05 7.879144e-05
0000c0 b8 ff f2 35 e3 04 65 35 3b ad 1d 39 af 22 f9 38
       1.8104829e-06 8.531626e-07 0.0001503722 0.000118797056
0000d0 f4 01 00 00 1d ce 24 36 6a 58 20 37 3e cb 00 3a
       7e-43 2.4557878e-06 9.557329e-06 0.0004913098
0000e0 e1 28 48 31 59 5d 20 37 4c 20 b3 35 a5 b3 03 39
       2.9127067e-09 9.558477e-06 1.3345939e-06 0.00012560056
0000f0 d5 fb 20 39 f1 8a 10 39 3c 7d cf 30 84 f1 2d 34
       0.00015352604 0.0001378467 1.5096826e-09 1.6199743e-07
000100 f4 01 00 00 f4 01 00 00 00 00 00 00 f4 01 00 00
       7e-43 7e-43 0.0 7e-43
000110 00 00 00 00 f4 01 00 00 f4 01 00 00 f4 01 00 00
       0.0 7e-43 7e-43 7e-43
000120 00 00 00 00 00 00 00 00 f4 01 00 00 f4 01 00 00
       0.0 0.0 7e-43 7e-43
000130 f4 01 00 00 f4 01 00 00 00 00 00 00 f4 01 00 00
       7e-43 7e-43 0.0 7e-43
000140 f4 01 00 00 f4 01 00 00 f4 01 00 00 00 00 00 00
       7e-43 7e-43 7e-43 0.0
000150 f4 01 00 00 00 00 00 00 00 00 00 00 00 00 00 00
       7e-43 0.0 0.0 0.0
000160 00 00 00 00 f4 01 00 00 f4 01 00 00 00 00 00 00
       0.0 7e-43 7e-43 0.0
000170 00 00 00 00 f4 01 00 00 f4 01 00 00 00 00 00 00
       0.0 7e-43 7e-43 0.0
000180 f4 01 00 00 f4 01 00 00 f4 01 00 00 f4 01 00 00
       7e-43 7e-43 7e-43 7e-43
000190 f4 01 00 00 f4 01 00 00 f4 01 00 00 f4 01 00 00
       7e-43 7e-43 7e-43 7e-43
0001a0 f4 01 00 00 00 00 00 00 f4 01 00 00 f4 01 00 00
       7e-43 0.0 7e-43 7e-43
0001b0 f4 01 00 00 f4 01 00 00 f4 01 00 00 f4 01 00 00
       7e-43 7e-43 7e-43 7e-43
0001c0 f4 01 00 00 f4 01 00 00 f4 01 00 00 f4 01 00 00
       7e-43 7e-43 7e-43 7e-43
0001d0 f4 01 00 00 f4 01 00 00 f4 01 00 00 f4 01 00 00
       7e-43 7e-43 7e-43 7e-43
0001e0 f4 01 00 00 f4 01 00 00 f4 01 00 00 f4 01 00 00
       7e-43 7e-43 7e-43 7e-43
0001f0 f4 01 00 00 f4 01 00 00 f4 01 00 00 f4 01 00 00
       7e-43 7e-43 7e-43 7e-43
000200 01 68 45 38 ca 21 93 38 28 2d ac 38 eb 4b ca 07
       4.706532e-05 7.0158e-05 8.21001e-05 3.0438203e-34
000210 e1 1d 31 34 62 fb 0d 36 75 71 92 35 a0 1f e7 31
       1.649528e-07 2.1156961e-06 1.0910868e-06 6.72658e-09
000220 e2 b0 dc 33 f4 01 00 00 4e 04 a5 38 1b 3f e0 37
       1.0276723e-07 7e-43 7.868615e-05 2.6732267e-05
000230 ab 1a 43 34 8d 0b a7 38 37 85 e5 37 a8 af c3 38
       1.8170492e-07 7.965332e-05 2.736096e-05 9.331043e-05
000240 25 60 ae 35 f6 ba 61 35 78 e9 13 39 ff 1d 90 38
       1.2991992e-06 8.4091096e-07 0.00014105986 6.872042e-05
000250 f4 01 00 00 0a 8e 79 35 44 63 40 37 d1 f2 ef 38
       7e-43 9.296642e-07 1.1467204e-05 0.00011441636
000260 31 f6 83 35 dc bf 1f 37 b5 79 fc 35 f1 6c 15 39
       9.831912e-07 9.521809e-06 1.8810885e-06 0.00014250331
000270 1f e4 42 39 d6 03 14 39 eb 47 5f 2f cc bf ac 33
       0.00018586263 0.00014115809 2.0307282e-10 8.044262e-08
000280 dd d0 82 39 39 3c a0 39 7d 86 62 39 26 4a 91 07
       0.00024951147 0.00030562448 0.0002160314 2.1860756e-34
000290 8f f3 74 35 7e aa 02 37 5f bd 2c 36 25 76 19 33
       9.125151e-07 7.7883e-06 2.5740226e-06 3.573054e-08
0002a0 85 c2 14 35 f4 01 00 00 7a 8e d1 39 70 02 81 38
       5.541736e-07 7e-43 0.0003996974 6.151653e-05
0002b0 6c 40 86 35 e7 6e c9 39 44 51 44 39 3d 07 bc 39
       1.0002527e-06 0.00038420336 0.0001872229 0.00035863547
0002c0 91 45 6a 36 42 09 93 35 e7 0d 4d 3a d3 35 70 39
       3.490921e-06 1.0955048e-06 0.0007822201 0.00022908235
0002d0 f4 01 00 00 5f 34 04 36 c2 9c 6a 38 a8 02 06 3a
       7e-43 1.9700017e-06 5.593594e-05 0.000511209
0002e0 4f da 57 36 85 b9 a4 37 56 e0 29 37 53 3f 05 3a
       3.216457e-06 1.9636713e-05 1.0125417e-05 0.00050829834
0002f0 76 58 58 3a 1c 80 4d 3a bf 45 68 2e b2 f8 ed 34
       0.0008252928 0.0007839219 5.281264e-11 4.432564e-07
000300 dd 63 c2 38 5d 76 80 39 ce c5 f3 38 27 60 01 09
       9.269242e-05 0.0002450225 0.00011623987 1.557302e-33
000310 77 69 d8 2f 90 1c 8c 36 15 ff 3d 35 a1 0b 47 2c
       3.9365108e-10 4.1756502e-06 7.077918e-07 2.8286056e-12
000320 bb 87 9e 28 f4 01 00 00 74 9a 57 39 b3 06 d6 38
       1.7600387e-14 7e-43 0.00020561536 0.00010205563
000330 81 0b 0a 2c cf e6 3c 39 95 dd ca 35 3d a2 ef 37
       1.9617365e-12 0.0001801506 1.5114662e-06 2.8566568e-05
000340 de 30 28 36 5e bc 31 33 9f 96 e9 39 6d 96 d7 38
       2.5062395e-06 4.1382343e-08 0.00044553445 0.00010280018
000350 f4 01 00 00 1e 0d 1a 36 e9 ac 16 38 0c 5e 08 3a
       7e-43 2.2955423e-06 3.5923822e-05 0.00052020024
000360 15 69 f9 2c 0a b1 9e 36 fc b5 eb 2f 6e 4f 4e 39
       7.088672e-12 4.729377e-06 4.287556e-10 0.00019675281
000370 90 e2 19 3a e3 e0 f2 39 3c 66 59 30 66 68 40 2f
       0.0005870247 0.0004632539 7.9089424e-10 1.7499388e-10
000380 9a e6 8a 39 e2 37 27 39 fe eb 28 39 63 c2 61 07
       0.00026493223 0.00015947179 0.00016109642 1.6984244e-34
000390 73 c5 84 35 30 23 60 36 a9 d7 82 36 5b 3d 28 34
       9.892232e-07 3.3399083e-06 3.899408e-06 1.566854e-07
0003a0 ec 1f 86 34 f4 01 00 00 97 1b 07 39 50 44 31 39
       2.498267e-07 7e-43 0.00012884881 0.00016905484
0003b0 1e 83 89 34 7f 77 56 39 d0 ac 2d 39 b2 4d 5d 39
       2.561364e-07 0.00020453146 0.00016562943 0.00021105146
0003c0 d2 d2 18 36 2c ce cb 35 ef 69 6d 39 ee a4 59 39
       2.2772479e-06 1.5184683e-06 0.00022641545 0.00020756174
0003d0 f4 01 00 00 46 83 f3 34 af c4 31 37 42 d3 0a 3a
       7e-43 4.535779e-07 1.0595816e-05 0.0005295762
0003e0 d0 84 88 31 67 fa c0 37 05 b7 5c 36 c9 2d 84 39
       3.97322e-09 2.3004786e-05 3.2889086e-06 0.00025211115
0003f0 5e a5 f1 38 66 5d 2c 39 26 9a 80 31 24 58 b8 34
       0.000115225776 0.00016437992 3.742815e-09 3.4336801e-07

exp_avg f4 [16]
000000 f8 71 5f b9 4e 80 0d 3a 04 00 00 00 04 00 00 00
       -0.00021309394 0.0005397842 6e-45 6e-45
000010 3d b6 a8 bb 6e da 5b bc 90 48 07 b9 b0 6e 7a 3c
       -0.0051486776 -0.013418777 -0.00012901635 0.015285179
000020 dd 33 fa ba 04 00 00 00 f9 b6 28 bc b6 4d 5c bc
       -0.0019088943 6e-45 -0.01029753 -0.013446262
000030 95 d4 3c 3c 04 00 00 00 92 64 50 bb d7 46 21 bc
       0.011525293 6e-45 -0.0031798226 -0.00984355

exp_avg_sq f4 [16]
000000 48 37 3d 3b 6a ff b6 3b f4 01 00 00 f4 01 00 00
       0.0028872062 0.005584647 7e-43 7e-43
000010 f9 5c 92 3a ca 23 b0 3b ca 13 2b 3b 3b d3 34 3c
       0.0011166624 0.00537536 0.0026104324 0.011036689
000020 07 c4 a6 3a f4 01 00 00 c6 fc 3c 3b e7 7c a6 3b
       0.0012723216 7e-43 0.0028837188 0.0050808075
000030 ca 2f 8e 3b f4 01 00 00 b9 39 ec 3b e4 f9 3f 3b
       0.004339193 7e-43 0.0072090295 0.0029293234

exp_avg f4 [2, 16]
000000 80 e5 cd 39 77 cc d0 38 04 00 00 80 04 00 00 00
       0.00039271638 9.9562974e-05 -6e-45 6e-45
000010 63 37 96 ba c4 8b b6 ba 76 8c 84 39 0e ff c9 b9
       -0.0011460598 -0.0013927151 0.00025281654 -0.00038527738
000020 18 91 4c b9 04 00 00 80 09 bf 27 ba 9c 77 27 ba
       -0.00019509008 -6e-45 -0.0006399011 -0.00063883676
000030 6f 64 71 ba 04 00 00 00 30 0a 8d 38 b1 d6 8a ba
       -0.0009208386 6e-45 6.7253015e-05 -0.0010592547
000040 9b e5 cd b9 47 cd d0 b8 04 00 00 00 04 00 00 80
       -0.00039271716 -9.956449e-05 6e-45 -6e-45
000050 56 37 96 3a bc 8b b6 3a 99 8c 84 b9 cc fe c9 39
       0.0011460583 0.0013927142 -0.00025281755 0.00038527546
000060 90 90 4c 39 04 00 00 00 06 bf 27 3a a1 77 27 3a
       0.0001950881 6e-45 0.0006399009 0.00063883705
000070 5b 64 71 3a 04 00 00 80 5a 0b 8d b8 a3 d6 8a 3a
       0.00092083745 -6e-45 -6.725518e-05 0.0010592531

exp_avg_sq f4 [2, 16]
000000 1a 2c 8d 38 95 ef e9 36 f4 01 00 00 f4 01 00 00
       6.7316185e-05 6.971832e-06 7e-43 7e-43
000010 11 8f 00 39 5d c9 65 38 a7 7d 0d 38 36 e9 0d 37
       0.00012260328 5.478539e-05 3.3734043e-05 8.458554e-06
000020 cd 84 e4 38 f4 01 00 00 23 d8 a7 37 f5 52 4a 38
       0.00010896623 7e-43 2.0008598e-05 4.8237813e-05
000030 c5 96 69 38 f4 01 00 00 47 b3 87 36 5f 5f b6 38
       5.5691944e-05 7e-43 4.044184e-06 8.6962005e-05
000040 1c 2c 8d 38 94 ef e9 36 f4 01 00 00 f4 01 00 00
       6.73162e-05 6.9718317e-06 7e-43 7e-43
000050 12 8f 00 39 5b c9 65 38 a7 7d 0d 38 36 e9 0d 37
       0.00012260329 5.478538e-05 3.3734043e-05 8.458554e-06
000060 cf 84 e4 38 f4 01 00 00 25 d8 a7 37 f7 52 4a 38
       0.00010896625 7e-43 2.0008601e-05 4.823782e-05
000070 c6 96 69 38 f4 01 00 00 48 b3 87 36 60 5f b6 38
       5.5691948e-05 7e-43 4.0441846e-06 8.696201e-05

exp_avg f4 [2]
000000 a9 33 65 bb 9a 33 65 3b
       -0.0034973419 0.0034973384

exp_avg_sq f4 [2]
000000 b9 f5 10 3a b7 f5 10 3a
       0.00055297796 0.00055297784

loss f8 []
000000 39 8e e3 16 a4 8a 62 3f
       0.0022633747931750906
