10_point_edge_detector.pth (torch, 25342 bytes, 19 tensors)

model.0.weight f4 [32, 25]
000000 a8 57 3f 3e 56 e3 80 3e e4 af 38 3c 93 92 de 3d
       0.18685782 0.25173444 0.011272404 0.108678006
000010 bc 0e 8c 3e 1b 5c b8 3e 16 e2 2b bd a7 36 09 be
       0.2735499 0.3600777 -0.04196366 -0.13399754
000020 a0 eb a2 bd 5d 21 c9 3e 41 a5 af bd 06 e4 3d bf
       -0.07955098 0.39283267 -0.085764416 -0.7417606
000030 a9 23 80 bf 7f 33 52 bf 87 55 84 bd 1c 42 0b 3f
       -1.0010883 -0.82109827 -0.064616255 0.5439775
000040 5b 72 68 bd c0 f6 43 be f2 08 e7 bd a6 ba 1a 3f
       -0.056749683 -0.19137096 -0.11281003 0.6044105
000050 0f fa 33 3e 40 4c ba 3d 77 90 59 3e 03 1d a9 3d
       0.17575859 0.09096575 0.21246515 0.08257487
000060 70 cc 0d 3c 7f 98 20 be 4e b2 cb bd a1 28 17 be
       0.008654699 -0.15683173 -0.09946118 -0.14761592
000070 99 65 81 3e 5e 5f 18 3e ca f7 f8 be bd ea 21 bf
       0.25272825 0.1488013 -0.48626548 -0.6324881
000080 5a 28 50 be 5c c1 23 3f b4 7c 05 3f 6d 31 2a be
       -0.20327893 0.6396692 0.52143407 -0.16620417
000090 3a 1c 04 be e8 39 8a 3d e2 e0 41 3e 1d 33 36 3e
       -0.12901393 0.06749326 0.18933442 0.17792936
0000a0 74 76 18 3e 81 4d 24 3f 8d 03 a4 3c ab 99 35 bf
       0.14888936 0.6418076 0.020021224 -0.70937604
0000b0 55 59 23 bf 0a a8 71 3e 37 ef f5 3e 00 d8 e9 3d
       -0.63808185 0.23599258 0.4803407 0.11418152
0000c0 76 f1 75 be 77 23 c6 bd c0 85 38 bb 9f 92 11 bb
       -0.24017891 -0.09674733 -0.0028155893 -0.0022212637
0000d0 cd db 88 ba 65 73 a0 3a 28 c0 2c bb fb 6a 38 3a
       -0.0010441482 0.0012241422 -0.0026359651 0.00070349843
0000e0 94 29 76 39 7a 7f 15 3b b6 01 96 3a 94 7d 10 bb
       0.00023475877 0.0022811578 0.0011444602 -0.0022047507
0000f0 0e e5 4c bb 24 08 02 39 45 f1 39 b9 d0 08 8a 3a
       -0.0031264457 0.00012400799 -0.00017732855 0.0010531191
000100 44 89 8e 3a 2c 40 44 bb e4 00 1e bb 0f 00 f1 3a
       0.0010874649 -0.0029945476 -0.0024109418 0.0018386858
000110 a2 74 f2 b9 3a 94 ef 38 89 73 c0 3a 85 21 f2 b9
       -0.00046244735 0.000114240174 0.001468287 -0.0004618281
000120 c9 a1 0c bb 73 ba da ba a3 cb 93 ba 7d 8b 0d bc
       -0.0021458736 -0.0016687646 -0.0011275898 -0.008639214
000130 01 a7 bb bb a0 f4 c8 bb 68 84 0f bb fc aa bc ba
       -0.0057266955 -0.006132677 -0.0021898989 -0.0014394219
000140 e1 0a 95 bb 65 a1 17 bc f5 4a c6 bb 47 59 52 ba
       -0.004548416 -0.009254788 -0.006051416 -0.00080241676
000150 dd 75 3d 3b fe 39 56 3b 1c 53 86 3a 68 40 94 bb
       0.0028909363 0.0032688375 0.0010248157 -0.0045242794
000160 02 b8 a4 bb 04 cd 8a b9 f2 c0 ff 3a 9f 38 3b bb
       -0.0050268183 -0.0002647416 0.0019512458 -0.0028567684
000170 78 dd 11 bc 43 c4 33 bb 80 3b 2a bb f9 fd cd b9
       -0.0089029 -0.0027430214 -0.0025975406 -0.0003928987
000180 31 85 74 bb 1a 0e 3f bb 61 ab 83 ba 1a 45 09 bb
       -0.0037310834 -0.0029152692 -0.0010045582 -0.0020945729
000190 e5 40 81 3d 97 f8 65 be f2 a8 3c be dc ab 83 3c
       0.06311206 -0.22458111 -0.18423823 0.01607316
0001a0 a2 ab 0b bd 0e 3e 04 3e 74 1f 22 bf fc d9 76 bf
       -0.03409923 0.12914297 -0.63329244 -0.9642637
0001b0 14 7c a6 bd 39 bf 06 3e c4 40 6f bd 66 ee 73 bd
       -0.08129135 0.13158883 -0.058411375 -0.059553526
0001c0 8a 8e 9e be 3a 08 0b 3f 46 ef 94 3d f8 85 84 bd
       -0.30968124 0.5430943 0.072722 -0.06470865
0001d0 74 64 74 3d 56 16 34 3f 68 92 2c 3f 89 77 9d bd
       0.059666112 0.7034658 0.674109 -0.07688815
0001e0 b3 25 85 bd 22 33 e2 bb 13 8b 46 3e 17 04 6d 3e
       -0.06501331 -0.006903068 0.1938899 0.23146091
0001f0 87 bb da 3b b9 94 ae 3d a7 91 77 bd df 2b 73 bd
       0.006675187 0.0852446 -0.06044164 -0.05936801
000200 d7 1e 4f be 9f 3a a8 3d b7 f3 2f be be ba 15 bf
       -0.20226608 0.08214306 -0.17182814 -0.5848807
000210 72 d0 7f bf b4 2c 39 bf 9d 10 48 be 2f c8 3f 3c
       -0.9992744 -0.72333837 -0.19537587 0.011705442
000220 33 d4 a2 3e 8f c1 40 3f ed 6e 69 3e 35 d6 47 3e
       0.3180252 0.75295347 0.22796221 0.19515307
000230 47 19 4e 3c b2 7c aa 3e b1 d7 16 3f 85 e1 9a 3e
       0.012579269 0.3329826 0.5892287 0.30250183
000240 82 2b c0 3c 4b ba 53 bd 3a 38 a4 3d 52 66 72 bd
       0.023458246 -0.051691335 0.08018537 -0.05917961
000250 08 26 d2 bd 0f 72 c9 3d 83 87 e7 3d 9d 74 81 3e
       -0.1026116 0.09836208 0.11305144 0.2528428
000260 1b ae 0d 3b 47 7e fd be 0a 70 9a be 35 37 08 3f
       0.0021618668 -0.49510404 -0.30163604 0.5320924
000270 03 1a 19 3f c9 b1 0a bd 15 29 23 bf d8 6d 35 be
       0.59805316 -0.033860955 -0.6373456 -0.17717683
000280 96 53 3d 3e cb ff 42 be 0a a3 e8 bc b6 9f 23 3e
       0.18488917 -0.1904289 -0.028398056 0.15978894
000290 83 b3 84 3e 22 6e 0c be 3f 73 10 bf de 51 90 be
       0.25918207 -0.13713887 -0.5642585 -0.2818746
0002a0 0e 69 10 3f 77 f3 2b 3f 68 b6 45 be ec f8 03 bf
       0.564103 0.6716837 -0.19307864 -0.515517
0002b0 73 b1 ec bd 66 ec 9b 3d f8 4a 47 3e 0d e9 44 3d
       -0.11557283 0.07613449 0.19462192 0.048073817
0002c0 30 fa 82 bd 8e b1 29 3c f3 11 11 3e 20 98 5f bc
       -0.06395376 0.010357274 0.14167003 -0.013647109
0002d0 d9 0b e3 bd 69 38 0f 3d 92 e5 f0 3e 00 b3 3f 3f
       -0.11086244 0.034965906 0.47050148 0.7488251
0002e0 07 4b 9e 3d 2d 75 4f bc 20 7e cd bd 52 b5 62 bd
       0.07729154 -0.012662214 -0.10033822 -0.0553487
0002f0 3f b5 2d 3f 43 44 6a 3e 11 44 b3 bd 0d f6 54 bf
       0.67854685 0.22877602 -0.08753217 -0.83187944
000300 11 55 60 bf 00 5d dc bd a7 ee 77 3d 4f 93 0d 3d
       -0.876298 -0.10759926 0.06053033 0.034564313
000310 63 4f 82 bd c7 63 59 be ac be 90 bd 0c 55 ca bc
       -0.06362798 -0.21229468 -0.07067618 -0.024698757
000320 6a 6f df bd ad 75 cb be f5 5d cf 3b 6c ca bf be
       -0.109099224 -0.39738217 0.006328339 -0.37459123
000330 2e e3 b7 be ba 53 11 be 0d 2d f4 3d f9 34 40 3f
       -0.35915512 -0.14192095 0.11922655 0.7508083
000340 6e ff bc 3e df 83 4a be 5d 76 80 be 86 86 d4 3d
       0.36913627 -0.19776867 -0.25090304 0.10377221
000350 f6 9a 35 3f d4 f9 81 3c 8c f6 10 be 41 f4 d5 bd
       0.70939577 0.015866198 -0.1415655 -0.10446978
000360 ff 83 82 3e 61 be 34 3f 59 b0 f4 3e 90 47 c6 bd
       0.2549133 0.70602995 0.47790793 -0.09681618
000370 40 a6 32 be 06 4f 9b be e1 99 62 be af 8f e0 be
       -0.17446232 -0.30333728 -0.22129013 -0.43859622
000380 30 e6 5b be 68 40 e3 3d f7 4a 2d 3e 92 9f a1 3e
       -0.21474528 0.11096269 0.16923128 0.31567055
000390 04 84 c6 3e 01 36 b5 be d8 4f 00 bd 2c ac c7 3e
       0.38772595 -0.35392764 -0.031326145 0.38998544
0003a0 27 f5 34 3e 1a 39 38 bf 19 e2 1e bf 5d c3 64 be
       0.17671643 -0.7196213 -0.6206375 -0.2234015
0003b0 bb 2a ce bd 8b 82 e1 3e c7 f9 35 bd 8e 4c 55 3e
       -0.10066744 0.4404491 -0.04442766 0.20829985
0003c0 57 2b 5b bf 34 e6 c9 bd b8 5b 81 bd bb d9 40 3e
       -0.85613006 -0.09858361 -0.06316322 0.18833058
0003d0 8f c4 92 3e 06 7d b0 bd 68 33 6d 3e 91 5a 7d b9
       0.28665587 -0.08617596 0.23164141 -0.00024161699
0003e0 01 e4 09 be 4d e7 1b be 9f 7d 36 bb 88 09 1d bb
       -0.13465883 -0.15224953 -0.0027845872 -0.002396198
0003f0 f5 a4 0e 3b ae e4 33 bb 88 01 02 bb 07 d9 12 ba
       0.0021765803 -0.0027449536 -0.0019837338 -0.00056017976

model.0.bias f4 [32]
000000 88 7b d2 3c e5 23 0e 3c 3e fe 60 bb 69 bf ba bb
       0.02569367 0.00867555 -0.0034331228 -0.0056990874
000010 9c c4 33 bc ef 77 ee bc 0c 55 05 3c fa eb a7 bc
       -0.010972168 -0.029109923 0.008137953 -0.020498265
000020 9d 29 ef bc 5d db 49 3d b5 b0 10 bb d3 c7 3b bd
       -0.029194647 0.049281467 -0.0022077982 -0.045844864
000030 cf 11 c3 3d 0f c1 b5 3d 12 9f 28 3e 07 7d 10 bd
       0.09524881 0.08874714 0.1646693 -0.035275485
000040 b5 ea 81 bb e1 b0 1b bc 56 ed 84 bd 44 23 28 bc
       -0.003964747 -0.00950262 -0.06490581 -0.010262314
000050 54 ec bf 3d db d9 15 bc 7d 07 18 bd 1e 19 29 bb
       0.09371248 -0.009146179 -0.037116516 -0.0025802325
000060 f7 fc ac bd 3f ae dc 3d f9 46 3b bb 8a 5e 99 bc
       -0.08446687 0.10775422 -0.0028576239 -0.018721838
000070 3f be a6 bb f9 2f 48 bb 83 c7 3c bd 75 1c 87 bb
       -0.005088597 -0.0030546172 -0.046088707 -0.0041232654

model.2.weight f4 [16, 32]
000000 8d 29 dc 3e 56 96 d3 3e 01 5c f6 37 7b 31 57 bb
       0.4300045 0.41325635 2.9368328e-05 -0.003283589
000010 62 c0 8b 3e 99 5d c0 bf 76 00 c5 3c 32 10 b4 3e
       0.27295214 -1.5028564 0.024048071 0.35168606
000020 ef c7 5a be 7b 9a 8b be d8 77 2a 3b b3 7a f5 be
       -0.21365331 -0.27266297 0.0026011374 -0.47945175
000030 19 ec 1f bf 0b d0 19 c0 a1 eb d5 3e 0a 14 3d 3e
       -0.6246963 -2.403323 0.41781333 0.18464676
000040 5b 6a 90 3a 82 29 06 3b ad 55 5b bf c7 f5 c6 3b
       0.0011018025 0.0020471518 -0.85677606 0.0060717794
000050 b1 36 bf be 20 11 1b 3c 9a 98 3a 3f 56 d2 b6 bb
       -0.37346414 0.009464532 0.728891 -0.005579273
000060 77 89 6b 3f 02 7e b1 3e 3a 18 b1 ba fc d2 02 bf
       0.9200663 0.3466645 -0.0013511248 -0.51103187
000070 06 a6 1a bb 4e e6 96 ba 2e 3c 56 be eb cd e8 ba
       -0.0023597493 -0.0011512728 -0.20921394 -0.0017761564
000080 fd 48 ab be 6c dc 70 be 91 15 20 3a 40 25 e0 ba
       -0.33454123 -0.23521584 0.0006106729 -0.0017100945
000090 5e 73 fb 3e fa 6e d5 3e 8c 6e 26 bf 37 ef c4 3e
       0.49111456 0.4168623 -0.6501243 0.38463756
0000a0 d3 6d f1 be 9f c5 83 bd 6d 7a 6b bb 20 39 47 3e
       -0.47154102 -0.064341776 -0.0035931126 0.19455385
0000b0 14 aa c7 3d f6 c5 e3 bf d1 f1 6d 3e 0b eb de be
       0.09749237 -1.7794788 0.23236777 -0.435387
0000c0 64 5f 81 3a 71 a6 ba ba 0a 47 23 3e 5b a8 6c bb
       0.0009870348 -0.0014240277 0.15945068 -0.003611109
0000d0 fb 13 a3 bf 1c 63 60 3a d5 b0 6e 3e 65 d8 4c b8
       -1.2740473 0.00085596903 0.23309644 -4.8838923e-05
0000e0 a2 72 fb be a2 ce 87 3e e9 4c fc 3b fa 25 16 bb
       -0.49110895 0.26524836 0.007699598 -0.002291082
0000f0 bb ee d6 ba 33 81 ea ba d1 bb 3a bf e1 05 7a bb
       -0.0016398052 -0.0017891288 -0.72942835 -0.0038150477
000100 00 0f 8d bf 9c 75 7d 3f f3 04 8f ba c2 f7 e8 bb
       -1.1020203 0.9900758 -0.0010911509 -0.007109613
000110 47 bc 10 bf 61 f7 98 bd e5 42 ff 3e 15 b8 d5 be
       -0.5653729 -0.07469059 0.49855724 -0.41742006
000120 9d 91 79 bf f3 a5 f8 3e c4 27 8c 3a bf ba 09 bf
       -0.97487813 0.4856411 0.0010693003 -0.53800577
000130 04 92 81 3e ab e8 e5 3e 05 64 b8 3d fa d1 06 3e
       0.25306714 0.44904074 0.09003452 0.13166037
000140 2c df 1c bb a1 8a d4 ba 3d 45 ea 3d 0b 4c 8b bb
       -0.0023936732 -0.0016215631 0.114389874 -0.0042510084
000150 80 19 c0 3d 4f 1c d3 ba a8 08 50 be 43 69 5a bb
       0.09379864 -0.0016106459 -0.20315802 -0.00333269
000160 e8 7f b9 be 96 03 9b 3e b8 9a f5 3b 1a 11 87 be
       -0.36230397 0.30276173 0.0074952506 -0.26380235
000170 aa b0 62 bb aa 1e 86 bb b3 42 62 bd f7 77 d1 ba
       -0.0034590163 -0.004093011 -0.05523939 -0.0015981187
000180 94 f1 82 bf f5 12 80 3f d9 77 2b bb 7f e0 9c ba
       -1.0229974 1.0005785 -0.0026163964 -0.001196876
000190 73 d3 3f bf 57 23 0f be 86 37 45 3f c1 a9 09 bf
       -0.7493202 -0.13978325 0.7703785 -0.5377465
0001a0 e2 e3 8c bf d6 41 a7 bd ab 6f 9b 3a 7c 8e 5d be
       -1.1007044 -0.08166854 0.0011858841 -0.21636385
0001b0 db fd b4 3e dc 3f 5e be 87 bc 98 3e d4 3e 6f bd
       0.35349926 -0.21704048 0.29831335 -0.058409527
0001c0 1d 9f 93 3a 6f cd 9c 3b 93 ed 8c be b1 5c 62 3a
       0.0011262629 0.004785232 -0.27525005 0.0008635028
0001d0 a7 a5 7a bf b5 28 10 bc 6c 2d 6c bd 1a 14 e3 b9
       -0.97909015 -0.008798768 -0.057660505 -0.0004331179
0001e0 fc 47 1d bf 11 dc 66 bd b2 7b e2 3b 0e be dd bd
       -0.61437964 -0.056362215 0.0069117183 -0.10827266
0001f0 94 71 79 b9 27 88 b3 3a 1e 12 90 3d ce e5 eb ba
       -0.00023788802 0.0013697193 0.070347056 -0.0017997564
000200 9d 53 e1 bf 61 33 da 3e ae ac 4d 3a 95 25 2c bb
       -1.7603642 0.42617324 0.00078458607 -0.0026267518
000210 23 1a 0b 3c f0 a4 10 bf b7 2c 3f 3f d2 a4 0e bf
       0.008490118 -0.56501675 0.74677604 -0.55720246
000220 74 89 6f 3d 2c ac 44 3e 3b 74 4b 3a 18 ba 64 be
       0.058480695 0.19206303 0.0007761155 -0.22336614
000230 1c 9d 63 be ef b9 90 3f bb db 88 3e 02 25 f8 be
       -0.22227901 1.1306742 0.2673014 -0.48465735
000240 48 d1 cd ba 61 6b 41 3b 48 9d d9 be 1d ac 01 3c
       -0.001570263 0.0029513466 -0.4250281 0.00791457
000250 14 5a 73 3e ad ea 96 bb 70 eb ae be e3 18 ea 39
       0.23764831 -0.0046056123 -0.34164 0.000446505
000260 d4 65 3f bc a3 3c ae bd 97 d4 1a ba b1 c5 4f 3e
       -0.011681993 -0.08507659 -0.0005906312 0.20290257
000270 76 07 e8 3a 4f ce 62 b9 da 63 b6 3e bd 1b b1 b9
       0.0017702419 -0.00021629895 0.35623056 -0.00033780737
000280 64 b3 5d 3f a0 18 0b bf f7 25 cb 3a 45 36 dd ba
       0.86601853 -0.5433445 0.0015498985 -0.0016877135
000290 cf 3c 03 bf 95 8e 3c bf d2 e3 d7 be fb d3 55 bf
       -0.5126466 -0.7365506 -0.42166 -0.8352658
0002a0 82 ef 2c 3f f6 d6 69 be 1c ff 2e ba ae 6d 06 3f
       0.6755296 -0.22835907 -0.00066755875 0.5251111
0002b0 e5 9e f9 3e 31 0a 6c be a8 2b 44 3e 35 62 08 bf
       0.4875404 -0.23050763 0.19157279 -0.5327485
0002c0 ab 0e 9b 39 ef b2 01 bb 19 03 03 bf 1a 24 2d bc
       0.00029574832 -0.001979049 -0.511766 -0.010567689
0002d0 58 dc c4 3e 8d d9 4e bc 97 f7 8f bf a3 ec 4a bb
       0.3844936 -0.01262511 -1.1247433 -0.00309638
0002e0 91 86 04 3f ac 83 b9 3e 9d 7c 9e bb 0e 53 2d 3f
       0.5176783 0.3623327 -0.0048366324 0.67704856
0002f0 1e b2 29 3a ef ad 50 ba 20 09 91 3e 1b 2d 77 3a
       0.000647338 -0.00079604884 0.28327274 0.00094290235
000300 2b 2e e4 be ef b0 5d bf cf b3 0c 39 50 2a 16 bb
       -0.44566473 -0.86598104 0.00013418424 -0.0022913404
000310 d9 b0 b6 bf a3 3c aa bf b8 eb a1 bf 04 af 01 c0
       -1.427272 -1.3299755 -1.2650061 -2.026307
000320 2b c6 4d bd 28 03 2d bd 1f e5 b6 b9 66 e1 5b bf
       -0.050237816 -0.04223934 -0.00034884454 -0.85890806
000330 dd d4 ee 3e 22 a2 bd 3e 9f c9 50 3e ca dc 07 be
       0.46646777 0.3703776 0.20389412 -0.13267818
000340 02 f0 11 3b 0a f7 86 3b 6c 86 ac 3e 2e e6 72 ba
       0.00222683 0.004118805 0.33696306 -0.0009265867
000350 47 c6 1e bf 8b d5 57 bc 66 c7 c8 bf 6a 27 b5 ba
       -0.620213 -0.013173471 -1.5685852 -0.001382095
000360 53 21 8c be 44 70 ee 3e db 13 bb 3b 93 35 fa be
       -0.27369174 0.46570027 0.005709154 -0.48869
000370 63 31 d3 3a 84 e6 e9 ba 7d d5 38 bf 40 ee 72 ba
       0.0016112741 -0.0017845188 -0.7220076 -0.00092670694
000380 e1 be fe 3d 51 ef 58 be f3 de 25 3a 72 a5 cf 3a
       0.12438751 -0.21185042 0.00063274725 0.0015842153
000390 a4 d2 f3 be 3d 7c 85 be 1c 26 57 3f da 04 54 be
       -0.47621644 -0.2607135 0.84042525 -0.20704976
0003a0 65 0a de be c3 ca d1 3e da 94 da ba 95 c8 19 bf
       -0.43367305 0.40975007 -0.0016676441 -0.6007169
0003b0 d7 4b b0 3e a1 4c 48 3f 81 64 a5 be 08 f4 0d bf
       0.3443286 0.78241926 -0.3230324 -0.5545049
0003c0 19 31 d9 b7 39 be c5 3b 89 ef c4 be 4c 58 b6 ba
       -2.5891279e-05 0.006034639 -0.38464 -0.0013911813
0003d0 d1 e5 16 c0 2f 6a 35 bb 3e 82 55 be ed bd 4b 3a
       -2.3577769 -0.0027681699 -0.20850465 0.00077721366
0003e0 e0 54 a1 3d 3d 1d 89 be 1f ed 39 3a 5b d6 b7 be
       0.07877517 -0.2678012 0.0007092524 -0.35905728
0003f0 64 31 ec 3a 65 64 41 ba 70 e7 86 3f ab 7e 8c ba
       0.0018020091 -0.00073773257 1.0539379 -0.0010718902

model.2.bias f4 [16]
000000 c1 e7 25 3e a5 f9 aa 3e 18 63 76 3e 38 9d 86 3e
       0.16201688 0.3339359 0.24061239 0.26291823
000010 0e c0 5d 3e 39 f0 6b 3e f4 85 4f 3f d2 50 96 3e
       0.21655294 0.23040856 0.8106377 0.29358536
000020 8b 79 78 bd a4 47 bc bb aa 01 ca bb 60 33 b3 3e
       -0.060662787 -0.005745845 -0.006164749 0.35000134
000030 88 cf 27 3e 34 3d c0 3e c9 c5 a0 3e 6c e8 93 3d
       0.1638776 0.37546694 0.31400898 0.07222065

model.4.weight f4 [3, 16]
000000 8f 9b b3 3f 7f 09 8f 3f 8f b1 14 c0 2f aa 4b c0
       1.4031848 1.1174773 -2.3233373 -3.1822622
000010 3b 02 d2 bf 39 fc 6a c0 b9 e8 be c0 b4 fc 20 c0
       -1.6406931 -3.6716444 -5.9659085 -2.5154238
000020 3b 96 6a bf 52 21 9e b9 4b a0 2f 3a c4 04 ca 3f
       -0.91635484 -0.00030160934 0.0006699606 1.5782704
000030 fe 6a 9c 3e 60 bf 08 40 6c f6 60 3f 32 15 d8 bf
       0.3055038 2.1366806 0.8787601 -1.6881468
000040 37 10 b3 bf 98 8f 04 c0 8f 1d a6 be 22 eb 05 be
       -1.3989323 -2.0712643 -0.32444426 -0.13077977
000050 88 f1 9e 3e 0a 84 3b 40 65 c6 b9 40 c0 f8 e3 bd
       0.3104365 2.929934 5.805468 -0.1113143
000060 86 1e 82 be 7f 81 10 bc ea b0 67 ba a9 6d 2c 3f
       -0.25413913 -0.008819937 -0.0008838313 0.6735483
000070 11 89 70 c0 37 85 ac bf b9 ae 39 c0 c0 e2 a7 3f
       -3.7583659 -1.3478154 -2.9012892 1.3116074
000080 10 c6 3d bf df 7f db be 85 75 03 40 be d1 24 40
       -0.74130344 -0.42870995 2.0540478 2.5753016
000090 a0 21 90 3f 43 ec 70 bf 69 b3 76 c0 d0 7d fa 3f
       1.1260262 -0.94110507 -3.8547003 1.9569645
0000a0 0b f7 5a 3f 0a ce 8b bb c5 5a 13 3b 03 e6 1e c0
       0.8553321 -0.004266505 0.0022484523 -2.4827888
0000b0 34 63 4e 3f df 30 d0 bf 05 84 16 3e 18 16 64 be
       0.8062012 -1.6264914 0.14698799 -0.22274053

model.4.bias f4 [3]
000000 8d 83 94 3e 52 fb 1e 3e 41 91 c2 be
       0.29006615 0.15525559 -0.38001445

exp_avg f4 [32, 25]
000000 61 52 26 bc e4 f9 54 bc d3 56 45 bc a8 5a eb bb
       -0.010151477 -0.012999032 -0.012044626 -0.007182438
000010 58 04 da bb aa 81 13 bc 14 43 5a bc ed d7 38 bc
       -0.00665335 -0.009003082 -0.013321657 -0.0112819495
000020 5d e0 79 3a 5f 9e dc 3b 76 48 13 bc 2a 3a b9 bb
       0.0009532029 0.0067327465 -0.008989444 -0.0056526856
000030 36 07 0c b8 39 a8 8c 3a 80 c4 23 bb 0c f7 79 bb
       -3.3385317e-05 0.0010731287 -0.002498895 -0.0038141636
000040 8a 20 4e bb 32 43 23 bb 0b 26 44 bb 2a 37 16 bb
       -0.00314525 -0.0024911878 -0.0029929902 -0.0022921064
000050 78 55 4f bb 30 2e 4e bb c4 31 21 bb 52 ea 28 bb
       -0.0031636637 -0.0031460635 -0.0024596313 -0.0025774431
000060 66 78 4a bb ec ed 15 bd 9b 9c 13 bd 31 2d 1d bd
       -0.0030894517 -0.036603853 -0.036038022 -0.038373176
000070 43 9c 44 bd 9d 30 47 bd 96 71 13 bd 9e 77 0d bd
       -0.048000585 -0.048630346 -0.035996996 -0.034537904
000080 f9 38 1a bd 47 a4 47 bd 85 4e 62 bd d6 f7 03 bd
       -0.03765199 -0.04874065 -0.055250663 -0.032218777
000090 6b c9 0d bd 66 ea 1e bd fa b7 41 bd 55 74 3f bd
       -0.034615915 -0.03879776 -0.047294594 -0.046741802
0000a0 fb e7 08 bd 2b 4d 08 bd a2 28 06 bd 0b c2 0d bd
       -0.03342436 -0.033276718 -0.032753594 -0.034608882
0000b0 56 80 28 bd 6c ab 06 bd df e2 07 bd 8a 32 02 bd
       -0.041138016 -0.032878324 -0.033175346 -0.03178648
0000c0 2f f4 10 bd ec 84 14 bd 04 00 00 00 04 00 00 00
       -0.03538912 -0.036259577 6e-45 6e-45
0000d0 04 00 00 00 04 00 00 00 04 00 00 00 04 00 00 00
       6e-45 6e-45 6e-45 6e-45
0000e0 04 00 00 00 04 00 00 00 04 00 00 00 04 00 00 00
       6e-45 6e-45 6e-45 6e-45
0000f0 04 00 00 00 04 00 00 00 04 00 00 00 04 00 00 00
       6e-45 6e-45 6e-45 6e-45
000100 04 00 00 00 04 00 00 00 04 00 00 00 04 00 00 00
       6e-45 6e-45 6e-45 6e-45
000110 04 00 00 00 04 00 00 00 04 00 00 00 04 00 00 00
       6e-45 6e-45 6e-45 6e-45
000120 04 00 00 00 04 00 00 00 04 00 00 00 04 00 00 00
       6e-45 6e-45 6e-45 6e-45
000130 04 00 00 80 04 00 00 00 04 00 00 00 04 00 00 00
       -6e-45 6e-45 6e-45 6e-45
000140 04 00 00 00 04 00 00 00 04 00 00 00 04 00 00 00
       6e-45 6e-45 6e-45 6e-45
000150 04 00 00 00 04 00 00 00 04 00 00 00 04 00 00 00
       6e-45 6e-45 6e-45 6e-45
000160 04 00 00 00 04 00 00 00 04 00 00 00 04 00 00 00
       6e-45 6e-45 6e-45 6e-45
000170 04 00 00 00 04 00 00 00 04 00 00 00 04 00 00 00
       6e-45 6e-45 6e-45 6e-45
000180 04 00 00 00 04 00 00 00 04 00 00 00 04 00 00 00
       6e-45 6e-45 6e-45 6e-45
000190 cd 62 15 3d 44 26 17 3d 84 2e 07 3d 1a 0d 1e 3d
       0.036471177 0.036901727 0.033003345 0.038586713
0001a0 4d a9 22 3d b7 7d 10 3d 22 f8 17 3d d5 39 11 3d
       0.03971224 0.03527614 0.037101872 0.035455544
0001b0 11 da 21 3d f3 53 37 3d 85 6c 0e 3d 96 cc 0f 3d
       0.039514605 0.044757795 0.03477146 0.035107218
0001c0 02 c6 1b 3d 22 a3 47 3d af ca 4b 3d 1c 79 12 3d
       0.03803063 0.04873956 0.04975384 0.03576003
0001d0 97 cf 10 3d 27 a8 13 3d c6 8c 27 3d 22 f1 3f 3d
       0.035354223 0.036049034 0.040905736 0.04686082
0001e0 66 c3 10 3d c3 37 11 3d 97 59 13 3d 64 03 2c 3d
       0.035342596 0.03545357 0.03597411 0.04199542
0001f0 fc 20 32 3d 13 6f ba 3b 96 ec bf 3b 75 96 93 3b
       0.043488488 0.0056895106 0.0058570607 0.00450402
000200 ca 34 7e 3b cb 6c 5a 3b 76 da b2 3b bf 1d b2 3b
       0.003878879 0.0033329006 0.0054581715 0.005435675
000210 f3 ef 95 3b f0 66 47 3b 0e e4 e2 3a 4b 10 5a 3b
       0.0045757233 0.0030426346 0.0017310397 0.0033273872
000220 58 fb 65 3b 96 35 9b 3b 0a eb 2d 3c 4d f6 31 3c
       0.003509244 0.0047366126 0.01061512 0.010861945
000230 77 41 55 3b ab 3c 95 3b 31 78 2e 3c 20 66 36 3c
       0.003254024 0.0045543513 0.010648773 0.011132747
000240 3c 07 30 3c ac 96 31 3b e8 f8 9d 3b e6 c5 2f 3c
       0.010743912 0.0027097864 0.0048209317 0.010728335
000250 04 c7 3d 3c ac 71 37 3c b9 e0 07 bd f6 b7 0d bd
       0.011583094 0.011196535 -0.033173297 -0.034599267
000260 f6 aa f1 bc 83 df 4a bd 8c 49 68 bd 23 1e ed bc
       -0.029500466 -0.049529564 -0.056710765 -0.028945034
000270 1d c7 00 bd 9a 41 01 bd 2f 6e 64 bd 39 47 9b bd
       -0.03143989 -0.031556703 -0.05576914 -0.07581944
000280 9c 5f d8 bc c7 97 dd bc 46 07 32 bd 18 4f ac bd
       -0.026412778 -0.027049912 -0.043463968 -0.084135234
000290 0c eb bc bd 6b 50 0b bd f4 bd 1d bd cb c5 4b bd
       -0.09224519 -0.03401224 -0.03851123 -0.049749177
0002a0 af 0d 8e bd 27 32 b5 bd 07 83 0e bd 81 b1 1d bd
       -0.06936204 -0.088474564 -0.034792926 -0.03849936
0002b0 18 ca 48 bd 86 dd 83 bd 77 2b a3 bd 09 9f a0 3c
       -0.049020857 -0.064387366 -0.07967275 0.019607084
0002c0 a0 07 89 3c 20 54 70 3c 32 61 bc 3c 20 f5 df 3c
       0.016727269 0.014668494 0.022995565 0.027338564
0002d0 47 7e c4 3c f2 d4 9b 3c f3 fa 8a 3c a3 7f e2 3c
       0.023985995 0.019022439 0.016965365 0.027648753
0002e0 2f 61 1b 3d 92 36 c0 3c 92 1b 96 3c 43 7e cb 3c
       0.03793448 0.023463521 0.018323693 0.02484048
0002f0 75 b0 13 3d dd 8c 17 3d 91 d4 b9 3c 9d 2d bf 3c
       0.036056954 0.036999572 0.022684367 0.02333718
000300 7d e2 a2 3c ed a7 ef 3c 9e 11 09 3d 2d 48 c3 3c
       0.019883389 0.029254878 0.033464067 0.023838127
000310 91 5c bd 3c a7 7d 9d 3c cd 9a c4 3c 3c 11 01 3d
       0.023115428 0.019224955 0.023999596 0.031510577
000320 17 32 7d bb a0 4c 97 bb 49 11 88 ba ad 94 bf 3b
       -0.0038634592 -0.0046172887 -0.0010381128 0.005846581
000330 3b 4f e6 3b 9a 92 9b bb f0 9b be bb e5 6d 06 bb
       0.007028488 -0.004747701 -0.005816929 -0.002051228
000340 7a fc 2c 3b 94 98 45 3b 39 14 16 bc 6b 88 05 bc
       0.0026395605 0.0030150758 -0.009160095 -0.0081502
000350 56 2e 97 bb 21 64 f3 3a 0b 9c 83 3b 86 dd 8d ba
       -0.004613678 0.001856927 0.0040164045 -0.0010823465
000360 68 d3 01 bb 19 66 19 38 40 c5 99 b9 b6 19 79 ba
       -0.0019809846 3.657313e-05 -0.00029329397 -0.00095024274
000370 09 45 aa ba c0 f6 8c ba d6 60 c7 39 da 7e 6d 3a
       -0.0012990545 -0.001075469 0.00038028386 0.0009059735
000380 d2 af 2c ba 86 fb 5f 3b 1c 37 c1 3b 7a 21 ec 3b
       -0.00065874786 0.003417702 0.005896462 0.007206139
000390 a7 bb d4 3b 70 1e b8 3b f2 bb 2a b9 19 3f af 3b
       0.0064920965 0.005618863 -0.00016282478 0.005348098
0003a0 97 5c ed 3b a7 5f 5a 3b 46 26 e7 39 5c 85 5d ba
       0.0072437036 0.0033321173 0.0004408827 -0.0008450353
0003b0 85 b6 ac 39 cb b6 7b b9 58 ca e5 ba c6 70 ff ba
       0.00032942384 -0.00024005321 -0.0017531617 -0.0019488565
0003c0 bb 09 c6 ba 70 70 f9 ba 3a e7 d8 ba 6f ba 25 bb
       -0.0015109101 -0.0019030701 -0.0016548403 -0.0025288125
0003d0 23 a2 23 bb 81 70 fb ba 57 7b f9 ba 37 5a db ba
       -0.0024968467 -0.0019183309 -0.001903395 -0.001673526
0003e0 8f 79 21 bb 60 f5 3d bb 00 00 00 00 00 00 00 00
       -0.0024639105 -0.0028985366 0.0 0.0
0003f0 00 00 00 00 00 00 00 00 00 00 00 00 04 00 00 00
       0.0 0.0 0.0 6e-45

exp_avg_sq f4 [32, 25]
000000 3c df bf 3c df 2b bd 3c 24 95 bc 3c d5 24 b7 3c
       0.023421876 0.023092208 0.023020335 0.02235643
000010 0d c7 b5 3c 33 da c2 3c 87 31 b6 3c 1b 22 a3 3c
       0.022189641 0.023785686 0.022240413 0.019913724
000020 99 32 aa 3c 1a b4 b0 3c 33 74 bd 3c 9d 79 a7 3c
       0.02077608 0.021570254 0.023126697 0.020443732
000030 d7 94 80 3c 99 ab 90 3c 37 7e a4 3c 2b 66 b5 3c
       0.015695972 0.01765995 0.020079715 0.022143444
000040 c5 5e a3 3c 3c 86 8d 3c eb 03 97 3c ce 6d a7 3c
       0.01994265 0.017275922 0.018434485 0.020438101
000050 2c c8 ac 3c 04 b1 a1 3c 7d 13 97 3c 45 53 99 3c
       0.021091543 0.019737728 0.01844191 0.018716464
000060 43 a9 a0 3c 17 7e a2 3c b5 c5 a8 3c ec a9 c2 3c
       0.01961196 0.019835515 0.020602087 0.023762666
000070 61 98 dc 3c 4b 0e e9 3c f2 8c a6 3c 70 2f a4 3c
       0.026928129 0.028449198 0.02033088 0.020042151
000080 20 8e bc 3c fe 9f e4 3c 3c 85 f8 3c 39 ac ca 3c
       0.02301699 0.027908321 0.030336969 0.024740325
000090 1f 6f cb 3c 53 81 c9 3c 58 ce e3 3c d8 d3 e5 3c
       0.02483326 0.0245978 0.027808353 0.028055117
0000a0 b3 55 d4 3c be 1f d4 3c 39 8a bf 3c 50 6c a8 3c
       0.02591977 0.025894042 0.02338134 0.02055946
0000b0 e6 03 ae 3c 91 2e d8 3c 91 5a d7 3c 63 01 c3 3c
       0.021242093 0.026389392 0.026288303 0.023804372
0000c0 38 89 ab 3c 76 e1 a8 3c f4 01 00 00 f4 01 00 00
       0.020939454 0.02061532 7e-43 7e-43
0000d0 f4 01 00 00 f4 01 00 00 f4 01 00 00 f4 01 00 00
       7e-43 7e-43 7e-43 7e-43
0000e0 f4 01 00 00 f4 01 00 00 f4 01 00 00 f4 01 00 00
       7e-43 7e-43 7e-43 7e-43
0000f0 f4 01 00 00 f4 01 00 00 f4 01 00 00 f4 01 00 00
       7e-43 7e-43 7e-43 7e-43
000100 f4 01 00 00 f4 01 00 00 f4 01 00 00 f4 01 00 00
       7e-43 7e-43 7e-43 7e-43
000110 f4 01 00 00 f4 01 00 00 f4 01 00 00 f4 01 00 00
       7e-43 7e-43 7e-43 7e-43
000120 f4 01 00 00 f4 01 00 00 f4 01 00 00 f4 01 00 00
       7e-43 7e-43 7e-43 7e-43
000130 f4 01 00 00 f4 01 00 00 f4 01 00 00 f4 01 00 00
       7e-43 7e-43 7e-43 7e-43
000140 f4 01 00 00 f4 01 00 00 f4 01 00 00 f4 01 00 00
       7e-43 7e-43 7e-43 7e-43
000150 f4 01 00 00 f4 01 00 00 f4 01 00 00 f4 01 00 00
       7e-43 7e-43 7e-43 7e-43
000160 f4 01 00 00 f4 01 00 00 f4 01 00 00 f4 01 00 00
       7e-43 7e-43 7e-43 7e-43
000170 f4 01 00 00 f4 01 00 00 f4 01 00 00 f4 01 00 00
       7e-43 7e-43 7e-43 7e-43
000180 f4 01 00 00 f4 01 00 00 f4 01 00 00 f4 01 00 00
       7e-43 7e-43 7e-43 7e-43
000190 be c1 ed 3c 26 ee e3 3c 56 58 ed 3c 24 af 03 3d
       0.029023048 0.027823519 0.028972786 0.03214945
0001a0 e7 32 0b 3d 14 a9 fb 3c 54 c9 ea 3c a2 a0 ef 3c
       0.03398409 0.030720271 0.028660454 0.0292514
0001b0 b6 55 0b 3d 4e 46 19 3d 50 b5 0c 3d d7 dd 0c 3d
       0.034017287 0.037420563 0.0343526 0.03439125
0001c0 24 7c 16 3d 8c 89 2c 3d 08 ec 33 3d 69 ae 11 3d
       0.036739483 0.042123362 0.04392627 0.03556672
0001d0 31 0b 15 3d 0b 50 26 3d 87 73 34 3d f7 44 37 3d
       0.036387626 0.04060368 0.044055488 0.044743504
0001e0 3f 41 15 3d 38 bd 1d 3d 4d f8 29 3d 77 8e 33 3d
       0.036439177 0.03851053 0.041496564 0.043837037
0001f0 f6 94 37 3d 8c e8 02 3c da 15 f4 3b d0 a1 e5 3b
       0.044819795 0.007990014 0.007448894 0.007007815
000200 38 36 e9 3b 41 c7 f1 3b 50 d8 11 3c db d0 00 3c
       0.007117059 0.0073784892 0.008901671 0.007862295
000210 68 e7 ec 3b 1e 56 f4 3b c7 a2 04 3c fd 32 22 3c
       0.007229734 0.007456555 0.00809545 0.009899852
000220 c4 90 23 3c 13 11 24 3c 02 a9 21 3c df cc 24 3c
       0.009983245 0.010013836 0.009866955 0.010058611
000230 6e 5e 26 3c c9 80 2b 3c 93 f2 3b 3c 5f 57 3c 3c
       0.01015435 0.0104677165 0.011471408 0.01149544
000240 9f ca 34 3c 7c 46 30 3c 7c 66 31 3c e2 db 37 3c
       0.011034637 0.010758992 0.010827657 0.011221858
000250 e2 74 3b 3c 68 35 3b 3c bc 47 9f 3d 1e b2 96 3d
       0.011441441 0.011426307 0.07777354 0.07358192
000260 a2 ed 83 3d 39 1a 6a 3d 9e 97 66 3d 6b 9c a6 3d
       0.06441809 0.057153914 0.056296937 0.08135303
000270 8c 50 9b 3d 32 52 81 3d c2 d3 6b 3d 03 99 76 3d
       0.075837225 0.06314506 0.057574995 0.060204517
000280 0a c1 a1 3d 14 61 9c 3d 53 58 91 3d 61 aa 9f 3d
       0.078981474 0.07635704 0.07096925 0.07796169
000290 ba fb a0 3d 85 18 86 3d bb 86 71 3d 08 b1 6f 3d
       0.07860513 0.065476455 0.05896638 0.05851844
0002a0 d2 00 94 3d 3a fe a3 3d 90 37 72 3d b0 b1 62 3d
       0.07226719 0.08007474 0.05913502 0.055345237
0002b0 a9 03 70 3d e1 79 8e 3d f0 6e 9d 3d 6a be 62 3d
       0.05859724 0.0695684 0.07687175 0.055357374
0002c0 f9 5d 6a 3d 5f d2 80 3d 56 15 8d 3d ee af 8e 3d
       0.057218526 0.06290125 0.06888835 0.0696715
0002d0 64 13 5b 3d 56 1c 63 3d 21 51 7d 3d 9b 84 8d 3d
       0.05348529 0.055446945 0.06184495 0.06910058
0002e0 6f 37 90 3d d4 23 50 3d af da 4f 3d 9b 1a 67 3d
       0.07041823 0.05081542 0.050745662 0.056421857
0002f0 65 15 89 3d f1 45 8c 3d 06 23 36 3d 59 94 30 3d
       0.06693534 0.06849278 0.044466995 0.043110225
000300 55 64 3d 3d 6b b9 62 3d ca 25 77 3d 84 a5 26 3d
       0.046238262 0.05535261 0.060338773 0.04068519
000310 fb fc 2c 3d 17 f9 3e 3d df d4 5b 3d b2 be 6d 3d
       0.04223345 0.04662427 0.053669807 0.05804319
000320 c1 1e f4 3c 65 ee f7 3c cb 0d 03 3d 09 29 03 3d
       0.02979982 0.030265043 0.031995576 0.032021556
000330 b5 f2 00 3d 90 6c fa 3c 2d 8c ff 3c 32 bc 0a 3d
       0.031481463 0.030569345 0.03119477 0.033870883
000340 27 10 08 3d 34 33 03 3d 10 ef 0c 3d e8 58 13 3d
       0.03321853 0.032031253 0.034407675 0.03597346
000350 46 cb 29 3d 19 21 17 3d 2a 12 0d 3d d4 26 09 3d
       0.041453622 0.0368968 0.03444115 0.033484295
000360 d6 5d 0a 3d fb a5 0f 3d 63 d3 0a 3d fa 5f 09 3d
       0.033780895 0.0350704 0.033893 0.033538796
000370 10 73 05 3d 45 ed 03 3d ce 59 07 3d 42 32 05 3d
       0.032580435 0.0322087 0.03304463 0.032518633
000380 a7 22 06 3d f4 b9 11 3a 7f 53 12 3a 19 1f 04 3a
       0.03274789 0.000555902 0.00055819 0.00050400343
000390 2b 79 cc 39 6a b3 a1 39 0a ab 14 3a bf 0e 14 3a
       0.0003900019 0.00030841987 0.0005671239 0.00056479493
0003a0 5a f0 fb 39 7e 31 a6 39 85 a5 92 39 ad 09 fc 39
       0.00048053527 0.00031698862 0.00027970612 0.00048072395
0003b0 6e 6f 02 3a ca 24 e2 39 ad 5f 09 3a 54 21 0e 3a
       0.0004975711 0.0004313349 0.0005240392 0.00054218364
0003c0 5e 79 ae 39 29 6a ad 39 cd d6 c4 39 31 7a 10 3a
       0.00033278292 0.00033076227 0.00037544072 0.0005511372
0003d0 70 80 22 3a 46 9b b1 39 00 4f b5 39 23 82 c9 39
       0.0006198948 0.00033875759 0.0003458187 0.00038434667
0003e0 54 88 09 3a ec bc 16 3a 00 00 00 00 00 00 00 00
       0.000524645 0.00057501975 0.0 0.0
0003f0 00 00 00 00 00 00 00 00 00 00 00 00 f4 01 00 00
       0.0 0.0 0.0 7e-43

exp_avg f4 [32]
000000 fd 55 a6 bc 99 29 3e bd 04 00 00 00 04 00 00 00
       -0.020304674 -0.04642639 6e-45 6e-45
000010 19 8f 3a 3d 9b fc 01 3c 76 f2 83 bd 6c 85 9e 3c
       0.045546625 0.007933761 -0.0644273 0.01935073
000020 bc 99 06 bd 2e 92 02 3c 04 00 00 00 5c 2a 41 bd
       -0.032861456 0.007969422 6e-45 -0.047159538
000030 8b 98 17 3c 88 5f 6e bc b2 63 fd 3b cd 81 fe bb
       0.009252678 -0.014549144 0.007732832 -0.0077669383
000040 04 00 00 00 04 00 00 00 0c fd ec 3a 04 00 00 00
       6e-45 6e-45 0.0018080785 6e-45
000050 4c 39 6f 3d 04 00 00 00 4e e2 f7 3b 04 00 00 00
       0.058404252 6e-45 0.0075648194 6e-45
000060 74 3e 23 bc af 0b 5f 3c 04 00 00 00 7d 04 34 3d
       -0.00996362 0.013613625 6e-45 0.043949593
000070 04 00 00 00 04 00 00 00 81 7e 67 bd 04 00 00 00
       6e-45 6e-45 -0.056517128 6e-45

exp_avg_sq f4 [32]
000000 9f d4 68 3d d7 16 72 3d f4 01 00 00 f4 01 00 00
       0.056843396 0.059103813 7e-43 7e-43
000010 10 60 94 3d 40 b1 92 3c 8a 2d 2e 3e eb d6 da 3d
       0.07244885 0.017906785 0.1700956 0.106855236
000020 fa 27 a7 3d 59 8a 02 3b f4 01 00 00 15 52 d8 3c
       0.08161922 0.0019918887 7e-43 0.026406327
000030 d3 22 8b 3a c0 39 32 3c 81 f3 f1 3a 48 c6 96 3b
       0.0010615237 0.0108780265 0.0018459411 0.0046012737
000040 f4 01 00 00 f4 01 00 00 73 61 a5 3a f4 01 00 00
       7e-43 7e-43 0.0012617543 7e-43
000050 c0 34 ee 3d f4 01 00 00 a0 44 ae 3d f4 01 00 00
       0.11631155 7e-43 0.08509183 7e-43
000060 bc cd 90 3c 8c 24 a8 3a f4 01 00 00 d0 b0 0b 3d
       0.017676227 0.0012828275 7e-43 0.03410417
000070 f4 01 00 00 f4 01 00 00 25 15 a0 3d f4 01 00 00
       7e-43 7e-43 0.07816533 7e-43

exp_avg f4 [16, 32]
000000 81 25 6f 3b 27 ef 15 3a 00 00 00 00 04 00 00 00
       0.003649086 0.00057195354 0.0 6e-45
000010 be 88 0b 3b 2a 9f 1d ba 28 b0 92 ba f3 28 1c 3a
       0.0021291221 -0.0006012792 -0.0011191415 0.00059570296
000020 eb 6a af ba 40 03 53 ba 04 00 00 00 30 de 17 bb
       -0.0013383304 -0.00080494955 6e-45 -0.0023173206
000030 72 7a 27 b9 9f ee 80 37 b1 66 7e 3a d0 57 aa ba
       -0.00015971976 1.5369906e-05 0.0009704633 -0.0012996141
000040 04 00 00 00 04 00 00 80 ba 99 a5 37 04 00 00 80
       6e-45 -6e-45 1.9741117e-05 -6e-45
000050 14 a8 b7 3a 04 00 00 00 04 a1 00 bb 04 00 00 80
       0.0014011883 6e-45 -0.0019627223 -6e-45
000060 77 f3 b3 b8 09 a9 76 ba 04 00 00 00 0b 56 99 3a
       -8.580734e-05 -0.00094093435 6e-45 0.0011698616
000070 04 00 00 00 04 00 00 80 db 0f dc 3a 00 00 00 00
       6e-45 -6e-45 0.0016789393 0.0
000080 ff 39 36 ba a7 c1 44 b9 04 00 00 80 04 00 00 00
       -0.0006951391 -0.00018764158 -6e-45 6e-45
000090 29 c5 49 3c 95 d2 af 3b 49 ef fc 3b 33 5f 29 bb
       0.012315073 0.0053656795 0.0077189547 -0.0025844097
0000a0 86 28 5a b7 e2 08 03 3a 04 00 00 00 53 cb 5a bb
       -1.3003248e-05 0.0004998577 6e-45 -0.003338535
0000b0 78 b6 72 b8 75 2b 8d 39 72 6c 0d 3a a2 78 c7 b9
       -5.7867233e-05 0.00026925994 0.0005394883 -0.00038046116
0000c0 04 00 00 80 04 00 00 80 ab 20 a1 37 04 00 00 80
       -6e-45 -6e-45 1.9207908e-05 -6e-45
0000d0 ef 44 46 ba 04 00 00 00 bc 8b 77 bb 04 00 00 00
       -0.00075633725 6e-45 -0.0037772497 6e-45
0000e0 56 bd 41 b9 81 97 2a 39 04 00 00 00 9b d0 53 ba
       -0.00018476447 0.00016268903 6e-45 -0.0008080096
0000f0 04 00 00 00 04 00 00 80 40 c9 94 b9 04 00 00 00
       6e-45 -6e-45 -0.00028378703 6e-45
000100 12 19 8c 3b ac 09 ba bb 00 00 00 00 04 00 00 80
       0.0042754496 -0.0056774225 0.0 -6e-45
000110 ab 90 a3 b9 e5 b5 88 3a eb 21 27 bb 8e 79 a1 3b
       -0.0003119757 0.0010430185 -0.0025502394 0.0049278205
000120 c3 57 9a 39 40 d0 82 3c 04 00 00 00 05 f8 47 3b
       0.00029438557 0.015968442 6e-45 0.0030512821
000130 2e fa 30 39 3d 66 b3 39 66 58 44 ba 78 20 a2 3b
       0.00016877867 0.00034217714 -0.0007489979 0.0049477182
000140 04 00 00 00 04 00 00 80 f0 35 11 ba 04 00 00 80
       6e-45 -6e-45 -0.00055393483 -6e-45
000150 a1 4c d8 3c 04 00 00 80 d5 d8 ff 3b 04 00 00 00
       0.026403727 -6e-45 0.007807831 6e-45
000160 35 c1 21 3a f0 93 c1 3a 04 00 00 00 0e 6f 30 3b
       0.00061704527 0.001476882 6e-45 0.0026921663
000170 04 00 00 00 04 00 00 00 7d 59 b4 ba 04 00 00 00
       6e-45 6e-45 -0.001375958 6e-45
000180 46 b4 15 3a 25 52 ea bb 04 00 00 00 04 00 00 80
       0.0005710762 -0.0071509057 6e-45 -6e-45
000190 5c f0 0b bb cf 42 c2 3a c1 98 2c 3b cf 3e 1f bc
       -0.0021352982 0.0014820936 0.0026336166 -0.009719565
0001a0 80 d6 b4 3a ad 55 68 3b 04 00 00 00 c6 06 5a 3b
       0.0013796836 0.0035451457 6e-45 0.0033268197
0001b0 b8 80 10 3a bd b3 b4 39 6e 8d 01 3a 9c 55 71 3a
       0.00055123447 0.0003446619 0.0004942034 0.0009206177
0001c0 04 00 00 00 04 00 00 80 41 1f c9 b7 04 00 00 80
       6e-45 -6e-45 -2.3975621e-05 -6e-45
0001d0 ed a0 de b9 04 00 00 80 ee 9c bd 3b 04 00 00 00
       -0.0004246304 -6e-45 0.0057865297 6e-45
0001e0 66 a7 71 3a af d0 00 b8 04 00 00 00 1f ca a4 bb
       0.0009218365 -3.071193e-05 6e-45 -0.0050289775
0001f0 04 00 00 80 04 00 00 00 3d 35 33 bb 04 00 00 00
       -6e-45 6e-45 -0.0027344965 6e-45
000200 53 79 32 b8 a7 3f ea ba 04 00 00 00 04 00 00 80
       -4.25515e-05 -0.0017871753 6e-45 -6e-45
000210 df 97 c9 bc 60 9b 82 bc ab 83 8e bc be 07 f2 bb
       -0.02460855 -0.01594323 -0.017396769 -0.007386177
000220 e3 4a d3 ba 9b 04 fb ba 00 00 00 00 2e e3 92 3a
       -0.001612034 -0.0019151153 0.0 0.0011206621
000230 8e 1d a6 38 1a c1 c9 38 ca 25 0c b9 20 2d 01 3a
       7.921002e-05 9.620395e-05 -0.00013365518 0.00049276836
000240 04 00 00 00 04 00 00 00 04 2c 8d b9 04 00 00 80
       6e-45 6e-45 -0.0002692641 -6e-45
000250 49 ca 0a bb 04 00 00 80 07 fa 35 3b 04 00 00 80
       -0.00211777 -6e-45 0.0027767436 -6e-45
000260 89 3d 5c bb c9 3a d2 b9 04 00 00 00 04 1d 81 bb
       -0.0033606014 -0.0004009812 6e-45 -0.0039402265
000270 00 00 00 00 04 00 00 00 32 95 44 ba 00 00 00 00
       0.0 6e-45 -0.00074990385 0.0
000280 34 d7 21 3b 4e ce 39 3b 04 00 00 00 04 00 00 80
       0.0024694921 0.0028351727 6e-45 -6e-45
000290 52 3f bd 3a 5a 05 29 b9 6c 45 c7 ba 59 ee 26 3c
       0.0014438427 -0.0001611909 -0.0015203184 0.010188662
0002a0 27 a6 57 b9 b6 42 0e 3c 04 00 00 80 33 78 ca 3a
       -0.00020565894 0.008682897 -6e-45 0.0015447199
0002b0 ba bf a3 39 88 3c f1 b6 7e 39 36 3a b9 c8 34 3b
       0.0003123263 -7.1894065e-06 0.0006951316 0.002758546
0002c0 04 00 00 00 04 00 00 80 f1 87 07 b7 04 00 00 00
       6e-45 -6e-45 -8.078278e-06 6e-45
0002d0 a6 43 43 3c 04 00 00 80 ff 88 aa 3b 04 00 00 80
       0.011917984 -6e-45 0.0052043195 -6e-45
0002e0 e0 c7 5d ba 58 f0 4f 3b 04 00 00 80 47 7c fd 3b
       -0.00084602647 0.003172895 -6e-45 0.0077357623
0002f0 04 00 00 80 04 00 00 00 6f df 17 3b 04 00 00 00
       -6e-45 6e-45 0.0023173948 6e-45
000300 34 13 4a 3a 8c 86 db b9 04 00 00 80 04 00 00 00
       0.000770855 -0.0004187118 -6e-45 6e-45
000310 64 0d 21 ba 56 6e c3 36 a4 11 fc 3a a0 71 cf b7
       -0.0006143658 5.8242977e-06 0.0019231332 -2.4729234e-05
000320 70 83 b5 b9 9f 35 df b6 04 00 00 80 8a c6 c0 3a
       -0.0003462094 -6.65216e-06 -6e-45 0.0014707607
000330 53 11 e7 b9 9b 75 c9 b9 45 1b 19 ba b6 e0 a8 b2
       -0.0004407266 -0.0003842533 -0.00058405503 -1.965996e-08
000340 04 00 00 00 04 00 00 80 58 4e 17 8c 04 00 00 00
       6e-45 -6e-45 -1.1656193e-31 6e-45
000350 04 63 27 ba 04 00 00 00 be 73 e0 b8 04 00 00 80
       -0.0006385299 6e-45 -0.00010702711 -6e-45
000360 67 d4 21 ba ea 44 74 b8 04 00 00 80 22 54 f0 b9
       -0.0006173313 -5.8238315e-05 -6e-45 -0.0004583905
000370 04 00 00 80 04 00 00 80 9d ed 04 ba 00 00 00 00
       -6e-45 -6e-45 -0.00050708075 0.0
000380 8d b1 c2 bb 03 d8 53 bb 00 00 00 00 04 00 00 80
       -0.005941576 -0.0032324798 0.0 -6e-45
000390 f9 63 4d bc 01 6a 7c bb fa c1 03 bc 0e e4 6c bc
       -0.012536042 -0.0038515332 -0.008041853 -0.014458669
0003a0 10 3a 9d 3a 37 b5 d8 3a 00 00 00 00 1a 63 dc 3a
       0.0011995453 0.0016533498 0.0 0.0016814203
0003b0 d9 42 f7 39 1e 32 8f 39 9f ee 11 bb c0 1d e9 3a
       0.00047161317 0.00027312426 -0.0022267473 0.0017785355
0003c0 04 00 00 00 04 00 00 00 00 8c 1e b9 04 00 00 80
       6e-45 6e-45 -0.00015120208 -6e-45
0003d0 6e 90 be b8 04 00 00 80 da 56 b4 3a 04 00 00 00
       -9.086808e-05 -6e-45 0.0013758794 6e-45
0003e0 72 dd 78 38 c3 de 2f b9 04 00 00 00 9f 7b 19 bc
       5.9334045e-05 -0.00016772286 6e-45 -0.0093678525
0003f0 00 00 00 00 04 00 00 80 a0 c6 bd bb 04 00 00 00
       0.0 -6e-45 -0.0057915 6e-45

exp_avg_sq f4 [16, 32]
000000 2a 9f cb 39 e8 0a 1a 3a 00 00 00 00 f4 01 00 00
       0.00038837764 0.0005876259 0.0 7e-43
000010 ec 79 72 3a 2b eb 39 39 fc 3b 42 3a 85 99 1a 3b
       0.0009249735 0.00017730582 0.0007409451 0.002359004
000020 8d 73 ff 38 2f fb bc 38 f4 01 00 00 39 9c ec 3a
       0.000121808705 9.011325e-05 7e-43 0.0018051929
000030 31 e8 c7 36 1e 1a 80 35 1d 91 a5 39 4f 77 55 39
       5.957693e-06 9.544344e-07 0.0003157937 0.00020357709
000040 f4 01 00 00 f4 01 00 00 09 e9 5d 36 f4 01 00 00
       7e-43 7e-43 3.306721e-06 7e-43
000050 e6 86 2d 3a f4 01 00 00 45 af 17 3b f4 01 00 00
       0.00066195277 7e-43 0.002314524 7e-43
000060 1f 1d aa 39 66 ed 28 39 f4 01 00 00 34 b0 1d 3a
       0.00032446624 0.00016110166 7e-43 0.0006015331
000070 f4 01 00 00 f4 01 00 00 ed 52 03 3a 00 00 00 00
       7e-43 7e-43 0.00050096103 0.0
000080 40 d5 0b 39 3e b0 c6 39 f4 01 00 00 f4 01 00 00
       0.00013335515 0.00037896814 7e-43 7e-43
000090 1f 2d bd 3a b5 c6 95 3a eb b0 07 3a d1 2e a1 3a
       0.0014433003 0.0011427017 0.0005176204 0.0012297278
0000a0 47 48 fd 38 fb 9c 83 38 f4 01 00 00 aa 6f 93 3a
       0.00012077443 6.275807e-05 7e-43 0.0011248488
0000b0 df 7e 6c 36 54 8d 42 35 d3 38 51 39 e2 70 4e 38
       3.524059e-06 7.247629e-07 0.00019952962 4.9219358e-05
0000c0 f4 01 00 00 f4 01 00 00 a7 c9 30 38 f4 01 00 00
       7e-43 7e-43 4.2149473e-05 7e-43
0000d0 5d d7 3c 39 f4 01 00 00 5e ec 9c 3a f4 01 00 00
       0.00018009306 7e-43 0.0011972298 7e-43
0000e0 ef 2c 01 3a d1 41 f2 38 f4 01 00 00 d9 9b e0 39
       0.0004927655 0.000115517185 7e-43 0.00042840725
0000f0 f4 01 00 00 f4 01 00 00 0b b8 c6 39 f4 01 00 00
       7e-43 7e-43 0.00037902626 7e-43
000100 e3 38 03 39 52 38 f5 3a 00 00 00 00 f4 01 00 00
       0.00012514325 0.0018708801 0.0 7e-43
000110 dc 21 91 3a 7b dc 95 3a 39 8e 99 3a 0f 98 2a 3b
       0.0011072713 0.0011433506 0.0011715359 0.0026030575
000120 11 8e d2 38 88 b3 a4 39 f4 01 00 00 d6 82 1c 3a
       0.00010040042 0.0003141428 7e-43 0.0005970424
000130 b6 6c 2d 37 ad 03 51 37 ee 05 b8 39 ff be 85 39
       1.0336915e-05 1.2458227e-05 0.00035099633 0.0002551004
000140 f4 01 00 00 f4 01 00 00 c1 aa 62 38 f4 01 00 00
       7e-43 7e-43 5.4041626e-05 7e-43
000150 d1 ae 9e 3a f4 01 00 00 09 d7 a6 3a f4 01 00 00
       0.0012106543 7e-43 0.001272888 7e-43
000160 52 05 b6 39 7c 92 b4 39 f4 01 00 00 44 19 17 3a
       0.0003471771 0.00034441415 7e-43 0.0005763958
000170 f4 01 00 00 f4 01 00 00 76 cb 3a 3a f4 01 00 00
       7e-43 7e-43 0.0007125655 7e-43
000180 6f 4f 63 39 e6 34 dd 3a f4 01 00 00 f4 01 00 00
       0.00021677998 0.0016876727 7e-43 7e-43
000190 3f ae 9a 3a 62 dd 8e 3a b1 10 35 3b 2a 9d 59 3b
       0.0011801197 0.0010899717 0.0027628357 0.003320525
0001a0 a9 0d be 38 1f cb 9f 38 f4 01 00 00 cf c7 3d 3b
       9.0624504e-05 7.619545e-05 7e-43 0.0028958207
0001b0 e0 18 47 38 58 84 4e 37 f7 6d f3 39 cc 96 5d 39
       4.7468464e-05 1.23093705e-05 0.00046430502 0.00021132379
0001c0 f4 01 00 00 f4 01 00 00 dd b9 24 37 f4 01 00 00
       7e-43 7e-43 9.818436e-06 7e-43
0001d0 15 3e b6 38 f4 01 00 00 70 e6 82 3b f4 01 00 00
       8.69e-05 7e-43 0.0039947554 7e-43
0001e0 74 fa 5d 39 5e ea da 38 f4 01 00 00 83 db 36 3a
       0.00021169503 0.00010438704 7e-43 0.0006975459
0001f0 f4 01 00 00 f4 01 00 00 55 f9 cc 3a f4 01 00 00
       7e-43 7e-43 0.0015638272 7e-43
000200 59 03 bb 37 aa 89 01 3a f4 01 00 00 f4 01 00 00
       2.2293696e-05 0.0004941473 7e-43 7e-43
000210 7b 1c 0d 3b 3a 38 8a 3a 0b 38 8d 3a 8c c0 61 3a
       0.0021531868 0.0010545321 0.0010774148 0.00086117606
000220 49 8e 08 39 e2 21 19 39 00 00 00 00 e2 25 8f 39
       0.00013022976 0.0001460384 0.0 0.0002730331
000230 08 d9 b6 35 7b 20 c6 35 79 8f a7 39 1f d3 0f 38
       1.3623221e-06 1.4761603e-06 0.00031959618 3.429048e-05
000240 f4 01 00 00 f4 01 00 00 9e af 0e 38 f4 01 00 00
       7e-43 7e-43 3.4018994e-05 7e-43
000250 a1 bf c7 39 f4 01 00 00 32 11 16 3a f4 01 00 00
       0.00038099012 7e-43 0.0005724608 7e-43
000260 76 8e ef 39 fa 6f 16 38 f4 01 00 00 c4 21 9e 39
       0.00045691774 3.5867073e-05 7e-43 0.00030161266
000270 00 00 00 00 f4 01 00 00 3c 1b ba 39 00 00 00 00
       0.0 7e-43 0.00035496976 0.0
000280 54 64 96 3a 05 25 64 3a f4 01 00 00 f4 01 00 00
       0.0011473992 0.0008703026 7e-43 7e-43
000290 68 28 af 3a 04 3f 92 39 ae 32 63 3a 0a f2 d1 3a
       0.0013363482 0.0002789424 0.00086669147 0.0016017568
0002a0 71 87 f9 39 22 ae 1a 39 f4 01 00 00 21 ac 1b 3b
       0.00047593893 0.00014751454 7e-43 0.002375372
0002b0 4f d8 0c 38 82 f6 6a 38 95 3e f1 39 1c c0 cf 37
       3.3580054e-05 5.6019526e-05 0.0004601373 2.476578e-05
0002c0 f4 01 00 00 f4 01 00 00 62 0e 68 37 f4 01 00 00
       7e-43 7e-43 1.3831626e-05 7e-43
0002d0 03 34 d5 3a f4 01 00 00 bf 36 04 3b f4 01 00 00
       0.0016266111 7e-43 0.0020174233 7e-43
0002e0 ef 91 60 3a 8a 12 98 39 f4 01 00 00 16 03 74 3a
       0.00085666677 0.00029005512 7e-43 0.0009308321
0002f0 f4 01 00 00 f4 01 00 00 f5 92 3b 3a f4 01 00 00
       7e-43 7e-43 0.0007155382 7e-43
000300 9e 5e 1a 39 8d 34 3f 39 f4 01 00 00 f4 01 00 00
       0.00014721832 0.00018234756 7e-43 7e-43
000310 32 76 4d 39 d5 98 7c 38 bc b0 75 39 da 6f b7 38
       0.00019594355 6.0223818e-05 0.0002343086 8.746954e-05
000320 84 8d 21 38 48 af 00 37 f4 01 00 00 04 09 58 39
       3.8517188e-05 7.670205e-06 7e-43 0.00020602724
000330 1a 4c ec 36 14 70 52 36 39 b2 c9 38 48 02 dc 35
       7.0422075e-06 3.1357677e-06 9.6176234e-05 1.6391941e-06
000340 f4 01 00 00 f4 01 00 00 49 f7 21 36 f4 01 00 00
       7e-43 7e-43 2.4134808e-06 7e-43
000350 1d aa b3 39 f4 01 00 00 59 98 c5 38 f4 01 00 00
       0.00034268285 7e-43 9.422069e-05 7e-43
000360 16 60 11 39 e6 61 46 37 f4 01 00 00 6d 14 c7 38
       0.00013864072 1.1824513e-05 7e-43 9.492864e-05
000370 f4 01 00 00 f4 01 00 00 c2 e3 db 38 00 00 00 00
       7e-43 7e-43 0.00010485157 0.0
000380 07 69 37 3a 6f b2 3d 3a 00 00 00 00 f4 01 00 00
       0.0006996546 0.00072363665 0.0 7e-43
000390 c1 0b 28 3b 24 62 10 3b 2d 46 3c 3b f7 35 33 3b
       0.0025641771 0.0022031153 0.0028728351 0.0027345398
0003a0 cb bf 08 39 20 56 e5 38 00 00 00 00 2e e7 f5 3a
       0.00013041419 0.00010935613 0.0 0.0018760914
0003b0 07 47 3c 38 8e 8e 87 37 c7 62 c9 39 e5 fe 8e 38
       4.4888842e-05 1.6159636e-05 0.00038411302 6.8185655e-05
0003c0 f4 01 00 00 f4 01 00 00 29 26 0f 38 f4 01 00 00
       7e-43 7e-43 3.4129396e-05 7e-43
0003d0 40 72 83 37 f4 01 00 00 88 0c 45 3b f4 01 00 00
       1.5669619e-05 7e-43 0.0030067284 7e-43
0003e0 bc 03 51 3a bd 1c 94 38 f4 01 00 00 c7 43 2b 3a
       0.0007973274 7.062543e-05 7e-43 0.0006533232
0003f0 00 00 00 00 f4 01 00 00 d5 17 08 3b f4 01 00 00
       0.0 7e-43 0.0020766158 7e-43

exp_avg f4 [16]
000000 08 0a 88 39 04 3a 82 3a 38 06 3f 3c ef 05 10 bc
       0.00025947415 0.0009935503 0.0116591975 -0.008790477
000010 f8 12 9a bc 1b d7 61 3c 56 3e 60 bb 49 17 93 bc
       -0.018807873 0.013784195 -0.0034216843 -0.01795544
000020 bf 3c 91 3c 04 00 00 00 04 00 00 00 a1 ca 12 bc
       0.017729161 6e-45 6e-45 -0.008959443
000030 62 e8 7c 3c 5c 94 12 bc 35 75 30 3a 8c ba 48 bc
       0.015436264 -0.008946504 0.00067313324 -0.0122515075

exp_avg_sq f4 [16]
000000 1f 28 12 3c b5 11 ea 3b c9 9b 64 3c 3b 54 b4 3c
       0.008920698 0.007143224 0.013953158 0.02201282
000010 25 d8 f2 3b 25 17 9b 3c 35 1c 6c 3c 98 92 91 3c
       0.0074110203 0.018931935 0.014411022 0.017770097
000020 6b 15 0d 3b f4 01 00 00 f4 01 00 00 cc 59 98 3c
       0.0021527659 7e-43 7e-43 0.018597506
000030 1e a5 52 3c 57 18 89 3c a4 3d d7 3b 6e c4 d4 3b
       0.01285675 0.016735239 0.0065686274 0.006493143

exp_avg f4 [3, 16]
000000 2d 25 73 3a 27 20 23 3b 82 06 4a 3a 33 ab 0d 3a
       0.0009275254 0.002489099 0.0007706658 0.0005404234
000010 a9 58 43 3b 3d bf ee b9 c3 45 1f 39 0f 9f a2 3a
       0.0029807484 -0.0004553738 0.0001518941 0.0012407022
000020 41 74 8f bb 04 00 00 80 04 00 00 00 da e9 08 b9
       -0.004377872 -6e-45 6e-45 -0.00013057087
000030 22 95 04 3b 49 27 93 ba d5 3f 64 3a ff 49 78 3a
       0.0020230492 -0.0011226918 0.00087070215 0.00094714755
000040 a9 6d 57 b9 ae 88 47 3a c1 c9 9b b8 81 e7 07 39
       -0.0002054485 0.00076116144 -7.4285555e-05 0.00012960845
000050 c5 57 3b ba 7f ff 3f ba bb d8 e6 b9 a4 5e 69 b9
       -0.00071465626 -0.00073241437 -0.00044030495 -0.00022255868
000060 42 cf 12 bb 04 00 00 00 04 00 00 00 aa fb 8f ba
       -0.0022401367 6e-45 6e-45 -0.0010985036
000070 c0 b8 a8 ba 58 f0 6e 39 a3 db 0d 3a 66 08 aa ba
       -0.0012872443 0.00022786984 0.00054114516 -0.0012972474
000080 97 49 3d ba 47 02 55 bb 27 8d 36 ba fb a4 2f ba
       -0.00072207436 -0.0032502578 -0.00069637824 -0.0006700304
000090 b4 82 14 bb 95 af 9b 3a 43 36 97 39 37 73 85 ba
       -0.0022660913 0.0011877889 0.00028841392 -0.0010181431
0000a0 e6 db d8 3b 04 00 00 00 04 00 00 80 f3 18 a1 3a
       0.006618011 6e-45 -6e-45 0.0012290761
0000b0 ca e2 40 ba 9f 92 6a 3a a4 0d b9 ba b8 8d b7 39
       -0.0007358013 0.000894824 -0.0014118445 0.0003501007

exp_avg_sq f4 [3, 16]
000000 19 7d b7 39 f4 8f 6c 39 3f f6 f7 37 22 6f e2 37
       0.00034997685 0.0002256034 2.9559362e-05 2.699305e-05
000010 3f 89 8e 38 11 e3 a6 37 95 7e 82 36 a8 5b bb 38
       6.796652e-05 1.9894478e-05 3.889038e-06 8.933927e-05
000020 e7 fa 0b 39 f4 01 00 00 f4 01 00 00 10 19 d9 38
       0.00013349541 7e-43 7e-43 0.000103520346
000030 c7 8c 3e 3a 6e bf c6 38 e0 39 92 39 9f b7 b7 38
       0.0007268902 9.477032e-05 0.0002789041 8.760322e-05
000040 fd 48 c8 38 f2 fb e0 37 f5 5f 8d 37 b4 69 89 37
       9.550338e-05 2.6820202e-05 1.6853193e-05 1.6380895e-05
000050 f5 21 2b 38 a1 21 8a 38 e8 b9 4c 37 04 2f 74 38
       4.0801202e-05 6.586617e-05 1.2202632e-05 5.821792e-05
000060 15 27 d4 38 f4 01 00 00 f4 01 00 00 48 40 71 38
       0.00010116227 7e-43 7e-43 5.7518744e-05
000070 1a 94 70 38 b9 16 b1 37 0c 7b e9 37 9e 9c 14 39
       5.735839e-05 2.1110625e-05 2.7833063e-05 0.00014172724
000080 d1 77 ba 39 46 68 57 39 5e 95 38 38 f6 d3 2e 38
       0.00035565955 0.00020542843 4.4008128e-05 4.1682237e-05
000090 72 79 c4 38 4e 14 7e 38 4f 49 08 37 42 e3 0f 39
       9.368629e-05 6.057723e-05 8.1233e-06 0.00013722203
0000a0 b0 1b 50 39 f4 01 00 00 f4 01 00 00 fa 6d 8e 38
       0.0001984674 7e-43 7e-43 6.7915724e-05
0000b0 7b da 48 3a 53 4b a0 38 dd dd 85 39 3a fe 23 39
       0.00076619507 7.643425e-05 0.00025533038 0.00015639598

exp_avg f4 [3]
000000 25 9f 1d 3b 2c 9c 91 bb 5a 99 05 3b
       0.0024051156 -0.004443666 0.0020385594

exp_avg_sq f4 [3]
000000 17 00 0e 3b 20 52 6a 3a cb ef 15 3b
       0.0021667534 0.0008938629 0.0022878523

loss f8 []
000000 67 66 e6 87 8f 10 c0 3f
       0.12550539146177472
