13_no_regu_epoch_edge_detector.pth (torch, 25382 bytes, 19 tensors)

model.0.weight f4 [32, 25]
0	0xbc9d6e24	-0.019217558
1	0xbcad667f	-0.021167038
2	0xbc7726e7	-0.015084959
3	0xbc514ea8	-0.012775101
4	0xbc08b5dd	-0.008344141
5	0xbc8c4822	-0.01712424
6	0xbcc5b321	-0.024133267
7	0xbcc9762a	-0.024592478
8	0xbba6b862	-0.005087898
9	0xbb85978e	-0.0040769046
10	0xbc9899ff	-0.018628119
11	0xbca86d86	-0.020560037
12	0xbca051bd	-0.019570226
13	0x3b8ec504	0.004356982
14	0xbb3590b8	-0.0027704667
15	0xbc8e2980	-0.017353773
16	0xbcbf95f5	-0.023386935
17	0xbc98b4f9	-0.018640982
18	0xbb1dd516	-0.0024083308
19	0xbc41db7a	-0.011832112
20	0xbc3ea72a	-0.011636535
21	0xbc8a4e0d	-0.01688292
22	0xbc67691e	-0.014124183
23	0xbbf5f509	-0.007506017
24	0xbc000636	-0.007813981
25	0x3a8f6fbe	0.0010943336
26	0x3cb0a8f9	0.021564947
27	0x3d8108d7	0.06300514
28	0xbc73fed7	-0.0148923015
29	0xbc945576	-0.018107157
30	0xbe96d148	-0.29456544
31	0x3d0688fd	0.032845486
32	0x3f02a3ea	0.51031363
33	0x3e8a9d01	0.2707291
34	0xbea9eeec	-0.33190095
35	0xbf043f42	-0.51659024
36	0xbea7e9ff	-0.32795712
37	0x3f803f36	1.001929
38	0xbdf1c20d	-0.118045904
39	0xbf143444	-0.5789225
40	0xbe9968a1	-0.29962638
41	0x3dce0f59	0.10061521
42	0x3f018c0d	0.50604326
43	0x3e20f15c	0.15717071
44	0xbec5a767	-0.3860428
45	0x3db8fc4c	0.09032497
46	0xbcb42358	-0.02198951
47	0x3d93b674	0.072125345
48	0x3ad7bbe9	0.00164592
49	0x3971e8df	0.00023070302
50	0x3d67e076	0.056610547
51	0x3e24cced	0.16093798
52	0x3df51d8e	0.11968528
53	0x3b3f23c5	0.0029165607
54	0x3dd98717	0.106214695
55	0x3ebb8be6	0.36630172
56	0x3e1ece2f	0.1550834
57	0x3d032f54	0.032027557
58	0x3d242eaf	0.040083583
59	0xbe075fde	-0.13220164
60	0xbd01426e	-0.031557493
61	0xbe9e71d1	-0.3094621
62	0xbf181d68	-0.5941987
63	0xbf0bf209	-0.5466619
64	0xbed279ec	-0.41108644
65	0xbd91e19e	-0.07123111
66	0xbe2bc529	-0.1677443
67	0x3d1acc52	0.03779251
68	0xbdacc306	-0.08435635
69	0xbe07cc5e	-0.13261554
70	0x3e155664	0.14583737
71	0x3eab7bfb	0.33493027
72	0x3eb5c705	0.35503402
73	0x3dccdd80	0.10003185
74	0x3dca7884	0.09886268
75	0x3e80911a	0.25110704
76	0x3e143937	0.1447495
77	0x3da1745f	0.07883524
78	0x3e434e18	0.19072759
79	0x3ea70e07	0.3262789
80	0x3ea6cad4	0.3257662
81	0xbe4376f4	-0.19088346
82	0xbf02840f	-0.50982755
83	0xbddf31df	-0.10898184
84	0x3eea8097	0.4580123
85	0x3f12855b	0.57234734
86	0xbeff444e	-0.498568
87	0xbf34b678	-0.70590925
88	0xbeb9ec04	-0.36312878
89	0x3edc8a60	0.43074322
90	0x3ea1e469	0.31619576
91	0x3c2cec0e	0.010554327
92	0xbdd1d0d4	-0.10244909
93	0xbe9a1d37	-0.30100414
94	0xbce2b407	-0.027673734
95	0xb99cb0dc	-0.0002988641
96	0xbe23fc42	-0.16014197
97	0xbd919687	-0.07108789
98	0xbdd63f78	-0.104613245
99	0xbe0a750b	-0.13521211
100	0xbd73c9fd	-0.059518803
101	0xbda25799	-0.07926864
102	0xbd426e78	-0.047468632
103	0xbd7ec4d5	-0.062199432
104	0x3e8ea872	0.2786289
105	0xbd63f65a	-0.05565486
106	0x3e6d153d	0.23152633
107	0xbc8f5016	-0.017494243
108	0xbe8fb82d	-0.28070202
109	0x3efa7172	0.48914677
110	0xbe25b681	-0.16182901
111	0x3f2f9297	0.68583053
112	0xbe3c4f6c	-0.18389672
113	0xbfaa490e	-1.3303545
114	0x3c93c766	0.018039417
115	0x3da023c7	0.07819324
116	0x3e87a5a4	0.2649356
117	0xbd345bc5	-0.04403283
118	0xbe319562	-0.17342141
119	0x3e908911	0.28229573
120	0xbd97796e	-0.07396208
121	0x3d91cd89	0.07119281
122	0x3dd9ad57	0.10628765
123	0xbe14d573	-0.1453455
124	0x3d3b98b7	0.045799937
125	0x3d1307a7	0.03589597
126	0xbdb75268	-0.089512646
127	0xbd71bf26	-0.059020184
128	0x3dd72688	0.10505396
129	0xbd2b7678	-0.041861027
130	0xbe4e1430	-0.20124888
131	0x3e15b87b	0.14621155
132	0x3eb90d6a	0.36143047
133	0x3e06c796	0.13162073
134	0xbdee5c81	-0.116387375
135	0x3e393294	0.180857
136	0x3ee51c05	0.4474794
137	0x3f58f051	0.84741694
138	0x3e2cabdb	0.16862433
139	0xbd618057	-0.055054035
140	0xbc9425f9	-0.018084513
141	0xbf080f37	-0.53148216
142	0xbf163b76	-0.5868448
143	0xbf5e3472	-0.86798775
144	0xbe81f528	-0.25382352
145	0x3d422c07	0.04740527
146	0x3e1de2a9	0.15418495
147	0x3dff11be	0.12454556
148	0x3da1c94a	0.07899721
149	0xbd5a1603	-0.05324365
150	0xbc661872	-0.014043914
151	0xbcd80b98	-0.026372716
152	0xbcb2ac8d	-0.021810794
153	0xbb8cbe58	-0.0042951517
154	0xbb91b8b3	-0.0044470667
155	0xbba68c99	-0.0050826785
156	0xbd2e04ca	-0.042485036
157	0xbd6ac447	-0.05731609
158	0xbc7c8fbe	-0.01541513
159	0xbc0b583f	-0.008504926
160	0xbc578a79	-0.013155573
161	0xbbfc32de	-0.0076964935
162	0x3cc9a659	0.024615454
163	0xbcfc52e7	-0.03080125
164	0xbd2de4e5	-0.04245462
165	0xbcf223a9	-0.02955802
166	0xbc01b5af	-0.007916852
167	0x3b784fe0	0.0037889406
168	0xbc064c05	-0.008196835
169	0xbcb4568e	-0.022013929
170	0xbc9fc392	-0.019502435
171	0xbc180a49	-0.009279796
172	0x3b02bb09	0.0019947907
173	0xbc03b4f8	-0.008038752
174	0xbc5cae74	-0.013469327
175	0x3e3f6274	0.186899
176	0xbe9f61e5	-0.31129375
177	0x3dbedb36	0.09319155
178	0x3c8382d5	0.016053597
179	0x3def2c0d	0.11678324
180	0x3ccb345e	0.024805244
181	0xbd2cb357	-0.04216322
182	0xbf4f0c74	-0.80878377
183	0xbea60a3a	-0.32429677
184	0x3dca85e8	0.09888822
185	0x3d9ce6da	0.07661219
186	0x3cff74c6	0.031183612
187	0xc099d487	-4.8071933
188	0xbe646d9f	-0.22307442
189	0x3e461117	0.19342457
190	0x3d8c58bc	0.06852862
191	0xbdba9199	-0.09109802
192	0xbf93747a	-1.1519921
193	0xbe886819	-0.2664192
194	0x3dd49e08	0.103817046
195	0x3e8962f4	0.26833308
196	0xbe13ad50	-0.14421582
197	0xbdc8222a	-0.09772141
198	0xbdef3ca5	-0.11681489
199	0x3d13d32b	0.036090057
200	0xbdb53585	-0.08848099
201	0xbd1e8538	-0.038701266
202	0x3db89840	0.090134144
203	0x399b2552	0.0002959171
204	0x3dc6b92c	0.097032875
205	0xbdb96fa1	-0.09054495
206	0x3d6c7dc4	0.057737127
207	0xbe229510	-0.15877175
208	0x3e5c0450	0.2148602
209	0x3ddfc9d5	0.10927168
210	0x3dac053c	0.08399436
211	0x3ddf03ad	0.10889373
212	0xc0d00e15	-6.501719
213	0xbedc310b	-0.43006167
214	0x3cfe460d	0.031039262
215	0x3e7e6cab	0.24846141
216	0xbe70d620	-0.23519182
217	0xbf84d0db	-1.0376238
218	0xbe691243	-0.22760873
219	0xbdb41f76	-0.08795063
220	0xbe7a3f60	-0.24438238
221	0xbe535b81	-0.20640375
222	0xbf4c7e0e	-0.79879844
223	0x3e522884	0.20523268
224	0x3e15fb26	0.14646587
225	0xbc157e9a	-0.009124422
226	0xbc882f3a	-0.016624082
227	0xbccdbd2e	-0.025114622
228	0xbd19c543	-0.03754164
229	0xbd1218c2	-0.035668142
230	0xbc0e088a	-0.008669028
231	0x3bf70c0d	0.0075392784
232	0xbc08d9a8	-0.008352675
233	0xbd3730e6	-0.044724368
234	0xbd2f08bb	-0.042732935
235	0xbc9b3a05	-0.018948564
236	0x3c407878	0.011747472
237	0xbc9637c8	-0.018337145
238	0xbd66b9f1	-0.05632967
239	0xbd2ba876	-0.041908704
240	0xbc8cbee2	-0.017180864
241	0xbb635404	-0.0034687528
242	0xbcd796d6	-0.026317041
243	0xbd4bf07b	-0.049789887
244	0xbd1167e2	-0.03549946
245	0xbb55295c	-0.0032525873
246	0x3b81ebf8	0.0039648972
247	0xbc85b9c3	-0.01632393
248	0xbd1816aa	-0.03713099
249	0xbd2d7f75	-0.04235788
250	0x3e75cd6b	0.24004142
251	0x3eb6b222	0.3568278
252	0x3ed82bc1	0.42220882
253	0x3e4a511e	0.19757506
254	0x3dc343ae	0.09534393
255	0x3e79a9cc	0.24381179

model.0.bias f4 [32]
0	0xbbb01ca4	-0.005374508
1	0xbd073232	-0.033006854
2	0xbe423b9f	-0.18968056
3	0xbce02590	-0.027361661
4	0x3bbea72f	0.0058182697
5	0xba1c57b7	-0.0005963998
6	0xbbcc063f	-0.0062263305
7	0x3d7b335a	0.06132827
8	0x3d03d28f	0.032183226
9	0xbcaf3dd9	-0.021391796
10	0xbc5d459a	-0.013505364
11	0xbb0d0754	-0.002151926
12	0xbd147c9a	-0.03625164
13	0xbc2f5b75	-0.010702957
14	0xbd6db87f	-0.058037277
15	0xbca74223	-0.020417279
16	0x3d70a792	0.058753558
17	0x3e86a9aa	0.26301318
18	0xbda0c9d1	-0.078509934
19	0xbabc5409	-0.0014368306
20	0x3d829bd7	0.0637738
21	0xbd911da4	-0.070857316
22	0xbd761d1a	-0.060086347
23	0x3db4cdc3	0.088283084
24	0xbd1f4a3b	-0.03888915
25	0x3d90cee2	0.0707071
26	0x3e2c74d8	0.16841447
27	0xbca29379	-0.019845711
28	0xbc55035b	-0.013001288
29	0xbb4a990e	-0.0030913982
30	0xbb9ea12a	-0.0048409896
31	0xbc16ac00	-0.009196281

model.2.weight f4 [16, 32]
0	0x3c440ea7	0.011966384
1	0xbf5ea1c2	-0.8696557
2	0x3e9c8fc2	0.30578429
3	0x3f328465	0.6973327
4	0xbe062c80	-0.13102913
5	0xbedd37e3	-0.432067
6	0xbd05b4f5	-0.032643277
7	0x3ebee9b4	0.37287676
8	0x3fb018f7	1.3757619
9	0xb93d0738	-0.00018027134
10	0x3f6c88be	0.9239615
11	0x3a5ed0f5	0.0008499765
12	0x3f4a6c62	0.7907163
13	0xbe7469a2	-0.2386842
14	0x3f337dee	0.7011403
15	0xbd295ea0	-0.041350007
16	0x3f448aef	0.76774496
17	0xbe875dcf	-0.26438758
18	0xbf45c9e3	-0.7726118
19	0x3b1c5ef1	0.00238603
20	0x3ee7ff80	0.4531212
21	0x3e8eaba5	0.2786533
22	0x3e14c201	0.14527132
23	0xbd868db9	-0.0657
24	0xbf4b433f	-0.79399484
25	0x3f1fed12	0.62471116
26	0xbe607a59	-0.21921672
27	0x3e7abd00	0.2448616
28	0xbddaa62c	-0.10676226
29	0xbb2d9567	-0.0026486756
30	0x39aa75b7	0.0003251263
31	0xbb2c9ec1	-0.0026339742
32	0x3be5507d	0.0069981203
33	0x3e850542	0.25980574
34	0xbeab136a	-0.3341325
35	0xbef8e3d1	-0.4861131
36	0xbec51682	-0.38493735
37	0x3f833dd6	1.0253246
38	0x3b8de49b	0.0043302304
39	0xbe326b22	-0.1742368
40	0xbf73f93f	-0.95302194
41	0x3a79cdc0	0.00095292553
42	0xbd48b2a2	-0.048998483
43	0xbc581231	-0.013187931
44	0xbe730a6b	-0.23734443
45	0x3fae2b9f	1.3607062
46	0xbf086ed1	-0.5329409
47	0x3f03949e	0.51398647
48	0xbdad2a10	-0.084552884
49	0x3f0eedc7	0.5583157
50	0xbf06a8dd	-0.52601415
51	0xbc44ff72	-0.0120237935
52	0xbeb01562	-0.34391314
53	0xbf0c0af7	-0.5470423
54	0xbf1b29d0	-0.60610676
55	0x3e1cba49	0.15305437
56	0x3f10c5a8	0.565516
57	0xbeac6e01	-0.33677676
58	0x3f8d1632	1.1022398
59	0xbe354f8f	-0.1770613
60	0x3ece5efe	0.40306848
61	0xbb000643	-0.0019534982
62	0x39c01385	0.00036635637
63	0xbb2c7aa9	-0.0026318228
64	0xbad3d84a	-0.0016162482
65	0xbf93b9c5	-1.1541067
66	0xbcde6e8f	-0.027152328
67	0xbefac579	-0.48978785
68	0x3ec9a038	0.3938005
69	0x3ed71377	0.42007038
70	0xbc69d614	-0.014272232
71	0xbe7e18ed	-0.24814196
72	0xbf8d8e33	-1.1059021
73	0x3a8239ab	0.0009935399
74	0xbe50272a	-0.2032744
75	0xbb0877c9	-0.002082335
76	0x3dc54ed6	0.096341774
77	0xbecbb5f8	-0.3978727
78	0xbede5c17	-0.43429634
79	0x3db048d0	0.08607638
80	0xbf135dad	-0.5756481
81	0x3ef31760	0.4747877
82	0x3f3acfb3	0.72973174
83	0x3c0b575f	0.008504718
84	0xbe9f7642	-0.3114491
85	0xbebedfe9	-0.37280205
86	0xbe91653a	-0.28397542
87	0x3e34274b	0.17593114
88	0x3f2960be	0.6616324
89	0xbecd5bb9	-0.4010904
90	0x3d966279	0.07343001
91	0xbe4fb3bd	-0.20283408
92	0x3e78c659	0.24294414
93	0xb91be321	-0.00014866564
94	0x3a9c5ff3	0.001193045
95	0x39ba9ccd	0.0003559351
96	0x3c13c783	0.009019735
97	0x3f19821f	0.59964174
98	0x3edea8ed	0.43488255
99	0x3f048733	0.517688
100	0x3e338aa2	0.17533353
101	0xbfcb90df	-1.5903586
102	0x3aacc66b	0.0013181692
103	0x3e7c36a8	0.24630225
104	0x3f86bdfa	1.0526726
105	0x3d108ab3	0.035288524
106	0x3e30be19	0.17260017
107	0xb9e7feeb	-0.00044249682
108	0xbecaa329	-0.39577606
109	0xbfaabca8	-1.3338823
110	0x3f48cdfb	0.784393
111	0xbca114aa	-0.019663174
112	0x3f69edfa	0.9137875
113	0xbeab66c8	-0.33476853
114	0xbfcf9e48	-1.6220179
115	0xbc9d7789	-0.019222038
116	0x3eaf255e	0.34208196
117	0xbe49bb54	-0.19700366
118	0x3f3bb30a	0.73320067
119	0x3cbe1f91	0.023208411
120	0xbeb92a0c	-0.36164892
121	0x3e9787e9	0.2959588
122	0xbe8175bf	-0.25285146
123	0x3f318d27	0.69356006
124	0xbec3b1cc	-0.38221586
125	0xb9ed4f9c	-0.00045263476
126	0xb9874f4e	-0.00025808293
127	0xbc116b58	-0.00887569
128	0xbc00ad11	-0.007853762
129	0xbf5b09bc	-0.8556173
130	0x3ecd0ce9	0.40048912
131	0x3ed172b7	0.40907833
132	0xbe408e5c	-0.18804306
133	0xbf685915	-0.9076093
134	0x3d4f3fc8	0.050597936
135	0x3eb6b71b	0.35686573
136	0x3f95077f	1.1642913
137	0xbcf884da	-0.030336786
138	0xbeb43cc7	-0.3520262
139	0xbbc389e0	-0.0059673637
140	0xbeff1c27	-0.49826166
141	0xbb197551	-0.0023415873
142	0x3e35a3c6	0.17738256
143	0xbe2fa492	-0.17152622
144	0x3f76df7b	0.96434754
145	0x3ea77c0a	0.32711822
146	0xbe1b7e4b	-0.15184896
147	0xbb09272c	-0.002092789
148	0x3f1fe9aa	0.6246592
149	0x3ea3073e	0.31841463
150	0x3ed80109	0.4218829
151	0x3e5e384a	0.2170116
152	0xbeabb744	-0.33538258
153	0x3f2ea210	0.6821604
154	0x3ebe56e7	0.37175676
155	0x3eceb491	0.40372136
156	0x3da3291c	0.07966825
157	0xba476a4d	-0.00076070876
158	0xb97a03c7	-0.00023843265
159	0x3c1be48d	0.00951494
160	0xbb631a2f	-0.0034653058
161	0xbf848721	-1.0353738
162	0x3c15dafb	0.009146447
163	0xbea21844	-0.31659138
164	0xbe16380a	-0.14669815
165	0xbef42a2a	-0.4768842
166	0x3c47c759	0.012193524
167	0x3f293207	0.6609196
168	0x3f63b185	0.8894275
169	0x3c6d1a6f	0.014471634
170	0xbe690bac	-0.22758359
171	0xba1cd3b5	-0.00059824745
172	0xbe95fb8a	-0.29293472
173	0xbef8e473	-0.48611793
174	0xbe99966b	-0.29997572
175	0xbf9e01e1	-1.2344323
176	0x3f3f6eb5	0.747783
177	0x3e0675b3	0.13130836
178	0xbfc92c94	-1.5716729
179	0xbc9e1218	-0.019295737
180	0x3e91ee93	0.2850233
181	0xbf1266f2	-0.5718833
182	0xbf5b3c9e	-0.8563937
183	0xbd0decf8	-0.03464982
184	0xbf2af0a3	-0.6677343
185	0x3f2017cf	0.6253633
186	0x3e0b506f	0.13604902
187	0x3e76e53b	0.24110882
188	0xbf8f14de	-1.1178243
189	0x3a8773c4	0.0010334183
190	0xbac71250	-0.0015187953
191	0xbc4ec404	-0.012619976
192	0xbc1577c8	-0.009122796
193	0xbfc4c93b	-1.5373911
194	0x3e0e1f01	0.13879015
195	0xbecee798	-0.40411067
196	0x3ebb057c	0.36527622
197	0xbd87c558	-0.06629437
198	0xbc8d2bd7	-0.017232819
199	0xbe61d24c	-0.22052878
200	0xbf25b438	-0.64728117
201	0xbb9870c8	-0.0046521164
202	0xbe36e9ad	-0.17862578
203	0x3ac5a84a	0.0015080061
204	0xbd51226d	-0.05105822
205	0xbeab68cb	-0.33478388
206	0xbe5f54c4	-0.2180968
207	0x3db4e3ad	0.08832488
208	0xbf2aa60a	-0.66659606
209	0xbdc7bd01	-0.097528465
210	0x3f567153	0.8376667
211	0x3bea16ce	0.007143832
212	0xbee7bef8	-0.45262885
213	0xbd8d5978	-0.069018304
214	0xbe0c794b	-0.13718145
215	0x3d4f8e7c	0.050672993
216	0x3f83ce55	1.0297343
217	0xbe97a1ca	-0.29615623
218	0xbe139747	-0.14413176
219	0xbe5b340e	-0.21406576
220	0x3e4c1949	0.1993152
221	0x3a86769d	0.0010258738
222	0xba98b208	-0.0011649737
223	0xbb1216e8	-0.0022291485
224	0xbae14bc1	-0.0017188714
225	0xbf91b303	-1.1382755
226	0x3dcf7f31	0.10131682
227	0xbed2df01	-0.41185763
228	0x3e940ecc	0.2891754
229	0xbbcc747d	-0.0062394724
230	0x36aa057c	5.0670333e-06
231	0xbe5f2a9d	-0.217936
232	0xbf4858fe	-0.7826079
233	0xbc40fcc4	-0.011779014
234	0xbd67a778	-0.056556195
235	0xbaec2683	-0.0018016848
236	0xbdc68ee4	-0.09695223
237	0xbbad4bb3	-0.005288565
238	0xbea771b9	-0.3270395
239	0x3e9ae341	0.30251506
240	0xbf34aeb3	-0.7057907
241	0xbd690381	-0.056888107
242	0x3f4a817a	0.79103816
243	0x3c1e382f	0.00965695
244	0xbecc45c4	-0.39896977
245	0xbe3dd4ab	-0.18538158
246	0xbed23102	-0.41053015
247	0x3de943b2	0.11389865
248	0x3f848297	1.0352353
249	0xbec93213	-0.39296016
250	0x3d9b2feb	0.07577499
251	0xbe7334d5	-0.23750623
252	0x3e2aaf97	0.16668545
253	0xbb0b9a13	-0.0021301552
254	0xbb9b322b	-0.004736205
255	0xb9cc7fdd	-0.00039005178

model.2.bias f4 [16]
0	0x3dfd458f	0.12366783
1	0x3cad77f4	0.021175362
2	0x3e397ea3	0.18114714
3	0x3ed535da	0.41642648
4	0xbe19fe76	-0.15038475
5	0x3f21e858	0.63245153
6	0x3e06e3e5	0.13172872
7	0x3df082c3	0.11743691
8	0x3e63f45c	0.22261184
9	0x3c54075a	0.012941206
10	0x3e881da1	0.26585105
11	0x3e00bfcc	0.12573165
12	0x3e9ab1eb	0.30213866
13	0xbb8b5ee4	-0.004253255
14	0x3ebe4b95	0.3716704
15	0xbc384d09	-0.011248835

model.4.weight f4 [2, 16]
0	0xc01653c3	-2.3488624
1	0x3fffb987	1.9978493
2	0x3fa8489f	1.3147162
3	0xc00f15e5	-2.2357113
4	0xbf1dbfb4	-0.6162064
5	0xc0accd78	-5.4000816
6	0x3fd3fe9c	1.6562076
7	0x3fba56eb	1.4557775
8	0x3f4e697a	0.80629694
9	0x401188c2	2.273972
10	0x3f4fc2f7	0.8115687
11	0x401574de	2.335258
12	0x3f8ce54c	1.1007476
13	0xbb99b618	-0.0046908967
14	0xbfeacc7e	-1.8343656
15	0xba126808	-0.000558496
16	0x40163fac	2.3476362
17	0xbfffb45f	-1.997692
18	0xbfa7b29e	-1.3101385
19	0x400f0e55	2.2352498
20	0x3f1dfedf	0.6171703
21	0x40acaa5c	5.395796
22	0xbfd41196	-1.6567867
23	0xbfbb8425	-1.4649702
24	0xbf4ff646	-0.8123516
25	0xc0112e37	-2.2684457
26	0xbf50912b	-0.8147151
27	0xc0159a18	-2.3375301
28	0xbf8d4da8	-1.1039324
29	0x3a607f5e	0.0008563901
30	0x3feb5abe	1.8387067
31	0xbbe5e693	-0.007016012

model.4.bias f4 [2]
0	0xbdac2420	-0.08405328
1	0x3dac9bd8	0.08428162

exp_avg f4 [32, 25]
0	0x00000004	6e-45
1	0x00000004	6e-45
2	0x00000004	6e-45
3	0x00000004	6e-45
4	0x00000004	6e-45
5	0x00000004	6e-45
6	0x00000004	6e-45
7	0x00000004	6e-45
8	0x00000004	6e-45
9	0x00000004	6e-45
10	0x00000004	6e-45
11	0x00000004	6e-45
12	0x00000004	6e-45
13	0x00000004	6e-45
14	0x00000004	6e-45
15	0x00000004	6e-45
16	0x00000004	6e-45
17	0x00000004	6e-45
18	0x00000004	6e-45
19	0x00000004	6e-45
20	0x00000004	6e-45
21	0x00000004	6e-45
22	0x00000004	6e-45
23	0x00000004	6e-45
24	0x00000004	6e-45
25	0x3cc58a1a	0.024113704
26	0x3cb7a8fe	0.022419449
27	0x3ca5fee3	0.020263141
28	0x3c62e09c	0.013847496
29	0x3c36d953	0.011160213
30	0x3cc62775	0.024188736
31	0x3cc162a2	0.023606602
32	0x3ca51d5c	0.020155601
33	0x3c4b2fde	0.012401549
34	0x3c427b93	0.011870283
35	0x3cc96ce3	0.024588054
36	0x3cc9b152	0.024620686
37	0x3cb1c1cf	0.02169886
38	0x3c47a718	0.012185834
39	0x3c3c4369	0.011490681
40	0x3cc803c1	0.024415853
41	0x3cc6bcb8	0.02425991
42	0x3ca5346f	0.020166604
43	0x3c61c241	0.013779224
44	0x3c3d382f	0.01154904
45	0x3cb45fc7	0.022018326
46	0x3cb51953	0.022106802
47	0x3c9d9035	0.019233802
48	0x3c69fa47	0.014280862
49	0x3c612aab	0.013743083
50	0xb9cfd826	-0.0003964316
51	0xb9a40f7b	-0.0003129205
52	0xb8f31653	-0.00011591301
53	0xb80a9001	-3.3035878e-05
54	0xb83e96dc	-4.544003e-05
55	0xb9cfd21a	-0.00039638655
56	0xb9a31ac2	-0.0003110972
57	0xb85f5bb8	-5.3252763e-05
58	0xb83f95a4	-4.5677312e-05
59	0xb84d4663	-4.894136e-05
60	0xb9cb2b46	-0.00038751418
61	0xb999aff0	-0.00029313518
62	0xb91500a3	-0.00014209985
63	0xb9231de4	-0.00015556026
64	0xb9231dab	-0.00015555944
65	0xb9cb6b31	-0.0003879904
66	0xb9983507	-0.00029031208
67	0xb930b2c0	-0.00016851258
68	0xb93aa1b6	-0.00017798584
69	0xb93a3a9b	-0.00017760175
70	0xb9d4defb	-0.00040601924
71	0xb9bacbfd	-0.00035628668
72	0xb935c8f1	-0.00017336362
73	0xb939d7cd	-0.00017723367
74	0xb939e105	-0.00017726801
75	0xbd42dc89	-0.0475736
76	0xbd3d512d	-0.046219993
77	0xbd07fec3	-0.033201944
78	0xbce3c96a	-0.027806003
79	0xbce84d90	-0.028357297
80	0xbd42e014	-0.04757698
81	0xbd35311c	-0.044236287
82	0xbcec229c	-0.028825097
83	0xbce83976	-0.028347712
84	0xbcea3e7a	-0.028594244
85	0xbd427a20	-0.04747975
86	0xbd217978	-0.039422482
87	0xbceef251	-0.02916828
88	0xbcf3f30b	-0.029778978
89	0xbcf44230	-0.029816717
90	0xbd426ffa	-0.04747007
91	0xbd3b944f	-0.045795735
92	0xbd134b33	-0.035960387
93	0xbcf61ae6	-0.030042123
94	0xbcf58a8e	-0.029973295
95	0xbd429e15	-0.04751404
96	0xbd3f610c	-0.04672341
97	0xbd3933cd	-0.045215417
98	0xbd1f128a	-0.03883604
99	0xbcf5b301	-0.029992582
100	0x3babc1ba	0.0052416
101	0x3bac9df8	0.005267855
102	0x3b25155d	0.0025189735
103	0x3b21200e	0.0024585756
104	0x3b54fef3	0.0032500594
105	0x3ba9aab7	0.0051778215
106	0x3b8f8194	0.0043794606
107	0x3a936ee1	0.0011248254
108	0x3b44b369	0.0030014163
109	0x3b4be20e	0.003111008
110	0x3ba851a4	0.0051366854
111	0x3b301722	0.0026869257
112	0x3a9f9986	0.0012176491
113	0x3b7c47bc	0.0038494905
114	0x3b7cc581	0.003856987
115	0x3ba985fd	0.0051734434
116	0x3b98cb4d	0.004662907
117	0x3b496dc9	0.0030735603
118	0x3b57070e	0.0032810601
119	0x3b7abd1d	0.0038259693
120	0x3bbf9975	0.005847151
121	0x3bb4cac9	0.005517338
122	0x3bc0bb6c	0.0058817174
123	0x3bb36b3e	0.0054754307
124	0x3b4fc6bd	0.003170415
125	0xbaa1181d	-0.0012290512
126	0xba9f258c	-0.0012141927
127	0xba85e635	-0.0010215702
128	0xba9fd4d2	-0.0012194163
129	0xba9423d9	-0.0011302187
130	0xbaa1d6e4	-0.0012347368
131	0xbaa0b68e	-0.0012261437
132	0xba8af6e3	-0.0010602142
133	0xba95b48a	-0.0011421603
134	0xbaa9a692	-0.0012943319
135	0xbad2cdf2	-0.0016083105
136	0xbacb8f7a	-0.001553043
137	0xba85f32f	-0.0010219569
138	0xba7fc1cd	-0.00097563566
139	0xba4f2916	-0.00079025456
140	0xbac7d58d	-0.0015246138
141	0xbaa26244	-0.0012388905
142	0xba2a812f	-0.0006504235
143	0xba36f9db	-0.00069799804
144	0xba274e65	-0.0006382226
145	0xba8b8432	-0.0010644256
146	0xba581ee1	-0.00082443474
147	0xba334b8f	-0.0006839567
148	0xba481576	-0.00076325925
149	0xba1d8670	-0.00060091075
150	0x00000004	6e-45
151	0x00000004	6e-45
152	0x80000004	-6e-45
153	0x80000004	-6e-45
154	0x80000004	-6e-45
155	0x00000004	6e-45
156	0x00000004	6e-45
157	0x00000004	6e-45
158	0x00000004	6e-45
159	0x80000004	-6e-45
160	0x00000004	6e-45
161	0x00000004	6e-45
162	0x00000004	6e-45
163	0x00000004	6e-45
164	0x80000004	-6e-45
165	0x00000004	6e-45
166	0x00000004	6e-45
167	0x00000004	6e-45
168	0x00000004	6e-45
169	0x00000004	6e-45
170	0x00000004	6e-45
171	0x00000004	6e-45
172	0x00000004	6e-45
173	0x00000004	6e-45
174	0x00000004	6e-45
175	0xb4fbb76c	-4.688585e-07
176	0xb4f07c46	-4.4793904e-07
177	0xb4a8e9bd	-3.1462505e-07
178	0xb2ae747a	-2.0309233e-08
179	0xb4f3945c	-4.5370223e-07
180	0xb3be60fc	-8.865206e-08
181	0xb1bcd679	-5.495903e-09
182	0xa5b8d4b4	-3.2063045e-16
183	0xb3eec9f1	-1.11194716e-07
184	0xb512f3a8	-5.4743805e-07
185	0xafd4e12c	-3.872257e-10
186	0xad89f422	-1.5683514e-11
187	0x0356146d	6.2912395e-37
188	0xb496b43a	-2.807081e-07
189	0xb5195347	-5.7118126e-07
190	0xb0ab556f	-1.2466169e-09
191	0xaefb206c	-1.1419918e-10
192	0xb2801113	-1.4908926e-08
193	0xb4f028ac	-4.4733076e-07
194	0xb51959ce	-5.7127625e-07
195	0xb17f3df3	-3.7142598e-09
196	0xb131b0ab	-2.5857314e-09
197	0xb3f16eb1	-1.1242572e-07
198	0xb512b36f	-5.465035e-07
199	0xb51ac403	-5.7654705e-07
200	0x3ad4a0ac	0.00162222
201	0x3ad4a212	0.0016222617
202	0x3ad4a972	0.0016224815
203	0x3ad4c087	0.0016231694
204	0x3ad4c070	0.0016231667
205	0x3ad4bf98	0.0016231416
206	0x3ad4c065	0.0016231654
207	0x3ad4c082	0.0016231688
208	0x3ad4c0ec	0.0016231812
209	0x3ad4c0e0	0.0016231798
210	0x3ad4c070	0.0016231667
211	0x3ab845ec	0.0014058924
212	0x38d66d8b	0.00010224719
213	0x326b5960	1.3699122e-08
214	0x327a3eca	1.4566192e-08
215	0x3ad4c054	0.0016231635
216	0x3a3ef951	0.0007285076
217	0x2c7fb522	3.6338228e-12
218	0x3240ce44	1.122277e-08
219	0x3276bb90	1.4361731e-08
220	0x3aa27eb8	0.0012397384
221	0xaf81ff84	-2.3646518e-10
222	0x2c7fb112	3.6335973e-12
223	0x320c2785	8.158058e-09
224	0x31994679	4.460898e-09
225	0x80000004	-6e-45
226	0x80000004	-6e-45
227	0x00000004	6e-45
228	0x80000004	-6e-45
229	0x80000004	-6e-45
230	0x00000004	6e-45
231	0x80000004	-6e-45
232	0x80000004	-6e-45
233	0x80000004	-6e-45
234	0x80000004	-6e-45
235	0x00000004	6e-45
236	0x00000004	6e-45
237	0x80000004	-6e-45
238	0x80000004	-6e-45
239	0x80000004	-6e-45
240	0x00000004	6e-45
241	0x00000004	6e-45
242	0x00000004	6e-45
243	0x80000004	-6e-45
244	0x00000004	6e-45
245	0x00000004	6e-45
246	0x80000004	-6e-45
247	0x80000004	-6e-45
248	0x80000004	-6e-45
249	0x80000004	-6e-45
250	0x3accd2e8	0.001562682
251	0x3acc4eac	0.0015587411
252	0x3ad83620	0.0016495623
253	0x3affa353	0.001950363
254	0x3a91241d	0.0011073385
255	0x3acf6f91	0.0015826096

exp_avg_sq f4 [32, 25]
0	0x000001f4	7e-43
1	0x000001f4	7e-43
2	0x000001f4	7e-43
3	0x000001f4	7e-43
4	0x000001f4	7e-43
5	0x000001f4	7e-43
6	0x000001f4	7e-43
7	0x000001f4	7e-43
8	0x000001f4	7e-43
9	0x000001f4	7e-43
10	0x000001f4	7e-43
11	0x000001f4	7e-43
12	0x000001f4	7e-43
13	0x000001f4	7e-43
14	0x000001f4	7e-43
15	0x000001f4	7e-43
16	0x000001f4	7e-43
17	0x000001f4	7e-43
18	0x000001f4	7e-43
19	0x000001f4	7e-43
20	0x000001f4	7e-43
21	0x000001f4	7e-43
22	0x000001f4	7e-43
23	0x000001f4	7e-43
24	0x000001f4	7e-43
25	0x3d17cf44	0.0370629
26	0x3d16d6cb	0.036825936
27	0x3d20de42	0.03927446
28	0x3d1b23c8	0.03787592
29	0x3d16c6ee	0.036810808
30	0x3d1867f5	0.037208516
31	0x3d1b07ae	0.03784912
32	0x3d28fb4e	0.041255288
33	0x3d1da0d0	0.03848344
34	0x3d0fc0a6	0.035095833
35	0x3d194620	0.037420392
36	0x3d1b4ba2	0.037913926
37	0x3d365cb9	0.04452202
38	0x3d1339da	0.035943843
39	0x3d0d4b45	0.03449561
40	0x3d1c3c07	0.038143184
41	0x3d1f4108	0.038880378
42	0x3d24a663	0.04019774
43	0x3d167b0c	0.03673844
44	0x3d0f3ea2	0.03497184
45	0x3d1a70d9	0.037705276
46	0x3d14ca80	0.03632593
47	0x3d21cbb0	0.039500892
48	0x3d1b75b3	0.037954044
49	0x3d17643c	0.036960825
50	0x37c90d5b	2.3967286e-05
51	0x381dcb44	3.7621023e-05
52	0x38252f62	3.9383194e-05
53	0x381c9ffb	3.734229e-05
54	0x38032779	3.1269596e-05
55	0x37bc8a65	2.2475791e-05
56	0x3808b1d5	3.2590546e-05
57	0x38224cd9	3.869538e-05
58	0x37dfab44	2.6663423e-05
59	0x379bdcad	1.85802e-05
60	0x37b2fcb3	2.1336926e-05
61	0x37a228ed	1.9330962e-05
62	0x378ee3fd	1.7033884e-05
63	0x37307e75	1.0519861e-05
64	0x370e10cb	8.4677695e-06
65	0x37acda12	2.0605545e-05
66	0x379debd6	1.8825678e-05
67	0x3754a570	1.2674704e-05
68	0x371e7c68	9.4464995e-06
69	0x3706deef	8.038928e-06
70	0x3798cfdf	1.821661e-05
71	0x3790b054	1.7248247e-05
72	0x376ae3ef	1.4000557e-05
73	0x37507782	1.2425591e-05
74	0x37376120	1.0930264e-05
75	0x3c60c3ab	0.013718526
76	0x3c4fe36c	0.012688499
77	0x3c28faaa	0.010313669
78	0x3c30f59c	0.010800745
79	0x3c33f9d1	0.010984854
80	0x3c624fc6	0.013812965
81	0x3c3ebb46	0.011641329
82	0x3c076da6	0.008265888
83	0x3c1b3c00	0.009474754
84	0x3c24f209	0.010067471
85	0x3c6536e0	0.013990134
86	0x3c3b00ed	0.011413795
87	0x3bce5baf	0.0062975506
88	0x3c037047	0.0080223745
89	0x3c1c7baf	0.009550973
90	0x3c54fcd6	0.012999734
91	0x3c2d92db	0.010594095
92	0x3bc50987	0.0060130986
93	0x3bdafae5	0.006682741
94	0x3c084b07	0.008318669
95	0x3c3cc608	0.011521824
96	0x3c1bc58b	0.009507547
97	0x3bd5b133	0.006521368
98	0x3be4509f	0.0069676186
99	0x3c008652	0.007844524
100	0x3b4828b3	0.0030541837
101	0x3b2df7a6	0.0026545315
102	0x3b02eb72	0.0019976762
103	0x3acdeb1e	0.0015710329
104	0x3aab3192	0.0013061038
105	0x3b55880c	0.003258231
106	0x3b39ec1d	0.0028369494
107	0x3af1d8f0	0.0018451493
108	0x3a99e7ee	0.0011742094
109	0x3a71a389	0.0009217789
110	0x3b62d0b9	0.0034609272
111	0x3b46a898	0.0030312892
112	0x3af649ac	0.0018790266
113	0x3a6242a8	0.00086311484
114	0x3a4e4788	0.00078689354
115	0x3b564d7c	0.0032699993
116	0x3b3d74d4	0.0028908746
117	0x3ad563ae	0.0016280317
118	0x3a8957df	0.0010478458
119	0x3a60bddf	0.0008573215
120	0x3b45610e	0.0030117664
121	0x3b1e99d9	0.0024200587
122	0x3ade4032	0.0016956388
123	0x3aac4752	0.0013143814
124	0x3a92b8bb	0.001119397
125	0x3ba65a7c	0.0050767045
126	0x3bc6e384	0.0060696024
127	0x3bd2020c	0.0064089354
128	0x3bd2ed0b	0.006436949
129	0x3bc99c2e	0.0061526513
130	0x3b98897b	0.004655061
131	0x3baba13c	0.0052377265
132	0x3bc832e2	0.0061095813
133	0x3bcb4378	0.0062031113
134	0x3bb3b43d	0.0054841326
135	0x3b88f9c8	0.004180167
136	0x3b8e7e33	0.00434854
137	0x3b9c6c19	0.0047736284
138	0x3b9c7e63	0.0047758087
139	0x3b9a1674	0.0047023837
140	0x3b806c05	0.003919127
141	0x3b6b719a	0.0035925866
142	0x3b3f5e10	0.0029200353
143	0x3b573340	0.0032836944
144	0x3b6a14ed	0.003571804
145	0x3b50900d	0.0031824142
146	0x3b43c06e	0.0029869336
147	0x3b397e0a	0.0028303885
148	0x3b354c62	0.0027663936
149	0x3b400cb9	0.0029304458
150	0x000001f4	7e-43
151	0x000001f4	7e-43
152	0x000001f4	7e-43
153	0x000001f4	7e-43
154	0x000001f4	7e-43
155	0x000001f4	7e-43
156	0x000001f4	7e-43
157	0x000001f4	7e-43
158	0x000001f4	7e-43
159	0x000001f4	7e-43
160	0x000001f4	7e-43
161	0x000001f4	7e-43
162	0x000001f4	7e-43
163	0x000001f4	7e-43
164	0x000001f4	7e-43
165	0x000001f4	7e-43
166	0x000001f4	7e-43
167	0x000001f4	7e-43
168	0x000001f4	7e-43
169	0x000001f4	7e-43
170	0x000001f4	7e-43
171	0x000001f4	7e-43
172	0x000001f4	7e-43
173	0x000001f4	7e-43
174	0x000001f4	7e-43
175	0x38329057	4.2572934e-05
176	0x379f43e7	1.8985897e-05
177	0x37a9a524	2.022327e-05
178	0x37c0ef9d	2.2999762e-05
179	0x37cb2fa5	2.4221672e-05
180	0x38334e77	4.275e-05
181	0x37960538	1.7883824e-05
182	0x36058987	1.9898596e-06
183	0x3733ff6d	1.0728702e-05
184	0x375d840d	1.3203372e-05
185	0x38334e9a	4.275013e-05
186	0x37ed5511	2.8292214e-05
187	0x33d41de5	9.877457e-08
188	0x36c90dc8	5.991871e-06
189	0x3753e120	1.2628996e-05
190	0x3832bd55	4.2614836e-05
191	0x380480f0	3.1591335e-05
192	0x348caf7f	2.6204722e-07
193	0x35a01755	1.192772e-06
194	0x374296a6	1.1598377e-05
195	0x37eef9b1	2.8488083e-05
196	0x37d27510	2.5088462e-05
197	0x3609e4f4	2.054786e-06
198	0x34c465ba	3.658186e-07
199	0x371dee45	9.413406e-06
200	0x38dd3203	0.000105474166
201	0x38f447aa	0.00011648175
202	0x39380da2	0.00017552686
203	0x3a490b92	0.00076692656
204	0x3a74c664	0.0009337424
205	0x38c9b89e	9.6188145e-05
206	0x38e5cb90	0.000109574874
207	0x38f12597	0.00011498777
208	0x3a21c8e2	0.00061715965
209	0x3a6e6a09	0.000909478
210	0x38b859e2	8.790546e-05
211	0x3842ad47	4.641458e-05
212	0x34b579a7	3.380239e-07
213	0x39dc6900	0.000420399
214	0x3a68a0d7	0.00088740647
215	0x3799c334	1.832992e-05
216	0x359cbd5a	1.1678014e-06
217	0x344a2b1a	1.8828396e-07
218	0x39bed9b1	0.00036401817
219	0x3a60f89f	0.00085819693
220	0x36c60aa1	5.902097e-06
221	0x319a27a1	4.486495e-09
222	0x34a30d40	3.0370757e-07
223	0x398a378b	0.00026362794
224	0x3a58414c	0.0008249476
225	0x000001f4	7e-43
226	0x000001f4	7e-43
227	0x000001f4	7e-43
228	0x000001f4	7e-43
229	0x000001f4	7e-43
230	0x000001f4	7e-43
231	0x000001f4	7e-43
232	0x000001f4	7e-43
233	0x000001f4	7e-43
234	0x000001f4	7e-43
235	0x000001f4	7e-43
236	0x000001f4	7e-43
237	0x000001f4	7e-43
238	0x000001f4	7e-43
239	0x000001f4	7e-43
240	0x000001f4	7e-43
241	0x000001f4	7e-43
242	0x000001f4	7e-43
243	0x000001f4	7e-43
244	0x000001f4	7e-43
245	0x000001f4	7e-43
246	0x000001f4	7e-43
247	0x000001f4	7e-43
248	0x000001f4	7e-43
249	0x000001f4	7e-43
250	0x3aab8173	0.0013084844
251	0x3ac51415	0.0015035892
252	0x3ac9c254	0.0015392997
253	0x3ac271a3	0.0014834892
254	0x3ab42426	0.0013743683
255	0x3a9ad4b3	0.0011812657

exp_avg f4 [32]
0	0x00000004	6e-45
1	0x3d2a0bc6	0.041515134
2	0xb99f94ab	-0.0003043761
3	0xbd6fd5b1	-0.0585534
4	0x3b7810b4	0.0037851753
5	0xbaade81b	-0.0013268025
6	0x00000004	6e-45
7	0xb89b3dd6	-7.402494e-05
8	0x3b4b2c36	0.0031001694
9	0x00000004	6e-45
10	0x3b3f42b5	0.0029184048
11	0x00000004	6e-45
12	0x3bcdc036	0.006279017
13	0x3c1d663e	0.009606896
14	0xbcf993ba	-0.03046595
15	0xbb946bb6	-0.0045294417
16	0x395e4db7	0.00021200521
17	0xbab500cb	-0.001380944
18	0x3cfb70c3	0.030693417
19	0x00000004	6e-45
20	0xb5c6b61f	-1.4805154e-06
21	0xba3625a5	-0.00069483585
22	0x39d2b3b5	0.00040188213
23	0xbaadb7c8	-0.0013253624
24	0x3b8f5aae	0.0043748235
25	0xb64d492a	-3.0589968e-06
26	0xba374f5a	-0.00069927203
27	0xb40cc7b8	-1.3111173e-07
28	0xbb8317ef	-0.004000656
29	0x00000000	0.0
30	0x00000004	6e-45
31	0x00000004	6e-45

exp_avg_sq f4 [32]
0	0x000001f4	7e-43
1	0x3daedd96	0.08538358
2	0x387500ac	5.8413178e-05
3	0x3ce21432	0.02759752
4	0x3bc2a088	0.005939547
5	0x3c3e73c7	0.011624283
6	0x000001f4	7e-43
7	0x398f00ef	0.0002727578
8	0x3bbfcc97	0.0058532464
9	0x00000515	1.823e-42
10	0x3b4af70b	0.0030970003
11	0x000001f4	7e-43
12	0x3b4adb12	0.003095333
13	0x3c73f3d4	0.014889676
14	0x3c832ce8	0.016012624
15	0x3d1c13bc	0.038104758
16	0x3b23c35e	0.0024988274
17	0x3aaa4980	0.0012991875
18	0x3dc25866	0.09489517
19	0x000001f4	7e-43
20	0x385a9f34	5.212352e-05
21	0x3bc508f7	0.0060130316
22	0x3c916e0c	0.01775267
23	0x39939d56	0.0002815525
24	0x3d9ead9b	0.07747956
25	0x3a531c7f	0.00080532575
26	0x3a93b796	0.0011269923
27	0x353932d8	6.899186e-07
28	0x3d0d3e99	0.034483526
29	0x00000000	0.0
30	0x000001f4	7e-43
31	0x000001f4	7e-43

exp_avg f4 [16, 32]
0	0x80000004	-6e-45
1	0x3912374d	0.00013944246
2	0x390b6355	0.00013293077
3	0xba5f1c59	-0.0008510999
4	0xba36bcd9	-0.00069708895
5	0x3a642b53	0.00087039656
6	0x80000004	-6e-45
7	0xb5848496	-9.873354e-07
8	0x37cbcce6	2.4294899e-05
9	0x80000004	-6e-45
10	0x3a407592	0.0007341738
11	0x80000004	-6e-45
12	0x39b52510	0.00034550624
13	0x3a7bcc56	0.00096053386
14	0xbb0bc182	-0.0021325056
15	0x3a5dac8b	0.0008456192
16	0x351067ad	5.379505e-07
17	0x398012be	0.00024428027
18	0xbaf46060	-0.0018644445
19	0x80000004	-6e-45
20	0xb5574765	-8.0197634e-07
21	0xbba2f9c6	-0.004973623
22	0x3889f8e3	6.579028e-05
23	0x389b138d	7.3946176e-05
24	0x378e3650	1.695301e-05
25	0xb5afaa10	-1.3088011e-06
26	0x38484cbb	4.7755177e-05
27	0xb17655ba	-3.5846441e-09
28	0x39fb996a	0.00047988753
29	0x00000000	0.0
30	0x00000000	0.0
31	0x80000004	-6e-45
32	0x00000004	6e-45
33	0xb8faa352	-0.0001195135
34	0x36603a06	3.3412375e-06
35	0xb7c263d4	-2.3173088e-05
36	0xb9723e39	-0.00023102098
37	0xb9adb08a	-0.00033128663
38	0x00000004	6e-45
39	0x3559b9d2	8.1109204e-07
40	0x34e80143	4.3214285e-07
41	0x00000004	6e-45
42	0xb87fd90d	-6.0998882e-05
43	0x00000004	6e-45
44	0xb9bbf860	-0.00035852473
45	0xba8bc9e2	-0.0010665024
46	0xb9760191	-0.00023460972
47	0xba5c0e6a	-0.0008394482
48	0xb4f636d2	-4.5860958e-07
49	0xb8245329	-3.9178096e-05
50	0xba1957be	-0.00058495614
51	0x00000004	6e-45
52	0x356fe49a	8.93671e-07
53	0xba968843	-0.0011484701
54	0x38c1cc7c	9.241045e-05
55	0x3592d651	1.0940222e-06
56	0x364c7adf	3.046989e-06
57	0x351d4207	5.858314e-07
58	0xb79d02ef	-1.8717225e-05
59	0x31519e06	3.0503329e-09
60	0xb954cbe5	-0.00020293852
61	0x00000000	0.0
62	0x00000004	6e-45
63	0x00000004	6e-45
64	0x00000004	6e-45
65	0xb990ca1a	-0.00027616398
66	0xb8d2a27f	-0.000100438476
67	0x39f63bad	0.00046965238
68	0x37a5bffa	1.9758929e-05
69	0xba7c9b34	-0.0009636164
70	0x00000004	6e-45
71	0x350d8c01	5.2730326e-07
72	0xb763c07c	-1.3575071e-05
73	0x80000004	-6e-45
74	0xb9d8d333	-0.00041356086
75	0x00000004	6e-45
76	0xb98aa3c3	-0.00026443423
77	0xb9f0d934	-0.00045938196
78	0x3aaa2c3a	0.0012983151
79	0xb99c7b50	-0.00029846514
80	0xb5051b84	-4.95864e-07
81	0xb92260bd	-0.00015485562
82	0x39a6ad02	0.00031790888
83	0x00000004	6e-45
84	0x34dbda07	4.0950565e-07
85	0x3adde406	0.0016928918
86	0xb8a49b5d	-7.849068e-05
87	0xb9229d31	-0.00015508082
88	0xb82d2131	-4.1277326e-05
89	0x34ce8117	3.8464415e-07
90	0xb7dcb99e	-2.6312478e-05
91	0x2f225521	1.4764058e-10
92	0xb9b21148	-0.0003396368
93	0x00000000	0.0
94	0x00000004	6e-45
95	0x80000004	-6e-45
96	0x80000004	-6e-45
97	0xb8a9e579	-8.1012906e-05
98	0xb685cce4	-3.9875613e-06
99	0xb9d3e4c1	-0.0004041549
100	0xba841dc0	-0.0010079667
101	0xb84ec0aa	-4.929366e-05
102	0x80000004	-6e-45
103	0xb57c7ce0	-9.405903e-07
104	0xb501eec8	-4.840372e-07
105	0x80000004	-6e-45
106	0xb928c2b9	-0.00016094268
107	0x80000004	-6e-45
108	0x3832140a	4.245717e-05
109	0x38137ac1	3.5161855e-05
110	0xbad7f699	-0.001647669
111	0x3938dc25	0.00017629618
112	0x35073fca	5.0384244e-07
113	0x37042cbe	7.8782305e-06
114	0xbb1ad020	-0.0023622587
115	0x80000004	-6e-45
116	0xb5864c22	-1.0005936e-06
117	0xbbc6f308	-0.006071452
118	0xb9109d29	-0.00013791457
119	0xb5bfcd84	-1.4290422e-06
120	0xb70cfda4	-8.403706e-06
121	0xb568b7fd	-8.6694473e-07
122	0x372e4ef4	1.0389591e-05
123	0xb16a9640	-3.4136889e-09
124	0xb887ec72	-6.481343e-05
125	0x00000000	0.0
126	0x80000004	-6e-45
127	0x80000004	-6e-45
128	0x80000004	-6e-45
129	0xafcc93cf	-3.7212408e-10
130	0x37d4ec07	2.5382278e-05
131	0xb9336f64	-0.00017112267
132	0xb900e1a1	-0.00012291085
133	0xb7bca6c8	-2.248901e-05
134	0x80000004	-6e-45
135	0xb48ae33f	-2.5869846e-07
136	0xb40eeca3	-1.3310868e-07
137	0x80000004	-6e-45
138	0x31f1c86d	7.036809e-09
139	0x80000004	-6e-45
140	0xb12de626	-2.5305638e-09
141	0x362a1fcc	2.5350482e-06
142	0xb92d3278	-0.00016517367
143	0x3625ad3a	2.4687747e-06
144	0xb485ca4d	-2.4920374e-07
145	0x36b686ab	5.4397e-06
146	0xb9864e37	-0.00025616746
147	0x80000004	-6e-45
148	0xb493cc0c	-2.7529347e-07
149	0xb9e2826b	-0.00043203248
150	0x36c6b97a	5.922452e-06
151	0x37a07bc3	1.9131117e-05
152	0x36a0fc45	4.7977396e-06
153	0xb47f9991	-2.3804593e-07
154	0x36dbac65	6.546778e-06
155	0xb0815a02	-9.411567e-10
156	0x36ecf738	7.062128e-06
157	0x00000000	0.0
158	0x00000000	0.0
159	0x80000004	-6e-45
160	0x80000004	-6e-45
161	0x391551a7	0.00014240165
162	0xb2933910	-1.7139001e-08
163	0x389e1369	7.5376425e-05
164	0x39666ceb	0.00021975084
165	0x38ace646	8.244491e-05
166	0x80000004	-6e-45
167	0xb61319c9	-2.1919716e-06
168	0xb59cbc83	-1.167777e-06
169	0x80000004	-6e-45
170	0xb91aca22	-0.00014761885
171	0x80000004	-6e-45
172	0xb7ea8113	-2.7955079e-05
173	0x399f68f0	0.00030405028
174	0x36f715ca	7.36371e-06
175	0x39e08fe3	0.00042831813
176	0xb642b47d	-2.901331e-06
177	0xb71d3d5e	-9.372217e-06
178	0x39abdf42	0.00032782002
179	0x80000004	-6e-45
180	0xb6222352	-2.416044e-06
181	0x387a910d	5.9739734e-05
182	0xb7816a9b	-1.542764e-05
183	0xb6678639	-3.449981e-06
184	0xb87d4180	-6.0380902e-05
185	0xb6280936	-2.5039312e-06
186	0xb6ead512	-6.998548e-06
187	0xb20d9dec	-8.2431875e-09
188	0xb78c040d	-1.6691187e-05
189	0x00000000	0.0
190	0x80000004	-6e-45
191	0x80000004	-6e-45
192	0x00000004	6e-45
193	0xb9bb5540	-0.00035730936
194	0xb906a38d	-0.00012840163
195	0x3a1a8d48	0.00058956863
196	0xb8b48c27	-8.609174e-05
197	0xbaa52d9f	-0.0012602097
198	0x00000004	6e-45
199	0x32cda06a	2.3938089e-08
200	0xb792fa1e	-1.7521026e-05
201	0x00000004	6e-45
202	0xba1b65ea	-0.0005927967
203	0x00000004	6e-45
204	0xba01d841	-0.0004953184
205	0xba62fa31	-0.0008658497
206	0x3ac1de65	0.001479101
207	0xb9c9e235	-0.00038506245
208	0xb5aaae62	-1.2716739e-06
209	0xb94fceff	-0.0001981817
210	0x38636403	5.421416e-05
211	0x00000004	6e-45
212	0xb43c55ad	-1.7540033e-07
213	0x3ac9ddae	0.0015401149
214	0xb8a8bd27	-8.0460966e-05
215	0xb94e4e3e	-0.00019674838
216	0xb86e9d48	-5.68901e-05
217	0xb4077849	-1.2616614e-07
218	0xb7fa39af	-2.9829183e-05
219	0x9d29341c	-2.2393904e-21
220	0xb9f0bc54	-0.00045916683
221	0x00000000	0.0
222	0x00000000	0.0
223	0x00000004	6e-45
224	0x00000004	6e-45
225	0xb9d69c94	-0.0004093392
226	0xb8e7adc1	-0.000110473025
227	0x3a09811a	0.0005245373
228	0xb8c34b43	-9.312343e-05
229	0xba83eb5a	-0.0010064647
230	0x00000004	6e-45
231	0x32b52709	2.1088924e-08
232	0xb78177da	-1.5433809e-05
233	0x80000004	-6e-45
234	0xb9db7366	-0.00041856914
235	0x00000004	6e-45
236	0xb9efcbed	-0.0004573757
237	0xba8856a2	-0.0010401795
238	0x3aad1963	0.0013206418
239	0xba39e2a1	-0.000709096
240	0xb5966119	-1.120413e-06
241	0xb93722d4	-0.00017465214
242	0x3739640f	1.1050156e-05
243	0x00000004	6e-45
244	0xb425fb0f	-1.5458157e-07
245	0x3aaa8a05	0.0013011104
246	0xb8dc0660	-0.00010491605
247	0xb935dd01	-0.00017343835
248	0xb86b20f1	-5.6059045e-05
249	0xb3ef0141	-1.1129533e-07
250	0xb8049aa4	-3.1615273e-05
251	0x9d159ea1	-1.9801995e-21
252	0xb99acfbb	-0.0002952794
253	0x00000000	0.0
254	0x00000004	6e-45
255	0x00000004	6e-45

exp_avg_sq f4 [16, 32]
0	0x000001f4	7e-43
1	0x382a7cd0	4.06474e-05
2	0x3767cd4b	1.3816471e-05
3	0x39405ea9	0.0001834581
4	0x38afa3b7	8.3751445e-05
5	0x3937ebec	0.00017540128
6	0x000001f4	7e-43
7	0x353227d2	6.6368113e-07
8	0x35b85399	1.3733398e-06
9	0x000001f4	7e-43
10	0x3967093b	0.00022033315
11	0x000001f4	7e-43
12	0x399617e1	0.0002862802
13	0x39328672	0.00017025488
14	0x39282106	0.0001603403
15	0x39da361e	0.0004162052
16	0x3688ee0b	4.0808277e-06
17	0x37bbb1c1	2.237491e-05
18	0x39cf676c	0.00039559172
19	0x000001f4	7e-43
20	0x3496bca7	2.807694e-07
21	0x3a32e8cb	0.000682485
22	0x3987cf7c	0.00025903794
23	0x368b9dbd	4.160886e-06
24	0x38e8dda0	0.00011103903
25	0x35a3eea6	1.2213902e-06
26	0x376a57ce	1.39679305e-05
27	0x30653996	8.339155e-10
28	0x39e1dad8	0.00043078396
29	0x00000000	0.0
30	0x00000000	0.0
31	0x000001f4	7e-43
32	0x000001f4	7e-43
33	0x38f87524	0.00011847381
34	0x3578aeff	9.264185e-07
35	0x3826b3fc	3.9745108e-05
36	0x36d0be4d	6.221037e-06
37	0x391a3082	0.00014704655
38	0x000001f4	7e-43
39	0x330431a0	3.077878e-08
40	0x357b6576	9.365243e-07
41	0x000001f4	7e-43
42	0x39714727	0.00023010057
43	0x000001f4	7e-43
44	0x392819f8	0.00016031403
45	0x38d8466e	0.00010312801
46	0x38978002	7.2240844e-05
47	0x39f03335	0.0004581452
48	0x3613a0ef	2.1998383e-06
49	0x378599ec	1.5926511e-05
50	0x38689040	5.5447454e-05
51	0x000001f4	7e-43
52	0x3333b48c	4.184089e-08
53	0x391e9e9f	0.00015127145
54	0x3a20a511	0.00061281124
55	0x329a8408	1.7988e-08
56	0x39735837	0.00023207148
57	0x3566a91a	8.592775e-07
58	0x37135550	8.781746e-06
59	0x301f73be	5.800834e-10
60	0x3a312709	0.0006757831
61	0x00000000	0.0
62	0x000001f4	7e-43
63	0x000001f4	7e-43
64	0x000001f4	7e-43
65	0x3869facf	5.5785113e-05
66	0x36fef55c	7.5983535e-06
67	0x38743df0	5.8231817e-05
68	0x385c2567	5.248692e-05
69	0x3915395b	0.00014231114
70	0x000001f4	7e-43
71	0x3456b907	1.9997616e-07
72	0x34e5ee62	4.282802e-07
73	0x000001f4	7e-43
74	0x38f09853	0.000114724644
75	0x000001f4	7e-43
76	0x38bc5a15	8.981318e-05
77	0x3838069a	4.3875167e-05
78	0x38464a03	4.7275807e-05
79	0x3933c5f6	0.00017144516
80	0x35a8acb2	1.2567236e-06
81	0x37020cdd	7.751599e-06
82	0x398bb908	0.00026650005
83	0x000001f4	7e-43
84	0x33b953d4	8.629982e-08
85	0x39e3c726	0.0004344519
86	0x39891164	0.00026143633
87	0x3623907a	2.437299e-06
88	0x38cf5c16	9.8876815e-05
89	0x34cde48e	3.835052e-07
90	0x363810cd	2.7427916e-06
91	0x2f866bf3	2.445116e-10
92	0x39972d39	0.00028834658
93	0x00000000	0.0
94	0x000001f4	7e-43
95	0x000001f4	7e-43
96	0x000001f4	7e-43
97	0x38d53004	0.00010165575
98	0x35df646c	1.6644021e-06
99	0x38271ef2	3.9844723e-05
100	0x36570174	3.2038342e-06
101	0x378d68eb	1.6857366e-05
102	0x000001f4	7e-43
103	0x33b39c9d	8.363825e-08
104	0x358acf23	1.0342086e-06
105	0x000001f4	7e-43
106	0x38d62359	0.00010210899
107	0x000001f4	7e-43
108	0x389988d9	7.3210984e-05
109	0x3812dfaa	3.5017416e-05
110	0x38a99892	8.0869664e-05
111	0x3a03b6c9	0.00050244905
112	0x3572d7fa	9.046631e-07
113	0x379afae1	1.8475055e-05
114	0x378dd273	1.6906508e-05
115	0x000001f4	7e-43
116	0x31999ef2	4.470956e-09
117	0x381f96ce	3.8049002e-05
118	0x3a49773a	0.00076853076
119	0x33b6d5f4	8.513953e-08
120	0x3990de8f	0.0002763164
121	0x3595698e	1.1132086e-06
122	0x362ba6f6	2.557817e-06
123	0x305a165f	7.933973e-10
124	0x3a1848d6	0.0005809193
125	0x00000000	0.0
126	0x000001f4	7e-43
127	0x000001f4	7e-43
128	0x000001f4	7e-43
129	0x3392f358	6.842919e-08
130	0x3526056e	6.184772e-07
131	0x36fd9f56	7.5585367e-06
132	0x365709d7	3.2043224e-06
133	0x340596a6	1.2441396e-07
134	0x000001f4	7e-43
135	0x3327eb0d	3.9096495e-08
136	0x33a642a1	7.742097e-08
137	0x000001f4	7e-43
138	0x34272c02	1.5569097e-07
139	0x000001f4	7e-43
140	0x3285a088	1.5556239e-08
141	0x34d0f990	3.89246e-07
142	0x36270f52	2.4893857e-06
143	0x35b5a08f	1.353228e-06
144	0x32074653	7.874024e-09
145	0x358cc08c	1.0486851e-06
146	0x3762e428	1.35237715e-05
147	0x000001f4	7e-43
148	0x326cd25e	1.378484e-08
149	0x37b95539	2.2093403e-05
150	0x378794e1	1.6162581e-05
151	0x34850c77	2.478225e-07
152	0x3687c690	4.0464292e-06
153	0x33ac10a0	8.012398e-08
154	0x33b023f5	8.202179e-08
155	0x2e2f7d69	3.990178e-11
156	0x373c392a	1.1218983e-05
157	0x00000000	0.0
158	0x00000000	0.0
159	0x000001f4	7e-43
160	0x000001f4	7e-43
161	0x38444f43	4.680386e-05
162	0x36af1f97	5.219084e-06
163	0x3873ca1e	5.812395e-05
164	0x374155ca	1.1523671e-05
165	0x38eef460	0.00011394243
166	0x000001f4	7e-43
167	0x334063cc	4.479425e-08
168	0x3611fed8	2.1755022e-06
169	0x000001f4	7e-43
170	0x388419b6	6.2990395e-05
171	0x000001f4	7e-43
172	0x37553e3b	1.27102785e-05
173	0x38ac84ef	8.22636e-05
174	0x38bf3295	9.117011e-05
175	0x39a9ae6b	0.00032364143
176	0x34b8579e	3.433642e-07
177	0x37ced675	2.4656978e-05
178	0x39171c56	0.00014411038
179	0x000001f4	7e-43
180	0x35a183ee	1.2033831e-06
181	0x398c6eb7	0.0002678537
182	0x38d687f3	0.00010229638
183	0x358452fa	9.858916e-07
184	0x38b82b0a	8.78182e-05
185	0x36434209	2.9095702e-06
186	0x368be185	4.1687767e-06
187	0x2f893c84	2.4963154e-10
188	0x3991417c	0.00027705345
189	0x00000000	0.0
190	0x000001f4	7e-43
191	0x000001f4	7e-43
192	0x000001f4	7e-43
193	0x38863a26	6.400449e-05
194	0x374d6e4e	1.22446345e-05
195	0x38bc22b1	8.971e-05
196	0x38ad2ba0	8.2574086e-05
197	0x3943e795	0.0001868292
198	0x000001f4	7e-43
199	0x34b0391e	3.2824113e-07
200	0x35284306	6.268241e-07
201	0x000001f4	7e-43
202	0x38e870f9	0.00011083665
203	0x000001f4	7e-43
204	0x391530e5	0.00014227962
205	0x38985c68	7.265137e-05
206	0x38a71cce	7.968546e-05
207	0x398723b0	0.00025775796
208	0x36091156	2.0424682e-06
209	0x3744ec3b	1.1737512e-05
210	0x39e16423	0.00042989952
211	0x000001f4	7e-43
212	0x34188afb	1.4206664e-07
213	0x3a3518f8	0.00069083227
214	0x39cf2880	0.00039512292
215	0x3685cc61	3.9875017e-06
216	0x3916bdd0	0.00014375825
217	0x3526f8f6	6.2202105e-07
218	0x36d82f80	6.4428314e-06
219	0x2fdecefc	4.0528636e-10
220	0x39ae0df2	0.00033198256
221	0x00000000	0.0
222	0x00000000	0.0
223	0x000001f4	7e-43
224	0x000001f4	7e-43
225	0x387196a0	5.7599158e-05
226	0x37200894	9.53874e-06
227	0x389199e1	6.942801e-05
228	0x388c6d31	6.696059e-05
229	0x3916f956	0.00014398
230	0x000001f4	7e-43
231	0x3486dac3	2.5118615e-07
232	0x350e7fca	5.308508e-07
233	0x000001f4	7e-43
234	0x38af1139	8.347858e-05
235	0x000001f4	7e-43
236	0x391d8b0a	0.00015024483
237	0x38a9b213	8.091717e-05
238	0x38841c7c	6.299556e-05
239	0x39810acb	0.0002461284
240	0x35d4e488	1.5861742e-06
241	0x3719c161	9.164535e-06
242	0x39b87f32	0.00035189983
243	0x000001f4	7e-43
244	0x33eadd80	1.0936765e-07
245	0x3a129613	0.0005591821
246	0x39a57905	0.0003156142
247	0x364df925	3.0692402e-06
248	0x38ecbfb6	0.00011289066
249	0x35014eb9	4.81708e-07
250	0x36af1dab	5.21886e-06
251	0x2faac2dd	3.1061279e-10
252	0x39837f02	0.00025080895
253	0x00000000	0.0
254	0x000001f4	7e-43
255	0x000001f4	7e-43

exp_avg f4 [16]
0	0xbc11b2c8	-0.008892722
1	0xbb0a1d55	-0.0021074612
2	0x3b178c26	0.0023124306
3	0xbc50ea92	-0.012751238
4	0xb997d983	-0.00028963023
5	0xb9b4508f	-0.00034392296
6	0x3b343880	0.0027499497
7	0x3acf4e66	0.0015816211
8	0x393e9ebc	0.00018178945
9	0x3b9b199a	0.0047332766
10	0x399ef903	0.00030321637
11	0x3b620f3a	0.003449394
12	0x3a17fb6c	0.00057976576
13	0x00000004	6e-45
14	0xbb3aa54f	-0.002847988
15	0x80000004	-6e-45

exp_avg_sq f4 [16]
0	0x3ba87f45	0.005142125
1	0x3b8f68dc	0.004376514
2	0x3b2eea70	0.0026690029
3	0x3ba70f6f	0.0050982754
4	0x381afbed	3.6951085e-05
5	0x3c5af7e3	0.013364765
6	0x3b85316c	0.0040647294
7	0x3b597dbc	0.0033186516
8	0x3a8e0c0f	0.0010837334
9	0x3b1092b6	0.0022060103
10	0x3a8e64fb	0.0010863835
11	0x3bdce158	0.0067407303
12	0x3b0578ba	0.0020366148
13	0x000001f4	7e-43
14	0x3b561e5e	0.003267191
15	0x000001f4	7e-43

exp_avg f4 [2, 16]
0	0x3a1b0395	0.00059133145
1	0xb9a0119b	-0.00030530695
2	0xb99623ff	-0.0002863705
3	0x39eb8b43	0.0004492645
4	0x384f547e	4.9431335e-05
5	0x39191194	0.00014597765
6	0x39535490	0.0002015403
7	0xb90fe5de	-0.00013723175
8	0xba005b4c	-0.0004896417
9	0x3a1f62b7	0.00060800783
10	0xba0b42e6	-0.0005312398
11	0xb8a972d1	-8.079934e-05
12	0xb9f14281	-0.0004601665
13	0x80000004	-6e-45
14	0x3a79c474	0.000952787
15	0x00000004	6e-45
16	0xba1b0381	-0.0005913303
17	0x39a01216	0.00030531053
18	0x3996247f	0.0002863742
19	0xb9eb8ad6	-0.00044926134
20	0xb84f546e	-4.9431277e-05
21	0xb9191089	-0.00014597377
22	0xb95353ae	-0.00020153701
23	0x390fe6b2	0.00013723483
24	0x3a005b93	0.0004896458
25	0xba1f62ac	-0.0006080072
26	0x3a0b4333	0.00053124427
27	0x38a97433	8.080192e-05
28	0x39f1431e	0.00046017108
29	0x00000004	6e-45
30	0xba79c43f	-0.0009527839
31	0x80000004	-6e-45

exp_avg_sq f4 [2, 16]
0	0x37838bf0	1.568158e-05
1	0x37defb1a	2.658139e-05
2	0x37c3d50c	2.334502e-05
3	0x38837cc4	6.269806e-05
4	0x3602c80f	1.948796e-06
5	0x367aa7c1	3.7350549e-06
6	0x37e70d41	2.7543518e-05
7	0x37ad7507	2.0677702e-05
8	0x37dc8007	2.6285661e-05
9	0x36c8c160	5.9829763e-06
10	0x380a3c96	3.295819e-05
11	0x3752f30c	1.2573564e-05
12	0x380cfcac	3.361392e-05
13	0x000001f4	7e-43
14	0x38ab6a5a	8.173725e-05
15	0x000001f4	7e-43
16	0x37838bf3	1.5681586e-05
17	0x37defb1e	2.6581398e-05
18	0x37c3d50a	2.3345016e-05
19	0x38837cc5	6.269807e-05
20	0x3602c810	1.9487961e-06
21	0x367aa7b0	3.735051e-06
22	0x37e70d3f	2.7543514e-05
23	0x37ad7507	2.0677702e-05
24	0x37dc8008	2.6285663e-05
25	0x36c8c15f	5.982976e-06
26	0x380a3c96	3.295819e-05
27	0x3752f30d	1.2573565e-05
28	0x380cfcac	3.361392e-05
29	0x000001f4	7e-43
30	0x38ab6a58	8.1737235e-05
31	0x000001f4	7e-43

exp_avg f4 [2]
0	0x3a3d019b	0.0007210017
1	0xba3d00e7	-0.00072099123

exp_avg_sq f4 [2]
0	0x39e64eda	0.00043927768
1	0x39e64ed7	0.0004392776

loss f8 []
0	0x3f7bedfeae000000	0.00681876644375734
