14_epoch_edge_detector.pth (torch, 24958 bytes, 19 tensors)

model.0.weight f4 [32, 25]
0	0x3d108af6	0.035288773
1	0xbde41165	-0.1113613
2	0xbe732b77	-0.2374705
3	0xbd8b12fe	-0.06790732
4	0xbcda0d02	-0.02661753
5	0x3d98003a	0.07421918
6	0xbe490103	-0.19629292
7	0x3d4c6b8b	0.04990725
8	0xbcb67fe6	-0.022277784
9	0x3e2ca259	0.16858806
10	0x3dc34f00	0.095365524
11	0xbd0ab958	-0.033868164
12	0xbdc6c2da	-0.09705134
13	0x3e167f12	0.14696911
14	0xbcb473cf	-0.022027878
15	0x3d31403a	0.04327414
16	0xbec08460	-0.37600994
17	0xbeda4133	-0.42627868
18	0xbe9a0a68	-0.30086064
19	0xbd36b2b1	-0.044604007
20	0xbd38c409	-0.04510883
21	0xbdf2a21f	-0.118473284
22	0xbc49509f	-0.012287288
23	0x3dde29c9	0.10847814
24	0x3da4d547	0.08048492
25	0xbeb1b5da	-0.34709054
26	0xbeab6b86	-0.3348047
27	0xbe60c593	-0.21950369
28	0xbec2bc89	-0.38034466
29	0xbeb989e9	-0.3623803
30	0xbed60b95	-0.4180571
31	0x3e4925b9	0.19643296
32	0x3f3f1bd4	0.7465184
33	0x3e938294	0.2881056
34	0xbed416ab	-0.41423544
35	0xbdfbad7e	-0.122889504
36	0xbe9bed1a	-0.30454332
37	0x3f166c3f	0.5875892
38	0xbe459b0b	-0.19297425
39	0xbe5ca840	-0.21548557
40	0xbd8d9306	-0.06912808
41	0x3d42ba81	0.047541145
42	0x3e677fbe	0.22607324
43	0x3e32dfea	0.17468229
44	0xbd17f3d2	-0.03709776
45	0x3dd340ff	0.103151314
46	0x3e55f37a	0.2089366
47	0x3e7da920	0.24771547
48	0x3e3fcb23	0.18729834
49	0x3df013fa	0.1172256
50	0xbd80019b	-0.06250306
51	0x3cfb361a	0.030665446
52	0x3e51d289	0.20490469
53	0x3e57d1e7	0.21076165
54	0x3e85e52d	0.2615141
55	0xbe3d067b	-0.18459503
56	0xbdf4a19c	-0.11944887
57	0x3e618f03	0.22027211
58	0x3ec6a572	0.387981
59	0xbb5c399d	-0.0033603676
60	0xbf02dfbb	-0.51122636
61	0xbe83b53e	-0.25724214
62	0x3f461cbc	0.77387595
63	0xbe276a86	-0.16349229
64	0xbdc9dfa0	-0.09857106
65	0xbea196b9	-0.31560305
66	0x3eb5e4c9	0.35526112
67	0x3f0a1e89	0.5395284
68	0x3d3fcae2	0.046824344
69	0xbea0c6a7	-0.3140156
70	0x3d5b0b2b	0.053477447
71	0xbd7da98e	-0.061929278
72	0xbe357588	-0.17720616
73	0xbef451a7	-0.47718546
74	0xbecdc1f8	-0.4018705
75	0xbce29ca1	-0.027662577
76	0xbca0c58b	-0.019625446
77	0xbc6df2e8	-0.014523245
78	0xbc50dd26	-0.012748038
79	0xbc7c3a85	-0.0153948115
80	0xbcdf9bfd	-0.02729606
81	0xbc87c5b6	-0.016573768
82	0xba8a9d1c	-0.0010575387
83	0xbbb7291c	-0.0055896174
84	0xbce9d20c	-0.028542541
85	0xbc821cb4	-0.015882827
86	0x3c3e3364	0.011608932
87	0x3c25e8dc	0.010126319
88	0xbc947051	-0.018119963
89	0xbc86e7b8	-0.016467914
90	0xbd3beff9	-0.045883153
91	0xbd5f3a3c	-0.054498896
92	0xbda840f1	-0.082155116
93	0xbd7b5820	-0.06136334
94	0xbcaa2a1a	-0.020772029
95	0xbc99e037	-0.018783672
96	0xbc9e5561	-0.019327821
97	0xbd1886ee	-0.037238054
98	0xbcfa1f4b	-0.0305325
99	0xbcf3c779	-0.029758202
100	0xbe49f4ba	-0.19722262
101	0xbc193c1c	-0.00935271
102	0x3dc303f2	0.09522237
103	0xbd5d3474	-0.0540051
104	0xbc367f48	-0.011138745
105	0xbc813a58	-0.01577489
106	0xbea0d506	-0.31412524
107	0xbf824309	-1.0176708
108	0xbeb09505	-0.34488693
109	0x3e0fd100	0.14044571
110	0x3e4bb263	0.19892268
111	0x3d2446df	0.04010665
112	0xc0bb7931	-5.858544
113	0xbea93733	-0.33049926
114	0x3e73ab25	0.23795755
115	0x3e9baa81	0.30403522
116	0x3e02d81e	0.12777755
117	0xbf01ecad	-0.50751764
118	0xbe2594c3	-0.1617003
119	0x3e28790e	0.16452429
120	0x3df02e6f	0.117276065
121	0xbd99cffd	-0.07510374
122	0xbc56c79c	-0.013109114
123	0xbb9bac18	-0.00475074
124	0x3e31d816	0.17367586
125	0xbcf8874d	-0.030337954
126	0xbd14dd1d	-0.036343683
127	0xbd89d444	-0.067299396
128	0xbda39902	-0.07988168
129	0x3e3880b5	0.18017848
130	0xbd694d35	-0.056958396
131	0x3e7d9684	0.24764448
132	0x3d89acc4	0.067224056
133	0xbebdf520	-0.37101078
134	0x3ec3d4e8	0.38248372
135	0xbdf5fd64	-0.12011221
136	0x3f2cc8c0	0.6749382
137	0xbe9b96a7	-0.30388376
138	0xbfa0418d	-1.2520005
139	0x3e559d9b	0.20860903
140	0x3d2d2eb4	0.042280868
141	0x3e653538	0.22383583
142	0xbd918ad2	-0.07106556
143	0xbe92c8ee	-0.28668922
144	0x3e8ae7a6	0.2712986
145	0xbdd88a45	-0.10573248
146	0x3d30876f	0.04309791
147	0x3d95c51b	0.073129855
148	0xbd6b560c	-0.057455108
149	0x3d532987	0.051553275
150	0x3c2d348a	0.010571608
151	0x3e0038b2	0.12521628
152	0x3e9e5496	0.3092391
153	0x3ddbc6c3	0.1073127
154	0x3e012d2e	0.12614891
155	0x3db22cb0	0.0869993
156	0x3dd325f4	0.10309973
157	0x3e4f5855	0.2024854
158	0x3c7c7d23	0.015410694
159	0xbbde2394	-0.0067791436
160	0xbdade446	-0.08490805
161	0xbf1e594b	-0.61855
162	0xbf649d5b	-0.89302605
163	0xbee2cb92	-0.44295937
164	0xbe980ba2	-0.29696375
165	0x3d889423	0.0666888
166	0x3d3c7118	0.046006292
167	0x3d2fca7e	0.04291772
168	0x3e0f3db9	0.13988389
169	0x3c7158fe	0.01473069
170	0x3e57729a	0.21039811
171	0x3e530334	0.2060669
172	0x3e3332d5	0.1749986
173	0x3e41f42b	0.18940799
174	0x3e314144	0.17310053
175	0x3d0738d2	0.033013172
176	0x3d49fe6f	0.049314912
177	0x3d4e88d2	0.05042345
178	0xbd2bf348	-0.041980058
179	0xbe930e70	-0.28721952
180	0x3d0dcf5f	0.034621593
181	0xbda31625	-0.07963208
182	0xbe4a8584	-0.19777495
183	0xbf19ab72	-0.6002723
184	0xbc1dcbdc	-0.009631123
185	0xbd287fcf	-0.041137513
186	0xbec07ec0	-0.37596703
187	0xbf7e63d2	-0.99371064
188	0xbe8f5097	-0.27991173
189	0xbdc78417	-0.09741991
190	0xbdc1521b	-0.094394885
191	0xbee39705	-0.44451156
192	0xbda5ad45	-0.08089689
193	0xbd0274d3	-0.031849694
194	0xbddf89af	-0.10914933
195	0xbde82479	-0.113350816
196	0xbe0b5978	-0.13608348
197	0xbc3acdaa	-0.011401573
198	0x3da9b2de	0.08286069
199	0x3dd84948	0.10560852
200	0xbe4fff0c	-0.20312136
201	0x3e884d29	0.2662137
202	0x3e4a9e71	0.19787003
203	0xbd03b1cd	-0.032151986
204	0xbcfa8c45	-0.030584464
205	0xbe70975c	-0.23495239
206	0xbe402828	-0.18765318
207	0xbf5fe8c1	-0.8746453
208	0xbd9b67f1	-0.075881846
209	0xbdc6f275	-0.09714214
210	0x3d5ff15d	0.05467354
211	0xbeca5890	-0.39520693
212	0xc09d6863	-4.9189925
213	0xbeac60f8	-0.3366773
214	0xbe757c4d	-0.23973198
215	0x3e235207	0.1594926
216	0x3e0d273a	0.13784495
217	0x3d4dfa46	0.050287507
218	0xbe842fad	-0.25817624
219	0x3d2ab083	0.04167224
220	0x3e2d10d4	0.1690095
221	0x3dd91df7	0.106014185
222	0x3e2314d1	0.1592591
223	0x3e1529b9	0.14566697
224	0xbdd547ca	-0.10414083
225	0x3aebb240	0.00179822
226	0xbb2a2760	-0.002596341
227	0xba42a973	-0.00074257626
228	0xb8ac674d	-8.2208404e-05
229	0xbb6a0a5e	-0.0035711746
230	0xb8c93b40	-9.595463e-05
231	0x3a44db36	0.00075094716
232	0xbacddcb3	-0.0015706032
233	0xbb24e2b8	-0.002515955
234	0xbba29e97	-0.004962753
235	0xb9876649	-0.00025825415
236	0xbaf9db7a	-0.0019062601
237	0xbb703dfa	-0.0036658035
238	0xb890cbdc	-6.904427e-05
239	0xba4b9e19	-0.0007767394
240	0xbb14a74d	-0.0022682727
241	0xbaa3e825	-0.0012505098
242	0x3b3e8de2	0.0029076268
243	0xbb816d8c	-0.0039498266
244	0xba73f612	-0.00093063817
245	0x3a092fbf	0.000523325
246	0xbb0f486b	-0.0021863233
247	0xbb3bcba4	-0.0028655315
248	0xbaface0a	-0.0019134891
249	0x3a0a1aeb	0.00052682933
250	0x3d4d26c2	0.05008579
251	0xbd84f3da	-0.064918235
252	0x3cdf9316	0.027291816
253	0x3e0dc1b5	0.13843425
254	0xbdfaad89	-0.122401305
255	0x3dd8271c	0.105543345

model.0.bias f4 [32]
0	0x3f142fe7	0.57885593
1	0x3d78a676	0.060705625
2	0x3d03a346	0.03213813
3	0xbbd9ad32	-0.006642961
4	0x3ce85a76	0.028363448
5	0x3d60768d	0.05480056
6	0xbe00b48a	-0.1256887
7	0x3d5afce0	0.053463817
8	0x3d4f1343	0.05055548
9	0xbb7bbcbe	-0.003841206
10	0xbde3acdd	-0.111169554
11	0xbdb85afc	-0.09001729
12	0x3bae84fe	0.0053259125
13	0xbc1a0dbf	-0.009402691
14	0x3d664be9	0.056224737
15	0xbd89771c	-0.067121714
16	0x3deda8cf	0.11604463
17	0x3d8982cf	0.06714403
18	0xbd955927	-0.07292395
19	0x3d556ff0	0.052108705
20	0xbb559ee6	-0.0032595932
21	0xbc72ffef	-0.014831527
22	0x3d8467eb	0.06465133
23	0x3cfc6fc0	0.030815005
24	0x3d54ac0f	0.0519219
25	0xbd869eff	-0.06573295
26	0x3cf606a0	0.030032456
27	0xbcd7faf0	-0.026364774
28	0xbd807e85	-0.06274132
29	0xbd8d1b70	-0.06889999
30	0xbd2bb430	-0.041919887
31	0x3d801628	0.06254226

model.2.weight f4 [16, 32]
0	0x3d4817fd	0.048851002
1	0x3f221606	0.63314855
2	0xbd84e827	-0.06489592
3	0xbb1303ef	-0.0022432765
4	0x3f604dff	0.8761901
5	0xbeb9e36e	-0.36306328
6	0xbae099c9	-0.0017135675
7	0x3df3cc48	0.11904198
8	0x3f17e10b	0.59327763
9	0x3b744257	0.0037270987
10	0xbe86f266	-0.2635681
11	0xbeabde4a	-0.3356803
12	0x3f9193ba	1.1373208
13	0x3d09837c	0.03357266
14	0x3fa26726	1.2687728
15	0xbf40bf66	-0.7529205
16	0xbe6d7f22	-0.23193029
17	0xbf120c38	-0.57049894
18	0xbe5811de	-0.21100566
19	0x3f321087	0.6955647
20	0x3b564405	0.0032694351
21	0xbe2294fe	-0.15877149
22	0xbd5c73f5	-0.053821523
23	0x3f0cab2f	0.54948705
24	0x3f4f270a	0.80918944
25	0xbe9e7b02	-0.30953223
26	0x3ee9c5e0	0.4565878
27	0xbc03fcc3	-0.008055869
28	0x3f3fc9d0	0.74917316
29	0x3ecf39e9	0.4047387
30	0x3d02cda9	0.031934414
31	0x3f6af760	0.91783714
32	0x3ebce575	0.36893812
33	0x3ebd3e80	0.36961746
34	0x3e2072a4	0.15668732
35	0x3d0d67f2	0.034522958
36	0x3ed5ea10	0.41780138
37	0xbf164de8	-0.58712626
38	0x3e950f89	0.29113415
39	0x3de884fd	0.113534905
40	0x3e8687f1	0.2627559
41	0xbae3d9e3	-0.0017383661
42	0xbf7af004	-0.98022485
43	0xbf47ba99	-0.780191
44	0x3f014765	0.50499564
45	0xbf45bd48	-0.77241945
46	0x3e2d8886	0.16946611
47	0xbf32142b	-0.69562024
48	0xbe0d36e7	-0.13790475
49	0xbed471fa	-0.41493207
50	0xbf758b6b	-0.9591586
51	0x3e8297de	0.2550649
52	0xbb872cb9	-0.0041252044
53	0xbd1720b8	-0.036896437
54	0xbde8ed27	-0.11373358
55	0x3d17ff43	0.03710867
56	0x3f3a210e	0.7270669
57	0xbe8f8205	-0.28028885
58	0xbd021744	-0.03176047
59	0xbf148986	-0.58022344
60	0x3cfca216	0.030839007
61	0xbd0de81d	-0.03464519
62	0x3e33fecf	0.1757767
63	0x3f09bfa3	0.5380804
64	0xbb49c859	-0.0030789583
65	0xba6969f3	-0.00089040323
66	0xbb3fb7a2	-0.002925374
67	0xbb7a927d	-0.0038234286
68	0x3b0bbc66	0.002132201
69	0xbb95f672	-0.0045764977
70	0xba0c1b0f	-0.0005344608
71	0xbb9c6c15	-0.0047736266
72	0xbb2ece9f	-0.0026673449
73	0x3b396026	0.0028286069
74	0xbb331ab9	-0.002732916
75	0xbb4dfb59	-0.0031430332
76	0xbb20e079	-0.0024547859
77	0x39a23a48	0.0003094247
78	0xbb24aaf5	-0.0025126312
79	0xba8d2ebb	-0.0010771373
80	0xb8931a60	-7.014419e-05
81	0xbb87e9c4	-0.00414774
82	0x38dc71b0	0.000105115934
83	0xbabf7fab	-0.0014610192
84	0x3a856af7	0.0010178973
85	0xbb081218	-0.0020762738
86	0xba7fb495	-0.0009754387
87	0xba6ff188	-0.00091531174
88	0x3a2707ee	0.0006371726
89	0xbaa0c0d2	-0.0012264496
90	0xbb201f6e	-0.0024432796
91	0xbaca9236	-0.0015454951
92	0xbb3e6261	-0.0029050338
93	0xbae7980d	-0.0017669216
94	0xbb12ce3c	-0.0022400757
95	0xbb33ae53	-0.0027417138
96	0xbc9f7d32	-0.019468877
97	0xbca4db20	-0.020124018
98	0x3a95ffb4	0.0011444003
99	0xba38324a	-0.00070265366
100	0x3bcb0136	0.0061952127
101	0xbbcecfa3	-0.0063113733
102	0xbc5ae809	-0.013360986
103	0xbc9ef167	-0.019402219
104	0xbac78a0c	-0.0015223636
105	0x3abd4992	0.0014441481
106	0xbc1f7ad7	-0.009733877
107	0xba98a553	-0.001164595
108	0x3c351d0a	0.011054287
109	0xbc555383	-0.013020399
110	0xbbbb37e9	-0.005713452
111	0x3b08b3a7	0.0020859034
112	0x3ace7756	0.0015752118
113	0x3b911186	0.004427138
114	0xbb738062	-0.003715538
115	0xbbd20187	-0.0064088735
116	0xbb271a3a	-0.002549781
117	0xbbb60e6a	-0.0055559175
118	0xbc22f847	-0.009946889
119	0xbce15a59	-0.027508901
120	0xbb33470e	-0.0027355584
121	0xbb2961ad	-0.0025845573
122	0xbbd0353d	-0.0063540027
123	0xbc121695	-0.008916517
124	0xb88b5d50	-6.645417e-05
125	0x3bb6836a	0.005569865
126	0xbbed78f9	-0.007247087
127	0x3bae0c98	0.00531156
128	0x3e967a0a	0.29389983
129	0xbeda4cca	-0.4263671
130	0xbede58b7	-0.4342706
131	0x3c688a16	0.0141930785
132	0xbf07d269	-0.53055435
133	0x3ef45f68	0.4772904
134	0xbe393bff	-0.18089293
135	0x3cf577f8	0.029964432
136	0xbee593a1	-0.44839194
137	0x3a3cf0b8	0.0007207501
138	0x3eb4d5bf	0.35319325
139	0x3f06cc87	0.52655834
140	0xbf62ebf2	-0.88641274
141	0x3ea185ab	0.31547293
142	0xbf8e379a	-1.1110718
143	0x3e580c5c	0.21098465
144	0x3e7621bd	0.24036308
145	0x3f128b44	0.5724375
146	0x3f1e5a81	0.6185685
147	0xbebd4bea	-0.3697198
148	0x3b3a9304	0.0028468976
149	0x3e8caacc	0.27474058
150	0x3d77d14a	0.060502328
151	0x3ecb9282	0.39760214
152	0xbf23c328	-0.6396966
153	0x3e9b77c5	0.30364814
154	0xbecefe9a	-0.4042862
155	0x3e64a61b	0.22328989
156	0xbe9b26f9	-0.3030317
157	0xbe918f16	-0.28429478
158	0x3dc2776c	0.09495434
159	0xbf1c0566	-0.6094574
160	0x3d107eb5	0.035277087
161	0xbf068441	-0.52545553
162	0xbfb22c45	-1.391976
163	0x3ce569b3	0.028004503
164	0xbf5ad217	-0.8547682
165	0x3e59e9a9	0.2128054
166	0x3d8de797	0.06928938
167	0x3dfde27a	0.123967126
168	0xbee5aef6	-0.44860047
169	0xbb291d71	-0.0025804902
170	0x3f4aab7c	0.79167914
171	0x3d1f9a33	0.038965415
172	0xbf6bc716	-0.92100656
173	0x3ef5924d	0.4796318
174	0xbf34c18b	-0.70607823
175	0x3f13a1ba	0.5766865
176	0xbc336cf9	-0.010951274
177	0x3e10cbc8	0.14140236
178	0x3f1aaccf	0.60419935
179	0xbe1a136e	-0.15046474
180	0x3c43d321	0.0119521925
181	0xbe38b602	-0.1803818
182	0x3e977d99	0.2958801
183	0xbd9db566	-0.07700615
184	0xbe9c589c	-0.30536354
185	0xbe174203	-0.14771275
186	0xbed63804	-0.41839612
187	0x3d55dd43	0.052212965
188	0xbeb19bbf	-0.34689137
189	0xbe34bfdc	-0.17651314
190	0xbe7a38f6	-0.24435791
191	0xbf65dfe5	-0.8979476
192	0x3e00a673	0.12563495
193	0x3cf1d6a6	0.029521298
194	0x3e137b55	0.14402516
195	0xbbeb43df	-0.0071797217
196	0x3f869e2b	1.0517019
197	0xbedf77c3	-0.43646058
198	0xbee3cc28	-0.44491696
199	0x4023c37a	2.558806
200	0x3fdf2bd3	1.7435249
201	0xbb004c86	-0.0019576862
202	0x3d3593d8	0.044330448
203	0xbe3979c9	-0.18112864
204	0x3fa03448	1.2515955
205	0xbf3313fe	-0.6995238
206	0xbffb112a	-1.9614613
207	0xbfb2f049	-1.3979579
208	0x3cd3aea9	0.02584012
209	0xbf960632	-1.1720641
210	0xbe2eae79	-0.17058744
211	0x3cf1b6ac	0.02950605
212	0xbc6395bf	-0.013890683
213	0xbe2a4590	-0.16628098
214	0xbd8d9a23	-0.06914165
215	0x3f93d067	1.1547974
216	0x3f77af13	0.9675152
217	0x3ea0163e	0.3126697
218	0x3ef4c26c	0.47804582
219	0xbeddc3fa	-0.4331358
220	0x3ee24653	0.44194278
221	0x3e628732	0.22121885
222	0x3f98445d	1.1895863
223	0x3fa24a95	1.2679011
224	0x3e37ebd1	0.1796105
225	0xbed8a616	-0.42314214
226	0xbe3ac900	-0.18240738
227	0x3cc63670	0.02419588
228	0x3f17e18d	0.5932854
229	0xbefe48b1	-0.49664834
230	0xbc9bf9b9	-0.019039975
231	0x3e0f3395	0.1398452
232	0x3edf149e	0.43570417
233	0xbaf7bbb8	-0.0018900549
234	0xbf938222	-1.1524088
235	0xbf0fb651	-0.5613757
236	0x3ef0cb5c	0.4703015
237	0xbf31e488	-0.69489336
238	0xbd96caf9	-0.07362933
239	0xbede5f75	-0.43432203
240	0xbda4aa03	-0.0804024
241	0xbe915329	-0.2838376
242	0xbfa12a76	-1.2591083
243	0x3cd6b572	0.026209567
244	0xbb893648	-0.004187379
245	0xbe7530ee	-0.23944446
246	0xbe01a98d	-0.12662335
247	0xbf307e09	-0.68942314
248	0x3f3b3680	0.73130035
249	0xbec23d12	-0.37937218
250	0x3d9e4ab1	0.0772909
251	0xbec2673d	-0.3796939
252	0xbeb4034f	-0.35158774
253	0xbee3180d	-0.44354287
254	0x3ed3d12d	0.41370526
255	0x3f49bd84	0.788048

model.2.bias f4 [16]
0	0xbe68f4a4	-0.22749573
1	0x3e98c60f	0.29838607
2	0xbb360008	-0.0027771015
3	0xbc85f8dd	-0.016354019
4	0x3ebb6f76	0.36608475
5	0x3e6d477c	0.231718
6	0x3d1f637a	0.038913228
7	0x3f0f08ca	0.55872786
8	0x3d788070	0.060669363
9	0xbb82abc4	-0.003987761
10	0x3e00776f	0.1254556
11	0x3e35166c	0.17684335
12	0xbe08d052	-0.13360718
13	0xbacd4967	-0.0015662134
14	0x3f126e65	0.571997
15	0x3d3e77a1	0.046500806

model.4.weight f4 [2, 16]
0	0xbfd714a0	-1.6803169
1	0xc016e2f3	-2.357602
2	0x3a394e3f	0.00070688495
3	0x3c018d59	0.007907235
4	0x3f72dc2f	0.94867224
5	0x4004fe44	2.0780191
6	0xbfea5fea	-1.8310521
7	0xc077400d	-3.8632843
8	0x3f92f914	1.1482263
9	0xbb04e77f	-0.0020279584
10	0x4017c0f2	2.3711514
11	0x401574e8	2.3352604
12	0xc00d376d	-2.206508
13	0x3a230030	0.00062179845
14	0xc0a324dc	-5.0982494
15	0x3ff3c44b	1.9044279
16	0x3fd6e86e	1.6789682
17	0x401687af	2.3520315
18	0x3a97332a	0.0011535634
19	0xbb4a4f0f	-0.0030869877
20	0xbf73b5bf	-0.951992
21	0xc0050535	-2.0784428
22	0x3fea4326	1.8301742
23	0x407748fd	3.8638299
24	0xbf927000	-1.144043
25	0xba194648	-0.00058469595
26	0xc017bde2	-2.3709645
27	0xc014fb89	-2.3278525
28	0x400d5532	2.208325
29	0x3a3d4cba	0.0007221211
30	0x40a2f185	5.0919824
31	0xbff3b82f	-1.9040583

model.4.bias f4 [2]
0	0x3db419b8	0.08793968
1	0xbdbaa559	-0.09113569

exp_avg f4 [32, 25]
0	0xb98bbf16	-0.00026654516
1	0xb965d85a	-0.00021919739
2	0xb92e4d7c	-0.00016622798
3	0xb989f76b	-0.00026315017
4	0xb9992b38	-0.00029214635
5	0xb9b9099d	-0.00035293112
6	0xb92f87c4	-0.00016739877
7	0xb94c9d64	-0.00019513589
8	0xb99c188c	-0.00029772928
9	0xb99227aa	-0.00027876842
10	0xb98c4a41	-0.00026758204
11	0xb998b6ff	-0.00029128042
12	0xb8e68850	-0.00010992645
13	0xb98ae50c	-0.00026492064
14	0xb9988024	-0.0002908717
15	0xb97c61b4	-0.0002406899
16	0xb94c922e	-0.00019509412
17	0xb79a5984	-1.8399915e-05
18	0xb93ff239	-0.00018305414
19	0xb99674b4	-0.0002869718
20	0xb9948169	-0.00028325178
21	0xb98f553b	-0.00027338587
22	0xb96398de	-0.00021705354
23	0x38301bf7	4.1987714e-05
24	0xb97a7c66	-0.000238882
25	0x3cd65ffe	0.02616882
26	0x3cc826de	0.024432596
27	0x3cb5fe74	0.02221606
28	0x3c962539	0.018328296
29	0x3c7198e3	0.014745924
30	0x3cdae3a9	0.026719885
31	0x3cda222f	0.026627628
32	0x3cb883d4	0.022523798
33	0x3c929b87	0.017896427
34	0x3c74a1ee	0.014931185
35	0x3cb3642e	0.021898355
36	0x3cbc83a6	0.023011994
37	0x3cd1150a	0.025522728
38	0x3c8d46b8	0.017245635
39	0x3c84ffd6	0.016235273
40	0x3cb2b051	0.02181259
41	0x3cbc8ba1	0.023015799
42	0x3cb5f668	0.022212222
43	0x3c8ac597	0.016939921
44	0x3c8caf9e	0.017173585
45	0x3cc0abb1	0.023519369
46	0x3cd4f876	0.025997382
47	0x3cbe0db3	0.023199892
48	0x3c8daf2e	0.017295446
49	0x3c8ab117	0.016930146
50	0x3ca8cd2c	0.020605646
51	0x3ca170b2	0.019707058
52	0x3c888520	0.016665041
53	0x3c40b11d	0.011760977
54	0x3c413be0	0.0117940605
55	0x3ca4d91c	0.020123057
56	0x3ca506c7	0.020144833
57	0x3c8c1b73	0.017102933
58	0x3c553222	0.013012441
59	0x3c5b916d	0.013401371
60	0x3c6fddc2	0.0146402735
61	0x3c679980	0.014135718
62	0x3c7f408e	0.015579356
63	0x3c4622aa	0.0120932255
64	0x3c5528b9	0.013010197
65	0x3c700a70	0.014650926
66	0x3c7759e3	0.015097114
67	0x3c9283e4	0.017885156
68	0x3c53ad69	0.012919762
69	0x3c553e88	0.013015397
70	0x3c73c18c	0.014877688
71	0x3ca15fa0	0.019698918
72	0x3c992c79	0.018697964
73	0x3c547474	0.012967218
74	0x3c66d9a2	0.014089974
75	0x80000004	-6e-45
76	0x80000004	-6e-45
77	0x80000004	-6e-45
78	0x80000004	-6e-45
79	0x00000004	6e-45
80	0x80000004	-6e-45
81	0x00000004	6e-45
82	0x00000004	6e-45
83	0x00000004	6e-45
84	0x00000004	6e-45
85	0x80000004	-6e-45
86	0x00000004	6e-45
87	0x00000004	6e-45
88	0x00000004	6e-45
89	0x00000004	6e-45
90	0x80000004	-6e-45
91	0x80000004	-6e-45
92	0x00000004	6e-45
93	0x00000004	6e-45
94	0x80000004	-6e-45
95	0x80000004	-6e-45
96	0x80000004	-6e-45
97	0x80000004	-6e-45
98	0x80000004	-6e-45
99	0x80000004	-6e-45
100	0xb1b1ab33	-5.170841e-09
101	0xb11f9129	-2.322006e-09
102	0x32cc21f7	2.3764171e-08
103	0x3554e0b9	7.930317e-07
104	0x35872a2c	1.0070557e-06
105	0xb1b1a253	-5.169832e-09
106	0xb11f210b	-2.3156328e-09
107	0x32cc665e	2.3795277e-08
108	0x3554e14d	7.930401e-07
109	0x35872b23	1.0070838e-06
110	0xb1b26704	-5.1921933e-09
111	0xb11d5a81	-2.2897952e-09
112	0x32cc70b7	2.3799982e-08
113	0x3554638b	7.912101e-07
114	0x3586c992	1.0042443e-06
115	0xb2911273	-1.6888611e-08
116	0xb2708ffa	-1.4002575e-08
117	0x324f1363	1.2053394e-08
118	0x35513a7e	7.7943685e-07
119	0x358536f7	9.925269e-07
120	0xb2911249	-1.6888537e-08
121	0xb2710c57	-1.4030852e-08
122	0x324e5cb5	1.2011857e-08
123	0x3551371b	7.7938756e-07
124	0x3585365b	9.925092e-07
125	0xbc7bc560	-0.015366882
126	0xbc79a01d	-0.015235928
127	0xbc65de02	-0.014029982
128	0xbc1166de	-0.008874623
129	0xbc08682d	-0.008325619
130	0xbc7d18db	-0.015447821
131	0xbc7b208c	-0.015327584
132	0xbc6016b6	-0.01367729
133	0xbc0cc75f	-0.008592456
134	0xbc060042	-0.008178772
135	0xbc7d5839	-0.015462928
136	0xbc79ab39	-0.015238577
137	0xbc469a41	-0.012121738
138	0xbbe49801	-0.006976128
139	0xbbe54190	-0.006996341
140	0xbc7d5309	-0.015461692
141	0xbc757768	-0.014982082
142	0xbc3a7111	-0.011379496
143	0xbbe8fbc4	-0.007110091
144	0xbbe8232d	-0.0070842714
145	0xbc7aaa1b	-0.015299345
146	0xbc6ef209	-0.014584073
147	0xbc314950	-0.010820702
148	0xbbec0dbf	-0.007203787
149	0xbbe850ee	-0.0070897257
150	0x3b16a9e7	0.0022989453
151	0x3b386b63	0.002814018
152	0x3b835ca4	0.0040088464
153	0x3b92f81b	0.004485143
154	0x3b9af21f	0.00472857
155	0x3b16bd88	0.0023001153
156	0x3b1b62bb	0.002370997
157	0x3b71d984	0.003690333
158	0x3b9d44b4	0.00479945
159	0x3bab6b57	0.0052313018
160	0x3b2ad930	0.0026069395
161	0x3b383da0	0.0028112903
162	0x3b654f3d	0.0034989857
163	0x3ba2e6ee	0.0049713766
164	0x3b8b57c8	0.0042524077
165	0x3b2bc884	0.0026212046
166	0x3b3601ca	0.0027772062
167	0x3b51c918	0.003201073
168	0x3b81aadb	0.003957135
169	0x3b84cc59	0.0040526805
170	0x3b3df85b	0.0028987143
171	0x3b4d3742	0.0031313454
172	0x3b573d67	0.0032842995
173	0x3b7dff4e	0.003875691
174	0x3b8092be	0.003923743
175	0xae8bec82	-6.3630004e-11
176	0xae86a149	-6.1222645e-11
177	0xae047193	-3.01142e-11
178	0xab8e34bd	-1.0104345e-12
179	0xae034019	-2.984288e-11
180	0xae83f058	-5.999884e-11
181	0xae6ec1e7	-5.4287155e-11
182	0xad52cc70	-1.1982512e-11
183	0xa8095475	-7.623341e-15
184	0xad205fe9	-9.116243e-12
185	0xae427d87	-4.4221984e-11
186	0xad6e4e38	-1.3546102e-11
187	0x00000004	6e-45
188	0xa8095475	-7.623341e-15
189	0xad205d7b	-9.115704e-12
190	0xae168d7a	-3.4231708e-11
191	0x80001f08	-1.1132e-41
192	0x9bad188f	-2.863632e-22
193	0xa8095c54	-7.625048e-15
194	0xad2060e4	-9.116461e-12
195	0xad7ac3f2	-1.4254363e-11
196	0x9ed4b851	-2.2522605e-20
197	0xad96a8cc	-1.7127987e-11
198	0xade857ce	-2.641434e-11
199	0xae1c43de	-3.553057e-11
200	0xb193c985	-4.301173e-09
201	0xb104e0b9	-1.9336268e-09
202	0xadb0937b	-2.0074378e-11
203	0xabd96ade	-1.5448439e-12
204	0xae21028f	-3.6609434e-11
205	0xb193b455	-4.2987645e-09
206	0xb104686f	-1.9267892e-09
207	0xac3a4f0f	-2.6476076e-12
208	0xaae0313d	-3.982456e-13
209	0xad32d34d	-1.0165047e-11
210	0xb1947068	-4.320146e-09
211	0xb102f483	-1.9056479e-09
212	0x250b93bf	1.2106386e-16
213	0x961e992e	-1.2811473e-25
214	0xad891778	-1.5585519e-11
215	0xb25118a1	-1.2171001e-08
216	0xb2b5a479	-2.1145967e-08
217	0xb2d9ec4f	-2.5369586e-08
218	0xb2da1575	-2.5388298e-08
219	0xb2da2a7d	-2.5397862e-08
220	0xb2512600	-1.2174041e-08
221	0xb2b61523	-2.11972e-08
222	0xb2da6a18	-2.5426786e-08
223	0xb2da7cce	-2.5435295e-08
224	0xb2da763f	-2.5432312e-08
225	0x00000004	6e-45
226	0x00000004	6e-45
227	0x00000004	6e-45
228	0x00000004	6e-45
229	0x00000004	6e-45
230	0x00000000	0.0
231	0x00000004	6e-45
232	0x00000004	6e-45
233	0x00000004	6e-45
234	0x00000004	6e-45
235	0x00000000	0.0
236	0x00000000	0.0
237	0x80000004	-6e-45
238	0x00000004	6e-45
239	0x00000004	6e-45
240	0x00000000	0.0
241	0x80000004	-6e-45
242	0x80000004	-6e-45
243	0x80000004	-6e-45
244	0x00000004	6e-45
245	0x00000000	0.0
246	0x00000004	6e-45
247	0x80000004	-6e-45
248	0x80000004	-6e-45
249	0x00000004	6e-45
250	0xbd0840d1	-0.03326494
251	0xbd131dd4	-0.03591712
252	0xbd1f4887	-0.038887527
253	0xbd25eace	-0.04050713
254	0xbd35a98e	-0.044351153
255	0xbd091dfa	-0.033475854

exp_avg_sq f4 [32, 25]
0	0x38d8aa0f	0.000103313585
1	0x38f8f1e1	0.00011870615
2	0x3905ca9c	0.00012759346
3	0x392b25a4	0.00016321853
4	0x39358458	0.00017310807
5	0x38d5d98d	0.000101971535
6	0x38e460d1	0.00010889921
7	0x39079dcc	0.00012933387
8	0x3932a002	0.0001703501
9	0x39388894	0.00017598487
10	0x38e1465d	0.00010741942
11	0x38e4a26c	0.00010902141
12	0x390092fe	0.0001226179
13	0x391f6fbd	0.00015205047
14	0x39312401	0.00016893448
15	0x39032dd2	0.00012510203
16	0x39009fb2	0.00012266522
17	0x38fbf967	0.000120150675
18	0x39225fbd	0.00015485189
19	0x3930699d	0.00016824012
20	0x38fd8efd	0.00012090614
21	0x38f51ddf	0.00011688074
22	0x38fa9167	0.00011948012
23	0x391593d7	0.00014264822
24	0x3924dc0c	0.00015722233
25	0x3beef8b7	0.0072928327
26	0x3bdb5343	0.006693275
27	0x3bdcdb72	0.006740027
28	0x3bdb40bd	0.006691067
29	0x3bf4d3f8	0.0074715577
30	0x3c05457a	0.00813424
31	0x3c02e494	0.007989068
32	0x3bf06d07	0.007337216
33	0x3c01df3d	0.007926759
34	0x3c094115	0.008377333
35	0x3c1216c1	0.008916558
36	0x3c13d5f2	0.0090231765
37	0x3c300a56	0.010744652
38	0x3c1aa077	0.009437672
39	0x3c1ed7ea	0.009695033
40	0x3c18ac98	0.009318493
41	0x3c294c9f	0.010333209
42	0x3c425b5c	0.011862602
43	0x3c3e0a05	0.0115990685
44	0x3c2eb5e8	0.010663487
45	0x3c22534f	0.009907558
46	0x3c367718	0.011136793
47	0x3c470996	0.012148282
48	0x3c43584e	0.011922909
49	0x3c3fd9a5	0.011709605
50	0x3c1fa786	0.009744531
51	0x3c316ce3	0.010829183
52	0x3c3f1808	0.011663444
53	0x3c41db90	0.011832133
54	0x3c407cc7	0.011748499
55	0x3c1b1735	0.009465982
56	0x3c2402df	0.01001045
57	0x3c3e9d29	0.01163415
58	0x3c469ef3	0.012122857
59	0x3c341864	0.010992143
60	0x3c10b80b	0.008832942
61	0x3c17f116	0.009273788
62	0x3c35bcae	0.011092348
63	0x3c267ce6	0.010161614
64	0x3c277baf	0.01022236
65	0x3c0bb89b	0.0085279
66	0x3c1241b6	0.0089267995
67	0x3c09252c	0.008370679
68	0x3c10edf5	0.008845796
69	0x3c195d00	0.009360552
70	0x3c074cae	0.008258028
71	0x3c02ca87	0.007982857
72	0x3c012eba	0.007884676
73	0x3c00fac1	0.007872284
74	0x3c0a6723	0.008447441
75	0x000001f4	7e-43
76	0x000001f4	7e-43
77	0x000001f4	7e-43
78	0x000001f4	7e-43
79	0x000001f4	7e-43
80	0x000001f4	7e-43
81	0x000001f4	7e-43
82	0x000001f4	7e-43
83	0x000001f4	7e-43
84	0x000001f4	7e-43
85	0x000001f4	7e-43
86	0x000001f4	7e-43
87	0x000001f4	7e-43
88	0x000001f4	7e-43
89	0x000001f4	7e-43
90	0x000001f4	7e-43
91	0x000001f4	7e-43
92	0x000001f4	7e-43
93	0x000001f4	7e-43
94	0x000001f4	7e-43
95	0x000001f4	7e-43
96	0x000001f4	7e-43
97	0x000001f4	7e-43
98	0x000001f4	7e-43
99	0x000001f4	7e-43
100	0x38384100	4.3929555e-05
101	0x380c282a	3.3416007e-05
102	0x35636c23	8.472145e-07
103	0x379a3311	1.838201e-05
104	0x380e8f7c	3.398907e-05
105	0x38389f64	4.4017463e-05
106	0x380c0546	3.3383512e-05
107	0x347485d2	2.2772954e-07
108	0x379bd6ca	1.8577459e-05
109	0x38121ee3	3.4837878e-05
110	0x3854e78b	5.076038e-05
111	0x381a4bf7	3.678721e-05
112	0x34417618	1.8017488e-07
113	0x3811d382	3.4767676e-05
114	0x38968f6d	7.1792725e-05
115	0x3855730a	5.0890296e-05
116	0x3825de97	3.954637e-05
117	0x36efdcdb	7.148466e-06
118	0x3838bc00	4.4044107e-05
119	0x389e85ac	7.5589254e-05
120	0x38553769	5.0834762e-05
121	0x38219311	3.8522357e-05
122	0x370274db	7.775811e-06
123	0x383a7b03	4.446042e-05
124	0x38a28537	7.749575e-05
125	0x3b2ba822	0.0026192744
126	0x3b2bb984	0.0026203105
127	0x3b0e6298	0.0021726247
128	0x3ad76687	0.0016433754
129	0x3ac18981	0.0014765711
130	0x3b3389b2	0.0027395305
131	0x3b27576e	0.002553429
132	0x3b09096f	0.0020910164
133	0x3ab7a9e8	0.0014012428
134	0x3aa51742	0.0012595432
135	0x3b48a2ee	0.0030614692
136	0x3b34e287	0.002760084
137	0x3ae827fe	0.0017712114
138	0x3a8a9726	0.001057361
139	0x3aa8024d	0.0012818068
140	0x3b4282a0	0.002967991
141	0x3b32aecf	0.0027264839
142	0x3afb7534	0.001918471
143	0x3aa7a017	0.0012788799
144	0x3aa43483	0.0012527857
145	0x3b3490d9	0.0027552156
146	0x3b246dd0	0.0025089867
147	0x3b077e4a	0.002067464
148	0x3ad86aeb	0.0016511356
149	0x3ac9c6c3	0.0015394319
150	0x39d17328	0.00039949385
151	0x39e38a18	0.00043399702
152	0x39fe46fa	0.00048499537
153	0x3a0c2343	0.00053458306
154	0x3a09bb77	0.00052540697
155	0x39cd425b	0.00039150086
156	0x39d98615	0.00041489364
157	0x3a03a2c8	0.000502151
158	0x3a083152	0.00051953376
159	0x39fff397	0.0004881888
160	0x39c80750	0.0003815242
161	0x39cbbeb1	0.00038861253
162	0x39d8e2d3	0.00041367728
163	0x39ceda7d	0.00039454168
164	0x39c9d130	0.00038493564
165	0x39cf6e16	0.00039564137
166	0x39dd6c63	0.0004223316
167	0x39e1a3b1	0.00043037304
168	0x39e0bb8a	0.00042864337
169	0x39de0465	0.00042346414
170	0x39d2935e	0.00040164118
171	0x39dc5dde	0.00042031606
172	0x39e0bdde	0.0004286607
173	0x39e3ade7	0.0004342638
174	0x39dd15ae	0.00042168557
175	0x2e15de71	3.4076245e-11
176	0x2e15dd44	3.40752e-11
177	0x2e151209	3.3894696e-11
178	0x2d295eee	9.627616e-12
179	0x2cea4cff	6.6592283e-12
180	0x2e15358b	3.3926233e-11
181	0x2e156136	3.396502e-11
182	0x2d83b5a2	1.4973637e-11
183	0x2b8a5139	9.828034e-13
184	0x2f736ddc	2.2139751e-10
185	0x2e15343a	3.3925064e-11
186	0x312ee738	2.5451765e-09
187	0x31b72b06	5.330892e-09
188	0x2fa8b38e	3.0686603e-10
189	0x30686166	8.453952e-10
190	0x2e08b86a	3.1086612e-11
191	0x314e34a9	3.000688e-09
192	0x33a1a18e	7.526533e-08
193	0x33b32991	8.342898e-08
194	0x33b35001	8.34989e-08
195	0x2ccf6dce	5.8954846e-12
196	0x31658c10	3.3403502e-09
197	0x33a27fdc	7.56697e-08
198	0x33b32fd5	8.3440376e-08
199	0x33b35f55	8.352678e-08
200	0x37d431f9	2.529564e-05
201	0x37a6101e	1.9796247e-05
202	0x34c44200	3.6555866e-07
203	0x33543cfd	4.9415565e-08
204	0x338e8616	6.6367804e-08
205	0x37d6042d	2.5512732e-05
206	0x37a17e69	1.925156e-05
207	0x33dad685	1.0190437e-07
208	0x325923fd	1.2639245e-08
209	0x32ff4ddd	2.9721315e-08
210	0x37f9185c	2.9694456e-05
211	0x37ae2587	2.0759891e-05
212	0x33c2ec2c	9.0767884e-08
213	0x374dcc9d	1.2266592e-05
214	0x37efb129	2.8573517e-05
215	0x3873b071	5.810004e-05
216	0x385c90fa	5.2587107e-05
217	0x380cb9a7	3.3551503e-05
218	0x3807ce93	3.2378895e-05
219	0x3801d66c	3.0955693e-05
220	0x38747cfc	5.8290534e-05
221	0x385b22b5	5.2245992e-05
222	0x3815aa14	3.5682766e-05
223	0x380e58b3	3.3938046e-05
224	0x3808040a	3.242869e-05
225	0x000001f4	7e-43
226	0x000001f4	7e-43
227	0x000001f4	7e-43
228	0x000001f4	7e-43
229	0x000001f4	7e-43
230	0x00000000	0.0
231	0x000001f4	7e-43
232	0x000001f4	7e-43
233	0x000001f4	7e-43
234	0x000001f4	7e-43
235	0x00000000	0.0
236	0x00000000	0.0
237	0x000001f4	7e-43
238	0x000001f4	7e-43
239	0x000001f4	7e-43
240	0x00000000	0.0
241	0x000001f4	7e-43
242	0x000001f4	7e-43
243	0x000001f4	7e-43
244	0x000001f4	7e-43
245	0x00000000	0.0
246	0x000001f4	7e-43
247	0x000001f4	7e-43
248	0x000001f4	7e-43
249	0x000001f4	7e-43
250	0x3d0730e7	0.03300562
251	0x3d17e1b3	0.037080478
252	0x3d3265af	0.043554004
253	0x3d5905b9	0.052983973
254	0x3d6c0a3f	0.05762696
255	0x3d0023b0	0.031284034

exp_avg f4 [32]
0	0xbaaa96de	-0.0013014933
1	0x3d260f12	0.040541716
2	0x3ce29af8	0.027661785
3	0x00000004	6e-45
4	0x35e7bf6a	1.726655e-06
5	0xbccbbbd1	-0.024869831
6	0x3b943ac0	0.004523605
7	0xb463f182	-2.1228882e-07
8	0xb4a801ca	-3.129374e-07
9	0x00000004	6e-45
10	0xbd63b774	-0.055594876
11	0xbc00f1a9	-0.007870116
12	0x351e07f9	5.887119e-07
13	0x3c447cfa	0.011992687
14	0x3cd26ec7	0.025687588
15	0xbc698f85	-0.014255409
16	0xba965fed	-0.001147268
17	0xbc5cadba	-0.013469154
18	0xbcc0af30	-0.023521036
19	0x3c8ef21e	0.017449435
20	0x00000004	6e-45
21	0xb9bd3032	-0.00036084797
22	0xbc5887c7	-0.013215966
23	0x3d116a80	0.035501957
24	0x3783f809	1.5731917e-05
25	0x3b532c0a	0.0032222294
26	0xb41bf500	-1.452463e-07
27	0xbcdfc7e8	-0.027317002
28	0x3c9c6f1b	0.019095948
29	0x3ce1a65b	0.027545145
30	0xaef1d878	-1.0997864e-10
31	0x385d8eb2	5.28234e-05

exp_avg_sq f4 [32]
0	0x39f0fca8	0.0004596461
1	0x3cb54f01	0.022132399
2	0x3cb5da9c	0.022198968
3	0x000001f4	7e-43
4	0x3a9b29ea	0.0011838053
5	0x3bc6b934	0.0060645584
6	0x3a6722f4	0.0008817159
7	0x35b74ccf	1.3656917e-06
8	0x39fc9ef8	0.00048183626
9	0x000001f4	7e-43
10	0x3dc723e8	0.097236454
11	0x3c48589c	0.012228157
12	0x396a24b2	0.00022329649
13	0x3cdd9d50	0.027052552
14	0x3d820284	0.06348136
15	0x3c60af16	0.013713619
16	0x3a901d8e	0.0010995136
17	0x3aacbea3	0.0013179373
18	0x3dc1f0e8	0.09469777
19	0x3c29443d	0.010331211
20	0x000001f4	7e-43
21	0x393ac70e	0.00017812496
22	0x3be9fc4c	0.007140672
23	0x3c9ac082	0.018890623
24	0x3abbfc4b	0.0014342157
25	0x3b4f05ef	0.003158923
26	0x386ba21d	5.6179346e-05
27	0x3c580953	0.013185817
28	0x3c4ed6e3	0.012624475
29	0x3bd0d194	0.00637264
30	0x327c6af2	1.4692647e-08
31	0x3b48eecb	0.003065991

exp_avg f4 [16, 32]
0	0x3a288f8e	0.0006430083
1	0x3aeb8dc3	0.0017971325
2	0x3ba1d15e	0.0049382886
3	0x00000004	6e-45
4	0x32acc9cb	2.01152e-08
5	0x39b25763	0.00034015914
6	0x3a8e42a5	0.0010853602
7	0xb0af24e4	-1.2743411e-09
8	0xb1b99d0a	-5.402062e-09
9	0x80000004	-6e-45
10	0x3b1d66f2	0.002401766
11	0x39f1ce09	0.0004612061
12	0xb19729d2	-4.399433e-09
13	0x3b18bcba	0.002330585
14	0x3a4df1ed	0.0007856179
15	0x3b38337c	0.002810686
16	0x390ea9f7	0.00013605492
17	0x39dd771e	0.00042241154
18	0x3b3511aa	0.0027628937
19	0x3bf961c0	0.0076105297
20	0x80000004	-6e-45
21	0x386027fd	5.3443004e-05
22	0x39f3aa0f	0.00046475275
23	0x3bd0de3d	0.006374149
24	0x33e8a1f2	1.08327995e-07
25	0x3b834ddc	0.0040070843
26	0xb169c9fa	-3.4020773e-09
27	0x3b01fd8a	0.001983496
28	0x3b0b0637	0.002121342
29	0x3be37604	0.006941559
30	0xab613561	-8.0010136e-13
31	0x3515f4e8	5.586321e-07
32	0xba451fa1	-0.00075196667
33	0x3a46449b	0.00075633236
34	0x3b35d87e	0.0027747448
35	0x00000004	6e-45
36	0xb12452b8	-2.3912161e-09
37	0x392006f3	0.00015261378
38	0x3ac34a96	0.0014899548
39	0xb0f55b90	-1.785212e-09
40	0xb2026a78	-7.591204e-09
41	0x00000004	6e-45
42	0x3b17bc5a	0.0023153038
43	0xb8ab6fda	-8.1747494e-05
44	0xb1d36558	-6.1524297e-09
45	0xb8d53f19	-0.00010168384
46	0x39e4e252	0.0004365617
47	0xba332709	-0.0006834125
48	0x37c26182	2.3172008e-05
49	0x351f627e	5.937544e-07
50	0x3adce8d2	0.0016854054
51	0x3b3d7ead	0.0028914616
52	0x80000004	-6e-45
53	0x36928d80	4.367612e-06
54	0x39f4e791	0.00046711837
55	0x3b57cf79	0.003293006
56	0x333c792e	4.3882373e-08
57	0x3af9679a	0.0019028068
58	0xb1a519a8	-4.805049e-09
59	0xb9ac76e4	-0.00032894977
60	0x39072387	0.00012887838
61	0x3b31e97d	0.0027147227
62	0xab9df3a5	-1.1223146e-12
63	0x330a7e5c	3.2245552e-08
64	0x00000004	6e-45
65	0x00000004	6e-45
66	0x00000000	0.0
67	0x00000004	6e-45
68	0x00000000	0.0
69	0x00000004	6e-45
70	0x00000004	6e-45
71	0x00000004	6e-45
72	0x00000000	0.0
73	0x00000000	0.0
74	0x00000004	6e-45
75	0x00000004	6e-45
76	0x00000004	6e-45
77	0x00000004	6e-45
78	0x00000000	0.0
79	0x00000004	6e-45
80	0x00000004	6e-45
81	0x00000004	6e-45
82	0x00000004	6e-45
83	0x00000000	0.0
84	0x00000004	6e-45
85	0x00000000	0.0
86	0x00000000	0.0
87	0x00000000	0.0
88	0x00000000	0.0
89	0x00000004	6e-45
90	0x00000004	6e-45
91	0x00000000	0.0
92	0x00000000	0.0
93	0x00000004	6e-45
94	0x00000004	6e-45
95	0x00000000	0.0
96	0x00000004	6e-45
97	0x80000004	-6e-45
98	0x80000004	-6e-45
99	0x00000004	6e-45
100	0x00000004	6e-45
101	0x00000004	6e-45
102	0x00000004	6e-45
103	0x00000004	6e-45
104	0x80000004	-6e-45
105	0x00000000	0.0
106	0x00000004	6e-45
107	0x80000004	-6e-45
108	0x00000004	6e-45
109	0x00000004	6e-45
110	0x00000004	6e-45
111	0x00000004	6e-45
112	0x80000004	-6e-45
113	0x00000004	6e-45
114	0x00000004	6e-45
115	0x00000004	6e-45
116	0x80000004	-6e-45
117	0x00000004	6e-45
118	0x00000004	6e-45
119	0x00000004	6e-45
120	0x00000004	6e-45
121	0x80000004	-6e-45
122	0x00000004	6e-45
123	0x00000004	6e-45
124	0x00000004	6e-45
125	0x00000004	6e-45
126	0x00000004	6e-45
127	0x00000004	6e-45
128	0x384d6016	4.8965296e-05
129	0xba82cf17	-0.000997993
130	0xbb67204d	-0.0035267056
131	0x80000004	-6e-45
132	0xb24a4700	-1.1774091e-08
133	0xb9bffb6c	-0.00036617683
134	0xba20ebde	-0.00061386626
135	0x30459c1f	7.1890044e-10
136	0x30b82c04	1.3400272e-09
137	0x00000004	6e-45
138	0xbac13995	-0.0014741892
139	0xb98f874b	-0.00027375887
140	0xb1249fe1	-2.3956022e-09
141	0xba9b412f	-0.0011844988
142	0xba0bfb6c	-0.0005339894
143	0xba9ec374	-0.0012112693
144	0xb8a5f7df	-7.913983e-05
145	0xb97d4adb	-0.00024155846
146	0xbab465b9	-0.0013763226
147	0xbb940226	-0.0045168577
148	0x00000004	6e-45
149	0xb802669a	-3.108997e-05
150	0xb9876f37	-0.00025832068
151	0xbb82acaa	-0.0039878683
152	0xb39d679f	-7.329731e-08
153	0xbb36fdc8	-0.0027922262
154	0x30a41816	1.1939416e-09
155	0xba441081	-0.0007479266
156	0xba6bfa4e	-0.0009001837
157	0xbb62fdde	-0.003463618
158	0x2ab04a77	3.131555e-13
159	0xb4a9777d	-3.1565642e-07
160	0x393752f8	0.00017483148
161	0xbb0bbc93	-0.0021322116
162	0x386a21ae	5.5821314e-05
163	0x80000004	-6e-45
164	0xb2dee9c6	-2.595051e-08
165	0xba52cfe3	-0.0008041842
166	0xba663b63	-0.0008782653
167	0x30d81c4d	1.5724112e-09
168	0x30cc6ff6	1.4874775e-09
169	0x00000004	6e-45
170	0xbaa92bd1	-0.0012906735
171	0xba1e1344	-0.00060300925
172	0xb1b92c30	-5.389232e-09
173	0xbb274d8e	-0.0025528404
174	0xba9e6df0	-0.0012087207
175	0x3ac3ece9	0.0014947924
176	0xb9357196	-0.00017303819
177	0xb743ad59	-1.1663266e-05
178	0xbb4794e7	-0.0030453743
179	0xbaf316be	-0.0018546206
180	0x00000004	6e-45
181	0xb88e2292	-6.777527e-05
182	0xb989a428	-0.00026252982
183	0xbaab22f4	-0.0013056681
184	0xb42b6832	-1.5963522e-07
185	0x39e7d874	0.00044221024
186	0x306a7c45	8.53053e-10
187	0x3b203e2a	0.0024451115
188	0x3a1dff3e	0.0006027109
189	0xbb90d7cd	-0.0044202567
190	0x23cdf17e	2.232842e-17
191	0xb538bad0	-6.881719e-07
192	0x39733182	0.00023192729
193	0x3ab1c7ac	0.0013563535
194	0x3bf2605e	0.007396742
195	0x80000004	-6e-45
196	0xb04b94aa	-7.4062234e-10
197	0x39d0f5c9	0.00039855976
198	0x3acac620	0.0015470423
199	0xb0bf0bc2	-1.3900421e-09
200	0xb0b529ec	-1.3181398e-09
201	0x80000004	-6e-45
202	0x3b19c288	0.0023461897
203	0x383d43c1	4.5124212e-05
204	0xaf190dbc	-1.3920148e-10
205	0x3a489ef2	0.0007653079
206	0x3950a1be	0.0001989668
207	0x3b712569	0.003679598
208	0x37932052	1.7538816e-05
209	0x39f1c9fb	0.0004611759
210	0x3b39a6b2	0.0028328118
211	0x3c1e4c7a	0.009661788
212	0x80000004	-6e-45
213	0x3667e735	3.4556263e-06
214	0x398f2d58	0.0002730887
215	0x3c06a83f	0.008218824
216	0xb0b9aa06	-1.3508845e-09
217	0x3bcb252c	0.0061994996
218	0xb056cfdd	-7.814814e-10
219	0x3b18c634	0.0023311498
220	0x3ad96568	0.0016586008
221	0x3bd9ea8b	0.006650274
222	0xab75e9af	-8.7365786e-13
223	0xb0dfd5d2	-1.6286157e-09
224	0xbacc581a	-0.0015590221
225	0xba11b53b	-0.00055583165
226	0x3b14b499	0.0022690652
227	0x00000004	6e-45
228	0xb1195095	-2.2310236e-09
229	0xb3c1c9c3	-9.023963e-08
230	0xba06bfe7	-0.000514029
231	0xb1490152	-2.92501e-09
232	0xb1bb07fb	-5.4433236e-09
233	0x80000004	-6e-45
234	0x3a6d23b0	0.00090461504
235	0xb920ec81	-0.00015346894
236	0x31dbef1d	6.400923e-09
237	0xba4df72f	-0.00078569626
238	0x38bb122f	8.920242e-05
239	0xbad4d7b2	-0.0016238599
240	0x32a1ec1c	1.8850237e-08
241	0x33cf1cc2	9.64442e-08
242	0xb9fcc4ba	-0.00048211758
243	0xb9830c0f	-0.0002499525
244	0x80000004	-6e-45
245	0xb131188d	-2.5770845e-09
246	0x39218a1f	0.0001540561
247	0x3a0e2e36	0.0005423756
248	0x33b2c69d	8.3248985e-08
249	0x3a785b19	0.0009474024
250	0xb1a81bfa	-4.892624e-09
251	0xbae413de	-0.001740094
252	0xba8e4f38	-0.0010857349
253	0xbaeb6fee	-0.0017962435
254	0xac00bae7	-1.8293646e-12
255	0x336093a2	5.2288335e-08

exp_avg_sq f4 [16, 32]
0	0x38862814	6.397083e-05
1	0x396c0761	0.00022509463
2	0x39078db8	0.00012927398
3	0x000001f4	7e-43
4	0x341d1658	1.4629893e-07
5	0x37797584	1.4868918e-05
6	0x38619a3f	5.3787833e-05
7	0x2da620da	1.8886604e-11
8	0x339b8975	7.242753e-08
9	0x000001f4	7e-43
10	0x39573e8c	0.00020527298
11	0x38a6847e	7.9401754e-05
12	0x3400fa10	1.2011901e-07
13	0x39840b98	0.0002518564
14	0x3899cbee	7.3335934e-05
15	0x38af9637	8.37263e-05
16	0x371270a9	8.728509e-06
17	0x34c7683d	3.7142482e-07
18	0x3986f990	0.0002574441
19	0x3935ee03	0.00017350171
20	0x000001f4	7e-43
21	0x363b5af3	2.791811e-06
22	0x381e7914	3.77829e-05
23	0x396d1139	0.00022608497
24	0x3226193d	9.66821e-09
25	0x3826ce73	3.9769755e-05
26	0x34c9e6ea	3.760718e-07
27	0x3987b7f1	0.00025886254
28	0x3a12c742	0.000559915
29	0x39d4f503	0.0004061834
30	0x27eada3f	6.518467e-15
31	0x34588cbb	2.0167765e-07
32	0x390e6e34	0.00013583229
33	0x38b09c72	8.421474e-05
34	0x38bf02e5	9.108129e-05
35	0x000001f4	7e-43
36	0x34039d21	1.2257489e-07
37	0x360e3c47	2.1194735e-06
38	0x38e5f5ee	0.00010965379
39	0x2e1e04bd	3.592925e-11
40	0x33f3ad2c	1.1347069e-07
41	0x000001f4	7e-43
42	0x3853bd69	5.0482722e-05
43	0x37436ec1	1.1648693e-05
44	0x31c9e3f4	5.875785e-09
45	0x38737f53	5.8054295e-05
46	0x38013b09	3.0810977e-05
47	0x38779ace	5.9033562e-05
48	0x35ea4646	1.7454811e-06
49	0x35005516	4.780753e-07
50	0x38b1f25e	8.485162e-05
51	0x390aa882	0.0001322348
52	0x000001f4	7e-43
53	0x349d4c94	2.9299247e-07
54	0x37804e7e	1.529534e-05
55	0x392bd4a6	0.00016387049
56	0x35cdfe6a	1.5347734e-06
57	0x37e36a2a	2.7109945e-05
58	0x3330b82e	4.1145704e-08
59	0x38c44624	9.359073e-05
60	0x3931a709	0.00016942261
61	0x39226f5e	0.00015491011
62	0x286a4888	1.3005337e-14
63	0x3317ab42	3.5313185e-08
64	0x000001f4	7e-43
65	0x000001f4	7e-43
66	0x00000000	0.0
67	0x000001f4	7e-43
68	0x00000000	0.0
69	0x000001f4	7e-43
70	0x000001f4	7e-43
71	0x000001f4	7e-43
72	0x00000000	0.0
73	0x00000000	0.0
74	0x000001f4	7e-43
75	0x000001f4	7e-43
76	0x000001f4	7e-43
77	0x000001f4	7e-43
78	0x00000000	0.0
79	0x000001f4	7e-43
80	0x000001f4	7e-43
81	0x000001f4	7e-43
82	0x000001f4	7e-43
83	0x00000000	0.0
84	0x000001f4	7e-43
85	0x00000000	0.0
86	0x00000000	0.0
87	0x00000000	0.0
88	0x00000000	0.0
89	0x000001f4	7e-43
90	0x000001f4	7e-43
91	0x00000000	0.0
92	0x00000000	0.0
93	0x000001f4	7e-43
94	0x000001f4	7e-43
95	0x00000000	0.0
96	0x000001f4	7e-43
97	0x000001f4	7e-43
98	0x000001f4	7e-43
99	0x000001f4	7e-43
100	0x000001f4	7e-43
101	0x000001f4	7e-43
102	0x000001f4	7e-43
103	0x000001f4	7e-43
104	0x000001f4	7e-43
105	0x00000000	0.0
106	0x000001f4	7e-43
107	0x000001f4	7e-43
108	0x000001f4	7e-43
109	0x000001f4	7e-43
110	0x000001f4	7e-43
111	0x000001f4	7e-43
112	0x000001f4	7e-43
113	0x000001f4	7e-43
114	0x000001f4	7e-43
115	0x000001f4	7e-43
116	0x000001f4	7e-43
117	0x000001f4	7e-43
118	0x000001f4	7e-43
119	0x000001f4	7e-43
120	0x000001f4	7e-43
121	0x000001f4	7e-43
122	0x000001f4	7e-43
123	0x000001f4	7e-43
124	0x000001f4	7e-43
125	0x000001f4	7e-43
126	0x000001f4	7e-43
127	0x000001f4	7e-43
128	0x3814c8de	3.5473022e-05
129	0x38993049	7.304602e-05
130	0x38be58ab	9.076422e-05
131	0x000001f4	7e-43
132	0x3342745e	4.527498e-08
133	0x36b966f9	5.5254172e-06
134	0x37d6a8a1	2.5589312e-05
135	0x2cd7fea7	6.1389396e-12
136	0x32c8582d	2.3323162e-08
137	0x000001f4	7e-43
138	0x388c5079	6.6907094e-05
139	0x37db1c6b	2.6120068e-05
140	0x33249c0f	3.832616e-08
141	0x38abcaa6	8.1916616e-05
142	0x379e4712	1.8868162e-05
143	0x390fdfc8	0.00013720908
144	0x364169a8	2.882074e-06
145	0x35b3737e	1.3370152e-06
146	0x38de8df7	0.00010612228
147	0x38d1ded1	0.000100073994
148	0x000001f4	7e-43
149	0x35715cd0	8.9914556e-07
150	0x375ac953	1.3040687e-05
151	0x38a90490	8.059398e-05
152	0x3496055d	2.794358e-07
153	0x380a54d7	3.2980777e-05
154	0x34013ba4	1.2035758e-07
155	0x3912cd3e	0.00014000104
156	0x39525fb0	0.00020062807
157	0x39313f17	0.00016903538
158	0x26cf6b33	1.4392567e-15
159	0x338a0e4b	6.4287256e-08
160	0x39191cb6	0.00014601913
161	0x3995ff7d	0.00028609848
162	0x3927eae3	0.00016013863
163	0x000001f4	7e-43
164	0x346de236	2.215464e-07
165	0x37abc9bf	2.0478734e-05
166	0x38faa5ce	0.000119518125
167	0x2e03fe3b	3.0011753e-11
168	0x33eb8073	1.0966405e-07
169	0x000001f4	7e-43
170	0x3996dcc4	0.00028774713
171	0x38e6db55	0.000110081084
172	0x3446971b	1.8495159e-07
173	0x39c32317	0.00037219442
174	0x38fbea3f	0.000120122444
175	0x39f24a84	0.00046213355
176	0x3752d4ae	1.2566494e-05
177	0x351a2a10	5.743068e-07
178	0x39fcebb9	0.00048240813
179	0x3991d443	0.00027814702
180	0x000001f4	7e-43
181	0x36751d3f	3.6524868e-06
182	0x3855ed52	5.100418e-05
183	0x398c00b3	0.00026703402
184	0x35a4120f	1.2224208e-06
185	0x389cc4ec	7.475339e-05
186	0x351b3ff4	5.7835064e-07
187	0x39d9e3ae	0.000415591
188	0x3a42b171	0.00074269535
189	0x3a4b0e57	0.0007745972
190	0x27fda8e8	7.0404735e-15
191	0x34ac1517	3.2052841e-07
192	0x37d7ee72	2.5741032e-05
193	0x394b2f54	0.0001937722
194	0x38b400ac	8.583194e-05
195	0x000001f4	7e-43
196	0x2e37835f	4.1726064e-11
197	0x375ca5c4	1.3151617e-05
198	0x37c97077	2.4013438e-05
199	0x2dbd90d7	2.1551134e-11
200	0x3047cae0	7.268408e-10
201	0x000001f4	7e-43
202	0x3911d27f	0.00013906693
203	0x386409f0	5.436869e-05
204	0x29469a5d	4.409872e-14
205	0x39109000	0.00013786554
206	0x344049a4	1.7908184e-07
207	0x37edfbd5	2.836987e-05
208	0x3649d8b4	3.0077472e-06
209	0x348ff158	2.6811426e-07
210	0x397380aa	0.00023222217
211	0x390db8e6	0.00013515688
212	0x000001f4	7e-43
213	0x354e9acf	7.6966256e-07
214	0x37ba573f	2.2213555e-05
215	0x3985c3f3	0.0002551373
216	0x2cecee23	6.733962e-12
217	0x3825afc7	3.950277e-05
218	0x2d235130	9.2835045e-12
219	0x3916b171	0.00014371217
220	0x39eb3867	0.00044864716
221	0x39c0f54e	0.0003680386
222	0x27e2bffb	6.2935747e-15
223	0x29f0879b	1.0681665e-13
224	0x3990c4f7	0.0002761257
225	0x386e1d9a	5.677119e-05
226	0x3926da87	0.00015912401
227	0x000001f4	7e-43
228	0x3469b935	2.1767194e-07
229	0x36006980	1.9134895e-06
230	0x396040f6	0.00021386505
231	0x2ed2a55d	9.579069e-11
232	0x33a5b3a3	7.716087e-08
233	0x000001f4	7e-43
234	0x38bda494	9.042877e-05
235	0x375093ee	1.2432209e-05
236	0x3284be47	1.545335e-08
237	0x38bc432b	8.9770496e-05
238	0x38b5e556	8.67347e-05
239	0x396568dc	0.00021878205
240	0x363063ca	2.6284129e-06
241	0x35a1181f	1.2002455e-06
242	0x38c227c8	9.258051e-05
243	0x396134f6	0.00021477402
244	0x000001f4	7e-43
245	0x34bd825a	3.5298837e-07
246	0x37e5234d	2.7315366e-05
247	0x3888df52	6.526582e-05
248	0x36887792	4.0670357e-06
249	0x3848b30c	4.7850466e-05
250	0x3058aea5	7.8828527e-10
251	0x398ea35c	0.00027206063
252	0x39446bcd	0.00018732176
253	0x391d57c6	0.00015005385
254	0x291a7b50	3.4301826e-14
255	0x33a1053e	7.4981e-08

exp_avg f4 [16]
0	0x3c910189	0.017700927
1	0x3c36adac	0.011149805
2	0x00000004	6e-45
3	0x00000004	6e-45
4	0xbc25949a	-0.01010623
5	0xbc090461	-0.00836286
6	0x3ca57645	0.020197997
7	0xbbc0a7e8	-0.005879391
8	0xbc0d5150	-0.008625343
9	0x00000004	6e-45
10	0xbc7b1b46	-0.015326327
11	0xbc78cc9c	-0.015185501
12	0x3c5b3412	0.013379114
13	0x00000004	6e-45
14	0x3b2a9808	0.002603056
15	0xbbeba07d	-0.0071907626

exp_avg_sq f4 [16]
0	0x3b4a5c9f	0.003087796
1	0x3b9918bf	0.0046721394
2	0x000001f4	7e-43
3	0x000001f4	7e-43
4	0x3ac386de	0.0014917513
5	0x3bd09b14	0.006366143
6	0x3b1d4b4d	0.0024001182
7	0x3c099c42	0.008399071
8	0x3aa7f709	0.0012814711
9	0x000001f4	7e-43
10	0x3bcf0b95	0.0063185194
11	0x3bcb2405	0.006199362
12	0x3bca837a	0.006180224
13	0x000001f4	7e-43
14	0x3bd7aa57	0.0065815854
15	0x3b509056	0.0031824312

exp_avg f4 [2, 16]
0	0xbb033bae	-0.0020024586
1	0xb9c1d500	-0.00036970526
2	0x80000004	-6e-45
3	0x00000004	6e-45
4	0xbabcda15	-0.0014408255
5	0xba02d72a	-0.00049911684
6	0xbb16863f	-0.00229682
7	0x393d53c9	0.00018055657
8	0xbb3e6d45	-0.002905683
9	0x80000004	-6e-45
10	0xba1ea33c	-0.00060515455
11	0xba7fc7e3	-0.00097572635
12	0xba7c5fb0	-0.00096272957
13	0x00000004	6e-45
14	0x388f7f08	6.842433e-05
15	0xbab18505	-0.0013543671
16	0x3b033bb1	0.0020024593
17	0x39c1d516	0.0003697059
18	0x00000004	6e-45
19	0x80000004	-6e-45
20	0x3abcda33	0.001440829
21	0x3a02d754	0.0004991193
22	0x3b16863c	0.0022968194
23	0xb93d5378	-0.00018055539
24	0x3b3e6d4e	0.002905685
25	0x00000004	6e-45
26	0x3a1ea35a	0.0006051563
27	0x3a7fc804	0.00097572827
28	0x3a7c5fb2	0.0009627297
29	0x80000004	-6e-45
30	0xb88f7e70	-6.842322e-05
31	0x3ab18511	0.0013543685

exp_avg_sq f4 [2, 16]
0	0x3831e504	4.2413376e-05
1	0x36b0e291	5.2715845e-06
2	0x000001f4	7e-43
3	0x000001f4	7e-43
4	0x388ae6f6	6.6233726e-05
5	0x37e2f9cb	2.7057618e-05
6	0x37ca0a55	2.4085088e-05
7	0x363e6f0c	2.8376844e-06
8	0x389f2c90	7.590011e-05
9	0x000001f4	7e-43
10	0x374981b4	1.20107325e-05
11	0x37d65148	2.5548637e-05
12	0x3823b4c6	3.9030587e-05
13	0x000001f4	7e-43
14	0x35e39077	1.6954863e-06
15	0x37b36f68	2.139034e-05
16	0x3831e501	4.2413365e-05
17	0x36b0e291	5.2715845e-06
18	0x000001f4	7e-43
19	0x000001f4	7e-43
20	0x388ae6f8	6.623374e-05
21	0x37e2f9ca	2.7057617e-05
22	0x37ca0a53	2.4085084e-05
23	0x363e6f0b	2.8376842e-06
24	0x389f2c91	7.590012e-05
25	0x000001f4	7e-43
26	0x374981b2	1.2010731e-05
27	0x37d65149	2.554864e-05
28	0x3823b4c7	3.903059e-05
29	0x000001f4	7e-43
30	0x35e39070	1.6954855e-06
31	0x37b36f66	2.1390337e-05

exp_avg f4 [2]
0	0xbbaf786b	-0.005354931
1	0x3baf7878	0.005354937

exp_avg_sq f4 [2]
0	0x39d8ec41	0.00041374753
1	0x39d8ec41	0.00041374753

loss f8 []
0	0x3f526d96fa55471c	0.0011247610467148344
