15_no_regu_epoch_edge_detector.pth (torch, 25382 bytes, 19 tensors)

model.0.weight f4 [32, 25]
00000000: 3b16 74bc ab6c 86bc 1499 3fbc 7742 22bc
00000010: 0bf6 d3bb 6c7f 59bc 4243 99bc 852d 9cbc
00000020: 0a3f 81bb e71f 4fbb af99 6cbc ee91 82bc
00000030: 1e91 78bc e95a 5d3b b4c0 0cbb e669 5cbc
00000040: 7685 94bc 96c3 6cbc 9fb6 f4ba 6848 16bc
00000050: 89cc 13bc c16e 56bc e764 33bc 30ac bebb
00000060: 8d7e c6bb 4648 533c b67f 0d3d e1d6 663d
00000070: 33b1 50bc b416 6e3b 634b 8fbe 9e4b 1a3d
00000080: 87b1 f83e d3c0 833e e5db 98be 4d74 f6be
00000090: 381e 97be f832 773f 9e19 d0bd 5e7a 09bf
000000a0: 28d4 90be 4e6d a93d 8a4a e23e bb38 073e
000000b0: de60 b5be 3f60 b33d 7153 98bc b16b 413d
000000c0: 9a85 1abc a484 0b3c c1e2 183d 0fda 2a3e
000000d0: 9279 0d3e d58a a83d 52c7 253e 7dcf a83e
000000e0: 0f15 1f3e df46 c63d 7fba cc3d aedd b0bd
000000f0: 66a8 92bc 5a09 87be d1c3 0dbf 0e92 02bf
00000100: b0af c3be 070d 0bbd 7b99 f3bd 9951 9f3d
00000110: d1e7 4abd 37e3 9ebd 71eb 023e c896 923e
00000120: 43c7 cc3e 6017 1c3e 8036 cf3d 6272 5d3e
00000130: 7a92 fe3d b452 9a3d 552e 433e 3efb a63e
00000140: 040f 943e aff9 39be 4e92 efbe c0a0 a9bd
00000150: 0b90 e63e 3202 083f 419e edbe 38ad 27bf
00000160: d088 97be e0ba d43e 3503 963e 329e e43b
00000170: 46d9 d0bd 40d7 99be b226 07bd f699 23bc
00000180: ec0f 36be 2c3b 91bd 16a2 d6bd 8f89 0fbe
00000190: 1c69 d7bc c4e5 4cbd 6016 93bc f0bb 0bbd
000001a0: 59c8 7d3e e716 f5bc 29e9 813e f731 973b
000001b0: 4be8 6bbe 68cd c83e 2776 17be 45cd 303f
000001c0: ab29 36be aa7f 9abf 638e 61b8 5aa4 723d
000001d0: f013 723e 4be3 89bd ae86 0ebe 5ae9 803e
000001e0: e6ef c8bd 1a9a 803d 794b a63d 2b6c 08be
000001f0: 6f89 333d 3155 0a3d 4947 bcbd 1c28 73bd
00000200: 44d1 b03d 1eeb 31bd 0e77 36be 7960 143e
00000210: 57d3 b53e 0570 de3d 8075 f8bd f790 3c3e
00000220: 6add d83e a02e 493f 21ae ed3d 90c4 b0bd
00000230: 8b3a 893c 0cb9 f3be fc31 10bf cb7d 56bf
00000240: 4daa 67be 5c2c 563d b211 183e c5e6 e83d
00000250: d056 9d3d d497 43bd 0b60 32bc a57b a7bc
00000260: 5883 8abc 9636 5abb 57ee 61bb 1e1d 81bb
00000270: 38e7 06bd e9fe 35bd b6ca 43bc 630b d8bb
00000280: c517 27bc 8c82 c3bb e452 9c3c 839b c3bc
00000290: 77ce 06bd 5fb6 bbbc 171b c9bb 367f 403b
000002a0: dd37 d0bb 7ccd 8bbc a7b4 77bc 61bb ebbb
000002b0: 98b0 ca3a 2a34 ccbb c513 2bbc c9da 4d3e
000002c0: 58b7 81be 4614 b13c dbc8 43bd c823 8a3d
000002d0: f8be 2abc 4315 9bbd 2c88 24bf 59de 97be
000002e0: da71 db3d 8afc 283d 3dea b13c a1ab 93c0
000002f0: a094 2abe 7209 4e3e 4808 a83d 161f bcbd
00000300: b664 93bf 7146 46be 1a20 2b3e 1b71 683e
00000310: adcc 23be 5bf3 f2bc eccc 58bd dea5 bc3d
00000320: 0eff 59bd 89ec b2bd 10b1 d73d 9c4f 063d
00000330: d6ae da3d 0de0 91bd 465f e13d db4f 00be
00000340: dc23 313e 766d be3d 9b26 6d3d 11bf 943d
00000350: 3c96 d2c0 8e02 bfbe 9a23 983d 4029 713e
00000360: e2eb 8cbe 2d75 7abf c91f 65be 2165 f6bd
00000370: 5b32 8dbe 0fd4 f8bd 974f 1cbf 2cef 3d3e
00000380: 7cc6 993d cec8 e7bb 2a25 53bc 317e 9fbc
00000390: dc69 eebc b683 e2bc 9c36 dcbb 3c84 bf3b
000003a0: 712d d4bb 5403 0ebd c1b0 07bd bbab 70bc
000003b0: 5135 153c 04e8 68bc 6edd 32bd 0313 05bd
000003c0: 6837 5abc ca3a 30bb 6621 a7bc fb18 1ebd
000003d0: 1171 e1bc 983f 25bb 7a6f 493b 0d55 4fbc
000003e0: 88ce ebbc 0680 06bd f7f6 793e 73f5 b33e
000003f0: 332b c43e 92b1 2f3e beef 9f3d 551d 873e
-0.014897878 -0.016409239 -0.0116942115 -0.009903542 -0.0064685396 -0.013275009 -0.018708829 -0.019064674
-0.0039442824 -0.0031604709 -0.014440938 -0.015938725 -0.015171317 0.003377611 -0.0021477165 -0.0134529825
-0.018130045 -0.014450928 -0.0018670148 -0.009172536 -0.009020933 -0.013087929 -0.01094935 -0.005818866
-0.0060575665 0.012895649 0.034545623 0.05635727 -0.01273756 0.003632945 -0.27987203 0.03766977
0.48572943 0.2573305 -0.29855266 -0.48135605 -0.29515243 0.9656215 -0.10161136 -0.5370234
-0.28286862 0.08272801 0.44197494 0.13205235 -0.35425466 0.08758592 -0.018594475 0.047221843
-0.009431267 0.008515511 0.037325624 0.16684745 0.13815907 0.08229605 0.16189316 0.329708
0.15535377 0.09681486 0.09996509 -0.08636032 -0.017902564 -0.26374322 -0.5537692 -0.5100411
-0.38219976 -0.03394797 -0.118945085 0.077792354 -0.049537484 -0.077581815 0.12785126 0.28630662
0.39995775 0.15243292 0.10117817 0.21625665 0.12430282 0.075353056 0.19060643 0.32613558
0.28917706 -0.18161653 -0.4679131 -0.08282614 0.4503177 0.5312835 -0.464098 -0.65498686
-0.29596567 0.41548824 0.29299322 0.006976866 -0.101976916 -0.30047035 -0.032995887 -0.009985438
-0.17779511 -0.07091364 -0.10480134 -0.14017318 -0.026295237 -0.05002381 -0.017955005 -0.034114778
0.24783458 -0.029918147 0.253732 0.0046141106 -0.23037831 0.39219213 -0.14791165 0.69063216
-0.17789333 -1.207021 -5.377679e-05 0.05923877 0.23640418 -0.06732806 -0.13918564 0.25178033
-0.09811382 0.062793925 0.08119864 -0.13322513 0.04383224 0.03377265 -0.09193284 -0.059364423
0.08633664 -0.043437116 -0.17818853 0.14489926 0.35512802 0.1086121 -0.12131786 0.18414675
0.42356426 0.7858677 0.11605478 -0.08631241 0.016751548 -0.47602117 -0.5632627 -0.83785695
-0.22623558 0.0522884 0.148505 0.11372141 0.07682574 -0.047752216 -0.010887156 -0.0204447
-0.016908333 -0.0033296696 -0.0034474337 -0.0039402386 -0.03293535 -0.044432554 -0.0119501855 -0.0065931543
-0.010198538 -0.00596649 0.019082494 -0.023877865 -0.032911744 -0.02291411 -0.0061372626 0.0029372699
-0.0063543157 -0.017065756 -0.0151187545 -0.007193968 0.0015464006 -0.0062318044 -0.010441725 0.20102991
-0.25335193 0.021616112 -0.047798973 0.06745106 -0.010421507 -0.07572415 -0.6427028 -0.29661825
0.10715075 0.041256465 0.021718139 -4.614701 -0.16658258 0.2012079 0.082047045 -0.09185617
-1.151511 -0.19362809 0.16711465 0.22699396 -0.15996046 -0.029657057 -0.052929804 0.09211324
-0.053221755 -0.08736522 0.10531819 0.032790765 0.106778786 -0.071228124 0.110045 -0.12530462
0.17298836 0.09298222 0.057898145 0.072630055 -6.580839 -0.37306637 0.074286655 0.23550892
-0.27523714 -0.97835046 -0.22375406 -0.120310076 -0.2757748 -0.12149822 -0.61058944 0.18548268
0.07508561 -0.0070734983 -0.012887279 -0.019469352 -0.029103212 -0.027650695 -0.006720377 0.005844621
-0.0064751436 -0.034671143 -0.03312755 -0.014689381 0.00910695 -0.014215473 -0.043668203 -0.032488834
-0.013318874 -0.002689051 -0.020401668 -0.038598042 -0.027519735 -0.0025214907 0.0030736611 -0.012654555
-0.028785005 -0.032836936 0.24410616 0.351482 0.38314208 0.17157581 0.07809399 0.26389566

model.0.bias f4 [32]
00000000: ea86 88bb 53cb 69bb 97b4 16be 87c7 24bd
00000010: b441 d9bb 63ce d93b d029 9ebb ea64 943d
00000020: e494 113d ced9 87bc e652 52bd f1a7 daba
00000030: 6e9d 17bd c0ca c1bc 1f48 8dbd d759 0abd
00000040: e51f 853d b975 5d3e 68ec 81bd 19ff 91ba
00000050: de6d a73d b9af a1bd e11c 9ebd 901b ec3d
00000060: 34bc 1ebd ca4e ac3d 636d 2c3e e145 d83d
00000070: 1062 42bc f40e 1dbb dbf1 75bb e99b e9bb
-0.0041664736 -0.003567417 -0.14717327 -0.040229347 -0.006630147 0.0066469177 -0.004826762 0.0724581
0.035542384 -0.01658335 -0.05134859 -0.001668213 -0.03701537 -0.023656249 -0.06898522 -0.033777084
0.06500224 0.21626939 -0.06343919 -0.0011138647 0.081752524 -0.078948446 -0.07720352 0.11528695
-0.038753703 0.08413465 0.16838603 0.10560203 -0.0118642 -0.0023965212 -0.003752819 -0.0071291816

model.2.weight f4 [16, 32]
00000000: 1dfd 173c 6008 84bf 98fc 9a3e d683 473f
00000010: 6b9d 45be 015d e4be 934d cfbc 46d8 ec3e
00000020: c2f4 b73f ec89 12b9 6bbd 613f 5ebb 2c3a
00000030: 853d 463f cc90 babe a0a6 353f a4bc ff3c
00000040: efaf 523f 39f6 58be e160 49bf 6472 f23a
00000050: b1e8 e23e a59e 443e 3ac2 173e 4019 1bbe
00000060: 7551 47bf 7f03 333f e3b5 8cbe 59e9 bc3e
00000070: 662b 8fbd 0991 06bb 1a25 8439 96d1 05bb
00000080: 30c5 b13b 395f 7b3e fb43 89be b936 ffbe
00000090: 99db e6be 812c 863f b3fe 5b3b eb90 a0be
000000a0: a2cb 7ebf 4ea7 413a c318 3f3d c480 27bc
000000b0: de74 a8be d8aa ab3f 687b 0dbf ced0 f43e
000000c0: 6d2c 0bbe 420b 043f a88a 13bf 4fb7 18bc
000000d0: e171 85be 41f5 1fbf e601 10bf 405c 383e
000000e0: 8f20 173f 02e6 bdbe 40a6 853f 0c6a 9fbe
000000f0: a8c5 e43e a17e c6ba cbe6 9439 a6b5 05bb
00000100: 2d3a a4ba acbc 8cbf 8994 5c3d a743 03bf
00000110: bce7 e43e b311 de3e c646 35bc d1ed b5be
00000120: d69a 96bf b1e7 493a 6436 38be c695 d3ba
00000130: 63e8 f43d 4781 02bf 845b dfbe 46c1 1f3d
00000140: 8eeb 14bf 4a7e cb3e 487a 323f 070a d83b
00000150: a50e 9fbe 9bf9 b7be b494 70be 5df9 883e
00000160: bbb4 3b3f 119e 03bf 3c65 1a3e 45f3 72be
00000170: 8be5 7c3e d4b1 f1b8 f273 723a 80aa 9039
00000180: 4d1f e53b 87d4 1b3f bf6d cd3e f2ed f93e
00000190: c1b5 d8bd 085b cabf 50f0 853a 791b be3e
000001a0: c2c3 903f 501a e03c 78f8 0f3e 46d9 b3b9
000001b0: 050a 99be 90a0 c1bf 8786 4b3f 14cd 253d
000001c0: 4d7c 4f3f f6ad a8be 69b6 d6bf e724 74bc
000001d0: babf d43e a8d5 3bbe e74b 383f f0f7 c33b
000001e0: f307 b2be a45b c73e 4af4 8fbe 7cdf 363f
000001f0: 281d 8fbe 42f8 b7b9 4cca 51b9 6b76 e1bb
00000200: ab80 c7bb eab9 6ebf faad 963e 22e7 0c3f
00000210: 3e5f 59be bdbf 46bf e3a9 203d a016 e73e
00000220: 04e6 a53f 23a8 c0bc 28a5 9fbe 0596 97bb
00000230: f0cb f9be c627 ddbd e74e 883e c4e0 2ebe
00000240: 77cf 883f 6a6f 763e c294 0dbe 28a5 d4ba
00000250: 433b 293f 1444 9b3e eca7 c73e 7861 023e
00000260: dcf5 8bbe 903a 453f 03e1 823e 2c85 333f
00000270: c3e3 033e 7697 1aba 17d1 41b9 04b4 f13b
00000280: 0e0e 30bb ff2a 9fbf d085 fcbd 7e75 c3be
00000290: 7dc7 9ebe d6eb 0bbf 71df 1a3c 6565 613f
000002a0: 58f6 863f f3ce 373c f303 17be 5127 f3b9
000002b0: e99a 41be d592 23bf 59d1 47be 4684 8fbf
000002c0: 98f4 4c3f 61c6 5e3e c2c0 c3bf 5215 75bc
000002d0: a3f9 533e fac1 04bf ca8b 55bf 8677 b2bd
000002e0: a0e7 4cbf baf5 453f 43d0 4c3e c5f7 b03e
000002f0: 6258 81bf 6002 523a 6c53 9aba 124a 20bc
00000300: 26be e7bb 9865 c9bf c144 393e 7427 e5be
00000310: 74e0 ba3e 4ff6 c8bd a6e0 5abc 8141 aabe
00000320: af4b 49bf ec59 6cbb e87c 2abe d73a 993a
00000330: d6a1 d8bc 4e8a b7be 50f7 68be d2d1 683d
00000340: a507 39bf 50f7 f9bd bbfb 453f ce78 b53b
00000350: 4da8 eabe a936 40bd dbe4 f8bd 1e46 313e
00000360: a6d0 873f 277b ddbe 8f4f 23bd 5afb 83be
00000370: 08ef ec3d e079 503a 02bf 6cba db80 e2ba
00000380: d1a7 aeba 8fff 92bf 5cdf 1f3e 0463 ddbe
00000390: 760d b63e e9bb 59bd 69ce 8336 b839 a7be
000003a0: d931 5fbf dc9b 15bc cf6b 75bd d011 b7ba
000003b0: 600a 9dbd d7a2 293d 88a8 a6be de47 8e3e
000003c0: a930 42bf 9262 5bbd c90c 433f 0850 f53b
000003d0: 39f5 d6be 626e 30be 3fcf bbbe 04b2 1a3e
000003e0: 09c9 8b3f 68c6 01bf 5dd5 dd3d be83 88be
000003f0: 4c3c af3d 5b71 d8ba 8d9f 70bb 7288 9eb9
0.0092766555 -1.0315056 0.3027084 0.7793554 -0.19298331 -0.44602206 -0.025305545 0.46258754
1.4371569 -0.00013975025 0.88179654 0.0006589199 0.7743762 -0.36438596 0.70957375 0.03121788
0.82299703 -0.21187676 -0.7866345 0.0018497226 0.44318154 0.19201143 0.14820185 -0.15146351
-0.7785867 0.6992721 -0.2748252 0.3689678 -0.069906995 -0.0020533225 0.00025204645 -0.0020419112
0.005425118 0.24548043 -0.26809677 -0.49846438 -0.45089415 1.0482332 0.003356856 -0.31360564
-0.9952947 0.0007387296 0.046654474 -0.010223571 -0.32901663 1.3411512 -0.5526643 0.47815555
-0.13591166 0.5157968 -0.5763345 -0.009321048 -0.26063445 -0.624836 -0.56252897 0.1800394
0.59034055 -0.37089545 1.044136 -0.31135595 0.4468205 -0.001514394 0.00028400714 -0.002040246
-0.0012529545 -1.0995078 0.05385259 -0.51275104 0.4470805 0.43372878 -0.011064237 -0.35533002
-1.1766002 0.0007702066 -0.17989498 -0.0016142658 0.11958387 -0.5097851 -0.43624508 0.03900268
-0.5817193 0.39744788 0.69717836 0.006592992 -0.3106586 -0.3593262 -0.23494226 0.2675275
0.7332265 -0.51413065 0.1507768 -0.23725612 0.24696939 -0.000115248986 0.00092488446 0.00027592853
0.0069922567 0.60871166 0.40122792 0.4881435 -0.10581542 -1.580903 0.0010218713 0.37130335
1.130974 0.027356297 0.14059627 -0.00034303422 -0.29890457 -1.5127125 0.7950215 0.04047878
0.8104904 -0.32945222 -1.6774417 -0.014901376 0.41552526 -0.18343222 0.7199082 0.005980484
-0.3477169 0.38937104 -0.28116065 0.7143476 -0.27951932 -0.00035089446 -0.00020007155 -0.0068805716
-0.0060883365 -0.9325243 0.2942961 0.5504018 -0.21227738 -0.7763632 0.039224517 0.4513445
1.296082 -0.023517674 -0.31180692 -0.004626038 -0.48788404 -0.10798602 0.26622698 -0.17077929
1.0688313 0.24065939 -0.13826278 -0.0016223537 0.6610605 0.30325377 0.38995302 0.12732494
-0.27336013 0.77042484 0.25562295 0.7012508 0.12879853 -0.0005897203 -0.00018483806 0.007376196
-0.0026863846 -1.2434996 -0.1233021 -0.38175577 -0.31011572 -0.5465673 0.009452687 0.8804534
1.0543928 0.011218774 -0.147476 -0.00046377865 -0.1890675 -0.6389592 -0.19513454 -1.1212242
0.8006072 0.21755363 -1.52932 -0.014958696 0.20700698 -0.51858485 -0.83416426 -0.087142035
-0.8004093 0.77328074 0.2000132 0.34564033 -1.0105097 0.0008011218 -0.0011774129 -0.009783285
-0.007072228 -1.5734129 0.18092634 -0.44756663 0.3649937 -0.09812605 -0.013359224 -0.332531
-0.7863111 -0.003606434 -0.1664921 0.0011690509 -0.026444357 -0.35847706 -0.22750592 0.056840725
-0.7227729 -0.12205374 0.77337235 0.0055380827 -0.45831528 -0.046927128 -0.12153026 0.17311904
1.061055 -0.4325802 -0.039870795 -0.25777704 0.11569029 0.0007952731 -0.0009031148 -0.0017280834
-0.001332516 -1.148424 0.15612549 -0.43239605 0.35557145 -0.05315772 3.9281335e-06 -0.32661223
-0.87185436 -0.009131398 -0.059917267 -0.00139671 -0.076679945 0.04141506 -0.32550454 0.27789205
-0.758555 -0.0535608 0.76191384 0.007486347 -0.41983965 -0.17229608 -0.36681554 0.1510697
1.0920726 -0.5069337 0.108317114 -0.2666301 0.085564226 -0.0016513275 -0.0036716193 -0.00030237768

model.2.bias f4 [16]
00000000: f252 e13d 348c 833c ff4b 1d3e 2f3e d73e
00000010: 5652 eabd 0449 263f 43b1 a93d ae77 bb3d
00000020: 627f 6c3e 196f 9e3a f794 783e db8a d03d
00000030: 1c68 8c3e ae15 58bb de57 b83e f6df 0ebc
0.11002149 0.016058065 0.15361021 0.4203963 -0.114414856 0.64955163 0.08285763 0.091536865
0.23095468 0.0012087553 0.24275576 0.101827346 0.2742318 -0.0032971906 0.36004537 -0.008720389

model.4.weight f4 [2, 16]
00000000: 713a 1ec0 843f 0e40 aa3d be3f 46c3 0ac0
00000010: 418c 48bf c400 b6c0 5fb9 eb3f ff50 d23f
00000020: efd0 763f b1c3 1d40 5826 733f 5a78 2e40
00000030: 3e8e 9b3f 5452 6ebb 96d0 edbf 5dfe e2b9
00000040: 4e2b 1e40 c03d 0ec0 01ca bdbf 1fbd 0a40
00000050: 63bd 483f 77e5 b540 d8c8 ebbf 993b d3bf
00000060: 9205 78bf 9f7e 1dc0 e5c8 73bf d494 2ec0
00000070: c9df 9bbf e108 2e3a 753d ee3f 5a39 b2bb
-2.472317 2.2226267 1.4862568 -2.1681685 -0.7833901 -5.6875935 1.8415946 1.6430968
0.9641256 2.465069 0.9498038 2.7260957 1.2152784 -0.003636499 -1.857928 -0.00043295595
2.471393 -2.222519 -1.4827272 2.167793 0.7841398 5.684261 -1.8420668 -1.6502563
-0.968835 -2.4608533 -0.95228416 -2.7278337 -1.2177669 0.00066388963 1.8612505 -0.0054389657

model.4.bias f4 [2]
00000000: 53a3 d4bd 3dfa d43d
-0.10382714 0.10399292

exp_avg f4 [32, 25]
00000000: 0400 0000 0400 0000 0400 0000 0400 0000
00000010: 0400 0000 0400 0000 0400 0000 0400 0000
00000020: 0400 0000 0400 0000 0400 0000 0400 0000
00000030: 0400 0000 0400 0000 0400 0000 0400 0000
00000040: 0400 0000 0400 0000 0400 0000 0400 0000
00000050: 0400 0000 0400 0000 0400 0000 0400 0000
00000060: 0400 0000 56c2 963c e638 a03c 7759 b83c
00000070: 9bbf af3c 00cc 983c 4a75 943c 533c 9d3c
00000080: 01df b83c 0047 9d3c c356 903c a6fe 923c
00000090: f7f2 963c b4a8 a13c 2c64 933c 1a58 903c
000000a0: f70a 993c a333 8a3c e60e 8b3c 6200 9a3c
000000b0: c451 9b3c a415 8d3c 4a94 823c c0bb 813c
000000c0: 5908 8f3c e30e 9a3c 19d1 57ba dd77 54ba
000000d0: cfca 49ba ba47 3aba 24ff 2dba 66ce 58ba
000000e0: af07 58ba a3ce 4cba 430d 33ba 7f4d 17ba
000000f0: affd 57ba b851 58ba d0a6 44ba 5797 16ba
00000100: 7bdd 14ba 0090 58ba 3010 58ba 8a3c 48ba
00000110: 0c48 33ba ec46 32ba 83e8 57ba 4347 56ba
00000120: eceb 45ba b70b 37ba c747 32ba 72aa 193b
00000130: 5a4e 243b e1a5 143b 9b80 1c3b 4604 393b
00000140: 59aa 143b ed96 133b 4569 053b 3e5b 1f3b
00000150: 001a 333b f25a 123b 5c9c 153b 7666 f33a
00000160: 58ef 293b 1f52 373b 2a70 173b 5a5d 0c3b
00000170: 3213 e63a d782 163b 17f3 2c3b 61ed 0f3b
00000180: e450 003b 1920 f43a 6499 173b 9a95 1e3b
00000190: 01dd 53bc 33bb 51bc a871 4bbc d15e 45bc
000001a0: ed67 3cbc 3614 55bc df53 54bc 8db9 4bbc
000001b0: 7206 3dbc 3bc8 18bc 4590 57bc 2a23 58bc
000001c0: f182 42bc 0bcf 17bc 46b4 17bc 32f3 58bc
000001d0: a4cb 57bc 7de4 4ebc a924 46bc feb2 44bc
000001e0: 8e65 58bc 3321 56bc 582a 4dbc 54f0 47bc
000001f0: 1424 46bc 87c9 eaba 0fdd 09bb ba91 14bb
00000200: cca4 19bb 2c60 1abb 6935 70ba 14d6 ebba
00000210: ea64 12bb 154c 18bb 4637 17bb 82c7 68ba
00000220: aad1 7eba 7a09 06bb c767 19bb 601b 14bb
00000230: 1909 63ba 2784 50ba 9ea4 2aba 63e0 b5ba
00000240: a747 f8ba 6f88 47ba a31b 40ba 31bd 38ba
00000250: dffd 36ba 30a4 adba 0400 0000 0400 0000
00000260: 0400 0080 0400 0080 0400 0080 0400 0000
00000270: 0400 0000 0400 0000 0400 0000 0400 0080
00000280: 0400 0000 0400 0000 0400 0000 0400 0000
00000290: 0400 0080 0400 0000 0400 0000 0400 0000
000002a0: 0400 0000 0400 0000 0400 0000 0400 0000
000002b0: 0400 0000 0400 0000 0400 0000 0735 82b5
000002c0: 1523 57b5 391a 4eb5 5610 23b6 d0bb 1cb6
000002d0: 7571 a3b4 b4a5 79b4 8b90 4bb3 acf5 b0b5
000002e0: 85a7 e0b5 9c71 a3b4 b4a5 79b4 a7be ca32
000002f0: 2f53 81b5 e1a7 e0b5 0672 a3b4 6e32 46b4
00000300: 82c9 a032 3c42 84b5 cca5 e0b5 2bcd a0b4
00000310: 029f 1ab3 afaa a032 5356 1eb5 3fa3 e0b5
00000320: c81f dd37 ed7d e037 c1ea f537 1619 f137
00000330: b2fb fa37 3e4c de37 c2a2 e737 d925 f237
00000340: d992 dc37 3a8f 71b5 165b 1338 da9a 0338
00000350: 549c 3936 6a78 a1b5 53e7 3db6 08a3 6535
00000360: d9ba 9a9f 2f17 93a1 096b 8fb6 5ecc 95b6
00000370: 1d30 2ab2 acad 0080 ee88 6ca7 a8f2 75b6
00000380: 3a80 ceb6 0400 0080 0400 0080 0400 0000
00000390: 0400 0080 0400 0080 0400 0000 0400 0080
000003a0: 0400 0080 0400 0080 0400 0080 0400 0000
000003b0: 0400 0000 0400 0080 0400 0080 0400 0080
000003c0: 0400 0000 0400 0000 0400 0000 0400 0080
000003d0: 0400 0000 0400 0000 0400 0080 0400 0080
000003e0: 0400 0080 0400 0080 905f 4d39 a6cf a739
000003f0: 4564 ab39 169a 9f39 449d 8c39 b515 8538
6e-45 6e-45 6e-45 6e-45 6e-45 6e-45 6e-45 6e-45
6e-45 6e-45 6e-45 6e-45 6e-45 6e-45 6e-45 6e-45
6e-45 6e-45 6e-45 6e-45 6e-45 6e-45 6e-45 6e-45
6e-45 0.018403213 0.019558381 0.022503598 0.02145367 0.018651962 0.018122334 0.019193804
0.022567274 0.019198895 0.017619496 0.017943691 0.018426402 0.019733764 0.017992102 0.017620135
0.018681986 0.016870325 0.016974878 0.01879901 0.018959887 0.017222233 0.01593985 0.015836596
0.017460035 0.018805927 -0.0008232757 -0.0008105019 -0.00076977623 -0.0007106025 -0.0006637445 -0.0008270502
-0.0008240891 -0.00078127737 -0.0006830284 -0.00057717407 -0.0008239401 -0.0008251923 -0.00075016636 -0.00057445973
-0.0005678755 -0.0008261204 -0.0008242158 -0.00076384156 -0.0006839044 -0.00068007293 -0.0008236246 -0.0008174071
-0.0007550109 -0.00069826416 -0.0006800857 0.002344754 0.0025071115 0.002268188 0.0023880366 0.0028231307
0.0022684543 0.0022520379 0.0020356935 0.002431586 0.002732873 0.002233204 0.0022828793 0.0018569964
0.0025930014 0.0027972532 0.0023107626 0.0021417947 0.0017553328 0.002296617 0.002639001 0.0021961557
0.0019579465 0.0018625289 0.00231322 0.0024198056 -0.012931109 -0.012800979 -0.0124172345 -0.012046532
-0.011499387 -0.013005307 -0.01295945 -0.0124343755 -0.011537181 -0.009325082 -0.013156955 -0.0131919775
-0.011872039 -0.0092656715 -0.009259289 -0.013241576 -0.01317111 -0.012627718 -0.012093701 -0.012005566
-0.013207806 -0.013069439 -0.012522303 -0.012203295 -0.012093563 -0.0017912843 -0.0021036302 -0.0022669868
-0.0023444174 -0.0023555858 -0.0009163232 -0.0017992877 -0.0022337981 -0.0023238708 -0.0023073717 -0.00088798266
-0.00097205734 -0.0020452426 -0.0023407803 -0.0022599325 -0.00086607184 -0.00079542625 -0.0006509515 -0.0013876077
-0.0018942252 -0.0007611578 -0.0007328337 -0.00070472347 -0.0006980579 -0.0013247784 6e-45 6e-45
-6e-45 -6e-45 -6e-45 6e-45 6e-45 6e-45 6e-45 -6e-45
6e-45 6e-45 6e-45 6e-45 -6e-45 6e-45 6e-45 6e-45
6e-45 6e-45 6e-45 6e-45 6e-45 6e-45 6e-45 -9.701188e-07
-8.014479e-07 -7.677914e-07 -2.4298402e-06 -2.3355133e-06 -3.0443667e-07 -2.3250215e-07 -4.739608e-08 -1.3184522e-06
-1.6738055e-06 -3.0443778e-07 -2.3250215e-07 2.3602594e-08 -9.635459e-07 -1.673816e-06 -3.044408e-07 -1.8458533e-07
1.8718087e-08 -9.854043e-07 -1.6737554e-06 -2.9951602e-07 -3.6000536e-08 1.870407e-08 -5.8985205e-07 -1.6736811e-06
2.6360052e-05 2.676152e-05 2.9315592e-05 2.874112e-05 2.9919527e-05 2.6499965e-05 2.7613136e-05 2.8866272e-05
2.6294425e-05 -8.998792e-07 3.513236e-05 3.137705e-05 2.7658143e-06 -1.203048e-06 -2.8297843e-06 8.554639e-07
-6.553065e-20 -9.967244e-19 -4.2741926e-06 -4.4643375e-06 -9.906242e-09 -6.2302e-41 -3.282581e-15 -3.664909e-06
-6.154206e-06 -6e-45 -6e-45 6e-45 -6e-45 -6e-45 6e-45 -6e-45
-6e-45 -6e-45 -6e-45 6e-45 6e-45 -6e-45 -6e-45 -6e-45
6e-45 6e-45 6e-45 -6e-45 6e-45 6e-45 -6e-45 -6e-45
-6e-45 -6e-45 0.00019585923 0.00032007432 0.00032690368 0.00030441646 0.00026820053 6.3459775e-05

exp_avg_sq f4 [32, 25]
00000000: f401 0000 f401 0000 f401 0000 f401 0000
00000010: f401 0000 f401 0000 f401 0000 f401 0000
00000020: f401 0000 f401 0000 f401 0000 f401 0000
00000030: f401 0000 f401 0000 f401 0000 f401 0000
00000040: f401 0000 f401 0000 f401 0000 f401 0000
00000050: f401 0000 f401 0000 f401 0000 f401 0000
00000060: f401 0000 d145 403d f159 443d 791d 513d
00000070: 020a 483d 5670 433d 4cb5 3e3d 5e1e 483d
00000080: 1e87 5d3d 7700 4a3d 2dd9 3c3d dea9 3c3d
00000090: a3b3 413d 4098 663d 66e7 3e3d 50d5 383d
000000a0: 4d64 3f3d af52 433d a473 463d d4ad 413d
000000b0: c11b 3a3d fdbb 413d 9bf1 3b3d 014e 3f3d
000000c0: d1b6 3a3d 5778 3b3d b99f 3938 b0c0 7138
000000d0: 1d10 6338 f7a3 4a38 973a 2c38 8170 2a38
000000e0: 27b9 6038 fcb9 5438 47b4 0438 410d d037
000000f0: 7cc3 2f38 85a7 2538 a4e5 f237 bb00 b937
00000100: da66 bb37 fd2a 3438 147d 2938 26b7 0838
00000110: 56b3 dc37 e44e ca37 5be2 3238 0a2d 2a38
00000120: 9190 1038 2c82 f137 e015 e637 1380 b13c
00000130: d078 ab3c 8608 ac3c 59ad af3c 7f65 ae3c
00000140: 15b7 b33c b0d0 a03c 6f56 833c a443 a13c
00000150: 8cca a83c 940f b63c a209 9e3c d056 4b3c
00000160: 9616 863c a702 9f3c 002e b43c 42b3 8c3c
00000170: 7761 363c dc3d 413c 7099 813c 46d3 903c
00000180: c564 6a3c 6a17 3c3c 9411 403c daba 633c
00000190: 2d0e cc3b 6662 be3b 56c5 a33b 774c 893b
000001a0: 8fd0 763b 1e27 d13b 6962 c33b ff14 963b
000001b0: af3c 6e3b d237 563b e6fd d83b 0feb c43b
000001c0: f07a 8a3b 0546 443b d01a 403b d8d6 cf3b
000001d0: ce91 b23b 439f 833b e2fb 523b 15c5 483b
000001e0: e843 ba3b ab9f 9f3b eb7d 853b c3b3 683b
000001f0: 682e 5a3b ce3c 553c 8780 703c cd82 813c
00000200: 3551 833c 6e02 7f3c bada 473c f10d 593c
00000210: c31a 773c 9484 7f3c fd6f 773c 2d1b 363c
00000220: 5d2b 403c da39 483c 1118 4a3c 46a8 4c3c
00000230: 868e 173c bd60 0f3c 3bd1 003c 6cdd 0e3c
00000240: acc8 1b3c 7d3e 003c b3d4 003c 4b91 fe3b
00000250: 7047 fc3b 3be1 ff3b f401 0000 f401 0000
00000260: f401 0000 f401 0000 f401 0000 f401 0000
00000270: f401 0000 f401 0000 f401 0000 f401 0000
00000280: f401 0000 f401 0000 f401 0000 f401 0000
00000290: f401 0000 f401 0000 f401 0000 f401 0000
000002a0: f401 0000 f401 0000 f401 0000 f401 0000
000002b0: f401 0000 f401 0000 f401 0000 9ae8 0637
000002c0: e45b 4735 baa5 8237 41d6 dc37 4f22 3238
000002d0: ced2 6335 4317 1f35 27ce 1836 52c4 eb37
000002e0: b45f 3438 acd1 6335 8f5a 1f35 64c0 8032
000002f0: cc23 1338 6a7a 9b38 a7ce 6335 8569 1f35
00000300: 9214 ee33 26bb f837 223d 9738 4ba8 6335
00000310: 2c63 1f35 555d 8c35 7c01 fa37 a763 7e38
00000320: 7536 b938 b5fd 2e39 555a 633a 1389 9a3a
00000330: 973c 9c3a ecd0 4137 8871 ec37 9519 8939
00000340: be32 983a 36ed 9a3a 5360 4137 aa34 1e37
00000350: 99f4 8934 2724 133a 056d 8c3a c917 d935
00000360: 3bc2 c333 7f9c a032 31b3 3438 edaa 613a
00000370: 1d69 1c35 beff ec2e daef 2e35 7f7d 9237
00000380: c1c4 b239 f401 0000 f401 0000 f401 0000
00000390: f401 0000 f401 0000 f401 0000 f401 0000
000003a0: f401 0000 f401 0000 f401 0000 f401 0000
000003b0: f401 0000 f401 0000 f401 0000 f401 0000
000003c0: f401 0000 f401 0000 f401 0000 f401 0000
000003d0: f401 0000 f401 0000 f401 0000 f401 0000
000003e0: f401 0000 f401 0000 d7f5 ff3a 2e33 0c3b
000003f0: b694 153b 1efb 0e3b 22d4 053b cabc f53a
7e-43 7e-43 7e-43 7e-43 7e-43 7e-43 7e-43 7e-43
7e-43 7e-43 7e-43 7e-43 7e-43 7e-43 7e-43 7e-43
7e-43 7e-43 7e-43 7e-43 7e-43 7e-43 7e-43 7e-43
7e-43 0.046941582 0.047937337 0.051053498 0.04883767 0.047714554 0.046559617 0.048857085
0.054083936 0.04931685 0.046105552 0.046060435 0.047290456 0.05629754 0.046607397 0.045125306
0.046726514 0.047686275 0.048450127 0.047284916 0.045436624 0.04729842 0.04588471 0.04670525
0.045584504 0.045769062 4.425619e-05 5.763833e-05 5.4136024e-05 4.8313257e-05 4.106256e-05 4.0635936e-05
5.35782e-05 5.071795e-05 3.163915e-05 2.4801704e-05 4.190531e-05 3.949508e-05 2.8955583e-05 2.2054059e-05
2.2340031e-05 4.295538e-05 4.0409228e-05 3.2595497e-05 2.6309554e-05 2.4117013e-05 4.2649317e-05 4.0573104e-05
3.4466913e-05 2.8790055e-05 2.7428323e-05 0.021667516 0.020931631 0.021000158 0.021444963 0.021288631
0.021937886 0.01963076 0.016032426 0.019685574 0.020604394 0.022224225 0.019291703 0.012410834
0.016368192 0.019410444 0.02199459 0.01717532 0.011131636 0.011794534 0.015820235 0.017678868
0.014306252 0.011480192 0.011722941 0.013899529 0.006227276 0.00581007 0.0049978895 0.0041900235
0.0037660932 0.006382837 0.005962659 0.0045801396 0.0036352088 0.003268708 0.006622064 0.0060094665
0.004226081 0.0029948961 0.0029312856 0.00634275 0.00544951 0.004016788 0.003219359 0.0030635048
0.0056843646 0.004871329 0.0040738485 0.0035507537 0.003329182 0.013014985 0.014679081 0.015809441
0.016029933 0.015564544 0.012198145 0.013247953 0.015082064 0.015595574 0.015102384 0.011114878
0.011729089 0.012220824 0.012334839 0.012491291 0.009250289 0.008751092 0.007862384 0.008719783
0.009508293 0.007827398 0.007863211 0.007768785 0.0076989457 0.007808832 7e-43 7e-43
7e-43 7e-43 7e-43 7e-43 7e-43 7e-43 7e-43 7e-43
7e-43 7e-43 7e-43 7e-43 7e-43 7e-43 7e-43 7e-43
7e-43 7e-43 7e-43 7e-43 7e-43 7e-43 7e-43 8.041179e-06
7.4266995e-07 1.557438e-05 2.6325813e-05 4.247046e-05 8.487085e-07 5.9265966e-07 2.2769761e-06 2.8105602e-05
4.3004475e-05 8.48692e-07 5.9363896e-07 1.498865e-08 3.508087e-05 7.413777e-05 8.486481e-07 5.9385667e-07
1.10864804e-07 2.9651052e-05 7.211628e-05 8.480899e-07 5.937643e-07 1.0457976e-06 2.9803014e-05 6.0651128e-05
8.831631e-05 0.00016688446 0.00086728233 0.0011790119 0.0011919913 1.155234e-05 2.818626e-05 0.00026149736
0.0011611802 0.0011819962 1.1526124e-05 9.429796e-06 2.5696207e-07 0.0005612992 0.0010713643 1.6174682e-06
9.1157254e-08 1.8697618e-08 4.308223e-05 0.0008608539 5.826749e-07 1.07774664e-10 6.516908e-07 1.7462995e-05
0.000340974 7e-43 7e-43 7e-43 7e-43 7e-43 7e-43 7e-43
7e-43 7e-43 7e-43 7e-43 7e-43 7e-43 7e-43 7e-43
7e-43 7e-43 7e-43 7e-43 7e-43 7e-43 7e-43 7e-43
7e-43 7e-43 0.0019528222 0.002139281 0.0022824234 0.0021817158 0.002042063 0.001874828

exp_avg f4 [32]
00000000: 0400 0000 561d 123d 2e36 86ba 6e1b bc3b
00000010: 4d75 71bc 8600 59bb 0400 0000 2235 2fb6
00000020: 5b2f 2039 0400 0000 7536 553a 0400 0000
00000030: 7a26 9d3a 46e5 27bb 67c3 1f3b 7823 703b
00000040: 5766 7338 7023 5bbb 98e3 1fbd 0400 0000
00000050: 72e2 5138 4649 173b 7f6e 1b3c 2726 c938
00000060: 52b5 3bbc a0d2 d0b4 65dc 74ba 0554 9bb4
00000070: bd5b a3bb 0000 0000 0400 0000 0400 0000
6e-45 0.03567251 -0.0010239535 0.0057405746 -0.014737439 -0.0033111884 6e-45 -2.610796e-06
0.0001527643 6e-45 0.000813342 6e-45 0.0011989616 -0.0025618835 0.0024377943 0.0036642235
5.8031026e-05 -0.003343787 -0.03903541 6e-45 5.0040377e-05 0.0023084446 0.009486794 9.591533e-05
-0.011456804 -3.889627e-07 -0.00093407027 -2.8932132e-07 -0.0049853013 0.0 6e-45 6e-45

exp_avg_sq f4 [32]
00000000: f401 0000 913a e83d f733 ef38 d8d9 243d
00000010: aac6 213c 6e57 ba3c f401 0000 0ed8 b539
00000020: b0d4 643b f401 0000 f081 643b f401 0000
00000030: 2800 8d3b 89b7 5e3c 7380 123c 347b cb3c
00000040: d96d 333b 6bf9 223b 5d6d c03d f401 0000
00000050: ecf5 ae39 5ec4 d13b 97c9 773c 84ca 613a
00000060: bb3f d33d f9fa 0b3a 2d2c 863a 3491 2d39
00000070: 9dbb 283d 0000 0000 f401 0000 f401 0000
7e-43 0.11339296 0.00011406087 0.040246814 0.009874025 0.022746768 7e-43 0.00034683984
0.003491681 7e-43 0.0034867488 7e-43 0.004302997 0.013593563 0.0089417575 0.024839021
0.0027378707 0.0024867903 0.093958594 7e-43 0.00033371092 0.0064015826 0.015123746 0.0008613246
0.1031489 0.0005339827 0.0010236554 0.00016552658 0.041194547 0.0 7e-43 7e-43

exp_avg f4 [16, 32]
00000000: 0400 0080 855d 2eb9 cada 1037 56db 8d38
00000010: f60f d638 4b70 9038 0400 0080 b43e 90b4
00000020: eb5c 04b5 0400 0080 b946 99b8 0400 0080
00000030: 7e3b 23b9 b731 6038 f47f 5939 ddb2 a439
00000040: d780 3334 ab1e 3d38 a2a0 1339 0400 0080
00000050: bc07 b1b3 1cab 8138 0c33 4739 fdaa 2eb3
00000060: 86f4 5839 5127 d5b3 bc71 8a38 73c0 d1b2
00000070: c5f2 1639 0000 0000 0000 0000 0400 0080
00000080: 0400 0000 89e2 9339 a490 c2b7 1c46 b4b8
00000090: a4e3 4bb8 28fb a7b9 0400 0000 d06d 2934
000000a0: 0fd1 8834 0400 0000 67c4 c3b9 0400 0000
000000b0: 1ca8 3d39 72a4 19b9 4b40 c8b8 f2b8 5739
000000c0: 2a8b 41b4 b9b6 a1b9 acc5 5db8 0400 0000
000000d0: 5ea6 5ab5 0723 8fb6 e102 5fba bfb2 5ab4
000000e0: b64c 43ba 4a12 4eb1 57ab a5b8 0d35 8732
000000f0: 9ee4 0bbb 0000 0000 0400 0000 0400 0000
00000100: 0400 0000 89ad 1fba 1b54 9aba 0930 5cb8
00000110: c8fb 20ba 47a7 d6b9 0400 0000 f0ec c933
00000120: 57ac 7131 0400 0080 388f 81b9 0400 0000
00000130: 7dfa 0bb9 5e59 2cb9 2950 efb8 b59c 9eb8
00000140: 207d a5b4 f2a5 4db9 7fc7 8fba 0400 0000
00000150: 94af d2b3 36a1 29ba 376b 66ba 2542 0137
00000160: 0345 2bba 3553 07b1 fdf9 e0b7 2057 41b0
00000170: 9ef5 c3ba 0000 0000 0400 0000 0400 0080
00000180: 0400 0080 3dd5 9039 2fe6 bd3a cef5 7b38
00000190: b31d fa39 cc19 1939 0400 0080 4f8c 25b4
000001a0: 3bdb 11b5 0400 0080 1f67 9339 0400 0080
000001b0: 5853 1438 d93a 0139 e2c1 7638 1a26 82b9
000001c0: 31fb 3534 e8f1 8439 53ec 523a 0400 0080
000001d0: 5794 6cb4 592d 6cb7 c5a6 4d3a b71c 3eb3
000001e0: 0361 3e3a 9520 4431 2d82 e137 4b46 88b2
000001f0: f4d6 fe3a 0000 0000 0400 0080 0400 0080
00000200: 0400 0080 8746 2038 b197 4637 5cd0 ef37
00000210: bb7d 8f37 8497 b536 0400 0080 1d4c aeb3
00000220: f2d2 ffb3 0400 0080 d9fc d6b4 0400 0080
00000230: 0423 8931 d8e1 2d36 0f98 a037 85ac 7c38
00000240: d4c2 5633 5074 c437 a17e 0038 0400 0080
00000250: 7d24 aab4 0da1 2738 1d98 7339 0e5f 4c35
00000260: edc4 2139 ffab f0b2 4dc5 9334 baf9 c4b1
00000270: 3145 6d39 0000 0000 0000 0000 0400 0080
00000280: 0400 0080 f9cc 8739 ceff 7a3b 02cf 7f38
00000290: 8ea6 a53a 62dc ff38 0400 0080 328f 7ab3
000002a0: 345d 83b3 0400 0080 58bb 9037 0400 0080
000002b0: 4dc4 46b6 fd30 9137 e08d c7b6 8d16 0dba
000002c0: 4257 cfb3 6de2 a537 9655 0c3b 0400 0080
000002d0: d992 88b2 3a5d c537 c86d 41ba 128c c9b3
000002e0: 4b40 53b9 2387 96b2 5e22 d236 701f 88b3
000002f0: 95ec 1d38 0000 0000 0400 0080 0400 0080
00000300: 0400 0000 f701 2eba 19b2 c0ba ecbf 5cb8
00000310: ac9b 46ba cfe2 a6b9 0400 0000 f32d 3834
00000320: 53c3 2331 0400 0000 df06 0b37 0400 0000
00000330: 0f10 31b9 be95 59b9 f908 15b9 b08b aeb8
00000340: 79ea bab4 faad 34b9 119d b3ba 0400 0000
00000350: 4aa6 07b4 96a3 57ba af07 48ba c494 2437
00000360: 7546 1eba 55fa 8033 3907 07b8 f95b 00b2
00000370: 5ac7 a6ba 0000 0000 0000 0000 0400 0000
00000380: 0400 0000 5b15 2bba a589 abba 6691 5bb8
00000390: b7aa 31ba c3a9 a0b9 0400 0000 95ac d633
000003a0: 954d 1631 0400 0080 0e2e 09b7 0400 0000
000003b0: 3b12 86b9 11a4 b4b9 f817 1cb9 5a41 a3b9
000003c0: b1fe b9b4 c019 2cb9 dbd8 9fba 0400 0000
000003d0: 37dd f1b3 ef79 43ba c843 38ba 13b1 1137
000003e0: 9eeb 11ba 0023 f9b1 7834 76b8 e084 e5b1
000003f0: f485 98ba 0000 0000 0400 0000 0400 0000
-6e-45 -0.00016628772 8.63401e-06 6.7642584e-05 0.00010207288 6.887371e-05 -6e-45 -2.6867713e-07
-4.9309045e-07 -6e-45 -7.308782e-05 -6e-45 -0.00015567054 5.3452062e-05 0.00020742399 0.0003141378
1.6717546e-07 4.5089673e-05 0.00014078853 -6e-45 -8.243612e-08 6.183071e-05 0.00018997135 -4.0668045e-08
0.00020690457 -9.925737e-08 6.6015375e-05 -2.4418318e-08 0.00014395553 0.0 0.0 -6e-45
6e-45 0.00028206807 -2.3193956e-05 -8.596128e-05 -4.861098e-05 -0.00032039848 6e-45 1.5779301e-07
2.5484084e-07 6e-45 -0.0003733963 6e-45 0.0001808707 -0.00014652478 -9.548719e-05 0.00020572895
-1.8025153e-07 -0.00030844452 -5.2874602e-05 6e-45 -8.1453425e-07 -4.26581e-06 -0.0008507204 -2.036786e-07
-0.00074500905 -2.9987341e-09 -7.899728e-05 1.5740193e-08 -0.0021345983 0.0 6e-45 6e-45
6e-45 -0.00060912274 -0.0011774333 -5.2496824e-05 -0.0006141034 -0.00040941892 6e-45 9.4028906e-08
3.516808e-09 -6e-45 -0.00024711504 6e-45 -0.00013349387 -0.0001643649 -0.00011411339 -7.563216e-05
-3.0824685e-07 -0.00019612143 -0.0010969489 6e-45 -9.8108245e-08 -0.00064708607 -0.000878978 7.7044e-06
-0.0006533416 -1.9692383e-09 -2.681929e-05 -7.0336803e-10 -0.0014950519 0.0 6e-45 -6e-45
-6e-45 0.00027624695 0.0014488156 6.0071987e-05 0.00047705843 0.00014600827 -6e-45 -1.5417866e-07
-5.433573e-07 -6e-45 0.00028114856 -6e-45 3.536357e-05 0.00012324321 5.8831538e-05 -0.0002482392
1.6948322e-07 0.00025357236 0.00080460793 -6e-45 -2.2033178e-07 -1.40772545e-05 0.000784498 -4.426394e-08
0.00072623807 2.8540275e-09 2.6882708e-05 -1.586445e-08 0.0019442723 0.0 -6e-45 -6e-45
-6e-45 3.8212656e-05 1.1837038e-05 2.8588045e-05 1.7105476e-05 5.411859e-06 -6e-45 -8.116351e-08
-1.19127336e-07 -6e-45 -4.0044577e-07 -6e-45 3.9912056e-09 2.5910467e-06 1.9144294e-05 6.0242153e-05
5.0002953e-08 2.3419183e-05 3.063551e-05 -6e-45 -3.1691516e-07 3.9965893e-05 0.00023230953 7.6134245e-07
0.00015427517 -2.8017892e-08 2.752444e-07 -5.7327414e-09 0.00022627857 0.0 0.0 -6e-45
-6e-45 0.00025901923 0.0038299444 6.098953e-05 0.0012638138 0.00012200397 -6e-45 -5.8337896e-08
-6.1171164e-08 -6e-45 1.7253376e-05 -6e-45 -2.9618561e-06 1.7308159e-05 -5.9471786e-06 -0.00053820835
-9.655061e-08 1.977497e-05 0.0021413318 -6e-45 -1.5899262e-08 2.3527642e-05 -0.00073787244 -9.3852705e-08
-0.00020146479 -1.7523751e-08 6.2624886e-06 -6.338712e-08 3.765205e-05 0.0 -6e-45 -6e-45
6e-45 -0.0006637866 -0.0014701515 -5.263083e-05 -0.00075762975 -0.00031830973 6e-45 1.7153052e-07
2.383065e-09 6e-45 8.286645e-06 6e-45 -0.00016886018 -0.00020750516 -0.0001421309 -8.3229854e-05
-3.48158e-07 -0.00017230949 -0.0013703426 6e-45 -1.263335e-07 -0.00082259753 -0.00076305395 9.809799e-06
-0.00060377206 6.0059996e-08 -3.2193235e-05 -7.471493e-09 -0.0012724206 0.0 0.0 6e-45
6e-45 -0.00065263145 -0.0013087286 -5.234908e-05 -0.00067774527 -0.0003064406 6e-45 9.996544e-08
2.1871973e-09 -6e-45 -8.176559e-06 6e-45 -0.00025572054 -0.00034454514 -0.00014886248 -0.00031138473
-3.4644248e-07 -0.00016412791 -0.0012195365 6e-45 -1.1262676e-07 -0.0007456829 -0.0007029143 8.683902e-06
-0.0005566421 -7.250833e-09 -5.8699836e-05 -6.6798833e-09 -0.0011636601 0.0 6e-45 6e-45

exp_avg_sq f4 [16, 32]
00000000: f401 0000 559a c537 6363 8f37 03a5 4039
00000010: 6ac5 4338 12a2 6339 f401 0000 b117 a533
00000020: 8531 9b35 f401 0000 f585 9839 f401 0000
00000030: ce68 4a39 82e9 eb38 45da e738 20a3 b339
00000040: b699 3936 64c7 2738 75a4 6c39 f401 0000
00000050: 9321 4634 b009 0b3a 40f0 aa39 df08 8937
00000060: b276 2339 019d d434 3cdb 1b36 a985 a135
00000070: 1754 313a 0000 0000 0000 0000 f401 0000
00000080: f401 0000 5be5 0939 3131 2436 f11e c238
00000090: 9386 2b37 e738 5039 f401 0000 5c4f 8333
000000a0: 753a 3435 f401 0000 6ec0 9639 f401 0000
000000b0: 51a0 2639 8228 d238 f649 7d38 9fcb c739
000000c0: 22a4 9635 4fb5 e337 ddfd 6638 f401 0000
000000d0: 1e56 3332 6235 2739 671a 4f3a 90f2 8c35
000000e0: ad30 9e39 4e16 a134 e1c6 4336 6a43 7f35
000000f0: 2b25 833a 0000 0000 f401 0000 f401 0000
00000100: f401 0000 d5aa 3638 45de 4737 f531 8738
00000110: 0457 1538 84e6 1b39 f401 0000 2e2e ee32
00000120: 0e29 e434 f401 0000 2840 0639 f401 0000
00000130: 8dae 7938 7e3e fc37 a5bb 1e38 aab8 1139
00000140: 0a17 8635 1361 8d37 8c00 3c39 f401 0000
00000150: 467e 9033 5612 c539 2f6c 9f39 6174 e836
00000160: 2ee3 f938 a163 1834 b6d9 9e35 7970 e634
00000170: 455e cf39 0000 0000 f401 0000 f401 0000
00000180: f401 0000 6a3c f138 6dfd bc36 fc0c 8438
00000190: 4e70 a936 6216 be37 f401 0000 a92a 8033
000001a0: bf14 3e35 f401 0000 935c 3d39 f401 0000
000001b0: 3033 8238 19fd 8037 8e34 6638 625f 9539
000001c0: 7b22 dd34 56ed 8d37 c29c 5837 f401 0000
000001d0: c391 2b32 f527 ed37 d108 493a b69c 7533
000001e0: 33c4 9d39 72e2 a334 ba14 0535 8867 7835
000001f0: f0c0 623a 0000 0000 f401 0000 f401 0000
00000200: f401 0000 e019 1f35 021c 7f35 b548 2f37
00000210: 3339 f935 ea6f 1a35 f401 0000 f703 0332
00000220: 30de a633 f401 0000 1821 6e35 f401 0000
00000230: 98ba b233 7a40 9634 f9bf 1936 7519 fc35
00000240: a3c5 0934 4d00 0036 ffc9 3737 f401 0000
00000250: 8146 9232 706c cc37 4ee9 1038 cf29 cf35
00000260: 26c1 6137 1459 2933 e19c 9c32 f174 fc33
00000270: 216e 2338 0000 0000 0000 0000 f401 0000
00000280: f401 0000 d2ab 2638 1233 8737 f41b 7038
00000290: 285e 9c37 1c02 a038 f401 0000 52cf 3033
000002a0: 0b6d b133 f401 0000 8b65 0939 f401 0000
000002b0: f869 b237 971b 2938 81f4 6a37 1a7b 2839
000002c0: 308e a234 0c71 5037 1b6a 1739 f401 0000
000002d0: bfe8 da32 ea76 be39 189b 2239 3d23 7235
000002e0: cf72 9238 46a8 1034 d317 cb35 c571 7232
000002f0: 723d ee39 0000 0000 f401 0000 f401 0000
00000300: f401 0000 442f 5538 7a39 9737 fa74 a738
00000310: 7163 6638 3c41 1639 f401 0000 1036 3633
00000320: 4d8b f234 f401 0000 72b3 de38 f401 0000
00000330: 1877 b738 f549 4e38 4963 7f38 7a58 4439
00000340: 4a1a ce35 a57e a937 9ec5 9239 f401 0000
00000350: 3e20 d933 cc8a 143a 148d df39 3fda 2f37
00000360: 7092 3439 62c3 6934 8187 ef35 3329 3135
00000370: 8118 ed39 0000 0000 0000 0000 f401 0000
00000380: f401 0000 61b4 3938 dd28 7537 8c51 8538
00000390: 5d66 4138 7638 f838 f401 0000 e474 1133
000003a0: f816 c334 f401 0000 0947 b938 f401 0000
000003b0: 5023 d038 4975 8b38 784c 4f38 d18c 4d39
000003c0: 31ef a335 1b3a 8837 c846 7539 f401 0000
000003d0: 20df ac33 f702 003a 7310 b339 5e9d 0c37
000003e0: 1504 1039 f130 3b34 fdd7 df35 45ff 0d35
000003f0: df67 b839 0000 0000 f401 0000 f401 0000
7e-43 2.3556096e-05 1.7093209e-05 0.00018372019 4.667548e-05 0.00021708783 7e-43 7.687721e-08
1.1562812e-06 7e-43 0.00029091505 7e-43 0.00019303264 0.000112491674 0.00011055594 0.00034263078
2.765662e-06 4.00016e-05 0.00022567979 7e-43 1.8452401e-07 0.0005303873 0.00032603927 1.6335804e-05
0.00015589109 3.9602313e-07 2.322441e-06 1.2034335e-06 0.00067645445 0.0 0.0 7e-43
7e-43 0.0001315078 2.4466538e-06 9.256404e-05 1.0223727e-05 0.00019857624 7e-43 6.114598e-08
6.714029e-07 7e-43 0.000287536 7e-43 0.00015890716 0.000100211255 6.0388782e-05 0.00038107947
1.122364e-06 2.7144937e-05 5.50727e-05 7e-43 1.0438752e-08 0.00015946248 0.00079003576 1.0501408e-06
0.00030172375 3.0004816e-07 2.9173027e-06 9.5093003e-07 0.0010005584 0.0 7e-43 7e-43
7e-43 4.355128e-05 1.19130755e-05 6.446607e-05 3.5605408e-05 0.00014867826 7e-43 2.7727847e-08
4.249818e-07 7e-43 0.00012803136 7e-43 5.952879e-05 3.0069841e-05 3.7844893e-05 0.0001389707
9.990483e-07 1.6853714e-05 0.00017929281 7e-43 6.7284915e-08 0.0003758843 0.00030407446 6.927687e-06
0.00011915561 1.4192348e-07 1.183528e-06 4.2922673e-07 0.00039552353 0.0 7e-43 7e-43
7e-43 0.000115030285 5.6323393e-06 6.296669e-05 5.0496665e-06 2.2660188e-05 7e-43 5.968224e-08
7.0810705e-07 7e-43 0.00018058931 7e-43 6.2084175e-05 1.5376647e-05 5.488522e-05 0.0002849056
4.1189546e-07 1.6919028e-05 1.2911101e-05 7e-43 9.986652e-09 2.8271208e-05 0.0007668855 5.7186035e-08
0.00030091553 3.0525877e-07 4.957652e-07 9.253786e-07 0.0008649966 0.0 7e-43 7e-43
7e-43 5.926977e-07 9.503566e-07 1.0447741e-05 1.8568593e-06 5.7532327e-07 7e-43 7.626105e-09
7.770393e-08 7e-43 8.8710067e-07 7e-43 8.322712e-08 2.798659e-07 2.291052e-06 1.8782872e-06
1.2831019e-07 1.9073661e-06 1.0954681e-05 7e-43 1.7028698e-08 2.436919e-05 3.4549557e-05 1.543487e-06
1.3456016e-05 3.9429395e-08 1.823213e-08 1.1755936e-07 3.8964794e-05 0.0 0.0 7e-43
7e-43 3.9737504e-05 1.6117036e-05 5.7246492e-05 1.8640494e-05 7.6297874e-05 7e-43 4.116675e-08
8.2620396e-08 7e-43 0.00013103166 7e-43 2.1268599e-05 4.0318435e-05 1.4004415e-05 0.00016067587
3.0278306e-07 1.2424087e-05 0.0001444001 7e-43 2.548438e-08 0.00036328222 0.00015507301 9.0203304e-07
6.983207e-05 1.3472263e-07 1.5131612e-06 1.4112122e-08 0.00045440678 0.0 7e-43 7e-43
7e-43 5.0827177e-05 1.8027367e-05 7.984969e-05 5.4928885e-05 0.00014329416 7e-43 4.2424347e-08
4.5177367e-07 7e-43 0.00010619209 7e-43 8.748303e-05 4.9183105e-05 6.0889204e-05 0.00018724977
1.5355847e-06 2.0205343e-05 0.00027994526 7e-43 1.0110715e-07 0.00056664343 0.00042638986 1.0481627e-05
0.0001722069 2.1770896e-07 1.7846324e-06 6.599759e-07 0.0004522242 0.0 0.0 7e-43
7e-43 4.4275428e-05 1.4612652e-05 6.3571235e-05 4.611012e-05 0.00011836078 7e-43 3.3866755e-08
3.6338292e-07 7e-43 8.834719e-05 7e-43 9.92479e-05 6.6498826e-05 4.9423863e-05 0.00019602782
1.221406e-06 1.623952e-05 0.00023391389 7e-43 8.04996e-08 0.00048832543 0.00034153796 8.38129e-06
0.00013734431 1.7433537e-07 1.6677656e-06 5.289806e-07 0.00035172605 0.0 7e-43 7e-43

exp_avg f4 [16]
00000000: 05ed 6b3a 698f f6ba 4cc4 c6bb 2fb5 943b
00000010: 7e1c cb39 01da 663b 3b15 f2bb 42ef e6bb
00000020: 0420 64bb 9825 04bb 2dfa 57bb bae6 d6bb
00000030: 691e 85bb 0400 0000 317c 163b 0400 0080
0.0008999857 -0.001881105 -0.006065881 0.0045382003 0.00038740406 0.0035225155 -0.007387785 -0.0070475647
-0.0034809122 -0.002016401 -0.0032955513 -0.0065582665 -0.004062463 6e-45 0.0022962207 -6e-45

exp_avg_sq f4 [16]
00000000: e494 a33b ccd3 a93b 03f3 4b3b 1b45 923b
00000010: 463e e838 992f 683c 7e1b 8b3b bed0 663b
00000020: b8c9 b73a 3136 193b 0370 b03a dd07 113c
00000030: c9c2 0d3b f401 0000 59c4 373b f401 0000
0.0049921144 0.005182719 0.0031120188 0.0044638044 0.000110742214 0.014171504 0.0042452207 0.0035219635
0.0014021909 0.0023378248 0.0013461116 0.008851972 0.0021630994 7e-43 0.0028040616 7e-43

exp_avg f4 [2, 16]
00000000: d9d8 0237 2103 abb9 2b6a 20ba d6a3 1cb9
00000010: dc25 3bb7 a4b9 a438 9764 e5b9 b51a f7b9
00000020: a46e 2eba 580a 6cb8 4340 38ba 642e a2b9
00000030: 7390 2bba 0400 0080 aa52 b9b9 0400 0000
00000040: 42d3 02b7 9303 ab39 4a6a 203a b7a4 1c39
00000050: e024 3b37 ecb7 a4b8 c864 e539 f81a f739
00000060: d86e 2e3a 180a 6c38 7940 383a 9c2e a239
00000070: b190 2b3a 0400 0000 f852 b939 0400 0080
7.799093e-06 -0.00032617993 -0.0006119336 -0.00014938353 -1.1154883e-05 7.854708e-05 -0.0004375323 -0.0004713141
-0.000665406 -5.6276418e-05 -0.0007028619 -0.00030933612 -0.0006544657 -6e-45 -0.0003534754 6e-45
-7.797791e-06 0.00032618325 0.0006119354 0.0001493868 1.1154654e-05 -7.8543875e-05 0.00043753372 0.00047131605
0.000665409 5.6276185e-05 0.000702865 0.00030933775 0.0006544693 6e-45 0.00035347766 -6e-45

exp_avg_sq f4 [2, 16]
00000000: bf5a 7537 c521 ba37 c87c 8d37 51b0 8e38
00000010: 9797 3036 5a25 8c36 d0c8 7137 5fb1 5137
00000020: 85e7 b937 5afa 5736 4509 db37 eb72 3337
00000030: 4970 cf37 f401 0000 adba 9538 f401 0000
00000040: bd5a 7537 c521 ba37 cc7c 8d37 50b0 8e38
00000050: 9497 3036 5925 8c36 d2c8 7137 61b1 5137
00000060: 83e7 b937 5dfa 5736 3e09 db37 ec72 3337
00000070: 4b70 cf37 f401 0000 afba 9538 f401 0000
1.4624266e-05 2.2188653e-05 1.6866616e-05 6.803929e-05 2.631428e-06 4.1766734e-06 1.4411475e-05 1.2498668e-05
2.2161528e-05 3.218322e-06 2.611115e-05 1.0695988e-05 2.472861e-05 7e-43 7.139645e-05 7e-43
1.4624265e-05 2.2188653e-05 1.6866623e-05 6.8039284e-05 2.6314274e-06 4.176673e-06 1.44114765e-05 1.249867e-05
2.2161525e-05 3.2183227e-06 2.6111138e-05 1.0695989e-05 2.4728613e-05 7e-43 7.139646e-05 7e-43

exp_avg f4 [2]
00000000: 1926 d4ba 7b26 d43a
-0.001618567 0.0016185784

exp_avg_sq f4 [2]
00000000: 8c17 cf39 8b17 cf39
0.0003949966 0.00039499658

loss f8 []
00000000: 8ee3 384c 7f2b 563f
0.0013531439916631724
