15_point_edge_detector.pth (torch, 25342 bytes, 19 tensors)

model.0.weight f4 [32, 25]
0	0x3e284ebf	0.16436289
1	0x3e8325ca	0.25614768
2	0x3c9d83d6	0.019227903
3	0x3dac22d5	0.08405081
4	0x3e653c78	0.22386348
5	0x3ea151dc	0.31507766
6	0xbd000f58	-0.031264633
7	0xbdd29fb3	-0.102843665
8	0xbd8fdbe6	-0.07024364
9	0x3ea5f471	0.32413056
10	0xbd906997	-0.0705139
11	0xbf2039bf	-0.62588114
12	0xbf6ec29d	-0.93265706
13	0xbf218f47	-0.6310925
14	0xbd19bff8	-0.03753659
15	0x3eeeae39	0.46617296
16	0xbd508fc2	-0.050918348
17	0xbd48240a	-0.048862495
18	0xbd887b7d	-0.066641785
19	0x3f04d8be	0.5189322
20	0x3d1c62aa	0.03818003
21	0x3cd69b5e	0.026197132
22	0x3e3d870a	0.18508545
23	0x3d621684	0.055197254
24	0xbd340855	-0.04395326
25	0xbdeac793	-0.11463847
26	0xbd59cde8	-0.053174883
27	0xbe1480d6	-0.14502272
28	0x3e610c79	0.21977414
29	0x3dbc8606	0.092052504
30	0xbece3eb6	-0.4028222
31	0xbf0832e2	-0.5320264
32	0xbe23fa8f	-0.1601355
33	0x3f134321	0.57524306
34	0x3ed6ba7c	0.4193915
35	0xbe4d2dde	-0.20037028
36	0xbe105473	-0.14094715
37	0x3dc0c319	0.09412212
38	0x3e1e7791	0.15475298
39	0x3e079344	0.13239771
40	0x3daa21f5	0.08307258
41	0x3f12b9c0	0.5731468
42	0xbc38c5bd	-0.011277613
43	0xbf1f3bf9	-0.62200886
44	0xbf09ff6d	-0.53905374
45	0x3e455495	0.19270547
46	0x3ed2ea8d	0.41194573
47	0x3dec468a	0.11536892
48	0xbe4c8240	-0.19971561
49	0xbd6aefa3	-0.05735744
50	0xba92fbf9	-0.001121401
51	0xba67eace	-0.00088469393
52	0xb9da0811	-0.0004158621
53	0x39ff9e2a	0.00048755232
54	0xba899b5d	-0.0010498572
55	0x3992e696	0.0002801909
56	0x38c415d8	9.350077e-05
57	0x3a6e2c50	0.00090855826
58	0x39eefb48	0.00045582117
59	0xba663152	-0.0008781153
60	0xbaa335c2	-0.0012451934
61	0x384f282d	4.9390062e-05
62	0xb8941d84	-7.062688e-05
63	0x39dbe828	0.00041943905
64	0x39e313f5	0.00043311683
65	0xba9c5362	-0.0011926705
66	0xba7bb8ea	-0.00096024445
67	0x3a3ff870	0.0007323092
68	0xb94121a5	-0.00018418448
69	0x383ed6e3	4.549966e-05
70	0x3a194ce0	0.0005847942
71	0xb940df89	-0.0001839382
72	0xba600c36	-0.00085467414
73	0xba2e3b34	-0.0006646395
74	0xb9eb759b	-0.00044910316
75	0xbb617ff1	-0.0034408534
76	0xbb157a1b	-0.0022808376
77	0xbb2012db	-0.0024425301
78	0xba64a473	-0.00087220146
79	0xba164951	-0.0005732971
80	0xbaed7197	-0.0018115517
81	0xbb7190df	-0.0036860032
82	0xbb1df3b0	-0.0024101548
83	0xb9a78e3c	-0.00031958695
84	0x3a96eae0	0.001151409
85	0x3aaaa522	0.0013019184
86	0x39d5fefe	0.0004081651
87	0xbaec2fbf	-0.00180196
88	0xbb033510	-0.0020020641
89	0xb8dd211f	-0.000105442705
90	0x3a4bb921	0.0007771422
91	0xba952264	-0.0011378047
92	0xbb686238	-0.0035458934
93	0xba8f3258	-0.0010925038
94	0xba8799ae	-0.0010345483
95	0xb924162d	-0.0001564852
96	0xbac2c6e0	-0.0014860295
97	0xba983000	-0.0011610985
98	0xb9d1c384	-0.00040009257
99	0xba5ab04f	-0.0008342312
100	0x3d9fcfde	0.078033194
101	0xbe642d9e	-0.22283027
102	0xbe04419b	-0.12915652
103	0x3cf7c35d	0.030244524
104	0xbd1f1479	-0.038837884
105	0x3e5366c8	0.20644677
106	0xbf0bf933	-0.5467712
107	0xbf3cc789	-0.73741966
108	0xbc836d6d	-0.01604339
109	0x3e0eb02b	0.1393439
110	0xbd8a9ddb	-0.0676839
111	0xbde685b3	-0.1125597
112	0xbead61e0	-0.33863735
113	0x3efb1228	0.4903729
114	0x3c344d04	0.01100469
115	0xbd920c75	-0.07131282
116	0x3d59e35e	0.05319535
117	0x3f1dfa7e	0.61710346
118	0x3f1aa3ac	0.60405993
119	0xbe155f9a	-0.1458725
120	0xbd913885	-0.07090858
121	0xbd088e20	-0.033338666
122	0x3de206c2	0.11036445
123	0x3e0cbe91	0.1374457
124	0xbd040d8c	-0.03223948
125	0x3d6895f1	0.05678362
126	0xbd33591d	-0.043786157
127	0xbd6076f7	-0.054800954
128	0xbe7a8e67	-0.24468385
129	0x3d471b20	0.048609853
130	0xbe23fbf4	-0.16014081
131	0xbef80fa1	-0.48449424
132	0xbf6ddb8e	-0.9291314
133	0xbf1f69d2	-0.62270844
134	0xbe35958d	-0.1773283
135	0x3c320163	0.010864588
136	0x3e74e2aa	0.2391459
137	0x3f19ae08	0.60031176
138	0x3e5843e2	0.21119645
139	0x3e48c292	0.19605473
140	0xbb97e025	-0.0046348744
141	0x3e8cc53b	0.27494225
142	0x3f166c9d	0.5875948
143	0x3e8f6e8b	0.28014025
144	0x3c4661cb	0.012108277
145	0xbd3e7f83	-0.046508323
146	0x3d68f613	0.0568753
147	0xbd00a2fd	-0.031405438
148	0xbd262422	-0.040561803
149	0x3dda6013	0.10662856
150	0x3da4867f	0.080334656
151	0x3e8171fd	0.2528228
152	0xbbc50d06	-0.0060135154
153	0xbef224fb	-0.4729384
154	0xbe96a6c9	-0.29424122
155	0x3ee45010	0.44592333
156	0x3f029913	0.5101482
157	0xbd0950a1	-0.03352416
158	0xbf0c68f9	-0.54847676
159	0xbdd33287	-0.10312372
160	0x3e1f4969	0.15555348
161	0xbe45f738	-0.19332588
162	0x3c05a504	0.008157019
163	0x3e2e9826	0.17050228
164	0x3e5a26ee	0.21303913
165	0xbdc3a2fc	-0.09552571
166	0xbeecd0f3	-0.46253166
167	0xbe85a6da	-0.2610386
168	0x3ef6198f	0.48066375
169	0x3f10e2bd	0.56595975
170	0xbe09986d	-0.13437052
171	0xbee33ec1	-0.44383815
172	0xbd9dfe5d	-0.077145316
173	0x3d9ca3d8	0.07648438
174	0x3e344dac	0.17607754
175	0x3d61a854	0.05509217
176	0xbd91e67f	-0.07124042
177	0xbc3df299	-0.011593484
178	0x3dcc047d	0.099617936
179	0xbcdabd74	-0.026701666
180	0xbd9e8e5a	-0.07741995
181	0x3d61c568	0.055119902
182	0x3ef19221	0.471818
183	0x3f242dad	0.64132196
184	0x3c86d005	0.016456613
185	0xbcaa7ef0	-0.020812482
186	0xbdd8bb46	-0.105825946
187	0xbd8b5305	-0.06802944
188	0x3f1748a1	0.590952
189	0x3e33ef65	0.1757179
190	0xbca38f56	-0.019965809
191	0xbf3b9264	-0.7327025
192	0xbf3ad941	-0.72987753
193	0xbd86077d	-0.06544397
194	0x3dbf9366	0.09354286
195	0x3c6f0c4b	0.014590333
196	0xbd547b64	-0.051875487
197	0xbe3147f3	-0.17312603
198	0xbda9c565	-0.08289603
199	0xbca7a273	-0.020463204
200	0xbd6a0499	-0.05713329
201	0xbea8d639	-0.3297594
202	0xbb99ba3d	-0.004691391
203	0xbe9d8124	-0.3076259
204	0xbe844a3a	-0.2583788
205	0xbdefb0c7	-0.117036395
206	0x3db5b349	0.088720866
207	0x3f13f213	0.5779125
208	0x3e9d5962	0.30732256
209	0xbe310a47	-0.17289077
210	0xbe698e64	-0.22808224
211	0x3d5f6b7d	0.05454587
212	0x3f1c2c39	0.6100498
213	0xbd0d33bd	-0.03447317
214	0xbdfe43b9	-0.12415261
215	0xbd64840c	-0.055789992
216	0x3e7f1243	0.2490931
217	0x3f1cd06d	0.6125553
218	0x3eeb273a	0.45928365
219	0xbd8ca9e7	-0.06868344
220	0xbe2bbd26	-0.16771373
221	0xbe91cd5d	-0.28476992
222	0xbe413765	-0.18868788
223	0xbed3c0a7	-0.4135792
224	0xbe3d490f	-0.18484901
225	0x3da68c2b	0.08132204
226	0x3e0a516e	0.13507625
227	0x3e4dae35	0.20085986
228	0x3e953ebd	0.29149428
229	0xbe92a05e	-0.28637975
230	0xbd93fcd1	-0.07225955
231	0x3e994113	0.2993246
232	0x3d92368c	0.0713931
233	0xbf0fcee9	-0.56175095
234	0xbf091186	-0.53542364
235	0xbcc1d56c	-0.023661338
236	0xbe1b6768	-0.15176165
237	0x3eb638cb	0.35590205
238	0xbdadf8c3	-0.08494713
239	0x3e8b8ec0	0.27257347
240	0xbf25a320	-0.64702034
241	0xbe100413	-0.14064054
242	0xbd6a7545	-0.057240743
243	0x3e950067	0.2910187
244	0x3e85a5b2	0.26102978
245	0xbd9f3f8c	-0.077757925
246	0x3e6790eb	0.22613876
247	0xbbe71fd2	-0.007053354
248	0xbe2c1e69	-0.16808476
249	0xbe182495	-0.14857705
250	0xba915dbf	-0.0011090561
251	0xba7a2e6c	-0.00095436606
252	0x3a634020	0.0008668918
253	0xba8f4bea	-0.0010932658
254	0xba4f1da9	-0.0007900843
255	0xb969f341	-0.0002231123

model.0.bias f4 [32]
0	0x3cefd79e	0.029277619
1	0x3c59e739	0.013299757
2	0xbab3387f	-0.0013673453
3	0xbb14c154	-0.002269824
4	0x390e2c84	0.00013558759
5	0xbd686d32	-0.05674476
6	0x3af30da3	0.0018543493
7	0xbcaa4083	-0.020782715
8	0xbcc2d312	-0.023782287
9	0xbd1b53a5	-0.037921567
10	0xba66830d	-0.0008793332
11	0xbd364d0f	-0.044507083
12	0x3c6d9d7e	0.014502881
13	0x3d607db1	0.05480737
14	0x3dbe0ca3	0.09279754
15	0xbd8df6c6	-0.06931834
16	0xbacef948	-0.0015790844
17	0xbb780984	-0.0037847469
18	0xbd4a4ff2	-0.049392648
19	0xbb85ee7d	-0.004087268
20	0x3d9c5aaa	0.0763448
21	0xbb6ebc21	-0.0036428052
22	0xbc7990a2	-0.015232237
23	0xba86b297	-0.0010276613
24	0xbd28a280	-0.041170597
25	0x3e0afe4e	0.13573572
26	0xba952dda	-0.0011381463
27	0xbc9c515e	-0.019081768
28	0xbb04d26b	-0.002026702
29	0xba9f75f2	-0.0012165888
30	0xbce22273	-0.027604317
31	0xbad73f7f	-0.0016422122

model.2.weight f4 [16, 32]
0	0x3ed6dbda	0.41964608
1	0x3ea8bcf9	0.32956675
2	0x37443de6	1.1696922e-05
3	0xbaab69ee	-0.0013077834
4	0x3e9969f1	0.2996364
5	0xbfb15e44	-1.3856893
6	0x3dff9a7f	0.1248064
7	0x3e9623bb	0.29324135
8	0xbe9d4bbf	-0.30721852
9	0xbe50cbe8	-0.20390284
10	0x3a87c9d8	0.0010359837
11	0xbec87b35	-0.391565
12	0xbee9588d	-0.4557537
13	0xc027c182	-2.6211858
14	0x3ee18ab9	0.4405115
15	0x3dee2ea3	0.11629989
16	0x39e612e0	0.00043883082
17	0x3a55bcaf	0.0008153421
18	0xbf5f8501	-0.8731232
19	0x3b1e7bcb	0.0024182673
20	0xbeb088e0	-0.34479427
21	0x3b770bae	0.003769617
22	0x3f3947e3	0.72375315
23	0xbb11a116	-0.002222126
24	0x3f520720	0.8204212
25	0x3e8efab4	0.27925646
26	0xba0d113b	-0.00053812907
27	0xbee17e11	-0.44041494
28	0xba766057	-0.0009398511
29	0xb9f06874	-0.0004585419
30	0xbe086644	-0.13320261
31	0xba3971a2	-0.00070741225
32	0xbe9a6436	-0.3015458
33	0xbe36cc19	-0.17851295
34	0x397f099b	0.00024322273
35	0xba328bdc	-0.0006811002
36	0x3eb5a8f5	0.35480466
37	0x3ef36c48	0.4754355
38	0xbf2cb111	-0.6745768
39	0x3e9c854b	0.30570444
40	0xbea7153f	-0.32633397
41	0x3c9db1a1	0.01924974
42	0xbabb929a	-0.0014310658
43	0x3e3a927b	0.1821994
44	0x3d8b8acd	0.068135835
45	0xbfede00f	-1.8584002
46	0x3e070ffb	0.1318969
47	0xbe382578	-0.17983043
48	0x39ce1b16	0.00039311562
49	0xba14ad6f	-0.00056715956
50	0x3db1926a	0.086705044
51	0xbabc82c1	-0.001438223
52	0xbfb458a1	-1.4089547
53	0x39b2bd01	0.00034091625
54	0x3e4831d5	0.1955026
55	0xb7a32bbc	-1.945148e-05
56	0xbee5b6b3	-0.4486595
57	0x3e3f6df0	0.18694282
58	0x3b48f92f	0.0030666103
59	0xbc6590b0	-0.014011547
60	0xba2b3503	-0.00065310317
61	0xba3acc86	-0.0007125813
62	0xbf312099	-0.69190365
63	0xbac7284b	-0.0015194503
64	0xbf991be4	-1.1961637
65	0x3f72b4af	0.9480695
66	0xb9e3d9cb	-0.00043459082
67	0xbb3992d6	-0.002831628
68	0xbf038b34	-0.5138428
69	0xbdfb7fca	-0.12280233
70	0x3f00ae15	0.5026563
71	0xbec633a2	-0.38711268
72	0xbf81ae66	-1.0131347
73	0x3ed9ff5c	0.42577636
74	0x39df490b	0.00042588296
75	0xbf078215	-0.52932864
76	0x3d98d2dd	0.07462094
77	0x3f1280fd	0.5722807
78	0x3cb6cf99	0.022315787
79	0xbc3340d9	-0.010940754
80	0xba79eb10	-0.0009533623
81	0xba294d92	-0.0006458397
82	0x3dd1b014	0.10238662
83	0xbaddebe3	-0.0016931262
84	0x3e159b70	0.14610076
85	0xba282995	-0.00064148876
86	0xbe3e079b	-0.18557589
87	0xbaadfa0d	-0.0013273373
88	0xbebcaced	-0.36850682
89	0x3e6bf1a1	0.23041393
90	0x3b43a35c	0.0029852008
91	0xbe90bdbf	-0.28269765
92	0xbab49255	-0.001377652
93	0xbad5ab6a	-0.0016301696
94	0x3c43c46a	0.011948684
95	0xba26daff	-0.00063650304
96	0xbf88723e	-1.0659864
97	0x3f7ad073	0.9797432
98	0xba889597	-0.0010420558
99	0xb9f9ed33	-0.00047669708
100	0xbf31bcff	-0.6942901
101	0xbe738e91	-0.23784854
102	0x3f3fc541	0.7491036
103	0xbf0869fd	-0.53286725
104	0xbf9527ad	-1.1652733
105	0xbc07f62a	-0.008298436
106	0x39f7a17d	0.0004723183
107	0xbe1a41ec	-0.1506421
108	0x3ece6435	0.40310827
109	0xbec0ff51	-0.3769479
110	0x3e9c8d40	0.30576515
111	0xbe5028d5	-0.20328076
112	0x39eb2e8c	0.00044857373
113	0x3af9cf0b	0.0019058896
114	0xbe3f2afa	-0.18668738
115	0x39b44fc0	0.00034391694
116	0xbf7c0216	-0.9844068
117	0xbb65aabe	-0.0035044397
118	0xbc94775c	-0.018123321
119	0xb934e1ba	-0.00017250227
120	0xbf085333	-0.5325195
121	0xbdbf260d	-0.093334295
122	0x3b346853	0.0027528002
123	0xbd7ee400	-0.062229156
124	0xb8c6b243	-9.4745796e-05
125	0x3a0f0250	0.00054553617
126	0x3dda48ee	0.106584415
127	0xba3be8a1	-0.00071681483
128	0xbfe4f972	-1.7888625
129	0x3f067364	0.5251982
130	0x39a3d560	0.0003124876
131	0xba892045	-0.0010461888
132	0xbd28e5b6	-0.041234694
133	0xbee2152f	-0.44156787
134	0x3f3ff3dd	0.7498148
135	0xbf138893	-0.5763027
136	0x3e194106	0.1496621
137	0x3d23f00e	0.040023856
138	0x39a20fc0	0.00030910783
139	0x3dffedcb	0.12496527
140	0xbdf64812	-0.12025465
141	0x3fa33c04	1.275269
142	0x3e69dea7	0.22838841
143	0xbeb65a3a	-0.35615712
144	0xba23f294	-0.00062541035
145	0x3a9a11c3	0.0011754561
146	0xbf03941b	-0.51397866
147	0x3b4e9584	0.0031522224
148	0x3e172db2	0.14763525
149	0xbaf06f64	-0.0018343744
150	0xbe8ef0bb	-0.27918038
151	0x393a7933	0.00017783493
152	0x3d690f1b	0.05689917
153	0x3e34b685	0.1764775
154	0xb976aad6	-0.0002352403
155	0x3e59f026	0.21283016
156	0x3a38d311	0.00070504943
157	0xb8b4a9d7	-8.614704e-05
158	0x3ecec4d3	0.4038454
159	0xb90d1405	-0.00013454266
160	0x3f50dfce	0.815915
161	0xbf07df05	-0.53074676
162	0x3a21d1fa	0.00061729515
163	0xba3035a7	-0.0006721862
164	0xbf128b6b	-0.57243985
165	0xbf459b68	-0.77190256
166	0xbed249b0	-0.41071844
167	0xbf6269bc	-0.8844259
168	0x3f44865c	0.76767516
169	0xbe991470	-0.29898405
170	0xb98b6508	-0.0002658742
171	0x3f05b400	0.52227783
172	0x3eee078a	0.46490127
173	0xbe979f8b	-0.2961391
174	0x3e436b46	0.1908389
175	0xbf0a4b47	-0.54021114
176	0x38f707c7	0.000117793265
177	0xba4ea063	-0.0007882176
178	0xbec5bec6	-0.3862211
179	0xbb89eac7	-0.004208896
180	0x3ebc91a2	0.3682986
181	0xbba4c45b	-0.00502829
182	0xbf960a09	-1.1721812
183	0xbaa1a4f4	-0.0012332485
184	0x3f2a5425	0.66534644
185	0x3ec61e27	0.3869488
186	0xbafc7df3	-0.001926361
187	0x3f25c767	0.6475739
188	0x39872c77	0.00025782335
189	0xb9a639eb	-0.0003170514
190	0x3e61dcf3	0.22056942
191	0x39c4e3ad	0.00037553665
192	0xbee0bb48	-0.43892884
193	0xbf6b078a	-0.9180838
194	0x3860293b	5.344416e-05
195	0xba6f3bb5	-0.00091260235
196	0xbfc2dcf3	-1.5223678
197	0xbfca3cff	-1.5799865
198	0xbf9e0229	-1.2344409
199	0xc00469c9	-2.0689566
200	0xbea9b0af	-0.3314261
201	0xbd91168a	-0.07084377
202	0xb911afef	-0.00013893818
203	0xbf5a14b9	-0.8518787
204	0x3f2d20a1	0.6762791
205	0x3e8d085e	0.27545446
206	0x3e74a31c	0.23890346
207	0xbd40a8c5	-0.04703595
208	0x3a687fea	0.00088691583
209	0x3ad703fd	0.0016404387
210	0x3f69f849	0.9139448
211	0xb9c17bb4	-0.00036903995
212	0xbf337325	-0.7009757
213	0xbbabed27	-0.0052467766
214	0xbfe1cd6b	-1.7640814
215	0xba104d23	-0.00055046583
216	0xbe3482e9	-0.17628063
217	0x3e09ca95	0.13456185
218	0x3b150516	0.0022738627
219	0xbecfcc64	-0.40585625
220	0x3a283a61	0.00064173905
221	0xba3a50dc	-0.0007107386
222	0xbf31afdc	-0.69408965
223	0xb9c18229	-0.00036908805
224	0x3e23c60f	0.15993522
225	0xbe3ba1dd	-0.18323465
226	0x39842058	0.000252011
227	0x3a256767	0.00063096586
228	0xbee40ec7	-0.44542524
229	0xbe7c359b	-0.24629824
230	0x3f410168	0.7539277
231	0xbdd880ed	-0.10571466
232	0xbe9036e3	-0.28166875
233	0x3ec2aa6a	0.3802064
234	0xba2e1cf6	-0.0006641889
235	0xbf22dc41	-0.6361733
236	0x3e67e1f3	0.22644787
237	0x3f2ed558	0.68294287
238	0xbef9be69	-0.48778084
239	0xbf039f87	-0.51415294
240	0xb72d01d6	-1.0312031e-05
241	0x3b1d83f0	0.002403494
242	0xbe62544d	-0.2210247
243	0xba113fe1	-0.000554083
244	0xc0172964	-2.3619013
245	0xba9081e2	-0.0011025036
246	0xbda2d7ec	-0.0795134
247	0x39a24aa8	0.0003095467
248	0x3d8b44dd	0.06800244
249	0xbef26894	-0.47345412
250	0x39941a43	0.00028248326
251	0xbf074c8c	-0.52851176
252	0x3a3c246c	0.0007177058
253	0xb99a0c33	-0.00029382258
254	0x3f907414	1.1285424
255	0xb9dfd3f4	-0.00042691792

model.2.bias f4 [16]
0	0x3dd6ad07	0.10482221
1	0x3e93b745	0.2885076
2	0x3e62c1be	0.2214422
3	0x3e4ca32d	0.19984122
4	0x3e0a444c	0.13502616
5	0x3e40ba02	0.18820956
6	0x3f46d0d3	0.7766239
7	0x3e80b075	0.25134626
8	0xbd6d1f55	-0.05789121
9	0xbb15f9e2	-0.0022884537
10	0xbb20e8d0	-0.002455283
11	0x3ea632d2	0.32460648
12	0x3e3b94f5	0.18318541
13	0x3e967aa0	0.2939043
14	0x3e845ce8	0.25852132
15	0x3c772562	0.015084596

model.4.weight f4 [3, 16]
0	0x3fc67bbc	1.5506511
1	0x3fbb16a0	1.461628
2	0xc02f9d96	-2.7439933
3	0xc0791a3d	-3.8922265
4	0xc00a0d5b	-2.1570652
5	0xc0926b40	-4.575592
6	0xc0ef464e	-7.477332
7	0xc03fd8a5	-2.997598
8	0xbf8f708b	-1.120622
9	0xb8fbecc0	-0.00012012711
10	0x398be5e9	0.00026683442
11	0x40038b81	2.0553896
12	0x3e9cb5e6	0.30607527
13	0x40275693	2.614659
14	0x3f7b035e	0.9805201
15	0xc0037fad	-2.0546677
16	0xbfc547d9	-1.5412551
17	0xc013a451	-2.306904
18	0xbf391133	-0.7229187
19	0xbdca3f72	-0.098753825
20	0x3f0bba8b	0.54581517
21	0x406193be	3.5246425
22	0x40c856cd	6.260596
23	0xbea5d0eb	-0.32385954
24	0xbeb09656	-0.34489697
25	0xbb663788	-0.0035128314
26	0xb9b88e4d	-0.00035201237
27	0x3f6b27d9	0.9185768
28	0xc0935b74	-4.6049137
29	0xbfb0532b	-1.3775381
30	0xc07c2ca7	-3.9402254
31	0x3fc1e0fd	1.5146786
32	0xbf4db945	-0.80360824
33	0xbf367ceb	-0.7128436
34	0x402880c4	2.6328592
35	0x40441fce	3.0644412
36	0x3fa89eee	1.3173501
37	0xbf8c5ac8	-1.0965204
38	0xc08406e7	-4.1258426
39	0x401cc062	2.449242
40	0x3f8ce61f	1.1007727
41	0xbadebabf	-0.001699291
42	0x3a6ac15f	0.0008955206
43	0xc04e242c	-3.2209578
44	0x3f72410c	0.94630504
45	0xc0098034	-2.14845
46	0x3e5d129a	0.21589127
47	0xbdfa574d	-0.122236826

model.4.bias f4 [3]
0	0x3ea9da8e	0.33174556
1	0x3e604cf5	0.21904357
2	0xbeeb89d6	-0.46003598

exp_avg f4 [32, 25]
0	0x3bf9d2e8	0.007624019
1	0x3c15b367	0.009137011
2	0x3bbe11b2	0.0058004493
3	0x3c5cf7b5	0.013486792
4	0x3c723552	0.01478322
5	0x3c063f5b	0.008193816
6	0x3bfd12fd	0.007723211
7	0x3bd1ceb1	0.0064028134
8	0x3c2674b0	0.010159656
9	0x3c2bc452	0.010483818
10	0x3c3b462c	0.0114303045
11	0x3c30a19e	0.01078072
12	0x3c1e83d7	0.009674988
13	0x3c03fff6	0.008056631
14	0x3c132401	0.008980752
15	0x3c3f4692	0.01167454
16	0x3c83033d	0.015992755
17	0x3b826ebd	0.003980486
18	0x3b2e756c	0.0026620282
19	0x3b73698f	0.0037141775
20	0x3c9aad36	0.018881422
21	0x3c321b32	0.010870742
22	0x3a905782	0.0011012407
23	0x3b4e4de5	0.0031479534
24	0x3936d140	0.00017434824
25	0x3c5eae50	0.013591364
26	0x3cc52986	0.024067651
27	0x3cbbd4bb	0.022928586
28	0x3b18fb20	0.0023343042
29	0x3a394385	0.0007067251
30	0x3c4fc821	0.012681992
31	0x3c7a223d	0.015266952
32	0x3c7b39bb	0.015333588
33	0xba34dffa	-0.000689983
34	0xb8992ffd	-7.304547e-05
35	0x3ba688f8	0.005082246
36	0x3bab9739	0.005236533
37	0xb91f3890	-0.00015184493
38	0x3b67d6f1	0.0035375918
39	0x39edc71f	0.0004535252
40	0x3c00b071	0.007854567
41	0x3bf63b9a	0.0075144293
42	0xbbed47e6	-0.007241237
43	0xba8eea86	-0.0010903634
44	0xbc0e1542	-0.00867206
45	0x3c1035a9	0.008801856
46	0x3b29fd1d	0.002593822
47	0xbc0dee86	-0.008662825
48	0xbbbf61bd	-0.0058405087
49	0xbbe955ec	-0.0071208384
50	0x00000004	6e-45
51	0x00000004	6e-45
52	0x00000004	6e-45
53	0x00000004	6e-45
54	0x00000004	6e-45
55	0x00000004	6e-45
56	0x00000004	6e-45
57	0x00000004	6e-45
58	0x00000004	6e-45
59	0x00000004	6e-45
60	0x00000004	6e-45
61	0x00000004	6e-45
62	0x00000004	6e-45
63	0x00000004	6e-45
64	0x00000004	6e-45
65	0x00000004	6e-45
66	0x00000004	6e-45
67	0x00000004	6e-45
68	0x00000004	6e-45
69	0x00000004	6e-45
70	0x00000004	6e-45
71	0x00000004	6e-45
72	0x00000004	6e-45
73	0x00000004	6e-45
74	0x00000004	6e-45
75	0x00000004	6e-45
76	0x80000004	-6e-45
77	0x00000004	6e-45
78	0x00000004	6e-45
79	0x00000004	6e-45
80	0x00000004	6e-45
81	0x00000004	6e-45
82	0x00000004	6e-45
83	0x00000004	6e-45
84	0x00000004	6e-45
85	0x00000004	6e-45
86	0x00000004	6e-45
87	0x00000004	6e-45
88	0x00000004	6e-45
89	0x00000004	6e-45
90	0x00000004	6e-45
91	0x00000004	6e-45
92	0x00000004	6e-45
93	0x00000004	6e-45
94	0x00000004	6e-45
95	0x00000004	6e-45
96	0x00000004	6e-45
97	0x00000004	6e-45
98	0x00000004	6e-45
99	0x00000004	6e-45
100	0x3b705075	0.003666905
101	0xba0a3718	-0.0005272492
102	0x399a32b4	0.00029410946
103	0x3b84ac45	0.0040488564
104	0x3ace1055	0.001572142
105	0x3b631f5f	0.003465615
106	0x3b0cc445	0.002147929
107	0xb9c19ae9	-0.00036927246
108	0xbb58ab97	-0.003306126
109	0xbc1707a8	-0.009218134
110	0xba9a63b2	-0.0011778979
111	0xbb7839ca	-0.0037876242
112	0xbbb0f279	-0.0053999987
113	0xbc2468d4	-0.010034759
114	0xbc56a13f	-0.0130999675
115	0x3a606528	0.00085599953
116	0x39750d0a	0.00023369878
117	0x3ba1c050	0.0049362555
118	0xbb77c91b	-0.0037809077
119	0xbbf1a5d2	-0.0073745036
120	0x39b5dd3d	0.00034687846
121	0x3b250a98	0.0025183316
122	0x3bd9d9c4	0.006648274
123	0xbacecb47	-0.0015777134
124	0xbbaa5074	-0.005197579
125	0x3c15a940	0.009134591
126	0x3bc48924	0.0059977937
127	0x3ba68341	0.0050815647
128	0xbb80f69b	-0.0039356477
129	0xbbc459e5	-0.0059921616
130	0x3c33c0b2	0.010971235
131	0x3c138bd1	0.009005503
132	0x3ad64504	0.0016347473
133	0xbbcb00c7	-0.006195161
134	0xbbd14dd5	-0.006387452
135	0x3c1d86bf	0.0096146455
136	0x3bfb7e7d	0.0076749907
137	0xbb82fcfc	-0.0039974432
138	0xbc0ae33f	-0.008477031
139	0xbc19d9b4	-0.009390283
140	0x3c3f3b1f	0.01167181
141	0x3c435063	0.011921021
142	0x3b8d416e	0.0043107783
143	0xbac4cd2b	-0.0015014758
144	0xbb8ef2e4	-0.004362451
145	0x3c449bd7	0.012000046
146	0x3c361910	0.011114374
147	0x3b980723	0.0046395226
148	0x3ae791f8	0.0017667403
149	0xbb04fa0a	-0.0020290636
150	0x3d52fc66	0.051510237
151	0x3d585c36	0.052822314
152	0x3d161460	0.036640525
153	0x3d0ac6cb	0.03388099
154	0x3d114655	0.035467464
155	0x3d4561ff	0.04818916
156	0x3d4758ef	0.048668798
157	0x3d211229	0.03932396
158	0x3d458ad0	0.048228085
159	0x3d6fab81	0.05851317
160	0x3d4cabdc	0.049968585
161	0x3d54c66a	0.051947035
162	0x3d369abb	0.044581156
163	0x3d77b2c2	0.06047321
164	0x3d8b88b2	0.06813182
165	0x3d616680	0.055029392
166	0x3d38b231	0.04509181
167	0x3d1a35fe	0.037649147
168	0x3d7b34a7	0.06132951
169	0x3d7ec249	0.062197004
170	0x3d4410db	0.047867637
171	0x3d424bc8	0.047435552
172	0x3d1ec95f	0.03876626
173	0x3d682beb	0.05668251
174	0x3d7b1cba	0.061306693
175	0x3b51a045	0.0031986397
176	0xbb1d86c6	-0.002403663
177	0xbadbc064	-0.0016765711
178	0x3c027a4b	0.007963727
179	0x3bdd577d	0.006754814
180	0x3b4c8ffb	0.0031213749
181	0x3acc5573	0.0015589431
182	0x3a039ee5	0.00050209305
183	0x3b12de34	0.0022410275
184	0xbbbab0c9	-0.005697344
185	0x3a9aa980	0.0011799783
186	0xbab9e92c	-0.001418387
187	0xbbac9847	-0.0052671763
188	0xbc30832b	-0.01077346
189	0xbc30b918	-0.010786317
190	0xbbda47a5	-0.0066613727
191	0xbbc1e039	-0.005916622
192	0x3b6628d9	0.0035119562
193	0xbc19a862	-0.0093785245
194	0xbbc26c2f	-0.0059333066
195	0xbbc93c5a	-0.0061412277
196	0xbae5f0cd	-0.0017543078
197	0x3b9fa2cb	0.0048717014
198	0xbb9ac58c	-0.0047232565
199	0xbbc4f57e	-0.0060107103
200	0xbc642d3d	-0.013926801
201	0xbcc12040	-0.023574948
202	0xbcd324c4	-0.025774367
203	0xbd19bbb0	-0.03753251
204	0xbd299e5b	-0.041410785
205	0xbc3b165b	-0.011418904
206	0xbc869459	-0.01642816
207	0xbcce811b	-0.025208047
208	0xbd1e5812	-0.03865821
209	0xbd208a0c	-0.03919415
210	0xbba63680	-0.005072415
211	0xbc1950c7	-0.009357638
212	0xbd07fa1e	-0.033197515
213	0xbd602c7b	-0.05472992
214	0xbd4a2ca2	-0.04935897
215	0xbbac71aa	-0.0052625732
216	0xbb66febe	-0.0035247053
217	0xbca40a71	-0.02002451
218	0xbd43fbc4	-0.047847524
219	0xbd2ab7bb	-0.041679125
220	0xbb963873	-0.004584366
221	0xbc3c66d9	-0.01149913
222	0xbcb1cdf0	-0.021704644
223	0xbd10c7f2	-0.035346933
224	0xbd329502	-0.043599136
225	0x3afffec6	0.0019530884
226	0x3b002340	0.001955226
227	0x3b03c641	0.0020107182
228	0x3b190295	0.0023347486
229	0x3b0d782a	0.0021586516
230	0x3afc6822	0.0019257108
231	0x3b001614	0.001954441
232	0x3b0b33e5	0.0021240648
233	0x3b11cc15	0.0022246887
234	0x3b051c0e	0.0020310911
235	0x3ace1500	0.0015722811
236	0x3b111739	0.0022139086
237	0x3b6b5cb2	0.0035913405
238	0x3b3ea9c5	0.002909289
239	0x3b280251	0.0025636146
240	0x3ae7c58e	0.0017682777
241	0x3ae5155a	0.0017477677
242	0x3afcd20b	0.0019288672
243	0x3b13dd78	0.0022562426
244	0x3b100b1e	0.0021979283
245	0x3ae8d373	0.0017763212
246	0x3b0c4ae9	0.0021406955
247	0x3ad3f0a9	0.0016169745
248	0x3aa84c96	0.0012840207
249	0x3b1364a1	0.00224904
250	0x00000000	0.0
251	0x00000000	0.0
252	0x00000000	0.0
253	0x00000000	0.0
254	0x00000000	0.0
255	0x00000004	6e-45

exp_avg_sq f4 [32, 25]
0	0x3d10fd47	0.035397794
1	0x3d0c3ba6	0.034236573
2	0x3d08fed8	0.033446163
3	0x3d0754bd	0.033039797
4	0x3d0b4ea5	0.03401055
5	0x3d152b33	0.03641815
6	0x3d0a62d1	0.033785645
7	0x3cefca53	0.02927128
8	0x3d01b8e5	0.03167047
9	0x3d0b8c16	0.034069143
10	0x3d0f7322	0.03502191
11	0x3cfb5f52	0.0306851
12	0x3cc0313b	0.023460975
13	0x3ce8ef5f	0.028434454
14	0x3d01cf6c	0.031691954
15	0x3d07f07b	0.033188324
16	0x3cf4fce6	0.029905748
17	0x3cd83e98	0.026397035
18	0x3ce52e95	0.027976314
19	0x3cfe3777	0.031032307
20	0x3cff1cdb	0.031141689
21	0x3cefd2ca	0.029275317
22	0x3ce5960a	0.028025646
23	0x3ce3ccfb	0.027807703
24	0x3cf77e4a	0.030211587
25	0x3d005628	0.031332165
26	0x3d096b4e	0.0335496
27	0x3d20a7b1	0.039222423
28	0x3d363516	0.04448422
29	0x3d3fb1f4	0.04680057
30	0x3d030000	0.031982422
31	0x3d02f7e3	0.031974684
32	0x3d1b80c4	0.037964597
33	0x3d3b0b2a	0.045664944
34	0x3d4580c5	0.048218507
35	0x3d20b048	0.039230615
36	0x3d217f74	0.03942819
37	0x3d2700f2	0.040772386
38	0x3d364b44	0.044505373
39	0x3d351b77	0.044215646
40	0x3d2a1d00	0.041531563
41	0x3d27f1f4	0.04100223
42	0x3d15d68e	0.03658157
43	0x3d02db27	0.03194728
44	0x3d08d798	0.03340873
45	0x3d27bc75	0.04095121
46	0x3d240a88	0.040049106
47	0x3d178924	0.036996022
48	0x3d02eaef	0.03196233
49	0x3d03dd0d	0.032193232
50	0x000001f4	7e-43
51	0x000001f4	7e-43
52	0x000001f4	7e-43
53	0x000001f4	7e-43
54	0x000001f4	7e-43
55	0x000001f4	7e-43
56	0x000001f4	7e-43
57	0x000001f4	7e-43
58	0x000001f4	7e-43
59	0x000001f4	7e-43
60	0x000001f4	7e-43
61	0x000001f4	7e-43
62	0x000001f4	7e-43
63	0x000001f4	7e-43
64	0x000001f4	7e-43
65	0x000001f4	7e-43
66	0x000001f4	7e-43
67	0x000001f4	7e-43
68	0x000001f4	7e-43
69	0x000001f4	7e-43
70	0x000001f4	7e-43
71	0x000001f4	7e-43
72	0x000001f4	7e-43
73	0x000001f4	7e-43
74	0x000001f4	7e-43
75	0x000001f4	7e-43
76	0x000001f4	7e-43
77	0x000001f4	7e-43
78	0x000001f4	7e-43
79	0x000001f4	7e-43
80	0x000001f4	7e-43
81	0x000001f4	7e-43
82	0x000001f4	7e-43
83	0x000001f4	7e-43
84	0x000001f4	7e-43
85	0x000001f4	7e-43
86	0x000001f4	7e-43
87	0x000001f4	7e-43
88	0x000001f4	7e-43
89	0x000001f4	7e-43
90	0x000001f4	7e-43
91	0x000001f4	7e-43
92	0x000001f4	7e-43
93	0x000001f4	7e-43
94	0x000001f4	7e-43
95	0x000001f4	7e-43
96	0x000001f4	7e-43
97	0x000001f4	7e-43
98	0x000001f4	7e-43
99	0x000001f4	7e-43
100	0x3c9bd9af	0.019024698
101	0x3c8bda05	0.017071733
102	0x3c946308	0.018113628
103	0x3cb15299	0.021645831
104	0x3cc6426b	0.024201592
105	0x3ca61ed2	0.020278368
106	0x3c979af0	0.018506497
107	0x3c956f7a	0.018241633
108	0x3cbbee31	0.022940727
109	0x3cd8a8b3	0.02644763
110	0x3cb6ea1c	0.022328429
111	0x3cb45951	0.022015246
112	0x3cc1c0a2	0.023651425
113	0x3ceaa016	0.028640788
114	0x3cf9e762	0.03050584
115	0x3cc18e0a	0.0236273
116	0x3cc575a1	0.024103941
117	0x3cda872c	0.026675783
118	0x3cf18902	0.029484276
119	0x3cf5158a	0.029917497
120	0x3cc43c7d	0.023954624
121	0x3cca2779	0.024677025
122	0x3ce14a35	0.027501205
123	0x3cf80b56	0.030278843
124	0x3cf60756	0.030032795
125	0x3c199eaf	0.009376212
126	0x3c04f295	0.008114477
127	0x3bee85c7	0.007279131
128	0x3bf4b750	0.0074681416
129	0x3c055a3a	0.0081391875
130	0x3c27277b	0.010202284
131	0x3c171dac	0.009223383
132	0x3bf8e61c	0.0075957906
133	0x3c0451f6	0.008076182
134	0x3c17b3b1	0.00925915
135	0x3c4a0171	0.012329445
136	0x3c47d4ef	0.012196763
137	0x3c49c348	0.012314625
138	0x3c448c1d	0.011996296
139	0x3c47a159	0.012184464
140	0x3c5778c6	0.013151353
141	0x3c59e89c	0.013300087
142	0x3c60c1ce	0.013718082
143	0x3c592c0c	0.0132551305
144	0x3c51261f	0.012765436
145	0x3c55c8c6	0.013048356
146	0x3c57eb40	0.013178647
147	0x3c64b2a1	0.013958604
148	0x3c63b95c	0.013899174
149	0x3c563696	0.013074538
150	0x3db32093	0.087464474
151	0x3dab8597	0.083750896
152	0x3d9302ee	0.07178293
153	0x3d80d246	0.062901065
154	0x3d82acb5	0.063805975
155	0x3dbb83ab	0.09155973
156	0x3db060e2	0.08612229
157	0x3d91a90f	0.071123235
158	0x3d849912	0.06474508
159	0x3d90c3a3	0.07068565
160	0x3db604e8	0.088876545
161	0x3db001ec	0.085941166
162	0x3da1599d	0.078784205
163	0x3db67c5f	0.08910441
164	0x3db9de50	0.09075606
165	0x3d940c4c	0.07228908
166	0x3d83b185	0.064303435
167	0x3d8508be	0.06495808
168	0x3da66838	0.08125347
169	0x3db96143	0.09051754
170	0x3d85fb42	0.06542064
171	0x3d721349	0.059100423
172	0x3d849808	0.0647431
173	0x3d9efd64	0.07763174
174	0x3db0acdd	0.08626721
175	0x3d3ee9c9	0.046609674
176	0x3d477224	0.048692837
177	0x3d5a7e4a	0.053343095
178	0x3d6c9011	0.05775458
179	0x3d72b761	0.059256915
180	0x3d3d2cae	0.046185188
181	0x3d42a9fc	0.04752539
182	0x3d578441	0.05261636
183	0x3d6b6be6	0.057475947
184	0x3d7528d2	0.059853382
185	0x3d3759a1	0.04476321
186	0x3d36e4b9	0.04465172
187	0x3d47aebf	0.048750635
188	0x3d666cba	0.056256033
189	0x3d6eea61	0.05832899
190	0x3d1e1f6b	0.03860418
191	0x3d18b384	0.037280574
192	0x3d19312d	0.037400413
193	0x3d2cf4d0	0.04222566
194	0x3d3e0a34	0.04639645
195	0x3d0aa135	0.033845145
196	0x3d07b941	0.033135656
197	0x3d121c40	0.035671473
198	0x3d26ba2d	0.040704895
199	0x3d3450e7	0.044022467
200	0x3d647ec4	0.055784956
201	0x3d642443	0.055698644
202	0x3d6845ec	0.056707308
203	0x3d67ba3f	0.056574102
204	0x3d68c95d	0.05683266
205	0x3d6e3bf8	0.05816266
206	0x3d6dbc4c	0.058040902
207	0x3d78932f	0.06068724
208	0x3d75e87e	0.060036175
209	0x3d767afc	0.06017588
210	0x3d878e0b	0.066188894
211	0x3d8c9575	0.06864444
212	0x3d9e3a28	0.07725936
213	0x3d8e77ac	0.06956419
214	0x3d88da0b	0.066822134
215	0x3d80bd22	0.06286074
216	0x3d81a60e	0.063305005
217	0x3d8747b1	0.06605471
218	0x3d8020ca	0.06256254
219	0x3d7f7700	0.062369347
220	0x3d7b4a58	0.061350197
221	0x3d7a6132	0.06112785
222	0x3d7f8ec8	0.062392026
223	0x3d760343	0.060061704
224	0x3d79c531	0.060979072
225	0x3aaf5933	0.0013378024
226	0x3ab6cfda	0.0013947443
227	0x3aa7f27a	0.0012813353
228	0x3a945ddf	0.001131948
229	0x3a853ebd	0.0010165792
230	0x3aa95704	0.001291961
231	0x3aada34e	0.0013247521
232	0x3aa09a34	0.0012252987
233	0x3a83a233	0.0010042846
234	0x3a7ff8ac	0.0009764533
235	0x3a837c8e	0.0010031627
236	0x3a7e981c	0.0009711997
237	0x3a847593	0.0010105841
238	0x3ac2f7ec	0.0014874912
239	0x3acbf4c2	0.0015560614
240	0x3a1e40ce	0.00060368783
241	0x3a1d676d	0.00060044863
242	0x3a676ced	0.0008828182
243	0x3aba476b	0.0014211958
244	0x3ad12fb2	0.0015959649
245	0x3a2180b5	0.00061608414
246	0x3a2f5949	0.0006689025
247	0x3a6865bd	0.0008865258
248	0x3ab0331b	0.0013442965
249	0x3ac6ffa0	0.0015182383
250	0x00000000	0.0
251	0x00000000	0.0
252	0x00000000	0.0
253	0x00000000	0.0
254	0x00000000	0.0
255	0x000001f4	7e-43

exp_avg f4 [32]
0	0x3badf746	0.0053090183
1	0x369f8b2c	4.754771e-06
2	0x00000004	6e-45
3	0x00000004	6e-45
4	0xbab2f353	-0.0013652839
5	0x3c134070	0.008987531
6	0x3df1a623	0.11799266
7	0xbc94a223	-0.018143719
8	0xbccd6525	-0.025072644
9	0x3ac7d12d	0.0015244834
10	0x00000004	6e-45
11	0xba9a793f	-0.0011785402
12	0x394dfb34	0.00019643904
13	0xbc087406	-0.008328443
14	0xbc4c35b0	-0.012463972
15	0xbcc0ea5d	-0.023549253
16	0x00000004	6e-45
17	0x00000004	6e-45
18	0x3b40c8c9	0.0029416552
19	0x00000004	6e-45
20	0xbd0f4a2c	-0.034982845
21	0x00000004	6e-45
22	0xbd567872	-0.05236096
23	0x00000004	6e-45
24	0xbca848e4	-0.02054257
25	0xbc4f4a44	-0.012651984
26	0x00000004	6e-45
27	0x3c0682f2	0.008209931
28	0x00000004	6e-45
29	0x00000004	6e-45
30	0x3dba743d	0.09104202
31	0x00000004	6e-45

exp_avg_sq f4 [32]
0	0x3dba16a9	0.09086353
1	0x3dc2ac24	0.095054895
2	0x000001f4	7e-43
3	0x000001f4	7e-43
4	0x3d804ea9	0.06265003
5	0x3ce5b6fb	0.028041353
6	0x3e55472b	0.2082793
7	0x3dc4800c	0.095947355
8	0x3e233162	0.15936807
9	0x3b8577d2	0.0040731216
10	0x000001f4	7e-43
11	0x3d1b344d	0.037891675
12	0x3aa33610	0.0012452025
13	0x3c475171	0.012165413
14	0x3b4a8eca	0.0030907863
15	0x3c496fb0	0.012294695
16	0x000001f4	7e-43
17	0x000001f4	7e-43
18	0x3b823394	0.0039734337
19	0x000001f4	7e-43
20	0x3e0b2d1b	0.13591425
21	0x000001f4	7e-43
22	0x3dfd06ce	0.123548135
23	0x000001f4	7e-43
24	0x3d095500	0.033528328
25	0x3b7914ad	0.0038006708
26	0x000001f4	7e-43
27	0x3d309f8c	0.043120906
28	0x000001f4	7e-43
29	0x000001f4	7e-43
30	0x3df14a52	0.117817536
31	0x000001f4	7e-43

exp_avg f4 [16, 32]
0	0xbb2aab6e	-0.0026042121
1	0x397d65be	0.00024165862
2	0x00000000	0.0
3	0x00000004	6e-45
4	0x3b79e9cb	0.0038133736
5	0x3a23d557	0.00062497467
6	0xbbcab744	-0.0061863977
7	0x3a6f2efe	0.0009124129
8	0x3ae64a4c	0.001756975
9	0x39b1a3aa	0.0003388201
10	0x00000004	6e-45
11	0xba0beadf	-0.0005337428
12	0x38e26d4e	0.00010796879
13	0x3919cb96	0.00014667059
14	0x3ad0ed83	0.0015939925
15	0x3ad51aca	0.0016258594
16	0x00000004	6e-45
17	0x80000004	-6e-45
18	0x3a072b1e	0.0005156266
19	0x80000004	-6e-45
20	0x3bd765d4	0.006573418
21	0x00000004	6e-45
22	0x3b66d413	0.003522162
23	0x80000004	-6e-45
24	0xbb15a4e1	-0.0022833871
25	0xbacc95d3	-0.0015608616
26	0x00000004	6e-45
27	0x3b1b5e24	0.0023707235
28	0x00000004	6e-45
29	0x80000004	-6e-45
30	0xbb9a99b9	-0.004718032
31	0x00000000	0.0
32	0xbb705c07	-0.0036675946
33	0xba9d1f79	-0.0011987529
34	0x80000004	-6e-45
35	0x00000004	6e-45
36	0x3b87b965	0.004141974
37	0xbaa1e842	-0.0012352543
38	0xbb966261	-0.0045893644
39	0xba53dfaa	-0.000808234
40	0x3a554acf	0.00081364525
41	0x39738deb	0.00023227154
42	0x00000004	6e-45
43	0xba07a5f5	-0.0005174571
44	0x3878b544	5.9296624e-05
45	0x364276ec	2.8977474e-06
46	0x3b7622a2	0.0037557264
47	0x3953ee5c	0.00020211324
48	0x80000004	-6e-45
49	0x80000004	-6e-45
50	0xba3459ab	-0.00068798166
51	0x80000004	-6e-45
52	0x3b99b17a	0.0046903463
53	0x00000004	6e-45
54	0x3b5c7d0d	0.0033643872
55	0x00000004	6e-45
56	0xb9fb77c9	-0.00047963698
57	0xbad5dd0d	-0.0016316489
58	0x00000004	6e-45
59	0x394038a4	0.00018331647
60	0x00000004	6e-45
61	0x80000004	-6e-45
62	0xbb8a7e8f	-0.0042265127
63	0x00000004	6e-45
64	0xba65d399	-0.0008767187
65	0x3abfd1e1	0.0014634692
66	0x00000000	0.0
67	0x80000004	-6e-45
68	0x3a58821f	0.00082591356
69	0x3a8b8633	0.0010644853
70	0x38c76d74	9.509447e-05
71	0x3c1e5b8c	0.009665381
72	0x3acb22dc	0.001549806
73	0x3940095f	0.00018314038
74	0x00000004	6e-45
75	0x398a466d	0.00026373882
76	0xb98e5fd8	-0.0002715576
77	0xb9bf1cdf	-0.0003645187
78	0xbb011639	-0.0019697084
79	0x3a548188	0.000810646
80	0x00000004	6e-45
81	0x80000004	-6e-45
82	0x3a149ff3	0.0005669586
83	0x80000004	-6e-45
84	0x3b4494ce	0.002999592
85	0x80000004	-6e-45
86	0xba9de1e4	-0.001204547
87	0x00000004	6e-45
88	0xba8fde87	-0.0010976352
89	0xb94972c0	-0.00019211601
90	0x00000004	6e-45
91	0x3b901fbc	0.0043983143
92	0x00000004	6e-45
93	0x00000004	6e-45
94	0xbb73e8fc	-0.0037217727
95	0x00000004	6e-45
96	0x3b3c004d	0.0028686703
97	0xbb47949d	-0.003045357
98	0x00000004	6e-45
99	0x80000004	-6e-45
100	0xb8cd74fe	-9.796953e-05
101	0x3a8c391e	0.0010698175
102	0x3c105254	0.008808691
103	0xba998bd1	-0.0011714642
104	0x3ad3e40c	0.0016165986
105	0x3a2acd51	0.000651558
106	0x00000004	6e-45
107	0x3bfdc4a8	0.0077443905
108	0xb9014703	-0.00012328853
109	0xb9b3e655	-0.0003431315
110	0xbadff1a2	-0.0017085562
111	0xb9c28956	-0.00037104887
112	0x00000004	6e-45
113	0x80000004	-6e-45
114	0x3a5427f1	0.000809311
115	0x80000004	-6e-45
116	0x397f9f29	0.00024377987
117	0x80000004	-6e-45
118	0x3bfe0936	0.007752563
119	0x00000004	6e-45
120	0xbad0b45d	-0.0015922893
121	0x3a9ecae3	0.0012114908
122	0x00000004	6e-45
123	0x3a82a160	0.0009966306
124	0x80000004	-6e-45
125	0x00000004	6e-45
126	0xbb0eebee	-0.0021808106
127	0x00000004	6e-45
128	0x3b28e8ac	0.002577345
129	0xbbd874a0	-0.0066056997
130	0x00000004	6e-45
131	0x80000004	-6e-45
132	0xbc281530	-0.010258958
133	0xbba96baa	-0.0051703053
134	0x3c01e912	0.007929103
135	0x37efe9b1	2.8599841e-05
136	0xbb567e1b	-0.0032728973
137	0xba24a0cd	-0.00062800647
138	0x00000000	0.0
139	0xbbf6217a	-0.007511315
140	0xb905ef33	-0.00012772977
141	0xb8a26497	-7.743498e-05
142	0xbb96f80d	-0.0046072067
143	0x394f17c1	0.00019749907
144	0x00000004	6e-45
145	0x00000004	6e-45
146	0xba77ebb4	-0.0009457425
147	0x80000004	-6e-45
148	0xbbb9c0e6	-0.0056687472
149	0x80000004	-6e-45
150	0xbbe0c813	-0.006859788
151	0x80000004	-6e-45
152	0xb9c060fa	-0.00036693347
153	0xbb48344c	-0.003054875
154	0x00000004	6e-45
155	0xbb99fbd4	-0.0046992097
156	0x00000000	0.0
157	0x00000004	6e-45
158	0xba07053d	-0.0005150622
159	0x00000000	0.0
160	0x3a8709ca	0.00103026
161	0x3b617871	0.0034404064
162	0x00000004	6e-45
163	0x80000004	-6e-45
164	0x3ad268db	0.0016052978
165	0x3a96a028	0.0011491822
166	0x3ac4ba1c	0.0015009078
167	0x3ad644a7	0.0016347364
168	0x3b02848c	0.001991543
169	0xb988ff99	-0.00026130377
170	0x80000004	-6e-45
171	0x3c938804	0.018009193
172	0xb97dae3c	-0.00024192868
173	0xb9ec271d	-0.0004504257
174	0x3b1dad89	0.0024059734
175	0xb8597eb9	-5.185485e-05
176	0x00000004	6e-45
177	0x80000004	-6e-45
178	0xb930823d	-0.00016833186
179	0x00000004	6e-45
180	0xbb8789d7	-0.004136305
181	0x80000004	-6e-45
182	0x3c6faa3a	0.0146279875
183	0x80000004	-6e-45
184	0x39fabf54	0.00047826266
185	0x3b2e194f	0.0026565378
186	0x80000004	-6e-45
187	0x3b2d01b2	0.0026398716
188	0x80000004	-6e-45
189	0x00000004	6e-45
190	0x3c2b4464	0.010453317
191	0x00000004	6e-45
192	0xb962e265	-0.00021637378
193	0xb88cf4ba	-6.721304e-05
194	0x80000004	-6e-45
195	0x00000004	6e-45
196	0xb8a86065	-8.028819e-05
197	0x36f47fd4	7.286648e-06
198	0xba351ab8	-0.00069085835
199	0xb72b0409	-1.0193334e-05
200	0xb934d67a	-0.00017246036
201	0x3549a289	7.5114855e-07
202	0x80000004	-6e-45
203	0xba2a78fe	-0.00065030146
204	0xb655a677	-3.1836369e-06
205	0x38bf640b	9.126224e-05
206	0xb808faae	-3.265839e-05
207	0xb34dbab8	-4.79001e-08
208	0x00000004	6e-45
209	0x80000004	-6e-45
210	0xb64538db	-2.9388382e-06
211	0x00000004	6e-45
212	0xba13893c	-0.00056280545
213	0x00000004	6e-45
214	0x3968d22d	0.0002220354
215	0x80000004	-6e-45
216	0xb90e8cb4	-0.00013594591
217	0xb9a0caae	-0.00030668586
218	0x80000004	-6e-45
219	0xb8b19ca2	-8.469193e-05
220	0x80000004	-6e-45
221	0x80000004	-6e-45
222	0x3966bfb0	0.00022005918
223	0x00000000	0.0
224	0x3bc718d9	0.00607596
225	0xbaf396d4	-0.0018584379
226	0x00000000	0.0
227	0x80000004	-6e-45
228	0x3c0a1201	0.008427144
229	0x3b817094	0.003950188
230	0x3c49cf83	0.012317541
231	0x3baec1d2	0.005333164
232	0x39ee349b	0.00045434092
233	0x39f68a13	0.0004702365
234	0x00000000	0.0
235	0x3c49b850	0.01231201
236	0xb51f54d0	-5.9355534e-07
237	0xb9809866	-0.00024527608
238	0x3bbca1c3	0.005756588
239	0xb9a4f4ce	-0.0003146291
240	0x00000004	6e-45
241	0x00000004	6e-45
242	0x3b23740a	0.002494099
243	0x80000004	-6e-45
244	0x36fa2fcd	7.4561453e-06
245	0x80000004	-6e-45
246	0x3c21ff7e	0.009887574
247	0x00000004	6e-45
248	0x3b9d712e	0.004804752
249	0x3b46b8fb	0.003032266
250	0x00000004	6e-45
251	0x3b59f7a0	0.0033259168
252	0x00000000	0.0
253	0x80000004	-6e-45
254	0x3b683e4d	0.0035437525
255	0x00000004	6e-45

exp_avg_sq f4 [16, 32]
0	0x39c1c419	0.00036957933
1	0x39f9c8c0	0.0004764255
2	0x00000000	0.0
3	0x000001f4	7e-43
4	0x3a547db1	0.00081058877
5	0x3976fb68	0.00023554044
6	0x3a2a075f	0.0006486084
7	0x3b08927d	0.0020839267
8	0x38a8ffb2	8.058491e-05
9	0x38da2ea7	0.0001040374
10	0x000001f4	7e-43
11	0x3aa3f4cc	0.0012508868
12	0x37113a13	8.656195e-06
13	0x355ca852	8.2201325e-07
14	0x3a019869	0.00049436704
15	0x398a9f4d	0.000264401
16	0x000001f4	7e-43
17	0x000001f4	7e-43
18	0x3623e1c7	2.4420312e-06
19	0x000001f4	7e-43
20	0x3a0c2f29	0.00053476036
21	0x000001f4	7e-43
22	0x3ae5659a	0.0017501593
23	0x000001f4	7e-43
24	0x398c4f29	0.0002676186
25	0x39993ce2	0.00029227795
26	0x000001f4	7e-43
27	0x3a14ef80	0.000568144
28	0x000001f4	7e-43
29	0x000001f4	7e-43
30	0x39da0161	0.00041581228
31	0x00000000	0.0
32	0x39142c24	0.00014130824
33	0x39d05637	0.00039737087
34	0x000001f4	7e-43
35	0x000001f4	7e-43
36	0x3aaca268	0.001317096
37	0x3ac8afef	0.0015311221
38	0x3a125d54	0.0005583365
39	0x3aa0ed13	0.0012277685
40	0x38ecf27a	0.00011298522
41	0x38801464	6.107314e-05
42	0x000001f4	7e-43
43	0x3a874ae3	0.0010322001
44	0x370b10a6	8.288922e-06
45	0x3450ae87	1.9435002e-07
46	0x39b24751	0.0003400394
47	0x38f6f3a7	0.00011775578
48	0x000001f4	7e-43
49	0x000001f4	7e-43
50	0x389e3f31	7.5457974e-05
51	0x000001f4	7e-43
52	0x392a75d4	0.00016256358
53	0x000001f4	7e-43
54	0x3a9d84f6	0.0012017775
55	0x000001f4	7e-43
56	0x39fc8827	0.00048166627
57	0x3964c5dd	0.00021817484
58	0x000001f4	7e-43
59	0x39edb178	0.00045336387
60	0x000001f4	7e-43
61	0x000001f4	7e-43
62	0x39cfb10e	0.00039614033
63	0x000001f4	7e-43
64	0x395ad5ea	0.0002086979
65	0x3aea203d	0.0017862391
66	0x00000000	0.0
67	0x000001f4	7e-43
68	0x3ae84f93	0.001772391
69	0x3b246f32	0.0025090692
70	0x3b188f78	0.0023278873
71	0x3b4b2e0c	0.0031002788
72	0x39035ff9	0.00012528886
73	0x39e0650c	0.00042799895
74	0x000001f4	7e-43
75	0x3a27de92	0.000640371
76	0x3798d7dc	1.822033e-05
77	0x37a91b10	2.0158972e-05
78	0x3a07f828	0.00051868195
79	0x39b17d78	0.00033853552
80	0x000001f4	7e-43
81	0x000001f4	7e-43
82	0x390c017e	0.00013351996
83	0x000001f4	7e-43
84	0x3a87b5db	0.001035388
85	0x000001f4	7e-43
86	0x3aad21f2	0.0013208969
87	0x000001f4	7e-43
88	0x39be965d	0.00036351653
89	0x39d32631	0.0004027351
90	0x000001f4	7e-43
91	0x3a287c5d	0.0006427223
92	0x000001f4	7e-43
93	0x000001f4	7e-43
94	0x3a40803f	0.0007343329
95	0x000001f4	7e-43
96	0x39b21032	0.00033962872
97	0x3ae757d2	0.0017650074
98	0x000001f4	7e-43
99	0x000001f4	7e-43
100	0x3a26bf31	0.0006360887
101	0x3ad276ad	0.0016057097
102	0x3b18af24	0.0023297751
103	0x3b243e80	0.0025061667
104	0x38d74659	0.00010265102
105	0x392fc0fe	0.00016761196
106	0x000001f4	7e-43
107	0x3b3be152	0.0028668237
108	0x383d65d6	4.5155954e-05
109	0x371d5ad8	9.37908e-06
110	0x39a85029	0.0003210318
111	0x39973c3f	0.0002884585
112	0x000001f4	7e-43
113	0x000001f4	7e-43
114	0x389f7084	7.6026685e-05
115	0x000001f4	7e-43
116	0x38d61e11	0.000102099155
117	0x000001f4	7e-43
118	0x3b7efe34	0.003890884
119	0x000001f4	7e-43
120	0x391e7254	0.00015110645
121	0x398a7fd5	0.00026416653
122	0x000001f4	7e-43
123	0x3a0af065	0.0005300104
124	0x000001f4	7e-43
125	0x000001f4	7e-43
126	0x3ab11e10	0.0013512988
127	0x000001f4	7e-43
128	0x3809777c	3.2774624e-05
129	0x3a192759	0.000584235
130	0x000001f4	7e-43
131	0x000001f4	7e-43
132	0x3ade36cf	0.001695359
133	0x3aab0eb1	0.0013050643
134	0x3a8da1ba	0.0010805645
135	0x3a80adc8	0.0009817416
136	0x3917cd9c	0.00014477078
137	0x39026f77	0.0001243929
138	0x00000000	0.0
139	0x3a6d5d42	0.0009054729
140	0x36a134e3	4.8043307e-06
141	0x35eb3527	1.7524334e-06
142	0x3a073c09	0.0005158787
143	0x38c3e281	9.340514e-05
144	0x000001f4	7e-43
145	0x000001f4	7e-43
146	0x385fb082	5.333173e-05
147	0x000001f4	7e-43
148	0x39b11a3f	0.00033779626
149	0x000001f4	7e-43
150	0x3a979af0	0.0011566561
151	0x000001f4	7e-43
152	0x39c8b359	0.00038280597
153	0x3984f81b	0.00025361855
154	0x000001f4	7e-43
155	0x39e0bd71	0.00042865754
156	0x00000000	0.0
157	0x000001f4	7e-43
158	0x39ce9dce	0.00039408955
159	0x00000000	0.0
160	0x3a968c96	0.001148599
161	0x3a4726d5	0.0007597034
162	0x000001f4	7e-43
163	0x000001f4	7e-43
164	0x3a997b90	0.0011709798
165	0x39f0bc41	0.00045916627
166	0x3a4f688f	0.0007912004
167	0x3aacd7f8	0.0013186922
168	0x399c462a	0.00029806915
169	0x38e3e987	0.00010867701
170	0x000001f4	7e-43
171	0x3b04ff35	0.0020293717
172	0x380c4997	3.3447137e-05
173	0x38aae06b	8.148033e-05
174	0x3a29879e	0.0006467047
175	0x37d4e5ac	2.5379319e-05
176	0x000001f4	7e-43
177	0x000001f4	7e-43
178	0x3781f239	1.5490792e-05
179	0x000001f4	7e-43
180	0x3ab8bd77	0.0014094551
181	0x000001f4	7e-43
182	0x3ae735b0	0.0017639901
183	0x000001f4	7e-43
184	0x3a432a78	0.0007444988
185	0x3a4a3958	0.00077142334
186	0x000001f4	7e-43
187	0x3a7ff443	0.0009763876
188	0x000001f4	7e-43
189	0x000001f4	7e-43
190	0x3a44e857	0.0007511428
191	0x000001f4	7e-43
192	0x38d2b468	0.000100471836
193	0x3913e56d	0.0001410448
194	0x000001f4	7e-43
195	0x000001f4	7e-43
196	0x38275375	3.9893628e-05
197	0x3736cb36	1.0895359e-05
198	0x39126d2f	0.00013964319
199	0x38896ecc	6.5533066e-05
200	0x385543b3	5.0846207e-05
201	0x380246bc	3.106029e-05
202	0x000001f4	7e-43
203	0x38f05e1d	0.00011461622
204	0x360a6dbd	2.0627479e-06
205	0x370c662a	8.368437e-06
206	0x37ca3ae6	2.4107703e-05
207	0x36919b2e	4.339402e-06
208	0x000001f4	7e-43
209	0x000001f4	7e-43
210	0x358e425b	1.0599136e-06
211	0x000001f4	7e-43
212	0x3922fb28	0.00015543087
213	0x000001f4	7e-43
214	0x38a70ff3	7.966151e-05
215	0x000001f4	7e-43
216	0x392e3ebd	0.00016617305
217	0x3879b325	5.9533068e-05
218	0x000001f4	7e-43
219	0x37ed03b1	2.825432e-05
220	0x000001f4	7e-43
221	0x000001f4	7e-43
222	0x38db665c	0.000104618
223	0x00000000	0.0
224	0x3a57c35d	0.00082307105
225	0x3a7af9e1	0.0009573978
226	0x00000000	0.0
227	0x000001f4	7e-43
228	0x3b1d890f	0.0024037992
229	0x3b9975ea	0.004683246
230	0x3b46f7d0	0.003036011
231	0x3b61c4f8	0.0034449678
232	0x39065462	0.00012810671
233	0x39a0c9c2	0.000306679
234	0x00000000	0.0
235	0x3b04f75f	0.0020289046
236	0x388a4ac1	6.594277e-05
237	0x37fff645	3.0513047e-05
238	0x39d7faeb	0.00041194944
239	0x39ad6c92	0.00033078023
240	0x000001f4	7e-43
241	0x000001f4	7e-43
242	0x395e4cf5	0.00021200239
243	0x000001f4	7e-43
244	0x37b1f82d	2.121561e-05
245	0x000001f4	7e-43
246	0x3b3ebcfd	0.0029104345
247	0x000001f4	7e-43
248	0x3a90b7b1	0.0011041072
249	0x392993f9	0.0001617222
250	0x000001f4	7e-43
251	0x3a4fb08d	0.00079227315
252	0x00000000	0.0
253	0x000001f4	7e-43
254	0x3b0be047	0.0021343397
255	0x000001f4	7e-43

exp_avg f4 [16]
0	0xbc2f839b	-0.0107125295
1	0xbc3597ce	-0.011083556
2	0x3bfdccc1	0.007745356
3	0x3c412c65	0.01179037
4	0xbb590f08	-0.0033120532
5	0x3d0ce032	0.034393497
6	0xbbbd5e26	-0.0057790456
7	0x3cf6d94a	0.030132908
8	0xbbe71281	-0.0070517664
9	0x00000004	6e-45
10	0x00000004	6e-45
11	0xbd28fb25	-0.041255135
12	0xbc0bd87e	-0.0085355025
13	0xbb9f4cff	-0.0048614736
14	0xbc4ac492	-0.012375968
15	0x3c642e35	0.013927032

exp_avg_sq f4 [16]
0	0x3c0fad0d	0.008769286
1	0x3c131573	0.008977282
2	0x3cd51af0	0.026013821
3	0x3ce8d707	0.028422846
4	0x3c2dcb2c	0.010607522
5	0x3cb7bae4	0.022427984
6	0x3c2fef0e	0.010738147
7	0x3cd110fb	0.025520792
8	0x3b6c7f61	0.0036086666
9	0x000001f4	7e-43
10	0x000001f4	7e-43
11	0x3cf29d04	0.029615887
12	0x3c8204ac	0.015871368
13	0x3ca4d880	0.020122766
14	0x3c07fbce	0.008299781
15	0x3be839a8	0.0070869513

exp_avg f4 [3, 16]
0	0xbaf830a0	-0.001893539
1	0xb9259630	-0.00015791575
2	0x39370335	0.00017453435
3	0xb81e0122	-3.767119e-05
4	0x39d35c0e	0.00040313642
5	0xba6509c5	-0.00087371125
6	0x37a7cb31	2.000257e-05
7	0xba980784	-0.001159892
8	0x3b30386c	0.0026889099
9	0x80000004	-6e-45
10	0x00000004	6e-45
11	0xb9412718	-0.00018420478
12	0x3b438cd5	0.002983858
13	0x3a1878df	0.0005816351
14	0xb9e90ad9	-0.00044449305
15	0xb9df4eb9	-0.00042592527
16	0x3a42b7a1	0.00074278755
17	0x39ee4039	0.00045442747
18	0x39b7b970	0.00035042642
19	0x389ae383	7.3856696e-05
20	0x3aa530bd	0.0012603026
21	0xba257b89	-0.00063126587
22	0xb98c2f9b	-0.0002673835
23	0x3abea660	0.0014545433
24	0xb9b5daa5	-0.00034685913
25	0x00000004	6e-45
26	0x00000004	6e-45
27	0x39e28359	0.0004320394
28	0x3a1a53b4	0.00058871065
29	0x39eb2d5f	0.00044856497
30	0x3a14c4e9	0.0005675094
31	0x3a1dcd87	0.00060197007
32	0x3a96d4e0	0.0011507533
33	0xb99b74bc	-0.00029650878
34	0xba099d74	-0.00052495976
35	0xb817c4b7	-3.618441e-05
36	0xbada07b4	-0.0016634376
37	0x3ac542b3	0.0015049785
38	0x3981b350	0.00024738396
39	0xb99a7b5b	-0.00029465076
40	0xbb197d16	-0.0023420504
41	0x00000004	6e-45
42	0x80000004	-6e-45
43	0xb981ef89	-0.00024783265
44	0xbb6a21b6	-0.003572566
45	0xba8707b9	-0.0010301984
46	0xb900fd01	-0.00012301283
47	0xb9389849	-0.00017604338

exp_avg_sq f4 [3, 16]
0	0x3989ef84	0.0002630913
1	0x38e1bb9d	0.00010763782
2	0x37ccce1e	2.4414676e-05
3	0x37823b49	1.5524814e-05
4	0x3805f3a9	3.1936597e-05
5	0x373ac0fd	1.11313975e-05
6	0x35d03d5b	1.5515064e-06
7	0x385efc8e	5.3164134e-05
8	0x38c17965	9.225569e-05
9	0x000001f4	7e-43
10	0x000001f4	7e-43
11	0x38817f75	6.17494e-05
12	0x3a101176	0.0005495766
13	0x384a8176	4.8281123e-05
14	0x392f67f5	0.00016728028
15	0x38751d34	5.843975e-05
16	0x3866d185	5.5031403e-05
17	0x373d23d7	1.12736225e-05
18	0x37557c98	1.2724799e-05
19	0x372ea7e1	1.04102955e-05
20	0x37f83b36	2.9591476e-05
21	0x382fdb9f	4.192779e-05
22	0x36d00dac	6.2004747e-06
23	0x385577bf	5.089468e-05
24	0x3891a528	6.9449015e-05
25	0x000001f4	7e-43
26	0x000001f4	7e-43
27	0x37fd970c	3.0230287e-05
28	0x381a395c	3.676988e-05
29	0x37252cf8	9.8452365e-06
30	0x374f8489	1.236902e-05
31	0x38c20246	9.251064e-05
32	0x39905a03	0.00027532884
33	0x38d5f801	0.00010202826
34	0x38179833	3.6142952e-05
35	0x37daf588	2.610196e-05
36	0x386c6281	5.6358524e-05
37	0x383686de	4.3517786e-05
38	0x36a811c2	5.0088574e-06
39	0x38d105b5	9.9669596e-05
40	0x3922e66c	0.00015535363
41	0x000001f4	7e-43
42	0x000001f4	7e-43
43	0x384e7287	4.922089e-05
44	0x3a132eb2	0.0005614563
45	0x38320ff2	4.2453357e-05
46	0x392be03a	0.00016391362
47	0x38fc8f34	0.0001204297

exp_avg f4 [3]
0	0xbafa600b	-0.0019102109
1	0x3b40a0ab	0.002939264
2	0xba86e103	-0.0010290447

exp_avg_sq f4 [3]
0	0x3aed8146	0.0018120192
1	0x3a47579d	0.0007604303
2	0x3b0990d2	0.002099086

loss f8 []
0	0x3f92304532233333	0.017762261567258974
