16_point_edge_detector.pth (torch, 25342 bytes, 19 tensors)

model.0.weight f4 [32, 25]
0	0x3e0fc3e1	0.14039566
1	0x3e7ac782	0.24490169
2	0x3cbf6855	0.02336518
3	0x3dc0b116	0.094087765
4	0x3e62b99e	0.2214112
5	0x3e9cfbe9	0.30660942
6	0xbd3c0175	-0.045899827
7	0xbdbee627	-0.09321242
8	0xbd5cce73	-0.053907823
9	0x3ea2abd9	0.31771734
10	0xbd58c3dc	-0.05292116
11	0xbf19fa9e	-0.60148036
12	0xbf6c3f2e	-0.92283905
13	0xbf1a55f1	-0.60287386
14	0xbd6a25ed	-0.057165075
15	0x3eedd9eb	0.4645532
16	0xbd38fc0a	-0.04516224
17	0xbcc4b71b	-0.024013093
18	0xbd538dcb	-0.051648896
19	0x3f028d46	0.50996816
20	0x3cec69a8	0.028858975
21	0x3ca8e3b5	0.020616392
22	0x3e34317b	0.17597
23	0x3d566b32	0.052348323
24	0xbd316cbf	-0.0433166
25	0xbdcb8c85	-0.09938911
26	0xbd1c3661	-0.038137797
27	0xbe184bfa	-0.14872733
28	0x3e572104	0.21008688
29	0x3da4a69a	0.08039589
30	0xbec51ca2	-0.38498408
31	0xbf01629d	-0.50541097
32	0xbe19f311	-0.15034129
33	0x3f0f6f1a	0.560289
34	0x3ecba350	0.39773035
35	0xbe4f12c9	-0.2022201
36	0xbe0e34c6	-0.13887319
37	0x3db32c28	0.087486565
38	0x3e0ba3f2	0.13636759
39	0x3df891ca	0.12137182
40	0x3d997b44	0.07494214
41	0x3f0e5701	0.5560151
42	0xbc0a842d	-0.008454365
43	0xbf1e1b05	-0.6175998
44	0xbf0bae3e	-0.5456275
45	0x3e3900be	0.1806669
46	0x3eccc362	0.39992815
47	0x3df9612e	0.12176739
48	0xbe37f73e	-0.17965409
49	0xbd60ed6a	-0.054913916
50	0xba80ac8b	-0.0009817047
51	0xba4b0679	-0.00077448
52	0xb9bedeb5	-0.00036405554
53	0x39dfc5f3	0.00042681358
54	0xba70ec88	-0.00091905193
55	0x398099c2	0.0002452862
56	0x38aba892	8.185314e-05
57	0x3a508070	0.0007953709
58	0x39d135b1	0.0003990359
59	0xba498420	-0.00076872297
60	0xba8ee069	-0.001090062
61	0x38355931	4.323683e-05
62	0xb881a98d	-6.1827806e-05
63	0x39c08301	0.000367187
64	0x39c6ca01	0.00037916008
65	0xba88d995	-0.0010440821
66	0xba5c5ced	-0.0008406181
67	0x3a280de0	0.0006410759
68	0xb9291278	-0.00016123976
69	0x3827109c	3.983137e-05
70	0x3a0633e4	0.00051194266
71	0xb928d888	-0.00016102393
72	0xba4422b9	-0.0007481981
73	0xba1886b4	-0.0005818412
74	0xb9ce202e	-0.00039315358
75	0xbb456833	-0.0030121922
76	0xbb02da9c	-0.0019966727
77	0xbb0c21a8	-0.0021382365
78	0xba4828b2	-0.00076354586
79	0xba0390b3	-0.0005018815
80	0xbacfdce8	-0.0015858682
81	0xbb5378d9	-0.0032268076
82	0xbb0a4601	-0.0021098854
83	0xb992ae9a	-0.00027977378
84	0x3a841da9	0.001007964
85	0x3a95630f	0.001139732
86	0x39bb561f	0.00035731585
87	0xbacec34b	-0.0015774755
88	0xbae5b888	-0.0017526308
89	0xb8c194fc	-9.230708e-05
90	0x3a3257ba	0.00068032334
91	0xba828e30	-0.0009960588
92	0xbb4b6eaf	-0.0031041314
93	0xba7ab5fa	-0.000956386
94	0xba6d6974	-0.0009056546
95	0xb90fa524	-0.00013699062
96	0xbaaa831f	-0.0013009048
97	0xba853a7c	-0.0010164524
98	0xb9b7a1c3	-0.00035025002
99	0xba3f71b2	-0.00073030137
100	0x3db75bea	0.08953078
101	0xbe59f33e	-0.21284196
102	0xbe10aec3	-0.14129166
103	0x3c7df33b	0.015499885
104	0xbd35c0ed	-0.04437344
105	0x3e58cbb6	0.2117146
106	0xbf0881e7	-0.53323215
107	0xbf36670a	-0.71250975
108	0xbc44f0ac	-0.012020271
109	0x3e211f8b	0.15734689
110	0xbd6e5c39	-0.05819342
111	0xbddf4c52	-0.10903229
112	0xbeab6656	-0.33476514
113	0x3ef72fbe	0.48278612
114	0x3c958f5f	0.018256841
115	0xbd904885	-0.07045082
116	0x3d6297a1	0.055320386
117	0x3f180869	0.5938783
118	0x3f15af62	0.5847074
119	0xbe240317	-0.16016804
120	0xbd944ad0	-0.07240832
121	0xbd07fae8	-0.033198267
122	0x3dca0ebd	0.09866092
123	0x3df1e6d5	0.11811606
124	0xbd2811d7	-0.04103264
125	0x3d89b9d1	0.06724895
126	0xbcda6833	-0.026661014
127	0xbd3dfd42	-0.046384104
128	0xbe75c0ab	-0.23999278
129	0x3d53dbfd	0.05172347
130	0xbe23425c	-0.15943283
131	0xbeecc730	-0.46245718
132	0xbf691794	-0.910516
133	0xbf1d05dc	-0.61337066
134	0xbe319a61	-0.17344047
135	0x3c724dce	0.014789058
136	0x3e74b3f3	0.2389677
137	0x3f16c734	0.5889771
138	0x3e5f84b7	0.2182797
139	0x3e52d80f	0.20590232
140	0xbc1b080c	-0.009462368
141	0x3e837ef2	0.2568279
142	0x3f15ad62	0.58467686
143	0x3e8d7840	0.27630806
144	0x3c44ac25	0.012003933
145	0xbd417aa9	-0.04723612
146	0x3d76aeb8	0.06022522
147	0xbcd67d32	-0.026182745
148	0xbd2a1ea0	-0.041533113
149	0x3de4b708	0.11167723
150	0x3d926960	0.07149005
151	0x3e7c1ecc	0.24621123
152	0xb8f0300d	-0.00011453042
153	0xbeeed849	-0.46649387
154	0xbe96daf7	-0.29463932
155	0x3edcf521	0.4315577
156	0x3efebfcd	0.49755707
157	0xbce5d462	-0.028055374
158	0xbf08a5ac	-0.53377795
159	0xbddaab57	-0.10677212
160	0x3e0d27f0	0.13784766
161	0xbe4e5fcc	-0.20153731
162	0x3c1848cc	0.0092947
163	0x3e27f53b	0.16402142
164	0x3e4f2d2b	0.20232074
165	0xbdbc170b	-0.091840826
166	0xbee9b7b5	-0.4564797
167	0xbe84eb82	-0.25960928
168	0x3eee8114	0.46582854
169	0x3f0b4b6a	0.5441195
170	0xbe0dbaed	-0.13840838
171	0xbee3e002	-0.44506842
172	0xbda13ce4	-0.07872942
173	0x3d851f9b	0.06500169
174	0x3e2804db	0.16408102
175	0x3d4f12bb	0.050554972
176	0xbd940957	-0.07228344
177	0xbca86722	-0.02055699
178	0x3db744a0	0.08948636
179	0xbcb0e5a9	-0.021593885
180	0xbdab5a56	-0.083668396
181	0x3d6956d4	0.05696757
182	0x3eee45d7	0.4653766
183	0x3f1f8e61	0.6232663
184	0x3c82ac49	0.015951293
185	0xbcb62848	-0.022236004
186	0xbde8dbe9	-0.113700695
187	0xbdb3fc18	-0.087883174
188	0x3f1240f0	0.57130337
189	0x3e3944d1	0.18092658
190	0xbb90b10d	-0.0044156373
191	0xbf33d8e0	-0.702528
192	0xbf3555fd	-0.7083433
193	0xbd84dd8d	-0.0648757
194	0x3dbf69d3	0.09346356
195	0x3cbc650d	0.022997404
196	0xbd04fa73	-0.03246541
197	0xbe240115	-0.16016038
198	0xbdb36e3a	-0.087612584
199	0xbd0d1600	-0.03444481
200	0xbd79378b	-0.060843986
201	0xbea44359	-0.32082632
202	0x3c75e60c	0.015008461
203	0xbe90760f	-0.28215072
204	0xbe77264c	-0.24135703
205	0xbdecfdf7	-0.115718774
206	0x3d9a289d	0.075272776
207	0x3f106406	0.56402624
208	0x3e9eeef2	0.31041676
209	0xbe20c1a2	-0.15698865
210	0xbe6faa37	-0.23404776
211	0x3cecf6a7	0.028926207
212	0x3f15f52f	0.58577245
213	0xbcedabb6	-0.029012542
214	0xbdc58e62	-0.09646298
215	0xbd773586	-0.06035378
216	0x3e6d0341	0.23145773
217	0x3f15d3ca	0.5852629
218	0x3ee8ded6	0.4548251
219	0xbd582a82	-0.052774914
220	0xbe3bbfa0	-0.18334818
221	0xbe914ad0	-0.2837739
222	0xbe467e10	-0.19384027
223	0xbece2529	-0.40262726
224	0xbe31d9cd	-0.1736824
225	0x3d682d94	0.05668409
226	0x3de61517	0.11234491
227	0x3e481f3a	0.19543162
228	0x3e9c10c3	0.30481538
229	0xbe796beb	-0.24357574
230	0xbdb1ca9e	-0.08681224
231	0x3e922c4f	0.2854943
232	0x3da440f2	0.080202
233	0xbf044e2d	-0.51681787
234	0xbefe0713	-0.49614772
235	0xbc95672a	-0.018237669
236	0xbe0a8a2d	-0.13529272
237	0x3eb7373d	0.3578433
238	0xbd8cfd71	-0.068842776
239	0x3e960090	0.29297304
240	0xbf2e73d0	-0.68145466
241	0xbe33b0a9	-0.17547859
242	0xbd372d3c	-0.044720873
243	0x3eb44569	0.35209206
244	0x3e8db3a4	0.27676117
245	0xbddcf0b2	-0.107880965
246	0x3e5c5af6	0.21519074
247	0x3c206620	0.0097899735
248	0xbe0d2cda	-0.13786641
249	0xbe0702de	-0.13184687
250	0xba7e8296	-0.000970879
251	0xba5b0393	-0.00083547196
252	0x3a46f089	0.0007588943
253	0xba7ae29c	-0.00095705106
254	0xba354ff2	-0.0006916515
255	0xb94ccdda	-0.00019531642

model.0.bias f4 [32]
0	0x3c843b19	0.016141461
1	0x3b2613b4	0.0025341334
2	0xba9ce4cc	-0.0011970042
3	0xbb02399e	-0.0019870768
4	0xbb42bb45	-0.0029713672
5	0xbd62de88	-0.055388004
6	0x3c125b66	0.008932924
7	0x3c13406f	0.00898753
8	0xbb8e3db8	-0.0043408535
9	0xbd34547a	-0.044025876
10	0xba49cb62	-0.0007697848
11	0xbd883404	-0.06650546
12	0x3b298686	0.0025867536
13	0x3d7380a5	0.059448857
14	0x3dafc776	0.08582966
15	0xbd58d00a	-0.052932777
16	0xbab53028	-0.0013823556
17	0xbb59231c	-0.00331325
18	0xbd83875e	-0.064223036
19	0xbb6a7de0	-0.0035780594
20	0x3dadd76b	0.08488353
21	0xbb50fe63	-0.0031889908
22	0xbc4c224a	-0.012459347
23	0xba6bd471	-0.0008996195
24	0xbd50dd6c	-0.050992414
25	0x3de931c3	0.113864444
26	0xba82982c	-0.0009963564
27	0xbc971ade	-0.018445428
28	0xbae88c16	-0.0017741944
29	0xba8b984c	-0.0010650246
30	0xbd1a2469	-0.03763238
31	0xbabc6ed7	-0.0014376295

model.2.weight f4 [16, 32]
0	0x3eec2542	0.46122175
1	0x3ebff59f	0.37492082
2	0x372bcb82	1.0239777e-05
3	0xba960eee	-0.0011448541
4	0x3ea5b6e5	0.323661
5	0xbfb58e3c	-1.4184031
6	0x3df64ae1	0.12026001
7	0x3e91532c	0.28383768
8	0xbe9d32bf	-0.3070278
9	0xbea5e011	-0.32397512
10	0x3a6dbd99	0.0009069085
11	0xbebc3b1f	-0.36763856
12	0xbeea6404	-0.4577943
13	0xc02b9785	-2.681123
14	0x3eefbcb5	0.4682366
15	0x3dd2386a	0.102646664
16	0x39c9698b	0.00038416343
17	0x3a3b1c15	0.00071376684
18	0xbf766e6a	-0.9626223
19	0x3b0abd56	0.0021169982
20	0xbeb2d9c9	-0.34931782
21	0x3b5844d4	0.003300001
22	0x3f3ec8b1	0.7452498
23	0xbafef8c8	-0.0019452805
24	0x3f53a67d	0.82675916
25	0x3e66bf48	0.22533906
26	0xb9f6fbf4	-0.00047108496
27	0xbed98aa8	-0.424886
28	0xba57af04	-0.00082276785
29	0xb9d27577	-0.0004014184
30	0xbd9df1ff	-0.07712173
31	0xba22576f	-0.0006192838
32	0xbe919559	-0.28434256
33	0xbe2bbfc6	-0.16772375
34	0x395f43fc	0.00021292263
35	0xba1c4d93	-0.0005962487
36	0x3e9eb7d1	0.30999616
37	0x3eecab5b	0.46224484
38	0xbf343587	-0.70394176
39	0x3ea85d4c	0.3288368
40	0xbe8d11be	-0.275526
41	0x3d309a29	0.04311577
42	0xbaa43497	-0.001252788
43	0x3e38a112	0.18030193
44	0x3e1c272d	0.1524932
45	0xbfee45d4	-1.861506
46	0x3e0c10a4	0.13678223
47	0xbdafa1ae	-0.0857576
48	0x39b46e06	0.0003441425
49	0xba022832	-0.0004965096
50	0x3d92d25e	0.071690306
51	0xbaa50690	-0.0012590457
52	0xbfb54c4b	-1.4163908
53	0x399c78a1	0.00029844514
54	0x3e4e7176	0.2016047
55	0xb78ed792	-1.7028102e-05
56	0xbef20894	-0.4727217
57	0x3e63ac77	0.22233759
58	0x3b2fefbd	0.0026845776
59	0x3c478a53	0.012178975
60	0xba15e0da	-0.00057174044
61	0xba2386c7	-0.000623804
62	0xbf2f3620	-0.68441963
63	0xbaae58e6	-0.001330164
64	0xbf99fafa	-1.2029717
65	0x3f73af77	0.95189613
66	0xb9c77711	-0.0003804495
67	0xbb2274a7	-0.0024788768
68	0xbeff0e30	-0.49815512
69	0xbe15e0dd	-0.1463656
70	0x3ef840c3	0.4848691
71	0xbedb3cd1	-0.42819837
72	0xbf852915	-1.0403162
73	0x3eed203a	0.4631365
74	0x39c377fd	0.00037282697
75	0xbee67c59	-0.45016745
76	0x3e2b232f	0.1671264
77	0x3f1f2e52	0.62180054
78	0x3cb73a9d	0.022366816
79	0xbdc29caf	-0.09502541
80	0xba5ac898	-0.0008345931
81	0xba14365c	-0.0005653852
82	0x3e3fa42b	0.18714969
83	0xbac24636	-0.001482195
84	0x3e317d5d	0.17332979
85	0xba13364a	-0.00056156947
86	0xbe1b7b34	-0.15183717
87	0xba984dd7	-0.0011619878
88	0xbebcf379	-0.36904505
89	0x3e81605b	0.25268826
90	0x3b2b43fd	0.0026133053
91	0xbea9febf	-0.33202168
92	0xba9e1378	-0.0012060245
93	0xbabb0cf4	-0.0014270828
94	0x3c9e926d	0.01935693
95	0xba121191	-0.00055720756
96	0xbf8ab46e	-1.0836313
97	0x3f71ea54	0.9449818
98	0xba6f2264	-0.0009122251
99	0xb9daca75	-0.00041731042
100	0xbf426d50	-0.7594805
101	0xbe801a88	-0.25020242
102	0x3f3ebba5	0.7450507
103	0xbf0248b0	-0.5089216
104	0xbf9cbb6c	-1.2244697
105	0xbc81fcd1	-0.015867623
106	0x39d8c7c9	0.00041347582
107	0xbe459e6f	-0.19298719
108	0x3ecc1c2b	0.3986524
109	0xbe86a11a	-0.26294786
110	0x3e88f087	0.26746008
111	0xbe8ad0d5	-0.2711245
112	0x39cde20f	0.00039269074
113	0x3adab00e	0.0016684548
114	0xbe426e9b	-0.18987505
115	0x399dd915	0.00030107112
116	0xbf86ffe4	-1.0546842
117	0xbb490e2c	-0.0030678613
118	0xbd824ae7	-0.06361943
119	0xb91e591e	-0.00015101253
120	0xbf158a67	-0.5841431
121	0xbdec7524	-0.1154578
122	0x3b1deea2	0.0024098535
123	0xbd6580fa	-0.056031205
124	0xb8adf12d	-8.294205e-05
125	0x39fa6248	0.0004775694
126	0x3d96bb79	0.07359976
127	0xba247fcb	-0.0006275146
128	0xbfed76fb	-1.8551935
129	0x3efe53b4	0.49673235
130	0x398f6c84	0.00027355936
131	0xba701562	-0.000915846
132	0xbc85ead7	-0.016347332
133	0xbedadfef	-0.42748973
134	0x3f428b34	0.7599366
135	0xbf0dbf87	-0.5537037
136	0x3e1fd4ec	0.15608567
137	0x3e01e029	0.12683167
138	0x398ddf9d	0.0002706022
139	0x3dd700d6	0.10498206
140	0xbe235177	-0.15949045
141	0x3fb8ffb0	1.445303
142	0x3e8d2793	0.27569255
143	0xbebca3af	-0.3684363
144	0xba0f8608	-0.00054749893
145	0x3a86e02d	0.0010290198
146	0xbf0d4d03	-0.55195636
147	0x3b34d939	0.0027595295
148	0x3e5727af	0.21011232
149	0xbad27b8b	-0.0016058547
150	0xbeb6522d	-0.3560957
151	0x39233dff	0.00015567987
152	0x3dac577e	0.08415125
153	0x3e6d038e	0.23145887
154	0xb957f026	-0.0002059346
155	0x3e88b8ab	0.2670339
156	0x3a21cc72	0.00061721273
157	0xb89e2819	-7.541496e-05
158	0x3e9a4dd7	0.30137512
159	0xb8f700dc	-0.00011778038
160	0x3f4e9903	0.8070223
161	0xbf165a29	-0.58731323
162	0x3a0da943	0.0005403945
163	0xba1a41e1	-0.00058844505
164	0xbf188039	-0.5957065
165	0xbf47ceee	-0.78050125
166	0xbeb729d5	-0.35774103
167	0xbf58cce9	-0.8468767
168	0x3f41a292	0.7563869
169	0xbe6b00d7	-0.22949539
170	0xb9740e00	-0.00023274869
171	0x3f0b0018	0.5429702
172	0x3ee3e940	0.44513893
173	0xbe9ea864	-0.30987847
174	0x3e550583	0.20802884
175	0xbf1923ca	-0.59820235
176	0x38d8416a	0.00010311867
177	0xba34e2b1	-0.0006900235
178	0xbed15e89	-0.40892437
179	0xbb7177bb	-0.0036845047
180	0x3eca65e6	0.39530867
181	0xbb903d59	-0.0044018445
182	0xbf977a1b	-1.1834139
183	0xba8d819b	-0.0010796072
184	0x3f1d6b73	0.6149208
185	0x3ebc1d84	0.3674127
186	0xbadd0962	-0.0016863758
187	0x3f2f27de	0.6842021
188	0x396caa6a	0.00022570198
189	0xb9918494	-0.00027755334
190	0x3e49b804	0.19699103
191	0x39ac5c16	0.00032875006
192	0xbf01dcb7	-0.5072741
193	0xbf78f039	-0.9724155
194	0x38443c4b	4.6786194e-05
195	0xba516dd9	-0.0007989086
196	0xbfb7f5f4	-1.4371934
197	0xbfd03210	-1.6265278
198	0xbf9c9eeb	-1.2235998
199	0xc0064bdc	-2.09838
200	0xbea84cf4	-0.3287121
201	0xbc7255f3	-0.014791
202	0xb8ff12db	-0.0001216286
203	0xbf561757	-0.83629364
204	0x3f1fd451	0.62433344
205	0x3e5ed6a3	0.21761565
206	0x3e25d863	0.16195826
207	0xbb9e00ae	-0.0048218584
208	0x3a4b88b8	0.0007764208
209	0x3abc3aba	0.0014360764
210	0x3f48cf1e	0.78441036
211	0xb9a960d7	-0.00032306343
212	0xbf2b716a	-0.6696993
213	0xbb9681f6	-0.0045931293
214	0xbfd5f12b	-1.6714224
215	0xb9fca5d6	-0.00048188743
216	0xbe0d8b5d	-0.13822694
217	0x3df1192e	0.11772381
218	0x3b0274a7	0.0019905956
219	0xbec4bee3	-0.38426885
220	0x3a1344f7	0.00056178815
221	0xba231ac8	-0.0006221947
222	0xbf349ca4	-0.70551515
223	0xb9a96677	-0.00032310534
224	0x3e33a6f6	0.1754416
225	0xbe2d6a85	-0.16935165
226	0x3967544a	0.00022061277
227	0x3a10cc61	0.0005523619
228	0xbec32b91	-0.38119176
229	0xbe7bba7e	-0.2458286
230	0x3f460033	0.77344054
231	0xbdbbae58	-0.09164113
232	0xbe89d57e	-0.26920694
233	0x3ec4891f	0.38385865
234	0xba186c4c	-0.00058144773
235	0xbf27e78d	-0.65587693
236	0x3e5a02c9	0.21290125
237	0x3f3e1cd5	0.74262744
238	0xbefcb61b	-0.49357685
239	0xbf0b42ce	-0.5439881
240	0xb7177412	-9.027326e-06
241	0x3b09e4b6	0.0021040863
242	0xbe5fd57d	-0.21858783
243	0xb9fe4e2a	-0.00048504892
244	0xc017ea98	-2.3736935
245	0xba7d01e1	-0.0009651464
246	0xbddc722e	-0.107639655
247	0x398e1304	0.00027098518
248	0x3d877722	0.0661452
249	0xbef2adee	-0.47398323
250	0x3981a6b0	0.0002472899
251	0xbf07ef11	-0.5309916
252	0x3a24b409	0.0006282931
253	0xb986db4e	-0.00025721866
254	0x3f8e797b	1.1130823
255	0xb9c3f16a	-0.00037373166

model.2.bias f4 [16]
0	0x3da01298	0.078160465
1	0x3e8779eb	0.26460204
2	0x3e5217d8	0.20516908
3	0x3e4c3f2f	0.19945978
4	0x3e14682b	0.14492862
5	0x3e3c15a2	0.18367627
6	0x3f47d6b7	0.78062004
7	0x3e7ec0b6	0.24878201
8	0xbd75bf01	-0.05999661
9	0xbb034ae6	-0.0020033657
10	0xbb0cdd21	-0.0021494108
11	0x3e93e633	0.28886566
12	0x3e3af51a	0.18257561
13	0x3e84eb82	0.25960928
14	0x3e626cd3	0.22111826
15	0x3d1c9122	0.038224347

model.4.weight f4 [3, 16]
0	0x3fd25e51	1.6435033
1	0x3fc38188	1.5273905
2	0xc036d447	-2.8567064
3	0xc081a932	-4.0519037
4	0xc016b5b7	-2.354841
5	0xc097c522	-4.742814
6	0xc0f5efa9	-7.6855054
7	0xc042097d	-3.031829
8	0xbf990961	-1.1955987
9	0xb8dc8a5d	-0.0001051619
10	0x3974f003	0.00023359065
11	0x4006afb5	2.1044743
12	0x3ea86e26	0.32896537
13	0x402c84da	2.6956086
14	0x3f8208f8	1.0158987
15	0xc005aef7	-2.088804
16	0xbfce8d0c	-1.6136794
17	0xc01696b5	-2.3529484
18	0xbf58972e	-0.8460568
19	0xbe2366e2	-0.15957215
20	0x3f1accba	0.6046864
21	0x40659e16	3.5877738
22	0x40c7f5f9	6.248776
23	0xbed83cd4	-0.42233908
24	0xbec077e0	-0.37591457
25	0xbb49898c	-0.003075215
26	0xb9a1907a	-0.00030815956
27	0x3f7b552e	0.9817685
28	0xc096b861	-4.710007
29	0xbfaa1a31	-1.3289243
30	0xc083924a	-4.1116076
31	0x3fc1b2ad	1.5132653
32	0xbf5d7175	-0.86501247
33	0xbf4631f7	-0.7741999
34	0x40331899	2.7983763
35	0x404e2e1f	3.221565
36	0x3fb368ae	1.4016321
37	0xbf89baac	-1.0760093
38	0xc08398be	-4.1123953
39	0x4022bf32	2.5429196
40	0x3f9749e7	1.1819428
41	0xbac2fb98	-0.0014876006
42	0x3a4d82a0	0.0007839594
43	0xc054173f	-3.3139188
44	0x3f6ff101	0.9372712
45	0xc0109bae	-2.259502
46	0x3e4eafed	0.20184298
47	0xbdb877bd	-0.09007213

model.4.bias f4 [3]
0	0x3eae03cb	0.3398727
1	0x3e664529	0.2248732
2	0xbef0f650	-0.47062922

exp_avg f4 [32, 25]
0	0xbd8ec8af	-0.06971871
1	0xbd926978	-0.07149023
2	0xbd66c9a4	-0.056344643
3	0xbd53a86e	-0.0516743
4	0xbd618bce	-0.05506497
5	0xbd8d8ffd	-0.06912229
6	0xbd8e89dd	-0.06959889
7	0xbd6e8504	-0.058232322
8	0xbd6ccd81	-0.05781317
9	0xbd600dbb	-0.054700594
10	0xbd917e48	-0.07104164
11	0xbd8a4727	-0.067518525
12	0xbd646ff6	-0.055770837
13	0xbd8614ba	-0.06546922
14	0xbd755474	-0.059894994
15	0xbd9edb5d	-0.07756684
16	0xbd7e63d8	-0.062106937
17	0xbd6c4baa	-0.057689346
18	0xbd587390	-0.052844584
19	0xbd5f9d7a	-0.05459354
20	0xbd9789d6	-0.07399337
21	0xbd81c8eb	-0.0633715
22	0xbd750772	-0.059821554
23	0xbd5bb59e	-0.05364
24	0xbd5c42b7	-0.05377456
25	0xbc94a493	-0.018144881
26	0xbc4036c4	-0.011731807
27	0xbba495fc	-0.0050227623
28	0xbc29f58d	-0.010373485
29	0xbc2712b8	-0.010197334
30	0xbc93893e	-0.018009778
31	0xbc8d717c	-0.017266028
32	0xbb480dfa	-0.0030525909
33	0xbc63e5e3	-0.01390979
34	0xbc758782	-0.014985921
35	0xbce2dd21	-0.027693333
36	0xbce75019	-0.028236436
37	0xbcbc648b	-0.022997161
38	0xbc074d84	-0.008258227
39	0xbcdffc47	-0.027341975
40	0xbcd8e7db	-0.026477745
41	0xbcdf2cb0	-0.027242988
42	0xbca44697	-0.020053191
43	0xbc8f7def	-0.017516105
44	0xbc96a3df	-0.018388687
45	0xbceae2ca	-0.028672595
46	0xbce86f4e	-0.028373387
47	0xbca15a21	-0.019696297
48	0xbc8a5c43	-0.016889697
49	0xbc94927a	-0.018136252
50	0x00000004	6e-45
51	0x00000004	6e-45
52	0x00000004	6e-45
53	0x00000004	6e-45
54	0x00000004	6e-45
55	0x00000004	6e-45
56	0x00000004	6e-45
57	0x00000004	6e-45
58	0x00000004	6e-45
59	0x00000004	6e-45
60	0x00000004	6e-45
61	0x00000004	6e-45
62	0x00000004	6e-45
63	0x00000004	6e-45
64	0x00000004	6e-45
65	0x00000004	6e-45
66	0x00000004	6e-45
67	0x00000004	6e-45
68	0x00000004	6e-45
69	0x00000004	6e-45
70	0x00000004	6e-45
71	0x00000004	6e-45
72	0x00000004	6e-45
73	0x00000004	6e-45
74	0x00000004	6e-45
75	0x00000004	6e-45
76	0x80000004	-6e-45
77	0x00000004	6e-45
78	0x00000004	6e-45
79	0x00000004	6e-45
80	0x00000004	6e-45
81	0x00000004	6e-45
82	0x00000004	6e-45
83	0x00000004	6e-45
84	0x00000004	6e-45
85	0x00000004	6e-45
86	0x00000004	6e-45
87	0x00000004	6e-45
88	0x00000004	6e-45
89	0x00000004	6e-45
90	0x00000004	6e-45
91	0x00000004	6e-45
92	0x00000004	6e-45
93	0x00000004	6e-45
94	0x00000004	6e-45
95	0x00000004	6e-45
96	0x00000004	6e-45
97	0x00000004	6e-45
98	0x00000004	6e-45
99	0x00000004	6e-45
100	0x3c617f90	0.013763323
101	0x3c9cc340	0.019136071
102	0x3d03434c	0.0320466
103	0x3d19d7c1	0.037559275
104	0x3d1bd56e	0.03804534
105	0x3c683f66	0.014175272
106	0x3c60c51e	0.013718871
107	0x3ce4d7bf	0.027934907
108	0x3d1a54db	0.03767858
109	0x3d2b9375	0.041888673
110	0x3c9bac23	0.01900298
111	0x3c9264d8	0.017870352
112	0x3cc86a02	0.024464611
113	0x3d29d220	0.041460156
114	0x3d500eaf	0.050795253
115	0x3ca6dd3c	0.020369165
116	0x3c8e6031	0.017379852
117	0x3ce9c231	0.02853498
118	0x3d339984	0.043847576
119	0x3d366181	0.04452658
120	0x3ca99d43	0.020704871
121	0x3cc75576	0.024332743
122	0x3ce3c298	0.02780275
123	0x3d2eae56	0.04264673
124	0x3d429fb7	0.047515597
125	0xbc0cf538	-0.008603387
126	0xbc041a07	-0.008062846
127	0xbc09fcf6	-0.008422127
128	0xbc05a0b3	-0.008155989
129	0xbc0f38fd	-0.008741614
130	0xbc0c8416	-0.008576414
131	0xbc1950d4	-0.00935765
132	0xbc07e6ad	-0.0082947435
133	0xbbcabb8f	-0.0061869095
134	0xbbe5b245	-0.007009777
135	0xbbc0e6d8	-0.0058868937
136	0xbc2a5593	-0.010396379
137	0xbc6f5d54	-0.0146096535
138	0xbb5b0985	-0.0033422422
139	0xb9c610ba	-0.00037777965
140	0xbbc8bf54	-0.0061263237
141	0xbc366ac9	-0.011133858
142	0xbc692183	-0.014229181
143	0xbc479c95	-0.012183328
144	0xbc42f751	-0.011899785
145	0xbbca1527	-0.0061670723
146	0xbc1fa62f	-0.009744211
147	0xbc4ae8f3	-0.012384641
148	0xbc42fe0e	-0.011901392
149	0xbc3461ad	-0.011009616
150	0xbd960945	-0.07325987
151	0xbd97fd30	-0.074213386
152	0xbd8cc9b0	-0.06874406
153	0xbd741699	-0.059591863
154	0xbd79fed9	-0.061034057
155	0xbd9dbb11	-0.07701696
156	0xbd94983c	-0.07255599
157	0xbd7e11df	-0.062028762
158	0xbd7bbdfa	-0.061460473
159	0xbd8edf5c	-0.06976196
160	0xbdad08f6	-0.08448975
161	0xbd9394dd	-0.07206128
162	0xbd79cfac	-0.060989067
163	0xbd8924a0	-0.06696439
164	0xbd92d255	-0.07169024
165	0xbdb419d6	-0.0879399
166	0xbd97192b	-0.07377847
167	0xbd9a9c16	-0.07549302
168	0xbdb660ca	-0.0890518
169	0xbda5497d	-0.080706574
170	0xbda67d58	-0.08129376
171	0xbd8f5a90	-0.06999695
172	0xbd960a3b	-0.0732617
173	0xbdbb586d	-0.09147725
174	0xbdc25178	-0.09488195
175	0x3c5b7930	0.013395593
176	0x3c859265	0.016305158
177	0x3cc40d4f	0.023932127
178	0x3cee751b	0.029108575
179	0x3d008518	0.031376928
180	0x3c66e4ea	0.014092663
181	0x3c69b2fb	0.014263864
182	0x3cc701cc	0.024292849
183	0x3cebfa2b	0.028805813
184	0x3cef2489	0.029192226
185	0x3c83c3b5	0.016084531
186	0x3c6e3b3a	0.014540488
187	0x3cf06932	0.029347036
188	0x3cf305b6	0.02966581
189	0x3d22d9bd	0.039758433
190	0x3c9d97c0	0.0192374
191	0x3ca42736	0.020038228
192	0x3cec09b1	0.028813215
193	0x3d1d9431	0.038471404
194	0x3d14d48d	0.036335517
195	0x3cb02fee	0.02150723
196	0x3cb087f6	0.021549206
197	0x3cb1a9e5	0.021687457
198	0x3d20d823	0.039268624
199	0x3d2fc47e	0.042912
200	0xbc80c533	-0.015719032
201	0xbcc5664b	-0.024096629
202	0xbd2d3176	-0.042283498
203	0xbd371040	-0.04469323
204	0xbd3b49fe	-0.04572486
205	0xbc8b1a7c	-0.016980402
206	0xbc95a051	-0.018264921
207	0xbd20caa0	-0.03925574
208	0xbd11a9be	-0.03556227
209	0xbd265afb	-0.04061411
210	0xbbc3146c	-0.005953362
211	0xbc6c63aa	-0.014428059
212	0xbd22a1a2	-0.039704926
213	0xbd3e0ea1	-0.04640067
214	0xbd3d4731	-0.04621047
215	0xbb85de8d	-0.004085368
216	0xbc1a3c31	-0.009413765
217	0xbcb96518	-0.022631213
218	0xbd15a1ed	-0.036531378
219	0xbd311303	-0.04323102
220	0xbbcbdfa2	-0.0062217275
221	0xbc1655d4	-0.009175736
222	0xbc867a75	-0.016415814
223	0xbd0310de	-0.031998508
224	0xbd05d7a9	-0.032676373
225	0x3b71d51e	0.003690071
226	0x3b486ee5	0.0030583676
227	0x3af7db61	0.0018909985
228	0x3b02c895	0.0019955982
229	0x3a9f12b2	0.0012136309
230	0x3b544b38	0.0032393467
231	0x3b45f8b2	0.0030208048
232	0x3af27886	0.0018499054
233	0x3aab9a4c	0.0013092249
234	0x3a8488ad	0.0010111533
235	0x3b49f496	0.003081595
236	0x3b19beca	0.0023459666
237	0x3a38c1a7	0.00070478994
238	0x3a646547	0.0008712601
239	0x3931a7b8	0.00016942516
240	0x3b00455a	0.0019572587
241	0x3a996dfb	0.001170575
242	0xba14131a	-0.00056485983
243	0xbba0e48e	-0.0049100583
244	0xbb8551e8	-0.004068602
245	0x3ade76fd	0.0016972717
246	0x3a944d00	0.0011314452
247	0xb8fd1621	-0.00012068102
248	0xbbb8c23b	-0.0056383885
249	0xbbc18a3c	-0.0059063714
250	0x00000000	0.0
251	0x00000000	0.0
252	0x00000000	0.0
253	0x00000000	0.0
254	0x00000000	0.0
255	0x00000004	6e-45

exp_avg_sq f4 [32, 25]
0	0x3d1579fe	0.036493294
1	0x3d154b0b	0.03644852
2	0x3d140a64	0.03614272
3	0x3d125783	0.03572799
4	0x3d149ec8	0.036284238
5	0x3d1880ef	0.037232336
6	0x3d0ea79b	0.03482781
7	0x3d01f959	0.031731937
8	0x3d0cb7ce	0.034354977
9	0x3d0efc7a	0.03490875
10	0x3d1708ba	0.036873557
11	0x3d054804	0.032539383
12	0x3cc03be0	0.02346605
13	0x3ce5e8a4	0.028065033
14	0x3d01dcb4	0.03170462
15	0x3d0d0646	0.03442981
16	0x3cfda728	0.030963495
17	0x3cd3b8e7	0.025845004
18	0x3cddc206	0.027070057
19	0x3cf56909	0.029957311
20	0x3d059884	0.032616153
21	0x3cf6b290	0.030114442
22	0x3ce44533	0.027865028
23	0x3ce23a53	0.027615702
24	0x3cee5e03	0.029097563
25	0x3cffefeb	0.031242331
26	0x3d071b6f	0.032985147
27	0x3d1f5ad6	0.038904987
28	0x3d31713e	0.043320887
29	0x3d3c5a25	0.045984406
30	0x3d001537	0.031270232
31	0x3d012cca	0.031536855
32	0x3d1958de	0.037438266
33	0x3d380100	0.04492283
34	0x3d403849	0.046928678
35	0x3d19400d	0.0374146
36	0x3d199a01	0.037500385
37	0x3d17b266	0.03703537
38	0x3d2a84c4	0.04163052
39	0x3d2d8102	0.04235936
40	0x3d1f4164	0.03888072
41	0x3d1d14ac	0.038349792
42	0x3d0bea26	0.03415885
43	0x3cf930b5	0.030418733
44	0x3d002e64	0.03129424
45	0x3d1f9862	0.038963683
46	0x3d1d3830	0.038383663
47	0x3d0f83ae	0.03503769
48	0x3cfc1dff	0.030776022
49	0x3cf80bd0	0.03027907
50	0x000001f4	7e-43
51	0x000001f4	7e-43
52	0x000001f4	7e-43
53	0x000001f4	7e-43
54	0x000001f4	7e-43
55	0x000001f4	7e-43
56	0x000001f4	7e-43
57	0x000001f4	7e-43
58	0x000001f4	7e-43
59	0x000001f4	7e-43
60	0x000001f4	7e-43
61	0x000001f4	7e-43
62	0x000001f4	7e-43
63	0x000001f4	7e-43
64	0x000001f4	7e-43
65	0x000001f4	7e-43
66	0x000001f4	7e-43
67	0x000001f4	7e-43
68	0x000001f4	7e-43
69	0x000001f4	7e-43
70	0x000001f4	7e-43
71	0x000001f4	7e-43
72	0x000001f4	7e-43
73	0x000001f4	7e-43
74	0x000001f4	7e-43
75	0x000001f4	7e-43
76	0x000001f4	7e-43
77	0x000001f4	7e-43
78	0x000001f4	7e-43
79	0x000001f4	7e-43
80	0x000001f4	7e-43
81	0x000001f4	7e-43
82	0x000001f4	7e-43
83	0x000001f4	7e-43
84	0x000001f4	7e-43
85	0x000001f4	7e-43
86	0x000001f4	7e-43
87	0x000001f4	7e-43
88	0x000001f4	7e-43
89	0x000001f4	7e-43
90	0x000001f4	7e-43
91	0x000001f4	7e-43
92	0x000001f4	7e-43
93	0x000001f4	7e-43
94	0x000001f4	7e-43
95	0x000001f4	7e-43
96	0x000001f4	7e-43
97	0x000001f4	7e-43
98	0x000001f4	7e-43
99	0x000001f4	7e-43
100	0x3c9b778a	0.0189779
101	0x3c93af92	0.018028054
102	0x3c9e59db	0.019329956
103	0x3cbb7022	0.022880618
104	0x3cd3b3f1	0.025842639
105	0x3ca56d9a	0.020193864
106	0x3c99b594	0.018763341
107	0x3ca19d37	0.019728286
108	0x3cd03d52	0.025419865
109	0x3cf72581	0.03016925
110	0x3cb3d873	0.021953797
111	0x3cb170ae	0.021660175
112	0x3cc4aa2d	0.024006927
113	0x3cfce2a5	0.030869791
114	0x3d07bbad	0.033137966
115	0x3cb99736	0.02265511
116	0x3cc38aa3	0.023869818
117	0x3cdf8509	0.027285116
118	0x3d009c1a	0.03139887
119	0x3d066525	0.032811303
120	0x3cc29e0f	0.023757009
121	0x3cd20e01	0.025641443
122	0x3ce973ea	0.028497655
123	0x3cfe7806	0.031063091
124	0x3d05b824	0.032646313
125	0x3bdffadf	0.006835326
126	0x3bc89b99	0.0061220643
127	0x3bad826e	0.0052950894
128	0x3bacb9e9	0.0052711857
129	0x3bc60d06	0.006044033
130	0x3bf94ab8	0.007607784
131	0x3bdcc761	0.006737635
132	0x3bb3b343	0.005484016
133	0x3bbe384f	0.0058050524
134	0x3be0f3e4	0.0068650115
135	0x3c16690d	0.0091803195
136	0x3c16ca20	0.009203464
137	0x3c1a0941	0.00940162
138	0x3c19d191	0.009388343
139	0x3c1c62a6	0.009545004
140	0x3c1d9255	0.009617408
141	0x3c244ce9	0.010028102
142	0x3c2ec8ba	0.010667974
143	0x3c2d7f66	0.010589456
144	0x3c27812b	0.010223667
145	0x3c20e07b	0.009819145
146	0x3c27fa67	0.010252572
147	0x3c3114f1	0.0108082155
148	0x3c303974	0.010755885
149	0x3c2cbd8f	0.010543241
150	0x3da99211	0.08279813
151	0x3da22ff3	0.07919302
152	0x3d8e00e1	0.069337614
153	0x3d799de0	0.060941577
154	0x3d7a3d38	0.06109354
155	0x3db1f238	0.08688778
156	0x3da90d85	0.08254532
157	0x3d8eb4fa	0.06968112
158	0x3d826918	0.06367701
159	0x3d8c7940	0.06859064
160	0x3dac01de	0.08398794
161	0x3da76577	0.0817365
162	0x3d9b9945	0.07597593
163	0x3dac623d	0.08417175
164	0x3db109d7	0.08644455
165	0x3d8c69f1	0.06856144
166	0x3d7738bc	0.06035684
167	0x3d785a48	0.060632974
168	0x3d9b45c6	0.075816676
169	0x3db23519	0.08701534
170	0x3d7b49b7	0.061349597
171	0x3d6747b6	0.056464873
172	0x3d753cf3	0.05987258
173	0x3d92c8cb	0.071672045
174	0x3da6bbb6	0.08141272
175	0x3d1935cf	0.03740483
176	0x3d2646e2	0.040594943
177	0x3d3a33b1	0.045459453
178	0x3d462bd9	0.04838166
179	0x3d4c03e2	0.04980839
180	0x3d1166c9	0.035498414
181	0x3d1a1062	0.03761328
182	0x3d32d347	0.04365852
183	0x3d48f6bf	0.04906344
184	0x3d4f9a09	0.05068401
185	0x3d0760e8	0.0330514
186	0x3d08c768	0.033393294
187	0x3d187b5c	0.03722702
188	0x3d386a68	0.045023352
189	0x3d477027	0.04869094
190	0x3cecaa0c	0.028889678
191	0x3ce44dcf	0.027869133
192	0x3cf355a8	0.02970393
193	0x3d1b8bf2	0.03797526
194	0x3d2fcb4f	0.0429185
195	0x3cdda99e	0.027058419
196	0x3cded8ef	0.027203051
197	0x3cf486ca	0.029849429
198	0x3d12dfd6	0.035857998
199	0x3d262cdf	0.040570136
200	0x3d5762a9	0.052584324
201	0x3d576be6	0.052593134
202	0x3d5d1646	0.05397632
203	0x3d5bcd07	0.053662326
204	0x3d583471	0.052784387
205	0x3d5aa17d	0.053376663
206	0x3d5ffd5d	0.054684985
207	0x3d6c3348	0.057666093
208	0x3d673e4e	0.056455903
209	0x3d5d10e7	0.053971197
210	0x3d6ba2c0	0.057528257
211	0x3d75d7d2	0.060020275
212	0x3d8a5229	0.06753952
213	0x3d7d5a0d	0.061853457
214	0x3d75d01d	0.060012925
215	0x3d625f0b	0.05526642
216	0x3d648654	0.055792168
217	0x3d65ceb3	0.056105327
218	0x3d60d279	0.054888222
219	0x3d620ff2	0.055190988
220	0x3d5dad88	0.05412057
221	0x3d5bbdda	0.053647853
222	0x3d5ac363	0.05340899
223	0x3d5651f1	0.05232424
224	0x3d5ab040	0.05339074
225	0x3af7d9b0	0.001890948
226	0x3afcd96b	0.001929087
227	0x3aeaebd7	0.0017923069
228	0x3acabc9c	0.0015467587
229	0x3ab5c89f	0.0013868994
230	0x3aec5a0c	0.0018032207
231	0x3aefb256	0.0018287401
232	0x3ae19f8a	0.0017213684
233	0x3ab53808	0.0013825903
234	0x3aac9079	0.0013165615
235	0x3ac68df6	0.0015148509
236	0x3ac4ee52	0.0015024638
237	0x3abaab1c	0.0014241668
238	0x3ae28bd9	0.001728411
239	0x3ae9467c	0.0017797495
240	0x3a720876	0.0009232828
241	0x3a64da23	0.00087300147
242	0x3a8f8da2	0.0010952244
243	0x3ad1083f	0.0015947892
244	0x3af37741	0.0018574969
245	0x3a716f61	0.0009210017
246	0x3a7aac5f	0.00095624285
247	0x3a90d5d4	0.0011050054
248	0x3abb10b4	0.0014271946
249	0x3ada1f28	0.0016641365
250	0x00000000	0.0
251	0x00000000	0.0
252	0x00000000	0.0
253	0x00000000	0.0
254	0x00000000	0.0
255	0x000001f4	7e-43

exp_avg f4 [32]
0	0xbd4c0214	-0.04980667
1	0xbd457443	-0.04820658
2	0x00000004	6e-45
3	0x00000004	6e-45
4	0x3d9f32b2	0.07773341
5	0xbc7293c4	-0.014805738
6	0xbda44cf8	-0.08022493
7	0x3c9ffb7a	0.019529093
8	0xbd64578f	-0.055747565
9	0xbbaa0846	-0.0051889746
10	0x00000004	6e-45
11	0xbd219c08	-0.039455444
12	0xbb97d767	-0.0046338323
13	0xbdc2f0fc	-0.0951862
14	0x3d5c7a51	0.053827588
15	0xbc3679e0	-0.011137456
16	0x00000004	6e-45
17	0x00000004	6e-45
18	0xbcf6b7bc	-0.030116908
19	0x00000004	6e-45
20	0xbcf793aa	-0.030221779
21	0x00000004	6e-45
22	0x3e598257	0.21241127
23	0x00000004	6e-45
24	0x3d426dc7	0.047467973
25	0x3d070b85	0.03296997
26	0x00000004	6e-45
27	0x3ca94109	0.020660894
28	0x00000004	6e-45
29	0x00000004	6e-45
30	0xbdb2ae37	-0.08724635
31	0x00000004	6e-45

exp_avg_sq f4 [32]
0	0x3dc3b2ec	0.09555611
1	0x3dcfe8b0	0.101518035
2	0x000001f4	7e-43
3	0x000001f4	7e-43
4	0x3d836ca5	0.06417207
5	0x3cb84b62	0.022496883
6	0x3e50c436	0.20387349
7	0x3dc51b09	0.09624297
8	0x3e14879a	0.14504853
9	0x3b91409d	0.0044327513
10	0x000001f4	7e-43
11	0x3d1f7744	0.0389321
12	0x3b1fa5ab	0.002436022
13	0x3c858206	0.016297352
14	0x3ba83248	0.005132947
15	0x3c968ec3	0.018378621
16	0x000001f4	7e-43
17	0x000001f4	7e-43
18	0x3b94cfa2	0.0045413533
19	0x000001f4	7e-43
20	0x3e0fac74	0.1403063
21	0x000001f4	7e-43
22	0x3dfd2664	0.12360838
23	0x000001f4	7e-43
24	0x3d121538	0.035664767
25	0x3b829104	0.0039845724
26	0x000001f4	7e-43
27	0x3d3b7732	0.04576797
28	0x000001f4	7e-43
29	0x000001f4	7e-43
30	0x3df37932	0.118883505
31	0x000001f4	7e-43

exp_avg f4 [16, 32]
0	0x3bbadd8c	0.00570268
1	0xbae3c9cc	-0.0017378866
2	0x00000000	0.0
3	0x00000004	6e-45
4	0x3bbfa10b	0.0058480552
5	0x3b916abe	0.0044377735
6	0x3b4fd303	0.0031711466
7	0xba109340	-0.0005515106
8	0x3970c9ec	0.00022963405
9	0xba6d979e	-0.0009063425
10	0x00000004	6e-45
11	0x3bc45cfa	0.005992529
12	0x39ae5b45	0.00033255867
13	0xb9523e29	-0.00020050317
14	0x3b95ea28	0.0045750327
15	0xbb0bdcce	-0.0021341327
16	0x00000004	6e-45
17	0x80000004	-6e-45
18	0x3a09899f	0.00052466424
19	0x80000004	-6e-45
20	0x3a8800e7	0.0010376245
21	0x00000004	6e-45
22	0x3bb03b43	0.0053781583
23	0x80000004	-6e-45
24	0x3b498ee2	0.003075533
25	0x3b90e8ac	0.004422268
26	0x00000004	6e-45
27	0x3b7535dc	0.0037416136
28	0x00000004	6e-45
29	0x80000004	-6e-45
30	0x399c2e5b	0.00029789176
31	0x00000000	0.0
32	0x3bbcb310	0.0057586506
33	0xba234c31	-0.000622931
34	0x80000004	-6e-45
35	0x00000004	6e-45
36	0x3c1937c2	0.009351673
37	0x3bb4f362	0.0055221776
38	0x3b9e4a8e	0.004830665
39	0x3a76ef26	0.0009419791
40	0x3b020321	0.001983829
41	0x398c6dfa	0.0002678482
42	0x00000004	6e-45
43	0x3bc01791	0.0058621843
44	0x39b41863	0.00034350445
45	0x38082920	3.2463227e-05
46	0x3be1289a	0.006871295
47	0xba8f476d	-0.0010931321
48	0x80000004	-6e-45
49	0x80000004	-6e-45
50	0x3ab5046e	0.0013810524
51	0x80000004	-6e-45
52	0x3a8732bc	0.0010314803
53	0x00000004	6e-45
54	0x3b7ecc24	0.0038879002
55	0x00000004	6e-45
56	0x3b995a56	0.0046799583
57	0x3b0354cd	0.002003956
58	0x00000004	6e-45
59	0x3b97d42b	0.0046334467
60	0x00000004	6e-45
61	0x80000004	-6e-45
62	0x3b2c2795	0.002626871
63	0x00000004	6e-45
64	0xbbb036bb	-0.005377618
65	0xba1a64c1	-0.00058896473
66	0x00000000	0.0
67	0x80000004	-6e-45
68	0xbbb98280	-0.0056613088
69	0xbbb45e96	-0.0055044396
70	0xbc0925bf	-0.008370816
71	0x3c252a6e	0.010080917
72	0x3a953088	0.0011382261
73	0xba7ffa7f	-0.0009764805
74	0x00000004	6e-45
75	0xbbe0ad3d	-0.006856589
76	0xb91e4ae2	-0.0001509595
77	0xbb31bb5f	-0.0027119739
78	0xb9c81631	-0.00038163507
79	0x3ac679b1	0.0015142468
80	0x00000004	6e-45
81	0x80000004	-6e-45
82	0x39abe89e	0.00032788975
83	0x80000004	-6e-45
84	0x3b1f2bc2	0.0024287556
85	0x80000004	-6e-45
86	0xbbe2e01b	-0.006923688
87	0x00000004	6e-45
88	0xbbbb552b	-0.00571694
89	0xbb84ef4e	-0.0040568477
90	0x00000004	6e-45
91	0x39e79ac0	0.0004417505
92	0x00000004	6e-45
93	0x00000004	6e-45
94	0xbbc14271	-0.005897813
95	0x00000004	6e-45
96	0xbbc8f078	-0.0061321817
97	0x3b1c4d80	0.0023849905
98	0x00000004	6e-45
99	0x80000004	-6e-45
100	0xbab0097b	-0.001343056
101	0xbaf6b572	-0.0018822385
102	0xbbe730f0	-0.0070553944
103	0x3c453a06	0.01203776
104	0x39c486fd	0.00037484607
105	0x381c7862	3.7305414e-05
106	0x00000004	6e-45
107	0xbc7fcc71	-0.0156127075
108	0xb96652aa	-0.00021965304
109	0xba96b532	-0.0011498092
110	0x3bae670a	0.005322342
111	0x3a008188	0.0004902114
112	0x00000004	6e-45
113	0x80000004	-6e-45
114	0x39df73c6	0.00042620132
115	0x80000004	-6e-45
116	0x3b5100a6	0.0031891256
117	0x80000004	-6e-45
118	0xbc252317	-0.010079167
119	0x00000004	6e-45
120	0xba2a3e6d	-0.00064942875
121	0xba838b29	-0.001003598
122	0x00000004	6e-45
123	0x3b047098	0.0020208713
124	0x80000004	-6e-45
125	0x00000004	6e-45
126	0xbb236284	-0.0024930546
127	0x00000004	6e-45
128	0xbb2b296f	-0.0026117226
129	0xb9056156	-0.00012720129
130	0x00000004	6e-45
131	0x80000004	-6e-45
132	0xbba31f5c	-0.0049781036
133	0xbb6cbe08	-0.003612401
134	0xbb3419eb	-0.0027481269
135	0x3b7ce0d4	0.0038586156
136	0x3ac67979	0.0015142403
137	0x3a255722	0.0006307234
138	0x00000000	0.0
139	0xbaafa823	-0.0013401549
140	0xb8efc91f	-0.0001143387
141	0xba1d9cd9	-0.0006012447
142	0xbb4dbd79	-0.0031393452
143	0x3b1df261	0.0024100768
144	0x00000004	6e-45
145	0x00000004	6e-45
146	0xb821544a	-3.846389e-05
147	0x80000004	-6e-45
148	0x3b520e1f	0.0032051874
149	0x80000004	-6e-45
150	0xba1e38c7	-0.0006035682
151	0x80000004	-6e-45
152	0xbb659100	-0.0035029054
153	0xbb1ceddd	-0.0023945489
154	0x00000004	6e-45
155	0xbb04d5cf	-0.0020269041
156	0x00000000	0.0
157	0x00000004	6e-45
158	0xbb3b05a4	-0.0028537298
159	0x00000000	0.0
160	0xbc00e1d6	-0.0078663435
161	0x3b069c3d	0.0020539903
162	0x00000004	6e-45
163	0x80000004	-6e-45
164	0xbba4d974	-0.0050308052
165	0x3ba6a158	0.0050851516
166	0xbbacc73e	-0.005272775
167	0xbc801d09	-0.015638845
168	0xbb2b85e2	-0.002617233
169	0xb9f03e51	-0.00045822797
170	0x80000004	-6e-45
171	0xbca58404	-0.020204552
172	0xb92fb6e2	-0.0001675743
173	0x3b42b77b	0.0029711414
174	0xbc572377	-0.013131014
175	0xba6a48a9	-0.0008937219
176	0x00000004	6e-45
177	0x80000004	-6e-45
178	0x38ffa2c8	0.00012189668
179	0x00000004	6e-45
180	0x3aac4445	0.0013142904
181	0x80000004	-6e-45
182	0xbc7f57ae	-0.015584869
183	0x80000004	-6e-45
184	0x3b468016	0.0030288748
185	0xbb67a36b	-0.0035345207
186	0x80000004	-6e-45
187	0xbc393cdd	-0.011306015
188	0x80000004	-6e-45
189	0x00000004	6e-45
190	0x3b1508ca	0.0022740834
191	0x00000004	6e-45
192	0xb9363181	-0.00017375314
193	0xb90a8a4f	-0.0001321223
194	0x80000004	-6e-45
195	0x00000004	6e-45
196	0xb8470c70	-4.745688e-05
197	0xb9d2c898	-0.00040203775
198	0xb99e2173	-0.0003016103
199	0xb8647ac4	-5.447377e-05
200	0xb945c7b6	-0.00018861782
201	0xb9dcf206	-0.0004214199
202	0x80000004	-6e-45
203	0xb9fcba3b	-0.00048203938
204	0xb6c13b9d	-5.758788e-06
205	0xb80ce56b	-3.3592263e-05
206	0xb9891b14	-0.0002615085
207	0xb0c4b679	-1.4312739e-09
208	0x00000004	6e-45
209	0x80000004	-6e-45
210	0xb5bd01e3	-1.4082146e-06
211	0x00000004	6e-45
212	0xba92fa1b	-0.0011213453
213	0x00000004	6e-45
214	0xb9dca655	-0.00042085597
215	0x80000004	-6e-45
216	0xb968632c	-0.00022162189
217	0xba18ef5c	-0.0005834007
218	0x80000004	-6e-45
219	0xb7ead0c5	-2.799219e-05
220	0x80000004	-6e-45
221	0x80000004	-6e-45
222	0x37870691	1.6096312e-05
223	0x00000000	0.0
224	0xbbf61cfb	-0.007510779
225	0xbc2096cd	-0.009801579
226	0x00000000	0.0
227	0x80000004	-6e-45
228	0xbc6a4cdd	-0.014300552
229	0xbc527e12	-0.01284744
230	0xbc2f3e90	-0.010696068
231	0xbbc36a60	-0.0059636086
232	0xb9aeeea0	-0.00033365656
233	0xbacb8e69	-0.0015530112
234	0x00000000	0.0
235	0xbc1a51f5	-0.009418954
236	0xba50f829	-0.0007971549
237	0xbb16686d	-0.0022950426
238	0xbc2d22d6	-0.010567388
239	0xb9c6a647	-0.0003788939
240	0x00000004	6e-45
241	0x00000004	6e-45
242	0xbb74dc06	-0.003736259
243	0x80000004	-6e-45
244	0xbaa35839	-0.0012462205
245	0x80000004	-6e-45
246	0xbba5aa77	-0.0050557214
247	0x00000004	6e-45
248	0xbc0913b0	-0.00836651
249	0xb8fac0da	-0.0001195685
250	0x00000004	6e-45
251	0xbbb644e8	-0.0055624135
252	0x00000000	0.0
253	0x80000004	-6e-45
254	0xbc4a0851	-0.012331084
255	0x00000004	6e-45

exp_avg_sq f4 [16, 32]
0	0x39adb86d	0.0003313454
1	0x3a0db2a7	0.00054053444
2	0x00000000	0.0
3	0x000001f4	7e-43
4	0x3a269d89	0.0006355872
5	0x3962383b	0.00021573987
6	0x3a17044c	0.0005760833
7	0x3b0c9a34	0.0021454217
8	0x38b5924e	8.658004e-05
9	0x38d07777	9.940465e-05
10	0x000001f4	7e-43
11	0x3aa5a0b4	0.0012636394
12	0x3828d6f0	4.0254497e-05
13	0x357a23bc	9.318426e-07
14	0x3a3a3bdf	0.00071042584
15	0x3995aade	0.000285468
16	0x000001f4	7e-43
17	0x000001f4	7e-43
18	0x3594e343	1.1093001e-06
19	0x000001f4	7e-43
20	0x3a0285e0	0.00049790554
21	0x000001f4	7e-43
22	0x3ae84165	0.0017719684
23	0x000001f4	7e-43
24	0x39768af5	0.00023512154
25	0x39675614	0.00022061943
26	0x000001f4	7e-43
27	0x3a204dda	0.00061151164
28	0x000001f4	7e-43
29	0x000001f4	7e-43
30	0x39ed4ada	0.0004525993
31	0x00000000	0.0
32	0x3926fa2c	0.0001592419
33	0x39d2fce4	0.0004024274
34	0x000001f4	7e-43
35	0x000001f4	7e-43
36	0x3a9972ce	0.0011707188
37	0x3ad45f74	0.0016202764
38	0x3a033727	0.0005005472
39	0x3aa8081b	0.0012819798
40	0x38dafb8a	0.00010441903
41	0x38a80978	8.012628e-05
42	0x000001f4	7e-43
43	0x3a8715ef	0.0010306219
44	0x37b95e64	2.2097673e-05
45	0x344d64a8	1.9128731e-07
46	0x3a0002f7	0.00048832543
47	0x390889b5	0.0001302127
48	0x000001f4	7e-43
49	0x000001f4	7e-43
50	0x38e210a0	0.000107796164
51	0x000001f4	7e-43
52	0x39126cb1	0.00013964136
53	0x000001f4	7e-43
54	0x3a9c27c8	0.0011913711
55	0x000001f4	7e-43
56	0x3a05de9a	0.00051067176
57	0x393360b4	0.00017106795
58	0x000001f4	7e-43
59	0x39ee1633	0.00045411437
60	0x000001f4	7e-43
61	0x000001f4	7e-43
62	0x39ddfc01	0.00042340162
63	0x000001f4	7e-43
64	0x396cd946	0.00022587655
65	0x3b080dce	0.0020760181
66	0x00000000	0.0
67	0x000001f4	7e-43
68	0x3a8707b9	0.0010301984
69	0x3ae7dde4	0.001769003
70	0x3ad9b537	0.0016609792
71	0x3b427788	0.0029673297
72	0x38e493a2	0.00010899386
73	0x39ac09d2	0.00032813713
74	0x000001f4	7e-43
75	0x3a68b229	0.00088766456
76	0x37955202	1.7800372e-05
77	0x37b503fa	2.1578733e-05
78	0x3a756a7e	0.0009361877
79	0x39c022e2	0.00036647083
80	0x000001f4	7e-43
81	0x000001f4	7e-43
82	0x38d25b6a	0.000100306075
83	0x000001f4	7e-43
84	0x3a7f0258	0.0009727827
85	0x000001f4	7e-43
86	0x3ad41908	0.0016181776
87	0x000001f4	7e-43
88	0x39986901	0.00029069933
89	0x39b314e9	0.0003415712
90	0x000001f4	7e-43
91	0x3a3ba4a6	0.00071580184
92	0x000001f4	7e-43
93	0x000001f4	7e-43
94	0x3a397409	0.00070744805
95	0x000001f4	7e-43
96	0x39af2dda	0.00033412763
97	0x3b0a7e76	0.0021132505
98	0x000001f4	7e-43
99	0x000001f4	7e-43
100	0x3a21a779	0.0006166618
101	0x3a959ce0	0.001141455
102	0x3b0f3b70	0.0021855496
103	0x3b87bab1	0.0041421284
104	0x38a092ea	7.6567594e-05
105	0x3967bf6e	0.0002210119
106	0x000001f4	7e-43
107	0x3b42c40d	0.0029718906
108	0x39601a91	0.00021372201
109	0x3763132c	1.3534718e-05
110	0x3a8716d6	0.0010306488
111	0x3a1f2b78	0.0006071846
112	0x000001f4	7e-43
113	0x000001f4	7e-43
114	0x3883d676	6.286513e-05
115	0x000001f4	7e-43
116	0x393329b3	0.00017086304
117	0x000001f4	7e-43
118	0x3b802278	0.003910359
119	0x000001f4	7e-43
120	0x39289fd1	0.00016081265
121	0x394a9ea4	0.0001932332
122	0x000001f4	7e-43
123	0x3a7985a9	0.0009518513
124	0x000001f4	7e-43
125	0x000001f4	7e-43
126	0x3ae7cd10	0.0017685015
127	0x000001f4	7e-43
128	0x380528a7	3.174753e-05
129	0x3a43bcbe	0.00074667844
130	0x000001f4	7e-43
131	0x000001f4	7e-43
132	0x3aea43db	0.0017873006
133	0x3ad00a03	0.0015872124
134	0x3a981069	0.001160157
135	0x3adef548	0.0017010355
136	0x3923d167	0.000156229
137	0x3941ca8b	0.00018481367
138	0x00000000	0.0
139	0x3a1a5a8f	0.0005888128
140	0x36ba1232	5.54535e-06
141	0x35cceb7e	1.5267722e-06
142	0x3a788bf8	0.0009481306
143	0x395d878b	0.00021126696
144	0x000001f4	7e-43
145	0x000001f4	7e-43
146	0x3892f691	7.007749e-05
147	0x000001f4	7e-43
148	0x39b16a33	0.00033839195
149	0x000001f4	7e-43
150	0x3a585042	0.00082517054
151	0x000001f4	7e-43
152	0x39fe10b4	0.000484591
153	0x3926b782	0.00015899356
154	0x000001f4	7e-43
155	0x3a1fb384	0.00060921186
156	0x00000000	0.0
157	0x000001f4	7e-43
158	0x39cbad67	0.00038848372
159	0x00000000	0.0
160	0x3aae2e18	0.0013288883
161	0x3a7981c4	0.0009517933
162	0x000001f4	7e-43
163	0x000001f4	7e-43
164	0x3a6ac5f3	0.00089558883
165	0x39d802b0	0.00041200733
166	0x3a8609cd	0.001022631
167	0x3b0ad881	0.0021186175
168	0x39d22f72	0.0004008967
169	0x3907819d	0.00012922888
170	0x000001f4	7e-43
171	0x3b31e168	0.002714241
172	0x388c1c5b	6.681002e-05
173	0x38bc6067	8.982495e-05
174	0x3a94289a	0.0011303604
175	0x3876c83a	5.8837446e-05
176	0x000001f4	7e-43
177	0x000001f4	7e-43
178	0x3700e562	7.682802e-06
179	0x000001f4	7e-43
180	0x3ad185f1	0.0015985352
181	0x000001f4	7e-43
182	0x3afbff12	0.0019225797
183	0x000001f4	7e-43
184	0x3a5954bd	0.000829052
185	0x3a032dd4	0.00050040823
186	0x000001f4	7e-43
187	0x3aa442cf	0.0012532118
188	0x000001f4	7e-43
189	0x000001f4	7e-43
190	0x3a666e01	0.00087901956
191	0x000001f4	7e-43
192	0x39026841	0.00012436604
193	0x38fcae7c	0.000120487966
194	0x000001f4	7e-43
195	0x000001f4	7e-43
196	0x3871d320	5.7655503e-05
197	0x371f7ce3	9.506216e-06
198	0x39435db9	0.00018631564
199	0x38210cf4	3.8397455e-05
200	0x37c300d1	2.3246192e-05
201	0x37373cd2	1.0921811e-05
202	0x000001f4	7e-43
203	0x38dc9da2	0.00010519779
204	0x3703b8fa	7.851277e-06
205	0x36dd14ca	6.5887334e-06
206	0x39a8f876	0.00032228575
207	0x36026e3d	1.9435677e-06
208	0x000001f4	7e-43
209	0x000001f4	7e-43
210	0x35f3b00d	1.8156148e-06
211	0x000001f4	7e-43
212	0x396fe487	0.00022877949
213	0x000001f4	7e-43
214	0x38503bfa	4.9646922e-05
215	0x000001f4	7e-43
216	0x382f64ec	4.1817242e-05
217	0x37d84f0f	2.5786021e-05
218	0x000001f4	7e-43
219	0x3840fcb7	4.6011726e-05
220	0x000001f4	7e-43
221	0x000001f4	7e-43
222	0x38b8ad6f	8.806108e-05
223	0x00000000	0.0
224	0x3a3e49a6	0.0007258899
225	0x3a5f2916	0.0008512897
226	0x00000000	0.0
227	0x000001f4	7e-43
228	0x3b0df613	0.0021661564
229	0x3b92d7bf	0.0044812853
230	0x3b2c2b15	0.0026270796
231	0x3b34c6b8	0.0027584266
232	0x390cec9f	0.00013439589
233	0x39a31b3a	0.00031110068
234	0x00000000	0.0
235	0x3b2b681b	0.002615458
236	0x39781953	0.00023660557
237	0x37eefcd4	2.8489543e-05
238	0x3a0d9d7e	0.00054021913
239	0x39a64e63	0.0003172039
240	0x000001f4	7e-43
241	0x000001f4	7e-43
242	0x39904260	0.00027515274
243	0x000001f4	7e-43
244	0x37a11a9f	1.9205092e-05
245	0x000001f4	7e-43
246	0x3b63f032	0.0034780619
247	0x000001f4	7e-43
248	0x3a9aef76	0.0011820632
249	0x39318679	0.0001693013
250	0x000001f4	7e-43
251	0x3a42cf35	0.0007431389
252	0x00000000	0.0
253	0x000001f4	7e-43
254	0x3b277ddf	0.0025557203
255	0x000001f4	7e-43

exp_avg f4 [16]
0	0x3d335a28	0.04378715
1	0x3d56cbed	0.052440573
2	0xbcab19f5	-0.0208864
3	0xbcde5d2f	-0.027144043
4	0xbbe7ae2e	-0.0070703244
5	0xbda50837	-0.080582075
6	0xbc287d9b	-0.010283853
7	0xbd89754b	-0.06711825
8	0xbbcf8a5b	-0.006333632
9	0x00000004	6e-45
10	0x00000004	6e-45
11	0x3c5c4979	0.013445252
12	0x3d3a0410	0.04541403
13	0x3d9b858c	0.075938314
14	0x3d74bd0a	0.059750594
15	0xbd289b61	-0.041163806

exp_avg_sq f4 [16]
0	0x3c256f02	0.010097267
1	0x3c2249ed	0.009905321
2	0x3cbd91a0	0.023140728
3	0x3cfecd3f	0.031103728
4	0x3c4271df	0.011867969
5	0x3ccf5676	0.025309782
6	0x3c152d6c	0.009105068
7	0x3cc5cdb3	0.024145937
8	0x3b59f2b9	0.0033256246
9	0x000001f4	7e-43
10	0x000001f4	7e-43
11	0x3ce3bdef	0.027800528
12	0x3c8b2e7a	0.016989935
13	0x3cbaec72	0.022817824
14	0x3c0fa0c5	0.008766358
15	0x3c0d8049	0.008636543

exp_avg f4 [3, 16]
0	0x3ae52069	0.0017480972
1	0x3b625894	0.003453766
2	0x3869b651	5.5721324e-05
3	0x3a3c923c	0.00071934215
4	0x39d3fbd9	0.00040432697
5	0x3adf29ee	0.0017026046
6	0x381ac7a3	3.6902387e-05
7	0x3b0df9b1	0.002166372
8	0x379b1ed7	1.84918e-05
9	0x80000004	-6e-45
10	0x00000004	6e-45
11	0x3aa85aba	0.0012844421
12	0x3a6a9e1b	0.0008949951
13	0x3b6a9ab9	0.0035797788
14	0x3b51d2ff	0.0032016633
15	0x3b3f35d1	0.0029176364
16	0xbb5a2865	-0.0033288237
17	0xbb3a8afd	-0.002846419
18	0x3933cd9b	0.00017147364
19	0xb9263527	-0.00015850794
20	0x3a9dd01c	0.0012040171
21	0xba8a8377	-0.0010567744
22	0xb9e7378d	-0.00044101142
23	0x398a945a	0.00026431942
24	0xb9edc502	-0.00045350945
25	0x00000004	6e-45
26	0x00000004	6e-45
27	0xbb0ae5df	-0.0021194143
28	0xba0a2f2d	-0.0005271312
29	0xbb52a430	-0.003214132
30	0xbb1a45de	-0.002354018
31	0xb9a3d98c	-0.00031251868
32	0x3acf3074	0.0015807287
33	0xba1f3632	-0.00060734444
34	0xb96e3af0	-0.00022719405
35	0xba1304ec	-0.00056083384
36	0xbad2cf03	-0.0016083423
37	0xba294cd9	-0.00064582896
38	0x39d3dee7	0.0004041113
39	0xbb1f4c38	-0.0024306905
40	0x39e4133d	0.00043501882
41	0x00000004	6e-45
42	0x80000004	-6e-45
43	0x3a5ae222	0.00083497365
44	0xb9c0dd74	-0.0003678609
45	0xb9bfb3e9	-0.00036564402
46	0xba5e3450	-0.0008476423
47	0xbb2aba9c	-0.002605117

exp_avg_sq f4 [3, 16]
0	0x39774333	0.0002358079
1	0x38b7213f	8.7323126e-05
2	0x378934f9	1.635634e-05
3	0x37857243	1.5908043e-05
4	0x38049a61	3.161503e-05
5	0x37357df5	1.0817767e-05
6	0x3534f347	6.740924e-07
7	0x384133fd	4.6063204e-05
8	0x38a7aa63	7.9949175e-05
9	0x000001f4	7e-43
10	0x000001f4	7e-43
11	0x3855b5d3	5.0952494e-05
12	0x3a0214db	0.0004962214
13	0x385d9382	5.2827883e-05
14	0x3929b1b1	0.00016183291
15	0x38593357	5.1784646e-05
16	0x387f3cfe	6.085354e-05
17	0x37388130	1.0997333e-05
18	0x37120820	8.70417e-06
19	0x371e7bce	9.446359e-06
20	0x38014bc9	3.0826577e-05
21	0x38500bd9	4.96021e-05
22	0x36ccd334	6.104261e-06
23	0x383c69ba	4.492116e-05
24	0x3862a43c	5.4035554e-05
25	0x000001f4	7e-43
26	0x000001f4	7e-43
27	0x37e170b4	2.6874572e-05
28	0x381000ee	3.433314e-05
29	0x3743eb76	1.1677728e-05
30	0x3724aae9	9.814955e-06
31	0x38d8d512	0.0001033937
32	0x397d1404	0.00024135417
33	0x38a898d0	8.039328e-05
34	0x37c71501	2.373243e-05
35	0x37ceeb77	2.466676e-05
36	0x386211fd	5.389935e-05
37	0x3855d345	5.0979917e-05
38	0x36d13a16	6.2354475e-06
39	0x38b3ee7e	8.579808e-05
40	0x390424c1	0.00012602193
41	0x000001f4	7e-43
42	0x000001f4	7e-43
43	0x38144cb2	3.5357378e-05
44	0x3a05c621	0.0005103071
45	0x38425f43	4.6341924e-05
46	0x39228275	0.00015498123
47	0x390233ed	0.0001241711

exp_avg f4 [3]
0	0x3c22d1cd	0.009937716
1	0xbbc59b4e	-0.0060304767
2	0xbb80083b	-0.003907231

exp_avg_sq f4 [3]
0	0x3aeb36d8	0.0017945422
1	0x3a47766b	0.0007608893
2	0x3b0182ad	0.0019761727

loss f8 []
0	0x3f917c08ba4e6667	0.01707471501467808
