17_point_edge_detector.pth (torch, 25342 bytes, 19 tensors)

model.0.weight f4 [32, 25]
000000 d0 38 0d 3e e1 7c 74 3e ba 49 f1 3b c5 08 a0 3d
       0.13791203 0.23875763 0.007363525 0.07814173
000010 92 3c 5a 3e 89 92 98 3e 1e b9 20 bd 6d 92 cd bd
       0.21312168 0.29799297 -0.03923904 -0.10037694
000020 18 04 8a bd c4 74 9e 3e 13 6d 62 bd c4 b2 13 bf
       -0.06739062 0.3094846 -0.055279803 -0.5769465
000030 7f b1 66 bf 70 31 14 bf d6 06 44 bd 40 51 ea 3e
       -0.9011459 -0.57887936 -0.04785808 0.45765114
000040 b4 0f 0c bd ca 42 3d bc 4e 69 3a bd 7a 91 00 3f
       -0.034194663 -0.011551568 -0.045510583 0.5022198
000050 e1 17 6e 3c 09 e4 03 3c ef 46 2e 3e 4f 52 2e 3d
       0.01453206 0.008049973 0.17019247 0.042558964
000060 69 0e 5f bd 97 e4 b8 bd 54 4e 04 bd aa fa 0e be
       -0.054457102 -0.09027975 -0.032301262 -0.13962808
000070 35 ee 55 3e 39 87 b2 3d 55 43 bc be e3 d4 f8 be
       0.2089165 0.08717198 -0.3677012 -0.4859992
000080 e6 a3 0d be bc bf 10 3f 63 c4 cc 3e c3 99 4a be
       -0.13832054 0.56542563 0.3999358 -0.19785218
000090 8a 6f 05 be 22 54 c5 3d d5 e0 15 3e 8d 09 06 3e
       -0.1303083 0.09635188 0.14636548 0.13089581
0000a0 a1 5c a0 3d 42 12 0e 3f 2f 40 1a bc 02 cc 17 bf
       0.078301676 0.5549661 -0.009414717 -0.59295666
0000b0 22 42 05 bf ec c3 39 3e 82 31 cb 3e a4 e8 f3 3d
       -0.52054036 0.18141145 0.3968621 0.11909607
0000c0 69 ad 2d be 78 62 3f bd 58 6c 64 ba ce 35 34 ba
       -0.16960682 -0.046724766 -0.0008713654 -0.00068744726
0000d0 b1 6b a9 b9 9e a0 c6 39 3d d9 55 ba 19 4b 64 39
       -0.00032314428 0.00037885172 -0.0008157676 0.0002177175
0000e0 2c 5e 98 38 53 12 39 3a ef b2 b9 39 b9 de 32 ba
       7.265466e-05 0.00070599205 0.00035419266 -0.00068233494
0000f0 c7 a3 7d ba c5 f7 20 38 8c 2e 66 b8 b1 e0 aa 39
       -0.0009675589 3.8377726e-05 -5.4879623e-05 0.00032592335
000100 5f 73 b0 39 2e f0 72 ba 6b 99 43 ba 30 2b 15 3a
       0.00033655294 -0.0009267357 -0.0007461521 0.00056903344
000110 d2 12 16 b9 6f 4a 14 38 3e 3d ee 39 21 df 15 b9
       -0.00014312126 3.535527e-05 0.00045440526 -0.0001429287
000120 0b 18 2e ba 1b 63 07 ba 4e f6 b6 b9 85 39 2f bb
       -0.0006641156 -0.0005164609 -0.00034897256 -0.0026737165
000130 32 4b e8 ba 55 c3 f8 ba 33 aa 31 ba b3 8e e9 b9
       -0.0017722605 -0.0018979112 -0.0006777376 -0.00044547542
000140 f5 80 b8 ba f9 b4 3b bb 2e 77 f5 ba e4 32 82 b9
       -0.0014076518 -0.0028641804 -0.0018727535 -0.0002483345
000150 a5 88 6a 3a bc 99 84 3a ea 48 a6 39 25 87 b7 ba
       0.0008946753 0.0010116617 0.00031716313 -0.0014002068
000160 8a e7 cb ba 13 d4 ab b8 1d 4d 1e 3a 55 c3 67 ba
       -0.0015556675 -8.193417e-05 0.00060387125 -0.00088410574
000170 27 92 34 bb 6e 89 5e ba 5b bb 52 ba 08 00 ff b8
       -0.0027552934 -0.00084891065 -0.00080387824 -0.00012159353
000180 a3 59 97 ba bb 82 6c ba e3 fe a2 b9 38 ee 29 ba
       -0.00115471 -0.0009022166 -0.00031088953 -0.0006482336
000190 43 d4 a8 3d 73 92 42 be 5f 79 01 be 06 24 92 3c
       0.08243611 -0.19001178 -0.12643956 0.017839443
0001a0 fe 07 42 bd aa e3 5c 3e b9 ae 04 bf 0a dc 2d bf
       -0.047370903 0.21571222 -0.51829106 -0.6791388
0001b0 a3 0c da 39 f5 b3 1f 3e 27 f4 4a bd 70 59 e5 bd
       0.00041589615 0.15595992 -0.049549248 -0.111986995
0001c0 8c cd ab be 82 8d f1 3e 86 64 5c 3c 77 58 87 bd
       -0.33555257 0.47178274 0.013451701 -0.0660867
0001d0 09 9b 74 3d 0a e7 13 3f 21 b2 14 3f 45 e6 21 be
       0.059718166 0.5777441 0.58084303 -0.15810497
0001e0 37 e1 8a bd 5d 7b 26 bd d8 d7 9c 3d 65 01 ed 3d
       -0.067812376 -0.040644992 0.076583564 0.115725316
0001f0 f4 35 ed bc 2e a1 85 3d ac 44 a7 bc 9a 79 05 bd
       -0.02895639 0.06524883 -0.020418487 -0.03258667
000200 7d b6 60 be 66 61 74 3d 80 e4 1c be 97 14 e4 be
       -0.21944614 0.0596632 -0.15321541 -0.4454696
000210 ab 5c 62 bf 88 b1 13 bf c1 87 28 be c4 db 17 3d
       -0.8842265 -0.57692766 -0.16458036 0.03707482
000220 6b 7b 6e 3e 68 2f 11 3f 01 94 4b 3e d5 01 3a 3e
       0.23289268 0.5671296 0.19880678 0.18164761
000230 f6 e2 0f bb 5c 39 81 3e e0 0f 15 3f 98 79 8c 3e
       -0.0021955348 0.25239074 0.5822735 0.2743652
000240 ee cd 03 3c 1d 2a 2c bd 3e b9 76 3d a5 3b b4 bc
       0.008044703 -0.04203235 0.060235254 -0.022001097
000250 e5 7b f9 bc 90 9b fa 3d a8 57 8f 3d f9 76 80 3e
       -0.030454585 0.122367024 0.06999141 0.2509077
000260 46 89 1b 3c 2c 2b ea be 09 11 95 be 54 5d d5 3e
       0.009493178 -0.45736063 -0.2911456 0.41672766
000270 b2 b9 f8 3e e3 90 76 bc 63 fd 03 bf ce cb b7 bd
       0.48579174 -0.015049192 -0.5155851 -0.089744195
000280 b1 96 0b 3e 69 da 47 be 65 cc 62 3c fb 6f 2e 3e
       0.13631703 -0.1951691 0.013842677 0.17034905
000290 7b 1c 55 3e fc 1a 9c bd d8 ea e3 be 3c b7 82 be
       0.20811646 -0.07622334 -0.4451511 -0.25530422
0002a0 fc 33 e6 3e e1 eb 08 3f cf 26 0f be d1 a1 e0 be
       0.44961536 0.5348492 -0.13979648 -0.43873456
0002b0 58 c0 96 bd 1e 78 4e 3d 73 60 21 3e b0 35 59 3d
       -0.073609054 0.05040752 0.15759449 0.053029716
0002c0 08 23 88 bd 76 4c b9 bc 07 7a bb 3d 8e 9c 4f bc
       -0.06647307 -0.022619467 0.09154134 -0.012671603
0002d0 05 71 a8 bd c2 b9 6b 3d b2 07 ec 3e 56 b3 1c 3f
       -0.08224682 0.0575502 0.4609962 0.61211145
0002e0 7f 43 b6 3b 7d aa a7 bc ca 20 e8 bd 0b 32 cb bd
       0.0055622454 -0.020467037 -0.11334379 -0.09921654
0002f0 33 25 0f 3f 1f 21 31 3e ec fe 89 bb ea 31 2f bf
       0.55916137 0.17297791 -0.0042112973 -0.6843554
000300 35 ca 31 bf 28 c6 42 bd 44 06 ce 3d 92 10 ce 3c
       -0.6944917 -0.047552258 0.10059789 0.025154386
000310 ce b2 d7 bc 87 77 27 be 84 0c a1 bd 60 cc b6 bc
       -0.026330378 -0.1635419 -0.07863715 -0.02231425
000320 18 11 68 bd 0c 9c a2 be 58 38 ac 3c 85 02 8c be
       -0.056656927 -0.3175968 0.02102296 -0.27345672
000330 44 9c 70 be ed 85 d1 bd af 4e 96 3d 33 c5 09 3f
       -0.2349711 -0.102306224 0.073392265 0.5381653
000340 7d a6 98 3e 28 5e 1d be 95 8d 51 be f2 0b 15 3d
       0.2981452 -0.15367949 -0.20464166 0.036388345
000350 0a c7 12 3f be 92 17 bd 14 32 cf bd 16 a1 14 bd
       0.5733496 -0.03700518 -0.101169735 -0.036286436
000360 21 f9 7b 3e f3 f1 14 3f fb c8 e6 3e bf 71 58 bd
       0.24606754 0.58181685 0.4507521 -0.05284285
000370 29 e3 26 be db 03 8a be 56 ac 33 be 40 56 cc be
       -0.16297592 -0.26956066 -0.1754621 -0.39909554
000380 b3 41 2e be cc 48 a9 3d 3b 06 05 3e 2e e1 47 3e
       -0.1701725 0.08265838 0.12990658 0.19519493
000390 17 f9 92 3e fa c6 85 be 21 99 5d bd 08 01 a3 3e
       0.28705665 -0.2612837 -0.054101113 0.31836724
0003a0 df 2b b0 3d 46 78 04 bf ec ca f6 be ab 46 47 3d
       0.08602118 -0.5174602 -0.48201692 0.04865138
0003b0 cc 24 ca bd 61 c7 a4 3e 37 1f bd bd 4c 4c 93 3e
       -0.098703 0.32183364 -0.092344694 0.28769147
0003c0 26 e1 22 bf 60 39 40 be 78 a7 95 bd 68 03 b3 3e
       -0.636248 -0.18771887 -0.07307333 0.34963536
0003d0 7e a2 82 3e 25 9b f0 bd dd f0 5e 3e bf 8b 41 ba
       0.25514597 -0.117483415 0.2177157 -0.00073831895
0003e0 dc 68 1e be e9 4f 09 be ba e8 61 ba 02 67 42 ba
       -0.15469688 -0.1340939 -0.0008617748 -0.0007415862
0003f0 bb 95 30 3a 0f b1 5e ba 9d ef 20 ba 05 ca 35 b9
       0.0006736179 -0.0008495012 -0.0006139221 -0.00017336763

model.0.bias f4 [32]
000000 a2 36 43 3c 5a 6e 33 3c 0a 43 8b ba 76 2d e7 ba
       0.011914881 0.010951603 -0.0010624838 -0.001763745
000010 7e ef 74 bc 90 8d 84 bd 93 08 19 3c 4f 48 2e bc
       -0.0149496775 -0.064723134 0.009340423 -0.010637357
000020 0c 56 75 bc af 96 fa bb cb 1d 33 ba 93 cd 3f bd
       -0.014974128 -0.0076473574 -0.00068327476 -0.04682691
000030 06 ca aa bc 2f 12 5b 3d 4b 5e 88 3d 37 cc a5 bd
       -0.020848285 0.053484138 0.0665861 -0.080955915
000040 95 d3 a0 ba a3 bc 40 bb 37 22 51 bd fc 23 50 bb
       -0.0012270088 -0.0029409311 -0.05105802 -0.003175973
000050 05 ae 75 3d 29 82 39 bb 99 f5 0e bb 00 54 51 ba
       0.05998041 -0.0028306341 -0.0021813868 -0.0007985234
000060 dd f4 7b bd b7 9b d7 3d 05 d5 67 ba 44 e2 c3 bc
       -0.061512817 0.10527747 -0.0008843693 -0.023911603
000070 2f 6a ce ba 9d d0 77 ba 8d fa c4 bc dd 41 a7 ba
       -0.0015748198 -0.0009453388 -0.024045253 -0.0012760718

model.2.weight f4 [16, 32]
000000 f0 b2 e9 3e 90 48 b9 3e 14 7d 18 37 ce 31 85 ba
       0.4564433 0.36188173 9.089028e-06 -0.0010161938
000010 aa de b9 3e 89 be ae bf 3d c3 12 3e 78 1f 8a 3e
       0.36302692 -1.3651897 0.1433229 0.26977134
000020 b4 1a a9 be 45 a7 8d be 25 06 53 3a e7 31 ba be
       -0.33028185 -0.2766668 0.0008049927 -0.36366197
000030 76 d6 d7 be fa 69 2b c0 17 fc f3 3e d6 fa e6 3d
       -0.42155808 -2.6783433 0.47653267 0.11278312
000040 32 c7 b2 39 08 15 26 3a 20 62 79 bf dd 4a f6 3a
       0.00034099218 0.00063355314 -0.9741535 0.0018790622
000050 05 fd a3 be 16 f7 3f 3b 79 94 41 3f de 51 e2 ba
       -0.32028976 0.0029291562 0.75617176 -0.001726683
000060 50 3e 5e 3f 94 3a 70 3e d0 3a db b9 d5 cd d8 be
       0.8681383 0.23459846 -0.00041814754 -0.42344537
000070 6f 72 3f ba 34 cf ba b9 bd e6 c7 bd 3a 19 10 ba
       -0.0007303124 -0.00035631063 -0.09760807 -0.0005496923
000080 72 83 b3 be 79 9a 6c be 1a 2d 46 39 58 bd 0a ba
       -0.35061222 -0.23105802 0.00018899553 -0.00052924966
000090 88 2f 8f 3e d0 63 ec 3e 23 92 36 bf 5e 81 a4 3e
       0.2796595 0.461699 -0.71316737 0.3212995
0000a0 d6 bb 87 be 54 40 be 3d ef c0 91 ba bf 7d 1f 3e
       -0.26510495 0.09289613 -0.0011120121 0.15575312
0000b0 89 89 06 3e 60 66 e9 bf c2 ff cc 3d 90 cd 26 bd
       0.13138403 -1.8234367 0.100097194 -0.040723383
0000c0 86 27 a0 39 95 0e e7 b9 91 80 b7 3d e7 7a 92 ba
       0.00030547025 -0.00044070618 0.08960069 -0.0011175544
0000d0 cb 5e b9 bf 69 e3 8a 39 df 04 3e 3e 0a 94 7d b7
       -1.4482054 0.00026490845 0.18556546 -1.5114443e-05
0000e0 d9 8a e4 be bb c7 56 3e 5b 2a 1c 3b 8d 8a dc bb
       -0.44637182 0.20974629 0.0023828957 -0.0067303837
0000f0 c8 08 05 ba 6e 26 11 ba 02 cd 29 bf 6c c1 9a ba
       -0.0005074856 -0.00055370375 -0.6632844 -0.0011806912
000100 97 fe 91 bf d7 ac 7a 3f d9 0c b1 b9 2c 33 10 bb
       -1.140582 0.9791998 -0.00033769643 -0.0022003157
000110 84 6f 03 bf a8 a9 17 be 6a 5e ec 3e 22 5d d9 be
       -0.51342034 -0.14810812 0.46165782 -0.42453867
000120 d9 5f 89 bf b5 8a e1 3e eb 80 ad 39 ee 98 db be
       -1.0732375 0.44051138 0.00033093183 -0.42890114
000130 be 2c 29 3e 3a 37 17 3f 14 85 96 3c b4 b5 c4 bd
       0.16520974 0.59068644 0.018374003 -0.096049696
000140 97 32 42 ba 6f 8e 03 ba 4c bf 3f 3e 36 71 ac ba
       -0.0007408051 -0.00050184777 0.18725318 -0.0013156298
000150 3c 6d 39 3e 54 ab 02 ba 9d dd 31 be 6c 30 87 ba
       0.18108076 -0.00049846363 -0.17369695 -0.0010314113
000160 4a 09 ce be fd 6a 5e 3e 33 05 18 3b a4 f4 a8 be
       -0.40241462 0.217205 0.0023196458 -0.32999146
000170 1e 50 8c ba 83 07 a6 ba 11 cd 1f 3d 3e a7 01 ba
       -0.0010705029 -0.0012667034 0.039013926 -0.00049458805
000180 d7 66 8d bf a0 63 72 3f 9c 42 54 ba 41 34 c2 b9
       -1.1047009 0.94683266 -0.0008097084 -0.00037041496
000190 d4 5e 39 bf fb d9 32 be a2 10 48 3f 92 bf 09 bf
       -0.7241032 -0.17465965 0.7815038 -0.5380794
0001a0 9c 00 96 bf bf 4c 3b 3d 11 6b c0 39 45 a6 22 be
       -1.1718936 0.045727488 0.00036700864 -0.1588374
0001b0 0a 37 f0 3e b9 46 a5 be 44 cd 85 3e 3c 91 9b be
       0.4691699 -0.3228052 0.26133168 -0.30384243
0001c0 24 bf b6 39 aa 1c c2 3a 1a 84 37 be 6d 1c 8c 39
       0.00034856156 0.0014809568 -0.17921486 0.0002672406
0001d0 cb 6d 88 bf 4b 76 32 bb e6 47 6a bc ca 8d 0c b9
       -1.0658506 -0.0027231153 -0.0142993685 -0.00013404261
0001e0 ac 2c e8 be ff 0e e7 bd 80 2f 0c 3b cd 4c 95 bd
       -0.45346582 -0.11282157 0.0021390617 -0.07290039
0001f0 df 64 9a b8 18 3f de 39 19 04 bb 3d 68 03 12 ba
       -7.362081e-05 0.00042390148 0.09131641 -0.00055699656
000200 18 e7 ef bf 13 42 01 3f c8 9b 7e 39 ca 1a 55 ba
       -1.8742399 0.50491446 0.0002428136 -0.0008129297
000210 03 38 a0 bd b5 7e d5 be 0c bb 3e 3f 5d be 13 bf
       -0.078231834 -0.41698232 0.7450416 -0.57712346
000220 71 7c 37 3e dc 59 0e 3e d4 da 7b 39 c6 78 c2 3d
       0.17918564 0.13901466 0.00024018745 0.09495692
000230 df 90 f7 bd e1 40 bb 3f 34 43 48 3e be 0c c5 be
       -0.12088179 1.4629174 0.19556886 -0.38486284
000240 f0 c8 fe b9 65 6f 6f 3a fe c9 0d bf ec 86 20 3b
       -0.00048596365 0.00091337255 -0.5538634 0.0024494482
000250 a2 a6 01 3e 9e d4 ba ba cc 42 dc be bd e5 10 39
       0.12661222 -0.0014254039 -0.43019712 0.00013818494
000260 6a c2 88 3d e5 86 4c 3e 1b ac 3f b9 b0 ba 5e 3e
       0.066777065 0.19973333 -0.00018279294 0.21750903
000270 d6 9d 0f 3a 62 62 8c b8 4a 61 a0 3e 2c 3f db b8
       0.00054785365 -6.6940454e-05 0.31324226 -0.000104545004
000280 a1 ee 50 3f 38 ac 17 bf c4 7a fb 39 86 ec 08 ba
       0.8161412 -0.5924716 0.00047965918 -0.0005223233
000290 7a 35 1c bf 73 ad 3d bf c1 fa bf be de f2 57 bf
       -0.610191 -0.7409279 -0.37495998 -0.8435496
0002a0 14 e3 4e 3f c1 cc 89 be 05 a1 58 b9 d1 ae 12 3f
       0.80815244 -0.26914027 -0.0002065935 0.57298
0002b0 35 ef 02 3f 91 ea 7a be d3 e4 29 3e 49 31 2c bf
       0.5114625 -0.24503542 0.16591196 -0.67262703
0002c0 13 f4 bf 38 46 8f 20 ba a4 1e c6 be 1e 55 56 bb
       9.153052e-05 -0.0006124865 -0.38695252 -0.0032704542
0002d0 ad ee cc 3e 82 07 80 bb 01 27 99 bf ae 34 7b ba
       0.40025845 -0.003907145 -1.1965028 -0.000958274
0002e0 07 a1 21 3f 09 69 c1 3e 8a 32 c4 ba 92 63 2f 3f
       0.63136333 0.37775448 -0.0014968675 0.6851131
0002f0 07 12 52 39 43 2a 81 b9 f9 4b 6f 3e 91 fd 98 39
       0.00020033876 -0.00024636285 0.23368825 0.0002918062
000300 8c ff fe be 61 90 87 bf 9b 2e 2e 38 a7 e4 39 ba
       -0.49804342 -1.0590936 4.1528237e-05 -0.0007091262
000310 fc 29 b4 bf 81 58 bd bf d3 40 9a bf bd 68 fb bf
       -1.4075313 -1.4792634 -1.2051033 -1.9641339
000320 d1 07 51 be bd 59 dd bd 12 69 e2 b8 f5 ee 4e bf
       -0.20413138 -0.10808132 -0.00010796091 -0.8083337
000330 2d 6d 2b 3f a6 d3 85 3e 97 74 38 3e 78 96 02 be
       0.66963464 0.26138037 0.18013225 -0.12752712
000340 3a a9 34 3a b1 13 a7 3a bd 57 46 3f 8a 58 96 b9
       0.0006891672 0.0012746957 0.7747763 -0.00028676196
000350 36 95 1e bf 2e 98 85 bb b9 4f d6 bf 8c 41 e0 b9
       -0.6194643 -0.004076979 -1.674308 -0.00042773446
000360 bf 8d 0b be 69 de 47 3e 11 96 e7 3a 10 d0 ba be
       -0.1362829 0.19518436 0.0017668625 -0.36486864
000370 5a b8 02 3a 6f c6 10 ba ec 09 40 bf 82 5d 96 b9
       0.0004986577 -0.0005522733 -0.7501514 -0.00028679898
000380 bd 1b 3a 3e 0e d2 28 be 33 55 4d 39 00 87 00 3a
       0.18174644 -0.1648638 0.00019582063 0.0004902929
000390 34 65 ca be fc ee 88 be f3 62 46 3f 66 6e 52 bd
       -0.39530337 -0.2674483 0.77494735 -0.051374815
0003a0 9c 95 a0 be dc e6 cf 3e 92 4b 07 ba ca c3 2d bf
       -0.31364143 0.4060582 -0.0005161102 -0.67876875
0003b0 10 e3 86 3e dd be 31 3f 59 24 07 bf 44 27 01 bf
       0.2634511 0.6943186 -0.5278984 -0.5045054
0003c0 df 6e 06 b7 54 cb f4 3a 8f 37 89 be 17 ba e1 b9
       -8.012837e-06 0.0018676319 -0.268002 -0.00043053992
0003d0 67 07 15 c0 5d 93 60 ba 1e de be bd 41 36 7c 39
       -2.3285768 -0.0008566881 -0.09319709 0.00024052804
0003e0 e5 9c 3e 3d 7c 4b f6 be 83 29 66 39 5e b3 01 bf
       0.046536345 -0.48104465 0.00021949974 -0.5066432
0003f0 74 31 12 3a c7 66 6f b9 c2 4a 8e 3f 89 ec ad b9
       0.0005576827 -0.00022831104 1.1116564 -0.00033173364

model.2.bias f4 [16]
000000 ef 48 ae 3d ab 42 81 3e 1e 7f 3a 3e 21 cb 3e 3e
       0.08510005 0.25246176 0.18212554 0.18632175
000010 d6 37 ce 3d 7f f2 34 3e c1 e8 45 3f a6 59 80 3e
       0.100692436 0.1767063 0.7730828 0.25068396
000020 f2 a5 8b bd 9e 13 e9 ba 5f 10 fa ba 91 78 92 3e
       -0.06818761 -0.0017782336 -0.0019078365 0.2860761
000030 c7 52 39 3e 1f 4c 84 3e 64 74 78 3e e5 78 52 3c
       0.18097983 0.25839326 0.2426315 0.012846206

model.4.weight f4 [3, 16]
000000 b0 02 d7 3f 09 d2 ca 3f da bc 37 c0 d2 30 84 c0
       1.6797695 1.5845348 -2.8709016 -4.1309595
000010 97 62 1d c0 91 26 9e c0 aa b8 fc c0 29 24 47 c0
       -2.4591424 -4.942208 -7.897542 -3.111582
000020 d9 91 9e bf ba c1 c3 b8 81 69 59 39 79 fd 0b 40
       -1.2388259 -9.334409e-05 0.00020734036 2.1873457
000030 90 60 b8 3e 15 ec 36 40 07 f6 82 3f 5d 05 09 c0
       0.3601117 2.8581593 1.0231332 -2.1409523
000040 77 9f cf bf 24 da 18 c0 77 94 7f bf 63 f2 6e be
       -1.622054 -2.3883142 -0.99835914 -0.2333465
000050 59 d8 23 3f 26 6b 6d 40 a1 63 c6 40 b1 d3 ee be
       0.64001995 3.7096648 6.1996617 -0.46645883
000060 e6 11 bc be 85 e3 32 bb 9b 68 8f b9 3f 70 86 3f
       -0.36732405 -0.0027296257 -0.00027353023 1.0503005
000070 08 07 98 c0 0a 27 b5 bf 4f 3c 8b c0 a2 d8 c7 3f
       -4.7508583 -1.4152539 -4.351112 1.5612986
000080 a0 6a 67 bf 23 98 52 bf ac c6 39 40 66 3a 55 40
       -0.9039707 -0.8226339 2.902751 3.3316894
000090 fe 79 b7 3f f4 11 90 bf 1c 17 83 c0 a0 64 28 40
       1.4334104 -1.1255479 -4.096571 2.6311417
0000a0 40 31 9b 3f 3b 12 ad ba 63 6a 36 3a 5e 97 5d c0
       1.2124405 -0.0013204286 0.0006958602 -3.4623637
0000b0 0b d5 67 3f 81 f0 18 c0 80 f0 6b 3e 5f 66 ca bd
       0.9055945 -2.3896792 0.23040962 -0.09882807

model.4.bias f4 [3]
000000 0f 52 b5 3e ca 6f 7b 3e b2 6a fe be
       0.35414168 0.24554363 -0.49690777

exp_avg f4 [32, 25]
000000 fb 4f 5d 3c 8f cc f8 3b a5 4d 2b 3c f2 51 91 3c
       0.013507838 0.0075927447 0.010455524 0.01773927
000010 a4 da a9 3c de 96 50 3c 7b ca 15 3c c0 ae 08 3c
       0.020734139 0.012731282 0.009142513 0.008342445
000020 18 a1 9d 3c b9 d8 af 3c b3 49 b2 3c 7e 29 b5 3c
       0.019241855 0.021465646 0.021763658 0.022114512
000030 47 36 a0 3c 20 e3 b8 3c 7c df db 3c 4d 64 cf 3c
       0.019557131 0.02256924 0.026839964 0.025316382
000040 66 7c bf 3c bb 0e ac 3c 4d d6 b7 3c 9b 36 bb 3c
       0.023374747 0.021003118 0.022441054 0.022853186
000050 c7 f9 b0 3c 79 ee b7 3c 5b 0d be 3c 2d 46 b8 3c
       0.021603478 0.02245258 0.023199728 0.0224944
000060 97 3f bd 3c f4 db 88 bc d3 88 82 bc 2a 48 e5 bc
       0.023101611 -0.016706444 -0.015934383 -0.027988512
000070 51 f9 07 bd 07 c8 0f bd 04 50 83 bc 1d 75 dc bc
       -0.03319675 -0.03510287 -0.016029365 -0.026911313
000080 bd 04 f4 bc f7 0d 12 bd 6b b1 1c bd ef 7e 1c bd
       -0.029787416 -0.03565785 -0.038255136 -0.03820699
000090 bb 44 1b bd 3b ae 15 bd a0 ae 15 bd 3c bd 26 bd
       -0.037907343 -0.036543112 -0.03654349 -0.04070781
0000a0 6c 68 1e bd 9e dd 2d bd 00 8c 0b bd f9 b1 04 bd
       -0.038673803 -0.04244768 -0.03406906 -0.03239629
0000b0 37 9a 0c bd 33 ca 2b bd 14 65 24 bd 37 15 12 bd
       -0.03432676 -0.04194088 -0.040135458 -0.035664763
0000c0 69 55 04 bd e8 5f 09 bd 04 00 00 00 04 00 00 00
       -0.032308016 -0.03353873 6e-45 6e-45
0000d0 04 00 00 00 04 00 00 00 04 00 00 00 04 00 00 00
       6e-45 6e-45 6e-45 6e-45
0000e0 04 00 00 00 04 00 00 00 04 00 00 00 04 00 00 00
       6e-45 6e-45 6e-45 6e-45
0000f0 04 00 00 00 04 00 00 00 04 00 00 00 04 00 00 00
       6e-45 6e-45 6e-45 6e-45
000100 04 00 00 00 04 00 00 00 04 00 00 00 04 00 00 00
       6e-45 6e-45 6e-45 6e-45
000110 04 00 00 00 04 00 00 00 04 00 00 00 04 00 00 00
       6e-45 6e-45 6e-45 6e-45
000120 04 00 00 00 04 00 00 00 04 00 00 00 04 00 00 00
       6e-45 6e-45 6e-45 6e-45
000130 04 00 00 80 04 00 00 00 04 00 00 00 04 00 00 00
       -6e-45 6e-45 6e-45 6e-45
000140 04 00 00 00 04 00 00 00 04 00 00 00 04 00 00 00
       6e-45 6e-45 6e-45 6e-45
000150 04 00 00 00 04 00 00 00 04 00 00 00 04 00 00 00
       6e-45 6e-45 6e-45 6e-45
000160 04 00 00 00 04 00 00 00 04 00 00 00 04 00 00 00
       6e-45 6e-45 6e-45 6e-45
000170 04 00 00 00 04 00 00 00 04 00 00 00 04 00 00 00
       6e-45 6e-45 6e-45 6e-45
000180 04 00 00 00 04 00 00 00 04 00 00 00 04 00 00 00
       6e-45 6e-45 6e-45 6e-45
000190 22 ef ec bb 7f ad ec bb 0a 79 87 bc 93 da d4 bc
       -0.0072306553 -0.007222831 -0.016537208 -0.02598313
0001a0 36 90 e8 bc 3b 9d fa bb 1b 23 7a bc 96 d6 af bc
       -0.028389078 -0.007648138 -0.015267159 -0.021464627
0001b0 e1 62 d4 bc b1 69 e3 bc ce 59 b6 bc ac 4b bd bc
       -0.025926055 -0.027760359 -0.02225962 -0.023107372
0001c0 7a ba d4 bc 11 93 d7 bc 46 06 e4 bc 55 ae c9 bc
       -0.025967825 -0.026315244 -0.027835023 -0.02461926
0001d0 3b 22 c5 bc 02 5d d9 bc 1c 5d ea bc a6 0f e3 bc
       -0.024064174 -0.026533607 -0.028608851 -0.027717423
0001e0 30 1c c2 bc 08 bf cd bc 01 e1 cc bc 39 01 dd bc
       -0.023695081 -0.025115505 -0.025009634 -0.026978122
0001f0 fa fd e9 bc 38 5b 58 3c 39 5b db 3b 09 cd b0 3b
       -0.028563488 0.013205342 0.006694224 0.005395536
000200 e7 83 c6 3b a3 7d bc 3b 1b bc 66 3c 3a 31 3b 3c
       0.0060582045 0.0057522818 0.014082934 0.011425311
000210 63 2b c9 3b e3 b9 df 3b 48 3a cc 3b 0c ad 4c 3c
       0.0061392053 0.0068275793 0.0062325336 0.012492429
000220 88 a5 2d 3c 1f f5 c4 3b 11 7d 07 3c f7 c0 0d 3c
       0.010598548 0.006010666 0.008269564 0.008651963
000230 23 c3 52 3c ee 76 55 3c 16 10 38 3c 2f 61 30 3c
       0.012863907 0.013028843 0.011234304 0.010765358
000240 61 97 35 3c 21 6f ce 3b 96 de f4 3b 75 a9 4b 3c
       0.011083455 0.0062998687 0.0074728234 0.012430538
000250 39 06 5b 3c 0b 45 46 3c 0e c8 ad ba f0 b3 87 bc
       0.013368183 0.012101422 -0.0013258473 -0.016565293
000260 17 c3 9e bc 92 67 b6 bc ca 79 a2 bc df 14 26 bb
       -0.019380135 -0.022266183 -0.019833464 -0.002534203
000270 7c d4 06 bc 0f c3 b4 bc 91 48 cc bc 4b 49 d8 bc
       -0.008229371 -0.022065667 -0.024936946 -0.026402136
000280 7f c7 d9 ba f1 5e e6 bb cb 7c e7 bc 15 24 09 bd
       -0.0016615241 -0.007030361 -0.028257748 -0.033481676
000290 d4 ea 06 bd 26 75 84 3c 2e 88 4a 3c 53 06 d7 bb
       -0.032938793 0.016169142 0.012361569 -0.006562033
0002a0 d7 3b fa bc 1a 21 10 bd 0a 2b 18 3b 21 1f d9 bb
       -0.030546112 -0.035187818 0.0023219013 -0.0066260253
0002b0 a5 a1 14 bc b5 4a 26 bc 5e 58 d1 bb 0d 02 81 3d
       -0.009071742 -0.0101496475 -0.006388708 0.06299219
0002c0 40 33 81 3d 3d 46 3f 3d a8 3d 08 3d 65 06 00 3d
       0.06308603 0.046697844 0.033261925 0.0312561
0002d0 2d 9c 7b 3d 02 f2 4b 3d cf 16 22 3d 85 8c 05 3d
       0.061428238 0.049791344 0.039572533 0.032604713
0002e0 55 55 0a 3d 74 cb 05 3d cf 37 09 3d 73 0d ed 3c
       0.033772785 0.03266473 0.03350049 0.028937077
0002f0 b9 66 e4 3c 64 8a d3 3c b8 8b 9b 3c 6c cd 96 3c
       0.027881013 0.025822826 0.018987522 0.0184085
000300 7a 5d c3 3c b1 5a de 3c 91 c8 d8 3c 73 61 84 3c
       0.023848284 0.027142854 0.026462825 0.016159749
000310 e1 f1 89 3c 7e e4 ca 3c 66 ed c2 3c e5 5e b4 3c
       0.01683897 0.024767157 0.023794841 0.022017905
000320 49 3f 9f bb 65 f0 f5 bb e9 76 af 3c ee e3 1a 3d
       -0.004859839 -0.007505464 0.021419005 0.037815027
000330 fd fe 1c 3d f3 77 80 bb 07 51 b3 3c 5f c1 12 3d
       0.038329113 -0.003920549 0.021889223 0.035828944
000340 95 3f 16 3d 87 c4 1e 3d 97 7d 21 3d 19 37 16 3d
       0.03668173 0.03876164 0.039426412 0.03667364
000350 88 24 17 3d 6f 6a 1e 3d 38 63 24 3d df 69 ac 3c
       0.036900073 0.03867572 0.040133685 0.021046577
000360 87 08 b1 3c e1 83 95 3c 99 55 01 3d 22 87 1c 3d
       0.021610511 0.018251361 0.031575773 0.03821481
000370 83 8f b4 3c 4e 1c b6 3c 5d db a6 3c d7 c0 93 3c
       0.022041088 0.022230294 0.020368272 0.01803629
000380 2c e7 6c 3c 3b f6 23 3c fc 4f 2a 3c 1d 9d 20 3c
       0.014459413 0.010007436 0.010395046 0.009803084
000390 93 30 10 3c 51 81 f7 3b 22 25 31 3c 9d f4 2f 3c
       0.0088006435 0.0075532575 0.010812076 0.010739473
0003a0 2b 04 18 3c 0d 7c de 3b 38 8a c6 3b 92 8e 29 3c
       0.0092783375 0.0067896903 0.0060589574 0.010348933
0003b0 25 5a 25 3c 95 c9 eb 3b ab 4e cf 3b af 21 cc 3b
       0.010092293 0.0071956613 0.0063265166 0.0062296013
0003c0 3e d5 db 3b 14 17 d8 3b 2c 5d d4 3b 71 bf d3 3b
       0.00670877 0.006594548 0.0064808335 0.0064620306
0003d0 66 e1 e3 3b a5 c3 e7 3b 8d cf c6 3b ef 5b d1 3b
       0.00695436 0.007072883 0.0060672224 0.006389133
0003e0 f5 cd d4 3b f5 11 e6 3b 00 00 00 00 00 00 00 00
       0.0064942786 0.0070211836 0.0 0.0
0003f0 00 00 00 00 00 00 00 00 00 00 00 00 04 00 00 00
       0.0 0.0 0.0 6e-45

exp_avg_sq f4 [32, 25]
000000 73 7f 0b 3d 7b 2b 0b 3d 47 ea 09 3d bb 65 08 3d
       0.034057092 0.033977013 0.03367069 0.033300143
000010 2e 0c 0b 3d 4f 64 0d 3d 74 69 03 3d 30 e9 ee 3c
       0.033947162 0.03451949 0.03208299 0.029163927
000020 ec 84 02 3d 39 72 09 3d 50 58 0a 3d bf 17 ec 3c
       0.031865045 0.033556197 0.033775628 0.028819917
000030 d9 07 ba 3c 34 f2 d7 3c 86 60 fa 3c 5d b5 04 3d
       0.02270882 0.026360609 0.030563604 0.032399524
000040 12 40 ec 3c ef 6a cf 3c 84 dd d9 3c 41 b6 f1 3c
       0.028839145 0.025319545 0.026594885 0.02950585
000050 32 b8 f7 3c 7b 3a e5 3c e4 ad dc 3c 8a da db 3c
       0.030239198 0.027981987 0.026938386 0.026837606
000060 99 68 e6 3c 63 e3 ec 3c 3b f5 fa 3c 31 72 11 3d
       0.028126048 0.02891702 0.030634513 0.035509292
000070 ab c0 27 3d 34 7b 30 3d a9 b2 ef 3c 5d 2a ef 3c
       0.040955227 0.043086246 0.029259996 0.029195005
000080 6f ed 0c 3d 42 03 2c 3d b7 5f 36 3d 4a d9 15 3d
       0.03440612 0.041995294 0.044524875 0.036584176
000090 b6 7b 13 3d 0a 3f 14 3d 73 df 23 3d 6e 16 26 3d
       0.03600665 0.03619293 0.04000802 0.040548734
0000a0 5f bc 1b 3d 8b f5 1b 3d b9 f2 09 3d 50 9d e7 3c
       0.03802144 0.038075965 0.033678744 0.028273255
0000b0 3a 60 ed 3c 26 44 1d 3d 42 27 1a 3d 08 c6 08 3d
       0.028976548 0.03839507 0.037635095 0.033391982
0000c0 d7 fc ea 3c 0a 9d e7 3c f4 01 00 00 f4 01 00 00
       0.028685017 0.028273124 7e-43 7e-43
0000d0 f4 01 00 00 f4 01 00 00 f4 01 00 00 f4 01 00 00
       7e-43 7e-43 7e-43 7e-43
0000e0 f4 01 00 00 f4 01 00 00 f4 01 00 00 f4 01 00 00
       7e-43 7e-43 7e-43 7e-43
0000f0 f4 01 00 00 f4 01 00 00 f4 01 00 00 f4 01 00 00
       7e-43 7e-43 7e-43 7e-43
000100 f4 01 00 00 f4 01 00 00 f4 01 00 00 f4 01 00 00
       7e-43 7e-43 7e-43 7e-43
000110 f4 01 00 00 f4 01 00 00 f4 01 00 00 f4 01 00 00
       7e-43 7e-43 7e-43 7e-43
000120 f4 01 00 00 f4 01 00 00 f4 01 00 00 f4 01 00 00
       7e-43 7e-43 7e-43 7e-43
000130 f4 01 00 00 f4 01 00 00 f4 01 00 00 f4 01 00 00
       7e-43 7e-43 7e-43 7e-43
000140 f4 01 00 00 f4 01 00 00 f4 01 00 00 f4 01 00 00
       7e-43 7e-43 7e-43 7e-43
000150 f4 01 00 00 f4 01 00 00 f4 01 00 00 f4 01 00 00
       7e-43 7e-43 7e-43 7e-43
000160 f4 01 00 00 f4 01 00 00 f4 01 00 00 f4 01 00 00
       7e-43 7e-43 7e-43 7e-43
000170 f4 01 00 00 f4 01 00 00 f4 01 00 00 f4 01 00 00
       7e-43 7e-43 7e-43 7e-43
000180 f4 01 00 00 f4 01 00 00 f4 01 00 00 f4 01 00 00
       7e-43 7e-43 7e-43 7e-43
000190 fe 0f 9c 3c b4 10 93 3c e7 ae a0 3c fe 93 bc 3c
       0.019050594 0.0179523 0.01961465 0.023019787
0001a0 29 73 d0 3c 4c cf a7 3c 41 d1 98 3c ed 88 a2 3c
       0.025445538 0.020484589 0.018654468 0.019840682
0001b0 3a 77 d0 3c f8 ea f0 3c 16 25 b6 3c 08 fc b3 3c
       0.025447477 0.029408917 0.02223448 0.021970764
0001c0 6d bd cb 3c 20 a3 03 3d 3d 94 0c 3d cc 8f bd 3c
       0.024870599 0.03213799 0.03432106 0.023139857
0001d0 f0 dc c5 3c d2 0f e3 3c 12 3e 02 3d 84 c2 08 3d
       0.024153203 0.027717505 0.031797476 0.03338863
0001e0 f6 88 c5 3c 85 8e ce 3c 55 23 e8 3c 4b 82 fe 3c
       0.02411316 0.025214443 0.02833716 0.031067988
0001f0 2c 2a 06 3d 37 fb 21 3c 67 e0 14 3c 1d 86 06 3c
       0.032755062 0.009886554 0.009086705 0.008210686
000200 50 0f 0a 3c 4b 3f 11 3c 9d 67 32 3c 27 41 20 3c
       0.008426502 0.008865188 0.010888961 0.0097811585
000210 d9 82 0e 3c f2 3e 16 3c 5f 56 28 3c 1b 1c 58 3c
       0.008698189 0.009170281 0.010274499 0.013190295
000220 e2 2c 58 3c 7a be 5e 3c ed 58 57 3c 69 54 59 3c
       0.013194295 0.013595218 0.01314376 0.013264754
000230 4a 1b 61 3c 93 80 66 3c 9a d5 6d 3c 28 1f 6a 3c
       0.013739416 0.01406874 0.014516259 0.014289655
000240 6c 2a 66 3c 84 2c 5e 3c 16 ea 63 3c 2e 82 67 3c
       0.0140482 0.013560418 0.013910791 0.014130158
000250 11 39 67 3c 47 bb 68 3c 4d c3 b7 3d db a8 ae 3d
       0.014112727 0.014204807 0.089727975 0.085283004
000260 1a d1 9a 3d 8b 7c 86 3d 7c 0e 84 3d 47 2c c0 3d
       0.07559414 0.065667234 0.06448075 0.09383445
000270 74 06 b4 3d aa 3f 97 3d 84 1b 8b 3d 99 02 9a 3d
       0.08790293 0.0738519 0.067923576 0.07520027
000280 16 c7 b9 3d 85 98 b3 3d d8 2d aa 3d 8a 8f bd 3d
       0.09071176 0.08769325 0.08309525 0.092558935
000290 7a 4f c4 3d 6e ce 97 3d 82 16 83 3d 3a f5 88 3d
       0.095854715 0.0741242 0.064007774 0.06687398
0002a0 01 1c ae 3d 91 5f c5 3d d0 70 84 3d 8e 0f 79 3d
       0.08501435 0.096373685 0.0646683 0.06080585
0002b0 4a 98 86 3d f2 8e a1 3d b9 22 b7 3d a5 13 0b 3d
       0.065720156 0.07888593 0.0894217 0.03395428
0002c0 ad 7a 10 3d 5e df 21 3d 50 e0 31 3d 39 3b 39 3d
       0.035273243 0.03951966 0.04342681 0.045222495
0002d0 97 7d 04 3d c3 0b 09 3d 0d 47 1d 3d 3b eb 32 3d
       0.032346334 0.033458482 0.038397837 0.043681365
0002e0 71 34 3d 3d 21 10 f5 3c 26 d5 f2 3c 6a aa 0e 3d
       0.04619259 0.029914917 0.029642653 0.03483049
0002f0 7d 1b 2e 3d 8f 18 3a 3d 42 83 d9 3c 0c dc d0 3c
       0.042506684 0.045433577 0.026551846 0.025495552
000300 f4 df e4 3c f5 c3 11 3d 14 4a 22 3d 9b bc cc 3c
       0.02793882 0.03558727 0.039621428 0.024992278
000310 ae 5e ca 3c 0f 97 e7 3c 4b 7d 0a 3d 5e 5a 1a 3d
       0.02470335 0.028270273 0.033810895 0.037683837
000320 a4 6c 75 3d a5 6e 73 3d 69 ca 7b 3d 6a 71 7a 3d
       0.05991806 0.05943169 0.06147233 0.061143316
000330 6c f1 76 3d 86 07 78 3d a2 4e 80 3d 23 b2 86 3d
       0.06028883 0.06055405 0.06264998 0.06576946
000340 ab 48 84 3d 07 1b 82 3d 48 71 8f 3d 70 55 94 3d
       0.06459173 0.06352811 0.070040286 0.072428584
000350 0b 35 a7 3d e7 4e 94 3d 9c ed 8d 3d 34 d7 86 3d
       0.08164414 0.07241612 0.06930086 0.065840155
000360 17 f1 86 3d 48 c4 8f 3d 07 b2 89 3d 4f 1c 88 3d
       0.06588953 0.070198596 0.06723409 0.066460244
000370 dc 8d 81 3d 60 f9 7f 3d 48 14 84 3d 3e 2d 84 3d
       0.06325886 0.062493682 0.06449181 0.06453942
000380 6d 3c 85 3d f0 8d 04 3b b1 fe 05 3b ce 06 fe 3a
       0.06505666 0.0020226203 0.0020445997 0.001938069
000390 64 cd d3 3a bc 9c a9 3a 9d 8d 01 3b ae 96 03 3b
       0.0016159234 0.0012940387 0.0019768246 0.0020078826
0003a0 c3 9e ef 3a 91 2e aa 3a 2f 4b 9f 3a 72 64 d7 3a
       0.0018281568 0.0012983849 0.0012153144 0.0016433133
0003b0 2e 49 d9 3a dc 4e c1 3a 78 80 d5 3a 94 ae d7 3a
       0.0016577595 0.0014748233 0.0016288897 0.0016455227
0003c0 d0 01 90 3a 24 fe 7e 3a 4a 9f 98 3a af 27 d3 3a
       0.0010986868 0.0009727201 0.0011644152 0.0016109849
0003d0 4b 5e e2 3a 88 6d 87 3a 7d 41 87 3a 00 df 9c 3a
       0.0017270533 0.0010332325 0.00103192 0.0011968315
0003e0 41 ec c4 3a 5a 3d d6 3a 00 00 00 00 00 00 00 00
       0.0015024022 0.0016345188 0.0 0.0
0003f0 00 00 00 00 00 00 00 00 00 00 00 00 f4 01 00 00
       0.0 0.0 0.0 7e-43

exp_avg f4 [32]
000000 7d 7a 2a 3d ef f7 2e bd 04 00 00 00 04 00 00 00
       0.04162072 -0.042716917 6e-45 6e-45
000010 54 68 16 bd 65 71 9b 3c 69 44 08 3a df 97 37 3d
       -0.03672059 0.01897497 0.0005198182 0.04482257
000020 a7 ba 26 3d b6 b7 41 3c 04 00 00 00 21 37 2f 3c
       0.04070535 0.011823585 6e-45 0.010694296
000030 ab 89 3e bb 32 8a 64 bb ab 14 01 bc cf a0 12 3c
       -0.0029073756 -0.003487241 -0.007878463 0.008949473
000040 04 00 00 00 04 00 00 00 d4 a2 78 3b 04 00 00 00
       6e-45 6e-45 0.003793885 6e-45
000050 e5 d0 d1 3d 04 00 00 00 46 7c 02 bd 04 00 00 00
       0.102449216 6e-45 -0.031856798 6e-45
000060 c6 1d f5 bb 0b 41 2d bc 04 00 00 00 0f 28 58 3d
       -0.007480356 -0.0105745895 6e-45 0.052772578
000070 04 00 00 00 04 00 00 00 2a fc 18 bd 04 00 00 00
       6e-45 6e-45 -0.037349857 6e-45

exp_avg_sq f4 [32]
000000 42 ed b9 3d 32 9f c1 3d f4 01 00 00 f4 01 00 00
       0.090784565 0.09454192 7e-43 7e-43
000010 b1 c3 81 3d 13 84 df 3c 12 0a 66 3e 99 20 b4 3d
       0.06336153 0.027284658 0.22464779 0.0879528
000020 36 f8 2d 3e 9b cf a2 3b f4 01 00 00 12 16 1b 3d
       0.16989216 0.004968596 7e-43 0.037862845
000030 22 6e 07 3b 6e ce 6e 3c 09 39 af 3b 42 6f 93 3c
       0.002066501 0.014575584 0.0053473753 0.017997388
000040 f4 01 00 00 f4 01 00 00 33 1e b2 3b f4 01 00 00
       7e-43 7e-43 0.005435729 7e-43
000050 cd 22 11 3e f4 01 00 00 b1 31 dd 3d f4 01 00 00
       0.14173432 7e-43 0.108004935 7e-43
000060 07 6f 14 3d 9a fb a8 3b f4 01 00 00 96 36 4e 3d
       0.036238696 0.0051569464 7e-43 0.050345026
000070 f4 01 00 00 f4 01 00 00 01 ce fb 3d f4 01 00 00
       7e-43 7e-43 0.122951515 7e-43

exp_avg f4 [16, 32]
000000 2e 02 9f bb e5 84 b0 bb 00 00 00 00 04 00 00 00
       -0.0048525548 -0.005386936 0.0 6e-45
000010 2f 36 cb bb 3f cd a0 bb 9b da 9e ba 29 20 0a 3b
       -0.0062015275 -0.0049072797 -0.0012119593 0.0021076298
000020 0d dd 85 ba b0 e4 87 3a 04 00 00 00 5d 91 89 bc
       -0.0010212973 0.0010367837 6e-45 -0.016792947
000030 67 89 a4 b7 9f 50 94 37 8c c8 89 bb e7 22 8e 39
       -1.9614306e-05 1.7680517e-05 -0.0042048153 0.00027110355
000040 04 00 00 00 04 00 00 80 ef a8 7d b7 04 00 00 80
       6e-45 -6e-45 -1.5119308e-05 -6e-45
000050 4c bc 4b bb 04 00 00 00 a7 e9 94 bc 04 00 00 80
       -0.0031087575 6e-45 -0.01817782 -6e-45
000060 3f 04 94 bb 1f 4e c3 ba 04 00 00 00 81 70 27 ba
       -0.0045171077 -0.0014900601 6e-45 -0.0006387309
000070 04 00 00 00 04 00 00 80 ea 39 42 bc 00 00 00 00
       6e-45 -6e-45 -0.011854628 0.0
000080 d6 01 9e ba b8 b6 d6 ba 04 00 00 80 04 00 00 00
       -0.001205499 -0.0016381359 -6e-45 6e-45
000090 a7 f9 0c bb f6 18 b9 ba ed 98 b7 3b a9 d7 36 3b
       -0.002151111 -0.0014121819 0.005602947 0.002789954
0000a0 a9 41 60 3a 38 3d 60 3b 04 00 00 00 a1 a0 03 bb
       0.0008554706 0.0034216177 6e-45 -0.0020084756
0000b0 47 30 56 b8 59 cf 4d 36 14 fe bc ba 72 d0 59 3a
       -5.1066538e-05 3.0668073e-06 -0.0014418983 0.0008308954
0000c0 04 00 00 80 04 00 00 80 1f 83 ac b9 04 00 00 80
       -6e-45 -6e-45 -0.0003290409 -6e-45
0000d0 f3 a0 3d bb 04 00 00 00 32 b0 1a bb 04 00 00 00
       -0.0028935045 6e-45 -0.0023603556 6e-45
0000e0 ac 62 4a ba ed 1c ad ba 04 00 00 00 3d 35 54 3a
       -0.0007720392 -0.0013207473 6e-45 0.00080950913
0000f0 04 00 00 00 04 00 00 80 cf 47 98 ba 04 00 00 00
       6e-45 -6e-45 -0.001161808 6e-45
000100 ec 3a 0f bb 96 f2 70 bb 00 00 00 00 04 00 00 80
       -0.0021855189 -0.0036765686 0.0 -6e-45
000110 2e 57 44 3b 59 c0 bf 3b 72 82 31 3b df 3d 24 ba
       0.002995919 0.005851787 0.0027085808 -0.0006265323
000120 21 8b d3 3a 64 06 5e 3b 04 00 00 00 67 ac af b9
       0.0016139486 0.003387832 6e-45 -0.0003350705
000130 19 78 b9 38 7c 86 11 b8 11 ab 3f bb be a9 fd b9
       8.843857e-05 -3.4695942e-05 -0.002924625 -0.00048382388
000140 04 00 00 00 04 00 00 80 81 e9 a4 3a 04 00 00 80
       6e-45 -6e-45 0.0012581797 -6e-45
000150 96 ff c2 39 04 00 00 80 4c 2c 03 3b 04 00 00 00
       0.0003719299 -6e-45 0.0020015417 6e-45
000160 9b 33 c5 3a 18 56 f6 b9 04 00 00 00 3d 05 37 ba
       0.0015045287 -0.0004698492 6e-45 -0.00069816766
000170 04 00 00 00 04 00 00 00 42 72 92 ba 04 00 00 00
       6e-45 6e-45 -0.0011172967 6e-45
000180 a1 5a 9d ba 19 26 b9 bb 04 00 00 00 04 00 00 80
       -0.0012005159 -0.0056502935 6e-45 -6e-45
000190 1d 57 99 ba 3a 06 62 39 1f f4 bf 3a 58 9e 11 bb
       -0.0011698935 0.00021555359 0.0014644897 -0.0022219624
0001a0 32 6a 7e 3a 18 fd b4 b9 04 00 00 00 68 e0 9e ba
       0.00097051554 -0.00034520845 6e-45 -0.0012121322
0001b0 a6 a3 f6 b8 09 ac 9f b7 86 09 35 bb 9c 37 96 b8
       -0.00011760676 -1.9034387e-05 -0.0027624085 -7.1629154e-05
0001c0 04 00 00 00 04 00 00 80 10 96 76 b9 04 00 00 80
       6e-45 -6e-45 -0.00023516291 -6e-45
0001d0 b2 61 4e ba 04 00 00 80 0e 64 7d bb 04 00 00 00
       -0.0007872834 -6e-45 -0.0038664374 6e-45
0001e0 5d 98 0a ba f6 07 ac b9 04 00 00 00 ba 6b 4a ba
       -0.0005286986 -0.00032812328 6e-45 -0.0007721741
0001f0 04 00 00 80 04 00 00 00 4f a3 be bb 04 00 00 00
       -6e-45 6e-45 -0.0058178077 6e-45
000200 45 70 3d ba e1 06 00 bb 04 00 00 00 04 00 00 80
       -0.00072265073 -0.001953535 6e-45 -6e-45
000210 3c 8a 6f ba b9 e6 90 bb 4a ca 54 bc 17 ad 47 bc
       -0.0009137725 -0.0044220355 -0.012987683 -0.012187264
000220 75 50 9c bb a3 32 ef bb 00 00 00 00 4f 2f dd b9
       -0.0047703334 -0.0072997375 0.0 -0.00042187652
000230 2a 4c 64 b7 19 90 96 b8 38 b6 1f ba 8c 41 45 bb
       -1.3607592e-05 -7.179398e-05 -0.00060925214 -0.0030098883
000240 04 00 00 00 04 00 00 00 5c 6d 2a ba 04 00 00 80
       6e-45 6e-45 -0.0006501281 -6e-45
000250 37 3a 84 3a 04 00 00 80 97 49 60 b9 04 00 00 80
       0.001008815 -6e-45 -0.00021389719 -6e-45
000260 24 4a e8 ba 3a 7d be b8 04 00 00 00 68 51 c0 bb
       -0.0017722291 -9.083231e-05 6e-45 -0.0058690794
000270 00 00 00 00 04 00 00 00 ea 04 0f bb 00 00 00 00
       0.0 6e-45 -0.0021822997 0.0
000280 56 4d f2 bb 7c 33 83 3c 04 00 00 00 04 00 00 80
       -0.007394473 0.01601576 6e-45 -6e-45
000290 42 0f a0 3a 16 0e 61 3b f4 8e 76 bb 79 46 b8 bb
       0.0012211578 0.0034340671 -0.0037621828 -0.0056236354
0002a0 15 3f 10 3c 3e f2 54 ba 04 00 00 80 de 10 2c ba
       0.008804102 -0.0008123255 -6e-45 -0.00065637927
0002b0 36 6f d9 37 54 74 fb b8 95 b1 a1 b8 6b 92 d8 b8
       2.5920202e-05 -0.000119902805 -7.7101555e-05 -0.00010326955
0002c0 04 00 00 00 04 00 00 80 f7 ad 91 b7 04 00 00 00
       6e-45 -6e-45 -1.7366356e-05 6e-45
0002d0 f6 d9 2c bc 04 00 00 80 30 c9 26 3a 04 00 00 80
       -0.010550013 -6e-45 0.0006362377 -6e-45
0002e0 41 d9 39 3c c1 41 75 ba 04 00 00 80 15 38 fa 3b
       0.011343301 -0.00093558064 -6e-45 0.00763608
0002f0 04 00 00 80 04 00 00 00 e3 03 2a 3c 04 00 00 00
       -6e-45 6e-45 0.010376903 6e-45
000300 c9 d6 ed b8 b6 fe 11 b9 04 00 00 80 04 00 00 00
       -0.000113410475 -0.00013923165 -6e-45 6e-45
000310 09 ec 60 b5 8d a6 07 b9 03 39 8c bb e0 64 57 bb
       -8.378998e-07 -0.00012936648 -0.0042792573 -0.0032866523
000320 98 82 92 ba 09 a7 7a ba 04 00 00 80 94 19 6f b9
       -0.0011177836 -0.00095616333 -6e-45 -0.00022802345
000330 4d 09 18 b7 03 d0 c3 b7 5c d8 1a bb 96 03 71 b6
       -9.0620715e-06 -2.3342674e-05 -0.0023627495 -3.5913886e-06
000340 04 00 00 00 04 00 00 80 ef c8 61 b3 04 00 00 00
       6e-45 -6e-45 -5.2569643e-08 6e-45
000350 08 2d 2c bb 04 00 00 00 8d 56 78 b9 04 00 00 80
       -0.0026271958 6e-45 -0.00023683366 -6e-45
000360 61 48 0f b9 5e b1 06 b9 04 00 00 80 24 28 00 bb
       -0.00013664506 -0.0001284531 -6e-45 -0.0019555176
000370 04 00 00 80 04 00 00 80 41 ec 81 b8 00 00 00 00
       -6e-45 -6e-45 -6.195205e-05 0.0
000380 44 f8 fa 3b 22 7f 02 bc 00 00 00 00 04 00 00 80
       0.00765899 -0.007964881 0.0 -6e-45
000390 e5 34 0b 3b ac e6 4d 3b 5a 45 15 bc 7b 11 a5 bc
       0.0021241244 0.0031418009 -0.009110773 -0.020149937
0003a0 4d 00 26 bc 82 0e 2f bc 00 00 00 00 af af ea 3c
       -0.010131908 -0.010684611 0.0 0.028648226
0003b0 9b b8 b4 b8 05 57 94 37 41 88 ac bb 05 ad 7c bb
       -8.617454e-05 1.7683496e-05 -0.005265266 -0.0038555276
0003c0 04 00 00 00 04 00 00 00 8c 4e 20 b9 04 00 00 80
       6e-45 6e-45 -0.0001528805 -6e-45
0003d0 fb ad 00 ba 04 00 00 80 ff d6 b8 3c 04 00 00 00
       -0.00049087376 -6e-45 0.022563456 6e-45
0003e0 66 d6 a3 bb d4 76 12 3a 04 00 00 00 f0 44 84 bc
       -0.0049999235 0.0005587165 6e-45 -0.016146153
0003f0 00 00 00 00 04 00 00 80 45 27 7a 3c 04 00 00 00
       0.0 -6e-45 0.015268152 6e-45

exp_avg_sq f4 [16, 32]
000000 dd b7 8e 39 01 f9 ea 39 00 00 00 00 f4 01 00 00
       0.0002722134 0.0004481748 0.0 7e-43
000010 e9 10 fd 39 01 21 30 39 89 8a 17 3a 13 6f f8 3a
       0.0004826852 0.00016796963 0.0005780836 0.0018954001
000020 ab bb 9b 38 77 fe 15 39 f4 01 00 00 f6 f0 ba 3a
       7.425932e-05 0.00014304543 7e-43 0.0014262486
000030 6a 42 6a 37 8b c0 eb 34 b9 7e 1a 3a bb 43 75 39
       1.396295e-05 4.3912254e-07 0.0005893517 0.00023390252
000040 f4 01 00 00 f4 01 00 00 dc 01 dd 35 f4 01 00 00
       7e-43 7e-43 1.6466324e-06 7e-43
000050 fb 6a 0a 3a f4 01 00 00 f0 d6 f1 3a f4 01 00 00
       0.00052802236 7e-43 0.0018450897 7e-43
000060 89 2b 1b 39 b5 1f 6c 39 f4 01 00 00 c4 e3 0e 3a
       0.0001479817 0.00022518526 7e-43 0.000545081
000070 f4 01 00 00 f4 01 00 00 72 d3 ed 39 00 00 00 00
       7e-43 7e-43 0.00045361702 0.0
000080 85 40 0b 39 5d 2f dd 39 f4 01 00 00 f4 01 00 00
       0.00013280108 0.00042187693 7e-43 7e-43
000090 7e c3 89 3a 18 4a e5 3a 4a 21 0a 3a 94 60 9a 3a
       0.0010510532 0.0017493395 0.00052692427 0.001177805
0000a0 13 1d e9 38 1b 91 cc 38 f4 01 00 00 c4 13 a8 3a
       0.00011115721 9.754506e-05 7e-43 0.0012823273
0000b0 59 ce 8d 37 b5 38 97 34 31 ec be 39 76 d4 05 39
       1.6904598e-05 2.8167202e-07 0.000364156 0.00012763016
0000c0 f4 01 00 00 f4 01 00 00 fc 07 f6 38 f4 01 00 00
       7e-43 7e-43 0.00011731681 7e-43
0000d0 e6 ba 18 39 f4 01 00 00 63 d8 b8 3a f4 01 00 00
       0.00014565475 7e-43 0.0014102574 7e-43
0000e0 8c f6 fb 39 e2 84 83 39 f4 01 00 00 b7 bc dc 39
       0.00048058142 0.00025085273 7e-43 0.00042102273
0000f0 f4 01 00 00 f4 01 00 00 eb 5a f9 39 f4 01 00 00
       7e-43 7e-43 0.0004756072 7e-43
000100 d9 9f 5b 39 2c d0 03 3b 00 00 00 00 f4 01 00 00
       0.00020945015 0.0020113094 0.0 7e-43
000110 f5 69 83 3a 2a ad f5 3a 34 87 c8 3a 76 76 21 3b
       0.0010026084 0.0018743624 0.0015299083 0.0024637259
000120 50 5e e7 38 ef d6 e6 39 f4 01 00 00 8c 28 72 3a
       0.000110325054 0.00044029157 7e-43 0.00092376093
000130 72 9d 83 37 5e 5d cb 37 c5 f4 44 3a 8c 44 97 39
       1.5689733e-05 2.4242963e-05 0.000751328 0.00028852036
000140 f4 01 00 00 f4 01 00 00 35 77 17 39 f4 01 00 00
       7e-43 7e-43 0.0001444489 7e-43
000150 35 6d a7 3a f4 01 00 00 72 05 dc 3a f4 01 00 00
       0.0012773635 7e-43 0.0016786291 7e-43
000160 9f 77 97 39 f6 66 0e 3a f4 01 00 00 81 70 26 3a
       0.0002889009 0.00054322125 7e-43 0.0006349162
000170 f4 01 00 00 f4 01 00 00 f0 01 57 3a f4 01 00 00
       7e-43 7e-43 0.0008201888 7e-43
000180 f4 bd 90 39 2d b9 e4 3a f4 01 00 00 f4 01 00 00
       0.00027607346 0.0017450206 7e-43 7e-43
000190 30 b7 30 3a 5d fe c3 3a 84 b0 03 3b 32 af 1f 3b
       0.0006741164 0.0014953126 0.0020094225 0.00243659
0001a0 f9 3f b2 38 b7 67 68 39 f4 01 00 00 27 35 57 3b
       8.499617e-05 0.00022163881 7e-43 0.0032838078
0001b0 58 5f 16 38 e5 1a 69 37 1c 5e 0e 3a ab f6 c0 39
       3.5851583e-05 1.3894144e-05 0.00054308935 0.00036804876
0001c0 f4 01 00 00 f4 01 00 00 53 07 a5 38 f4 01 00 00
       7e-43 7e-43 7.869177e-05 7e-43
0001d0 20 48 0f 39 f4 01 00 00 d9 c7 87 3b f4 01 00 00
       0.00013664411 7e-43 0.0041436967 7e-43
0001e0 79 86 18 39 cd 3a 93 39 f4 01 00 00 e0 f8 1c 3a
       0.00014545945 0.00028081835 7e-43 0.0005988013
0001f0 f4 01 00 00 f4 01 00 00 fb 9e dd 3a f4 01 00 00
       7e-43 7e-43 0.0016908342 7e-43
000200 62 d3 d7 37 a2 6c 04 3a f4 01 00 00 f4 01 00 00
       2.572843e-05 0.0005051588 7e-43 7e-43
000210 b0 46 b0 3a 77 8b 96 3a 4e ed 9e 3a b3 7f a5 3a
       0.0013448801 0.0011485656 0.0012125166 0.0012626558
000220 d4 55 1f 39 ad 63 81 39 00 00 00 00 58 9a f6 39
       0.00015195395 0.00024679062 0.0 0.0004703577
000230 c3 a6 8b 36 95 a4 bf 35 17 21 39 3a 4a 3d 1d 39
       4.1619364e-06 1.4278509e-06 0.0007062121 0.00014995519
000240 f4 01 00 00 f4 01 00 00 3c c6 85 38 f4 01 00 00
       7e-43 7e-43 6.378858e-05 7e-43
000250 48 3f e5 39 f4 01 00 00 c9 b2 2f 3a f4 01 00 00
       0.00043725432 7e-43 0.0006702361 7e-43
000260 b3 10 92 39 16 39 3a 39 f4 01 00 00 66 f5 07 3a
       0.00027859732 0.00017759608 7e-43 0.00051864085
000270 00 00 00 00 f4 01 00 00 ac a0 ad 39 00 00 00 00
       0.0 7e-43 0.0003311684 0.0
000280 ef 61 84 3a 16 ca 56 3a f4 01 00 00 f4 01 00 00
       0.0010099987 0.00081935653 7e-43 7e-43
000290 1a c6 39 3a ff af bf 39 c4 45 76 3a fd 99 d5 3a
       0.00070867094 0.00036561486 0.0009394551 0.0016296502
0002a0 6f 62 9c 39 ec bd 3e 39 f4 01 00 00 4e df 10 3b
       0.00029827977 0.00018190563 7e-43 0.0022105756
0002b0 44 12 25 38 bb 2d 9b 38 14 6e 80 3a e3 e6 45 38
       3.9356077e-05 7.399494e-05 0.0009798431 4.718349e-05
0002c0 f4 01 00 00 f4 01 00 00 af 2e 11 37 f4 01 00 00
       7e-43 7e-43 8.653543e-06 7e-43
0002d0 c3 dc ad 3a f4 01 00 00 d8 73 dd 3a f4 01 00 00
       0.0013264645 7e-43 0.0016895486 7e-43
0002e0 dc 67 0b 3a 53 43 35 3a f4 01 00 00 06 3f 97 3a
       0.00053179055 0.0006914634 7e-43 0.0011539168
0002f0 f4 01 00 00 f4 01 00 00 7b 24 3d 3a f4 01 00 00
       7e-43 7e-43 0.0007215214 7e-43
000300 cf 86 d1 38 1c 68 da 38 f4 01 00 00 f4 01 00 00
       9.991007e-05 0.00010414442 7e-43 7e-43
000310 a0 ac 1d 38 ea 62 9c 37 b8 f1 38 39 9b 5e 2d 38
       3.7592486e-05 1.864271e-05 0.00017637655 4.1334522e-05
000320 03 3d 62 37 41 61 a8 37 f4 01 00 00 7a ca 2c 39
       1.3484855e-05 2.0072448e-05 7e-43 0.00016478627
000330 65 8c fb 36 1c d3 73 37 9b 36 4f 38 fc cf 4c 36
       7.496727e-06 1.4533081e-05 4.94035e-05 3.0519432e-06
000340 f4 01 00 00 f4 01 00 00 67 c0 5a 35 f4 01 00 00
       7e-43 7e-43 8.149131e-07 7e-43
000350 ad 5f 0e 39 f4 01 00 00 0b 30 96 38 f4 01 00 00
       0.00013577817 7e-43 7.161506e-05 7e-43
000360 3d 96 9f 38 c5 9b 8b 38 f4 01 00 00 6e d2 59 38
       7.609695e-05 6.657051e-05 7e-43 5.193281e-05
000370 f4 01 00 00 f4 01 00 00 88 ad fe 38 00 00 00 00
       7e-43 7e-43 0.000121439865 0.0
000380 ed 98 37 3a b6 11 6f 3a 00 00 00 00 f4 01 00 00
       0.0007003684 0.00091197656 0.0 7e-43
000390 dc ab 10 3b 81 b0 92 3b a4 d5 29 3b a9 70 5c 3b
       0.0022075092 0.0044766073 0.0025914693 0.0033636487
0003a0 90 8a 3d 39 44 96 b2 39 00 00 00 00 53 ef 15 3b
       0.00018076063 0.00034062762 0.0 0.0022878244
0003b0 c2 2e b2 38 4e 0a c8 37 58 a9 11 3a a4 43 bc 39
       8.496411e-05 2.3846656e-05 0.0005556545 0.0003590855
0003c0 f4 01 00 00 f4 01 00 00 24 04 87 39 f4 01 00 00
       7e-43 7e-43 0.00025752292 7e-43
0003d0 f7 ed ae 37 f4 01 00 00 66 4e 2f 3b f4 01 00 00
       2.0853227e-05 7e-43 0.002674961 7e-43
0003e0 52 88 90 3a b1 ec 34 39 f4 01 00 00 05 bb 81 3a
       0.0011026955 0.00017254312 7e-43 0.0009897655
0003f0 00 00 00 00 f4 01 00 00 48 ce 27 3b f4 01 00 00
       0.0 7e-43 0.002560513 7e-43

exp_avg f4 [16]
000000 bb 62 89 bc 5d de 09 bc b8 9a 7c ba b3 d0 8d bc
       -0.016770711 -0.008414832 -0.0009636092 -0.01731143
000010 a1 af ab bc bc 5f be bb d1 e5 b8 bc f8 33 63 bc
       -0.02095777 -0.0058097523 -0.022570523 -0.013867371
000020 e9 f8 9e 3c 04 00 00 00 04 00 00 00 15 ff 20 3d
       0.019405799 6e-45 6e-45 0.039305765
000030 8b cd ff b9 46 c2 80 bb 98 87 9c bc bf 89 df 3b
       -0.00048790532 -0.003929409 -0.019107625 0.0068218405

exp_avg_sq f4 [16]
000000 3f e2 11 3c c7 c0 19 3c d3 1e be 3c 78 2d ed 3c
       0.008904039 0.009384341 0.023208058 0.028952345
000010 23 e8 2d 3c 5d e7 c0 3c 49 70 20 3c 32 a2 cb 3c
       0.010614428 0.023547823 0.009792396 0.024857614
000020 4e d9 66 3b f4 01 00 00 f4 01 00 00 6f 95 f3 3c
       0.0035224739 7e-43 7e-43 0.029734341
000030 99 98 86 3c 77 25 b1 3c 42 63 11 3c 4b b9 fb 3b
       0.016430186 0.02162431 0.008873763 0.0076820008

exp_avg f4 [3, 16]
000000 ca 21 87 bb 8c 33 6c b9 62 4b 59 39 dc 67 e9 39
       -0.004123901 -0.00022525917 0.00020722815 0.00044518604
000010 11 07 4b 3a f3 cd 9d 3a 0e be 84 38 0f 0d 3f ba
       0.00077448884 0.0012039527 6.329651e-05 -0.00072880177
000020 34 13 0e ba 04 00 00 80 04 00 00 00 80 13 98 3a
       -0.00054197316 -6e-45 6e-45 0.0011602491
000030 6e de 4e bb c9 b0 28 ba be cc a0 ba 20 b9 cc ba
       -0.0031565684 -0.00064350344 -0.0012268049 -0.0015619136
000040 12 31 de 3a 1a 6b 16 3a 29 ac cd 39 77 79 f5 39
       0.001695188 0.0005738005 0.00039228916 0.0004682054
000050 15 7f 17 3b ec d5 cd 3a 19 fe 5d b9 f4 b6 b3 3a
       0.0023116518 0.0015704012 -0.00021170861 0.001371114
000060 b9 e9 42 ba 04 00 00 00 04 00 00 00 df bf 00 3b
       -0.000743534 6e-45 6e-45 0.0019645614
000070 07 0f 5a 39 49 73 96 39 d5 da 43 3a f9 cf 23 3b
       0.00020795698 0.00028696124 0.0007471268 0.0024995788
000080 0c 2b 1f 3b 2a bc b6 b9 d7 28 1d ba a0 70 6f ba
       0.0024287133 -0.00034853938 -0.00059951603 -0.0009133909
000090 d8 40 4a bb ec d1 35 bb ba 9f 1b 39 d2 60 28 ba
       -0.0030861404 -0.0027743531 0.00014841455 -0.0006423119
0000a0 78 7e a8 3a 04 00 00 00 04 00 00 80 99 c9 4c bb
       0.0012855073 6e-45 -6e-45 -0.0031248091
0000b0 8b 3d 41 3b 5e ee ba 39 87 7d fb 39 a4 cd 75 ba
       0.0029486145 0.00035654282 0.00047967976 -0.0009376651

exp_avg_sq f4 [3, 16]
000000 d1 66 4f 39 41 1f ae 38 56 4f 85 37 d8 59 5c 37
       0.0001977936 8.302788e-05 1.589178e-05 1.313394e-05
000010 1a a2 c4 37 45 1a 1a 37 b1 a8 86 34 6e 96 4a 38
       2.3440505e-05 9.185232e-06 2.5082184e-07 4.830065e-05
000020 53 9f 7f 38 f4 01 00 00 f4 01 00 00 6f f6 4e 38
       6.094512e-05 7e-43 7e-43 4.9343736e-05
000030 9e 52 ed 39 07 6f 20 38 9d f5 11 39 b7 09 3a 38
       0.00045265717 3.8250375e-05 0.00013919776 4.4354903e-05
000040 07 db 21 38 ae a1 0c 37 cf 89 1d 37 88 98 16 37
       3.8589376e-05 8.382294e-06 9.390015e-06 8.976211e-06
000050 65 0f e6 37 57 6f 18 38 73 98 cb 36 60 b8 1e 38
       2.7425305e-05 3.6343317e-05 6.067619e-06 3.7841848e-05
000060 60 e7 2e 38 f4 01 00 00 f4 01 00 00 36 45 b2 37
       4.1700318e-05 7e-43 7e-43 2.1251482e-05
000070 1e eb 02 38 93 24 0b 37 c4 75 0d 37 a8 0e c3 38
       3.1213385e-05 8.293561e-06 8.431674e-06 9.3010545e-05
000080 cf 3a 4c 39 77 b5 a4 38 93 ea cb 37 5d db b3 37
       0.00019476864 7.85393e-05 2.4308718e-05 2.1440612e-05
000090 ef c8 3c 38 9d 75 1e 38 83 45 cc 36 52 c8 ad 38
       4.5009827e-05 3.777967e-05 6.087766e-06 8.2865954e-05
0000a0 a7 b3 bf 38 f4 01 00 00 f4 01 00 00 29 f3 2c 38
       9.1410526e-05 7e-43 7e-43 4.1234456e-05
0000b0 56 f6 f2 39 91 26 09 38 74 13 0d 39 6c d2 db 38
       0.00046341371 3.2699263e-05 0.00013454055 0.00010481928

exp_avg f4 [3]
000000 0c d6 95 bb bf 3c 68 3b eb de 86 3a
       -0.0045726355 0.0035436598 0.0010289823

exp_avg_sq f4 [3]
000000 2a 0a d4 3a 40 38 3d 3a d4 1a ee 3a
       0.0016177346 0.000721816 0.0018165954

loss f8 []
000000 33 33 37 3a 08 77 b1 3f
       0.06822253628997714
