18_no_regu_epoch_edge_detector.pth (torch, 25382 bytes, 19 tensors)

model.0.weight f4 [32, 25]
-0.011100735 -0.012226598 -0.008713651 -0.00737938 -0.0048197773 -0.009891444 -0.013940323 -0.014205291
-0.002938926 -0.0023549248 -0.010760172 -0.011876023 -0.011304409 0.0025167733 -0.0016002784 -0.010024024
-0.013509029 -0.01076759 -0.001391141 -0.0068346304 -0.006721512 -0.009752142 -0.008158635 -0.0043357653
-0.0045136465 0.021806046 0.033556223 0.041729074 -0.013598827 0.010541572 -0.25125793 0.033935543
0.4430586 0.22189087 -0.28065565 -0.43826485 -0.2655495 0.9064709 -0.10082677 -0.4844416
-0.25265017 0.07101002 0.3953833 0.11561153 -0.30926767 0.08272141 -0.019363733 0.038830306
-0.017033843 0.021023417 -0.0041140695 0.1521657 0.11924742 0.078152195 0.15885612 0.24330223
0.14724411 0.08796951 0.06735727 -0.06611921 -0.065402046 -0.28691515 -0.59110314 -0.48518312
-0.32328978 -0.033402015 -0.10426077 0.07922255 -0.029186103 -0.026283978 0.09129489 0.2423259
0.3648587 0.12925605 0.08914212 0.18830626 0.10735946 0.05697461 0.16991763 0.2943729
0.24667284 -0.17486967 -0.4353144 -0.07009728 0.41773918 0.4817469 -0.42987126 -0.5961209
-0.23733997 0.3848245 0.27410343 0.023723371 -0.071078494 -0.28389052 -0.03718783 -0.008514734
-0.14256841 -0.034312736 -0.079148956 -0.1206675 -0.038986903 -0.068266444 -0.034478214 -0.05981041
0.20761184 -0.045347527 0.22667377 -0.008805381 -0.1895533 0.33197907 -0.15133274 0.6760591
-0.15770581 -1.0451456 0.0016432825 0.04131042 0.21408536 -0.057510674 -0.094278984 0.22187826
-0.088613115 0.0735901 0.08024911 -0.11034572 0.04242055 0.047554914 -0.08190732 -0.04910495
0.08093266 -0.037075218 -0.1531951 0.15020677 0.35287958 0.097944394 -0.1144985 0.15664166
0.37450537 0.71478313 0.09551301 -0.07230429 0.032064423 -0.42735186 -0.5280941 -0.79416287
-0.15870526 0.043890677 0.14110823 0.11147506 0.08485488 -0.03766498 -0.008112355 -0.01523364
-0.012598692 -0.0024810163 -0.0025687926 -0.0029359038 -0.02454054 -0.033107378 -0.008904278 -0.004912695
-0.007599208 -0.004445681 0.014218512 -0.017791659 -0.024522869 -0.017073538 -0.004573094 0.0021886232
-0.004734739 -0.012716044 -0.011265443 -0.0053603947 0.0011522465 -0.0046434123 -0.0077803372 0.19915968
-0.21771035 0.05822773 -0.011643168 0.07752683 -0.013527394 -0.1181263 -0.5728601 -0.2936157
0.062819414 0.058018632 0.03534422 -4.615977 -0.15543287 0.15816571 0.12861177 -0.009670899
-0.8954524 -0.1720254 0.1905834 0.15139972 -0.12268184 0.08798487 -0.070890546 0.103533946
-0.06357167 -0.03749681 0.122671366 0.025894549 0.081525385 -0.11864224 0.076570176 -0.07257156
0.1585806 0.08765678 0.013805494 0.07047992 -6.269183 -0.29089072 0.07277235 0.24980877
-0.25662622 -0.75660336 -0.20016815 -0.12562057 -0.23078465 0.011549549 -0.42158133 0.21365525
0.04180921 -0.005270548 -0.009602677 -0.014506963 -0.021685312 -0.02060292 -0.005007435 0.0043549733
-0.004824714 -0.025833912 -0.024683606 -0.010945373 0.006785564 -0.01059241 -0.032538418 -0.024207784
-0.009924211 -0.0020037026 -0.01520182 -0.02876066 -0.020505775 -0.001878847 0.0022902845 -0.009429111
-0.021448389 -0.024466932 0.2049477 0.3293626 0.3590916 0.1882449 0.105976 0.24383102
00000000: dbdf 35bc 1252 48bc b4c3 0ebc bace f1bb
00000010: 39ef 9dbb b90f 22bc f465 64bc 4fbd 68bc
00000020: ff9a 40bb 1555 1abb 6f4b 30bc a793 42bc
00000030: 2136 39bc 73f0 243b 6fc0 d1ba ce3b 24bc
00000040: f954 5dbc 8c6a 30bc f256 b6ba 09f5 dfbb
00000050: 2140 dcbb 73c7 1fbc ccab 05bc 0913 8ebb
00000060: 36e7 93bb 98a2 b23c 4072 093d 1bec 2a3d
00000070: 9dcd 5ebc 8fb6 2c3c e1a4 80be ffff 0a3d
00000080: 94d8 e23e 5c37 633e 19b2 8fbe 4064 e0be
00000090: 1bf6 87be 7a0e 683f 447e cebd bb08 f8be
000000a0: 5d5b 81be b46d 913d ae6f ca3e bdc5 ec3d
000000b0: 5558 9ebe d869 a93d b1a0 9ebc 870c 1f3d
000000c0: 8f8a 8bbc 4d39 ac3c 51cf 86bb 53d1 1b3e
000000d0: fe37 f43d 420e a03d 2eab 223e 3824 793e
000000e0: 29c7 163e 5c29 b43d 9cf2 893d 8269 87bd
000000f0: 82f1 85bd 8be6 92be 8952 17bf ec69 f8be
00000100: 3d86 a5be 8dd0 08bd ac86 d5bd 6f3f a23d
00000110: b217 efbc 7f51 d7bc d1f8 ba3d 4824 783e
00000120: c2ce ba3e b35b 043e 2590 b63d 5bd3 403e
00000130: 47df db3d 355e 693d e3fe 2d3e 0bb8 963e
00000140: ce97 7c3e 0911 33be 87e1 debe 2a8f 8fbd
00000150: e9e1 d53e 88a7 f63e 1618 dcbe 619b 18bf
00000160: 4009 73be b807 c53e 4957 8c3e 8457 c23c
00000170: 9a91 91bd 195a 91be 4452 18bd 6281 0bbc
00000180: 74fd 11be 838b 0cbd d918 a2bd 8620 f7bd
00000190: bbb0 1fbd 47cf 8bbd 0739 0dbd c3fb 74bd
000001a0: 3398 543e 54be 39bd 2b1d 683e 7244 10bc
000001b0: 431a 42be 29f9 a93e f8f6 1abe 3612 2d3f
000001c0: a27d 21be 55c7 85bf 6963 d73a 1d35 293d
000001d0: 3139 5b3e 5090 6bbd 5715 c1bd 0e34 633e
000001e0: cb7a b5bd 68b6 963d a559 a43d f0fc e1bd
000001f0: 2cc1 2d3d f1c8 423d 06bf a7bd 4622 49bd
00000200: 06c0 a53d 2fdc 17bd 2ddf 1cbe cecf 193e
00000210: a2ac b43e 1297 c83d 317e eabd ac66 203e
00000220: 2bbf bf3e 07fc 363f 539c c33d 4614 94bd
00000230: fc55 033d ddcd dabe 2d31 07bf 424e 4bbf
00000240: a283 22be b6c6 333d ad7e 103e 094d e43d
00000250: 65c8 ad3d 9846 1abd afe9 04bc 8496 79bc
00000260: bf6a 4ebc 8c98 22bb 3059 28bb 4b68 40bb
00000270: 3e09 c9bc 9a9b 07bd 40e3 11bc acfa a0bb
00000280: c702 f9bb 13ad 91bb c3f4 683c d0bf 91bc
00000290: 2fe4 c8bc cedd 8bbc e5d9 95bb 016f 0f3b
000002a0: df25 9bbb f456 50bc b192 38bc 40a6 afbb
000002b0: fa06 973a c427 98bb 33f2 febb 84f0 4b3e
000002c0: 76ef 5ebe 3380 6e3d fcc2 3ebc 63c6 9e3d
000002d0: 01a2 5dbc 34ec f1bd f6a6 12bf cc54 96be
000002e0: 77a7 803d f2a4 6d3d 1ac5 103d 15b6 93c0
000002f0: cb29 1fbe 31f6 213e ceb2 033e b172 1ebc
00000300: 5e3c 65bf 6d27 30be 4b28 433e 8708 1b3e
00000310: 9e40 fbbd 6931 b43d 102f 91bd 9b09 d43d
00000320: dd31 82bd 4196 19bd 203b fb3d ce20 d43c
00000330: c8f6 a63d b4fa f2bd d3d0 9c3d 66a0 94bd
00000340: f462 223e 6685 b33d 7030 623c c757 903d
00000350: 269d c8c0 a1ef 94be ab09 953d dfcd 7f3e
00000360: 8364 83be c2b0 41bf e1f8 4cbe aea2 00be
00000370: d052 6cbe 523a 3d3c 82d9 d7be 71c8 5a3e
00000380: 2240 2b3d 90b4 acbb 8c54 1dbc 9dae 6dbc
00000390: 65a5 b1bc 74c7 a8bc 6915 a4bb 2ab4 8e3b
000003a0: a218 9ebb a4a1 d3bc 4635 cabc 3954 33bc
000003b0: 7059 de3b ca8b 2dbc 0147 05bd 674f c6bc
000003c0: 2899 22bc 8d50 03bb 0e11 79bc 7a9b ebbc
000003d0: bafb a7bc a543 f6ba 9918 163b 8f7c 1abc
000003e0: 88b4 afbc e06e c8bc cfdd 513e 37a2 a83e
000003f0: dbda b73e 45c3 403e f209 d93d d7ae 793e

model.0.bias f4 [32]
-0.0031044856 -0.016392294 -0.1512007 -0.052626014 -0.0064535043 -0.0025818944 -0.0035965876 0.037647728
0.033182904 -0.012356446 -0.0700233 -0.0012430218 -0.05506496 -0.014316926 -0.047635783 -0.033681925
0.018517675 0.11271313 -0.072992116 -0.0008299464 0.042147595 -0.075799845 -0.083203815 0.059130196
-0.049554277 0.0401747 0.12023391 0.052487448 -0.0055873683 -0.0017856766 -0.0027963398 -0.0053120875
00000000: a074 4bbb 2249 86bc 5bd4 1abe 608e 57bd
00000010: eb77 d3bb 0035 29bb bab4 6bbb 8134 1a3d
00000020: ccea 073d b172 4abc 6068 8fbd e4ec a2ba
00000030: cc8b 61bd 8a91 6abc bd1d 43bd 0ff6 09bd
00000040: 61b2 973c 24d6 e63d e47c 95bd c390 59ba
00000050: f5a2 2c3d f33c 9bbd c366 aabd 8132 723d
00000060: 6df9 4abd 3a8e 243d 323d f63d 14fd 563d
00000070: 3e16 b7bb 5d0d eaba cc42 37bb 0511 aebb

model.2.weight f4 [16, 32]
0.00691224 -1.0854669 0.42313826 0.75712734 -0.23566118 -0.43425345 -0.018855572 0.6947381
1.5490738 -0.00010412975 0.88662565 0.0004909711 0.7907274 -0.33882472 0.76038915 0.045374714
0.85918933 -0.30048504 -0.7064373 0.0013782635 0.46623817 0.19254807 0.113698505 -0.19831342
-0.8660756 0.7658656 -0.28824753 0.36295137 -0.04343246 -0.0015299411 0.00018780443 -0.0015214683
0.0040423083 0.22765721 -0.34513918 -0.47236803 -0.37986514 1.1422222 0.0025012544 -0.51448303
-1.1223658 0.00055043894 0.08383232 -0.007617738 -0.31007916 1.3860381 -0.48853374 0.49282017
-0.21903391 0.6371871 -0.49842882 -0.006945051 -0.19304807 -0.635793 -0.5633639 0.073192544
0.58538747 -0.43526295 1.099825 -0.26943675 0.45403993 -0.0011284134 0.00021161711 -0.0015202191
-0.00093359844 -1.1511523 0.10725529 -0.46286523 0.49073434 0.43494534 -0.008244391 -0.5919114
-1.2887222 0.00057389366 -0.18522044 -0.0012028198 0.23707157 -0.5016221 -0.49039775 0.010487298
-0.6024285 0.4837325 0.6759879 0.0049125734 -0.35437864 -0.31444898 -0.17383902 0.41427785
0.78073806 -0.61310804 0.1613523 -0.24053311 0.23979647 -8.587416e-05 0.0006891488 0.0002055982
0.005210081 0.57477677 0.26662615 0.40175375 -0.2551943 -1.686334 0.0007614201 0.5664808
1.2887924 0.020383762 0.2023616 -0.000255602 -0.23175439 -1.6302673 0.7190557 0.08866188
0.712517 -0.4796483 -1.6043712 -0.011103306 0.5816982 -0.1948728 0.7665278 -0.042269662
-0.32616696 0.4863941 -0.39234227 0.57084024 -0.16531457 -0.00026145673 -0.00014907587 -0.005126925
-0.0045365565 -0.97854084 0.054947235 0.5903853 -0.20755748 -0.658038 0.029227892 0.68798864
1.4334422 -0.017523415 -0.2962934 -0.0034469215 -0.21915483 -0.16453932 0.51032823 -0.11711125
1.2246408 0.14406036 -0.13177884 -0.0012088631 0.81951433 0.28117472 0.36540207 0.2605201
-0.22952096 0.8117451 0.39956048 0.6866368 0.10659469 -0.00043940902 -0.00013772526 0.00549614
-0.0020016972 -1.2050412 -0.122065656 -0.5574433 -0.323904 -0.6223356 0.0070432858 0.86403674
0.96909606 0.008359268 -0.20034294 -0.0003455713 -0.15741338 -0.7874759 -0.25348732 -1.0197899
0.8138915 0.09436012 -1.4399538 -0.011146012 0.11324432 -0.46253133 -0.74769676 -0.13160358
-0.9003251 0.6627213 0.122203045 0.29414237 -0.9376746 0.0005969268 -0.00087729667 -0.0072898306
-0.005269611 -1.6017774 0.23831075 -0.36346155 0.40014493 -0.050438665 -0.009954292 -0.5814113
-0.96005887 -0.0026872158 -0.13339217 0.0008710827 -0.0061589004 -0.39471328 -0.31358182 -0.016405085
-0.735485 -0.015257672 0.7478578 0.0041265986 -0.45979777 0.0029038982 -0.10010183 0.3250291
1.0775055 -0.54777384 -0.00071310933 -0.26905602 0.09115645 0.0005925748 -0.00067292334 -0.0012876192
-0.000992895 -1.2080687 0.14319105 -0.3766004 0.3924606 -0.04425641 2.9268792e-06 -0.57297975
-1.0094974 -0.0068038483 -0.02789721 -0.0010407342 -0.0575833 0.02950443 -0.414052 0.23879202
-0.795335 0.0039619072 0.71794295 0.0055782474 -0.43169677 -0.1690949 -0.30194122 0.29988423
1.1279776 -0.60063004 0.14834976 -0.27395716 0.07799728 -0.0012304483 -0.0027358015 -0.00022531334
00000000: 1280 e23b 94f0 8abf 94a5 d83e 19d3 413f
00000010: 2a51 71be 7856 debe 0077 9abc 5bda 313f
00000020: 0d48 c63f 3c60 dab8 e6f9 623f 83b4 003a
00000030: 1c6d 4a3f 6f7a adbe dda8 423f d6da 393d
00000040: d5f3 5b3f 2dd9 99be 13d9 34bf d9a6 b43a
00000050: c5b6 ee3e 522b 453e c3da e83d ac12 4bbe
00000060: 21b7 5dbf c50f 443f 2e95 93be c3d4 b93e
00000070: 3ce6 31bd 4e88 c8ba 5eed 4439 016c c7ba
00000080: 5775 843b f91e 693e 15b6 b0be 39da f1be
00000090: af7d c2be 5634 923f 16ec 233b 29b5 03bf
000000a0: afa9 8fbf 554b 103a 48b0 ab3d 389e f9bb
000000b0: b2c2 9ebe b269 b13f 1821 fabe ed52 fc3e
000000c0: 6d4a 60be b21e 233f 1032 ffbe 4f93 e3bb
000000d0: 65ae 45be 54c3 22bf 9e38 10bf f9e5 953d
000000e0: f4db 153f c9da debe 11c7 8c3f 9df3 89be
000000f0: ec77 e83e 45e7 93ba 89e5 5d39 1742 c7ba
00000100: bbbc 74ba f558 93bf a9a8 db3d acfc ecbe
00000110: 8841 fb3e 28b1 de3e 7b13 07bc 8187 17bf
00000120: d9f4 a4bf 5a71 163a 6daa 3dbe efa7 9dba
00000130: e4c2 723e 4e6a 00bf 6a15 fbbe ead2 2b3c
00000140: c138 1abf c9ab f73e 8b0d 2d3f a7f9 a03b
00000150: 1e71 b5be 75ff a0be db02 32be 3a1c d43e
00000160: 73de 473f a6f4 1cbf 8a39 253e 504e 76be
00000170: 358d 753e 5717 b4b8 fea7 343a d995 5739
00000180: 54b9 aa3b 9224 133f 3983 883e abb2 cd3e
00000190: d4a8 82be cbd9 d7bf 0a9a 473a e304 113f
000001a0: 26f7 a43f d9fb a63c e137 4f3e 5202 86b9
000001b0: 0651 6dbe 99ac d0bf 0914 383f 5c94 b53d
000001c0: 8467 363f 7694 f5be 095c cdbf a4ea 35bc
000001d0: 2cea 143f bc8c 47be 2a3b 443f f422 2dbd
000001e0: 5bff a6be a608 f93e 16e1 c8be 9622 123f
000001f0: 3948 29be 2114 89b9 4051 1cb9 c4ff a7bb
00000200: 65a7 94bb a781 7abf 5a10 613d 7e23 173f
00000210: f389 54be 2e75 28bf 556f ef3c 0620 303f
00000220: 097b b73f 448d 8fbc c5b3 97be bfe5 61bb
00000230: 206a 60be ff7c 28be dfa4 023f 06d8 efbd
00000240: 08c1 9c3f 8f84 133e 08f1 06be b772 9eba
00000250: b1cb 513f 22f6 8f3e fb15 bb3e e462 853e
00000260: 8b07 6bbe 87ce 4f3f 3193 cc3e 6ec7 2f3f
00000270: 514e da3d 7b60 e6b9 586a 10b9 f718 b43b
00000280: e82e 03bb ca3e 9abf 8ffd f9bd 9bb4 0ebf
00000290: bfd6 a5be 6351 1fbf 5dcb e63b 8331 5d3f
000002a0: ae16 783f 50f5 083c b326 4dbe cb2d b5b9
000002b0: f930 21be 0598 49bf 17c9 81be 7a88 82bf
000002c0: 315b 503f e13f c13d 6850 b8bf c39d 36bc
000002d0: a3ec e73d e8d0 ecbe 0e69 3fbf 17c3 06be
000002e0: b57b 66bf 1aa8 293f 9745 fa3d d499 963e
000002f0: 710b 70bf 147b 1c3a 62fa 65ba 88df eebb
00000300: b3ac acbb 0b07 cdbf bc07 743e a217 babe
00000310: ccdf cc3e c698 4ebd 5417 23bc 5fd7 14bf
00000320: 6bc6 75bf 001c 30bb f597 08be 5f59 643a
00000330: 9ad0 c9bb dc17 cabe cc8d a0be f563 86bc
00000340: bf48 3cbf 51fb 79bc 9c73 3f3f 6b38 873b
00000350: 9d6a ebbe 544f 3e3b 3002 cdbd 376a a63e
00000360: b3eb 893f e83a 0cbf f5ef 3aba b6c1 89be
00000370: 3cb0 ba3d 0657 1b3a 1f67 30ba 55c5 a8ba
00000380: 0724 82ba ffa1 9abf ada0 123e c5d1 c0be
00000390: 99f0 c83e 3646 35bd 676b 4436 cdae 12bf
000003a0: 3637 81bf d1f2 debb b188 e4bc 3f69 88ba
000003b0: 77dc 6bbd 46b3 f13c a0fe d3be e585 743e
000003c0: 139b 4bbf e3d2 813b 1ccb 373f bbc9 b63b
000003d0: 5c07 ddbe 3727 2dbe 0a98 9abe 6d8a 993e
000003e0: 9261 903f e4c2 19bf 00e9 173e 1d44 8cbe
000003f0: 0abd 9f3d fe46 a1ba 224b 33bb 1742 6cb9

model.2.bias f4 [16]
0.117098264 0.010296602 0.12736547 0.4211671 -0.1186477 0.6343368 0.08974575 0.08202863
0.21461564 0.0057049356 0.22083616 0.08129784 0.26326323 -0.0024568052 0.35922593 -0.006497671
00000000: 37d1 ef3d 14b3 283c 186c 023e 37a3 d73e
00000010: 91fd f2bd e663 223f 9fcc b73d a0fe a73d
00000020: 34c4 5b3e 78f0 ba3b e022 623e 7b7f a63d
00000030: 70ca 863e 5a02 21bb 76ec b73e 6aea d4bb

model.4.weight f4 [2, 16]
-2.6085021 2.4804027 1.7395285 -2.1199918 -1.0341669 -5.921376 2.0931082 1.8889091
1.1605288 2.5959342 1.1794391 3.1148226 1.3839076 -0.002709621 -1.8600277 -0.0003226008
2.607774 -2.4803367 -1.736856 2.119686 1.0346972 5.918615 -2.093488 -1.8942357
-1.1640704 -2.5926192 -1.1812605 -3.116098 -1.3857352 0.00049469015 1.862509 -0.00405271
00000000: b3f1 26c0 ebbe 1e40 dfa8 de3f f2ad 07c0
00000010: 955f 84bf ea7b bdc0 7cf5 0540 c6c7 f13f
00000020: 358c 943f c923 2640 dcf7 963f 4159 4740
00000030: e223 b13f e693 31bb 6315 eebf bf22 a9b9
00000040: c5e5 2640 d6bd 1ec0 4c51 debf efa8 0740
00000050: f570 843f 4b65 bd40 b5fb 05c0 5176 f2bf
00000060: 4200 95bf 79ed 25c0 8b33 97bf 266e 47c0
00000070: c55f b1bf 18ae 013a b266 ee3f 98cc 84bb

model.4.bias f4 [2]
-0.1619819 0.16209182
00000000: 95de 25be 66fb 253e

exp_avg f4 [32, 25]
6e-45 6e-45 6e-45 6e-45 6e-45 6e-45 6e-45 6e-45
6e-45 6e-45 6e-45 6e-45 6e-45 6e-45 6e-45 6e-45
6e-45 6e-45 6e-45 6e-45 6e-45 6e-45 6e-45 6e-45
6e-45 -0.021441413 0.007630599 0.0072622015 0.007967687 0.0100096185 -0.028653136 -0.013451549
0.00643878 0.013242367 0.014915493 -0.028703166 -0.028857153 -0.004036817 0.014395674 0.014577597
-0.035924256 -0.03388542 -0.03355314 0.00078079605 0.0068234364 -0.034003444 -0.032290224 -0.037994273
-0.022806965 0.0044839247 -0.0033342496 -0.003339485 -0.003334003 -0.0032082114 -0.0023750882 -0.0033322002
-0.003332274 -0.0033371658 -0.0028762133 -0.002326953 -0.003299861 -0.0033006403 -0.0032862478 -0.0025230648
-0.002294993 -0.0044294745 -0.0044340435 -0.0042523006 -0.0035016153 -0.0034184242 -0.0033192614 -0.0033229142
-0.0033946682 -0.0034756423 -0.0034745976 0.0048458125 0.0048014545 0.0042972825 0.0068614464 0.013296142
0.0048462674 0.0048052357 0.004491938 0.009204366 0.013625374 0.0049961763 0.0049015367 0.0046165907
0.011711974 0.013438233 0.0049455427 0.004460587 0.0053247265 0.0123897 0.013079123 0.011323765
0.011147365 0.011346943 0.012682675 0.01309799 0.022878764 0.023016611 0.023200832 0.022668475
0.022620264 0.024150724 0.024258045 0.024543876 0.02295883 0.022593224 0.023663957 0.023830239
0.02443262 0.022843365 0.022663236 0.031533513 0.03181033 0.031765915 0.03010682 0.03011297
0.031701222 0.0318659 0.031483117 0.030022979 0.030033372 0.0038410597 0.0037447298 0.0037261357
0.0037529513 0.0035806366 0.004177518 0.004156358 0.0041949544 0.0038386998 0.0035391264 0.0038794612
0.003945098 0.0042520044 0.0038693263 0.0039382963 0.0040135495 0.004509243 0.00555807 0.005143332
0.0048535606 0.005193585 0.0053892033 0.0054693227 0.0051270425 0.0048710243 6e-45 6e-45
-6e-45 -6e-45 -6e-45 6e-45 6e-45 6e-45 6e-45 -6e-45
6e-45 6e-45 6e-45 6e-45 -6e-45 6e-45 6e-45 6e-45
6e-45 6e-45 6e-45 6e-45 6e-45 6e-45 6e-45 -9.913343e-07
-2.056919e-07 -4.4206865e-07 3.5029054e-05 5.3543645e-05 -1.5041284e-07 -8.7084004e-08 1.9343355e-07 3.700808e-05
5.362139e-05 -1.4674285e-07 -8.71946e-08 1.7400033e-06 4.2719686e-05 5.362197e-05 -1.4740415e-07 -8.730249e-08
1.9255508e-06 4.4711887e-05 5.3667634e-05 -1.6910634e-07 -8.565117e-08 3.6366287e-06 4.530213e-05 5.4007523e-05
-1.8271237e-06 4.8936563e-06 0.00012747622 0.000160671 0.00016067167 -7.281141e-08 -6.5894085e-08 5.1014824e-05
0.0001608201 0.00016086033 -1.5911349e-10 3.5055403e-25 5.186293e-06 0.00012803337 0.00016088336 -1.290572e-09
-1.0614556e-13 3.6113964e-33 7.98984e-05 0.00016098119 -2.3281164e-09 -1.06845224e-13 -2.7373576e-13 7.779433e-06
0.00014876363 -6e-45 -6e-45 6e-45 -6e-45 -6e-45 6e-45 -6e-45
-6e-45 -6e-45 -6e-45 6e-45 6e-45 -6e-45 -6e-45 -6e-45
6e-45 6e-45 6e-45 -6e-45 6e-45 6e-45 -6e-45 -6e-45
-6e-45 -6e-45 0.0011561667 0.004677709 0.0053910892 0.0053365524 0.005261915 0.0005248108
00000000: 0400 0000 0400 0000 0400 0000 0400 0000
00000010: 0400 0000 0400 0000 0400 0000 0400 0000
00000020: 0400 0000 0400 0000 0400 0000 0400 0000
00000030: 0400 0000 0400 0000 0400 0000 0400 0000
00000040: 0400 0000 0400 0000 0400 0000 0400 0000
00000050: 0400 0000 0400 0000 0400 0000 0400 0000
00000060: 0400 0000 e7a5 afbc 1b0a fa3b c3f7 ed3b
00000070: e78a 023c 62ff 233c fbb9 eabc e363 5cbc
00000080: 67fc d23b 83f6 583c 1d60 743c e722 ebbc
00000090: d665 ecbc 4647 84bb d5db 6b3c e0d6 6e3c
000000a0: 5025 13bd 70cb 0abd 046f 09bd 56ae 4c3a
000000b0: 2297 df3b 3247 0bbd c142 04bd e29f 1bbd
000000c0: acd5 babc e3ed 923b 6d83 5abb 43db 5abb
000000d0: 4a7f 5abb db40 52bb 5ea7 1bbb 0b61 5abb
000000e0: 4862 5abb 5ab4 5abb da7e 3cbb cb7f 18bb
000000f0: 7b42 58bb 8e4f 58bb 175e 57bb 015a 25bb
00000100: 9867 16bb 2025 91bb 744b 91bb e256 8bbb
00000110: 5b7b 65bb a407 60bb f787 59bb 40c5 59bb
00000120: 1579 5ebb 9ac7 63bb 13b6 63bb 9fc9 9e3b
00000130: 8555 9d3b 38d0 8c3b fcd5 e03b 10d8 593c
00000140: 70cd 9e3b 3d75 9d3b 1b31 933b e9cd 163c
00000150: f63c 5f3c f7b6 a33b 129d a03b c546 973b
00000160: 94e3 3f3c 092c 5c3c 380e a23b 1e2a 923b
00000170: 0b7b ae3b 2bfe 4a3c d149 563c 5087 393c
00000180: 70a3 363c 87e8 393c ffca 4f3c f498 563c
00000190: 3f6c bb3c 558d bc3c ac0f be3c 3db3 b93c
000001a0: 224e b93c bdd7 c53c cfb8 c63c 3d10 c93c
000001b0: 2814 bc3c 6d15 b93c eada c13c a237 c33c
000001c0: eb26 c83c 0222 bb3c 40a8 b93c 4929 013d
000001d0: 8c4b 023d fa1c 023d 94a2 f63c 7aaf f63c
000001e0: 24d9 013d d185 023d 71f4 003d c0f2 f53c
000001f0: 8c08 f63c 4aba 7b3b 246a 753b 2f32 743b
00000200: 13f4 753b 1da9 6a3b 90e3 883b 0f32 883b
00000210: d475 893b b292 7b3b b0f0 673b 8f3e 7e3b
00000220: e145 813b 6654 8b3b 8694 7d3b d30c 813b
00000230: 1884 833b 46c2 933b 7820 b63b 6589 a83b
00000240: 9e0a 9f3b f32e aa3b ea97 b03b 0138 b33b
00000250: c000 a83b 1d9d 9f3b 0400 0000 0400 0000
00000260: 0400 0080 0400 0080 0400 0080 0400 0000
00000270: 0400 0000 0400 0000 0400 0000 0400 0080
00000280: 0400 0000 0400 0000 0400 0000 0400 0000
00000290: 0400 0080 0400 0000 0400 0000 0400 0000
000002a0: 0400 0000 0400 0000 0400 0000 0400 0000
000002b0: 0400 0000 0400 0000 0400 0000 fd0d 85b5
000002c0: 29dc 5cb4 7455 edb4 29ec 1238 0d94 6038
000002d0: 2b81 21b4 f002 bbb3 9cb2 4f34 2039 1b38
000002e0: 87e7 6038 5e90 1db4 bd3f bbb3 0f8a e935
000002f0: ea2d 3338 27e8 6038 2546 1eb4 0d7b bbb3
00000300: b638 0136 0689 3b38 2f19 6138 9993 35b4
00000310: 3bef b7b3 ce0c 7436 cb02 3e38 2386 6238
00000320: 7e3b f5b5 3034 a436 23ab 0539 cb79 2839
00000330: f979 2839 7f5c 9cb3 a881 8db3 c0f8 5538
00000340: d1a1 2839 9eac 2839 77f2 2eaf 81fb d816
00000350: eb05 ae36 b240 0639 ccb2 2839 f75f b1b0
00000360: c004 efa9 f402 9609 208f a738 0fcd 2839
00000370: a8fc 1fb1 1498 f0a9 7b19 9aaa 6984 0237
00000380: 6ffd 1b39 0400 0080 0400 0080 0400 0000
00000390: 0400 0080 0400 0080 0400 0000 0400 0080
000003a0: 0400 0080 0400 0080 0400 0080 0400 0000
000003b0: 0400 0000 0400 0080 0400 0080 0400 0080
000003c0: 0400 0000 0400 0000 0400 0000 0400 0080
000003d0: 0400 0000 0400 0000 0400 0080 0400 0080
000003e0: 0400 0080 0400 0080 848a 973a 7847 993b
000003f0: bca7 b03b 3fde ae3b 246c ac3b 7593 093a

exp_avg_sq f4 [32, 25]
7e-43 7e-43 7e-43 7e-43 7e-43 7e-43 7e-43 7e-43
7e-43 7e-43 7e-43 7e-43 7e-43 7e-43 7e-43 7e-43
7e-43 7e-43 7e-43 7e-43 7e-43 7e-43 7e-43 7e-43
7e-43 0.059512388 0.062417254 0.064866535 0.06093457 0.058000643 0.05702108 0.060306117
0.06712869 0.06052074 0.05245512 0.05684624 0.057743367 0.068152 0.053586926 0.052029803
0.057808716 0.05921378 0.057176236 0.053441424 0.052422166 0.057995237 0.053773183 0.054536767
0.04958557 0.050921995 7.5182055e-05 7.999423e-05 7.6496086e-05 6.317434e-05 5.2952542e-05 7.3218594e-05
7.67554e-05 7.463215e-05 5.4367527e-05 3.876051e-05 7.253017e-05 7.114768e-05 5.9231643e-05 3.0369838e-05
2.9135654e-05 7.488524e-05 7.1556715e-05 5.914632e-05 4.5757504e-05 3.4523993e-05 7.068465e-05 6.1525185e-05
6.4348475e-05 5.3949247e-05 4.889416e-05 0.01616092 0.015176718 0.0137693435 0.014690869 0.014665162
0.016280496 0.014697996 0.011300838 0.012810932 0.012965437 0.016973598 0.014514968 0.00900679
0.010250953 0.012265662 0.016669745 0.013462108 0.0073751025 0.008308827 0.0105250245 0.013300275
0.010461488 0.008117116 0.008730447 0.009649938 0.00798736 0.0074664624 0.006176607 0.0053055747
0.004666742 0.00808001 0.007557426 0.005707861 0.0044619706 0.0036892497 0.008352418 0.0075441264
0.0049996087 0.0032016004 0.0032296202 0.008260628 0.0070854705 0.0045910534 0.0035702323 0.0034334087
0.007364985 0.0059678243 0.0045704925 0.0038788093 0.0035303955 0.009382617 0.00992444 0.010231794
0.0101300245 0.009647632 0.008883933 0.009782931 0.009995918 0.0098557435 0.009179327 0.008092713
0.00866372 0.008418073 0.007996374 0.007286978 0.0077382657 0.0069959853 0.0049645435 0.0056039835
0.0061492524 0.0061131874 0.0054026963 0.0048099514 0.004706429 0.0048956047 7e-43 7e-43
7e-43 7e-43 7e-43 7e-43 7e-43 7e-43 7e-43 7e-43
7e-43 7e-43 7e-43 7e-43 7e-43 7e-43 7e-43 7e-43
7e-43 7e-43 7e-43 7e-43 7e-43 7e-43 7e-43 2.511456e-06
1.7109687e-06 2.291556e-06 5.7931843e-06 1.51082795e-05 2.124286e-06 1.5357616e-06 3.2116935e-07 6.276156e-06
1.4936772e-05 2.0357447e-06 1.3727025e-06 8.495531e-09 7.4680834e-06 1.49256075e-05 1.9507381e-06 7.9084583e-07
2.4469058e-08 8.898652e-06 1.47545525e-05 1.4891594e-06 7.3051007e-07 4.9154664e-07 1.040804e-05 1.4076806e-05
1.4774775e-05 0.0001615225 0.0006726349 0.0007156422 0.0007354865 1.1932577e-05 1.283149e-05 0.00037125987
0.0007102603 0.00073517434 8.877535e-06 2.951893e-06 1.1443694e-07 0.00033721107 0.00070271816 2.530195e-06
1.9515397e-07 1.3667227e-08 1.5038674e-05 0.00032058405 5.151447e-07 7.9155434e-08 3.478042e-08 1.2158141e-05
3.379566e-05 7e-43 7e-43 7e-43 7e-43 7e-43 7e-43 7e-43
7e-43 7e-43 7e-43 7e-43 7e-43 7e-43 7e-43 7e-43
7e-43 7e-43 7e-43 7e-43 7e-43 7e-43 7e-43 7e-43
7e-43 7e-43 0.0012844066 0.0014933582 0.0015347968 0.0014448746 0.0013225588 0.001161031
00000000: f401 0000 f401 0000 f401 0000 f401 0000
00000010: f401 0000 f401 0000 f401 0000 f401 0000
00000020: f401 0000 f401 0000 f401 0000 f401 0000
00000030: f401 0000 f401 0000 f401 0000 f401 0000
00000040: f401 0000 f401 0000 f401 0000 f401 0000
00000050: f401 0000 f401 0000 f401 0000 f401 0000
00000060: f401 0000 43c3 733d 3ca9 7f3d bfd8 843d
00000070: 8796 793d 1592 6d3d f08e 693d 8c03 773d
00000080: c47a 893d 98e4 773d 2edb 563d 9ad7 683d
00000090: 4f84 6c3d 4793 8b3d f77d 5b3d 341d 553d
000000a0: d5c8 6c3d 268a 723d a131 6a3d 65e5 5a3d
000000b0: a0b8 563d 6a8c 6d3d 4541 5c3d f261 5f3d
000000c0: 3d1a 4b3d 9593 503d 0fab 9d38 93c2 a738
000000d0: 866c a038 777c 8438 5c19 5e38 ef8c 9938
000000e0: bef7 a038 d583 9c38 b008 6438 c892 2238
000000f0: 571b 9838 1f35 9538 7e6f 7838 bbc2 fe37
00000100: 5768 f437 b50b 9d38 b810 9638 e113 7838
00000110: bfeb 3f38 dbcd 1038 883c 9438 1507 8138
00000120: d3f2 8638 9047 6238 b413 4d38 e863 843c
00000130: c5a7 783c d098 613c f8b1 703c 2646 703c
00000140: ad5e 853c ddcf 703c 2627 393c f1e4 513c
00000150: fc6c 543c 370c 8b3c 30d0 6d3c 3791 133c
00000160: 9df3 273c eaf5 483c fd8e 883c 2c90 5c3c
00000170: d8aa f13b bf21 083c 2771 2c3c 66e9 593c
00000180: a966 2b3c a7fd 043c 260a 0f3c c61a 1e3c
00000190: 6add 023c 3aa9 f43b 2365 ca3b 63da ad3b
000001a0: 78eb 983b 0562 043c 49a4 f73b 0209 bb3b
000001b0: b935 923b 57c7 713b 95d8 083c b834 f73b
000001c0: c2d3 a33b f1d1 513b 09a8 533b 9657 073c
000001d0: 3c2d e83b 8c70 963b 8ffa 693b 0a03 613b
000001e0: f955 f13b bd8d c33b 12c4 953b 9f33 7e3b
000001f0: 355e 673b 8cb9 193c 1e9a 223c 41a3 273c
00000200: 67f8 253c 1a11 1e3c ea8d 113c 9648 203c
00000210: ebc5 233c fc79 213c e364 163c 4c97 043c
00000220: 47f2 0d3c f5eb 093c 3903 033c 9ac7 ee3b
00000230: 4791 fd3b 943e e53b 9cad a23b 9fa1 b73b
00000240: ab7f c93b 2251 c83b 1a09 b13b cc9c 9d3b
00000250: 6338 9a3b 4f6b a03b f401 0000 f401 0000
00000260: f401 0000 f401 0000 f401 0000 f401 0000
00000270: f401 0000 f401 0000 f401 0000 f401 0000
00000280: f401 0000 f401 0000 f401 0000 f401 0000
00000290: f401 0000 f401 0000 f401 0000 f401 0000
000002a0: f401 0000 f401 0000 f401 0000 f401 0000
000002b0: f401 0000 f401 0000 f401 0000 7c8a 2836
000002c0: 70a4 e535 a2c8 1936 1363 c236 9179 7d37
000002d0: f58e 0e36 5e20 ce35 2e6d ac34 c597 d236
000002e0: f298 7a37 d49d 0836 b33d b835 bef3 1132
000002f0: 5996 fa36 ff68 7a37 6de9 0236 834a 5435
00000300: 0730 d232 6b4b 1537 528a 7737 21df c735
00000310: 4518 4435 d4f2 0335 319e 2e37 6c2b 6c37
00000320: 2de1 7737 5e5e 2939 c453 303a ef99 3b3a
00000330: aacd 403a 0732 4837 d446 5737 a8a5 c239
00000340: c330 3a3a b7b8 403a b9f0 1437 2319 4636
00000350: 60c0 f533 b4cb b039 9e36 383a 6bcc 2936
00000360: 848b 5134 1acd 6a32 9d4e 7c37 1014 a839
00000370: 7948 0a35 29fc a933 7a61 1533 d1fa 4b37
00000380: d0bf 0d38 f401 0000 f401 0000 f401 0000
00000390: f401 0000 f401 0000 f401 0000 f401 0000
000003a0: f401 0000 f401 0000 f401 0000 f401 0000
000003b0: f401 0000 f401 0000 f401 0000 f401 0000
000003c0: f401 0000 f401 0000 f401 0000 f401 0000
000003d0: f401 0000 f401 0000 f401 0000 f401 0000
000003e0: f401 0000 f401 0000 8959 a83a c9bc c33a
000003f0: 3c2b c93a f261 bd3a b659 ad3a bc2d 983a

exp_avg f4 [32]
6e-45 0.028345656 -0.003490523 0.018060626 0.03144367 0.002777482 6e-45 0.00019332851
0.0006122506 6e-45 0.0080165 6e-45 -0.014547046 0.059173103 -0.0260703 0.043231975
-2.877338e-05 -0.0027435939 -0.0053118607 6e-45 -1.1953197e-05 0.00029456144 0.029049767 0.0009996976
-0.064936265 0.00013253586 -0.00090430456 -1.2986661e-05 -0.013785 0.0 6e-45 6e-45
00000000: 0400 0000 2635 e83c 42c1 64bb e1f3 933c
00000010: 14cb 003d 6a06 363b 0400 0000 3ab8 4a39
00000020: 717f 203a 0400 0000 a357 033c 0400 0000
00000030: bc56 6ebc 7f5f 723d 6291 d5bc 0314 313d
00000040: 5d5e f1b7 decd 33bb 1e0f aebb 0400 0000
00000050: 978a 48b7 5e6f 9a39 c7f9 ed3c 4908 833a
00000060: 4efd 84bd 53f9 0a39 da0e 6dba 49e1 59b7
00000070: 7bda 61bc 0000 0000 0400 0000 0400 0000

exp_avg_sq f4 [32]
7e-43 0.12610832 0.00013746298 0.030377107 0.013194319 0.01945078 7e-43 6.8062574e-05
0.0027191576 7e-43 0.003109082 7e-43 0.0036426224 0.020208547 0.013193392 0.017406713
0.00020978366 0.0026776057 0.09128939 7e-43 4.2959177e-06 0.0050534396 0.012103283 0.0010053123
0.09182415 4.6811845e-05 0.0012308611 6.9398106e-07 0.021313189 0.0 7e-43 7e-43
00000000: f401 0000 8a22 013e f023 1039 69d9 f83c
00000010: fc2c 583c 3e57 9f3c f401 0000 d1bc 8e38
00000020: e533 323b f401 0000 bec1 4b3b f401 0000
00000030: 10b9 6e3b 658c a53c 1929 583c 8698 8e3c
00000040: 5ff9 5b39 c57a 2f3b eff5 ba3d f401 0000
00000050: a725 9036 5397 a53b d94c 463c afc4 833a
00000060: 4d0e bc3d d657 4438 d854 a13a 044a 3a35
00000070: ff98 ae3c 0000 0000 f401 0000 f401 0000

exp_avg f4 [16, 32]
-6e-45 -2.8836435e-05 -0.00041371892 0.00045415197 -0.0005554777 0.0004123591 -6e-45 4.9914195e-07
4.8170966e-07 -6e-45 0.00017700074 -6e-45 2.9353168e-06 -0.0015159467 0.00046472962 0.00036039815
-8.933237e-08 7.530584e-05 0.00022976154 -6e-45 -1.6863592e-07 0.00028846803 0.0027006234 6.570258e-08
0.0021340952 4.458055e-07 2.7689715e-05 -2.1225635e-07 0.0014327299 0.0 0.0 -6e-45
6e-45 -0.0010046638 0.0004427106 -0.00036888017 0.00060605817 -0.00046823753 6e-45 -4.9888763e-07
-4.5784267e-07 6e-45 -0.0029044838 6e-45 -0.00045466606 0.0014587536 -0.0003782302 0.00012210173
7.799308e-08 -8.270088e-05 -0.00014164794 6e-45 1.603283e-07 -0.0001297018 -0.010985448 6.846897e-08
-0.0065370593 -4.3991975e-07 -3.3250275e-05 2.0178513e-07 -0.01078293 0.0 6e-45 6e-45
6e-45 -0.0006041176 0.00032827325 -0.00032985283 0.00073953345 0.00018546903 6e-45 -3.5254934e-07
-3.2549596e-07 -6e-45 -0.002060604 6e-45 0.0003155125 0.0010418645 -0.00033096285 -0.00013661117
4.845542e-08 -5.8076337e-05 0.0004721543 6e-45 1.1197075e-07 0.0008686837 -0.008156721 5.9841175e-05
-0.0047482694 -3.0845223e-07 -2.318049e-05 1.3885163e-07 -0.007819821 0.0 6e-45 -6e-45
-6e-45 0.0008037913 -0.00034852498 0.00026176427 -0.0005196946 -4.175499e-05 -6e-45 4.1816293e-07
3.919801e-07 -6e-45 0.0022843955 -6e-45 0.00046403924 -0.0012743721 0.00036245977 -0.000116868185
-7.2756755e-08 2.3228173e-05 7.71396e-05 -6e-45 -1.3710319e-07 -2.6244461e-05 0.009294571 -2.1751293e-07
0.0055897175 3.6361376e-07 2.6271744e-05 -1.7256687e-07 0.0088542355 0.0 -6e-45 -6e-45
-6e-45 0.0003215605 8.700281e-05 0.00011671682 -3.753191e-08 1.5481474e-07 -6e-45 2.0330481e-07
1.9231564e-07 -6e-45 0.00022712034 -6e-45 1.2490262e-05 2.2506099e-07 0.00062900136 0.0008339769
-3.5442802e-08 8.534586e-06 6.7254734e-07 -6e-45 -6.690585e-08 9.696728e-07 0.0024456775 1.8691055e-07
0.0015765157 1.7658151e-07 2.7509266e-06 -8.42022e-08 0.00201408 0.0 0.0 -6e-45
-6e-45 -0.00060483324 -0.001422685 0.0003204631 -0.0014023789 0.0007000463 -6e-45 -3.7775777e-07
-3.0526323e-07 -6e-45 0.00028506614 -6e-45 -0.0008193258 -0.0038294333 -0.0025576134 -0.0055181943
-1.8509037e-07 0.000117803655 0.00029586419 -6e-45 -3.826839e-07 0.0003462511 -0.00012183196 -5.880165e-07
3.371668e-05 -4.0794558e-07 -1.2874809e-06 -4.7488874e-07 0.00037986602 0.0 -6e-45 -6e-45
6e-45 -0.00060999685 0.0003953458 -0.00039573904 0.00088411296 0.00024968327 6e-45 -5.3826983e-07
-4.975652e-07 6e-45 -0.0024788661 6e-45 0.0006148061 0.001361768 -0.0003979504 0.00038208129
5.5270126e-09 -6.914358e-05 0.00055408827 6e-45 1.4097587e-13 0.0010212152 -0.00934317 7.201412e-05
-0.005544484 -4.884499e-07 -2.6531066e-05 5.849542e-13 -0.009360829 0.0 0.0 6e-45
6e-45 -0.0006487057 0.00036881087 -0.00035773168 0.00079825125 0.00022749818 6e-45 -4.9475636e-07
-4.494908e-07 -6e-45 -0.0022410438 6e-45 0.00035417502 0.0011393133 -0.00034474826 -0.00013412739
-4.1901496e-10 -6.267013e-05 0.000499124 6e-45 3.3587412e-13 0.0009217931 -0.00885302 6.506238e-05
-0.0051606223 -4.532681e-07 -2.5998874e-05 8.312096e-13 -0.008459442 0.0 6e-45 6e-45
00000000: 0400 0080 c6e5 f1b7 6ae8 d8b9 3f1b ee39
00000010: 7a9d 11ba e731 d839 0400 0080 c6fc 0535
00000020: d64e 0135 0400 0080 4699 3939 0400 0080
00000030: 5cfc 4436 bbb2 c6ba f4a6 f339 d2f3 bc39
00000040: fdd6 bfb3 84ed 9d38 25ec 7039 0400 0080
00000050: 4a12 35b4 863d 9739 f1fc 303b 6018 8d33
00000060: 2ddc 0b3b 0b57 ef34 3647 e837 95e8 63b4
00000070: 70ca bb3a 0000 0000 0000 0000 0400 0080
00000080: 0400 0000 ecae 83ba 9c1b e839 4266 c1b9
00000090: e0df 1e3a c77d f5b9 0400 0000 4ceb 05b5
000000a0: 6bcd f5b4 0400 0000 2759 3ebb 0400 0000
000000b0: 3f60 eeb9 a633 bf3a 334d c6b9 6f08 0039
000000c0: 267d a733 b26f adb8 5487 14b9 0400 0000
000000d0: b526 2c34 9000 08b9 4ffc 33bc 3709 9333
000000e0: d434 d6bb 1c2e ecb4 3676 0bb8 46aa 5834
000000f0: e3aa 30bc 0000 0000 0400 0000 0400 0000
00000100: 0400 0000 a55d 1eba 171c ac39 19f0 acb9
00000110: 40dd 413a 777a 4239 0400 0000 0346 bdb4
00000120: d3bf aeb4 0400 0080 330b 07bb 0400 0000
00000130: 5f6b a539 2c8f 883a 1585 adb9 483f 0fb9
00000140: 4c1d 5033 fe96 73b8 7a8b f739 0400 0000
00000150: 9274 f033 60b8 633a c4a3 05bc f9fd 7a38
00000160: 5f97 9bbb 5a99 a5b4 b973 c2b7 3f17 1534
00000170: b51e 00bc 0000 0000 0400 0000 0400 0080
00000180: 0400 0080 85b5 523a 3bba b6b9 683d 8939
00000190: 1d3c 08ba 1422 2fb8 0400 0080 e07f e034
000001a0: 5671 d234 0400 0080 ccb5 153b 0400 0080
000001b0: 4b4a f339 d508 a7ba 8708 be39 2117 f5b8
000001c0: 733e 9cb3 1fda c237 02c6 a138 0400 0080
000001d0: a336 13b4 8d27 dcb7 4248 183c 808d 69b4
000001e0: f329 b73b b236 c334 2462 dc37 d24a 39b4
000001f0: 5b11 113c 0000 0000 0400 0080 0400 0080
00000200: 0400 0080 1f97 a839 4775 b638 dec5 f438
00000210: c532 21b3 273b 2634 0400 0080 004c 5a34
00000220: 527f 4e34 0400 0080 2727 6e39 0400 0080
00000230: 448d 5137 4ba8 7134 91e3 243a 3e9f 5a3a
00000240: c639 18b3 c52f 0f37 1a89 3435 0400 0080
00000250: e1ad 8fb3 b425 8235 a947 203b 95b1 4834
00000260: 17a3 ce3a 5b9a 3d34 8f9c 3836 a6d2 b4b3
00000270: a8fe 033b 0000 0000 0000 0000 0400 0080
00000280: 0400 0080 ac8d 1eba 6379 baba d403 a839
00000290: 07d0 b7ba 5083 373a 0400 0080 a2ce cab4
000002a0: 0fe3 a3b4 0400 0080 ee74 9539 0400 0080
000002b0: 06c8 56ba 3bf7 7abb a29d 27bb f8d1 b4bb
000002c0: 41bd 46b4 5b0d f738 381e 9b39 0400 0080
000002d0: ad73 cdb4 0989 b539 0980 ffb8 30d8 1db5
000002e0: 026b 0d38 9d03 dbb4 82cd acb5 36f4 feb4
000002f0: c128 c739 0000 0000 0400 0080 0400 0080
00000300: 0400 0000 32e8 1fba 6a46 cf39 327b cfb9
00000310: d1c3 673a ece7 8239 0400 0000 9f7d 10b5
00000320: 6c90 05b5 0400 0000 7974 22bb 0400 0000
00000330: f02a 213a 5a7d b23a 00a4 d0b9 1552 c839
00000340: 1ee8 bd31 2d01 91b8 3c40 113a 0400 0000
00000350: 87b9 1e2a 4cda 853a 1814 19bc 4906 9738
00000360: 81ae b5bb 061e 03b5 088f deb7 64a6 242b
00000370: 2a5e 19bc 0000 0000 0000 0000 0400 0000
00000380: 0400 0000 e70d 2aba f55c c139 ef8d bbb9
00000390: bc41 513a 948c 6e39 0400 0000 66cf 04b5
000003a0: 8c51 f1b4 0400 0080 7ade 12bb 0400 0000
000003b0: 91b0 b939 0355 953a 54bf b4b9 8ca4 0cb9
000003c0: 1d5b e6af c56d 83b8 a5d7 023a 0400 0000
000003d0: 9014 bd2a 7da4 713a 420c 11bc 1972 8838
000003e0: 701a a9bb b158 f3b4 2818 dab7 f7f6 692b
000003f0: 7999 0abc 0000 0000 0400 0000 0400 0000

exp_avg_sq f4 [16, 32]
7e-43 1.533755e-05 1.5398029e-05 0.000101955215 4.3628577e-05 0.00020844347 7e-43 1.3365035e-08
3.005929e-07 7e-43 0.00022466431 7e-43 0.00012173194 7.714138e-05 9.3393006e-05 0.0002158591
3.2210446e-07 6.0780835e-06 0.00013800642 7e-43 6.1400085e-09 0.000426401 0.00022901369 2.1907508e-07
9.207241e-05 2.9765063e-08 2.069131e-06 4.737359e-10 0.00035679372 0.0 0.0 7e-43
7e-43 6.26567e-05 4.661622e-06 5.2943833e-05 1.8014616e-05 0.00022644165 7e-43 1.0500415e-08
2.6614293e-07 7e-43 0.00021764795 7e-43 0.000104584964 7.125706e-05 4.1703617e-05 0.00029385
1.9079036e-07 6.3818106e-06 4.2040963e-05 7e-43 3.054564e-09 0.0002023861 0.00056503713 1.8348737e-07
0.00018178044 2.6113645e-08 1.9810032e-06 4.2698925e-10 0.0005629188 0.0 7e-43 7e-43
7e-43 4.1876592e-05 1.1438037e-05 4.514257e-05 4.4639786e-05 0.00020923094 7e-43 5.896574e-09
1.3357854e-07 7e-43 0.00013872157 7e-43 4.320285e-05 2.550685e-05 3.884733e-05 0.00012935413
1.4187411e-07 3.2009034e-06 0.00019868308 7e-43 2.7161953e-09 0.0005145926 0.0002876022 3.1119052e-07
9.240415e-05 1.31389575e-08 7.812245e-07 2.090313e-10 0.00027579744 0.0 7e-43 7e-43
7e-43 3.684934e-05 3.7928955e-06 2.4419893e-05 3.0828362e-06 9.763384e-06 7e-43 7.770221e-09
1.9508649e-07 7e-43 6.400614e-05 7e-43 3.6977046e-05 1.3205076e-05 3.426199e-05 0.00020052606
9.9302866e-08 3.0657104e-06 9.881769e-06 7e-43 1.5039921e-10 2.5823001e-05 0.00042811452 4.018001e-09
0.00013810789 1.9318712e-08 6.8234175e-07 3.1532157e-10 0.00033980014 0.0 7e-43 7e-43
7e-43 9.241939e-08 5.513597e-07 7.640443e-06 2.2439533e-06 3.4643378e-07 7e-43 2.0332362e-09
4.596514e-08 7e-43 8.1985246e-07 7e-43 5.3815796e-07 5.694759e-07 6.8236686e-06 2.9347434e-06
2.6296076e-08 4.7328433e-07 8.713567e-06 7e-43 8.367293e-10 2.2098542e-05 2.0523159e-05 2.4217494e-08
8.576809e-06 4.570496e-09 2.3911044e-08 6.276022e-11 1.6614647e-05 0.0 0.0 7e-43
7e-43 2.4742545e-05 2.1665173e-05 5.937066e-05 3.4355933e-05 0.00015120907 7e-43 7.757204e-09
4.0226985e-07 7e-43 3.6190537e-05 7e-43 2.4533998e-05 4.1580595e-05 4.7893493e-05 0.00014628316
3.7342936e-08 4.105039e-06 0.0001752562 7e-43 1.4184065e-08 0.0005082419 0.00010349036 9.98474e-08
6.571728e-05 2.6311044e-09 1.1405248e-06 5.2023993e-11 0.00021974844 0.0 7e-43 7e-43
7e-43 5.3445412e-05 1.6690445e-05 4.640946e-05 6.515259e-05 0.00021256748 7e-43 8.544852e-09
1.925312e-07 7e-43 0.00012613175 7e-43 5.6773435e-05 3.796966e-05 5.679921e-05 0.00016024282
1.7145565e-07 3.4878933e-06 0.00028916894 7e-43 3.9133528e-09 0.0007086903 0.0003772004 4.40093e-07
0.00012431985 1.90424e-08 1.101863e-06 3.0310285e-10 0.0003070407 0.0 0.0 7e-43
7e-43 4.770974e-05 1.3913349e-05 3.7709633e-05 5.3462016e-05 0.00016463087 7e-43 6.9625066e-09
1.5696507e-07 7e-43 0.0001067575 7e-43 8.1673454e-05 5.883219e-05 4.8915586e-05 0.00017672594
1.6778735e-07 2.8126753e-06 0.00023617203 7e-43 3.20203e-09 0.0005658212 0.0003193951 3.7205638e-07
0.00010748638 1.5513809e-08 1.0273712e-06 2.4725422e-10 0.00024869893 0.0 7e-43 7e-43
00000000: f401 0000 23a9 8037 042b 8137 cad0 d538
00000010: d4fd 3638 9e91 5a39 f401 0000 0c9c 6532
00000020: 2c61 a134 f401 0000 de93 6b39 f401 0000
00000030: 564a ff38 f7c6 a138 fddb c338 3c58 6239
00000040: b3ed ac34 57f2 cb36 d1b5 1039 f401 0000
00000050: 16f8 d231 938e df39 6523 7039 e63a 6b34
00000060: 0017 c138 11ae ff32 66db 0a36 3338 0230
00000070: 0b10 bb39 0000 0000 0000 0000 f401 0000
00000080: f401 0000 8f66 8338 076b 9c36 0210 5e38
00000090: 181e 9737 f870 6d39 f401 0000 5065 3432
000000a0: 68e2 8e34 f401 0000 6d38 6439 f401 0000
000000b0: a054 db38 d86f 9538 ebea 2e38 e10f 9a39
000000c0: 0edc 4c34 5623 d636 2455 3038 f401 0000
000000d0: 75e8 5131 9b37 5439 001f 143a a004 4534
000000e0: 519c 3e39 8350 e032 60f1 0436 65bd ea2f
000000f0: d790 133a 0000 0000 f401 0000 f401 0000
00000100: f401 0000 a6a4 2f38 ffe5 3f37 7757 3d38
00000110: 9b3b 3b38 0165 5b39 f401 0000 d09a ca31
00000120: ca6d 0f34 f401 0000 ca75 1139 f401 0000
00000130: b534 3538 8bf7 d537 01f0 2238 3ca3 0739
00000140: 0f56 1834 1acf 5636 9555 5039 f401 0000
00000150: d0a7 3a31 bae5 063a 50c9 9639 b311 a734
00000160: 1ac9 c138 bfb9 6132 57b5 5135 15d5 652f
00000170: e898 9039 0000 0000 f401 0000 f401 0000
00000180: f401 0000 ad8e 1a38 7389 7e36 52d9 cc37
00000190: b9e2 4e36 6acd 2337 f401 0000 cb7d 0532
000001a0: f778 5134 f401 0000 093b 8638 f401 0000
000001b0: cd17 1b38 5f8b 5d37 88b4 0f38 4e44 5239
000001c0: 5440 d533 81bc 4d36 e0c9 2537 f401 0000
000001d0: 9d5d 252f 799e d837 8f74 e039 b60e 8a31
000001e0: 0ed1 1039 4cf2 a532 2b2a 3735 9159 ad2f
000001f0: 3427 b239 0000 0000 f401 0000 f401 0000
00000200: f401 0000 1978 c633 2601 1435 742f 0037
00000210: d396 1636 7ffd b934 f401 0000 12b9 0b31
00000220: 356b 4533 f401 0000 d513 5c35 f401 0000
00000230: ef75 1035 16de 1835 def6 e436 82f2 4436
00000240: afe1 e132 b417 fe34 7c30 1237 f401 0000
00000250: 97ff 6530 4260 b937 2629 ac37 d506 d032
00000260: 1de5 0f37 820a 9d31 f164 cd32 dd02 8a2e
00000270: af5f 8b37 0000 0000 0000 0000 f401 0000
00000280: f401 0000 368e cf37 9bbd b537 c304 7938
00000290: 6719 1038 e08d 1e39 f401 0000 8b44 0532
000002a0: 8cf7 d734 f401 0000 4bcb 1738 f401 0000
000002b0: 5cce cd37 d366 2e38 3fe1 4838 9663 1939
000002c0: fe62 2033 04be 8936 fac4 3739 f401 0000
000002d0: 2dae 7332 893b 053a f708 d938 b06b d633
000002e0: b2d1 8938 e1ce 3431 2214 9935 cfcd 642e
000002f0: 466c 6639 0000 0000 f401 0000 f401 0000
00000300: f401 0000 932a 6038 7502 8c37 c7a7 4238
00000310: 88a2 8838 a6e4 5e39 f401 0000 a8cc 1232
00000320: 93ba 4e34 f401 0000 3c42 0439 f401 0000
00000330: 0320 6e38 9d41 1f38 b03b 6e38 db06 2839
00000340: 5f19 3834 8d11 6a36 999b 9739 f401 0000
00000350: 3776 8631 67c7 393a fbc2 c539 ec45 ec34
00000360: db5b 0239 ae92 a332 b9e3 9335 efa1 a62f
00000370: 4efa a039 0000 0000 0000 0000 f401 0000
00000380: f401 0000 f11b 4838 616d 6937 692a 1e38
00000390: 673c 6038 c3a0 2c39 f401 0000 db3a ef31
000003a0: 3b8a 2834 f401 0000 ffe2 df38 f401 0000
000003b0: 1a48 ab38 95c2 7638 b62a 4d38 824f 3939
000003c0: 0929 3434 65c1 3c36 f2a4 7739 f401 0000
000003d0: b50a 5c31 9e53 143a 7c74 a739 0abf c734
000003e0: 506a e138 3a43 8532 35e4 8935 f0ed 872f
000003f0: ce63 8239 0000 0000 f401 0000 f401 0000

exp_avg f4 [16]
-0.0066496683 -0.0024109064 -0.0023725638 0.00075046654 0.0025953474 -0.025976554 -0.0019833387 -0.0024148233
-0.00067789515 -0.00032363817 0.0029529477 -0.003669707 0.0036930314 6e-45 -0.009179772 -6e-45
00000000: 76e5 d9bb 4c00 1ebb 047d 1bbb f5ba 443a
00000010: b416 2a3b c8cc d4bc e7fa 01bb 0342 1ebb
00000020: c6b4 31ba fbad a9b9 3e86 413b 787f 70bb
00000030: c906 723b 0400 0000 c166 16bc 0400 0080

exp_avg_sq f4 [16]
0.004076663 0.004363826 0.002985511 0.0027893872 0.00011458024 0.012082729 0.0039583165 0.0033832125
0.0014173358 0.002173766 0.0013603598 0.00803088 0.0019699002 7e-43 0.0020200151 7e-43
00000000: 8795 853b 6dfe 8e3b 90a8 433b 27ce 363b
00000010: cc4a f038 a3f6 453c c4b4 813b e3b8 5d3b
00000020: e6c5 b93a be75 0e3b 1a4e b23a f493 033c
00000030: 7119 013b f401 0000 3b62 043b f401 0000

exp_avg f4 [2, 16]
0.00024457014 -0.00024392009 -0.0008446819 -0.0017581009 -0.00018148836 0.0006078615 -0.0009777831 -0.0005944284
0.0003073389 -8.806257e-06 0.00047762063 -0.0007734189 0.0003863353 -6e-45 0.00076434866 6e-45
-0.00024457072 0.00024392123 0.0008446833 0.0017581019 0.00018148815 -0.0006078601 0.0009777844 0.00059442956
-0.00030733694 8.806314e-06 -0.0004776188 0.00077342015 -0.00038633333 6e-45 -0.0007643478 -6e-45
00000000: a639 8039 cdc4 7fb9 a56d 5dba 1470 e6ba
00000010: e94d 3eb9 e558 1f3a f528 80ba 6ad3 1bba
00000020: 5422 a139 96be 13b7 2869 fa39 44bf 4aba
00000030: 0c8d ca39 0400 0080 925e 483a 0400 0000
00000040: ba39 80b9 1bc5 7f39 bd6d 5d3a 1c70 e63a
00000050: db4d 3e39 cd58 1fba 0029 803a 7ed3 1b3a
00000060: 1122 a1b9 d5be 1337 e968 fab9 59bf 4a3a
00000070: c88c cab9 0400 0000 835e 48ba 0400 0080

exp_avg_sq f4 [2, 16]
1.1349092e-05 1.5469304e-05 1.18840535e-05 5.1621104e-05 9.773078e-07 2.0074544e-06 1.0106037e-05 8.120034e-06
1.3995937e-05 2.2100269e-06 1.2912276e-05 6.6618422e-06 1.4052402e-05 7e-43 6.6972185e-05 7e-43
1.1349091e-05 1.5469299e-05 1.1884052e-05 5.1621108e-05 9.773079e-07 2.0074538e-06 1.0106035e-05 8.120035e-06
1.399594e-05 2.2100278e-06 1.2912278e-05 6.6618404e-06 1.4052401e-05 7e-43 6.69722e-05 7e-43
00000000: fb67 3e37 14c4 8137 9f61 4737 bd83 5838
00000010: 0a2c 8335 ceb7 0636 198d 2937 483b 0837
00000020: 17d0 6a37 f94f 1436 cea1 5837 ca88 df36
00000030: 9bc2 6b37 f401 0000 6b73 8c38 f401 0000
00000040: fa67 3e37 11c4 8137 9d61 4737 be83 5838
00000050: 0b2c 8335 cbb7 0636 178d 2937 493b 0837
00000060: 1bd0 6a37 fd4f 1436 d0a1 5837 c688 df36
00000070: 9ac2 6b37 f401 0000 6d73 8c38 f401 0000

exp_avg f4 [2]
-0.00028654572 0.00028655023
00000000: 843b 96b9 1f3c 9639

exp_avg_sq f4 [2]
0.00026856898 0.00026856898
00000000: b8ce 8c39 b8ce 8c39

loss f8 []
0.003995387802558999
00000000: 5535 26bf 775d 703f
