23_epoch_edge_detector.pth (torch, 24958 bytes, 19 tensors)

model.0.weight f4 [32, 25]
000000 9e fb b4 3c ff 99 78 bd be 5a 44 be f0 39 9a bd
       0.022092637 -0.060693737 -0.1917524 -0.07530582
000010 5f a6 9b bd 13 9a 0b bd 4b 92 05 be 7f 82 05 3e
       -0.07600092 -0.034082484 -0.13044088 0.13038062
000020 47 41 d5 bc bf 41 63 3d 18 7b cb 3c 03 bb 9a bd
       -0.026032103 0.055482622 0.02483897 -0.07555201
000030 48 67 bf 3b 3f 31 a3 3d 9a 09 7c bd ec e3 89 3d
       0.0058411695 0.07968377 -0.061532594 0.06732926
000040 b2 e5 9f be 39 9d 95 be 37 94 95 be e7 15 11 bd
       -0.3122993 -0.29221514 -0.2921464 -0.03542128
000050 29 1a 06 bd 30 dd 5b bd f5 80 31 3d a1 ec 05 3e
       -0.032739792 -0.053677738 0.043335874 0.13078548
000060 44 5f 12 3e 71 4a 8e be 7a ac 65 be a2 79 21 be
       0.14294153 -0.2779117 -0.22429076 -0.15769055
000070 69 25 9b be 1f 0f 96 be ce 3e ae be ce 29 34 3e
       -0.3030198 -0.2930841 -0.3403229 0.17594072
000080 ed 6b 17 3f e5 55 49 3e dd 6d b1 be 64 5a 9e bd
       0.59149057 0.19661672 -0.34654132 -0.077320844
000090 62 f4 7e be 65 51 02 3f 1d a3 08 be 09 eb 13 be
       -0.24897912 0.5090545 -0.13343473 -0.14445128
0000a0 1c 40 5f bd 42 07 40 3d 36 fd 2d 3e 6e 11 10 3e
       -0.0545045 0.04688192 0.16991124 0.14069149
0000b0 ef 12 5a bc c3 c4 a5 3d 30 81 25 3e 10 0c 2d 3e
       -0.013310178 0.0809417 0.16162562 0.16899133
0000c0 65 31 3a 3e 71 a3 f8 3d 38 d1 40 bd 45 dd b9 3c
       0.18182905 0.12140549 -0.047074527 0.022688517
0000d0 2b 19 05 3e 87 47 0e 3e 88 a1 68 3e 9e 4a 11 be
       0.12997882 0.13894473 0.2271787 -0.1418862
0000e0 91 bd d7 bd 47 a4 14 3e 8b e5 a9 3e 38 53 4d 3b
       -0.10534204 0.14515792 0.3318294 0.003133012
0000f0 1d 20 db be 97 30 5c be 02 7c 25 3f 0d 01 1a be
       -0.42797938 -0.2150291 0.64642346 -0.15039463
000100 94 bb a6 bd e2 5e 71 be 22 c2 8d 3e 36 62 cd 3e
       -0.081412464 -0.23571351 0.27687174 0.40113991
000110 cf d6 c7 3c c7 c3 85 be 87 d1 34 3d aa b7 40 bd
       0.02439442 -0.2612593 0.044145133 -0.047050156
000120 e0 b0 01 be 62 72 b9 be 4c a9 a1 be 8c 66 58 bc
       -0.12665129 -0.3622008 -0.31574476 -0.013208043
000130 46 87 19 bc 92 38 e3 bb 4f 71 c7 bb 83 da f0 bb
       -0.009370631 -0.006934234 -0.0060865055 -0.0073502674
000140 ac 85 55 bc 5e a7 01 bc 93 5d 04 ba ee e6 2e bb
       -0.013032358 -0.007913439 -0.0005049344 -0.0026687938
000150 a8 44 5f bc 9e 7c f8 bb 03 a0 b5 3b c1 6c 9e 3b
       -0.013627209 -0.007583215 0.0055427565 0.004834742
000160 c9 be 0d bc 55 d2 00 bc e3 77 b3 bc a9 28 d5 bc
       -0.008651444 -0.007862647 -0.021907752 -0.026020365
000170 f9 a9 20 bd f0 01 f0 bc 8c 7c 22 bc 7d ed 12 bc
       -0.0392246 -0.029297799 -0.00991739 -0.008967754
000180 2f 32 17 bc fe a5 91 bc b3 d9 6e bc 55 cb 68 bc
       -0.009228273 -0.017779347 -0.014578271 -0.014208634
000190 4c a1 00 be 21 74 34 3d 7c 69 b7 3d e1 9b 0f 3d
       -0.1256153 0.04405606 0.089556664 0.035060767
0001a0 3f a5 08 bd a2 1b 17 3d 0c ac 29 be c6 89 c8 be
       -0.033360716 0.036891587 -0.16569537 -0.39167613
0001b0 36 8e 3a be ec cc c2 3d c7 af 26 3e a2 c9 2b 3d
       -0.18218312 0.09511742 0.16277991 0.04194034
0001c0 6e c1 ab c0 1d 22 5f be a6 31 20 3e d3 d1 bb 3d
       -5.367362 -0.21790357 0.1564394 0.0917088
0001d0 e2 8b ad 3d dd 54 4c be 54 b0 29 be 13 6d 0d 3e
       0.08473946 -0.19954248 -0.1657117 0.1381114
0001e0 3f 65 c9 3d a3 4e c5 bc 38 35 43 3a 59 eb 7d 3c
       0.09833764 -0.024085348 0.000744659 0.015498006
0001f0 5c 1a e5 3d 77 53 26 bd ca 6d 19 bd 29 39 71 bc
       0.11186668 -0.040606942 -0.03745822 -0.014723101
000200 c7 d6 80 bd b5 89 fc 3d ab 7d c2 bd 59 b1 3a 3e
       -0.062909655 0.12330953 -0.094966255 0.18231715
000210 3a ef c7 3d f5 e0 6f be 65 37 77 3e 98 72 17 be
       0.09762426 -0.23425658 0.24142225 -0.14789808
000220 4e 72 1b 3f d0 0b 4c be 6f 6a 61 bf 31 a7 4b 3e
       0.6072129 -0.19926381 -0.8805303 0.19887997
000230 62 ac 9c 3c 89 62 47 3e 28 64 2a bd 2c 5b 4d be
       0.019125167 0.19471182 -0.041599423 -0.2005431
000240 78 16 5b 3e 30 c9 83 bd 6f cd 2a 3d d2 7d 9c 3d
       0.2139529 -0.06434858 0.041699823 0.07641186
000250 f4 07 89 bd 50 4d d9 3c 2f 98 79 bd 96 f2 27 3e
       -0.0669097 0.026526123 -0.06093615 0.16401133
000260 2b 86 b1 3e 74 1c 0e 3e e5 00 b8 3d ac 67 a3 3d
       0.34672675 0.13878042 0.089845456 0.07978758
000270 48 9d d4 3d 7c 54 94 3d 91 6b be bb dd 8a a9 3a
       0.103815615 0.072426766 -0.0058111628 0.0012935061
000280 4f ef 5e bd 88 91 fa be 62 5c 4f bf 89 6e ae be
       -0.05442744 -0.48939157 -0.8100034 -0.34068707
000290 ef 4a 43 be 8f 23 11 3b d0 a9 d0 3c 87 25 86 3d
       -0.19071554 0.0022146439 0.025471598 0.065501265
0002a0 d4 96 ad 3d 4d f4 2d 3d 63 7f 3a 3e 3a 77 69 3e
       0.08476034 0.04246931 0.18212657 0.22799388
0002b0 09 1b 38 3e 95 8e 4a 3e b0 ab 33 3e 0a ad 07 3e
       0.17979063 0.19780953 0.17545962 0.13249603
0002c0 2a 77 e6 3d af 19 75 3d 7b 22 06 3e 21 a7 8f 3c
       0.112531975 0.059838947 0.13099091 0.017535748
0002d0 c3 ac ba 3d 5f 3c 23 3d 53 15 a3 bd c6 56 08 bf
       0.09114983 0.039852496 -0.07963052 -0.53257406
0002e0 42 5b 00 be 83 fa a5 3d aa f2 1c be c6 3c 0e bf
       -0.12534812 0.08104422 -0.15326944 -0.5556148
0002f0 ed 9b 2c bf ed e3 42 be 0a 4e ed 3d e1 a8 37 bd
       -0.67425424 -0.1903226 0.115871504 -0.04483879
000300 f7 3a ad bc ce c2 fe bd c6 e8 ae 3c fa 30 ae 3d
       -0.02114628 -0.124395 0.02135123 0.08505435
000310 7e 37 d6 3c c9 96 48 bd 41 64 d6 bc fb 58 ea 3a
       0.026149508 -0.048971925 -0.026170852 0.0017879301
000320 04 3a 17 be d5 ef 79 3e 25 e1 8a 3e 7a 52 0d 3d
       -0.14768225 0.24407895 0.27124897 0.034502484
000330 72 c6 b5 bc f3 1f 37 be 33 99 ec bd 11 f6 0f bf
       -0.022189353 -0.17883281 -0.11552658 -0.5623484
000340 44 da ad bd c1 ea 31 bc f4 d4 af 3c 75 03 af be
       -0.084888965 -0.010859192 0.021463849 -0.34182325
000350 1d 25 8e c0 eb f0 b6 be cb b6 48 be e7 85 99 bd
       -4.4420304 -0.3573068 -0.1960098 -0.07496243
000360 9b b8 0f 3d a3 ac ef 3d 03 4c 1b be ad 48 b6 bc
       0.035088163 0.1170285 -0.15165715 -0.022251451
000370 6a cd 49 3e 0f 3c 19 3e 0c 94 57 3e ce fc 17 3e
       0.19707265 0.14964317 0.21052569 0.14842531
000380 30 d5 d0 bd 7c 15 61 3a f5 79 a2 ba 5c e3 b9 b9
       -0.10196912 0.000858627 -0.0012395965 -0.00035455346
000390 4c 9d 24 b8 50 7a df ba 6f 29 40 b8 e2 fb bb 39
       -3.924714e-05 -0.0017050002 -4.5814955e-05 0.00035855087
0003a0 4b 92 44 ba ba 72 9d ba 75 48 1b bb 18 4b 01 b9
       -0.0007498606 -0.0012012341 -0.002369431 -0.00012330373
0003b0 90 9a 6e ba cb 6a e5 ba da 43 0a b8 c9 6e c2 b9
       -0.0009102011 -0.001750314 -3.2964956e-05 -0.00037085105
0003c0 61 f4 8d ba ed 83 1c ba 01 f6 b5 3a 90 2e f7 ba
       -0.0010830277 -0.0005970586 0.0013882519 -0.0018858481
0003d0 5c f7 e8 b9 5d fe 82 39 ee d1 88 ba b5 54 b3 ba
       -0.00044434785 0.00024985048 -0.001043854 -0.0013681861
0003e0 ff 7e 6f ba 17 e1 83 39 dd 20 17 3d 8d e8 95 bc
       -0.00091360504 0.00025153972 0.036896575 -0.018299365
0003f0 93 cc a7 3c 5d 22 c4 3d 96 72 e0 bd c3 49 89 3d
       0.02048329 0.09576867 -0.109593555 0.06703522

model.0.bias f4 [32]
000000 b7 ff ce 3e 9c 64 2f 3d 34 d0 22 3c 2c da 4f bb
       0.4042947 0.042820558 0.009937335 -0.0031715734
000010 5c ff a2 3c 15 91 a0 bc 86 2c d4 bd 93 f5 21 3e
       0.019897155 -0.01960043 -0.10360055 0.15816335
000020 dc e0 08 3d 4a 61 f0 ba e1 bf 82 bd 1e 5c 3b bd
       0.033417568 -0.0018339541 -0.06384254 -0.045742147
000030 b8 94 a1 3c 2c d2 09 b9 d2 bf 12 3d 49 74 99 bc
       0.019724235 -0.00013143633 0.035827465 -0.018732207
000040 86 15 ea ba ff 2a b8 bc 91 6c 8e bd 20 28 88 3d
       -0.0017859198 -0.02248144 -0.06954301 0.06648278
000050 0f fe cb ba 4b ab a6 bb b4 0c dd 3c 88 5e fa 3c
       -0.0015563386 -0.0050863377 0.026983596 0.030562654
000060 66 a9 85 3c 90 71 2f bd b9 d6 33 3d 12 3e f1 bb
       0.016316127 -0.04283291 0.043905947 -0.0073621357
000070 86 94 31 bd a8 9a 78 bd d9 0a 8d bd e3 0c fe 3c
       -0.043354534 -0.060694367 -0.06886835 0.031012004

model.2.weight f4 [16, 32]
000000 f1 93 4c 3e 0e f8 39 3f 9f c0 e4 bc df 60 8c ba
       0.1997831 0.72644126 -0.02792388 -0.0010710022
000010 e4 e7 a1 3f a6 b1 e9 be fa 47 d0 bd 9d 41 5a be
       1.2648892 -0.45643348 -0.101699784 -0.21314092
000020 13 44 3d 3f 06 40 e9 3a 47 d3 9e be f8 46 84 be
       0.73932 0.001779557 -0.31020567 -0.25835395
000030 03 bb c3 3f 77 df 11 3d 16 0f a9 3f b1 e1 50 bf
       1.5291446 0.035613503 1.3207729 -0.8159438
000040 16 bf 8a be 08 09 b2 be 71 ec 38 be b4 5e 32 3f
       -0.27098912 -0.34772515 -0.18058945 0.69675756
000050 4c 97 cc 3a bf 67 98 be 92 f1 be be 79 05 3c 3f
       0.0015609055 -0.29766652 -0.3729368 0.7344585
000060 8b 76 83 3f 17 ca ff bd 46 d6 fd 3e b5 a9 83 bd
       1.0270551 -0.124897175 0.4957754 -0.064288534
000070 5e bb 3a 3f 2c 48 e0 3e c9 fe 35 3c cc ad ae 3f
       0.7294215 0.43805063 0.011108109 1.3646789
000080 36 22 8e 3e 5c 80 d3 3e c2 e7 88 3e e1 07 87 3c
       0.27760476 0.41308868 0.26739317 0.01648325
000090 12 39 ee 3e b2 94 1b bf de 67 ba 3e da 5f e3 be
       0.46527916 -0.60773766 0.3640737 -0.44409066
0000a0 02 4a 12 3f 96 93 59 ba 36 e9 68 bf 5f 7a 5f bf
       0.57144177 -0.0008299885 -0.9098085 -0.872961
0000b0 d2 0b 58 3f 94 87 26 bf 48 8f 0f 3e f1 f7 01 bf
       0.84393036 -0.65050626 0.14019501 -0.50768954
0000c0 e2 fb 7f 3c b2 01 a1 be 4c 4b 6c bf ba 23 a1 3e
       0.015624018 -0.31446606 -0.92302394 0.3147257
0000d0 2e 14 01 bb b4 9a 56 bd 30 b1 98 be 3b 20 d6 3c
       -0.0019695866 -0.05239363 -0.29822683 0.026138416
0000e0 63 e3 35 3f d4 b7 d1 be d0 49 d5 3c e5 10 00 bf
       0.7105009 -0.40960562 0.026036173 -0.5002578
0000f0 bc 7b 1b 3d ab a8 fd bc 2d c7 26 3f c0 2b 16 3f
       0.0379598 -0.030964216 0.6514767 0.5866051
000100 0e b0 c0 ba 03 e2 de b9 76 13 b7 ba 33 46 ef ba
       -0.0014700906 -0.00042511532 -0.0013967592 -0.0018255174
000110 b6 70 85 3a b0 32 0f bb 66 c9 85 b9 f0 5a 15 bb
       0.0010180685 -0.002185028 -0.0002551779 -0.0022789799
000120 b0 eb a6 ba 8d 04 b1 3a 98 08 ab ba ae af c4 ba
       -0.0012735035 0.0013505385 -0.0013048826 -0.001500597
000130 ca a0 99 ba d0 e8 1a 39 50 3d 9d ba 89 d0 06 ba
       -0.0011720893 0.00014773314 -0.0011996422 -0.00051427685
000140 2c 76 0c b8 59 ca 01 bb bc 7e 52 38 37 df 36 ba
       -3.3488657e-05 -0.0019804446 5.0185932e-05 -0.00069760106
000150 55 cc fe 39 4e f1 81 ba dd 27 f4 b9 ea 21 e5 b9
       0.00048598895 -0.0009913833 -0.00046569007 -0.00043703552
000160 1f 80 9f 39 cd 82 19 ba 78 e6 98 ba d0 6f 41 ba
       0.000304223 -0.00058559777 -0.0011665365 -0.0007379027
000170 59 cc b5 ba 89 29 5d ba 03 2e 8c ba 4e 94 ab ba
       -0.0013870104 -0.000843667 -0.0010694865 -0.0013090463
000180 bf 4a 18 bc 6a 6b 1d bc 81 3b 0f 3a 6e e4 af b9
       -0.009295165 -0.009608129 0.0005463884 -0.00033548794
000190 83 d9 41 3b b2 7e 45 bb 2b 07 d1 bb df c3 17 bc
       0.002957911 -0.003013533 -0.0063790283 -0.009263008
0001a0 b4 8c 3e ba d8 bf 34 3a 89 48 98 bb 7c c3 11 ba
       -0.0007268891 0.0006895042 -0.0046473187 -0.00055604405
0001b0 60 f3 ac 3b 93 b6 cb bb 76 c5 32 bb 2b 8a 82 3a
       0.005278036 -0.006216833 -0.002727834 0.000995939
0001c0 d0 28 45 3a c5 86 0a 3b 35 88 e8 ba 26 8b 48 bb
       0.0007521035 0.0021137458 -0.0017740788 -0.0030600517
0001d0 bc 91 9f ba d3 d8 2d bb 38 9e 9b bb 70 2f 57 bc
       -0.001217417 -0.0026526942 -0.0047490858 -0.013133869
0001e0 d1 32 ab ba bb bd a1 ba 6c d0 46 bb b3 80 8b bb
       -0.0013061409 -0.0012339869 -0.0030336631 -0.0042572855
0001f0 59 16 05 b8 78 47 2e 3b 50 c2 62 bb fb 32 26 3b
       -3.1730484e-05 0.0026592892 -0.0034600683 0.0025359977
000200 12 93 90 3e a1 e5 07 bf 6d 68 21 bf f1 0f de 3b
       0.28237206 -0.5308476 -0.63049966 0.0067768027
000210 c1 fc 69 bf 14 73 23 3f cf 7f 7b be a7 87 df 3e
       -0.91401297 0.6384747 -0.24560474 0.43658182
000220 8b cb 29 bf a5 6a b4 39 85 f3 fb 3e e7 e3 04 3f
       -0.66326207 0.00034411732 0.49209228 0.5191025
000230 29 d3 79 bf ba df 8f 3e 63 47 7d bf b0 44 2e 3e
       -0.9758783 0.28100377 -0.9893705 0.1701839
000240 a4 70 77 3e 70 5a f7 3e 17 b8 11 3f 2e 24 01 bf
       0.24164063 0.48311186 0.56921524 -0.5044583
000250 24 2a b2 3a 18 59 c8 3e 21 9b 4e 3e c7 05 27 3e
       0.0013592881 0.39130473 0.20176364 0.16310798
000260 21 f2 d0 be e6 e2 d5 3e c8 6d e7 be 27 98 61 3e
       -0.4080973 0.41774672 -0.45200944 0.22030698
000270 6f dd b6 be 9b c2 b1 be 66 f5 8d 3e ee 6b 71 bf
       -0.35715815 -0.34718785 0.27726287 -0.9430531
000280 76 b5 f1 3d a8 bf 0e bf 6e cb bb bf e1 11 5b 3c
       0.11802189 -0.55761194 -1.4671457 0.013370962
000290 24 b5 95 bf 09 33 94 3e 2e 54 05 be 98 3a 02 3f
       -1.1695905 0.28945187 -0.13020393 0.50870657
0002a0 4f d2 01 bf 8c 7c a1 ba 4e d9 70 3f f8 cc 26 3e
       -0.5071153 -0.0012320443 0.9408158 0.16289127
0002b0 78 64 5e bf 03 de f9 3e e0 71 58 bf cd f2 f8 3e
       -0.86872053 0.48802194 -0.8454876 0.48622742
0002c0 6f 30 ca 3d d5 df cb 3e 00 90 10 3f 1e 67 94 be
       0.09872519 0.39819208 0.56469727 -0.28984922
0002d0 33 fe ba 3b 43 2e 78 3d c9 99 de 3e 95 ba 65 be
       0.0057065724 0.060590994 0.43476704 -0.22434457
0002e0 09 8a 58 be e4 f5 80 3d 63 b4 e0 be 49 f3 af 3d
       -0.21146406 0.062969 -0.43887624 0.08591325
0002f0 bf 15 7b be 50 4e 04 be 38 55 07 3e 76 d0 85 bf
       -0.24520014 -0.12920499 0.13216102 -1.0454242
000300 97 cb 6a 3e 31 d5 54 3e 93 bb 1e 3e 9b aa 60 bb
       0.22929226 0.20784451 0.15501241 -0.0034281376
000310 04 b0 d4 3f 25 c5 03 bf 14 1a 7e bf 15 7a 0e 3f
       1.6616216 -0.51472694 -0.9925854 0.5565503
000320 bb a1 d6 3f 60 fe 74 ba 86 74 bd 3c 42 8b d9 be
       1.6768106 -0.0009345766 0.023126852 -0.42489058
000330 ba 7b a2 3f ea 6d 35 bf 51 6a 04 c0 3f b9 af bf
       1.2694008 -0.7087084 -2.068989 -1.3728408
000340 a7 27 83 be 29 e6 3a be d6 b1 b5 bd ad 3a 91 3e
       -0.2561619 -0.18251862 -0.0887181 0.2836508
000350 e9 53 d9 bb d7 9a a7 be cf d9 c8 be 3e f3 b1 3f
       -0.0066323173 -0.3273532 -0.39228675 1.3902357
000360 9b 54 8f 3f 94 04 e9 3e 60 bc 33 3f 6c 1f 9f be
       1.1197695 0.45511305 0.7020931 -0.3107866
000370 3a 2e e7 3e 77 04 86 3e d5 2e f8 3e a8 ab d2 3f
       0.45152456 0.2617528 0.4847323 1.6458635
000380 4b 6a e9 3d fd 16 a4 be d0 b8 1d be 8b 45 3d 3c
       0.11397227 -0.3204879 -0.15402532 0.011552225
000390 45 8a 38 3f ee f5 0c bf a7 ed 11 bd 5e e7 b1 be
       0.7208598 -0.5506276 -0.035627034 -0.34746832
0003a0 67 d4 22 3f e5 90 6c ba c5 62 96 bf 06 2f 40 bf
       0.6360535 -0.00090242765 -1.1748892 -0.7507175
0003b0 c4 0d 06 3f fa a2 21 bf 0e fe aa bd a4 98 ba be
       0.52364755 -0.6313931 -0.08349238 -0.3644458
0003c0 a2 6b b1 bc a9 87 c5 be 5c bc 9c bf a5 f1 00 bd
       -0.021657769 -0.38580063 -1.2244983 -0.03148045
0003d0 77 04 03 bb 61 40 76 be b7 18 d8 be 34 51 40 bf
       -0.0019991675 -0.24047996 -0.42206356 -0.75123906
0003e0 5f 25 08 3f 54 37 19 bf be c6 46 3e f4 de b4 be
       0.53182024 -0.5985005 0.19411752 -0.3532635
0003f0 a2 73 9e be c8 dd e1 be c5 34 27 3e 8d 84 3c 3f
       -0.30947596 -0.44114518 0.16328724 0.73639756

model.2.bias f4 [16]
000000 79 6b 32 be db fa 80 3e 5b cb ad ba ca d9 ff bb
       -0.1742381 0.25191388 -0.0013259457 -0.007807945
000010 ef 7a 99 3e 2a f4 39 3e ee e4 a5 3c 19 0b fc 3e
       0.29976603 0.18159547 0.020250764 0.49227217
000020 4f a4 83 3d 07 88 f9 ba 7f 65 07 3e b1 f6 02 3e
       0.06427824 -0.0019037732 0.13222311 0.12789418
000030 50 c5 12 be d0 06 44 ba 8a f1 02 3f 7e d3 98 bc
       -0.14333081 -0.0007477822 0.5114981 -0.018655535

model.4.weight f4 [2, 16]
000000 66 9a 0c c0 c6 45 2a c0 44 f3 b0 39 18 6b 77 3b
       -2.1969237 -2.6605086 0.00033750583 0.0037753042
000010 68 a5 bc 3f 6b cf 3d 40 d5 92 0d c0 3a 3d 8d c0
       1.4737978 2.9657848 -2.212087 -4.413724
000020 9e ef b0 3f e0 cf 7d ba 6b 60 6b 40 a7 ed 40 40
       1.3823125 -0.000968216 3.67776 3.0145051
000030 3b d0 2f c0 ca a5 9b 39 f1 97 be c0 e1 02 43 40
       -2.7470844 0.00029687426 -5.9560475 3.0470507
000040 99 8f 0c 40 d7 1a 2a 40 ca 62 10 3a ab 2f c1 ba
       2.1962645 2.6578882 0.0005507885 -0.0014738938
000050 71 dc bc bf b0 d2 3d c0 0e 8c 0d 40 e1 3e 8d 40
       -1.4754773 -2.9659843 2.2116733 4.4139256
000060 9f ac b0 bf c0 5b 92 b9 18 5f 6b c0 b9 b7 40 c0
       -1.380268 -0.0002791565 -3.677679 -3.0112135
000070 2b df 2f 40 d4 c2 b4 39 75 7a be 40 3b 00 43 c0
       2.747996 0.00034477434 5.9524484 -3.046889

model.4.bias f4 [2]
000000 ea ce e5 3c 68 4d f2 bc
       0.028052766 -0.029577926

exp_avg f4 [32, 25]
000000 fc 17 db b9 2a 73 d7 b9 18 e9 c9 b9 c5 02 cb b9
       -0.00041788805 -0.000410938 -0.00038511376 -0.0003872124
000010 c6 11 cb b9 a6 e2 96 b9 b6 42 e8 b9 96 99 e2 b9
       -0.0003873242 -0.00028779096 -0.00044300192 -0.0004322051
000020 ff 1f c8 b9 31 10 c6 b9 f4 14 91 b9 43 ba 95 b9
       -0.00038170812 -0.00037777566 -0.00027672166 -0.0002855827
000030 67 cf e8 b9 46 47 dc b9 49 26 dc b9 c3 ed 8b b9
       -0.00044405015 -0.00042014773 -0.00041990195 -0.00026689292
000040 1c a3 82 b9 f9 9d 61 b9 0e 3c 9f b9 fb 95 c4 b9
       -0.00024917058 -0.00021516522 -0.00030371587 -0.00037495777
000050 77 18 77 b9 25 ed 7d b9 7d a5 6c b9 a8 ed 2c b9
       -0.0002356487 -0.00024216303 -0.00022568363 -0.00016491732
000060 0c 5d 4f b9 4b d7 d4 bb c4 58 cb bb 55 77 42 38
       -0.00019775721 -0.0064953915 -0.00620565 4.636434e-05
000070 e4 ff 85 3a e5 d3 94 3a 54 cd d0 bb 54 96 c7 bb
       0.0010223356 0.0011354653 -0.0063721333 -0.0060909186
000080 d8 28 2d bb 76 e2 53 3a ed dc 19 3a 18 e3 a5 bb
       -0.002642205 0.00080827565 0.00058694073 -0.005062472
000090 92 13 98 bb 31 61 4b bb 42 50 81 3a 19 27 bf 3a
       -0.004641005 -0.0031033272 0.0009865838 0.0014583796
0000a0 a3 9f 96 bb bd 65 7a bb 01 fc 4a bb 6e f6 88 39
       -0.004596667 -0.0038207613 -0.003097296 0.00026123546
0000b0 ce b5 2d 3b 89 a3 93 bb 08 01 4f bb 8b f0 3f bb
       0.002650607 -0.004505579 -0.0031586308 -0.0029287662
0000c0 d0 a0 fd ba cc eb 4c 3b c0 ae ad 3b 9d a0 b9 3b
       -0.0019350294 0.0031268476 0.005300373 0.0056648985
0000d0 57 34 c8 3b 87 54 d1 3b 1c ff d6 3b d2 af 90 3b
       0.006109755 0.0063882503 0.006561173 0.0044154907
0000e0 53 4f ba 3b 4a 55 e3 3b f4 0e d3 3b 26 8c e1 3b
       0.0056857257 0.0069376575 0.0064409915 0.006883162
0000f0 98 bd ad 3b d4 97 af 3b b1 5d d5 3b 28 ae dc 3b
       0.0053021424 0.0053586755 0.006511413 0.006734628
000100 ba 41 da 3b d5 94 af 3b 2f c4 a6 3b 18 17 97 3b
       0.0066606672 0.0053583183 0.005089305 0.0046109073
000110 45 68 a1 3b d6 77 bf 3b 74 d9 94 3b ce 08 99 3b
       0.00492576 0.005843143 0.004542524 0.004670239
000120 e7 53 9e 3b 73 2b 86 3b 34 91 94 3b 04 00 00 80
       0.0048317793 0.004094535 0.004533911 -6e-45
000130 04 00 00 80 04 00 00 80 04 00 00 80 04 00 00 00
       -6e-45 -6e-45 -6e-45 6e-45
000140 04 00 00 80 04 00 00 00 04 00 00 00 04 00 00 00
       -6e-45 6e-45 6e-45 6e-45
000150 04 00 00 00 04 00 00 80 04 00 00 00 04 00 00 00
       6e-45 -6e-45 6e-45 6e-45
000160 04 00 00 00 04 00 00 00 04 00 00 80 04 00 00 80
       6e-45 6e-45 -6e-45 -6e-45
000170 04 00 00 00 04 00 00 00 04 00 00 80 04 00 00 80
       6e-45 6e-45 -6e-45 -6e-45
000180 04 00 00 80 04 00 00 80 04 00 00 80 04 00 00 80
       -6e-45 -6e-45 -6e-45 -6e-45
000190 4d e7 9f b3 39 f4 6a b3 4f 46 70 35 86 65 a3 36
       -7.446088e-08 -5.470449e-08 8.950928e-07 4.8695974e-06
0001a0 c0 81 d8 36 28 26 b4 b3 46 5a 58 b3 0f 2b c3 34
       6.4524065e-06 -8.388844e-08 -5.0373522e-08 3.635291e-07
0001b0 5a 7b a1 36 3a 34 da 36 57 58 7b 37 5c db 5a 37
       4.812534e-06 6.5029863e-06 1.4981334e-05 1.3044886e-05
0001c0 4f 9f 9e 35 20 4a ac 36 36 48 da 36 f6 b9 78 37
       1.1818282e-06 5.1346287e-06 6.5053127e-06 1.4825249e-05
0001d0 cf 58 79 37 63 5a 7c 37 b6 c9 a0 37 d3 b8 b3 37
       1.4862234e-05 1.5041415e-05 1.9167415e-05 2.1424528e-05
0001e0 7b d8 78 37 2e 6c 79 37 93 8c 7c 37 be 7d 9c 37
       1.4832355e-05 1.4866744e-05 1.50531005e-05 1.8655202e-05
0001f0 98 51 b2 37 0a 41 5d 3c 80 62 54 3c cb 9f da 3b
       2.1257249e-05 0.013504276 0.012962937 0.006671881
000200 5b 32 cf 3b 74 39 cf 3b 17 8a 5b 3c 81 8a 4f 3c
       0.0063231415 0.0063239876 0.013399622 0.012667299
000210 5e 91 10 3c b4 65 d2 3b 82 05 c9 3b d8 1d 3f 3c
       0.008823721 0.0064208154 0.00613469 0.01166483
000220 30 6f 3a 3c a8 e9 33 3c e9 f0 d8 3b be 4e cb 3b
       0.011379048 0.010981001 0.0066205156 0.006204455
000230 f7 45 40 3c d8 66 3e 3c 71 33 3c 3c d2 5e 0f 3c
       0.011735431 0.0116212 0.011486874 0.008750634
000240 6d 24 c5 3b c1 af 45 3c 94 d3 3c 3c e7 64 36 3c
       0.006016305 0.012065829 0.0115250535 0.011132455
000250 d4 f2 2f 3c 91 5f c3 3b bb 7b a1 3b 70 d8 9c 3b
       0.010739047 0.00596232 0.00492808 0.0047865435
000260 90 50 52 3b 12 34 46 3b 63 7c 3a 3b 55 61 a1 3b
       0.0032091476 0.0030243439 0.0028455488 0.004924933
000270 c4 87 a0 3b fa 9f 82 3b 98 aa 41 3b 3c fa 4a 3b
       0.004898997 0.003986356 0.0029551145 0.0030971905
000280 ba cb a1 3b 89 1f a9 3b 74 82 ab 3b 35 75 65 3b
       0.004937616 0.00516123 0.005234057 0.0035012488
000290 a0 4e 5b 3b 30 9f a6 3b b4 17 b2 3b e8 52 bf 3b
       0.0033463612 0.0050848946 0.0054349545 0.0058387406
0002a0 e4 ad 9b 3b 46 4c 80 3b d5 62 a6 3b 69 9d ba 3b
       0.004750954 0.0039153425 0.0050776997 0.0056950343
0002b0 a1 e2 bd 3b 2d 7b ab 3b 1c 2f 86 3b 0e 17 7c b9
       0.0057948385 0.0052331896 0.0040949713 -0.00024041181
0002c0 51 90 75 b9 c9 cf 02 b9 8d aa b1 b8 92 05 9e b8
       -0.00023418783 -0.00012475172 -8.471785e-05 -7.535065e-05
0002d0 47 39 7c b9 9b 4d 75 b9 40 3c f2 b8 7a 9e 9f b8
       -0.0002405393 -0.00023393931 -0.00011550682 -7.6112294e-05
0002e0 26 ff 9c b8 88 a4 81 b9 80 44 6e b9 4e a4 bb b8
       -7.486185e-05 -0.00024727383 -0.00022722967 -8.947459e-05
0002f0 91 73 29 b8 86 72 29 b8 f6 62 81 b9 37 71 5f b9
       -4.040037e-05 -4.0399398e-05 -0.0002467853 -0.00021309113
000300 90 70 c2 b8 80 91 47 b8 37 be 45 b8 f4 9d 79 b9
       -9.271607e-05 -4.7580805e-05 -4.714561e-05 -0.00023805333
000310 aa d1 55 b9 7a d7 bf b8 c5 b1 4e b8 0c e3 45 b8
       -0.00020391369 -9.147725e-05 -4.9279788e-05 -4.7179914e-05
000320 98 38 88 b1 26 36 95 b1 ee d9 94 b1 2f cd 94 b1
       -3.964555e-09 -4.3426267e-09 -4.3321426e-09 -4.3306936e-09
000330 6e ab fb b1 c6 dd 3b b2 a9 2b e5 aa 4f a4 c5 af
       -7.3245507e-09 -1.0935258e-08 -4.0708867e-13 -3.595084e-10
000340 9b a4 9b b0 42 be 45 b1 76 de 9a b2 75 f0 0a b2
       -1.1324518e-09 -2.8775422e-09 -1.8029123e-08 -8.087331e-09
000350 0f 54 56 33 ab ee c8 35 df 99 fb 35 98 89 16 b4
       4.990221e-08 1.4970623e-06 1.874574e-06 -1.4019895e-07
000360 3a 5d 93 35 63 2a ef 35 87 73 ef 35 ea 6b ef 35
       1.0979486e-06 1.7819224e-06 1.784051e-06 1.7838295e-06
000370 fe 09 ed 35 64 08 ed 35 a0 9a ed 35 60 72 ef 35
       1.7660784e-06 1.7660318e-06 1.7702878e-06 1.7840175e-06
000380 0f d5 ee 35 04 00 00 00 04 00 00 00 04 00 00 00
       1.779439e-06 6e-45 6e-45 6e-45
000390 04 00 00 00 04 00 00 00 00 00 00 00 04 00 00 00
       6e-45 6e-45 0.0 6e-45
0003a0 04 00 00 00 04 00 00 00 04 00 00 00 00 00 00 00
       6e-45 6e-45 6e-45 0.0
0003b0 00 00 00 00 04 00 00 80 04 00 00 00 04 00 00 00
       0.0 -6e-45 6e-45 6e-45
0003c0 00 00 00 00 04 00 00 80 04 00 00 80 04 00 00 80
       0.0 -6e-45 -6e-45 -6e-45
0003d0 04 00 00 00 00 00 00 00 04 00 00 00 04 00 00 80
       6e-45 0.0 6e-45 -6e-45
0003e0 04 00 00 80 04 00 00 00 52 9f 02 3d a7 72 00 3d
       -6e-45 6e-45 0.03189022 0.03135934
0003f0 67 70 00 3d c1 2e 01 3d c0 cb 36 3d 99 06 08 3d
       0.031357195 0.03153873 0.044627905 0.033209417

exp_avg_sq f4 [32, 25]
000000 29 f7 2c 38 a9 88 2d 38 5b e7 29 38 d5 cb 36 38
       4.123818e-05 4.137369e-05 4.0508206e-05 4.3582015e-05
000010 95 c4 42 38 ea eb 24 38 14 62 30 38 df 91 25 38
       4.6436286e-05 3.932036e-05 4.2053012e-05 3.947492e-05
000020 f2 5d 40 38 2a 6f 47 38 1e f2 20 38 81 ad 20 38
       4.586386e-05 4.7548827e-05 3.8372462e-05 3.830856e-05
000030 39 a7 1e 38 57 3c 2d 38 2d 44 34 38 4d 29 2d 38
       3.7825874e-05 4.130261e-05 4.2978838e-05 4.128488e-05
000040 82 15 16 38 ca 72 c7 37 49 79 e5 37 b6 01 09 38
       3.5782818e-05 2.3776101e-05 2.7355405e-05 3.266494e-05
000050 fd 56 e0 37 67 87 c7 37 c5 b8 c5 37 e0 73 d1 37
       2.6743388e-05 2.37857e-05 2.357027e-05 2.49687e-05
000060 07 88 ee 37 96 ea 10 3c 5b c9 0a 3c 26 bf 02 3c
       2.8435154e-05 0.008844992 0.008470858 0.007980144
000070 86 5d ec 3b e6 39 fb 3b 80 de 1c 3c e0 ef 1a 3c
       0.0072132973 0.007666814 0.0095745325 0.009456605
000080 39 f3 0c 3c 34 7b 10 3c be e2 10 3c 36 0b 2c 3c
       0.008602911 0.008818436 0.008843122 0.01050072
000090 53 df 33 3c a4 84 3e 3c 96 f9 27 3c c4 aa 28 3c
       0.010978538 0.011628304 0.010252377 0.01029462
0000a0 64 5c 38 3c e7 f8 4a 3c 3e 7e 5b 3c 28 94 3b 3c
       0.011252496 0.0123884445 0.013396798 0.011448897
0000b0 a7 af 30 3c ff 3f 48 3c 68 3d 53 3c 90 dd 5d 3c
       0.010784066 0.012222289 0.012893058 0.013541594
0000c0 d7 04 49 3c b2 0d 35 3c e6 a9 18 3c 0e 83 1f 3c
       0.01226922 0.0110506285 0.009317851 0.009735836
0000d0 c2 dd 2c 3c 67 46 22 3c c2 db 20 3c 99 72 10 3c
       0.010550918 0.009904481 0.009818019 0.008816385
0000e0 00 36 19 3c 8c f8 29 3c c4 a7 25 3c 34 26 1b 3c
       0.0093512535 0.0103742 0.010110799 0.009469558
0000f0 c0 b3 0b 3c 80 07 0f 3c 0e 02 25 3c 2c 65 13 3c
       0.008526742 0.0087298155 0.010071291 0.008996289
000100 29 3a 0c 3c 4f c3 0a 3c 51 d9 0b 3c a2 85 00 3c
       0.008558788 0.008469417 0.008535699 0.007844361
000110 c8 df f5 3b f8 38 00 3c c5 36 fb 3b df 9d f5 3b
       0.0075034834 0.007826082 0.007666441 0.0074956263
000120 67 64 f7 3b 0a 7e dd 3b 9b d7 f0 3b f4 01 00 00
       0.0075498107 0.00675941 0.007349921 7e-43
000130 f4 01 00 00 f4 01 00 00 f4 01 00 00 f4 01 00 00
       7e-43 7e-43 7e-43 7e-43
000140 f4 01 00 00 f4 01 00 00 f4 01 00 00 f4 01 00 00
       7e-43 7e-43 7e-43 7e-43
000150 f4 01 00 00 f4 01 00 00 f4 01 00 00 f4 01 00 00
       7e-43 7e-43 7e-43 7e-43
000160 f4 01 00 00 f4 01 00 00 f4 01 00 00 f4 01 00 00
       7e-43 7e-43 7e-43 7e-43
000170 f4 01 00 00 f4 01 00 00 f4 01 00 00 f4 01 00 00
       7e-43 7e-43 7e-43 7e-43
000180 f4 01 00 00 f4 01 00 00 f4 01 00 00 f4 01 00 00
       7e-43 7e-43 7e-43 7e-43
000190 a4 18 cc 35 04 b2 ac 35 65 27 ba 35 94 ca 25 36
       1.5206356e-06 1.2866808e-06 1.3869545e-06 2.4704832e-06
0001a0 a3 57 69 36 10 2a b9 35 bc e3 4c 35 d5 73 99 33
       3.4770717e-06 1.3795816e-06 7.632732e-07 7.1456874e-08
0001b0 b6 ba 1b 36 b1 f7 6c 36 54 74 8b 35 f4 b5 c4 34
       2.320548e-06 3.5310916e-06 1.0390163e-06 3.6640233e-07
0001c0 3c 1c 1d 31 a7 41 69 36 62 5e e5 36 93 18 08 36
       2.2862556e-09 3.475792e-06 6.8357194e-06 2.0279883e-06
0001d0 87 08 5a 36 2b a5 7b 36 89 5c aa 36 03 1a e9 36
       3.2489495e-06 3.7498055e-06 5.0771673e-06 6.9469693e-06
0001e0 77 c0 85 36 81 fa 82 36 d6 2b 84 36 4d 98 ab 36
       3.9861147e-06 3.9034644e-06 3.9390097e-06 5.1139273e-06
0001f0 7c c4 e0 36 b4 ae 8f 3c f6 16 86 3c 4b aa 62 3c
       6.698594e-06 0.01753936 0.01636837 0.013834546
000200 9e 22 3f 3c ac eb 30 3c 11 da 96 3c 64 df 86 3c
       0.011665968 0.010798376 0.018414529 0.016463943
000210 81 b5 52 3c cd a7 1a 3c 1a 59 0d 3c 44 ca 9b 3c
       0.012860657 0.009439421 0.0086272005 0.019017346
000220 1d 41 8c 3c 51 8e 40 3c b9 e2 07 3c 9d 00 05 3c
       0.017120892 0.011752681 0.008293801 0.008117822
000230 83 4a 90 3c 47 5f 85 3c 85 45 49 3c 7a eb 0f 3c
       0.017613655 0.016280783 0.012284641 0.008784169
000240 63 e2 05 3c 3f fc 86 3c c5 e3 7a 3c 9b f8 51 3c
       0.008171651 0.016477702 0.015313094 0.01281562
000250 47 d1 2a 3c 7e c7 0f 3c de e0 24 3a 2e 2d 3c 3a
       0.010425872 0.00877559 0.00062896113 0.0007178363
000260 50 a7 54 3a 90 92 50 3a 68 74 3c 3a 54 1a 2e 3a
       0.00081120897 0.000795641 0.0007188977 0.00066414964
000270 4c d6 30 3a 9b 5e 44 3a 2f 18 34 3a 46 f9 15 3a
       0.00067458 0.0007490904 0.0006870059 0.00057210436
000280 1a cc 36 3a c5 dd 28 3a 22 7a 18 3a cb 4b 09 3a
       0.00069731625 0.00064417376 0.0005816539 0.0005237429
000290 92 f2 01 3a 11 37 23 3a 07 94 22 3a 85 f7 22 3a
       0.0004957105 0.0006226162 0.00062018674 0.0006216693
0002a0 1c ce 14 3a db 35 10 3a 86 18 24 3a f2 c8 21 3a
       0.00056764646 0.0005501189 0.0006259758 0.0006171606
0002b0 1d 31 28 3a 86 f0 1f 3a 77 ac 16 3a a2 92 7c 3a
       0.000641601 0.00061012094 0.0005747745 0.0009634887
0002c0 aa 55 74 3a eb 35 5c 3a dc 54 3e 3a 3b 92 20 3a
       0.0009320626 0.00084003684 0.000726057 0.00061253057
0002d0 82 b7 7c 3a 5d 76 69 3a 02 92 2d 3a 8d 42 35 39
       0.0009640382 0.0008905882 0.0006621183 0.00017286297
0002e0 d6 48 b4 38 30 e6 7c 3a 6b 70 23 3a 64 66 2f 39
       8.5966356e-05 0.0009647338 0.0006234708 0.00016727444
0002f0 bb 20 b4 38 89 fe b3 38 97 07 04 3a 89 49 c0 39
       8.5891654e-05 8.582796e-05 0.00050365314 0.00036675882
000300 5b 40 2e 39 20 af ba 38 3e 22 b4 38 2a bd ea 39
       0.00016617907 8.901791e-05 8.589447e-05 0.00044772896
000310 48 15 ba 39 21 41 32 39 b9 5c dc 38 5a 52 ce 38
       0.0003549254 0.00016999665 0.000105076884 9.8381846e-05
000320 01 de 16 30 c4 bb 93 30 ad e7 50 31 c2 25 32 33
       5.488517e-10 1.0749024e-09 3.0399676e-09 4.1478195e-08
000330 eb 4a e6 33 a2 ba 41 33 1f 7c d3 2f b7 b4 a7 30
       1.0723837e-07 4.5106056e-08 3.846887e-10 1.2202211e-09
000340 35 40 33 33 9a b3 25 35 e0 21 78 34 a3 ab 14 34
       4.173508e-08 6.1728645e-07 2.3109124e-07 1.3846015e-07
000350 6e fb 24 30 3b 9e cc 36 66 63 6b 37 ab 01 1e 35
       6.0020156e-10 6.098094e-06 1.40302345e-05 5.8862014e-07
000360 76 ec 20 36 3c 74 6e 37 00 54 6d 37 a6 a5 6c 37
       2.3979496e-06 1.4212968e-05 1.4145859e-05 1.4105264e-05
000370 f2 c3 4b 37 fe 4b 6f 37 f8 54 6f 37 08 23 6e 37
       1.2145365e-05 1.4263203e-05 1.4265293e-05 1.4194062e-05
000380 71 5e 6d 37 f4 01 00 00 f4 01 00 00 f4 01 00 00
       1.414829e-05 7e-43 7e-43 7e-43
000390 f4 01 00 00 f4 01 00 00 00 00 00 00 f4 01 00 00
       7e-43 7e-43 0.0 7e-43
0003a0 f4 01 00 00 f4 01 00 00 f4 01 00 00 00 00 00 00
       7e-43 7e-43 7e-43 0.0
0003b0 00 00 00 00 f4 01 00 00 f4 01 00 00 f4 01 00 00
       0.0 7e-43 7e-43 7e-43
0003c0 00 00 00 00 f4 01 00 00 f4 01 00 00 f4 01 00 00
       0.0 7e-43 7e-43 7e-43
0003d0 f4 01 00 00 00 00 00 00 f4 01 00 00 f4 01 00 00
       7e-43 0.0 7e-43 7e-43
0003e0 f4 01 00 00 f4 01 00 00 a4 88 ce 3c 2b 20 d7 3c
       7e-43 7e-43 0.02521164 0.026260456
0003f0 36 9c 01 3d ba 67 23 3d 07 9d 34 3d c6 36 c6 3c
       0.031643115 0.039893843 0.044095065 0.02419604

exp_avg f4 [32]
000000 2c f5 88 ba 06 8f 55 3a 9d c4 66 3c 04 00 00 00
       -0.0010449043 0.00081466173 0.014084962 6e-45
000010 87 57 e2 37 9a 30 25 3c b2 31 9a 3b 19 bf fc b9
       2.6982058e-05 0.010082388 0.004705631 -0.00048207564
000020 66 a3 c4 b5 04 00 00 00 7d 1e 86 3d 66 e5 97 bc
       -1.4650693e-06 6e-45 0.06548784 -0.018542003
000030 d8 0b 95 b6 ce db 88 3c 48 63 23 bd bd 74 46 bb
       -4.441925e-06 0.016706374 -0.039889604 -0.0030281984
000040 0b c0 96 b9 86 97 2c bc 99 9f 8c 3c 68 63 0d 3b
       -0.00028753313 -0.010534173 0.017165946 0.0021574143
000050 04 00 00 00 fd c2 b8 bb 5c ee ae 3c 87 a0 53 bc
       6e-45 -0.005638479 0.021353893 -0.012916691
000060 08 d8 64 b6 5e 84 b9 bb 6d 6d 34 35 65 61 b4 3c
       -3.4100394e-06 -0.0056615314 6.721446e-07 0.022019098
000070 bf af 3a 3c 5a 33 a3 3a 0e 80 f3 b9 df dc dd b6
       0.01139444 0.0012451217 -0.0004644398 -6.612026e-06

exp_avg_sq f4 [32]
000000 33 08 35 39 a5 42 cc 3c 54 51 b9 3c f4 01 00 00
       0.0001726456 0.024934122 0.022621788 7e-43
000010 e6 b5 4e 38 77 dc ea 3c be 70 be 3a 61 db 0d 3b
       4.9283633e-05 0.028669579 0.0014529449 0.0021645653
000020 0a 4e bd 37 f4 01 00 00 80 03 a0 3d dd d9 3e 3c
       2.2566895e-05 7e-43 0.078131676 0.011648622
000030 cb 7f 5b 36 d7 43 37 3c 16 db 91 3d f7 f7 0a 3c
       3.2707928e-06 0.011185608 0.071218655 0.008481971
000040 d6 b4 8c 3a 51 3e 0c 3c 2f a6 85 3d 35 8d 44 3c
       0.0010735046 0.008559779 0.06525838 0.011996557
000050 f4 01 00 00 24 3c 3e 3b d2 1b 52 3c c6 02 d6 3c
       7e-43 0.0029027546 0.012824016 0.02612437
000060 e9 5c c6 38 76 f5 04 3c 9b 12 5b 37 61 70 05 3c
       9.4586816e-05 0.008115163 1.3057749e-05 0.008144469
000070 ae 7f 17 3c 5e 2a de 3b b6 d0 b8 39 4a 4d cc 39
       0.00924675 0.006779953 0.00035250717 0.00038967497

exp_avg f4 [16, 32]
000000 c2 79 cf 38 af 0e da 39 6a fd 63 39 04 00 00 00
       9.893208e-05 0.0004159114 0.00021742811 6e-45
000010 8c 9e 8c 31 e8 f2 ab b9 82 c8 98 37 aa e4 64 37
       4.092561e-09 -0.0003279664 1.821318e-05 1.3643099e-05
000020 35 9f 7c b2 04 00 00 80 06 f2 13 ba d5 7b 58 39
       -1.470453e-08 -6e-45 -0.0005643669 0.00020645496
000030 f0 3e 4a b2 a6 4d ba b8 da 1a 93 ba 7a 90 a6 39
       -1.1772258e-08 -8.883634e-05 -0.0011223212 0.0003176963
000040 2c 2b d4 36 f8 1c b7 38 56 01 98 ba f8 34 1a b9
       6.323118e-06 8.731516e-05 -0.0011597078 -0.00014706317
000050 04 00 00 80 6e f2 fe 38 a4 48 db b8 95 a3 07 3a
       -6e-45 0.0001215682 -0.00010456264 0.0005174217
000060 d9 a8 4c b2 17 8f 3b 39 1a 22 f3 33 8d 51 f5 b8
       -1.1912754e-08 0.00017887015 1.1321772e-07 -0.000116977004
000070 bd 95 85 ba 34 68 18 bb 04 bb 70 36 32 83 8b b2
       -0.001019172 -0.002325547 3.5871644e-06 -1.624139e-08
000080 85 1a 87 39 b5 38 c8 3a f0 8b c1 b8 04 00 00 00
       0.00025768965 0.0015275689 -9.2290225e-05 6e-45
000090 b6 98 97 b2 f7 a0 52 39 22 b7 41 b8 c7 ce 77 36
       -1.7648158e-08 0.00020087125 -4.618534e-05 3.6926228e-06
0000a0 4d dd 0d b3 04 00 00 00 cd 88 80 ba 25 d8 4a 3a
       -3.3030393e-08 6e-45 -0.0009806395 0.00077378965
0000b0 10 89 37 b2 48 7e 90 b9 ee 58 d8 ba 3e 12 df 37
       -1.0683166e-08 -0.00027559907 -0.0016505995 2.6592166e-05
0000c0 a2 1d d4 33 26 97 b7 38 42 c9 2d 39 f7 11 9f 39
       9.8774095e-08 8.7542736e-05 0.0001657354 0.00030340228
0000d0 04 00 00 80 13 e4 b4 39 b8 ca 7c b9 2b c4 aa 3a
       -6e-45 0.00034502204 -0.00024108111 0.0013028433
0000e0 30 e8 77 b2 b9 cd e5 38 fd e9 a2 b2 67 c0 16 ba
       -1.4430086e-08 0.0001095789 -1.8965688e-08 -0.0005750716
0000f0 b9 f6 d6 ba 06 30 1a b9 50 13 8b b7 68 bb 92 b2
       -0.0016400433 -0.00014704475 -1.6579084e-05 -1.708186e-08
000100 04 00 00 00 04 00 00 00 00 00 00 00 04 00 00 00
       6e-45 6e-45 0.0 6e-45
000110 00 00 00 00 04 00 00 00 04 00 00 00 04 00 00 00
       0.0 6e-45 6e-45 6e-45
000120 00 00 00 00 00 00 00 00 04 00 00 00 04 00 00 00
       0.0 0.0 6e-45 6e-45
000130 04 00 00 00 04 00 00 00 00 00 00 00 04 00 00 00
       6e-45 6e-45 0.0 6e-45
000140 04 00 00 00 04 00 00 00 04 00 00 00 00 00 00 00
       6e-45 6e-45 6e-45 0.0
000150 04 00 00 00 00 00 00 00 00 00 00 00 00 00 00 00
       6e-45 0.0 0.0 0.0
000160 00 00 00 00 04 00 00 00 04 00 00 00 00 00 00 00
       0.0 6e-45 6e-45 0.0
000170 00 00 00 00 04 00 00 00 04 00 00 00 00 00 00 00
       0.0 6e-45 6e-45 0.0
000180 04 00 00 00 04 00 00 80 04 00 00 80 04 00 00 00
       6e-45 -6e-45 -6e-45 6e-45
000190 04 00 00 00 04 00 00 00 04 00 00 00 04 00 00 00
       6e-45 6e-45 6e-45 6e-45
0001a0 04 00 00 80 00 00 00 00 04 00 00 00 04 00 00 80
       -6e-45 0.0 6e-45 -6e-45
0001b0 04 00 00 00 04 00 00 00 04 00 00 00 04 00 00 00
       6e-45 6e-45 6e-45 6e-45
0001c0 04 00 00 80 04 00 00 00 04 00 00 00 04 00 00 00
       -6e-45 6e-45 6e-45 6e-45
0001d0 04 00 00 80 04 00 00 00 04 00 00 00 04 00 00 00
       -6e-45 6e-45 6e-45 6e-45
0001e0 04 00 00 00 04 00 00 80 04 00 00 00 04 00 00 00
       6e-45 -6e-45 6e-45 6e-45
0001f0 04 00 00 00 04 00 00 00 04 00 00 00 04 00 00 00
       6e-45 6e-45 6e-45 6e-45
000200 56 22 5f b9 15 37 b0 b9 d5 a1 8c b9 04 00 00 80
       -0.00021279728 -0.00033610375 -0.00026823455 -6e-45
000210 fb 3d 1f b2 67 13 69 39 48 ba 57 b8 26 d4 2f b7
       -9.269111e-09 0.0002222784 -5.1433482e-05 -1.04802075e-05
000220 a8 8e c6 af 04 00 00 00 05 e6 20 39 fe 33 50 b9
       -3.6117354e-10 6e-45 0.00015344478 -0.00019855794
000230 6a e5 8a 31 ef f4 4a b7 f3 ea 2f 3a 7b 72 1d ba
       4.04241e-09 -1.2097166e-05 0.00067107304 -0.00060061336
000240 5c 29 c5 b6 41 5d 01 b9 d3 c4 59 3a d8 19 de b8
       -5.8758724e-06 -0.00012337138 0.0008307222 -0.00010590599
000250 04 00 00 00 04 d2 c8 b8 a6 e3 b9 b7 ec 61 d4 b9
       6e-45 -9.5758616e-05 -2.2159726e-05 -0.00040508748
000260 fd 51 87 31 3f 2a 78 b9 6a 8a b4 b3 9f d6 a9 b9
       3.938338e-09 -0.00023666861 -8.4070805e-08 -0.00032394097
000270 1b 81 f6 39 d6 b3 d3 3a f9 f1 d2 36 85 8d 0a 32
       0.00047016967 0.0016151618 6.286657e-06 8.064835e-09
000280 8e 46 b8 b9 ab 63 d0 39 7c 1e 0b ba 04 00 00 80
       -0.00035147782 0.0003974711 -0.0005306972 -6e-45
000290 71 ff 9a b2 40 33 c4 39 53 b2 bd 39 be cf b0 b7
       -1.804412e-08 0.00037422217 0.0003618175 -2.1077572e-05
0002a0 54 6b 84 b0 04 00 00 00 51 98 14 3a 85 95 bc 39
       -9.634769e-10 6e-45 0.0005668449 0.00035969555
0002b0 08 7c 25 32 02 59 e5 39 26 e2 af 3a 75 b8 99 ba
       9.6324655e-09 0.000437446 0.0013418838 -0.0011727946
0002c0 2f 55 45 b7 47 9c 85 b9 e6 99 bc 3a 13 b9 79 39
       -1.1761948e-05 -0.00025484173 0.0014389127 0.00023815436
0002d0 04 00 00 00 ae 44 44 39 cf a8 3b 38 26 8e d0 39
       6e-45 0.00018717602 4.474149e-05 0.0003977876
0002e0 64 74 07 32 da ff e3 b9 86 bb 34 b4 2d df 90 b9
       7.884498e-09 -0.00043487438 -1.6832027e-07 -0.000276321
0002f0 36 93 cb 3a 8c d3 39 3b 9e 4f c3 b6 b6 20 93 32
       0.0015531543 0.0028354852 -5.8207215e-06 1.7127928e-08
000300 7f 28 9f 38 bf 8b ba 39 32 8d 66 39 04 00 00 80
       7.589254e-05 0.00035580804 0.00021987109 -6e-45
000310 44 c5 14 b2 ed e6 d8 b9 fd c5 94 39 4a 00 8b 36
       -8.659587e-09 -0.00041370784 0.00028376273 4.1425565e-06
000320 96 66 5f b2 04 00 00 80 0e 16 24 39 67 39 0c 39
       -1.3003634e-08 -6e-45 0.00015648475 0.00013372824
000330 89 99 f5 b1 6e 82 c9 39 f0 c2 b0 33 2e 0d 7e 39
       -7.1478934e-09 0.00038434885 8.2310976e-08 0.00024228237
000340 f6 2a 56 35 bc 9b a0 38 9b b2 ab ba 0d d9 72 b9
       7.978373e-07 7.658402e-05 -0.0013099493 -0.00023159776
000350 04 00 00 80 5b 30 e0 38 f7 c8 26 38 b0 0a 07 3a
       -6e-45 0.00010690159 3.9764647e-05 0.0005151434
000360 4a 8d cc b1 39 8a 40 39 09 77 87 b2 01 59 b1 39
       -5.953244e-09 0.00018362039 -1.57702e-08 0.00033826384
000370 2b 11 e3 39 59 d9 20 bb e9 cd fb b4 90 99 45 b2
       0.00043309605 -0.0024543612 -4.6902213e-07 -1.1501825e-08
000380 46 a5 9d 39 9d 4c 52 38 eb 84 de 38 04 00 00 00
       0.00030068512 5.0139253e-05 0.00010610543 6e-45
000390 34 96 91 b2 9a 3a cb b7 be b7 47 ba de fa 2e 36
       -1.6948526e-08 -2.4226774e-05 -0.0007618627 2.6074044e-06
0003a0 b9 2e d0 b2 04 00 00 80 3e 61 dc ba 7b 27 52 38
       -2.4235634e-08 -6e-45 -0.0016813648 5.010467e-05
0003b0 1b 0c 75 b2 b0 00 99 ba 43 c0 30 bb 3d 37 9b 39
       -1.4263629e-08 -0.0011673179 -0.0026970066 0.0002960506
0003c0 70 5e 18 33 d0 c0 b7 38 a1 00 60 b9 0b 1e 21 39
       3.547615e-08 8.762034e-05 -0.00021362539 0.00015365348
0003d0 04 00 00 80 42 31 51 37 32 bb ca b9 38 38 55 37
       -6e-45 1.24688395e-05 -0.00038667914 1.2708879e-05
0003e0 ae 57 4c b2 1f ab d9 38 a3 2b 07 b3 c9 72 54 ba
       -1.1894299e-08 0.0001037924 -3.1471824e-08 -0.00081042625
0003f0 65 98 51 bb f4 39 1c ba f9 26 a8 b1 83 47 d0 b2
       -0.0031981703 -0.00059595634 -4.893874e-09 -2.4246907e-08

exp_avg_sq f4 [16, 32]
000000 63 d6 cd 37 f1 f4 fe 38 a0 89 55 38 f4 01 00 00
       2.4537736e-05 0.00012157288 5.091133e-05 7e-43
000010 ad 5e 88 30 1b 15 98 37 e1 fa df 37 ec ce d6 35
       9.922211e-10 1.812964e-05 2.6700496e-05 1.6004465e-06
000020 5d fe d9 31 f4 01 00 00 e1 9d c6 38 65 88 62 38
       6.344449e-09 7e-43 9.470783e-05 5.4009626e-05
000030 ca f2 87 31 26 02 d7 38 c7 46 33 38 65 37 3a 38
       3.956619e-09 0.00010252399 4.2742842e-05 4.4397446e-05
000040 ce 9c 4d 36 98 13 3e 36 e4 b4 f2 38 f0 ac 61 38
       3.0638653e-06 2.8323611e-06 0.00011573153 5.380524e-05
000050 f4 01 00 00 b6 d5 d8 36 4c cf 78 37 fd 3b 91 38
       7e-43 6.462181e-06 1.4830217e-05 6.9253125e-05
000060 07 73 18 33 5b 38 72 37 57 5c 8b 33 5b 40 d0 38
       3.5494875e-08 1.4437445e-05 6.4894884e-08 9.9302e-05
000070 d3 36 a0 39 14 90 8f 39 e9 90 ea 34 69 ff 4b 32
       0.00030558425 0.00027382432 4.3691333e-07 1.1874229e-08
000080 b2 2f 09 38 4e 89 2f 38 4a d5 4b 38 f4 01 00 00
       3.2707765e-05 4.1851126e-05 4.8597612e-05 7e-43
000090 9a bd ae 2f 4e ab af 36 69 37 ef 37 57 d4 3c 35
       3.1785136e-10 5.235349e-06 2.8516823e-05 7.034445e-07
0000a0 46 aa 24 30 f4 01 00 00 9d d0 c5 37 ae d6 36 37
       5.9904826e-10 7e-43 2.3581373e-05 1.0898029e-05
0000b0 95 59 50 2e b2 7a c7 37 6d 17 8c 37 2e 2d 78 38
       4.737329e-11 2.3779783e-05 1.6700209e-05 5.9169884e-05
0000c0 3d 5b b1 35 56 92 db 35 b2 a9 2b 38 24 10 8d 38
       1.3214081e-06 1.6359361e-06 4.0927618e-05 6.72641e-05
0000d0 f4 01 00 00 5b cc 08 36 4c 62 48 36 4a 52 2c 38
       7e-43 2.038453e-06 2.9859539e-06 4.1084633e-05
0000e0 7c 99 5f 33 c0 75 44 37 42 37 ce 2f b2 c2 44 38
       5.2060827e-08 1.1709926e-05 3.7510445e-10 4.6911366e-05
0000f0 83 aa c6 38 5f 61 e5 38 31 61 bf 34 3d 83 91 32
       9.473136e-05 0.00010937708 3.5647238e-07 1.6939902e-08
000100 f4 01 00 00 f4 01 00 00 00 00 00 00 f4 01 00 00
       7e-43 7e-43 0.0 7e-43
000110 00 00 00 00 f4 01 00 00 f4 01 00 00 f4 01 00 00
       0.0 7e-43 7e-43 7e-43
000120 00 00 00 00 00 00 00 00 f4 01 00 00 f4 01 00 00
       0.0 0.0 7e-43 7e-43
000130 f4 01 00 00 f4 01 00 00 00 00 00 00 f4 01 00 00
       7e-43 7e-43 0.0 7e-43
000140 f4 01 00 00 f4 01 00 00 f4 01 00 00 00 00 00 00
       7e-43 7e-43 7e-43 0.0
000150 f4 01 00 00 00 00 00 00 00 00 00 00 00 00 00 00
       7e-43 0.0 0.0 0.0
000160 00 00 00 00 f4 01 00 00 f4 01 00 00 00 00 00 00
       0.0 7e-43 7e-43 0.0
000170 00 00 00 00 f4 01 00 00 f4 01 00 00 00 00 00 00
       0.0 7e-43 7e-43 0.0
000180 f4 01 00 00 f4 01 00 00 f4 01 00 00 f4 01 00 00
       7e-43 7e-43 7e-43 7e-43
000190 f4 01 00 00 f4 01 00 00 f4 01 00 00 f4 01 00 00
       7e-43 7e-43 7e-43 7e-43
0001a0 f4 01 00 00 00 00 00 00 f4 01 00 00 f4 01 00 00
       7e-43 0.0 7e-43 7e-43
0001b0 f4 01 00 00 f4 01 00 00 f4 01 00 00 f4 01 00 00
       7e-43 7e-43 7e-43 7e-43
0001c0 f4 01 00 00 f4 01 00 00 f4 01 00 00 f4 01 00 00
       7e-43 7e-43 7e-43 7e-43
0001d0 f4 01 00 00 f4 01 00 00 f4 01 00 00 f4 01 00 00
       7e-43 7e-43 7e-43 7e-43
0001e0 f4 01 00 00 f4 01 00 00 f4 01 00 00 f4 01 00 00
       7e-43 7e-43 7e-43 7e-43
0001f0 f4 01 00 00 f4 01 00 00 f4 01 00 00 f4 01 00 00
       7e-43 7e-43 7e-43 7e-43
000200 4b ff 65 37 95 14 65 38 38 2a 3a 38 f4 01 00 00
       1.3708904e-05 5.4617023e-05 4.4385175e-05 7e-43
000210 95 25 ee 2f 14 c6 23 37 ea a1 86 37 fa 10 53 35
       4.3318651e-10 9.761676e-06 1.6049442e-05 7.862833e-07
000220 3b 50 42 31 f4 01 00 00 2e 2d 33 38 e7 a2 cc 37
       2.8276321e-09 7e-43 4.2719003e-05 2.4394552e-05
000230 0a 0e f3 30 cd fe 40 38 5c 48 a0 37 97 09 0d 39
       1.7684567e-09 4.601367e-05 1.9107181e-05 0.0001345038
000240 f9 44 b7 35 1f df b8 36 cf 56 86 38 60 f0 9b 38
       1.3654636e-06 5.509602e-06 6.405787e-05 7.435749e-05
000250 f4 01 00 00 f6 60 42 36 fa e3 dd 36 63 56 0d 38
       7e-43 2.8964691e-06 6.612853e-06 3.3697474e-05
000260 f3 f3 89 32 b3 7b 7a 37 db 72 f8 32 8a f0 8f 38
       1.6059834e-08 1.4929962e-05 2.892323e-08 6.863575e-05
000270 a9 ec 10 39 19 6c 22 39 b6 fc 57 34 a8 70 bc 31
       0.00013821073 0.00015489793 2.0115371e-07 5.4843277e-09
000280 c1 0d 42 38 d8 6f 55 39 85 46 89 38 f4 01 00 00
       4.6266014e-05 0.00020354928 6.545804e-05 7e-43
000290 37 da f5 30 71 df 1b 38 bb e4 7f 38 1a fc 52 36
       1.7888117e-09 3.7162976e-05 6.100976e-05 3.143918e-06
0002a0 b6 dc 45 32 f4 01 00 00 c5 fa 17 39 33 05 c3 38
       1.1517093e-08 7e-43 0.00014493901 9.299293e-05
0002b0 89 eb f5 31 cc 5b 38 39 11 cc ac 38 13 e1 93 39
       7.1572157e-09 0.00017581804 8.2396095e-05 0.00028205718
0002c0 23 d2 84 36 77 3a 0d 37 d8 aa 7d 39 f4 5f 2a 39
       3.9583697e-06 8.417867e-06 0.00024191604 0.00016248209
0002d0 f4 01 00 00 7f 09 25 37 4e 85 db 37 9b 64 d8 38
       7e-43 9.836977e-06 2.616891e-05 0.00010318422
0002e0 3e 30 8b 33 fe f4 e5 37 0a ee fd 33 b2 51 22 39
       6.481467e-08 2.741301e-05 1.18245296e-07 0.00015479958
0002f0 54 9f e4 39 22 cc 18 3a 75 b1 66 35 a1 09 be 32
       0.00043606258 0.0005828758 8.593991e-07 2.212329e-08
000300 92 fd a7 37 08 c1 a1 38 1c 57 25 38 f4 01 00 00
       2.002603e-05 7.713033e-05 3.9420192e-05 7e-43
000310 22 19 98 2f 05 8c 49 37 20 32 35 36 50 87 8a 35
       2.7666497e-10 1.2013134e-05 2.7000278e-06 1.0321182e-06
000320 4a 7a 15 30 f4 01 00 00 d2 1f 7d 38 11 e6 88 37
       5.437967e-10 7e-43 6.0349535e-05 1.6319596e-05
000330 ce bf d0 2c 53 83 03 38 2e 3e fd 31 4b 8e 0d 38
       5.93301e-12 3.135514e-05 7.370338e-09 3.374954e-05
000340 71 1b d0 34 e1 94 0e 36 72 29 a2 38 8d 6b 4a 38
       3.8762985e-07 2.1246308e-06 7.732482e-05 4.8260717e-05
000350 f4 01 00 00 68 51 fc 35 cc 7a 1f 37 ae f9 8d 38
       7e-43 1.8799155e-06 9.505729e-06 6.7699104e-05
000360 97 23 02 2b a5 18 67 37 93 37 0c 2e d4 18 a0 38
       4.623467e-13 1.3774411e-05 3.1881674e-11 7.634019e-05
000370 e2 79 5a 39 b4 bb 49 39 c6 9e 87 34 7a e5 66 2c
       0.00020835505 0.00019238779 2.5261232e-07 3.281235e-12
000380 b4 ac f3 37 15 95 8c 37 fa f1 1c 38 f4 01 00 00
       2.9048279e-05 1.6758722e-05 3.7418657e-05 7e-43
000390 9b 98 60 30 12 cb c5 36 4b 2a 70 38 5b 22 21 32
       8.170759e-10 5.894698e-06 5.7259847e-05 9.379245e-09
0003a0 72 4d d2 30 f4 01 00 00 a8 21 16 38 45 89 cc 36
       1.5301522e-09 7e-43 3.579413e-05 6.095654e-06
0003b0 58 a0 89 2e 3f 5d ad 37 da 83 50 38 af e4 f5 38
       6.2585215e-11 2.0666628e-05 4.971386e-05 0.00011725106
0003c0 a0 bb 15 34 8e e4 e4 35 48 23 3e 38 89 fe b3 38
       1.3944964e-07 1.7053842e-06 4.533239e-05 8.582796e-05
0003d0 f4 01 00 00 cc 67 42 35 3c 52 33 36 2d 39 1f 37
       7e-43 7.2421676e-07 2.6720945e-06 9.490451e-06
0003e0 11 53 19 34 cf 5d 1c 37 a8 c7 9c 2f 02 f4 9a 38
       1.4279455e-07 9.320166e-06 2.85181e-10 7.388742e-05
0003f0 9b 73 ae 38 25 38 0b 39 b4 d0 57 35 20 4e 48 33
       8.3185e-05 0.00013276988 8.0397444e-07 4.6637183e-08

exp_avg f4 [16]
000000 78 02 8d bb e0 25 5b bb 04 00 00 00 04 00 00 00
       -0.004303273 -0.0033439323 6e-45 6e-45
000010 8a 9a dc 3a b1 2c e5 3b 3d a0 03 3b 6c a2 5d bc
       0.0016830724 0.006993853 0.0020084523 -0.013527494
000020 03 f3 9f bb 04 00 00 00 86 e7 58 3c 34 23 1f 3c
       -0.004881264 6e-45 0.013238793 0.009712983
000030 be 9b 21 bc 04 00 00 00 fc da 99 bc cf f9 12 bc
       -0.009863792 6e-45 -0.018781178 -0.008970692

exp_avg_sq f4 [16]
000000 53 c8 20 3b 59 47 3b 3b f4 01 00 00 f4 01 00 00
       0.0024533465 0.0028576462 7e-43 7e-43
000010 c1 7e c8 3a 01 ea ae 3b 76 87 bb 3a 65 0a 92 3b
       0.0015296565 0.005337954 0.0014307338 0.0044568055
000020 17 2a 46 3a f4 01 00 00 a5 4c d4 3b d2 75 8c 3b
       0.00075593725 7e-43 0.0064788633 0.004286506
000030 75 24 94 3b f4 01 00 00 12 23 84 3b 80 b6 42 3b
       0.0045209476 7e-43 0.004032501 0.002971083

exp_avg f4 [2, 16]
000000 de 53 cc 39 7c 59 0d b7 04 00 00 80 04 00 00 00
       0.00038972398 -8.42509e-06 -6e-45 6e-45
000010 30 5b 07 b9 67 d3 03 39 91 be 8d 38 70 0a 68 39
       -0.00012908573 0.00012571887 6.7589e-05 0.00022129132
000020 19 5c 27 ba 04 00 00 80 0a fd 43 39 3e d4 a2 39
       -0.0006384268 -6e-45 0.00018690914 0.0003105718
000030 60 17 cd 39 04 00 00 00 d4 e5 01 39 f1 04 f6 b9
       0.00039118063 6e-45 0.00012388016 -0.00046924458
000040 db 53 cc b9 12 54 0d 37 04 00 00 00 04 00 00 80
       -0.0003897239 8.423829e-06 6e-45 -6e-45
000050 d5 5a 07 39 b4 d3 03 b9 bd be 8d b8 f5 0a 68 b9
       0.00012908441 -0.00012571999 -6.758932e-05 -0.00022129326
000060 22 5c 27 3a 04 00 00 00 56 fd 43 b9 6e d4 a2 b9
       0.00063842733 6e-45 -0.00018691024 -0.0003105732
000070 4c 17 cd b9 04 00 00 80 60 e6 01 b9 13 05 f6 39
       -0.00039118004 -6e-45 -0.0001238822 0.00046924557

exp_avg_sq f4 [2, 16]
000000 7e 1f 4f 37 fc db 84 35 f4 01 00 00 f4 01 00 00
       1.2345494e-05 9.89879e-07 7e-43 7e-43
000010 bb 56 45 37 49 67 b8 36 9b 1c 12 37 da 72 29 35
       1.17623085e-05 5.4956513e-06 8.708938e-06 6.3124537e-07
000020 9e 1a c3 37 f4 01 00 00 c3 e9 5d 36 46 cb fa 36
       2.3258206e-05 7e-43 3.3067633e-06 7.4742447e-06
000030 aa 5c 8b 37 f4 01 00 00 d7 7e 85 34 d4 26 b5 36
       1.6613241e-05 7e-43 2.486547e-07 5.3987405e-06
000040 7c 1f 4f 37 fc db 84 35 f4 01 00 00 f4 01 00 00
       1.2345492e-05 9.89879e-07 7e-43 7e-43
000050 b7 56 45 37 4d 67 b8 36 9a 1c 12 37 de 72 29 35
       1.1762305e-05 5.495653e-06 8.7089375e-06 6.312456e-07
000060 9c 1a c3 37 f4 01 00 00 c6 e9 5d 36 47 cb fa 36
       2.3258202e-05 7e-43 3.306764e-06 7.474245e-06
000070 aa 5c 8b 37 f4 01 00 00 d2 7e 85 34 d5 26 b5 36
       1.6613241e-05 7e-43 2.4865454e-07 5.398741e-06

exp_avg f4 [2]
000000 52 43 1a 3a ad 43 1a ba
       0.00058846653 -0.0005884718

exp_avg_sq f4 [2]
000000 e4 a3 3a 39 e4 a3 3a 39
       0.00017799396 0.00017799396

loss f8 []
000000 ab aa aa e8 44 ea 15 3f
       8.359952532070262e-05
