23_no_regu_epoch_edge_detector.pth (torch, 25382 bytes, 19 tensors)

model.0.weight f4 [32, 25]
-0.008025306 -0.00884001 -0.0062997127 -0.005335106 -0.0034846456 -0.007151289 -0.010078129 -0.010270285
-0.002124856 -0.0017025043 -0.0077792597 -0.008585835 -0.008172701 0.001819642 -0.0011569242 -0.007247281
-0.009766691 -0.0077846134 -0.0010057722 -0.004941149 -0.0048595527 -0.0070504835 -0.0058984905 -0.0031344693
-0.0032631622 0.030878833 0.021441536 0.018635103 -0.012331395 0.025914002 -0.22248171 0.030843245
0.3807463 0.18250729 -0.23384571 -0.3912329 -0.2412483 0.83557266 -0.099229395 -0.44161874
-0.22255103 0.06026748 0.33231047 0.09673009 -0.27914667 0.068792306 -0.0138959065 0.027973518
0.003306167 0.024212038 -0.015499206 0.1890296 0.15189001 0.07627779 0.15232672 0.17204972
0.1560873 0.0909275 0.044411995 -0.05089789 -0.02987472 -0.2449564 -0.6193497 -0.4179406
-0.23228559 0.040396098 -0.033909928 0.07091677 -0.036418814 -0.0012902205 0.13608278 0.26719278
0.3218807 0.094139375 0.060856592 0.15858077 0.1005522 0.046750687 0.15543522 0.25370908
0.19920997 -0.16111004 -0.3821636 -0.0609473 0.37983793 0.43442807 -0.37884682 -0.53634834
-0.20181638 0.3455931 0.23058905 0.025476735 -0.0577427 -0.27779803 -0.046576183 -0.0098452745
-0.11096993 -0.028175404 -0.07486245 -0.11221546 -0.045321118 -0.074643634 -0.041456692 -0.06202452
0.16892803 -0.035272907 0.19124806 -0.008860824 -0.14903209 0.2525348 -0.1460757 0.64804065
-0.12075601 -0.8875805 0.018306332 0.034208886 0.19406421 -0.04518402 -0.0718428 0.18372443
-0.07696405 0.069976896 0.082689375 -0.10547891 0.023454024 0.029811952 -0.088923156 -0.049175903
0.07584962 -0.015987989 -0.15659042 0.13514526 0.33723938 0.09525986 -0.10214216 0.11356406
0.32185915 0.6301809 0.059578 -0.09075493 0.04692065 -0.359956 -0.47453186 -0.7314803
-0.108509384 0.030716415 0.13988668 0.10831435 0.08584524 -0.027393337 -0.005865113 -0.011013408
-0.009107867 -0.0017937407 -0.0018571729 -0.0021226895 -0.017742347 -0.023935655 -0.006437453 -0.0035518873
-0.005494217 -0.0032140724 0.0102798 -0.012862731 -0.01772971 -0.012342635 -0.0033063116 0.001582314
-0.0034231483 -0.009194198 -0.008144856 -0.0038752567 0.0008330702 -0.003357042 -0.005625035 0.1852129
-0.17654578 0.060247675 0.027281212 0.0514827 0.021800091 -0.09201581 -0.44802156 -0.2750058
0.056973033 0.08519744 0.052573968 -4.942006 -0.1727673 0.15060258 0.16748348 0.004682466
-0.65702534 -0.14843132 0.18067063 0.0969848 -0.1655549 0.12268774 -0.08084441 0.09769349
-0.05063135 -0.05115175 0.090721376 0.064541705 0.096329674 -0.10867714 0.09621133 -0.05448136
0.14679095 0.06782318 0.007951783 0.094649725 -6.0080504 -0.29280394 0.052613217 0.22214411
-0.27050233 -0.54668593 -0.17468205 -0.13125212 -0.22555453 0.08842509 -0.31399882 0.22268772
0.011824896 -0.003810132 -0.0069425036 -0.010488202 -0.015677838 -0.014894577 -0.0036203319 0.0031485115
-0.0034882491 -0.018677618 -0.01784575 -0.0079134945 0.0049058483 -0.007657652 -0.023524651 -0.017501077
-0.0071750702 -0.0014485916 -0.0109908655 -0.020792574 -0.014826097 -0.0013583666 0.0016558542 -0.0068167932
-0.015505962 -0.017689887 0.18065539 0.30755204 0.3181534 0.1798247 0.09991577 0.25564146
00000000: 937c 03bc b0d5 10bc d26d cebb 1dd2 aebb
00000010: a75e 64bb 5c55 eabb bd1e 25bc b344 28bc
00000020: 2b41 0bbb 9126 dfba 29e9 febb 9aab 0cbc
00000030: cbe6 05bc 0e81 ee3a efa3 97ba 997a edbb
00000040: 7904 20bc 1216 ffbb 1dd4 83ba 5de9 a1bb
00000050: e23c 9fbb be07 e7bb 2048 c1bb ab6b 4dbb
00000060: c7da 55bb 9bf5 fc3c 29a6 af3c a5a8 983c
00000070: 9f09 4abc 9a49 d43c 3fd2 63be f9aa fc3c
00000080: 2ef1 c23e 31e3 3a3e 4075 6fbe ae4f c8be
00000090: cb09 77be 17e8 553f c838 cbbd da1b e2be
000000a0: 6be4 63be 08db 763d 9924 aa3e 6d1a c63d
000000b0: 50ec 8ebe fbe2 8c3d a8ab 63bc b828 e53c
000000c0: 47ac 583b 5358 c63c 62f0 7dbc fa90 413e
000000d0: 0e89 1b3e 8837 9c3d 89fb 1b3e cd2d 303e
000000e0: 59d5 1f3e 3238 ba3d 5ae9 353d 4e7a 50bd
000000f0: d4bb f4bc dad5 7abe b48d 1ebf 4ffc d5be
00000100: 46dc 6dbe 6176 253d 23e5 0abd d03c 913d
00000110: e52b 15bd 9e1c a9ba 4959 0b3e 7ecd 883e
00000120: 8ccd a43e 25cc c03d c344 793d ff62 223e
00000130: 50ee cd3d a67d 3f3d 692a 1f3e 28e6 813e
00000140: b3fd 4b3e 08fa 24be f3aa c3be e0a3 79bd
00000150: 1e7a c23e 5b6d de3e 36f8 c1be 204e 09bf
00000160: f4a8 4ebe 94f1 b03e 891f 6c3e 96b4 d03c
00000170: 9c83 6cbd 8b3b 8ebe abc6 3ebd 134e 21bc
00000180: 3444 e3bd 1bd0 e6bc 7c51 99bd 38d1 e5bd
00000190: a3a2 39bd c3de 98bd 7ece 29bd 6c0d 7ebd
000001a0: 78fb 2c3e 537a 10bd 88d6 433e fd2c 11bc
000001b0: de9b 18be 3e4c 813e de94 15be fee5 253f
000001c0: ed4e f7bd 7a38 63bf 29f7 953c 9e1e 0c3d
000001d0: c5b8 463e e112 39bd 5122 93bd 4222 3c3e
000001e0: 549f 9dbd 0c50 8f3d 0c59 a93d 5405 d8bd
000001f0: a722 c03c 3238 f43c 581d b6bd ac6c 49bd
00000200: 0c57 9b3d 3ef9 82bc 3d59 20be 8563 0a3e
00000210: a4aa ac3e 9a17 c33d e92f d1bd 4694 e83d
00000220: b9ca a43e 8953 213f 1008 743d b9dd b9bd
00000230: de2f 403d 274c b8be d7f5 f2be 4b42 3bbf
00000240: 2b3a debd fea0 fb3c 743e 0f3e ead3 dd3d
00000250: a1cf af3d fe67 e0bc 2230 c0bb 9571 34bc
00000260: 2a39 15bc f31b ebba 626c f3ba d21c 0bbb
00000270: 6658 91bc b514 c4bc 45f1 d2bb c8c6 68bb
00000280: d508 b4bb 30a3 52bb 9b6c 283c 34be 52bc
00000290: e63d 91bc c338 4abc b4ae 58bb a665 cf3a
000002a0: e656 60bb 43a3 16bc 0172 05bc 05f8 7dbb
000002b0: 6562 5a3a d201 5cbb 3752 b8bb 73a8 3d3e
000002c0: 6bc8 34be 44c6 763d d97c df3c 86df 523d
000002d0: 1b96 b23c c972 bcbd 1563 e5be 8fcd 8cbe
000002e0: 8e5c 693d ff7b ae3d cd57 573d ea24 9ec0
000002f0: e9e9 30be 9037 1a3e ca80 2b3e 5f6f 993b
00000300: d032 28bf 61fe 17be b901 393e f89f c63d
00000310: 3987 29be b643 fb3d c191 a5bd 8613 c83d
00000320: d262 4fbd 7f84 51bd 21cc b93d 712e 843d
00000330: 7e48 c53d 1f92 debd 720a c53d d927 5fbd
00000340: 5e50 163e e1e6 8a3d 3248 023c b7d7 c13d
00000350: f341 c0c0 66ea 95be f580 573d bf79 633e
00000360: 487f 8abe 9cf3 0bbf dadf 32be f566 06be
00000370: c4f7 66be 3718 b53d 74c4 a0be 4008 643e
00000380: 35bd 413c 68b3 79bb f17d e3bb b5d6 2bbc
00000390: cf6e 80bc 6208 74bc 1743 6dbb 4257 4e3b
000003a0: 1c9b 64bb ce01 99bc 4031 92bc 9aa7 01bc
000003b0: 3dc1 a03b 0aed fabb c5b6 c0bc 6b5e 8fbc
000003c0: da1c ebbb abde bdba 0813 34bc 3055 aabc
000003d0: 28e9 72bc 380b b2ba 3f09 d93a 685f dfbb
000003e0: b80c 7ebc 62ea 90bc bafd 383e 7677 9d3e
000003f0: 01e5 a23e f723 383e a4a0 cc3d 70e3 823e

model.0.bias f4 [32]
-0.0022443505 -0.017119782 -0.16385345 -0.04404812 -0.007302412 -0.004856267 -0.0026001702 0.0229527
0.023370186 -0.008933243 -0.08992986 -0.0008986948 -0.062115677 -0.0007108329 -0.04418677 -0.021244846
0.024219608 0.083437786 -0.06423853 -0.0006000323 0.014383124 -0.050452933 -0.07926271 0.014070527
-0.035639066 0.040491853 0.09171347 0.048483867 -0.015467782 -0.0012910145 -0.0020217106 -0.0038403715
00000000: f415 13bb c93e 8cbc 33c9 27be cd6b 34bd
00000010: 1249 efbb 5221 9fbb 9e67 2abb 4d07 bc3c
00000020: d572 bf3c bd5c 12bc 252d b8bd 6396 6bba
00000030: 026d 7ebd 3057 3aba 30fd 34bd ac09 aebc
00000040: 3368 c63c 6ee1 aa3d 7e8f 83bd 7c4b 1dba
00000050: 32a7 6b3c bca7 4ebd 7d54 a2bd 1188 663c
00000060: 45fa 11bd c9da 253d 46d4 bb3d 0597 463d
00000070: 946c 7dbc 4237 a9ba ad7e 04bb beae 7bbb

model.2.weight f4 [16, 32]
0.004997577 -1.1348162 0.47680974 0.79279006 -0.34939468 -0.43143094 -0.013631674 0.9841883
1.731454 -7.528398e-05 0.91420466 0.00035496434 0.85518306 -0.34645912 0.7798952 0.052420888
0.92408204 -0.36108738 -0.67530435 0.0009964466 0.52824277 0.13590162 0.089982815 -0.23904161
-0.9617592 0.87488085 -0.32586774 0.5225488 -0.07867466 -0.0011061529 0.00013578274 -0.0010999739
0.0029224688 0.21886048 -0.50893754 -0.4524208 -0.3487373 1.1909584 0.001808386 -0.72522044
-1.3170702 0.00039793112 0.112786636 -0.0055073625 -0.33274114 1.3776047 -0.43144396 0.50936866
-0.33082575 0.70836556 -0.49836212 -0.0050208797 -0.153409 -0.67960835 -0.58714706 0.2415146
0.64989394 -0.5778466 1.1304277 -0.4232302 0.526188 -0.00081579166 0.00015299664 -0.0010990424
-0.0006749749 -1.2599785 0.109252065 -0.51699823 0.58708274 0.44043982 -0.005960711 -0.8535144
-1.4392717 0.00041491643 -0.18749723 -0.0008696255 0.22874734 -0.5665605 -0.5062783 -0.004713405
-0.6520932 0.50350285 0.6718874 0.0035518005 -0.36846966 -0.2363918 -0.18495189 0.5832395
0.8904389 -0.69063723 0.21372464 -0.35449496 0.23033565 -6.208878e-05 0.0004982352 0.00014864128
0.0037667858 0.5405399 0.18913303 0.4309212 -0.41929573 -1.7791399 0.00055049855 0.84070665
1.5201218 0.014737279 0.25956786 -0.00018479346 -0.08984016 -1.7104063 0.71716166 0.124487564
0.7301585 -0.45465705 -1.390011 -0.0080271745 0.7917134 -0.093278185 0.849916 -0.15423955
-0.3630317 0.6377875 -0.3648786 1.1601189 -0.12016619 -0.00018903491 -0.00010777861 -0.0037068648
-0.0032796902 -1.0705386 -0.057149332 0.66995853 -0.31235996 -0.5215503 0.02113121 0.97257245
1.6058357 -0.012668832 -0.33785087 -0.0024921293 -0.114090145 -0.12839346 0.6913312 -0.024459869
1.2275273 0.12078343 -0.18559454 -0.0008740068 0.9238916 0.23467237 0.28855127 0.182756
-0.1919145 0.8992895 0.30393788 0.98955965 0.048155 -0.0003176809 -9.956749e-05 0.0039738226
-0.0014471454 -1.3077843 -0.16680594 -0.5486348 -0.4367356 -0.6891285 0.0050921054 0.9435481
1.131517 0.006043811 -0.15719783 -0.00024982757 -0.20778115 -0.87753516 -0.16015373 -0.97130054
0.8355653 0.032080702 -1.3534925 -0.008058434 0.092648804 -0.4397917 -0.71743184 -0.31271526
-1.0150666 0.69021344 0.092579216 0.43573254 -0.9189786 0.00043155835 -0.0006342699 -0.0052703554
-0.0038094416 -1.7122943 0.2187086 -0.40771794 0.5342976 -0.025162656 -0.007196827 -0.8674669
-1.118648 -0.0019427668 -0.131926 0.0006297428 0.05939634 -0.52019316 -0.38493684 0.010606944
-0.73400074 0.036500204 0.7266472 0.002983525 -0.4337125 0.06376379 -0.06095435 0.4928174
1.1603272 -0.6603855 0.19136924 -0.19378869 0.06707281 0.00042843475 -0.00048650146 -0.00093086594
-0.00071785337 -1.3452183 0.10704951 -0.41175923 0.5252594 0.005833597 2.1161597e-06 -0.85402924
-1.1546607 -0.004919035 -0.03259414 -0.000752438 -0.097363345 -0.022670694 -0.45677647 0.23457105
-0.857124 0.08393755 0.6919982 0.004032993 -0.4231911 -0.1277335 -0.3035518 0.46131334
1.2113132 -0.69076574 0.24473873 -0.23088825 0.04218203 -0.0008896006 -0.0019779713 -0.00016289715
00000000: b7c2 a33b a841 91bf 6820 f43e 4af4 4a3f
00000010: dce3 b2be 84e4 dcbe 6357 5fbc c4f3 7b3f
00000020: 49a0 dd3f c7e1 9db8 5109 6a3f 821a ba39
00000030: 47ed 5a3f 1763 b1be 36a7 473f 49b7 563d
00000040: a490 6c3f 72e0 b8be bfe0 2cbf 339b 823a
00000050: eb3a 073f cb29 0b3e e948 b83d 53c7 74be
00000060: da35 76bf 31f8 5f3f 23d8 a6be c2c5 053f
00000070: 2e20 a1bd 55fc 90ba e760 0e39 002d 90ba
00000080: e486 3f3b f61c 603e bb49 02bf b3a3 e7be
00000090: b28d b2be 5371 983f 5d07 ed3a 0ca8 39bf
000000a0: c295 a8bf 69a1 d039 aefc e63d 1b77 b4bb
000000b0: 0c5d aabe 5a55 b03f 39e6 dcbe fc65 023f
000000c0: fe61 a9be 7257 353f 5229 ffbe 3186 a4bb
000000d0: 4017 1dbe d0fa 2dbf 454f 16bf 9a4f 773e
000000e0: 735f 263f c1ed 13bf dbb1 903f a1b1 d8be
000000f0: 42b4 063f dada 55ba b96d 2039 be0d 90ba
00000100: ccf0 30ba fa46 a1bf 8cbf df3d ff59 04bf
00000110: 0e4b 163f 5481 e13e 1152 c3bb eb7f 5abf
00000120: 0e3a b8bf 2489 d939 46ff 3fbe 94f7 63ba
00000130: be3c 6a3e 1c0a 11bf 749b 01bf e872 9abb
00000140: 94ef 26bf 90e5 003f d000 2c3f 53c5 683b
00000150: 0ea8 bcbe b110 72be 0764 3dbe 2f4f 153f
00000160: cef3 633f 9acd 30bf a2da 5a3e 5d80 b5be
00000170: 1cdd 6b3e a935 82b8 009c 023a 97dc 1b39
00000180: 2edc 763b d360 0a3f 17ac 413e b4a1 dc3e
00000190: eead d6be dbba e3bf 554f 103a 8d38 573f
000001a0: 5a93 c23f a174 713c 14e6 843e 1ec5 41b9
000001b0: 1efe b7bd 98ee dabf e897 373f 56f3 fe3d
000001c0: abeb 3a3f cfc8 e8be e1eb b1bf 6984 03bc
000001d0: bbad 4a3f a208 bfbd 1894 593f f9f0 1dbe
000001e0: 4adf b9be 0b46 233f 5ed1 babe c77e 943f
000001f0: b119 f6bd ac37 46b9 3307 e2b8 dfee 72bb
00000200: 12f0 56bb 6907 89bf 6b15 6abd 6782 2b3f
00000210: a5ed 9fbe 5284 05bf 5c1b ad3c 82fa 783f
00000220: 068c cd3f ef90 4fbc cafa acbe fe52 23bb
00000230: 18a8 e9bd 9379 03be 15fb 303f 1060 c8bc
00000240: 9d1f 9d3f 4e5d f73d 7f0c 3ebe 9a1d 65ba
00000250: 2984 6c3f f44d 703e febc 933e 6424 3b3e
00000260: 3c85 44be d637 663f bf9d 9b3e c853 7d3f
00000270: 2d3e 453d 698e a6b9 e4ce d0b8 d736 823b
00000280: 24ae bdba 7a65 a7bf 2dcf 2abe 5573 0cbf
00000290: cf9b dfbe ba6a 30bf addb a63b 5e8c 713f
000002a0: 8dd5 903f 290b c63b 78f8 20be 4afb 82b9
000002b0: 95c4 54be 25a6 60bf 57ff 23be 27a7 78bf
000002c0: 9ce7 553f 0e67 033d 3e3f adbf 8607 04bc
000002d0: a8be bd3d 612c e1be 9da9 37bf 371c a0be
000002e0: b4ed 81bf d4b1 303f 2c9a bd3d 5618 df3e
000002f0: 2e42 6bbf c842 e239 2245 26ba f2b2 acbb
00000300: d3a7 79bb 762c dbbf 26f5 5f3e 68c0 d0be
00000310: bac7 083f ea21 cebc 5cd3 ebbb 5012 5ebf
00000320: dc2f 8fbf 70a4 feba 9c17 07be 5315 253a
00000330: 9449 733d 612b 05bf 7116 c5be bfc8 2d3c
00000340: 79e7 3bbf 3d81 153d 8d05 3a3f 3e87 433b
00000350: 910f debe 9796 823d 45ab 79bd 9052 fc3e
00000360: 9a85 943f 060f 29bf 4cf6 433e 8b70 46be
00000370: 785d 893d 8a9f e039 1f11 ffb9 5b05 74ba
00000380: 532e 3cba 1d30 acbf c63c db3d 1bd2 d2be
00000390: 6677 063f c227 bf3b 5903 0e36 a9a1 5abf
000003a0: eccb 93bf db2f a1bb 6f81 05bd 423f 45ba
000003b0: 6f66 c7bd e4b7 b9bc 9bde e9be 6533 703e
000003c0: 7a6c 5bbf 73e7 ab3d cb26 313f 3327 843b
000003d0: 81ac d8be 92cc 02be 246b 9bbe 4331 ec3e
000003e0: 500c 9b3f 06d6 30bf ca9c 7a3e f86d 6cbe
000003f0: 10c7 2c3d 1634 69ba daa0 01bb 5fcf 2ab9

model.2.bias f4 [16]
0.118026994 0.026922066 0.09481965 0.41812313 -0.07326301 0.57764816 0.05420869 0.066331215
0.19565366 0.0047670905 0.21281303 0.04827375 0.22903827 -0.0017762682 0.37809375 -0.00469771
00000000: 23b8 f13d aa8b dc3c ce30 c23d 3c14 d63e
00000010: eb0a 96bd c0e0 133f ee09 5e3d a9d8 873d
00000020: 6f59 483e 4135 9c3b a9eb 593e b2ba 453d
00000030: 0289 6a3e acd1 e8ba 8195 c13e 3fef 99bb

model.4.weight f4 [2, 16]
-2.7862294 2.8503022 2.2351272 -2.0919824 -1.3071578 -6.215823 2.5674982 2.4049833
1.4790899 2.8758337 1.5076464 3.7415116 1.6296693 -0.0019589704 -1.909559 -0.0002332088
2.7856321 -2.8502707 -2.233224 2.0918305 1.3075157 6.21411 -2.5677676 -2.4086947
-1.4817396 -2.873333 -1.5089164 -3.7424452 -1.6310012 0.00035764338 1.9113835 -0.0029300456
00000000: 9551 32c0 5a6b 3640 530c 0f40 0ae3 05c0
00000010: f250 a7bf 06e8 c6c0 e451 2440 3feb 1940
00000020: d152 bd3f a90d 3840 8ffa c03f ed74 6f40
00000030: 0199 d03f 1262 00bb 6e6c f4bf 8389 74b9
00000040: cc47 3240 d66a 36c0 24ed 0ec0 8de0 0540
00000050: ad5c a73f fdd9 c640 4e56 24c0 0e28 1ac0
00000060: a5a9 bdbf b0e4 37c0 2c24 c1bf 3984 6fc0
00000070: a6c4 d0bf 1582 bb39 37a8 f43f 0206 40bb

model.4.bias f4 [2]
-0.23008129 0.23014207
00000000: 6e9a 6bbe 5daa 6b3e

exp_avg f4 [32, 25]
6e-45 6e-45 6e-45 6e-45 6e-45 6e-45 6e-45 6e-45
6e-45 6e-45 6e-45 6e-45 6e-45 6e-45 6e-45 6e-45
6e-45 6e-45 6e-45 6e-45 6e-45 6e-45 6e-45 6e-45
6e-45 -0.00034519998 -0.0011950424 -0.0021625008 0.000332275 0.00020163001 -0.00014799762 -0.0006228603
-0.0004431444 0.0003247253 -4.2161188e-05 4.8334427e-06 0.00010005334 7.331018e-05 0.0002090517 -0.0003107973
0.0036078473 0.0034914415 -0.00019098434 -0.0003475558 -0.00022553299 0.0028693245 0.0026950645 -0.00030578588
-0.0012240581 -0.00036541276 -0.00011884667 -0.00015092448 -0.0002560679 -0.00025729582 -0.00026011976 -9.4958494e-05
-0.00013170422 -0.000252296 -0.00025339128 -0.0002593439 -8.0556834e-05 -6.4929336e-05 -0.00017176635 -0.00022899387
-0.00022500989 -7.447248e-05 -4.111279e-05 -9.79673e-05 -0.00015070935 -0.00018339323 -7.3454765e-05 -2.8527538e-05
-0.000107462045 -0.00011860905 -0.00014133399 0.0052406816 0.0048035015 0.0048879585 0.0049236435 0.0049297777
0.0054061003 0.0050125443 0.0046194424 0.004911268 0.0041056965 0.005140442 0.0049934364 0.0044075428
0.0040206583 0.003049078 0.005038121 0.004386741 0.0023930136 0.0023653074 0.0025359693 0.0026979665
0.0027706025 0.0024714605 0.0025750562 0.002458594 -0.005098652 -0.004606957 -0.0045733536 -0.004263923
-0.004097721 -0.005507026 -0.004954996 -0.0045149704 -0.004121226 -0.0034428225 -0.005890659 -0.0058568055
-0.004784906 -0.003487448 -0.0025051953 -0.005852802 -0.005446515 -0.0037206972 -0.0029130902 -0.002641425
-0.004120505 -0.0041843317 -0.003700864 -0.003520852 -0.0030345086 -0.0024288865 -0.002306181 -0.0023503893
-0.0023058357 -0.0022578135 -0.0026191443 -0.0023950697 -0.002332823 -0.0022973644 -0.0014168157 -0.0025345196
-0.0023543874 -0.002152341 -0.0014254927 -0.00034725218 -0.002399406 -0.001773144 0.00028592328 0.00031194722
0.0002845151 -3.3099135e-05 -0.00020588514 9.102354e-06 0.00022235475 0.00031706542 6e-45 6e-45
-6e-45 -6e-45 -6e-45 6e-45 6e-45 6e-45 6e-45 -6e-45
6e-45 6e-45 6e-45 6e-45 -6e-45 6e-45 6e-45 6e-45
6e-45 6e-45 6e-45 6e-45 6e-45 6e-45 6e-45 6.7208435e-05
4.160611e-05 6.9472306e-10 1.339605e-10 -2.2212841e-08 6.720858e-05 5.8675007e-05 4.267673e-06 3.7233952e-10
-2.5211857e-09 6.720879e-05 5.8674876e-05 4.2672877e-06 3.6553574e-10 -2.017629e-09 6.720901e-05 5.8674625e-05
4.267196e-06 7.4554266e-11 -1.9985043e-09 6.719812e-05 5.8674068e-05 4.267118e-06 -1.7570154e-10 -1.0009065e-09
-2.5657805e-09 -1.871176e-09 -1.7773627e-09 -2.1231188e-09 -3.637892e-08 -2.5613403e-09 -2.0797382e-09 -1.7300437e-09
-1.760675e-09 -6.0617054e-09 -1.1221079e-09 -1.5234467e-09 1.4876866e-10 3.778097e-09 1.1587218e-09 -5.46605e-10
-9.448953e-12 1.4251818e-16 -1.20395e-10 -3.5320962e-09 -1.679291e-08 -4.0366295e-22 -3.0785853e-11 -1.7958554e-10
-2.1281392e-09 -6e-45 -6e-45 6e-45 -6e-45 -6e-45 6e-45 -6e-45
-6e-45 -6e-45 -6e-45 6e-45 6e-45 -6e-45 -6e-45 -6e-45
6e-45 6e-45 6e-45 -6e-45 6e-45 6e-45 -6e-45 -6e-45
-6e-45 -6e-45 0.0015086769 0.0012208571 0.0011393311 0.0011101901 0.001065762 0.0016322318
00000000: 0400 0000 0400 0000 0400 0000 0400 0000
00000010: 0400 0000 0400 0000 0400 0000 0400 0000
00000020: 0400 0000 0400 0000 0400 0000 0400 0000
00000030: 0400 0000 0400 0000 0400 0000 0400 0000
00000040: 0400 0000 0400 0000 0400 0000 0400 0000
00000050: 0400 0000 0400 0000 0400 0000 0400 0000
00000060: 0400 0000 f5fb b4b9 f8a2 9cba beb8 0dbb
00000070: 3235 ae39 a56c 5339 cf2f 1bb9 7247 23ba
00000080: d655 e8b9 e43f aa39 3bd6 30b8 f52e a236
00000090: bad3 d138 1abe 9938 e334 5b39 82f2 a2b9
000000a0: a271 6c3b abd0 643b f842 48b9 2638 b6b9
000000b0: 0d7d 6cb9 470b 3c3b ae9f 303b e351 a0b9
000000c0: 9370 a0ba df94 bfb9 523d f9b8 7b41 1eb9
000000d0: da40 86b9 a9e5 86b9 af60 88b9 7424 c7b8
000000e0: 151a 0ab9 9946 84b9 9ad9 84b9 8df8 87b9
000000f0: 9ff0 a8b8 ac2a 88b8 2e1c 34b9 131e 70b9
00000100: a2f0 6bb9 1c2e 9cb8 8670 2cb8 cb73 cdb8
00000110: bc07 1eb9 3f4d 40b9 ba0b 9ab8 6c4e efb7
00000120: 3f5d e1b8 c0bd f8b8 0e33 14b9 06ba ab3b
00000130: b166 9d3b 2b2b a03b 8456 a13b f989 a13b
00000140: a825 b13b 4540 a43b b15e 973b b4ee a03b
00000150: 1489 863b 2771 a83b fb9f a33b 266d 903b
00000160: babf 833b 0ad3 473b d216 a53b a7be 8f3b
00000170: 1bd4 1c3b 4603 1b3b 8132 263b 5ed0 303b
00000180: ff92 353b 3af8 213b 46c2 283b 5d20 213b
00000190: 9812 a7bb f5f5 96bb 12dc 95bb 61b8 8bbb
000001a0: 2d46 86bb 4874 b4bb 855d a2bb 51f2 93bb
000001b0: 590b 87bb faa0 61bb 6e06 c1bb 72ea bfbb
000001c0: b3ca 9cbb ab8d 64bb 342e 24bb ddc8 bfbb
000001d0: ae78 b2bb f1d6 73bb 8be9 3ebb c21b 2dbb
000001e0: 4d05 87bb b81c 89bb 328a 72bb 18be 66bb
000001f0: 9bde 46bb f42d 1fbb 4c23 17bb fd08 1abb
00000200: 811d 17bb d3f7 13bb f3a5 2bbb 9af6 1cbb
00000210: 46e2 18bb 618f 16bb 72b4 b9ba 2f1a 26bb
00000220: 114c 1abb 4a0e 0dbb 99d7 baba 660f b6b9
00000230: 5a3f 1dbb d768 e8ba f9e7 9539 d98c a339
00000240: f82a 9539 edd3 0ab8 dfe2 57b9 50b6 1837
00000250: e627 6939 cd3b a639 0400 0000 0400 0000
00000260: 0400 0080 0400 0080 0400 0080 0400 0000
00000270: 0400 0000 0400 0000 0400 0000 0400 0080
00000280: 0400 0000 0400 0000 0400 0000 0400 0000
00000290: 0400 0080 0400 0000 0400 0000 0400 0000
000002a0: 0400 0000 0400 0000 0400 0000 0400 0000
000002b0: 0400 0000 0400 0000 0400 0000 41f2 8c38
000002c0: 3882 2e38 caf6 3e30 874a 132f 8ece beb2
000002d0: 55f2 8c38 cf19 7638 0833 8f36 21b2 cc2f
000002e0: 2b41 2db1 72f2 8c38 ab19 7638 b92f 8f36
000002f0: 95f4 c82f 81a6 0ab1 90f2 8c38 6619 7638
00000300: ef2e 8f36 52f2 a32e 0f56 09b1 b7ec 8c38
00000310: cd18 7638 442e 8f36 962f 41af 4490 89b0
00000320: b051 30b1 1496 00b1 6447 f4b0 4de6 11b1
00000330: 0c3f 1cb3 9303 30b1 24eb 0eb1 80c6 edb0
00000340: 3ffc f1b0 5347 d0b1 a938 9ab0 8461 d1b0
00000350: a892 232f 7ed0 8131 e640 9f30 e83f 16b0
00000360: 4d3a 26ad f14f 2425 2e60 04af 4bb9 72b1
00000370: 0040 90b2 d1ff f39b ca65 07ae d674 45af
00000380: 9f3e 12b1 0400 0080 0400 0080 0400 0000
00000390: 0400 0080 0400 0080 0400 0000 0400 0080
000003a0: 0400 0080 0400 0080 0400 0080 0400 0000
000003b0: 0400 0000 0400 0080 0400 0080 0400 0080
000003c0: 0400 0000 0400 0000 0400 0000 0400 0080
000003d0: 0400 0000 0400 0000 0400 0080 0400 0080
000003e0: 0400 0080 0400 0080 ccbe c53a 2b05 a03a
000003f0: 9c55 953a cc83 913a 0ab1 8b3a 9cf0 d53a

exp_avg_sq f4 [32, 25]
7e-43 7e-43 7e-43 7e-43 7e-43 7e-43 7e-43 7e-43
7e-43 7e-43 7e-43 7e-43 7e-43 7e-43 7e-43 7e-43
7e-43 7e-43 7e-43 7e-43 7e-43 7e-43 7e-43 7e-43
7e-43 0.06118526 0.06313947 0.06706786 0.06325315 0.06290233 0.059997804 0.06341804
0.06941839 0.06432814 0.0578299 0.05986664 0.061051015 0.07209445 0.058729142 0.056829296
0.060470104 0.061934583 0.060944676 0.05810075 0.056245565 0.05939328 0.056950875 0.05830668
0.054909714 0.057034764 0.00019340946 0.00019609313 0.00023350329 0.00034085856 0.00035795537 0.00018508913
0.00019791815 0.0002690515 0.00032723614 0.0003344842 0.00018840263 0.00018158107 0.00017452404 0.00017908432
0.00021731698 0.00024387482 0.0002455333 0.00023899536 0.00022352702 0.00021119746 0.00024187194 0.00024207956
0.00023936498 0.00023151156 0.00022902736 0.019769376 0.01871906 0.017183334 0.019703817 0.021557232
0.019565199 0.017907307 0.014829351 0.01805428 0.02110066 0.01937997 0.017093953 0.011814814
0.015853664 0.018828318 0.02055068 0.017590199 0.011979881 0.013754568 0.01616057 0.01716475
0.014965562 0.01210918 0.013862445 0.015060418 0.022996977 0.021469777 0.01846407 0.017294507
0.016154613 0.024298493 0.022260731 0.017688703 0.0151946945 0.014291742 0.02637111 0.023454651
0.01625735 0.013681007 0.014275135 0.025850004 0.023451926 0.018736629 0.015311243 0.01466461
0.02431843 0.022021735 0.019027157 0.017853612 0.016347254 0.021010246 0.021545026 0.021453205
0.022179289 0.021633703 0.019351257 0.020698454 0.021406664 0.02147034 0.020879557 0.01685824
0.017400071 0.017700283 0.017538339 0.017529702 0.015599045 0.013933998 0.010065613 0.0125017
0.01404536 0.011776638 0.01085776 0.010016261 0.0100659765 0.010866855 7e-43 7e-43
7e-43 7e-43 7e-43 7e-43 7e-43 7e-43 7e-43 7e-43
7e-43 7e-43 7e-43 7e-43 7e-43 7e-43 7e-43 7e-43
7e-43 7e-43 7e-43 7e-43 7e-43 7e-43 7e-43 1.405357e-07
1.3561426e-07 1.7924086e-07 3.917153e-07 7.961325e-07 7.780955e-08 4.5835197e-08 2.8383235e-08 4.1010478e-07
8.1417e-07 7.782886e-08 5.1356153e-08 3.9334055e-10 4.0599159e-07 8.1718565e-07 7.781673e-08 5.140317e-08
8.6363305e-10 3.2571427e-07 7.8622946e-07 9.289751e-08 6.042557e-08 4.4610648e-08 4.307976e-07 6.1928057e-07
2.1227913e-06 5.1108298e-05 8.9233385e-05 9.14788e-05 9.2236216e-05 2.4209297e-07 1.0033876e-06 4.776477e-05
9.122952e-05 9.218736e-05 1.4694126e-07 3.2981134e-07 3.6498015e-08 4.578271e-05 8.878381e-05 2.5092971e-08
4.924833e-09 6.617985e-10 1.0278376e-06 3.5560955e-05 6.5261023e-09 4.859408e-09 4.330964e-08 1.0556043e-06
4.17713e-06 7e-43 7e-43 7e-43 7e-43 7e-43 7e-43 7e-43
7e-43 7e-43 7e-43 7e-43 7e-43 7e-43 7e-43 7e-43
7e-43 7e-43 7e-43 7e-43 7e-43 7e-43 7e-43 7e-43
7e-43 7e-43 0.0034837713 0.003618527 0.003813258 0.0038902326 0.0037974126 0.0032748466
00000000: f401 0000 f401 0000 f401 0000 f401 0000
00000010: f401 0000 f401 0000 f401 0000 f401 0000
00000020: f401 0000 f401 0000 f401 0000 f401 0000
00000030: f401 0000 f401 0000 f401 0000 f401 0000
00000040: f401 0000 f401 0000 f401 0000 f401 0000
00000050: f401 0000 f401 0000 f401 0000 f401 0000
00000060: f401 0000 659d 7a3d 444f 813d e05a 893d
00000070: de8a 813d f0d2 803d 42c0 753d 51e1 813d
00000080: 3b2b 8e3d 79be 833d 0cdf 6c3d b936 753d
00000090: a110 7a3d 41a6 933d f88d 703d d6c5 683d
000000a0: 80af 773d 1eaf 7d3d 20a1 793d 0dfb 6d3d
000000b0: c061 663d 5e46 733d 5245 693d fcd2 6e3d
000000c0: 02e9 603d 499d 693d f5cd 4a39 599e 4d39
000000d0: 90d8 7439 43b5 b239 f5ab bb39 7c14 4239
000000e0: 4088 4f39 7b0f 8d39 e490 ab39 b65d af39
000000f0: f28d 4539 cc66 3e39 7100 3739 95c8 3b39
00000100: 95df 6339 a6b8 7f39 ecba 8039 d49a 7a39
00000110: 9462 6a39 e374 5d39 019f 7d39 bdd6 7d39
00000120: 0cfe 7a39 e9c1 7239 1027 7039 63f3 a13c
00000130: b758 993c 10c4 8c3c e669 a13c cb98 b03c
00000140: 3247 a03c 58b2 923c cef6 723c 92e6 933c
00000150: 4bdb ac3c bec2 9e3c 9e08 8c3c ec92 413c
00000160: 8bdf 813c d83d 9a3c e659 a83c 5219 903c
00000170: 4347 443c d75a 613c 2c63 843c 179d 8c3c
00000180: 1e32 753c 9565 463c 4f1f 633c f9bf 763c
00000190: 2864 bc3c 63e1 af3c f641 973c 36ad 8d3c
000001a0: ae56 843c a20d c73c 235c b63c e6e7 903c
000001b0: 2bf3 783c e927 6a3c 3a08 d83c f823 c03c
000001c0: 222e 853c 4d26 603c 41e2 693c 63c3 d33c
000001d0: 411e c03c 8f7d 993c 02dc 7a3c d543 703c
000001e0: 7237 c73c ed66 b43c d7de 9b3c bd41 923c
000001f0: adea 853c ae1d ac3c 327f b03c a2be af3c
00000200: 57b1 b53c 2a39 b13c 8786 9e3c ce8f a93c
00000210: 075d af3c 91e2 af3c 9b0b ab3c 4b1a 8a3c
00000220: 988a 8e3c 2f00 913c 90ac 8f3c 739a 8f3c
00000230: 2393 7f3c 6c4b 643c 3eea 243c eed3 4c3c
00000240: 821e 663c cdf2 403c bfe4 313c 3e1b 243c
00000250: c4eb 243c e50a 323c f401 0000 f401 0000
00000260: f401 0000 f401 0000 f401 0000 f401 0000
00000270: f401 0000 f401 0000 f401 0000 f401 0000
00000280: f401 0000 f401 0000 f401 0000 f401 0000
00000290: f401 0000 f401 0000 f401 0000 f401 0000
000002a0: f401 0000 f401 0000 f401 0000 f401 0000
000002b0: f401 0000 f401 0000 f401 0000 29e6 1634
000002c0: 5d9d 1134 5a75 4034 f14c d234 cfb5 5535
000002d0: 4118 a733 55dc 4433 65cf f332 5f2c dc34
000002e0: 568d 5a35 de22 a733 b092 5c33 c33d d82f
000002f0: 0ff7 d934 925c 5b35 331c a733 62c6 5c33
00000300: c664 6d30 d4dd ae34 470d 5335 f27e c733
00000310: 4fc3 8133 ed99 3f33 5f48 e734 a33c 2635
00000320: 4775 0e36 1e5d 5638 cf22 bb38 4fd8 bf38
00000330: f16e c138 01f9 8134 23ac 8635 0857 4838
00000340: 7a52 bf38 b654 c138 e8c6 1d34 ed10 b134
00000350: fec1 1c33 cf06 4038 7231 ba38 078c d732
00000360: 4a37 a931 eee9 3530 3bf4 8935 4927 1538
00000370: 343c e031 cef7 a631 7403 3a33 4aae 8d35
00000380: 4629 8c36 f401 0000 f401 0000 f401 0000
00000390: f401 0000 f401 0000 f401 0000 f401 0000
000003a0: f401 0000 f401 0000 f401 0000 f401 0000
000003b0: f401 0000 f401 0000 f401 0000 f401 0000
000003c0: f401 0000 f401 0000 f401 0000 f401 0000
000003d0: f401 0000 f401 0000 f401 0000 f401 0000
000003e0: f401 0000 f401 0000 fc4f 643b cf24 6d3b
000003f0: dae7 793b 46f3 7e3b 03de 783b cf9e 563b

exp_avg f4 [32]
6e-45 0.014850632 8.099723e-06 0.007521836 -0.008360446 -0.002684775 6e-45 0.00023541147
-5.4585365e-05 6e-45 0.0007227494 6e-45 -0.0012871383 0.0019981079 0.0110165505 -0.009585542
9.3732466e-05 0.00073632656 -0.006235296 6e-45 -1.4257405e-05 0.0023449208 -0.0039470834 -0.002008162
-0.021248344 -3.1116128e-05 -0.0005317459 -2.1950062e-05 0.00015327097 0.0 6e-45 6e-45
00000000: 0400 0000 1150 733c 0ce4 0737 bc79 f63b
00000010: 41fa 08bc 0df3 2fbb 0400 0000 c9d8 7639
00000020: 97f2 64b8 0400 0000 e476 3d3a 0400 0000
00000030: 32b5 a8ba b0f2 023b c37e 343c ad0c 1dbc
00000040: 3c92 c438 0a06 413a 7451 ccbb 0400 0000
00000050: 1733 6fb7 3ead 193b 8956 81bb 5e9b 03bb
00000060: 0211 aebc b082 02b8 dd64 0bba 6621 b8b7
00000070: 5db7 2039 0000 0000 0400 0000 0400 0000

exp_avg_sq f4 [32]
7e-43 0.14436534 0.00051315146 0.039256066 0.036222838 0.033734214 7e-43 7.713584e-06
0.0014396212 7e-43 0.0056057675 7e-43 0.005708413 0.030038057 0.018380135 0.023573916
0.00015723477 0.003859419 0.096444234 7e-43 1.4344504e-07 0.0053110737 0.014006403 0.0022274174
0.13144724 3.568488e-06 0.0016941971 6.4076534e-07 0.036117878 0.0 7e-43 7e-43
00000000: f401 0000 82d4 133e 0385 063a f8ca 203d
00000010: 665e 143d e32c 0a3d f401 0000 9769 0137
00000020: acb1 bc3a f401 0000 96b0 b73b f401 0000
00000030: a40d bb3b 5f12 f63c f091 963c 161e c13c
00000040: 63df 2439 4eee 7c3b 8e84 c53d f401 0000
00000050: df05 1a34 8408 ae3b 1d7b 653c ddf9 113b
00000060: 1b9a 063e 287a 6f36 d20f de3a 0f01 2c35
00000070: 57f0 133d 0000 0000 f401 0000 f401 0000

exp_avg f4 [16, 32]
-6e-45 0.00018062344 0.00013975053 0.00021603206 0.0003030192 0.0011099023 -6e-45 -1.42191245e-08
-9.6731036e-08 -6e-45 0.0009189193 -6e-45 -0.0005857902 -0.000494491 -2.0163114e-05 -0.00046710964
-3.9621046e-08 5.4350284e-07 0.0005809278 -6e-45 -5.856661e-08 0.001007929 -2.3358469e-05 4.0440846e-06
0.00014149328 -1.6730208e-07 1.3886985e-05 -1.9918524e-07 0.0006913112 0.0 0.0 -6e-45
6e-45 0.00017726836 5.2799365e-05 -0.0002158331 -0.00014092453 -0.0011994964 6e-45 9.875035e-08
9.897676e-08 6e-45 -0.00094289 6e-45 0.0006181875 0.0005176641 1.614559e-05 6.518996e-05
4.6296236e-08 5.8479463e-07 -0.00036214883 6e-45 5.9876434e-08 -0.0006490789 0.00079926214 -3.4639422e-07
-4.8446276e-05 1.7116062e-07 -1.1736336e-05 2.0377769e-07 -1.2601685e-06 0.0 6e-45 6e-45
6e-45 0.0001877002 -7.981957e-05 -0.00018635562 -0.0003256554 -0.0010127116 6e-45 1.1343042e-08
7.7472066e-08 -6e-45 -0.000768005 6e-45 -9.602734e-05 -0.00019890636 -0.00021689478 -0.00040964753
3.1740967e-08 4.641513e-07 -0.00060565176 6e-45 4.692212e-08 -0.0013832356 0.000620021 -9.391974e-06
-5.4344928e-05 1.3410381e-07 -1.0501864e-05 1.5969152e-07 -6.0927556e-05 0.0 6e-45 -6e-45
-6e-45 -0.0003195135 -7.6666875e-05 7.018435e-05 1.6267328e-05 -3.40088e-05 -6e-45 -7.2486614e-08
-7.263044e-08 -6e-45 -2.2885728e-05 -6e-45 5.5685967e-05 0.000117696894 0.00011050862 0.00040541688
-4.762423e-08 -3.2256992e-06 -7.959799e-06 -6e-45 -4.3972726e-08 -0.00010476152 -0.0005942515 -3.44142e-08
3.559269e-05 -1.2562045e-07 6.5879526e-06 -1.4955964e-07 -0.00049249845 0.0 -6e-45 -6e-45
-6e-45 -1.8321599e-09 2.1847161e-05 4.2943073e-05 1.7255337e-05 3.1566733e-06 -6e-45 -6.6761934e-09
-4.5398004e-08 -6e-45 8.462079e-06 -6e-45 1.0965398e-05 1.3834077e-05 2.3435505e-05 1.8734085e-05
-1.8568795e-08 1.8433735e-06 2.5247708e-05 -6e-45 -2.7487442e-08 4.2318345e-05 2.1934206e-05 1.7363411e-06
5.0457482e-05 -7.85219e-08 4.1323397e-06 -9.3485376e-08 4.3196116e-05 0.0 0.0 -6e-45
-6e-45 0.00021511283 -8.677065e-05 0.00022090289 -1.659061e-05 -3.9092505e-05 -6e-45 -2.1539135e-07
-2.1578337e-07 -6e-45 9.782713e-05 -6e-45 -1.8716768e-05 -1.6256985e-05 0.00025501286 0.0012730027
-2.2372895e-07 -5.1786e-07 -2.2222943e-05 -6e-45 -1.3063715e-07 -0.00025422501 0.00066010654 -1.2976537e-07
0.0012215595 -3.7326234e-07 -8.420264e-07 -4.4436686e-07 0.00025554295 0.0 -6e-45 -6e-45
6e-45 9.859644e-05 -0.00011325523 -0.0001267892 -0.00028461716 -9.945193e-05 6e-45 -7.586653e-08
3.5562198e-12 6e-45 -7.022183e-05 6e-45 -0.000112292975 -0.0002288904 -0.00024960967 -0.00052506366
-5.5914505e-08 -5.7897905e-06 -0.0003643051 6e-45 2.7709055e-12 -0.0005731234 -0.00012384349 -1.0847113e-05
-0.00043448934 1.03204846e-13 -1.2630422e-05 -1.6901534e-13 -0.00014054397 0.0 0.0 6e-45
6e-45 5.1156498e-05 -0.00015455384 -0.00012116293 -0.000273283 -0.0002150263 6e-45 -7.111727e-08
9.680463e-13 -6e-45 -0.000102149475 6e-45 0.00050207577 0.00035186423 -8.411984e-05 -4.1212043e-06
-5.241413e-08 -7.634734e-06 -0.00035028253 6e-45 -1.0690332e-13 -0.0003579896 -0.00013643937 -1.0167743e-05
-0.00041040574 9.6726406e-14 -1.3998436e-05 -1.584067e-13 -0.00015559442 0.0 6e-45 6e-45
00000000: 0400 0080 bc65 3d39 ff89 1239 aa86 6239
00000010: 8cde 9e39 247a 913a 0400 0080 5f48 74b2
00000020: 73ba cfb3 0400 0080 a1e3 703a 0400 0080
00000030: b78f 19ba bba0 01ba f523 a9b7 65e6 f4b9
00000040: cd2b 2ab3 3be5 1135 6849 183a 0400 0080
00000050: ab8a 7bb3 7c1c 843a eef1 c3b7 6cb2 8736
00000060: d05d 1439 a5a3 33b4 25fc 6837 9fdf 55b4
00000070: 1c39 353a 0000 0000 0000 0000 0400 0080
00000080: 0400 0000 1de1 3939 e374 5d38 4251 62b9
00000090: 24c5 13b9 6c38 9dba 0400 0000 9410 d433
000000a0: 0d8d d433 0400 0000 472c 77ba 0400 0000
000000b0: dc0d 223a dab3 073a 6470 8737 98b6 8838
000000c0: 40d7 4633 c8fa 1c35 cbde bdb9 0400 0000
000000d0: 6b95 8033 f326 2aba 9385 513a 0ff8 b9b4
000000e0: cb32 4bb8 46c8 3734 2ee7 44b7 fccd 5a34
000000f0: 0f23 a9b5 0000 0000 0400 0000 0400 0000
00000100: 0400 0000 64d1 4439 ce64 a7b8 7568 43b9
00000110: babc aab9 f6bc 84ba 0400 0000 3adf 4232
00000120: b85e a633 0400 0080 f153 49ba 0400 0000
00000130: 4962 c9b8 8591 50b9 406e 63b9 f6c5 d6b9
00000140: 9053 0833 7830 f934 9ac4 1eba 0400 0000
00000150: 6b87 4933 af4d b5ba e888 223a 3992 1db7
00000160: 6cf0 63b8 2dfe 0f34 2a31 30b7 ac77 2b34
00000170: 778c 7fb8 0000 0000 0400 0000 0400 0080
00000180: 0400 0080 6084 a7b9 37c8 a0b8 f02f 9338
00000190: d275 8837 aca4 0eb8 0400 0080 f0a9 9bb3
000001a0: 02f9 9bb3 0400 0080 bafa bfb7 0400 0080
000001b0: 5a90 6938 0ad4 f638 ddc0 e738 228e d439
000001c0: 658b 4cb3 1779 58b6 148b 05b7 0400 0080
000001d0: 86dc 3cb3 6ab3 dbb8 8bc7 1bba d0ce 13b3
000001e0: 5c49 1538 49e2 06b4 150e dd36 a496 20b4
000001f0: 031b 01ba 0000 0000 0400 0080 0400 0080
00000200: 0400 0080 65cf fbb0 6c44 b737 c61d 3438
00000210: 8ebf 9037 3cd7 5336 0400 0080 6b64 e5b1
00000220: a2fb 42b3 0400 0080 5af8 0d37 0400 0080
00000230: 07f8 3737 e918 6837 5d97 c437 2427 9d37
00000240: 3681 9fb2 d569 f735 0acb d337 0400 0080
00000250: 861d ecb2 fa7e 3138 59ff b737 3a0c e935
00000260: 4fa2 5338 df9f a8b3 87a8 8a36 21c2 c8b3
00000270: 7a2d 3538 0000 0000 0000 0000 0400 0080
00000280: 0400 0080 e98f 6139 a3f8 b5b8 2ba2 6739
00000290: 102c 8bb7 42f7 23b8 0400 0080 5346 67b4
000002a0: 15b2 67b4 0400 0080 8a28 cd38 0400 0080
000002b0: f401 9db7 9c5f 88b7 3fb3 8539 e2da a63a
000002c0: 253a 70b4 1103 0bb5 686b bab7 0400 0080
000002d0: 4445 0cb4 8149 85b9 000b 2d3a a255 0bb4
000002e0: bc1c a03a c964 c8b4 9d07 62b5 5191 eeb4
000002f0: 65fa 8539 0000 0000 0400 0080 0400 0080
00000300: 0400 0000 90c5 ce38 7083 edb8 b7f2 04b9
00000310: ab38 95b9 d990 d0b8 0400 0000 11ec a2b3
00000320: 293f 7a2c 0400 0000 0f44 93b8 0400 0000
00000330: d57e ebb8 4d02 70b9 0bde 82b9 6da4 09ba
00000340: a626 70b3 ec45 c2b6 3400 bfb9 0400 0000
00000350: 32fc 422c a93d 16ba fcdb 01b9 fffb 35b7
00000360: 2ccc e3b9 8b65 e829 40e7 53b7 5b4b 3eaa
00000370: fc5e 13b9 0000 0000 0000 0000 0400 0000
00000380: 0400 0000 df90 5638 bb0f 22b9 da18 feb8
00000390: 6c47 8fb9 af78 61b9 0400 0000 22b9 98b3
000003a0: 8b3d 882b 0400 0080 1539 d6b8 0400 0000
000003b0: bc9d 033a 6b7a b839 7f69 b0b8 e048 8ab6
000003c0: f21d 61b3 ef16 00b7 20a6 b7b9 0400 0000
000003d0: 91b9 f0a9 8db0 bbb9 2a11 0fb9 2096 2ab7
000003e0: ba2b d7b9 face d929 d3da 6ab7 9f59 32aa
000003f0: 0f27 23b9 0000 0000 0400 0000 0400 0000

exp_avg_sq f4 [16, 32]
7e-43 1.620818e-05 5.818576e-05 7.616536e-05 2.8667202e-05 0.00019179343 7e-43 3.3668493e-10
3.366399e-08 7e-43 0.0003308963 7e-43 0.00020231676 0.00012389036 4.9658913e-05 0.0003287727
6.762114e-08 4.703932e-06 0.00010098472 7e-43 3.1472314e-10 0.00047389942 0.00027172928 3.7270118e-07
7.255797e-05 5.952528e-10 3.4531766e-07 1.15389686e-11 0.00032423317 0.0 0.0 7e-43
7e-43 4.3727723e-05 2.1179023e-05 5.400807e-05 1.0747076e-05 0.00020256327 7e-43 2.5223937e-10
3.5162078e-08 7e-43 0.00037068443 7e-43 0.00021093221 0.00012574383 3.8850772e-05 0.00040155166
2.7564521e-08 4.9937344e-06 3.3653243e-05 7e-43 2.4796112e-10 0.00022891046 0.0005892528 2.4783676e-08
0.0001394707 6.1788075e-10 4.384725e-07 1.03815515e-11 0.00051470526 0.0 7e-43 7e-43
7e-43 3.608104e-05 5.3562722e-05 4.1791922e-05 3.7575326e-05 0.00017782992 7e-43 2.128699e-10
2.1467189e-08 7e-43 0.00023687321 7e-43 2.2986e-05 1.6593596e-05 2.5105424e-05 9.2865856e-05
3.7711786e-08 2.6678508e-06 0.00013841166 7e-43 9.771465e-11 0.0004963477 0.0003065952 2.907148e-07
8.565712e-05 3.768362e-10 1.02034384e-07 6.3504714e-12 0.00029592207 0.0 7e-43 7e-43
7e-43 2.0107022e-05 2.4030649e-05 2.2806133e-05 4.0468167e-06 1.8364239e-05 7e-43 1.8810159e-10
1.8980995e-08 7e-43 0.00010459263 7e-43 6.4201995e-05 2.5427595e-05 1.8775358e-05 0.00019160616
1.25591395e-08 1.5485041e-06 1.078215e-05 7e-43 1.3326762e-10 5.887042e-05 0.00033076108 1.0157633e-08
7.752529e-05 3.367597e-10 1.3205396e-07 4.98723e-12 0.00025553672 0.0 7e-43 7e-43
7e-43 1.47986645e-08 5.139374e-06 9.7701295e-06 2.7738124e-06 2.784216e-07 7e-43 7.3077974e-11
6.528815e-09 7e-43 7.574539e-07 7e-43 1.0024837e-05 6.628624e-06 9.588265e-06 1.748876e-05
1.4652767e-08 4.1176347e-07 9.577467e-06 7e-43 3.2832643e-11 3.7633097e-05 2.3674776e-05 7.595686e-08
1.2606717e-05 1.284119e-10 2.8976084e-08 1.7071553e-12 1.2009979e-05 0.0 0.0 7e-43
7e-43 5.887076e-06 0.00014076539 4.304712e-05 2.5524858e-05 0.00013383939 7e-43 5.6531196e-10
1.3794651e-07 7e-43 6.66327e-05 7e-43 1.47030805e-05 4.1690124e-05 2.4917423e-05 0.0001533069
6.555769e-08 1.7293676e-06 0.000104830426 7e-43 4.163781e-10 0.0005708104 0.00012480446 5.8263623e-08
4.77432e-05 2.0370494e-10 5.8935477e-08 3.9977976e-11 0.00022322888 0.0 7e-43 7e-43
7e-43 3.823782e-05 7.156825e-05 4.6600988e-05 4.8690308e-05 0.00012106789 7e-43 2.8398384e-10
2.5219597e-08 7e-43 8.623933e-05 7e-43 3.3465312e-05 2.879048e-05 3.6535053e-05 0.0001299224
4.789765e-08 2.4386804e-06 0.00017765269 7e-43 7.095181e-11 0.0006018031 0.0003518096 3.8601198e-07
0.0001062187 5.0161203e-10 1.5342438e-07 7.0244336e-12 0.00022409517 0.0 0.0 7e-43
7e-43 3.5859248e-05 6.349655e-05 4.0861098e-05 4.4034623e-05 0.000108484644 7e-43 2.4892058e-10
2.216598e-08 7e-43 0.0001207551 7e-43 0.00013808603 8.7306486e-05 3.468974e-05 0.00027085375
4.95667e-08 2.1318504e-06 0.00016073039 7e-43 1.1434116e-10 0.00055565365 0.0003666612 3.492118e-07
9.464272e-05 4.3934378e-10 2.4529243e-07 7.411093e-12 0.00024275806 0.0 7e-43 7e-43
00000000: f401 0000 cdf6 8737 7c0c 7438 f7ba 9f38
00000010: 597a f037 281c 4939 f401 0000 3118 b92f
00000020: f395 1033 f401 0000 267c ad39 f401 0000
00000030: fe24 5439 91e8 0139 da48 5038 205f ac39
00000040: 1d37 9133 78d6 9d36 c2c7 d338 f401 0000
00000050: 5805 ad2f b475 f839 e376 8e39 a917 c834
00000060: 432a 9838 319f 2330 1964 b934 e5fe 4a2d
00000070: d7fd a939 0000 0000 0000 0000 f401 0000
00000080: f401 0000 4968 3738 9ba9 b137 b986 6238
00000090: 574e 3437 2a67 5439 f401 0000 89ab 8a2f
000000a0: 1d05 1733 f401 0000 6c58 c239 f401 0000
000000b0: af2d 5d39 1ada 0339 b3f3 2238 5a87 d239
000000c0: 06c7 ec32 da8f a736 e526 0d38 f401 0000
000000d0: 6d51 882f af07 7039 1678 1a3a e1e3 d432
000000e0: e23e 1239 7ed7 2930 3467 eb34 5aa2 362d
000000f0: 49ed 063a 0000 0000 f401 0000 f401 0000
00000100: f401 0000 b955 1738 89a8 6038 bc49 2f38
00000110: 339a 1d38 db77 3a39 f401 0000 8d0d 6a2f
00000120: d966 b832 f401 0000 2b61 7839 f401 0000
00000130: 0fd2 c037 7a32 8b37 7d99 d237 fac0 c238
00000140: 8cf8 2133 5409 3336 9922 1139 f401 0000
00000150: 75e0 d62e 551d 023a 83be a039 8a13 9c34
00000160: d1a2 b338 fb2a cf2f ff1d db33 f66f df2c
00000170: fd25 9b39 0000 0000 f401 0000 f401 0000
00000180: f401 0000 80ab a837 6d95 c937 cc4f bf37
00000190: e4c9 8736 e70c 9a37 f401 0000 e4d1 4e2f
000001a0: a60b a332 f401 0000 be58 db38 f401 0000
000001b0: 2fa4 8638 584d d537 c67f 9d37 e3e9 4839
000001c0: aec3 5732 32d6 cf35 fbe4 3437 f401 0000
000001d0: 8087 122f a2eb 7638 006a ad39 be81 2e32
000001e0: 1395 a238 b722 b92f b7ca 0d34 f978 af2c
000001f0: 8ff9 8539 0000 0000 f401 0000 f401 0000
00000200: f401 0000 373d 7e32 e372 ac36 63ea 2337
00000210: bc25 3a36 f979 9534 f401 0000 3eb3 a02e
00000220: 1054 e031 f401 0000 d653 4b35 f401 0000
00000230: 5930 2837 726b de36 49dd 2037 d3b4 9237
00000240: 8dbb 7b32 5710 dd34 e8ae 2037 f401 0000
00000250: 4566 102e 3bd8 1d38 3299 c637 ba1d a333
00000260: 7081 5337 bd30 0d2f 15e7 f832 c042 f02b
00000270: 787e 4937 0000 0000 0000 0000 f401 0000
00000280: f401 0000 9989 c536 6c9a 1339 7e8d 3438
00000290: 371e d637 3d57 0c39 f401 0000 4b64 1b30
000002a0: 731e 1434 f401 0000 29bd 8b38 f401 0000
000002b0: 40ad 7637 6edc 2e38 c205 d137 02c1 2039
000002c0: b9c8 8c33 9e1c e835 68d8 db38 f401 0000
000002d0: 02e8 e42f 70a2 153a f1dd 0239 883d 7a33
000002e0: df3f 4838 d8f9 5f2f 3e20 7d33 33d3 2f2e
000002f0: 8c12 6a39 0000 0000 f401 0000 f401 0000
00000300: f401 0000 8c61 2038 e916 9638 6e75 4338
00000310: d238 4c38 d4e5 fd38 f401 0000 2c1f 9c2f
00000320: 7ba2 d832 f401 0000 63db b438 f401 0000
00000330: 1b5d 0c38 1683 f137 373d 1938 c73b 0839
00000340: 06b8 4d33 36a8 2336 4848 3a39 f401 0000
00000350: 5106 9c2e 53c2 1d3a 1673 b839 153d cf34
00000360: bbc1 de38 cfe1 0930 f9bc 2434 7926 f72c
00000370: 17fb 6a39 0000 0000 0000 0000 f401 0000
00000380: f401 0000 9367 1638 7329 8538 4562 2b38
00000390: d1b1 3838 4082 e338 f401 0000 75d8 882f
000003a0: 8167 be32 f401 0000 e73d fd38 f401 0000
000003b0: 30cb 1039 5018 b738 d37f 1138 6001 8e39
000003c0: 2ae3 5433 e910 0f36 bc89 2839 f401 0000
000003d0: 5a70 fb2e 49a9 113a 6f3c c039 4e7b bb34
000003e0: ec7a c638 2488 f12f bcb0 8334 9860 022d
000003f0: df8c 7e39 0000 0000 f401 0000 f401 0000

exp_avg f4 [16]
0.0011534491 -0.00018731845 -0.0023020755 -0.0004459152 0.0002762357 0.0056856936 -0.0035337028 -0.002845026
-0.0008183906 -0.0016481008 -0.001060459 -0.006690571 -0.0008995261 6e-45 0.002607706 -6e-45
00000000: 542f 973a ea6a 44b9 6bde 16bb bac9 e9b9
00000010: bad3 9039 0e4f ba3b b295 67bb 9e73 3abb
00000020: 4389 56ba 1605 d8ba 19ff 8aba 943c dbbb
00000030: 2dce 6bba 0400 0000 0ce6 2a3b 0400 0080

exp_avg_sq f4 [16]
0.005087469 0.0048069735 0.003764285 0.0027588415 0.00028160904 0.013765069 0.004687262 0.004715617
0.0019608263 0.0020005482 0.001988064 0.010176226 0.0023773806 7e-43 0.0020397615 7e-43
00000000: c8b4 a63b d183 9d3b 39b2 763b aecd 343b
00000010: eda4 9339 e286 613c 9a97 993b 7685 9a3b
00000020: 3581 003b a11b 033b 2e4a 023b 2fba 263c
00000030: d4cd 1b3b f401 0000 85ad 053b f401 0000

exp_avg f4 [2, 16]
6.918949e-05 -0.00012591378 -0.00020540383 0.00019300662 -6.254154e-06 1.1922484e-05 -0.00021094792 -0.00021580727
-0.0002262107 -5.7918736e-05 -0.00021084228 -0.00014715621 -0.00020655258 -6e-45 -0.00019246546 6e-45
-6.918782e-05 0.00012591697 0.0002054052 -0.00019300131 6.254883e-06 -1.1916985e-05 0.00021094897 0.00021580872
0.00022621414 5.791872e-05 0.000210846 0.00014715799 0.0002065565 6e-45 0.0001924683 -6e-45
00000000: d319 9138 b907 04b9 ac61 57b9 d261 4a39
00000010: c6da d1b6 ae06 4837 e731 5db9 534a 62b9
00000020: f932 6db9 c5ed 72b8 8b15 5db9 f24d 1ab9
00000030: 0996 58b9 0400 0080 8ed0 49b9 0400 0000
00000040: ee18 91b8 9408 0439 0a62 5739 6560 4ab9
00000050: 09e1 d136 10ef 47b7 2f32 5d39 b64a 6239
00000060: e533 6d39 c1ed 7238 8b16 5d39 6c4e 1a39
00000070: 1797 5839 0400 0000 51d1 4939 0400 0080

exp_avg_sq f4 [2, 16]
1.3174241e-05 1.3982543e-05 5.0621215e-06 4.8878264e-05 1.3024493e-06 1.9446406e-06 5.672896e-06 4.5316046e-06
9.710746e-06 1.4708164e-06 1.00129155e-05 5.091371e-06 1.1090821e-05 7e-43 4.8076286e-05 7e-43
1.3174241e-05 1.3982545e-05 5.062122e-06 4.887827e-05 1.3024492e-06 1.9446404e-06 5.6728964e-06 4.531605e-06
9.710749e-06 1.4708161e-06 1.00129155e-05 5.091371e-06 1.1090821e-05 7e-43 4.80763e-05 7e-43
00000000: ef06 5d37 9196 6a37 4bdb a936 a302 4d38
00000010: d1cf ae35 ac80 0236 ce59 be36 300e 9836
00000020: 56eb 2237 de68 c535 25fd 2737 8bd6 aa36
00000030: b712 3a37 f401 0000 85a5 4938 f401 0000
00000040: ef06 5d37 9396 6a37 4cdb a936 a502 4d38
00000050: d0cf ae35 ab80 0236 cf59 be36 310e 9836
00000060: 59eb 2237 db68 c535 25fd 2737 8bd6 aa36
00000070: b712 3a37 f401 0000 89a5 4938 f401 0000

exp_avg f4 [2]
-0.00026166145 0.00026167446
00000000: 9b2f 89b9 5a31 8939

exp_avg_sq f4 [2]
0.00022819657 0.00022819654
00000000: 0d48 6f39 0b48 6f39

loss f8 []
0.000629446986749037
00000000: 8ee3 7f1c 2fa0 443f
