24_point_edge_detector.pth (torch, 25342 bytes, 19 tensors)

model.0.weight f4 [32, 25]
0	0x3dbbfe61	0.09179378
1	0x3e72eb24	0.23722512
2	0x3bb20f2e	0.0054339385
3	0x3dac6f70	0.084196925
4	0x3e3792d9	0.17927112
5	0x3e830086	0.25586337
6	0xbd3568aa	-0.04428927
7	0xbdb064c4	-0.086129695
8	0xbd2f3ab6	-0.0427806
9	0x3e74eb27	0.23917829
10	0xbcc379b2	-0.02386174
11	0xbef2ebf1	-0.47445634
12	0xbf5117e2	-0.8167707
13	0xbef2f71c	-0.47454154
14	0xbd7fdd5a	-0.062466957
15	0x3ed8a327	0.42311975
16	0xbc105acf	-0.008810713
17	0x3d8a27dc	0.06745884
18	0xbd3d5554	-0.046223953
19	0x3edb357d	0.42814246
20	0xbd3800a1	-0.044922475
21	0xbc0e0017	-0.008667014
22	0x3e288a09	0.16458906
23	0x3cfe494a	0.031040806
24	0xbdb53708	-0.08848387
25	0xbd659e86	-0.056059383
26	0xbc863bff	-0.01638603
27	0xbe117ba6	-0.14207324
28	0x3e24a82a	0.16079774
29	0x3d41cf86	0.04731705
30	0xbea40a07	-0.320389
31	0xbecc2ce1	-0.3987799
32	0xbdcffb7f	-0.10155391
33	0x3efc3f7f	0.49267194
34	0x3ea8dc97	0.32980797
35	0xbe5a96a0	-0.21346521
36	0xbde14b6c	-0.11000714
37	0x3df39f75	0.118956484
38	0x3dd6a065	0.104798116
39	0x3dd8e3c0	0.10590315
40	0x3d581704	0.052756324
41	0x3eff3134	0.49842227
42	0xbc3de1cd	-0.01158948
43	0xbf05fa47	-0.5233502
44	0xbee38375	-0.4443623
45	0x3e0caa3b	0.13736813
46	0x3ea84498	0.32864833
47	0x3dcb6251	0.09930862
48	0xbe233ca9	-0.15941109
49	0xbca73397	-0.020410342
50	0xba0249f1	-0.00049701246
51	0xb9cd9398	-0.00039210613
52	0xb941441d	-0.00018431288
53	0x39629669	0.00021609072
54	0xb9f3f628	-0.00046531972
55	0x390236e6	0.00012418217
56	0x382dd268	4.144237e-05
57	0x39d32251	0.00040270624
58	0x3953d8ff	0.00020203365
59	0xb9cc108b	-0.00038922238
60	0xba10ac60	-0.000551885
61	0x37b79e63	2.1889055e-05
62	0xb8034c63	-3.1303975e-05
63	0x3942f09f	0.0001859092
64	0x3949505c	0.0001919879
65	0xba0a9403	-0.00052863377
66	0xb9df234e	-0.0004256018
67	0x39aa2b5e	0.00032457238
68	0xb8ab33c8	-8.1635604e-05
69	0x37a92ce3	2.0167272e-05
70	0x3987e3e9	0.00025919013
71	0xb8aaf838	-8.152466e-05
72	0xb9c699ca	-0.00037880085
73	0xb99a736e	-0.0002945917
74	0xb950b8a0	-0.00019905204
75	0xbac7e49b	-0.0015250625
76	0xba8481a8	-0.0010109441
77	0xba8de4fb	-0.0010825688
78	0xb9caab77	-0.00038656194
79	0xb98536f0	-0.00025408668
80	0xba527cf3	-0.0008029483
81	0xbad625db	-0.0016338186
82	0xba8c00df	-0.0010681412
83	0xb9148b4a	-0.00014166269
84	0x3a05c5ab	0.0005103002
85	0x3a174624	0.00057706446
86	0x393db1b5	0.00018090646
87	0xba515cea	-0.00079865626
88	0xba689f0d	-0.0008873798
89	0xb84402fa	-4.6732814e-05
90	0x39b494b7	0.00034443077
91	0xba043477	-0.0005043218
92	0xbacdfae7	-0.0015715034
93	0xb9fddbdb	-0.00048419725
94	0xb9f05fd2	-0.0004584776
95	0xb8917712	-6.9363174e-05
96	0xba2ca877	-0.00065863825
97	0xba06ea07	-0.0005146567
98	0xb939ee97	-0.00017731856
99	0xb9c1d7bb	-0.0003697256
100	0x3e1d8452	0.15382507
101	0xbde20e37	-0.110378675
102	0xbdf08868	-0.117447674
103	0x3befa342	0.007313163
104	0xbd750bbf	-0.059825655
105	0x3ea3f805	0.3202516
106	0xbed3e5d1	-0.41386274
107	0xbf064b46	-0.5245861
108	0x3d8125a6	0.06306009
109	0x3e2f1503	0.17097859
110	0xbd8bacaa	-0.068200424
111	0xbe2d10a4	-0.16900879
112	0xbec5256b	-0.3850511
113	0x3ede890b	0.4346393
114	0x3d0bdadc	0.034144267
115	0xbd8675a5	-0.06565408
116	0x3d345bf0	0.04403299
117	0x3eea7361	0.45791152
118	0x3f027170	0.5095434
119	0xbe24b883	-0.1608601
120	0xbda46c3a	-0.08028455
121	0xbd833ee8	-0.06408483
122	0x3c5e1eee	0.013557179
123	0x3d9efd6a	0.07763179
124	0xbd1e2113	-0.03860576
125	0x3cfdda2a	0.030987818
126	0xbc86da26	-0.016461443
127	0xbd0f99a1	-0.03505862
128	0xbe341d27	-0.17589246
129	0x3d80d034	0.062897116
130	0xbe3fb3c9	-0.18720926
131	0xbebce3b3	-0.3689247
132	0xbf48a727	-0.78380054
133	0xbeddf5f8	-0.43351722
134	0xbe080706	-0.13283929
135	0x3d054bf1	0.032543126
136	0x3e330705	0.17483146
137	0x3eed7d95	0.46384874
138	0x3e1dfa6f	0.15427564
139	0x3e17bd4a	0.14818302
140	0x3c3ec685	0.01164401
141	0x3e42127d	0.18952365
142	0x3f07aeac	0.53000903
143	0x3e7ebfa7	0.24877797
144	0x3c17fc6c	0.009276491
145	0xbcd10104	-0.02551318
146	0x3d7ed46e	0.062214307
147	0xbbd049fc	-0.006356476
148	0xbccef98e	-0.025265481
149	0x3e086d01	0.13322832
150	0x3cebe591	0.02879599
151	0x3e685e71	0.22692277
152	0x3c3b6a16	0.011438867
153	0xbed8bfe5	-0.42333904
154	0xbe8d5ea0	-0.27611256
155	0x3eb234b2	0.34805828
156	0x3ed11e70	0.40843534
157	0xbc21e227	-0.009880579
158	0xbed5449e	-0.41653913
159	0xb9c4e83f	-0.0003755707
160	0x3de5f605	0.11228565
161	0xbe3b213e	-0.182744
162	0x3d0e6af3	0.034769963
163	0x3e2e23f8	0.17005908
164	0x3e3d6739	0.18496408
165	0xbc0569a7	-0.008142865
166	0xbec63d5a	-0.38718683
167	0xbe75c84f	-0.24002193
168	0x3ebcad6c	0.3685106
169	0x3eebd5b3	0.46061477
170	0xbddf0f7e	-0.10891627
171	0xbec6ed7f	-0.3885307
172	0xbd512e81	-0.05106974
173	0x3c83fd5b	0.01611202
174	0x3e0c60ee	0.1370885
175	0x3d12223e	0.035677187
176	0xbd7737ea	-0.06035606
177	0xbce69acc	-0.028149985
178	0x3d91f3f1	0.07126606
179	0xbcb86087	-0.022506965
180	0xbd850a7e	-0.06496142
181	0x3da1055c	0.0786235
182	0x3eec422e	0.4614424
183	0x3f00ad54	0.5026448
184	0xbd3e414c	-0.04644899
185	0x3c3d8b33	0.011568832
186	0xbdc8006f	-0.09765708
187	0xbdfb981d	-0.12284873
188	0x3ef01a11	0.46894887
189	0x3e03ee6d	0.12883921
190	0x3c6e6a46	0.014551705
191	0xbf181a4f	-0.59415144
192	0xbf186a81	-0.5953751
193	0xbcc56961	-0.0240981
194	0x3de42f44	0.11141828
195	0x3d2616c0	0.04054904
196	0x3bb4478b	0.0055016926
197	0xbe1689e5	-0.1470104
198	0xbd96c5a2	-0.07361914
199	0xbcedc485	-0.029024372
200	0xbd2cacd8	-0.042157024
201	0xbe8f8c64	-0.28036797
202	0x3cce8c1e	0.025213297
203	0xbe7ed9d8	-0.24887788
204	0xbe4f2aa2	-0.20231107
205	0xbd732857	-0.059364643
206	0x3d8da0de	0.069154486
207	0x3ee4a0e9	0.44654015
208	0x3e84c494	0.25931227
209	0xbe03b535	-0.12862094
210	0xbe299749	-0.16561617
211	0xbc2517a7	-0.01007644
212	0x3edeed82	0.4354058
213	0xbd80edbc	-0.06295344
214	0xbd9c587b	-0.07634064
215	0xbc8d1f3b	-0.017226806
216	0x3e562f17	0.20916401
217	0x3efd5998	0.49482417
218	0x3ede75c0	0.4344921
219	0xbccc0461	-0.024904432
220	0xbe206f7a	-0.15667525
221	0xbe7367b7	-0.23770033
222	0xbe28dff2	-0.16491678
223	0xbebcf186	-0.36903018
224	0xbe0bc17f	-0.13648032
225	0x3d5d3562	0.054005988
226	0x3da86285	0.08221916
227	0x3e1d4cee	0.15361378
228	0x3e98beea	0.29833156
229	0xbe43a9a9	-0.19107689
230	0xbd934f20	-0.07192826
231	0x3eabe5eb	0.3357385
232	0x3d2481bd	0.04016279
233	0xbedc88a4	-0.43073
234	0xbedeebf4	-0.43539393
235	0x3e16254f	0.1466267
236	0xbdf313df	-0.118690245
237	0x3e69efb9	0.22845353
238	0xbddeff78	-0.108885705
239	0x3e55edb2	0.20891455
240	0xbf03892a	-0.5138117
241	0xbe772031	-0.24133374
242	0xbd509bf5	-0.050929982
243	0x3ed9dd0a	0.42551452
244	0x3e59fd23	0.2128797
245	0xbe32ecbd	-0.17473121
246	0x3e4a9053	0.19781618
247	0x3ca7c28b	0.020478508
248	0xbd494370	-0.04913658
249	0xbd978365	-0.073981084
250	0xba00dc50	-0.00049156416
251	0xb9ddc4bd	-0.00042298986
252	0x39c97679	0.00038425977
253	0xb9fe08f7	-0.00048453335
254	0xb9b79507	-0.00035015514
255	0xb8cf6626	-9.889556e-05

model.0.bias f4 [32]
0	0x3baa4bce	0.005197025
1	0xb8d33d14	-0.00010072641
2	0xba1edd82	-0.0006060229
3	0xba83dd27	-0.0010060415
4	0x3b460140	0.0030213147
5	0xbd20c183	-0.039247047
6	0xbb13fc5c	-0.0022580838
7	0xbb91fd56	-0.004455249
8	0xbb51fc03	-0.003204108
9	0x3bce203f	0.006290465
10	0xb9cc5997	-0.00038976662
11	0xbd4d8dad	-0.05018394
12	0xbd0575a5	-0.032582898
13	0x3d5f9354	0.054583862
14	0x3d20493c	0.03913234
15	0xbd9028d5	-0.07039038
16	0xba3774e7	-0.0006998316
17	0xbadbdf7e	-0.001677498
18	0xbd88c57d	-0.06678293
19	0xbaed6eb3	-0.0018114656
20	0x3d7385f8	0.059453934
21	0xbad3a19d	-0.0016146187
22	0x3ab00f3c	0.0013432275
23	0xb9eec9f7	-0.00045545373
24	0xbd74f8de	-0.05980765
25	0x3dab6221	0.08368326
26	0xba043eaa	-0.0005044738
27	0xbcf26888	-0.02959086
28	0xba6b777d	-0.0008982344
29	0xba0d5a81	-0.0005392209
30	0xbd09ed9f	-0.03367388
31	0xba3ecd25	-0.0007278494

model.2.weight f4 [16, 32]
0	0x3eed909d	0.46399394
1	0x3eaa6779	0.33282068
2	0x36adf5e1	5.184426e-06
3	0xba17f573	-0.00057967677
4	0x3f080d8c	0.5314567
5	0xbf995eaf	-1.198202
6	0x3e5604ec	0.20900315
7	0x3e6f44a9	0.23366036
8	0xbed4e7ad	-0.41583005
9	0xbeb3caf0	-0.35115767
10	0x39f0b78d	0.00045913123
11	0xbe9c64cc	-0.30545652
12	0xbe54cb70	-0.2078073
13	0xc03c4939	-2.9419692
14	0x3f110eb6	0.5666307
15	0x3d96f119	0.073702045
16	0x394bf55b	0.0001945099
17	0x39bd7546	0.00036136265
18	0xbf8911bb	-1.0708536
19	0x3a8c7c0f	0.0010718125
20	0xbe80a452	-0.25125366
21	0x3adafea0	0.0016707964
22	0x3f571317	0.84013504
23	0xba8118d3	-0.0009849317
24	0x3f44f842	0.7694131
25	0x3e91b780	0.28460312
26	0xb97a1b1c	-0.00023851957
27	0xbed8149f	-0.42203233
28	0xb9da6956	-0.00041658682
29	0xb9551c8f	-0.00020323902
30	0xbcb67d21	-0.022276463
31	0xb9a4616c	-0.00031353103
32	0xbea72cbb	-0.32651314
33	0xbe7007dc	-0.23440498
34	0x38e210f7	0.0001077968
35	0xb99e4630	-0.00030188402
36	0x3d914216	0.07092683
37	0x3ec55374	0.38540232
38	0xbf4816da	-0.7815987
39	0x3e9dc8de	0.30817312
40	0xbd4c8a29	-0.049936447
41	0x3de332d4	0.11093679
42	0xba26471e	-0.0006342995
43	0x3e433c09	0.1906587
44	0x3c8bd3fb	0.017068854
45	0xbfce8f45	-1.6137472
46	0x3dd3b322	0.10336901
47	0xbd0d2158	-0.034455627
48	0x3936b3df	0.0001742388
49	0xb983cb5a	-0.00025137776
50	0x3e81dfe6	0.25366133
51	0xba27194a	-0.0006374313
52	0xbfc0b2ec	-1.5054603
53	0x391e710c	0.00015110167
54	0x3e794403	0.2434235
55	0xb710a30e	-8.621033e-06
56	0xbebb908b	-0.36633715
57	0x3e4bd532	0.19905546
58	0x3ab22810	0.0013592262
59	0xb9c383ae	-0.00037291407
60	0xb997c649	-0.00028948698
61	0xb9a598bb	-0.00031585046
62	0xbf33bc83	-0.7020952
63	0xba308c56	-0.0006734779
64	0xbf81371f	-1.0094947
65	0x3f72110c	0.9455726
66	0xb949f992	-0.00019261826
67	0xbaa47eff	-0.0012550055
68	0xbf1e40eb	-0.61817807
69	0xbe2d1f20	-0.16906404
70	0x3efab74b	0.48967966
71	0xbec12745	-0.37725273
72	0xbfa0c219	-1.2559234
73	0x3f2414e7	0.64094394
74	0x3945f161	0.00018877305
75	0xbeb96629	-0.36210755
76	0xbe2bf9b3	-0.16794471
77	0x3edaa26a	0.42702037
78	0x3dd1970a	0.102338865
79	0xbe1bf4de	-0.15230128
80	0xb9dd89b6	-0.00042255007
81	0xb9961164	-0.00028623187
82	0x3d525313	0.051348757
83	0xba44b91d	-0.00075043907
84	0x3e4acc85	0.1980458
85	0xb995140f	-0.0002843444
86	0xbe4987e7	-0.19680749
87	0xba1a383d	-0.0005883014
88	0xbf03f43b	-0.5154454
89	0x3e207ca3	0.15672545
90	0x3aad6d1b	0.0013231369
91	0xbebf121e	-0.3731851
92	0xba2012a7	-0.0006106295
93	0xba3d6576	-0.00072248967
94	0x3d4e0866	0.050300978
95	0xb993e862	-0.00028211164
96	0xbfa5c7b8	-1.2951574
97	0x3f6981f1	0.912139
98	0xb9f22417	-0.00046184726
99	0xb95d8b98	-0.00021128205
100	0xbf52e733	-0.8238403
101	0xbe0067ad	-0.12539549
102	0x3f2d03b4	0.67583776
103	0xbf048d1b	-0.5177781
104	0xbfafc797	-1.3732785
105	0x3e2d5f20	0.16930819
106	0x395b8125	0.00020933578
107	0xbda2a16e	-0.079409465
108	0x3f1b3d54	0.60640454
109	0xbebf9a0d	-0.3742222
110	0x3ec934ed	0.39298192
111	0xbeddd452	-0.4332605
112	0x39507984	0.00019881694
113	0x3a5d7112	0.000844733
114	0xbe9ab27d	-0.302143
115	0x391fd8ae	0.00015244141
116	0xbf738d13	-0.9513714
117	0xbacb97a8	-0.0015532868
118	0x3dd05377	0.1017217
119	0xb8a057bd	-7.645737e-05
120	0xbef69d9a	-0.48167115
121	0xbeb3ca58	-0.35115314
122	0x3a9fee2e	0.001220172
123	0xbd317f18	-0.043334097
124	0xb8302259	-4.199366e-05
125	0x397d875d	0.00024178387
126	0x3db4826c	0.088139385
127	0xb9a6927e	-0.00031771132
128	0xbfd442ff	-1.6582946
129	0x3f12b0d8	0.5730109
130	0x39113d80	0.00013851188
131	0xb9f31ded	-0.00046370868
132	0xbe80783b	-0.2509173
133	0xbe8d69da	-0.2761982
134	0x3f3b34ce	0.7312745
135	0xbf231478	-0.6370311
136	0x3e8d567e	0.2760505
137	0x3eaa84b7	0.33304378
138	0x390fa7b6	0.0001370002
139	0x3e4085f3	0.18801098
140	0xbd895969	-0.06706507
141	0x3fd25ad0	1.6433964
142	0x3de6a76e	0.112624034
143	0xbeec27ac	-0.46124017
144	0xb991577f	-0.00027721745
145	0x3a08913d	0.00052096305
146	0xbf335bb5	-0.7006181
147	0x3ab71f14	0.0013971054
148	0x3dc8e66a	0.09809573
149	0xba5522c7	-0.00081304874
150	0xbed7d3b5	-0.42153707
151	0x38a54e55	7.8824036e-05
152	0x3e01a593	0.12660818
153	0x3e892233	0.26783904
154	0xb8daaa40	-0.000104267616
155	0x3e92ba48	0.28657746
156	0x39a3d65f	0.00031249502
157	0xb820271d	-3.81834e-05
158	0x3ed73dda	0.42039376
159	0xb87a2018	-5.9634534e-05
160	0x3f41869e	0.75596035
161	0xbf209eba	-0.627422
162	0x398f71de	0.00027359923
163	0xb99c3303	-0.00029792645
164	0xbf4a7178	-0.7907939
165	0xbf3563ae	-0.70855224
166	0xbea21047	-0.31653044
167	0xbf5c5a95	-0.8607572
168	0x3f69c08c	0.9130943
169	0xbebc0e4c	-0.36729658
170	0xb8f71f86	-0.000117837495
171	0x3f15ba6f	0.584876
172	0x3f3619b0	0.71132946
173	0xbe73d58c	-0.2381193
174	0x3ddeb22f	0.108738296
175	0xbf548133	-0.8300964
176	0x385afb3c	5.220923e-05
177	0xb9b72869	-0.00034934588
178	0xbf467774	-0.7752602
179	0xbaf485a9	-0.0018655556
180	0x3ee60fd4	0.4493395
181	0xbb120f50	-0.002228696
182	0xbf9fffd3	-1.2499946
183	0xba0f4a07	-0.0005466048
184	0x3f3252e6	0.6965774
185	0x3ecf1653	0.4044672
186	0xba5fd60f	-0.0008538672
187	0x3f264572	0.64949715
188	0x38efa21a	0.00011426602
189	0xb913572e	-0.0001405149
190	0x3dd7bba7	0.10533839
191	0x392e8875	0.00016644767
192	0xbec67744	-0.38762867
193	0xbf97d085	-1.186051
194	0x37c6b325	2.368686e-05
195	0xb9d41126	-0.00040448568
196	0xbfbb3d8a	-1.4628155
197	0xbfca94a2	-1.5826609
198	0xbf8e46ac	-1.1115317
199	0xbff16e72	-1.886183
200	0xbeca96c6	-0.39568156
201	0xbecdbbd4	-0.40182364
202	0xb88125d8	-6.158248e-05
203	0xbf2596ad	-0.6468304
204	0x3f3596f6	0.70933473
205	0x3ea13b05	0.3149034
206	0xbcddf669	-0.027095037
207	0xbeb5e477	-0.35525867
208	0x39ce157e	0.00039307395
209	0x3a3e991d	0.00072707405
210	0x3f36bdba	0.7138325
211	0xb92b8550	-0.00016357494
212	0xbf1f9b74	-0.6234658
213	0xbb1868cb	-0.002325582
214	0xbfd9e5f0	-1.7023296
215	0xb97fd800	-0.00024399161
216	0xbe3b9548	-0.18318665
217	0x3df9948b	0.121865354
218	0x3a841a48	0.0010078633
219	0xbe98dd44	-0.29856312
220	0x39952269	0.00028445132
221	0xb9a529f0	-0.00031502498
222	0xbef03176	-0.46912736
223	0xb92b8b29	-0.00016359672
224	0x3e7dcfe2	0.24786332
225	0xbcac3498	-0.021021172
226	0x38ea347c	0.000111677655
227	0x39929f1e	0.00027965842
228	0xbe9cfa68	-0.30659795
229	0xbe8ba0bc	-0.27271068
230	0x3f48eb02	0.78483593
231	0x3c5c5dad	0.013450068
232	0xbeb697d0	-0.356627
233	0x3ea1630a	0.31520873
234	0xb99a57d0	-0.00029438594
235	0xbf3b0e6f	-0.730689
236	0x3d58c616	0.052923284
237	0x3f1f40ca	0.62208235
238	0xbf1ce3dd	-0.6128519
239	0xbeec7ceb	-0.46189055
240	0xb6995bab	-4.570427e-06
241	0x3a8b9fcb	0.001065248
242	0xbebfa686	-0.37431735
243	0xb980c1ae	-0.00024558365
244	0xc01f5748	-2.4897022
245	0xba001a61	-0.0004886743
246	0xbdd6249c	-0.104562014
247	0x390fdaad	0.00013719006
248	0xbd6028f2	-0.05472655
249	0xbf1554ab	-0.5833232
250	0x39034990	0.00012520538
251	0xbf097b4c	-0.5370376
252	0x39a6c5e3	0.00031809424
253	0xb9088c5b	-0.00013022257
254	0x3f8ae653	1.0851539
255	0xb94669ae	-0.0001892212

model.2.bias f4 [16]
0	0x3d960ce4	0.073266774
1	0x3e5ea9ba	0.21744433
2	0x3e27526a	0.16340032
3	0x3e06383d	0.1310739
4	0x3daf8ad6	0.08571403
5	0x3e340de7	0.17583428
6	0x3f34ac95	0.7057584
7	0x3e81ac34	0.25326693
8	0xbdb35508	-0.08756453
9	0xba84f187	-0.0010142782
10	0xba8ea413	-0.0010882638
11	0x3e665cbe	0.22496316
12	0x3e202b62	0.15641549
13	0x3e7308b8	0.23733795
14	0x3e20a3d4	0.15687495
15	0xbc7d6966	-0.0154670235

model.4.weight f4 [3, 16]
0	0x3feefa83	1.86702
1	0x3ffece3b	1.9906687
2	0xc05669b4	-3.3502016
3	0xc097b4f7	-4.7408404
4	0xc05819c0	-3.3765717
5	0xc0bd24f9	-5.9107633
6	0xc10c470b	-8.767344
7	0xc05ac585	-3.4183056
8	0xbfc00a95	-1.5003229
9	0xb85f5292	-5.3244243e-05
10	0x38f803aa	0.00011826244
11	0x402bf8c1	2.6870577
12	0x3ecbaa93	0.39778575
13	0x4055f80f	3.3432653
14	0x3f853ab2	1.0408537
15	0xc0272435	-2.611585
16	0xbfe44cb8	-1.7835913
17	0xc0286d4c	-2.631671
18	0xbfbdb9cc	-1.4822326
19	0xbeea9867	-0.458194
20	0x3f5e8587	0.86922497
21	0x4088b513	4.272104
22	0x40cc0c43	6.376497
23	0xbf21a074	-0.6313546
24	0xbec984a8	-0.3935902
25	0xbacc1617	-0.0015570548
26	0xb9239990	-0.00015602098
27	0x3fa9063c	1.3205028
28	0xc0ba030d	-5.8128724
29	0xbfba0eb1	-1.4535733
30	0xc0aeea56	-5.4661055
31	0x3fe33fc1	1.7753831
32	0xbf84358d	-1.0328842
33	0xbf95ee52	-1.1713355
34	0x40645490	3.5676613
35	0x407ee428	3.9826756
36	0x3fd89162	1.6919367
37	0xbfaa569a	-1.3307679
38	0xc08bc1d4	-4.3674107
39	0x403dee84	2.9676828
40	0x3fb723eb	1.4307836
41	0xba4574bf	-0.000753235
42	0x39d01aa8	0.00039692712
43	0xc0857b4d	-4.1713014
44	0x3f80a791	1.0051137
45	0xc038fa86	-2.8902907
46	0x3eab01f9	0.33399943
47	0x3d2df1d2	0.042466946

model.4.bias f4 [3]
0	0x3ec5542d	0.38540784
1	0x3e6cf086	0.23138627
2	0xbf035e87	-0.5131611

exp_avg f4 [32, 25]
0	0x3cd4f67c	0.02599644
1	0x3cb549a5	0.022129843
2	0x3c8368a5	0.01604111
3	0x3cb1b5b6	0.021693092
4	0x3cb0b875	0.021572331
5	0x3ccfa1a9	0.02534564
6	0x3cc5e28f	0.024155883
7	0x3cbeb73e	0.023280736
8	0x3cb95f55	0.022628466
9	0x3cdd9925	0.027050564
10	0x3cfb570c	0.030681156
11	0x3cc9434e	0.024568226
12	0x3cfe9d43	0.031080848
13	0x3d321b7b	0.04348324
14	0x3d4edcbd	0.05050348
15	0x3d043944	0.032281175
16	0x3ce2eeb5	0.027701715
17	0x3cff1b0f	0.031140832
18	0x3d15d86d	0.036583353
19	0x3d222996	0.03959044
20	0x3d05fff3	0.032714795
21	0x3d07a185	0.03311302
22	0x3cfe270e	0.031024482
23	0x3d081399	0.033221815
24	0x3d1b8a25	0.03797354
25	0xbd344bc5	-0.044017572
26	0xbce8536d	-0.028360093
27	0xbc86e093	-0.016464507
28	0xbccf0434	-0.025270559
29	0xbcd596a4	-0.026072808
30	0xbd2d95bf	-0.042379137
31	0xbd1f7dea	-0.03893844
32	0xbccdaa55	-0.025105635
33	0xbd10eac3	-0.035380136
34	0xbd1a3216	-0.037645422
35	0xbd39ea09	-0.04538921
36	0xbd36bdce	-0.044614606
37	0xbd3d4de0	-0.046216846
38	0xbd4a1f7e	-0.04934644
39	0xbd74d465	-0.059772868
40	0xbd4e3cc0	-0.050350904
41	0xbd456d12	-0.04819972
42	0xbd4e8ee8	-0.050429255
43	0xbd58eac1	-0.052958254
44	0xbd5b17b6	-0.05348941
45	0xbd505513	-0.050862383
46	0xbd51ce1f	-0.051221963
47	0xbd4e6aa8	-0.050394684
48	0xbd581674	-0.052755788
49	0xbd595821	-0.053062562
50	0x00000004	6e-45
51	0x00000004	6e-45
52	0x00000004	6e-45
53	0x00000004	6e-45
54	0x00000004	6e-45
55	0x00000004	6e-45
56	0x00000004	6e-45
57	0x00000004	6e-45
58	0x00000004	6e-45
59	0x00000004	6e-45
60	0x00000004	6e-45
61	0x00000004	6e-45
62	0x00000004	6e-45
63	0x00000004	6e-45
64	0x00000004	6e-45
65	0x00000004	6e-45
66	0x00000004	6e-45
67	0x00000004	6e-45
68	0x00000004	6e-45
69	0x00000004	6e-45
70	0x00000004	6e-45
71	0x00000004	6e-45
72	0x00000004	6e-45
73	0x00000004	6e-45
74	0x00000004	6e-45
75	0x00000004	6e-45
76	0x80000004	-6e-45
77	0x00000004	6e-45
78	0x00000004	6e-45
79	0x00000004	6e-45
80	0x00000004	6e-45
81	0x00000004	6e-45
82	0x00000004	6e-45
83	0x00000004	6e-45
84	0x00000004	6e-45
85	0x00000004	6e-45
86	0x00000004	6e-45
87	0x00000004	6e-45
88	0x00000004	6e-45
89	0x00000004	6e-45
90	0x00000004	6e-45
91	0x00000004	6e-45
92	0x00000004	6e-45
93	0x00000004	6e-45
94	0x00000004	6e-45
95	0x00000004	6e-45
96	0x00000004	6e-45
97	0x00000004	6e-45
98	0x00000004	6e-45
99	0x00000004	6e-45
100	0x3d374fd7	0.044753876
101	0x3d2b0a31	0.041757766
102	0x3d33f6bc	0.043936476
103	0x3d612133	0.054963302
104	0x3d66936e	0.056292944
105	0x3d408218	0.046999067
106	0x3d36a3ef	0.044589933
107	0x3d2e56cf	0.042563256
108	0x3d556698	0.052099794
109	0x3d884e16	0.06655519
110	0x3d4c7c1f	0.04992306
111	0x3d426c14	0.047466353
112	0x3d1cdb49	0.038295064
113	0x3d5ec851	0.054390255
114	0x3d6db37a	0.05803249
115	0x3d597a06	0.053094886
116	0x3d4c3839	0.049858306
117	0x3d2a8bd5	0.04163726
118	0x3d11dd9e	0.03561174
119	0x3d196d00	0.037457466
120	0x3d5aa010	0.053375304
121	0x3d4f422d	0.05060022
122	0x3d3edaee	0.046595506
123	0x3d138c51	0.036022488
124	0x3d15050a	0.03638176
125	0xbb12f0ef	-0.002242144
126	0xbc2d4db3	-0.010577607
127	0xbbc3837c	-0.005966602
128	0xb8da577d	-0.00010411346
129	0x385151d2	4.9905684e-05
130	0xbac16e2c	-0.0014757565
131	0xbb4e77cb	-0.0031504508
132	0xbc192eac	-0.009349506
133	0xbb92a778	-0.0044755302
134	0x387af306	5.9830978e-05
135	0xba91fd52	-0.0011138117
136	0xbb126c9c	-0.0022342568
137	0xbc9145af	-0.017733423
138	0xbccf3130	-0.02529201
139	0xbcd007ec	-0.025394402
140	0xba812544	-0.0009853025
141	0xbadcd5df	-0.0016848407
142	0xbc6d6a47	-0.0144906705
143	0xbcdfe01e	-0.027328547
144	0xbcd581c9	-0.026062863
145	0xbb2c873d	-0.0026325725
146	0xbc1fb0c2	-0.009746732
147	0xbc53e9c3	-0.012934151
148	0xbcce2180	-0.025162458
149	0xbcd94648	-0.02652277
150	0xbddf1709	-0.108930655
151	0xbda71ae1	-0.081594236
152	0xbd90fc1a	-0.070793346
153	0xbd7e0ff4	-0.062026933
154	0xbd839cb8	-0.06426376
155	0xbde728e9	-0.112871
156	0xbddb7776	-0.10716145
157	0xbd9c8034	-0.0764164
158	0xbd8b58e7	-0.06804066
159	0xbd8d6ab7	-0.0690512
160	0xbdcb7e6c	-0.099362224
161	0xbdc173a1	-0.094458826
162	0xbd5114df	-0.051045295
163	0xbd320f0c	-0.04347138
164	0xbd3f0627	-0.046636727
165	0xbd787ed6	-0.060667835
166	0xbd7455b5	-0.05965205
167	0xbcbd2f7d	-0.023093933
168	0x38d17040	9.986805e-05
169	0xbce040e8	-0.0273747
170	0xbd66e92f	-0.056374725
171	0xbcfd6009	-0.030929582
172	0xbcda682f	-0.026661007
173	0xb783c621	-1.5708678e-05
174	0xbaf65cd6	-0.0018795978
175	0x3d985299	0.07437629
176	0x3d88edcd	0.06685982
177	0x3d753158	0.05986151
178	0x3d80624f	0.06268751
179	0x3d84d5de	0.064861044
180	0x3d9b2dd4	0.075771004
181	0x3d96d1d4	0.0736424
182	0x3d7a4ff4	0.061111405
183	0x3d816264	0.06317595
184	0x3d8cd5db	0.06876727
185	0x3d955638	0.072918355
186	0x3d8f4c06	0.06996922
187	0x3d695384	0.056964412
188	0x3d50685c	0.050880775
189	0x3d754035	0.059875686
190	0x3d9008b6	0.070329115
191	0x3d8c4757	0.068495445
192	0x3d7099b9	0.05874035
193	0x3d5ae190	0.05343777
194	0x3d678cb6	0.056530677
195	0x3d910fc2	0.07083084
196	0x3d86bf8b	0.06579503
197	0x3d818eb0	0.063260436
198	0x3d5f70fa	0.054551102
199	0x3d60f2dd	0.054919112
200	0x3db1f126	0.086885735
201	0x3d7e7ead	0.062132526
202	0x3d60ccc2	0.054882772
203	0x3d62db17	0.05538472
204	0x3d66a119	0.05630598
205	0x3dadf53f	0.084940426
206	0x3dab499c	0.08363649
207	0x3d811c84	0.06304267
208	0x3d948deb	0.07253631
209	0x3d8e9a42	0.06963016
210	0x3da8575a	0.08219786
211	0x3da2a01a	0.07940693
212	0x3d52f0e8	0.051499277
213	0x3d00cc67	0.031444933
214	0x3d118d3b	0.03553508
215	0x3db314ed	0.08744226
216	0x3dad1979	0.08452124
217	0x3d76fd90	0.06030041
218	0x3cebeaa4	0.028798409
219	0x3ce7e2a1	0.028306307
220	0x3daede8e	0.08538543
221	0x3d861a45	0.06547979
222	0x3d779c27	0.060451653
223	0x3d08fb34	0.03344269
224	0x3ce99562	0.028513614
225	0xbcc02fca	-0.023460288
226	0xbcba3416	-0.022729915
227	0xbc9b6c7f	-0.018972633
228	0xbc7c5cb0	-0.015402958
229	0xbc81dbf7	-0.015851958
230	0xbcc6e1ab	-0.024277529
231	0xbcc44572	-0.023958895
232	0xbcab02b1	-0.020875307
233	0xbc975989	-0.01847531
234	0xbc9cc329	-0.019136028
235	0xbca11274	-0.01966212
236	0xbc8c04d0	-0.017092139
237	0xbc163ace	-0.009169294
238	0xbcaeab95	-0.021322051
239	0xbcb3734d	-0.021905566
240	0xbc6cd019	-0.014453911
241	0xbc769bd6	-0.015051803
242	0xbc300038	-0.01074224
243	0xbc386790	-0.01125516
244	0xbc489b28	-0.012244023
245	0xbc7be86f	-0.015375241
246	0xbc6be264	-0.014397237
247	0xbc6f75d2	-0.014615493
248	0xbc3455b4	-0.011006761
249	0xbc42ab59	-0.011881673
250	0x00000000	0.0
251	0x00000000	0.0
252	0x00000000	0.0
253	0x00000000	0.0
254	0x00000000	0.0
255	0x00000004	6e-45

exp_avg_sq f4 [32, 25]
0	0x3d5711b8	0.052507132
1	0x3d4feefa	0.050765015
2	0x3d451c64	0.04812278
3	0x3d3c7884	0.04601337
4	0x3d3d9f7f	0.046294685
5	0x3d5d6139	0.054047797
6	0x3d485661	0.048910502
7	0x3d2ac59e	0.04169237
8	0x3d316ce1	0.043316726
9	0x3d38394d	0.04497652
10	0x3d52a10f	0.05142313
11	0x3d33a627	0.043859627
12	0x3cf56fd8	0.029960558
13	0x3d147c17	0.036251154
14	0x3d255e83	0.040373337
15	0x3d40c05b	0.047058444
16	0x3d26489c	0.04059659
17	0x3d0a6658	0.03378901
18	0x3d1369f3	0.035989713
19	0x3d214fcc	0.03938274
20	0x3d2f9948	0.04287079
21	0x3d20e736	0.039283
22	0x3d11e533	0.035618972
23	0x3d127f01	0.03576565
24	0x3d1c8686	0.03821423
25	0x3d224bb9	0.039622996
26	0x3d2d3c08	0.04229358
27	0x3d4aed2d	0.049542595
28	0x3d61bf19	0.055113886
29	0x3d6e498c	0.05817561
30	0x3d24c806	0.04022982
31	0x3d23f37a	0.04002712
32	0x3d42ee69	0.047590647
33	0x3d6b499c	0.057443246
34	0x3d7a6e43	0.06114031
35	0x3d4e5bf4	0.050380662
36	0x3d4c210e	0.04983621
37	0x3d478f80	0.048720837
38	0x3d616503	0.055027973
39	0x3d68b8ae	0.05681675
40	0x3d58191a	0.052758314
41	0x3d572b7d	0.052531708
42	0x3d3b9a33	0.045801353
43	0x3d20ca95	0.039255697
44	0x3d27e03f	0.040985342
45	0x3d5a3396	0.053271852
46	0x3d582f2a	0.052779354
47	0x3d443cbb	0.04790948
48	0x3d21b6aa	0.039480843
49	0x3d21f168	0.039536864
50	0x000001f4	7e-43
51	0x000001f4	7e-43
52	0x000001f4	7e-43
53	0x000001f4	7e-43
54	0x000001f4	7e-43
55	0x000001f4	7e-43
56	0x000001f4	7e-43
57	0x000001f4	7e-43
58	0x000001f4	7e-43
59	0x000001f4	7e-43
60	0x000001f4	7e-43
61	0x000001f4	7e-43
62	0x000001f4	7e-43
63	0x000001f4	7e-43
64	0x000001f4	7e-43
65	0x000001f4	7e-43
66	0x000001f4	7e-43
67	0x000001f4	7e-43
68	0x000001f4	7e-43
69	0x000001f4	7e-43
70	0x000001f4	7e-43
71	0x000001f4	7e-43
72	0x000001f4	7e-43
73	0x000001f4	7e-43
74	0x000001f4	7e-43
75	0x000001f4	7e-43
76	0x000001f4	7e-43
77	0x000001f4	7e-43
78	0x000001f4	7e-43
79	0x000001f4	7e-43
80	0x000001f4	7e-43
81	0x000001f4	7e-43
82	0x000001f4	7e-43
83	0x000001f4	7e-43
84	0x000001f4	7e-43
85	0x000001f4	7e-43
86	0x000001f4	7e-43
87	0x000001f4	7e-43
88	0x000001f4	7e-43
89	0x000001f4	7e-43
90	0x000001f4	7e-43
91	0x000001f4	7e-43
92	0x000001f4	7e-43
93	0x000001f4	7e-43
94	0x000001f4	7e-43
95	0x000001f4	7e-43
96	0x000001f4	7e-43
97	0x000001f4	7e-43
98	0x000001f4	7e-43
99	0x000001f4	7e-43
100	0x3d0727d0	0.032996953
101	0x3cf59be6	0.029981565
102	0x3d04e944	0.032449022
103	0x3d1c22d3	0.03811915
104	0x3d2cceb1	0.042189304
105	0x3d0e25a3	0.034703862
106	0x3cf9a187	0.03047253
107	0x3d02d203	0.031938564
108	0x3d2a4e9b	0.04157887
109	0x3d43214e	0.047639184
110	0x3d09f9cc	0.03368549
111	0x3d0506e8	0.03247729
112	0x3d18ce01	0.037305836
113	0x3d4bddfa	0.04977224
114	0x3d5d2a83	0.05399562
115	0x3d114470	0.035465658
116	0x3d14e937	0.036355224
117	0x3d2a0e4c	0.04151754
118	0x3d4818ec	0.048851892
119	0x3d559abc	0.05214952
120	0x3d1605a7	0.036626484
121	0x3d1db143	0.038499128
122	0x3d3051ec	0.043046877
123	0x3d452f46	0.048140787
124	0x3d506215	0.05087479
125	0x3c1e88ca	0.009676168
126	0x3c11ef0b	0.00890709
127	0x3c0614c5	0.008183663
128	0x3c08cfae	0.008350296
129	0x3c13f9fa	0.009031767
130	0x3c28032f	0.010254665
131	0x3c1b7575	0.009488453
132	0x3c0f13b1	0.008732722
133	0x3c1cbc0e	0.00956632
134	0x3c330455	0.010926326
135	0x3c4c4aae	0.012468977
136	0x3c4a60be	0.012352167
137	0x3c55da9a	0.013052607
138	0x3c57a029	0.013160744
139	0x3c605167	0.013691283
140	0x3c565edd	0.013084141
141	0x3c5c54ec	0.013447981
142	0x3c68a812	0.014200227
143	0x3c64e276	0.013970008
144	0x3c65e4ed	0.014031631
145	0x3c5bdacd	0.013418865
146	0x3c649a88	0.013952859
147	0x3c6d03fd	0.014466283
148	0x3c6960c9	0.014244267
149	0x3c649668	0.013951875
150	0x3dd4f433	0.1039814
151	0x3dc75924	0.09733799
152	0x3db1461d	0.08655951
153	0x3d9eb1f3	0.07748785
154	0x3da122c9	0.07867963
155	0x3de354ca	0.111001566
156	0x3dd23f5a	0.102659896
157	0x3daf69f6	0.08565132
158	0x3da8b48a	0.0823756
159	0x3dbc7b14	0.09203163
160	0x3ddcfa1a	0.107898906
161	0x3dd358ea	0.103196934
162	0x3dc73e3e	0.09728669
163	0x3de488ef	0.111589305
164	0x3dea6429	0.11444885
165	0x3dba47ab	0.09095701
166	0x3da232be	0.079198346
167	0x3da4f6cc	0.08054885
168	0x3dcb00df	0.099122755
169	0x3de473a4	0.11154869
170	0x3da33e6e	0.07970892
171	0x3d9658c0	0.073411465
172	0x3da2bc3e	0.079460606
173	0x3dbfd4f9	0.09366793
174	0x3dd25866	0.10270767
175	0x3d4293f6	0.047504388
176	0x3d4bbb2c	0.049739048
177	0x3d5f6add	0.054545272
178	0x3d6fc1e4	0.058534518
179	0x3d714045	0.058899183
180	0x3d3c43ce	0.0459631
181	0x3d400f69	0.046889696
182	0x3d58086d	0.05274241
183	0x3d6cfd5b	0.057858806
184	0x3d772bd2	0.060344525
185	0x3d2ef5eb	0.042714994
186	0x3d2cecd0	0.04221803
187	0x3d3e20cf	0.046418007
188	0x3d6497ce	0.055808835
189	0x3d740d37	0.059582915
190	0x3d219086	0.03944447
191	0x3d179744	0.037009493
192	0x3d1a6a66	0.037699126
193	0x3d3c7d83	0.046018135
194	0x3d5547d2	0.052070446
195	0x3d1106d7	0.035406914
196	0x3d0e732c	0.034777805
197	0x3d1b7d9f	0.0379616
198	0x3d32f7b6	0.043693267
199	0x3d48126e	0.0488457
200	0x3dbf8a3f	0.0935254
201	0x3dc02348	0.09381729
202	0x3dcb03cd	0.09912834
203	0x3dcda348	0.10040909
204	0x3dc89789	0.09794528
205	0x3dc0c07f	0.09411716
206	0x3dc30135	0.095217146
207	0x3dd1165f	0.10209345
208	0x3dd342a1	0.10315443
209	0x3dd1d407	0.10245519
210	0x3dd490e1	0.10379196
211	0x3ddc6ff6	0.10763542
212	0x3dfb8bb8	0.122825086
213	0x3de5546a	0.11197741
214	0x3ddde451	0.108345635
215	0x3dcdeb2d	0.10054622
216	0x3dcd4f33	0.10024872
217	0x3dd0421d	0.1016886
218	0x3dcd9e62	0.10039975
219	0x3dd20267	0.102543645
220	0x3dc6f5f4	0.097148806
221	0x3dc4269a	0.09577675
222	0x3dc43795	0.09580914
223	0x3dc0c30b	0.094122015
224	0x3dc9c3f0	0.09851825
225	0x3c1ed04c	0.0096932165
226	0x3c1d56fb	0.009603257
227	0x3c0e4cfe	0.008685349
228	0x3bfd3500	0.0077272654
229	0x3be562b1	0.0070002903
230	0x3c1be75c	0.00951561
231	0x3c1a6d1b	0.009425427
232	0x3c0967be	0.0083865505
233	0x3be71c47	0.0070529315
234	0x3bdeb1b2	0.0067960853
235	0x3c07c0ac	0.008285683
236	0x3c056afd	0.008143184
237	0x3bf0cc30	0.00734856
238	0x3c15a398	0.009133242
239	0x3c172225	0.009224449
240	0x3bc21d64	0.005923914
241	0x3bb26b22	0.0054449
242	0x3bd779b9	0.00657579
243	0x3c146c7f	0.009059071
244	0x3c1f4b46	0.009722536
245	0x3bb50176	0.005523856
246	0x3bbce7d5	0.005764941
247	0x3be3f2b2	0.006956422
248	0x3c10136f	0.008793696
249	0x3c192080	0.0093461275
250	0x00000000	0.0
251	0x00000000	0.0
252	0x00000000	0.0
253	0x00000000	0.0
254	0x00000000	0.0
255	0x000001f4	7e-43

exp_avg f4 [32]
0	0x3b81db51	0.003962912
1	0xbb1931fb	-0.0023375738
2	0x00000004	6e-45
3	0x00000004	6e-45
4	0x3d934ad7	0.07192009
5	0xbce905ad	-0.02844509
6	0xbdd9721f	-0.1061747
7	0x3cc1439f	0.023591815
8	0x3d847d7e	0.06469248
9	0xbcdf3cff	-0.027250765
10	0x00000004	6e-45
11	0x3c1abebf	0.0094448915
12	0xbced4b3c	-0.028966539
13	0xbc8573f4	-0.016290642
14	0x3c685957	0.0141814565
15	0x3d5efaca	0.05443839
16	0x00000004	6e-45
17	0x00000004	6e-45
18	0xbc4fcd11	-0.012683169
19	0x00000004	6e-45
20	0x3dfdbede	0.12389921
21	0x00000004	6e-45
22	0xbc8cb855	-0.01717774
23	0x00000004	6e-45
24	0x3d8ae6d4	0.06782308
25	0x3cb480b3	0.022034025
26	0x00000004	6e-45
27	0xbb9b0f0b	-0.004732018
28	0x00000004	6e-45
29	0x00000004	6e-45
30	0xbdd7e76d	-0.10542188
31	0x00000004	6e-45

exp_avg_sq f4 [32]
0	0x3e004aa5	0.12528475
1	0x3e0a4710	0.1350367
2	0x000001f4	7e-43
3	0x000001f4	7e-43
4	0x3dd98911	0.106218465
5	0x3cd7ba10	0.026333839
6	0x3e8986d0	0.26860666
7	0x3df449b3	0.119281195
8	0x3e7f170c	0.24911135
9	0x3cbc5807	0.022991193
10	0x000001f4	7e-43
11	0x3d2a4474	0.04156919
12	0x3c508853	0.012727815
13	0x3c77b528	0.015118875
14	0x3c213872	0.009840118
15	0x3d1592ef	0.03651708
16	0x000001f4	7e-43
17	0x000001f4	7e-43
18	0x3ce0dcaa	0.02744897
19	0x000001f4	7e-43
20	0x3e29dd73	0.16588382
21	0x000001f4	7e-43
22	0x3e38b055	0.18036015
23	0x000001f4	7e-43
24	0x3d52abb1	0.05143327
25	0x3c627ea5	0.01382414
26	0x000001f4	7e-43
27	0x3d870be5	0.065940656
28	0x000001f4	7e-43
29	0x000001f4	7e-43
30	0x3e199693	0.14998846
31	0x000001f4	7e-43

exp_avg f4 [16, 32]
0	0x3a749615	0.00093302253
1	0xba9f9a2f	-0.0012176688
2	0x00000000	0.0
3	0x00000004	6e-45
4	0x3b094e78	0.0020951312
5	0x3a9bda0a	0.0011890542
6	0x3beec4f8	0.007286664
7	0x3c1bf384	0.009518508
8	0xba35386c	-0.00069130096
9	0x3b3bb2da	0.002864054
10	0x00000004	6e-45
11	0xbabed7d3	-0.001456017
12	0x3a142bf4	0.00056523015
13	0x37f21196	2.8856837e-05
14	0xbb346f68	-0.0027532224
15	0x3bc16eed	0.005903116
16	0x00000004	6e-45
17	0x80000004	-6e-45
18	0x3a0624ee	0.0005117197
19	0x80000004	-6e-45
20	0xb6f74a82	-7.3698475e-06
21	0x00000004	6e-45
22	0xba896514	-0.0010482394
23	0x80000004	-6e-45
24	0xb936b441	-0.00017424022
25	0xbb17a1f3	-0.00231373
26	0x00000004	6e-45
27	0x3b18e25c	0.002332828
28	0x00000004	6e-45
29	0x80000004	-6e-45
30	0x3aed6e03	0.0018114451
31	0x00000000	0.0
32	0xbab389e4	-0.0013697711
33	0xbac523c0	-0.0015040562
34	0x80000004	-6e-45
35	0x00000004	6e-45
36	0xbbb4f6e1	-0.0055225943
37	0xbc23b134	-0.009990979
38	0xbb4b7bb2	-0.003104907
39	0x3bc1767e	0.005904018
40	0xbadc70f1	-0.0016818327
41	0xbb3b1882	-0.0028548543
42	0x00000004	6e-45
43	0x3baf7ea8	0.005355675
44	0x3ac3d192	0.0014939776
45	0x37a6a542	1.9865696e-05
46	0xbbde4861	-0.0067835306
47	0x3bc886bd	0.0061195777
48	0x80000004	-6e-45
49	0x80000004	-6e-45
50	0xbb979fc0	-0.004627198
51	0x80000004	-6e-45
52	0xbaf02a36	-0.0018323127
53	0x00000004	6e-45
54	0x3b850332	0.004059219
55	0x00000004	6e-45
56	0xbb4b5ba5	-0.0031029966
57	0xbb657286	-0.0035010888
58	0x00000004	6e-45
59	0x398a5df8	0.00026391423
60	0x00000004	6e-45
61	0x80000004	-6e-45
62	0x3baeffca	0.005340551
63	0x00000004	6e-45
64	0xb9ac0b89	-0.0003281499
65	0x39a9d03a	0.00032389333
66	0x00000000	0.0
67	0x80000004	-6e-45
68	0xba1b36dd	-0.0005920956
69	0x3c352ffe	0.0110588055
70	0x3b4a652e	0.0030883062
71	0xba82c098	-0.000997561
72	0x3b1fc11b	0.0024376574
73	0x3b898c0b	0.0041976026
74	0x00000004	6e-45
75	0xba948529	-0.0011331189
76	0xba908754	-0.0011026659
77	0xbaae2cd2	-0.0013288504
78	0x3bc3023b	0.0059511936
79	0xb972b44d	-0.00023146086
80	0x00000004	6e-45
81	0x80000004	-6e-45
82	0x3bf82fb1	0.0075740446
83	0x80000004	-6e-45
84	0xb90af832	-0.00013253166
85	0x80000004	-6e-45
86	0x3a8c8c6f	0.0010723005
87	0x00000004	6e-45
88	0x39f7bce2	0.0004725224
89	0x39a7ecf8	0.00032029278
90	0x00000004	6e-45
91	0x3bd81a98	0.006594967
92	0x00000004	6e-45
93	0x00000004	6e-45
94	0xbb52d52f	-0.0032170524
95	0x00000004	6e-45
96	0xba961666	-0.0011450767
97	0x3a36d4d0	0.00069744606
98	0x00000004	6e-45
99	0x80000004	-6e-45
100	0xbc1aefd5	-0.0094565945
101	0xbc2ecc4b	-0.010668824
102	0xbc1d540a	-0.009602556
103	0x3b40937b	0.002938478
104	0xbb549d1d	-0.003244228
105	0xbb47536a	-0.003041471
106	0x00000004	6e-45
107	0xbcb7a7ac	-0.02241882
108	0xbc26ab63	-0.010172698
109	0xba970a2a	-0.0011523415
110	0x3b4b6d24	0.0031040395
111	0x3a9645db	0.001146491
112	0x00000004	6e-45
113	0x80000004	-6e-45
114	0xb805a4e3	-3.1863234e-05
115	0x80000004	-6e-45
116	0x3a9fb37e	0.001218423
117	0x80000004	-6e-45
118	0xbc976f23	-0.018485611
119	0x00000004	6e-45
120	0xbb33dbe6	-0.0027444302
121	0x3ad7ad8d	0.001645492
122	0x00000004	6e-45
123	0x3b0c64d2	0.0021422398
124	0x80000004	-6e-45
125	0x00000004	6e-45
126	0xbc977e5c	-0.01849287
127	0x00000004	6e-45
128	0x3a1862fa	0.00058130885
129	0x39bc9c6d	0.000359747
130	0x00000004	6e-45
131	0x80000004	-6e-45
132	0x3bbab6dd	0.0056980685
133	0x3c258f19	0.010104918
134	0x3c01a2e2	0.007912369
135	0x3b3a565f	0.002843283
136	0x3b03a4c6	0.0020087226
137	0x3bfb5c05	0.0076708817
138	0x00000000	0.0
139	0xbc136c45	-0.008997981
140	0xbb9db226	-0.0048124967
141	0xb95c42f8	-0.00021005783
142	0x3c0ef130	0.008724496
143	0xba1df9fc	-0.0006026325
144	0x00000004	6e-45
145	0x00000004	6e-45
146	0x3bb189fb	0.00541806
147	0x80000004	-6e-45
148	0x3b98a669	0.0046585095
149	0x80000004	-6e-45
150	0xbbd28d1a	-0.006425512
151	0x80000004	-6e-45
152	0x3b02e14c	0.0019970713
153	0x3b7098f3	0.0036712259
154	0x00000004	6e-45
155	0x3adfa00f	0.0017061251
156	0x00000000	0.0
157	0x00000004	6e-45
158	0xbc20b4da	-0.009808743
159	0x00000000	0.0
160	0xbbd4abb4	-0.006490195
161	0x3b9f5b39	0.0048631695
162	0x00000004	6e-45
163	0x80000004	-6e-45
164	0x3aa64edf	0.00126883
165	0x39ebc9ac	0.0004497295
166	0x3b248d9a	0.0025108815
167	0x3aa9d13a	0.0012956031
168	0x3b1d187e	0.0023970897
169	0x3a6948cb	0.00088990916
170	0x80000004	-6e-45
171	0x3b3456ea	0.0027517625
172	0x39d884b3	0.000412976
173	0x393d4cc1	0.00018053038
174	0x3bbda62a	0.0057876306
175	0x38ebc651	0.000112426125
176	0x00000004	6e-45
177	0x80000004	-6e-45
178	0x391322bd	0.00014031953
179	0x00000004	6e-45
180	0xbb0e6b5b	-0.002173147
181	0x80000004	-6e-45
182	0x3b729134	0.0037012817
183	0x80000004	-6e-45
184	0x399f7839	0.00030416416
185	0x3b6fa138	0.00365646
186	0x80000004	-6e-45
187	0x3b2ffab2	0.0026852307
188	0x80000004	-6e-45
189	0x00000004	6e-45
190	0xb8f67cc5	-0.00011753434
191	0x00000004	6e-45
192	0x3af00afa	0.0018313818
193	0xb94112e9	-0.00018412959
194	0x80000004	-6e-45
195	0x00000004	6e-45
196	0xba0162c1	-0.0004935675
197	0x3a9c9376	0.0011945802
198	0x3bb81605	0.0056178593
199	0xb77ca478	-1.5058664e-05
200	0x3b1a4657	0.002354046
201	0x3af84e04	0.0018944149
202	0x80000004	-6e-45
203	0x3b4f35d1	0.003161777
204	0x3a29cda9	0.0006477484
205	0xb91d6035	-0.00015008527
206	0xb842f5cd	-4.6482124e-05
207	0xb6c5986d	-5.888802e-06
208	0x00000004	6e-45
209	0x80000004	-6e-45
210	0xb55a0a3d	-8.122623e-07
211	0x00000004	6e-45
212	0x3ab0cfc2	0.0013489651
213	0x00000004	6e-45
214	0x3b4a3492	0.0030854088
215	0x80000004	-6e-45
216	0x39f52006	0.000467539
217	0x3b213d02	0.0024603014
218	0x80000004	-6e-45
219	0xb93b3c67	-0.00017856211
220	0x80000004	-6e-45
221	0x80000004	-6e-45
222	0xb99540aa	-0.00028467673
223	0x00000000	0.0
224	0xbb6aa68e	-0.003580484
225	0xbbd039fe	-0.0063545695
226	0x00000000	0.0
227	0x80000004	-6e-45
228	0x3abfe239	0.0014639563
229	0x3c3e00b1	0.0115968445
230	0xbbd20451	-0.006409206
231	0xbcff7489	-0.031183498
232	0x3b73d7c6	0.0037207468
233	0xba4f78a5	-0.0007914401
234	0x00000000	0.0
235	0xbb0fb63e	-0.0021928693
236	0xbad468b0	-0.0016205516
237	0xba942ca8	-0.0011304813
238	0xb9875831	-0.00025814914
239	0xbc73fe5e	-0.014892189
240	0x00000004	6e-45
241	0x00000004	6e-45
242	0x3bf7e5bc	0.0075652283
243	0x80000004	-6e-45
244	0xbaa4d2f9	-0.0012575082
245	0x80000004	-6e-45
246	0xbbbd0884	-0.0057688374
247	0x00000004	6e-45
248	0x3a0fd34a	0.00054865016
249	0xbb1c4367	-0.0023843886
250	0x00000004	6e-45
251	0xbc2ee8ca	-0.010675618
252	0x00000000	0.0
253	0x80000004	-6e-45
254	0xbbe2fd42	-0.0069271633
255	0x00000004	6e-45

exp_avg_sq f4 [16, 32]
0	0x3984317e	0.00025213877
1	0x39c12b04	0.00036843878
2	0x00000000	0.0
3	0x000001f4	7e-43
4	0x3a03aa9a	0.0005022675
5	0x39b00d1a	0.00033579097
6	0x3a05ace5	0.00050993107
7	0x3abbc30e	0.0014325099
8	0x3859b035	5.1900937e-05
9	0x393c8cde	0.00017981554
10	0x000001f4	7e-43
11	0x3a83e64c	0.0010063141
12	0x3862e2a2	5.4093667e-05
13	0x3544b860	7.328399e-07
14	0x3a5f6b9d	0.00085228105
15	0x395c4496	0.00021006385
16	0x000001f4	7e-43
17	0x000001f4	7e-43
18	0x372e31a4	1.0382766e-05
19	0x000001f4	7e-43
20	0x39ef7de9	0.00045679443
21	0x000001f4	7e-43
22	0x3ab5f136	0.001388109
23	0x000001f4	7e-43
24	0x394ffd72	0.00019835474
25	0x399da062	0.00030064868
26	0x000001f4	7e-43
27	0x39fba48d	0.0004799705
28	0x000001f4	7e-43
29	0x000001f4	7e-43
30	0x398c2f6d	0.00026738216
31	0x00000000	0.0
32	0x3909b42f	0.00013132462
33	0x39c2ae79	0.00037132556
34	0x000001f4	7e-43
35	0x000001f4	7e-43
36	0x3a4ba5d5	0.00077685463
37	0x3b0fe85c	0.0021958565
38	0x3a0b4e5e	0.0005314107
39	0x3a8e0211	0.0010834356
40	0x38cc47cf	9.7408534e-05
41	0x392a96d1	0.00016268647
42	0x000001f4	7e-43
43	0x3a8f65b7	0.0010940348
44	0x390a4e27	0.0001318982
45	0x345c1ae4	2.049888e-07
46	0x3a059e4e	0.00050971366
47	0x3925db16	0.00015817242
48	0x000001f4	7e-43
49	0x000001f4	7e-43
50	0x39a440c7	0.0003132878
51	0x000001f4	7e-43
52	0x390862b3	0.00013006739
53	0x000001f4	7e-43
54	0x3aaf3066	0.0013365864
55	0x000001f4	7e-43
56	0x3a05c1cc	0.00051024253
57	0x398bb812	0.0002664929
58	0x000001f4	7e-43
59	0x39e14fab	0.00042974702
60	0x000001f4	7e-43
61	0x000001f4	7e-43
62	0x39d87b2e	0.00041290506
63	0x000001f4	7e-43
64	0x39b6c34d	0.00034859256
65	0x3af791a0	0.0018888004
66	0x00000000	0.0
67	0x000001f4	7e-43
68	0x3a5d127b	0.0008433235
69	0x3b03c6bf	0.0020107476
70	0x3aef5513	0.0018259607
71	0x3b434113	0.0029793426
72	0x38e4710d	0.000108929446
73	0x3a56406b	0.0008173051
74	0x000001f4	7e-43
75	0x3a89678e	0.0010483132
76	0x388700a0	6.437418e-05
77	0x37b7ceda	2.1911623e-05
78	0x3ac77e83	0.0015220199
79	0x39ab7046	0.00032699312
80	0x000001f4	7e-43
81	0x000001f4	7e-43
82	0x3983eec6	0.00025164167
83	0x000001f4	7e-43
84	0x3ad1e8a3	0.0016014766
85	0x000001f4	7e-43
86	0x3aff2141	0.0019464866
87	0x000001f4	7e-43
88	0x398af9b6	0.0002650746
89	0x3a4631e1	0.0007560533
90	0x000001f4	7e-43
91	0x3a4d44f4	0.0007830404
92	0x000001f4	7e-43
93	0x000001f4	7e-43
94	0x3a2027a3	0.0006109422
95	0x000001f4	7e-43
96	0x399f9f61	0.0003044559
97	0x3ae4db65	0.0017460404
98	0x000001f4	7e-43
99	0x000001f4	7e-43
100	0x3a072c09	0.0005156403
101	0x3aaabf08	0.0013026902
102	0x3ae971a2	0.0017810354
103	0x3b19d4f8	0.0023472887
104	0x38927f7d	6.985569e-05
105	0x399fcbd0	0.00030478695
106	0x000001f4	7e-43
107	0x3b8395bc	0.0040156525
108	0x39ab7371	0.00032701672
109	0x371e14ec	9.422405e-06
110	0x3a7fc901	0.000975743
111	0x399fbec2	0.0003046897
112	0x000001f4	7e-43
113	0x000001f4	7e-43
114	0x39330763	0.00017073522
115	0x000001f4	7e-43
116	0x38effe8e	0.000114438226
117	0x000001f4	7e-43
118	0x3ba83119	0.005132806
119	0x000001f4	7e-43
120	0x39734982	0.0002320167
121	0x39885cc5	0.0002600906
122	0x000001f4	7e-43
123	0x3a409aa9	0.0007347265
124	0x000001f4	7e-43
125	0x000001f4	7e-43
126	0x3ad2b023	0.0016074221
127	0x000001f4	7e-43
128	0x3832849a	4.2562002e-05
129	0x3a295cc6	0.00064606627
130	0x000001f4	7e-43
131	0x000001f4	7e-43
132	0x3aafd6bc	0.0013415436
133	0x3adc4ee4	0.0016808179
134	0x3aaf42c1	0.0013371335
135	0x3a80df35	0.0009832146
136	0x39463247	0.00018901481
137	0x39c8da5a	0.00038309657
138	0x00000000	0.0
139	0x3a772266	0.0009427428
140	0x38833690	6.25673e-05
141	0x359ca13a	1.1669829e-06
142	0x3a903f2e	0.0011005157
143	0x3911b36c	0.00013895117
144	0x000001f4	7e-43
145	0x000001f4	7e-43
146	0x394a184d	0.00019273274
147	0x000001f4	7e-43
148	0x39fcceb8	0.00048219203
149	0x000001f4	7e-43
150	0x3ab2fa4d	0.0013654918
151	0x000001f4	7e-43
152	0x39c4ebcb	0.00037559713
153	0x39c895d1	0.00038258595
154	0x000001f4	7e-43
155	0x3a18e28b	0.00058320974
156	0x00000000	0.0
157	0x000001f4	7e-43
158	0x39e1a639	0.0004303919
159	0x00000000	0.0
160	0x3a7ecc65	0.0009719788
161	0x3a591908	0.0008281623
162	0x000001f4	7e-43
163	0x000001f4	7e-43
164	0x3a349aa1	0.00068894966
165	0x3a00d40f	0.00049144117
166	0x3a556ae0	0.0008141231
167	0x3aafb0d5	0.001340414
168	0x396614b1	0.00021942217
169	0x399ff9d8	0.0003051299
170	0x000001f4	7e-43
171	0x3b0ab3ed	0.0021164373
172	0x3982aed4	0.0002492579
173	0x385ccb24	5.2641277e-05
174	0x3ad6c28a	0.0016384881
175	0x381ded29	3.765259e-05
176	0x000001f4	7e-43
177	0x000001f4	7e-43
178	0x37e44d20	2.7215632e-05
179	0x000001f4	7e-43
180	0x3aaa89c5	0.0013011029
181	0x000001f4	7e-43
182	0x3acac9ee	0.0015471557
183	0x000001f4	7e-43
184	0x3a130f96	0.00056099275
185	0x3a3d0622	0.00072106917
186	0x000001f4	7e-43
187	0x3a8ef2d1	0.0010906105
188	0x000001f4	7e-43
189	0x000001f4	7e-43
190	0x3a2ffdcd	0.00067135395
191	0x000001f4	7e-43
192	0x391dc14c	0.00015044695
193	0x38cb1606	9.6838965e-05
194	0x000001f4	7e-43
195	0x000001f4	7e-43
196	0x38036f8a	3.1336713e-05
197	0x37603d2a	1.3365681e-05
198	0x393b19b7	0.00017843289
199	0x38170ff9	3.601608e-05
200	0x38027c9c	3.1110467e-05
201	0x383a8d07	4.4477198e-05
202	0x000001f4	7e-43
203	0x3993b473	0.0002817247
204	0x37e84bd5	2.7691867e-05
205	0x37389252	1.10013225e-05
206	0x385fea43	5.3385516e-05
207	0x3588a627	1.0181146e-06
208	0x000001f4	7e-43
209	0x000001f4	7e-43
210	0x35b92d2a	1.3796719e-06
211	0x000001f4	7e-43
212	0x393e5f31	0.00018155274
213	0x000001f4	7e-43
214	0x3947ff64	0.0001907326
215	0x000001f4	7e-43
216	0x385f32ac	5.3214535e-05
217	0x38e7f0da	0.000110598005
218	0x000001f4	7e-43
219	0x3838c14f	4.404905e-05
220	0x000001f4	7e-43
221	0x000001f4	7e-43
222	0x38cc812b	9.7515374e-05
223	0x00000000	0.0
224	0x3a22c180	0.00062086433
225	0x3a534a4d	0.0008060083
226	0x00000000	0.0
227	0x000001f4	7e-43
228	0x3ac858c0	0.0015285239
229	0x3b94ef47	0.0045451256
230	0x3b25c25a	0.0025292845
231	0x3b4473e9	0.0029976314
232	0x39013d9b	0.00012325349
233	0x3a00f472	0.00049192377
234	0x00000000	0.0
235	0x3adc0604	0.0016786461
236	0x39aef142	0.00033367617
237	0x37f4cb27	2.9181667e-05
238	0x3a4a4a87	0.0007716794
239	0x39fd1ce8	0.00048277457
240	0x000001f4	7e-43
241	0x000001f4	7e-43
242	0x3a1f6a27	0.00060811866
243	0x000001f4	7e-43
244	0x37868b84	1.6039012e-05
245	0x000001f4	7e-43
246	0x3b1394ec	0.0022519184
247	0x000001f4	7e-43
248	0x3a8e17d5	0.0010840843
249	0x395bc83e	0.00020960064
250	0x000001f4	7e-43
251	0x3a629f55	0.0008644958
252	0x00000000	0.0
253	0x000001f4	7e-43
254	0x3aea80de	0.0017891189
255	0x000001f4	7e-43

exp_avg f4 [16]
0	0x3c6667d3	0.01406284
1	0x39b0fc2b	0.00033757216
2	0xbc842cd5	-0.016134659
3	0xbd2c3311	-0.04204089
4	0x3c552e14	0.013011474
5	0x3c7b2da4	0.015330706
6	0x3c984686	0.018588316
7	0xbd5f15da	-0.0544642
8	0x3c863d8d	0.016386772
9	0x00000004	6e-45
10	0x00000004	6e-45
11	0x3c7d4483	0.015458229
12	0x3b98831b	0.004654301
13	0xbd282b4f	-0.041056927
14	0x3b9c58db	0.0047713346
15	0x3c0adc9a	0.008475447

exp_avg_sq f4 [16]
0	0x3c24d43b	0.010060365
1	0x3c58855c	0.013215389
2	0x3d0c44b6	0.034245215
3	0x3d0a936d	0.033832002
4	0x3c9194e7	0.017771197
5	0x3ce0cda2	0.027441803
6	0x3c5a1bd5	0.0133123
7	0x3cf04482	0.029329542
8	0x3b9cec05	0.004788878
9	0x000001f4	7e-43
10	0x000001f4	7e-43
11	0x3d159942	0.03652311
12	0x3ca3db34	0.020001985
13	0x3cdee833	0.02721033
14	0x3c340071	0.010986433
15	0x3c0bdb53	0.008536178

exp_avg f4 [3, 16]
0	0xb96f7ffc	-0.00022840494
1	0x385c79f1	5.2565654e-05
2	0xb89c24cc	-7.4455136e-05
3	0x39e4aa94	0.0004361464
4	0xb9534165	-0.0002014689
5	0x3974524c	0.00023300311
6	0x38df7e17	0.00010656955
7	0x3b10a5df	0.0022071523
8	0xba0e747e	-0.0005434229
9	0x80000004	-6e-45
10	0x00000004	6e-45
11	0x3a300cf5	0.0006715798
12	0x3ad4af68	0.0016226592
13	0xba1f3636	-0.0006073447
14	0x3b257605	0.0025247347
15	0x39a382fd	0.00031187377
16	0xba02b4bb	-0.00049860374
17	0x37e6edcf	2.7528875e-05
18	0x3a603627	0.0008552991
19	0x39a25ced	0.00030968283
20	0x3ab0a485	0.0013476765
21	0xba7c1cb5	-0.0009617315
22	0xb99d3bcf	-0.00029989934
23	0x3a34323b	0.000687394
24	0xba1cfb24	-0.00059883506
25	0x00000004	6e-45
26	0x00000004	6e-45
27	0x3996a52d	0.00028733295
28	0x39ad4079	0.00033045167
29	0xb8b5466d	-8.6438704e-05
30	0x3804e44b	3.1683867e-05
31	0x3a1c33bc	0.0005958637
32	0x3a3e94e6	0.00072701124
33	0xb8a7f7fc	-8.009371e-05
34	0xba4cb182	-0.0007808433
35	0xba4383b6	-0.0007458286
36	0xba963c53	-0.001146207
37	0x3a3f0824	0.0007287285
38	0x394ab8c0	0.00019333046
39	0xbb3db268	-0.002894545
40	0x3a95b7d6	0.0011422585
41	0x00000004	6e-45
42	0x80000004	-6e-45
43	0xba7b5f88	-0.00095891254
44	0xbaffff7c	-0.0019531096
45	0x3a35df1f	0.00069378497
46	0xbb27898a	-0.0025564157
47	0xba6df52d	-0.00090773666

exp_avg_sq f4 [3, 16]
0	0x39557382	0.00020356293
1	0x38246c46	3.9201484e-05
2	0x3745a22f	1.1779876e-05
3	0x37370610	1.09090615e-05
4	0x37615a04	1.34320035e-05
5	0x36e3023e	6.765388e-06
6	0x33f0bfda	1.12107685e-07
7	0x38246a17	3.919945e-05
8	0x38589802	5.163998e-05
9	0x000001f4	7e-43
10	0x000001f4	7e-43
11	0x37e17250	2.6875321e-05
12	0x39c8f30d	0.0003832806
13	0x37b30238	2.1339496e-05
14	0x38da68c3	0.000104145634
15	0x3808846e	3.254826e-05
16	0x380a5ef9	3.2990214e-05
17	0x369f1b59	4.741753e-06
18	0x36c5b6e9	5.892351e-06
19	0x3680ca73	3.8382655e-06
20	0x37bab3fb	2.2256738e-05
21	0x37d964e4	2.5915397e-05
22	0x36c4aee6	5.861616e-06
23	0x37fe18b1	3.0290657e-05
24	0x38008e89	3.0650324e-05
25	0x000001f4	7e-43
26	0x000001f4	7e-43
27	0x374cbbd0	1.2203076e-05
28	0x3787fb28	1.6210208e-05
29	0x36a11c74	4.8014863e-06
30	0x36aa963f	5.0838858e-06
31	0x38867187	6.410764e-05
32	0x395d769c	0.00021120388
33	0x38181058	3.6254845e-05
34	0x3795b1cf	1.7844983e-05
35	0x377e9e21	1.5176397e-05
36	0x380b1532	3.3159922e-05
37	0x37f1ae2d	2.8810546e-05
38	0x36c482d8	5.8564874e-06
39	0x38860fb0	6.39254e-05
40	0x38a59760	7.896009e-05
41	0x000001f4	7e-43
42	0x000001f4	7e-43
43	0x37ba1526	2.2182776e-05
44	0x39cd5f77	0.00039171774
45	0x379c311b	1.8619516e-05
46	0x38d2dc32	0.00010054595
47	0x38aa245c	8.113004e-05

exp_avg f4 [3]
0	0x3b234cb9	0.0024917556
1	0x3a1b0e05	0.000591487
2	0xbb4a1021	-0.0030832367

exp_avg_sq f4 [3]
0	0x3ac44414	0.0014973902
1	0x3a1ca4d0	0.0005975487
2	0x3ae40c96	0.001739877

loss f8 []
0	0x3fb36674b9133334	0.07578210371430033
