25_point_edge_detector.pth (torch, 25342 bytes, 19 tensors)

model.0.weight f4 [32, 25]
00000000: a83b bf3d b840 783e 8392 313c 1ec1 be3d
00000010: 32d0 343e afc0 813e 5187 27bd 1898 a4bd
00000020: 834b 06bd 024d 723e 205b a6bc f64a eebe
00000030: f6c3 4dbf 01c4 ecbe daba 7dbd 402e d43e
00000040: d488 37bc 2704 a43d 72d6 35bd 88a4 d73e
00000050: 3669 59bd 0906 1bbc eb64 2a3e c623 083d
00000060: ad94 b9bd 1c19 54bd 7c0c 37bc 7141 11be
00000070: 2d5f 1e3e d8be 343d 327d a0be 4345 c7be
00000080: e6ce cabd 46df f73e 0881 a43e 4102 59be
00000090: a04d e2bd e6b3 f73d 876c d63d da89 dd3d
000000a0: a6db 473d 7560 fc3e 3a32 6fbc 1668 04bf
000000b0: 8a57 dfbe 7cfb 083e 6336 a43e 4c44 ca3d
000000c0: 8e5a 2abe bb7b 97bc 9c76 f7b9 de40 c3b9
000000d0: 0791 37b9 1535 5739 c3b4 e7b9 3352 f738
000000e0: ba19 2538 4786 c839 f535 4939 b6d1 c1b9
000000f0: ba68 09ba 6364 ae37 b264 f9b7 5424 3939
00000100: 0d35 3f39 9f9c 03ba e1ed d3b9 dfa0 a139
00000110: e898 a2b8 b8ae a037 bf12 8139 1160 a2b8
00000120: 339f bcb9 eeb1 92b9 483e 46b9 9dda bdba
00000130: dcaf 7bba 13c4 86ba 817c c0b9 b405 7db9
00000140: eee9 47ba 3564 cbba 22fa 84ba c215 0db9
00000150: da12 fe39 4ead 0f3a e42b 3439 9bd9 46ba
00000160: 2ef0 5cba 032b 3ab8 a683 ab39 4c1e fbb9
00000170: 70a2 c3ba 591d f1b9 f74c e4b9 c028 8ab8
00000180: 07fd 23ba b821 00ba d098 30b9 f61b b8b9
00000190: 6514 1e3e 7583 e1bd 537c fabd 10dd 963b
000001a0: bf57 82bd 4fbe a73e 631c cfbe adc9 03bf
000001b0: 04df 803d 0692 2a3e cd8b 85bd 3310 2cbe
000001c0: 0ae6 cabe a3d0 d63e 0baf f63c 1c6a 5cbd
000001d0: 6de0 4d3d 68a6 e23e 3c71 fe3e b57e 25be
000001e0: abb3 91bd 2230 77bd e3d0 fb3b 69df 953d
000001f0: 693c 2ebd 259f fd3c 491b 70bc 7218 29bd
00000200: 9897 36be eec6 4c3d a8f2 3ebe 1f25 babe
00000210: 5951 47bf 89fd dabe 8e05 0cbe babd e73c
00000220: b664 2b3e 062f ea3e 4300 113e b4be 0a3e
00000230: 30ff 113c 5853 393e 3aee 043f 3ecd 773e
00000240: 01f4 443b ec05 d6bc 116c 783d 9939 3abc
00000250: 9a06 f2bc 73e4 013e 8e18 c43c f390 623e
00000260: c3c2 063c ed5c d8be 358a 8cbe 79ad ac3e
00000270: 7167 cc3e 2ff6 1cbc 6cac cfbe 23f8 ff3b
00000280: e44c d63d c2ce 3cbe 4a4d 0d3d e944 303e
00000290: 30db 3a3e 1b5d e3ba a019 c3be c637 74be
000002a0: 0d97 b63e e166 e73e e5d4 d6bd 6fe3 c4be
000002b0: e29d 4fbd 9010 903b 6ec5 033e 9af3 da3c
000002c0: 8112 84bd 70ee f6bc bafb 8d3d 7750 dbbc
000002d0: ccf7 93bd 817d 9b3d 01c0 ea3e fa66 fa3e
000002e0: 0acf 5dbd 5c3c a93c 5dd6 b7bd d46b efbd
000002f0: 4061 eb3e ec00 033e cca2 a03c 274a 14bf
00000300: 9ca7 15bf 4879 a3bc e5db e83d 18f0 393d
00000310: 9aca 713c 9503 13be d21f 8bbd c5a1 cabc
00000320: 3379 19bd 48c5 8dbe 2f94 ad3c ea71 7fbe
00000330: 6fc2 4ebe 6179 54bd c553 923d 9bb2 de3e
00000340: 8a1a 813e 405a fdbd acbd 20be fe25 23bc
00000350: cc9a d73e 20b5 82bd 7192 8dbd 8b2c 4dbc
00000360: b7e6 523e 29c8 f83e 0092 dd3e 0eda a7bc
00000370: e4b6 1cbe 1c61 6dbe 09bb 28be e9c0 babe
00000380: 34d6 04be 8937 623d fc39 9b3d e7d9 133e
00000390: 7b45 943e de77 42be f99e 85bd 5d49 b03e
000003a0: 01e9 0d3d 00c0 dabe cf19 ddbe 6447 153e
000003b0: 7710 f8bd f9b7 603e fd06 d7bd bcce 513e
000003c0: 9d91 fdbe 872d 80be 29d7 48bd 194a da3e
000003d0: 721f 563e 77c1 36be bdd3 3f3e 7b9f ab3c
000003e0: 9cd7 2bbd 413f 9cbd 5ec2 f4b9 72a1 d2b9
000003f0: 0159 bf39 6848 f1b9 6a5b aeb9 81fa c4b8
0.093375504 0.24243438 0.010838154 0.09314178 0.17657545 0.25342318 -0.040900532 -0.08036822
-0.032786857 0.23662189 -0.020307124 -0.46541566 -0.8037714 -0.4624329 -0.061945774 0.41441536
-0.011202056 0.080086045 -0.044393964 0.42117715 -0.053078853 -0.009461888 0.1664006 0.03323724
-0.09061561 -0.05178176 -0.01117241 -0.1418512 0.15465994 0.044127315 -0.31345516 -0.3892003
-0.09902744 0.48412532 0.32129693 -0.21192266 -0.11049962 0.1209486 0.10469919 0.10817309
0.048793457 0.4929234 -0.014599377 -0.5172132 -0.43621475 0.13377184 0.32072744 0.09876308
-0.16636106 -0.018491616 -0.00047199882 -0.00037241628 -0.00017506267 0.00020523772 -0.0004419443 0.000117931886
3.9363025e-05 0.00038247017 0.00019188954 -0.00036968075 -0.0005241741 2.0789163e-05 -2.9730003e-05 0.00017656508
0.00018234942 -0.0005020592 -0.0004042229 0.0003082817 -7.753243e-05 1.9154846e-05 0.00024618764 -7.742656e-05
-0.00035976767 -0.00027979858 -0.00018905953 -0.0014484707 -0.0009601095 -0.0010281823 -0.00036713856 -0.00024130085
-0.0007626106 -0.0015517535 -0.0010145346 -0.00013454913 0.000484607 0.00054808415 0.00017182488 -0.00075855263
-0.00084281235 -4.4385913e-05 0.00032713747 -0.00047897024 -0.001492573 -0.00045988968 -0.00043544892 -6.587943e-05
-0.00062556606 -0.0004887837 -0.00016841595 -0.00035116047 0.15437467 -0.110114016 -0.12230744 0.0046039894
-0.063643925 0.3276238 -0.40451345 -0.5147961 0.06292537 0.16657266 -0.065208055 -0.16803055
-0.3962863 0.41956052 0.030112764 -0.05381213 0.050262857 0.44267583 0.49695766 -0.16161616
-0.07114347 -0.060348637 0.0076848133 0.07318003 -0.04253808 0.030959675 -0.014654943 -0.04128308
-0.17831266 0.0499944 -0.18647254 -0.36356446 -0.778585 -0.42771557 -0.13673994 0.02828871
0.16737637 0.45739 0.14160256 0.1354931 0.008910939 0.180982 0.51926005 0.24199387
0.0030052664 -0.02612587 0.060649935 -0.011366271 -0.029544163 0.12684803 0.02393749 0.22125606
0.008225146 -0.42258397 -0.27449194 0.337261 0.3992267 -0.009580179 -0.40561235 0.0078115626
0.104638845 -0.18438247 0.034497537 0.17213787 0.18247676 -0.0017346473 -0.38105488 -0.23849401
0.35662118 0.45195678 -0.10489825 -0.38454768 -0.05068768 0.0043965057 0.12868282 0.026727486
-0.06448842 -0.030142993 0.06932779 -0.026771767 -0.07224998 0.07592297 0.45849612 0.4890669
-0.054152526 0.020658664 -0.089764334 -0.116904885 0.45972633 0.1279332 0.019608878 -0.5792565
-0.58458877 -0.019955292 0.113700666 0.045394987 0.014757777 -0.14356835 -0.067931786 -0.02473534
-0.0374691 -0.27689576 0.021188824 -0.24945799 -0.20191358 -0.05187357 0.07144884 0.4349564
0.2521556 -0.123707294 -0.15697354 -0.0099577885 0.42110288 -0.06382203 -0.06912697 -0.012522827
0.20595823 0.4859021 0.43275452 -0.020489719 -0.15304142 -0.23181576 -0.16477598 -0.36475304
-0.12972337 0.055228744 0.07579419 0.14438592 0.2895926 -0.18991038 -0.06524462 0.34430972
0.034646038 -0.4272461 -0.43183753 0.14578015 -0.121125154 0.2194518 -0.1049938 0.20489019
-0.49525157 -0.25034735 -0.049033318 0.42634657 0.20910433 -0.17847238 0.18733115 0.02095007
-0.041953668 -0.07629252 -0.00046684121 -0.00040174607 0.00036496672 -0.0004602105 -0.00033255975 -9.392668e-05

model.0.bias f4 [32]
00000000: 147a f83b bcb0 823b 31e2 16ba a679 7aba
00000010: 5513 ef3b c58f 52bd aa3d 8c3b 5a37 84b8
00000020: 89d1 efbb 2519 faba 0018 c2b9 c9fa 53bd
00000030: 62cd 13bd 025f 703d afc7 353d cfd1 8bbd
00000040: a13c 2eba 4dd5 d0ba c21a 89bd 4582 e1ba
00000050: 8ee7 653d 9700 c9ba bf73 ab39 bbcc e2b9
00000060: 5397 4abd d8d0 813d 8831 fbb9 b376 12bd
00000070: 67a3 5fba 1541 06ba 0f4e dfbc 5236 35ba
0.007582912 0.0039883535 -0.0005755751 -0.000955487 0.0072960057 -0.05140664 0.004279812 -6.3045605e-05
-0.0073186797 -0.001908098 -0.00037020445 -0.05175284 -0.03608454 0.058684357 0.044379886 -0.06827127
-0.00066466077 -0.0015932709 -0.06694557 -0.0017204961 0.05612903 -0.0015335259 0.000327019 -0.00043258615
-0.04946072 0.06338662 -0.00047911354 -0.03575773 -0.0008531124 -0.00051213923 -0.0272589 -0.00069126964

model.2.weight f4 [16, 32]
00000000: 183a eb3e d864 a33e 0a3b a536 d953 10ba
00000010: c457 0d3f 10b2 97bf 5dff 463e 569c 533e
00000020: b07d dabe 2814 bcbe 86a0 e439 e452 a5be
00000030: 0691 4fbe 28c6 40c0 2709 123f 1c37 253d
00000040: 8db7 4139 15f3 b339 5eff 8bbf a96e 853a
00000050: eb81 89be 38fe cf3a 7da2 573f 4434 75ba
00000060: dcd0 443f df13 903e d88c 6db9 b424 e2be
00000070: c970 cfb9 2069 4ab9 f630 92bc e91f 9cb9
00000080: 1c56 9dbe 91c8 80be 6cb6 d638 fb53 96b9
00000090: 7838 563d 0d47 b83e a252 4dbf f014 9b3e
000000a0: bedc d3bc bf2e b83d a2ee 1dba e4a2 343e
000000b0: d6c3 fbba e387 ccbf ea42 e53d 7d84 4cbd
000000c0: 8385 2d39 b657 7ab9 14dd 843e 49b3 1eba
000000d0: 08d0 c2bf c17c 1639 7469 743e e55f 09b7
000000e0: e226 c1be 68c5 363e 2a36 a93a 1043 a63a
000000f0: 0b27 90b9 bc48 9db9 ebb4 35bf deae 27ba
00000100: dee7 85bf 9313 703f aed4 3fb9 1c3c 9cba
00000110: 56fa 22bf 0c94 29be a311 ef3e 6648 c7be
00000120: 20d6 a4bf b3b3 263f 8100 3c39 a130 b7be
00000130: a686 4ebe 3bb4 cd3e 21e4 bc3d d6eb 2cbe
00000140: 7869 d2b9 db87 8eb9 9e15 213d 02da 3aba
00000150: 9a4c 4a3e 8497 8db9 d56d 47be b279 12ba
00000160: a4d7 02bf 1a67 153e edb8 a43a 2ed4 ccbe
00000170: 5808 18ba 38e4 33ba 77a0 303d 357b 8cb9
00000180: 1c5e a6bf 8dcc 693f b2fb e5b9 426b 52b9
00000190: bca8 56bf 322b 05be 47c3 273f 030c 04bf
000001a0: 7abf afbf 3b9b 203e fe7a 5039 86a2 8cbd
000001b0: fd83 1f3f b814 bdbe 2a88 cc3e 5f8e f0be
000001c0: 9c02 4639 1b52 523a d854 a2be 21d1 1739
000001d0: f641 72bf 635d c1ba 092c ee3d 234a 98b8
000001e0: b018 00bf ac68 babe 9be5 973a 8c93 50bd
000001f0: 7d49 27b8 b1cc 7039 5a70 a73d dd34 9eb9
00000200: b5ce d6bf 425b 0e3f 36f2 0939 c5e7 e6b9
00000210: ef9d 85be fd84 89be d7b9 3c3f 97fd 26bf
00000220: 50ef 8b3e 737b b83e c871 0839 bc59 3f3e
00000230: bb3b 3dbd ba01 d33f d1e5 cd3d 318f f3be
00000240: d70a 8ab9 72b6 013a f1c0 38bf 62ea ad3a
00000250: 8390 853d 016f 4aba 7e3e ddbe cc01 9d38
00000260: 23f8 093e 1ea4 8b3e 49ae cfb8 b1e5 943e
00000270: 549b 9b39 d41b 18b8 5218 d43e 9991 6db8
00000280: 0c92 433f 6712 20bf c53e 8839 b85a 94b9
00000290: 15c4 50bf 440d 38bf 1e6f a3be 26fb 5ebf
000002a0: 450a 613f 92af b8be a7b5 eab8 a8be 163f
000002b0: 9621 393f db06 71be 6794 c33d 2768 5abf
000002c0: 01fb 4f38 53f3 adb9 6a06 5bbf 8a3d e8ba
000002d0: cb96 e03e fcb8 0abb 0432 9fbf 0719 08ba
000002e0: 0a45 2f3f 8dfb d73e 8d98 54ba 16db 213f
000002f0: 4898 e338 73f1 0bb9 9094 cc3d 0ec4 2539
00000300: 6948 adbe 73d0 9ebf 17b7 bc37 096c c9b9
00000310: a185 b5bf 0325 ccbf e441 88bf bae7 e5bf
00000320: 29a5 cbbe c4a1 e6be c64c 75b8 6f10 25bf
00000330: 2662 363f 70a1 993e bd6a 143d fe95 c5be
00000340: 8dbb c339 6a05 353a 1621 3a3f d0e6 22b9
00000350: 39da 0cbf 6dc1 10bb 98d6 dcbf 73fd 72b9
00000360: 7410 38be 5fda df3d ecec 7a3a da38 91be
00000370: 21a5 8d39 19df 9cb9 1cc9 efbe 67ec 22b9
00000380: 1ef8 733e f912 debc ad71 de38 3841 8b39
00000390: 98ed 91be a85a 86be e093 4c3f 3757 793c
000003a0: 63ae b2be a78f a43e b197 92b9 8562 42bf
000003b0: 2164 853d bd3a 1d3f 3bb5 1ebf 18f7 f2be
000003c0: 28a8 91b6 4d9e 843a cc37 c2be 3a90 74b9
000003d0: 37c6 21c0 5055 f3b9 b88f 00be 10a2 0839
000003e0: 28f6 70bd d11e 14bf 4b5f f938 11cb 08bf
000003f0: c164 9e39 d5b1 01b9 5119 883f de71 3cb9
0.4594276 0.31912875 4.9242562e-06 -0.00055056583 0.55212045 -1.1851215 0.19433351 0.20665106
-0.42674017 -0.36734128 0.00043607148 -0.32289803 -0.20270166 -3.0120945 0.57045215 0.04033576
0.00018474292 0.0003432265 -1.0937307 0.0010180074 -0.26856932 0.001586861 0.8423231 -0.00093537965
0.76881194 0.2814016 -0.0002265455 -0.44168627 -0.00039566148 -0.00019303383 -0.017845612 -0.00029778414
-0.3072976 -0.2515302 0.00010238294 -0.000286728 0.052299947 0.35991707 -0.8020421 0.30289412
-0.025862094 0.08993291 -0.0006024634 0.17640263 -0.0019208144 -1.5978969 0.111944035 -0.04993104
0.00016548303 -0.00023874533 0.2594992 -0.0006053937 -1.5219736 0.00014351589 0.23868352 -8.1881635e-06
-0.37724978 0.17848742 0.0012909819 0.0012684781 -0.0002749491 -0.00029999565 -0.70979184 -0.00063966017
-1.0461385 0.9377987 -0.00018294409 -0.001191977 -0.6366323 -0.16560382 0.46693143 -0.38922423
-1.2877846 0.6511795 0.00017929265 -0.35779288 -0.20168552 0.40176567 0.092232 -0.1688684
-0.00040132902 -0.0002718557 0.039327256 -0.00071278226 0.19755784 -0.00027006504 -0.19475491 -0.0005587592
-0.5111029 0.14590111 0.0012567319 -0.4000563 -0.0005799583 -0.00068623153 0.04312178 -0.00026794677
-1.299747 0.91327745 -0.0004386581 -0.00020067117 -0.8385122 -0.13004759 0.65532345 -0.5158083
-1.3730309 0.15684216 0.00019882244 -0.068669364 0.62310773 -0.3692987 0.39947635 -0.4698362
0.00018883724 0.0008023099 -0.31705356 0.00014478389 -0.946319 -0.0014752563 0.11629493 -7.261734e-05
-0.5003767 -0.36407983 0.0011588814 -0.05092196 -3.9884344e-05 0.00022964437 0.08175726 -0.00030175495
-1.6781832 0.55608 0.00013155569 -0.000440417 -0.26097056 -0.26859275 0.7372107 -0.652307
0.27331018 0.36031684 0.00013012358 0.18686575 -0.04619954 1.6484902 0.100535996 -0.47570184
-0.00026329487 0.0004948146 -0.72169405 0.0013268704 0.06521704 -0.00077222293 -0.4321174 7.486678e-05
0.13473563 0.2727365 -9.902992e-05 0.2908149 0.00029679632 -3.626554e-05 0.41424805 -5.66408e-05
0.76394725 -0.6252808 0.00025986708 -0.0002829635 -0.815492 -0.7189524 -0.31920713 -0.8710197
0.87906295 -0.3607145 -0.00011191825 0.5888467 0.72316873 -0.23537771 0.0954979 -0.85315174
4.958641e-05 -0.00033178422 -0.8555666 -0.0017718535 0.43865046 -0.0021167388 -1.2437139 -0.00051917176
0.6846472 0.42184106 -0.000810989 0.63224924 0.00010852568 -0.0001334602 0.099892735 0.00015808662
-0.33844307 -1.2407364 2.2496604e-05 -0.000384182 -1.4181405 -1.5948795 -1.0645108 -1.7961342
-0.39774445 -0.45045292 -5.8484053e-05 -0.644782 0.7124351 0.3000598 0.036234606 -0.38590997
0.00037333035 0.0006905409 0.72706735 -0.00015535508 -0.5502048 -0.0022087947 -1.7252989 -0.00023173336
-0.17975026 0.10930323 0.0009572047 -0.28363687 0.00027016646 -0.0002992086 -0.46833122 -0.0001553759
0.23825118 -0.027108656 0.00010606959 0.00026560738 -0.28501582 -0.2624104 0.7991314 0.015218548
-0.34898672 0.32140848 -0.0002796031 -0.7593158 0.06513239 0.6141775 -0.61995286 -0.47454143
-4.3409127e-06 0.0010117978 -0.37933195 -0.00023323382 -2.527723 -0.00046412135 -0.12554824 0.00013030344
-0.058828503 -0.5785952 0.00011890995 -0.53434855 0.00030211176 -0.00012368646 1.0632726 -0.00017971496

model.2.bias f4 [16]
00000000: b887 853d f0c7 563e e450 1c3e 6937 0b3e
00000010: a3c2 943d dcd0 253e e959 333f 8fc4 783e
00000020: 9cfc b9bd d282 7cba d678 87ba b7a2 593e
00000030: cb59 1d3e 9165 713e 9b1a 153e 41d0 5cbc
0.06520027 0.20974708 0.15265232 0.13595356 0.072636865 0.16192955 0.70059067 0.24293731
-0.090813845 -0.0009632531 -0.0010335695 0.21253477 0.15366285 0.23573901 0.1456093 -0.013477386

model.4.weight f4 [3, 16]
00000000: 6774 f23f 8b5c 0240 6742 5cc0 fa37 9ac0
00000010: c4b6 60c0 7870 bfc0 2352 0dc1 e2c5 5cc0
00000020: 35e1 c3bf e91a 54b8 1c8e eb38 a7ef 2e40
00000030: 6842 c83e 4c6b 5a40 36d4 843f 6912 2cc0
00000040: d75f e5bf 394d 29c0 0640 c3bf af88 f6be
00000050: 9b63 603f bba5 8940 8c3a cb40 ade1 27bf
00000060: 4807 c7be 0cd7 c1ba 5961 1bb9 545b ab3f
00000070: adfd bcc0 bc10 babf 71b2 b3c0 95c9 e63f
00000080: 712c 87bf bb8f 9bbf 509f 6a40 8726 8240
00000090: b760 df3f 16d1 aabf c818 8bc0 f069 4040
000000a0: 8e0f ba3f 118b 3bba 53a8 c539 6c5d 87c0
000000b0: 7187 823f abda 3dc0 79eb b43e b6cb 953d
1.8941773 2.0368984 -3.4415529 -4.819333 -3.5111551 -5.982479 -8.832553 -3.4495778
-1.5303103 -5.05698e-05 0.00011232143 2.7333772 0.39113164 3.412799 1.0377262 -2.6886237
-1.7919873 -2.6453383 -1.5253913 -0.48151156 0.87651986 4.301481 6.350897 -0.6557873
-0.38872743 -0.001478882 -0.00014818217 1.3387246 -5.9059663 -1.4536357 -5.6155324 1.8030268
-1.0560437 -1.2153238 3.6659737 4.067203 1.745139 -1.3345058 -4.346775 3.006466
1.4535997 -0.00071542064 0.0003770018 -4.230154 1.0197583 -2.9664714 0.353359 0.073142454

model.4.bias f4 [3]
00000000: 8fd8 c53e a4f3 653e ae4d 02bf
0.38641784 0.22456223 -0.5089978

exp_avg f4 [32, 25]
00000000: b0ec 31bc 1aca 073c a634 473d 816c 6e3d
00000010: 9723 7e3d 7303 85ba ce00 33bc dcb5 313d
00000020: 2732 843d 925f 9f3d 8da8 ab3a 8062 4b3a
00000030: c6ac 1e3d 1a53 a03d 3e2f 9a3d fe3e e83c
00000040: 5b5e 1a3d 8834 943d ef2f 993d f68e a13d
00000050: 0052 1b3d dccb 9e3d cda8 ae3d 01c4 a43d
00000060: aca2 a43d 32e0 60bd 1954 69bd 7c1f 8ebd
00000070: fb81 a0bd 08fe a9bd 78ca 61bd 7103 60bd
00000080: 42ef 97bd 9519 afbd 57e9 c0bd aabb 5cbd
00000090: abc7 68bd da53 85bd bc37 9cbd af63 97bd
000000a0: 1be2 94bd 7cc7 a0bd e75e 8bbd a53a 77bd
000000b0: 29a7 65bd c650 9ebd e748 a0bd c22b 8abd
000000c0: ac00 82bd d93f 7ebd 0400 0000 0400 0000
000000d0: 0400 0000 0400 0000 0400 0000 0400 0000
000000e0: 0400 0000 0400 0000 0400 0000 0400 0000
000000f0: 0400 0000 0400 0000 0400 0000 0400 0000
00000100: 0400 0000 0400 0000 0400 0000 0400 0000
00000110: 0400 0000 0400 0000 0400 0000 0400 0000
00000120: 0400 0000 0400 0000 0400 0000 0400 0000
00000130: 0400 0080 0400 0000 0400 0000 0400 0000
00000140: 0400 0000 0400 0000 0400 0000 0400 0000
00000150: 0400 0000 0400 0000 0400 0000 0400 0000
00000160: 0400 0000 0400 0000 0400 0000 0400 0000
00000170: 0400 0000 0400 0000 0400 0000 0400 0000
00000180: 0400 0000 0400 0000 0400 0000 0400 0000
00000190: a55f 4f3c 5332 6b3c 307e 5f3c 9567 5c3c
000001a0: d9ca 8c3c ad69 933c 84d3 533c 528d af3c
000001b0: 6338 8c3c 3c58 2e3c 9eb2 9e3c 406d 963c
000001c0: d971 353c 6607 ab3c 5903 073d cff9 423c
000001d0: 85a9 573c bcb6 3e3c 86a3 c23c 338c de3c
000001e0: d883 423c 6a4b 783c 9568 953c 45f9 8d3c
000001f0: 373d c83c 67e6 bd3b 10e8 8d3b 7454 b138
00000200: a8b8 74bb 1215 55bb 8cf2 ae3b 3208 aa3b
00000210: 7e7c e7ba 629c 5fbb 5e5d 33bb 144c ae3b
00000220: 1e28 e03b c9c5 2e3b 6370 83b9 253b 32bb
00000230: c1d3 cb39 388d 403b 15d9 883b a70c 283b
00000240: 6175 2ab8 5bc9 403b 9b63 573b d117 7a3b
00000250: 3317 8c3b 6576 503b d78a 693d 83f1 293d
00000260: d4a4 ef3c 5dbd 0f3d d3f7 043d 604b 633d
00000270: dc4a 653d 4e6e fd3c d089 013d ade9 0c3d
00000280: cdb1 503d ef11 5e3d 4175 263d f740 ca3c
00000290: cd54 db3c 93b0 473d e84e 6a3d c837 123d
000002a0: 952f d93c f30f b63c f611 5b3d 5f03 1a3d
000002b0: 313a e23c 2cce e33c 35a5 8e3c e3bf b13c
000002c0: 53d8 bf3c 5eba c63c 3b4d d43c 455c 023d
000002d0: 32ce a23c 8936 ba3c 7ce3 fa3c a9f6 f93c
000002e0: caa9 cf3c 9328 ad3c 50d5 983c b3ae db3c
000002f0: 15fd 1a3d c379 4b3d 3775 883c 9cf6 8d3c
00000300: 1144 ae3c dadc 153d 3992 1c3d 6257 853c
00000310: f8f3 983c 5d34 c83c 2941 e43c 37a1 1e3d
00000320: 06fd 433c a093 193c f6a1 cd3c 6240 1b3d
00000330: c9d8 ff3c 2f0a 7f3c 28a3 583c 22f4 e53c
00000340: f092 093d 34fc fe3c fe9b 9d3c 4580 053d
00000350: 4144 703d fc08 2b3d 08e4 cc3c e41c 773d
00000360: 79a5 853d 095c 803d 841e 433d c3b8 253d
00000370: 6991 853d 368a 833d e145 793d e69f 723d
00000380: 141d 4e3d 1a7b be3c ac85 bb3c 851b a63c
00000390: d7b6 a53c 36e3 a73c 55d3 b73c 8c9b b73c
000003a0: b5a0 913c 7a31 9d3c 8533 9f3c f3e3 973c
000003b0: 7c89 ab3c 1f67 bf3c 8f49 663c 82b0 0b3c
000003c0: 3630 9f3c c1d9 b53c e8f9 8b3c 0136 5f3c
000003d0: 2772 383c 7145 b63c 2435 a83c f5cf 473c
000003e0: 6a6f 523c e556 5a3c 0000 0000 0000 0000
000003f0: 0000 0000 0000 0000 0000 0000 0400 0000
-0.010859653 0.008287931 0.048634194 0.058208946 0.06204566 -0.0010148123 -0.010925485 0.043386325
0.06454878 0.077819005 0.0013096497 0.0007758513 0.03873899 0.0782835 0.07528542 0.02835035
0.03768764 0.07236582 0.07479846 0.07888596 0.03792 0.07753727 0.0852829 0.08045197
0.0803884 -0.05490131 -0.056964967 -0.06939599 -0.07837292 -0.08300406 -0.05512473 -0.054690782
-0.07418682 -0.08549801 -0.09419506 -0.053889908 -0.056831043 -0.06510134 -0.07627818 -0.0739206
-0.07269689 -0.078505486 -0.068052106 -0.060358662 -0.05606762 -0.0773025 -0.07826405 -0.067466274
-0.063477844 -0.06207261 6e-45 6e-45 6e-45 6e-45 6e-45 6e-45
6e-45 6e-45 6e-45 6e-45 6e-45 6e-45 6e-45 6e-45
6e-45 6e-45 6e-45 6e-45 6e-45 6e-45 6e-45 6e-45
6e-45 6e-45 6e-45 6e-45 -6e-45 6e-45 6e-45 6e-45
6e-45 6e-45 6e-45 6e-45 6e-45 6e-45 6e-45 6e-45
6e-45 6e-45 6e-45 6e-45 6e-45 6e-45 6e-45 6e-45
6e-45 6e-45 6e-45 6e-45 0.012657081 0.01435526 0.013640925 0.01345243
0.017186569 0.017994726 0.012928847 0.021429691 0.017116731 0.010641154 0.01937228 0.018362641
0.011074507 0.020877551 0.032962177 0.011900379 0.013162975 0.011640247 0.023759615 0.027166462
0.011872254 0.015154699 0.018238345 0.017330775 0.024443252 0.0057952884 0.0043306425 8.455748e-05
-0.003734151 -0.003251378 0.0053389724 0.0051889652 -0.0017661003 -0.003412031 -0.0027368884 0.005319128
0.00684072 0.0026668182 -0.00025070002 -0.0027195897 0.00038876946 0.0029381048 0.004176269 0.0025642307
-4.0640476e-05 0.0029416892 0.0032865766 0.0038161168 0.0042752265 0.003180885 0.057017174 0.04149009
0.0292534 0.0350927 0.032462906 0.055491805 0.055979595 0.030936386 0.03162557 0.034402538
0.050950814 0.05421632 0.040639166 0.02468918 0.026773835 0.04875238 0.057204157 0.03569773
0.026511947 0.022224402 0.053483926 0.03760087 0.027615638 0.027808271 0.017412761 0.021697944
0.023418581 0.024258789 0.025915733 0.031826276 0.019873712 0.022731083 0.030626051 0.030513125
0.025349516 0.021137511 0.018656403 0.026816702 0.037839014 0.049676668 0.016657455 0.017329507
0.021272691 0.036587574 0.038225386 0.016277019 0.01867102 0.024439031 0.027863102 0.038727965
0.011962181 0.009373575 0.025101643 0.037903197 0.0312313 0.015566393 0.013222493 0.028070513
0.033587396 0.03112612 0.019239422 0.03259303 0.058658842 0.041756615 0.025011078 0.060330287
0.06525702 0.06267554 0.047636524 0.040459406 0.065218754 0.06422846 0.060857657 0.059234522
0.0503207 0.023252059 0.022890888 0.020276794 0.020228786 0.020494085 0.022439638 0.022413038
0.017776826 0.019188631 0.019433746 0.018541312 0.020939581 0.023364602 0.014055624 0.008525969
0.019432168 0.02219856 0.017086938 0.013623715 0.011257685 0.02224991 0.020533152 0.012195577
0.012843946 0.013326381 0.0 0.0 0.0 0.0 0.0 6e-45

exp_avg_sq f4 [32, 25]
00000000: eec9 433d 2d4e 3b3d d37a 363d f3cb 323d
00000010: c184 353d f335 4b3d a2fb 383d cc53 1f3d
00000020: 6315 2d3d f2c8 363d b916 4c3d 5004 323d
00000030: 1da1 ed3c 4908 143d 1a76 2a3d 94ec 413d
00000040: 6eb7 263d ef9c 083d 9e50 113d f238 233d
00000050: b5b0 313d 150d 213d 6bd5 123d 38d3 133d
00000060: 5cb4 1d3d f7e8 133d b10e 223d 03b2 3c3d
00000070: 1c2a 543d 3c30 623d f24f 133d cf4d 153d
00000080: 693b 373d ad65 5c3d c9d6 6d3d d778 303d
00000090: efef 2c3d 50a7 2e3d 30c0 553d bff0 5e3d
000000a0: daac 3c3d c0d6 3c3d 22e7 233d 583a 163d
000000b0: 5269 1f3d da3e 423d 6785 3d3d cfb7 293d
000000c0: bd03 163d 3159 183d f401 0000 f401 0000
000000d0: f401 0000 f401 0000 f401 0000 f401 0000
000000e0: f401 0000 f401 0000 f401 0000 f401 0000
000000f0: f401 0000 f401 0000 f401 0000 f401 0000
00000100: f401 0000 f401 0000 f401 0000 f401 0000
00000110: f401 0000 f401 0000 f401 0000 f401 0000
00000120: f401 0000 f401 0000 f401 0000 f401 0000
00000130: f401 0000 f401 0000 f401 0000 f401 0000
00000140: f401 0000 f401 0000 f401 0000 f401 0000
00000150: f401 0000 f401 0000 f401 0000 f401 0000
00000160: f401 0000 f401 0000 f401 0000 f401 0000
00000170: f401 0000 f401 0000 f401 0000 f401 0000
00000180: f401 0000 f401 0000 f401 0000 f401 0000
00000190: c85e ff3c 17ea ed3c 4244 123d f805 333d
000001a0: 2658 443d aff8 043d c752 ed3c 6abb 0e3d
000001b0: 9f50 3c3d 5466 513d 8f5a 053d 3566 033d
000001c0: 1abb 1f3d 89de 553d 630d 663d 7c8c 0e3d
000001d0: ea6f 123d ceb5 343d 5dc4 573d a0b5 613d
000001e0: 0dc3 133d 1e91 1a3d 2d4a 373d 4ab0 563d
000001f0: 4883 603d d57e 213c 2bee 1b3c a1dd 203c
00000200: 2e8a 2f3c ee94 3b3c 970d 2d3c 43a8 1e3c
00000210: 85ba 263c 4864 3b3c 033f 4d3c 064a 513c
00000220: a4e1 483c c555 603c 9bf8 6a3c eda3 6d3c
00000230: d10a 693c b693 693c 3028 7a3c c9cb 803c
00000240: eeb7 763c 9a2a 6d3c 856e 703c 9576 823c
00000250: 7f93 823c 50be 803c c49c c23d 1b5e b83d
00000260: 2854 9f3d af67 8a3d 7fbf 8b3d c457 cf3d
00000270: 8089 bf3d f2d6 9b3d c2d4 8e3d 3e93 9e3d
00000280: 0c53 ca3d c745 c23d 9ec2 af3d dfe8 c33d
00000290: 7464 c93d 4e54 ad3d 6fb1 933d 9866 8e3d
000002a0: 79c8 ae3d f498 c63d 1b61 9b3d be49 843d
000002b0: d3d2 8b3d 1910 a33d 5989 b63d 0632 393d
000002c0: 2e75 463d 9e3c 713d ad39 853d df16 883d
000002d0: dacf 333d 90d5 3a3d 8d32 673d aafe 833d
000002e0: 98e0 863d e2b9 2a3d 6e9b 283d c292 4a3d
000002f0: 7c9e 743d 60ff 823d 7a75 203d 11bd 193d
00000300: 6aa6 2f3d 4bf2 583d 7028 6f3d d8d0 143d
00000310: 646a 123d d569 2f3d cba6 513d 6d5b 643d
00000320: 1ae0 a13d 55f5 a33d bbb5 a53d f1ac a43d
00000330: 9def a03d 8ead a33d f1ee a53d 332b b13d
00000340: f29e ac3d 36f4 aa3d 21b4 b63d 0c87 bc3d
00000350: 4325 d43d af81 c33d 0553 bc3d 10c4 a93d
00000360: 83a3 aa3d c0fd b63d 2141 b73d 5a7a b73d
00000370: 6aba a53d a9da a13d f3e0 ab3d 4569 af3d
00000380: b1b7 b23d db2e 1d3c 25a2 1c3c 0d9e 103c
00000390: 4732 ff3b e9a9 ea3b 0cd7 173c 16a5 1b3c
000003a0: 5577 083c efd0 ed3b fce4 eb3b 599a 073c
000003b0: 4741 023c 772a f13b 940d 0f3c 530a 123c
000003c0: 2607 ce3b 1c90 b63b 175e d93b 2891 0f3c
000003d0: 4b71 1b3c 2462 ba3b 86d5 bf3b b375 e23b
000003e0: 8301 0a3c 3795 163c 0000 0000 0000 0000
000003f0: 0000 0000 0000 0000 0000 0000 f401 0000
0.047799997 0.04572885 0.044550728 0.043651532 0.044316057 0.049611997 0.04516185 0.038898274
0.042256724 0.04462523 0.049826358 0.043461144 0.029007489 0.036140714 0.041616537 0.04734476
0.040702276 0.03335279 0.035477273 0.03984923 0.04338141 0.039319117 0.035848062 0.036090106
0.038502082 0.036110844 0.039564792 0.046068203 0.05179797 0.05522178 0.035964914 0.036451157
0.044734392 0.053807903 0.058066163 0.04308399 0.042221006 0.04264003 0.052185237 0.054428812
0.04606328 0.04610324 0.040015347 0.036676735 0.0389188 0.04742322 0.0462698 0.04143506
0.03662466 0.037194435 7e-43 7e-43 7e-43 7e-43 7e-43 7e-43
7e-43 7e-43 7e-43 7e-43 7e-43 7e-43 7e-43 7e-43
7e-43 7e-43 7e-43 7e-43 7e-43 7e-43 7e-43 7e-43
7e-43 7e-43 7e-43 7e-43 7e-43 7e-43 7e-43 7e-43
7e-43 7e-43 7e-43 7e-43 7e-43 7e-43 7e-43 7e-43
7e-43 7e-43 7e-43 7e-43 7e-43 7e-43 7e-43 7e-43
7e-43 7e-43 7e-43 7e-43 0.031173125 0.029042287 0.035709627 0.043706864
0.047935627 0.032463726 0.028970135 0.0348467 0.045975324 0.05112298 0.032557067 0.032079894
0.038996793 0.05221418 0.05616511 0.034801945 0.03575126 0.044118695 0.0526775 0.05510485
0.036074687 0.03773605 0.044748474 0.052414216 0.0548127 0.009856899 0.009517233 0.009818465
0.010714097 0.011449082 0.010562322 0.009683671 0.010176306 0.011437483 0.01252723 0.012773996
0.012260828 0.013692324 0.014341499 0.014504415 0.01422377 0.014256408 0.0152683705 0.015722172
0.015058501 0.014475489 0.014674787 0.015925685 0.015939472 0.015715748 0.09502557 0.09002324
0.077797234 0.06758057 0.06823634 0.10124162 0.09352398 0.07609357 0.06974174 0.07742928
0.09879121 0.09485965 0.08582042 0.09565901 0.09833613 0.084633455 0.07211577 0.06953162
0.08534331 0.09697142 0.07586881 0.06459378 0.06827321 0.07962055 0.08912916 0.04521372
0.048451595 0.0588957 0.065051414 0.06644987 0.043899395 0.045613825 0.056444693 0.06445058
0.065858066 0.041681178 0.041163854 0.049456365 0.059721455 0.06396365 0.039174534 0.037533823
0.042883314 0.052965444 0.058388174 0.03633198 0.035745993 0.04282554 0.051184457 0.055751253
0.07904072 0.08005778 0.08091303 0.080407985 0.078582026 0.07992087 0.08102215 0.08650818
0.08428754 0.08347361 0.089210756 0.09205446 0.103586696 0.095462196 0.09195522 0.08289349
0.08331969 0.08935118 0.08947969 0.089588836 0.08092196 0.07903034 0.08392515 0.085650004
0.087264426 0.009593691 0.009560143 0.008826745 0.007787976 0.007161368 0.00926758 0.009499809
0.008329232 0.007257573 0.007198928 0.008276545 0.007950134 0.0073597985 0.008731265 0.008913594
0.0062874733 0.0055713784 0.006633531 0.008762635 0.00948746 0.005687969 0.0058543114 0.0069110035
0.008423212 0.009190849 0.0 0.0 0.0 0.0 0.0 7e-43

exp_avg f4 [32]
00000000: ba02 133e 3917 4ebe 0400 0000 0400 0000
00000010: c89a 4b3c a1bf 213b e4b5 293d 8dee d23c
00000020: 18e0 943d 1987 fd3c 0400 0000 5b75 8e3d
00000030: 2cbe 13bd 412c 953d 84da 39bc ebd0 273d
00000040: 0400 0000 0400 0000 27fe e1bc 0400 0000
00000050: 9bbd 4cbd 0400 0000 a335 50bc 0400 0000
00000060: b1b3 673d 7196 1a3d 0400 0000 5cd8 413d
00000070: 0400 0000 0400 0000 416d 82be 0400 0000
0.14356509 -0.20126046 6e-45 6e-45 0.012427039 0.002468087 0.04143323 0.025748516
0.07269305 0.030948209 6e-45 0.069559775 -0.036070034 0.072838314 -0.011343602 0.040970724
6e-45 6e-45 -0.02758701 6e-45 -0.04998551 6e-45 -0.0127081005 6e-45
0.05656785 0.03774113 6e-45 0.047325477 6e-45 6e-45 -0.2547398 6e-45

exp_avg_sq f4 [32]
00000000: 67fb 053e 090c 033e f401 0000 f401 0000
00000010: f879 e03d d84e f03c b305 823e 0dd8 fb3d
00000020: 6f59 633e b34b be3c f401 0000 5bea 1f3d
00000030: 5f9b 8d3c 9144 bb3c 27cf 1a3c 66b7 173d
00000040: f401 0000 f401 0000 65ea de3c f401 0000
00000050: c9b1 323e f401 0000 0ff2 273e f401 0000
00000060: 3e81 5f3d 86dd 663c f401 0000 6675 763d
00000070: f401 0000 f401 0000 6b82 0c3e f401 0000
0.13084184 0.1279756 7e-43 7e-43 0.10960764 0.02933447 0.25394973 0.12297068
0.22202085 0.023229456 7e-43 0.03904186 0.017286 0.022859843 0.009448803 0.037040137
7e-43 7e-43 0.027211377 7e-43 0.17450632 7e-43 0.16400932 7e-43
0.054566614 0.014090901 7e-43 0.060170554 7e-43 7e-43 0.13721626 7e-43

exp_avg f4 [16, 32]
00000000: c70c 003b 7a24 f63a 0000 0000 0400 0000
00000010: 7ee2 5a3a a45c fc3a 808b 163a b487 183c
00000020: 9644 783a 14e9 813a 0400 0000 e5f6 51bb
00000030: 1b71 61ba fd85 a3b8 2b46 853b fda2 2f3b
00000040: 0400 0000 0400 0080 1c43 d538 0400 0080
00000050: 3984 103a 0400 0000 3fbd 43bb 0400 0080
00000060: 3f34 273b e2f0 7a3a 0400 0000 17c7 543b
00000070: 0400 0000 0400 0080 c498 993a 0000 0000
00000080: 41f8 9d3b fab0 2a3b 0400 0080 0400 0000
00000090: 2a85 39bb b30d b2bb 5548 0fbb 079f 333c
000000a0: 9e05 013a fa7f 9cba 0400 0000 1c02 87bb
000000b0: 3f9f 0abb dde1 2ab9 ca32 373b a1e3 053b
000000c0: 0400 0080 0400 0080 1a41 afba 0400 0080
000000d0: bfae 2a3a 0400 0000 ce80 5bbb 0400 0000
000000e0: ec0c 45bb 8e33 10bb 0400 0000 ba27 263b
000000f0: 0400 0000 0400 0080 3940 123a 0400 0000
00000100: 0e75 8aba 6cf6 98bc 0000 0000 0400 0080
00000110: 7e3c 69bc 4cce 44bc 5973 edbb 691a d5bb
00000120: 1472 3cbb f47a aabb 0400 0000 6ea4 163b
00000130: 516c 14bb 0a5b 63ba f53e 8cbc 862c d1ba
00000140: 0400 0000 0400 0080 7dae 16bb 0400 0080
00000150: d60e a6bb 0400 0080 29ac 183b 0400 0000
00000160: 3ed2 52bc 01ba fcbb 0400 0000 c082 c8bb
00000170: 0400 0000 0400 0000 8f78 dabb 0400 0000
00000180: 2111 3fbc dd06 36bc 0400 0000 0400 0080
00000190: 39b6 d8ba 0148 0dbb 98b7 b4b9 cc20 31bc
000001a0: c5e7 c4b9 bda4 23ba 0400 0000 392e 283a
000001b0: d776 fe39 7269 03ba ebbd dfbb ed1e 3fbb
000001c0: 0400 0000 0400 0080 5299 d7b8 0400 0080
000001d0: 910c 8538 0400 0080 c2ad f2bb 0400 0000
000001e0: e90b 3abb 89b3 c8ba 0400 0000 3208 b0bb
000001f0: 0400 0080 0400 0000 4b8e 1abc 0400 0000
00000200: 50bf 3ab9 de70 d9bb 0400 0000 0400 0080
00000210: 558e febb 965e e5bb d244 b1ba aa06 49bb
00000220: c92d f1ba e50a 68bb 0000 0000 d48f 9c3c
00000230: a33b 603b 145b 0ab9 2776 f2bb 77d2 44b8
00000240: 0400 0000 0400 0000 f707 a9ba 0400 0080
00000250: faeb 34bb 0400 0080 c564 943c 0400 0080
00000260: 9c69 bbbb 210f a1bb 0400 0000 bc7e 06bb
00000270: 0000 0000 0400 0000 454f 903b 0000 0000
00000280: 2470 a6ba 4cdd 1c3c 0400 0000 0400 0080
00000290: 63dc 893a 587c 4739 2c7c afbb 4a21 afbb
000002a0: 4219 6aba 0fbf 61ba 0400 0080 b396 9aba
000002b0: 1514 9439 3479 1d3a 10fe 403b 82ce 59ba
000002c0: 0400 0000 0400 0080 1a01 8c3a 0400 0000
000002d0: 69c6 753b 0400 0080 4bda 07bb 0400 0080
000002e0: 423e 8ab7 f3bd 37b9 0400 0080 2867 8fbb
000002f0: 0400 0080 0400 0000 bc76 8dba 0400 0000
00000300: d5c2 c53a 4f1c 573b 0400 0080 0400 0000
00000310: f13a be3a 9cef d438 277a 96b8 1c1c 863a
00000320: 3c11 c1b9 b4d8 0ab9 0400 0080 e955 acba
00000330: d957 8c39 bb4f ac3a 0f4a 6a3b 990c 93b3
00000340: 0400 0000 0400 0080 0ca8 91b5 0400 0000
00000350: fc43 cfba 0400 0000 02fb 10ba 0400 0080
00000360: 249e fe36 6c49 83ba 0400 0080 f0f8 ec3a
00000370: 0400 0080 0400 0080 9543 433b 0000 0000
00000380: 18a7 08bb d390 44bb 0000 0000 0400 0080
00000390: f128 96bb 3410 c0bb a159 c2bb 1d96 e83a
000003a0: 1968 44ba e080 44bb 0000 0000 c776 7fbc
000003b0: be59 6dbb 58d2 91b9 0f1b b9bb 46c5 dfb9
000003c0: 0400 0000 0400 0000 68a7 02b9 0400 0080
000003d0: 1b35 b739 0400 0080 a38c a8bc 0400 0000
000003e0: 7db5 a3bb 43f1 64bb 0400 0000 ba2d 25ba
000003f0: 0000 0000 0400 0080 147d 4bbc 0400 0000
0.0019538866 0.0018779181 0.0 6e-45 0.000834979 0.0019253683 0.0005742833 0.009309698
0.00094706693 0.0009911382 6e-45 -0.003203803 -0.0008599923 -7.797403e-05 0.0040672026 0.002680003
6e-45 -6e-45 0.000101691316 -6e-45 0.0005512867 6e-45 -0.0029867438 -6e-45
0.0025513319 0.00095726375 6e-45 0.00324673 6e-45 -6e-45 0.0011718501 0.0
0.004820854 0.0026045428 -6e-45 6e-45 -0.0028308132 -0.005433762 -0.0021863182 0.010963208
0.00049217965 -0.0011939995 6e-45 -0.0041201245 -0.0021152047 -0.00016296604 0.0027953857 0.0020429867
-6e-45 -6e-45 -0.0013370842 -6e-45 0.00065110245 6e-45 -0.0033493522 6e-45
-0.0030067516 -0.0022003385 6e-45 0.0025353269 6e-45 -6e-45 0.0005579028 6e-45
-0.001056345 -0.01867219 0.0 -6e-45 -0.014235614 -0.012012076 -0.0072464165 -0.0065033925
-0.002875452 -0.0052026454 6e-45 0.0022986191 -0.002264757 -0.00086729287 -0.017119864 -0.0015958704
6e-45 -6e-45 -0.0022992187 -6e-45 -0.0050676866 -6e-45 0.0023295975 6e-45
-0.012867508 -0.007712603 6e-45 -0.0061191022 6e-45 6e-45 -0.0066672037 6e-45
-0.011661799 -0.011110035 6e-45 -6e-45 -0.0016533799 -0.002155781 -0.00034469063 -0.010811042
-0.00037556715 -0.00062425045 6e-45 0.0006415579 0.00048535198 -0.0005012966 -0.00682806 -0.002916272
6e-45 -6e-45 -0.00010280557 -6e-45 6.344275e-05 -6e-45 -0.0074059675 6e-45
-0.0028388447 -0.0015312295 6e-45 -0.0053720707 -6e-45 6e-45 -0.009433339 6e-45
-0.00017809612 -0.0066357693 6e-45 -6e-45 -0.007768432 -0.006999801 -0.0013524538 -0.0030674138
-0.0018400486 -0.0035406884 0.0 0.019111551 0.0034215234 -0.00013194635 -0.0073993388 -4.6926052e-05
6e-45 6e-45 -0.001289605 -6e-45 -0.0027606473 -6e-45 0.018114457 -6e-45
-0.0057193767 -0.0049151336 6e-45 -0.0020522317 0.0 6e-45 0.004403981 0.0
-0.0012698215 0.009574246 6e-45 -6e-45 0.0010517951 0.0001902444 -0.0053553786 -0.0053445445
-0.00089301553 -0.0008611539 -6e-45 -0.001179418 0.00028243722 0.00060071354 0.0029448308 -0.0008308665
6e-45 -6e-45 0.0010681481 6e-45 0.0037502295 -6e-45 -0.0020729478 -6e-45
-1.6479873e-05 -0.00017523002 -6e-45 -0.004376311 -6e-45 6e-45 -0.0010792832 6e-45
0.0015087972 0.003282327 -6e-45 6e-45 0.0014513416 0.000101535785 -7.17531e-05 0.0010231766
-0.0003682467 -0.00013241434 -6e-45 -0.0013148162 0.00026768332 0.001314632 0.0035749709 -6.8475124e-08
6e-45 -6e-45 -1.085225e-06 6e-45 -0.0015813108 6e-45 -0.0005530567 -6e-45
7.5882e-06 -0.0010016388 -6e-45 0.001807956 -6e-45 -6e-45 0.002979492 0.0
-0.0020851549 -0.0029993549 0.0 -6e-45 -0.0045825173 -0.0058613066 -0.0059310948 0.0017744933
-0.00074923184 -0.0029984042 0.0 -0.015592284 -0.003621682 -0.00027813273 -0.0056489776 -0.00042680855
6e-45 6e-45 -0.0001246013 -6e-45 0.00034944047 -6e-45 -0.020574873 6e-45
-0.0049960003 -0.0034933842 6e-45 -0.0006301064 0.0 -6e-45 -0.012419958 6e-45

exp_avg_sq f4 [16, 32]
00000000: 7d89 6e39 4ec6 9b39 0000 0000 f401 0000
00000010: cdfc b939 525a 7a39 ac6a ee39 1c47 ae3a
00000020: 8dd3 5738 62ab 2d39 f401 0000 1665 a03a
00000030: d90b 2038 5f52 0435 c5a0 5d3a a369 7339
00000040: f401 0000 f401 0000 ab64 2137 f401 0000
00000050: c90a c339 f401 0000 9a85 be3a f401 0000
00000060: 0f75 1339 84d6 7839 f401 0000 effa d839
00000070: f401 0000 f401 0000 f996 9239 0000 0000
00000080: d673 f838 e99f 9f39 f401 0000 f401 0000
00000090: a7d6 183a fbf1 f33a a5a9 e039 d6a7 913a
000000a0: 456a af38 f48b 0f39 f401 0000 bb41 ac3a
000000b0: 2740 ba38 7d35 fd33 f42c 193a e9a7 3839
000000c0: f401 0000 f401 0000 1cec a839 f401 0000
000000d0: 6023 0039 f401 0000 315d bb3a f401 0000
000000e0: 02fe dc39 b881 6139 f401 0000 bc70 bc39
000000f0: f401 0000 f401 0000 b19b c139 f401 0000
00000100: e0a4 c639 84c8 ea3a 0000 0000 f401 0000
00000110: 323c 2c3a 9c25 df3a 2f77 d53a 4ba2 203b
00000120: bd24 f138 1ab5 4f3a f401 0000 e7f2 833a
00000130: 9c60 5538 56cc fc37 9948 be3a 1501 bd39
00000140: f401 0000 f401 0000 a2be 9039 f401 0000
00000150: d17d b83a f401 0000 3f06 cc3a f401 0000
00000160: 3fb5 8139 a7ad 403a f401 0000 884b 283a
00000170: f401 0000 f401 0000 e8b6 143a f401 0000
00000180: e650 c439 26b2 c63a f401 0000 f401 0000
00000190: b1e5 bb39 c603 853a 3c45 ef3a e463 0f3b
000001a0: de28 7a38 fd13 c639 f401 0000 08a0 a73b
000001b0: 48e3 9539 ad56 8237 32fe 8d3a 4c75 ad39
000001c0: f401 0000 f401 0000 f70a 3e39 f401 0000
000001d0: a8f2 0839 f401 0000 d8ee c63b f401 0000
000001e0: f337 2439 d65f 4439 f401 0000 411e 363a
000001f0: f401 0000 f401 0000 7fa8 e43a f401 0000
00000200: 84f0 fe37 02e5 193a f401 0000 f401 0000
00000210: 6710 883a 31ec ba3a 0e56 8b3a 5586 5d3a
00000220: 70c1 3039 9b98 b339 0000 0000 380b b03a
00000230: a593 3438 728f be35 c584 863a 2576 1a39
00000240: f401 0000 f401 0000 348b 5539 f401 0000
00000250: 589d db39 f401 0000 8abf cb3a f401 0000
00000260: 4462 c039 23de c939 f401 0000 2632 fb39
00000270: 0000 0000 f401 0000 1cab d139 0000 0000
00000280: ef1f 3e3a 5bf8 293a f401 0000 f401 0000
00000290: dc2e ef39 84d5 ac39 9a42 373a 8f39 8d3a
000002a0: 3857 7039 4107 a339 f401 0000 49b4 ef3a
000002b0: e931 3739 eb21 5038 fe9c c33a 8545 1138
000002c0: f401 0000 f401 0000 8ef9 7137 f401 0000
000002d0: 946e 9d3a f401 0000 c86c c53a f401 0000
000002e0: dc52 003a 7b12 163a f401 0000 f206 6c3a
000002f0: f401 0000 f401 0000 a525 2a3a f401 0000
00000300: 9695 3439 d164 3039 f401 0000 f401 0000
00000310: c579 a338 8fa5 ba37 b774 0939 0046 1a39
00000320: 1b4f ff37 ee2c 2c38 f401 0000 9632 8139
00000330: 3736 2c38 d225 3737 bf30 a439 9773 9734
00000340: f401 0000 f401 0000 8a23 9935 f401 0000
00000350: 75c3 8239 f401 0000 df5d 5539 f401 0000
00000360: 83e6 8d38 4e81 f738 f401 0000 1075 0139
00000370: f401 0000 f401 0000 5ecc 0e39 0000 0000
00000380: 7728 0c3a 7ecc 233a 0000 0000 f401 0000
00000390: 1ff2 923a 831c 733b 94eb 153b 5364 133b
000003a0: 4c29 f738 d3fb f739 0000 0000 f3b4 e33a
000003b0: 665b 9139 eef6 d737 f1ff 423a e4bf e139
000003c0: f401 0000 f401 0000 2fc8 2a3a f401 0000
000003d0: b27b 4737 f401 0000 e1c2 113b f401 0000
000003e0: 2ca1 5b3a 3b87 eb38 f401 0000 a94d 3f3a
000003f0: 0000 0000 f401 0000 9ea8 e03a f401 0000
0.00022748667 0.00029711652 0.0 7e-43 0.000354743 0.00023875505 0.00045474374 0.0013296339
5.1457017e-05 0.00016562411 7e-43 0.0012237157 3.8158007e-05 4.92937e-07 0.00084544375 0.00023213639
7e-43 7e-43 9.619786e-06 7e-43 0.00037201334 7e-43 0.0014535666 7e-43
0.0001406262 0.00023731036 7e-43 0.0004138569 7e-43 7e-43 0.00027959773 0.0
0.00011847138 0.00030445986 7e-43 7e-43 0.00058303255 0.0018611545 0.00042851004 0.0011112641
8.3644445e-05 0.0001368968 7e-43 0.0013142148 8.8811204e-05 1.179096e-07 0.00058431854 0.00017610159
7e-43 7e-43 0.00032219372 7e-43 0.0001222021 7e-43 0.0014294741 7e-43
0.0004215092 0.00021505996 7e-43 0.00035942148 7e-43 7e-43 0.00036927828 7e-43
0.00037888344 0.0017912542 0.0 7e-43 0.0006570249 0.0017024758 0.001628613 0.0024510797
0.000114986186 0.00079234096 7e-43 0.0010066897 5.0873132e-05 3.0135892e-05 0.0014517485 0.00036049695
7e-43 7e-43 0.00027607853 7e-43 0.0014075582 7e-43 0.0015565826 7e-43
0.00024739836 0.0007350095 7e-43 0.00064199464 7e-43 7e-43 0.0005673007 7e-43
0.00037444307 0.0015159294 7e-43 7e-43 0.00035838553 0.0010148219 0.0018254886 0.0021879608
5.9642705e-05 0.00037780395 7e-43 0.0051155128 0.00028588832 1.553757e-05 0.0010833202 0.00033084524
7e-43 7e-43 0.00018123897 7e-43 0.00013060367 7e-43 0.006070953 7e-43
0.00015661101 0.00018727718 7e-43 0.0006947257 7e-43 7e-43 0.0017445235 7e-43
3.0391158e-05 0.00058706116 7e-43 7e-43 0.0010380865 0.0014261064 0.0010630505 0.0008450498
0.00016856729 0.0003425524 0.0 0.0013431078 4.305285e-05 1.4197851e-06 0.0010262957 0.00014730597
7e-43 7e-43 0.0002036512 7e-43 0.00041888165 7e-43 0.0015544754 7e-43
0.00036694307 0.00038503212 7e-43 0.00047911814 0.0 7e-43 0.00039991073 0.0
0.0007252683 0.0006483846 7e-43 7e-43 0.00045620545 0.00032965478 0.00069908204 0.00107746
0.00022920675 0.00031095187 7e-43 0.0018287982 0.00017470833 4.9622653e-05 0.0014924107 3.463544e-05
7e-43 7e-43 1.4422823e-05 7e-43 0.0012011104 7e-43 0.0015062327 7e-43
0.00048951595 0.00057247997 7e-43 0.00090037205 7e-43 7e-43 0.0006490595 7e-43
0.00017221863 0.00016822225 7e-43 7e-43 7.795127e-05 2.2250022e-05 0.00013108818 0.00014712662
3.0435205e-05 4.104984e-05 7e-43 0.00024642487 4.1058487e-05 1.0916456e-05 0.00031316836 2.8210044e-07
7e-43 7e-43 1.1409732e-06 7e-43 0.0002494116 7e-43 0.00020348233 7e-43
6.76634e-05 0.00011801963 7e-43 0.00012346008 7e-43 7e-43 0.00013618308 0.0
0.0005346606 0.0006248428 0.0 7e-43 0.0011211074 0.0037095852 0.0022876011 0.0022490218
0.0001178557 0.00047299135 0.0 0.0017372653 0.00027724652 2.5744983e-05 0.0007438651 0.00043058314
7e-43 7e-43 0.0006514815 7e-43 1.1890124e-05 7e-43 0.00222414 7e-43
0.00083782035 0.00011230862 7e-43 0.0007297644 0.0 7e-43 0.0017140096 7e-43

exp_avg f4 [16]
00000000: bcdc c03c ddb3 a43c dddc 2bbd 5a62 a9bd
00000010: 38d6 4abc 59ae 86bc eed6 743c ccc9 6ebd
00000020: b991 71bb 0400 0000 0400 0000 8cc0 a33d
00000030: 1455 84bd 8eba 623d 1803 49bb d73f 003b
0.023542754 0.020105297 -0.04195868 -0.08270712 -0.012380175 -0.016440557 0.014943821 -0.058297917
-0.003686054 6e-45 6e-45 0.0799571 -0.0646154 0.055353694 -0.003067201 0.0019569302

exp_avg_sq f4 [16]
00000000: edf6 223c c37d 4d3c a94b fc3c d007 0d3d
00000010: fcd2 723c 6129 e93c 5982 823c 0448 dd3c
00000020: ff96 a33b f401 0000 f401 0000 e565 193d
00000030: 5d9b 9f3c b455 e93c d48b 243c c0e2 1f3c
0.009946567 0.012542191 0.030797796 0.03443128 0.01482081 0.028462114 0.015931295 0.027011879
0.0049923654 7e-43 7e-43 0.03745069 0.019483263 0.02848325 0.010043103 0.009758651

exp_avg f4 [3, 16]
00000000: 6f4b ef3a 982f 7a3a 4066 1d3a 51f2 c1b9
00000010: d358 883a ed19 d939 41cb 3d39 6c6b 013b
00000020: 9e85 933a 0400 0080 0400 0000 4fb4 ab3a
00000030: 1bcf 613b b6ac 673a 36a6 313a f64b 3538
00000040: 1f74 af3a 8128 d238 c423 443a 8a7d fc39
00000050: 8c66 9f3a 3bc3 bdb9 2be1 d339 122c 14ba
00000060: 011e 8639 0400 0000 0400 0000 e223 0cba
00000070: 3729 9a3a 646c 56b9 57a7 8439 df0b afb9
00000080: b75f 4fbb 513a 8aba f7c4 b0ba 8e2c eab8
00000090: a9df 13bb 4bb4 5ab8 2c63 19ba bdc0 b8ba
000000a0: 1f0d b5ba 0400 0000 0400 0080 af44 4bba
000000b0: d671 97bb 9311 32ba d2f9 73ba 8b62 9839
0.0018256734 0.0009543835 0.0006004311 -0.00036992368 0.0010402448 0.00041408782 0.00018100163 0.0019747866
0.0011255031 -6e-45 6e-45 0.0013100001 0.003445572 0.00088376866 0.00067767815 4.3224507e-05
0.0013386047 0.00010021125 0.0007482136 0.0004815872 0.0012161299 -0.00036194347 0.0004041282 -0.0005652319
0.00025580826 6e-45 6e-45 -0.0005345923 0.001176155 -0.00020449009 0.0002530168 -0.00033387446
-0.0031642744 -0.0010545944 -0.0013486434 -0.000111662885 -0.0022563732 -5.214316e-05 -0.00058512646 -0.0014095526
-0.0013813114 6e-45 -6e-45 -0.000775407 -0.0046217246 -0.000679278 -0.00093069405 0.0002906512

exp_avg_sq f4 [3, 16]
00000000: 1e60 3939 3c8a 1938 eed9 1e37 99d1 2137
00000010: 2886 2437 a08f b836 e7dd 7634 9587 0438
00000020: 875b 3238 f401 0000 f401 0000 6722 c137
00000030: 87e7 b239 6e9c d237 4bc1 d638 5992 1238
00000040: 25e5 1e38 7808 8036 129b 0537 ddd1 d936
00000050: b551 fe37 c171 d437 8de4 9336 cdc2 0338
00000060: c005 f237 f401 0000 f401 0000 9a39 1237
00000070: 33fa 9237 c3cc 8636 a496 9936 fc46 9138
00000080: 09d4 4139 8643 1138 9623 8c37 c9fe 8337
00000090: bba6 1e38 53cb d937 bbf7 9636 9537 8138
000000a0: 1023 8938 f401 0000 f401 0000 d204 ad37
000000b0: fe44 b539 6d82 be37 3f96 d238 c959 b738
0.00017678781 3.6606783e-05 9.468275e-06 9.645149e-06 9.806397e-06 5.5003475e-06 2.2991263e-07 3.1597523e-05
4.252375e-05 7e-43 7e-43 2.3023413e-05 0.00034123307 2.5106794e-05 0.00010240319 3.494541e-05
3.7883543e-05 3.815683e-06 7.963523e-06 6.4915353e-06 3.0317207e-05 2.532534e-05 4.407548e-06 3.1414256e-05
2.8851326e-05 7e-43 7e-43 8.71569e-06 1.7521064e-05 4.0173486e-06 4.577292e-06 6.927361e-05
0.00018484904 3.463358e-05 1.6705872e-05 1.573506e-05 3.7825415e-05 2.5963096e-05 4.499188e-06 6.161552e-05
6.5392e-05 7e-43 7e-43 2.0625452e-05 0.00034574413 2.27105e-05 0.00010041566 8.742844e-05

exp_avg f4 [3]
00000000: bc11 373c 07f5 3e3b f1ce 66bc
0.011173662 0.0029137747 -0.014087425

exp_avg_sq f4 [3]
00000000: 5012 b63a a4e7 1c3a c4e6 cb3a
0.0013890956 0.0005985445 0.0015556444

loss f8 []
00000000: 0000 5497 3ebb a63f
0.04439731213824416
