26_no_regu_epoch_edge_detector.pth (torch, 25382 bytes, 19 tensors)

model.0.weight f4 [32, 25]
000000 8a c2 e7 bb 6e 48 ff bb fb ec b5 bb a1 17 9a bb
       -0.0070727514 -0.0077906167 -0.005551932 -0.004702524
000010 4e 42 49 bb ea 84 ce bb 10 85 11 bc 71 49 14 bc
       -0.0030709687 -0.0063024657 -0.008881822 -0.009050713
000020 5a 69 f5 ba 11 a9 c4 ba ae a7 e0 bb f1 f2 f7 bb
       -0.0018723414 -0.0015003999 -0.0068559265 -0.0075668027
000030 aa 06 ec bb 4a 32 d2 3a 37 a5 85 ba 89 4a d1 bb
       -0.007202943 0.0016036716 -0.0010196333 -0.006387059
000040 01 07 0d bc b2 ce e0 bb 59 5c 68 ba b0 b0 8e bb
       -0.008607627 -0.0068605775 -0.00088638585 -0.004354559
000050 f9 56 8c bb 67 9c cb bb e9 58 aa bb 32 08 35 bb
       -0.004282829 -0.006213713 -0.005198587 -0.0027623293
000060 c1 79 3c bb bb 54 0e 3d f2 1a 9b 3c f0 77 48 3c
       -0.0028759094 0.034748774 0.018933747 0.012235627
000070 00 e1 54 bc 9e 7b 02 3d 12 15 56 be 20 10 e4 3c
       -0.012993097 0.03185617 -0.20906475 0.02783972
000080 23 12 b7 3e 16 90 2d 3e 6a 2a 59 be 6a f1 bb be
       0.35756025 0.16949496 -0.21207586 -0.36707622
000090 54 2b 68 be 6b 9b 4d 3f dd a6 ca bd 86 4c d5 be
       -0.22672778 0.80315274 -0.09895108 -0.41659945
0000a0 f6 3a 50 be cc 78 6a 3d 0c 92 9f 3e 9a a5 b2 3d
       -0.20334992 0.057244107 0.31166112 0.08722992
0000b0 ff 3a 88 be 39 01 96 3d 7b a4 0f bc a0 f0 eb 3c
       -0.2660751 0.07324452 -0.008767243 0.028801262
0000c0 3e c0 d5 ba 1c 19 96 3c de 3e f6 bc de a9 3e 3e
       -0.0016307903 0.01832252 -0.030059274 0.18619487
0000d0 dc b6 13 3e 11 15 7d 3d 87 bf 07 3e 0c 30 0c 3e
       0.14425224 0.06178767 0.13256656 0.13690203
0000e0 80 e6 1c 3e f0 46 91 3d 1d 4f b3 3c 39 47 73 bd
       0.15322304 0.070936084 0.02188831 -0.059394095
0000f0 48 63 10 bd d8 33 7b be e6 10 25 bf af 6e cf be
       -0.035250932 -0.24531496 -0.6447891 -0.40514132
000100 61 0c 4c be d5 33 c1 3c fd 9e 1b bd 26 b8 63 3d
       -0.19926597 0.023584286 -0.03799342 0.05559554
000110 a2 ef 4e bd d5 47 a6 bb 20 da 05 3e 7b bb 82 3e
       -0.0505215 -0.005074481 0.1307149 0.2553366
000120 e5 49 95 3e f9 79 9b 3d 95 db 47 3d bc db 1d 3e
       0.2915794 0.07591624 0.048793394 0.15415853
000130 98 ee d1 3d 65 ee 5d 3d 99 54 1d 3e c9 82 74 3e
       0.10250586 0.05418243 0.15364303 0.23878016
000140 b7 69 42 3e f4 65 11 be 64 a6 b4 be b3 b3 5c bd
       0.1898564 -0.14199048 -0.35283196 -0.053882312
000150 5a 48 bb 3e ab ce d5 3e b2 9b b4 be c5 49 01 bf
       0.36578637 0.41759238 -0.35275036 -0.5050319
000160 ab 63 40 be 80 08 a6 3e db 7f 5c 3e 27 b6 a3 3c
       -0.1878802 0.3242836 0.21533148 0.019984318
000170 71 d8 62 bd dd d4 8d be e0 34 5d bd 13 2c a4 bc
       -0.055382196 -0.27701464 -0.054005504 -0.020040547
000180 1b 5c df bd d1 0d e5 bc ec 8f b8 bd 73 55 f8 bd
       -0.109062396 -0.02796069 -0.09011826 -0.12125673
000190 9f 5b 29 bd 25 82 8f bd 0b 45 1a bd b6 9a 79 bd
       -0.041347142 -0.07007245 -0.0376635 -0.06093856
0001a0 38 01 17 3e 61 76 03 bd 57 9e 37 3e 8a b3 29 bc
       0.14746559 -0.032095317 0.17931496 -0.010357747
0001b0 01 60 17 be 58 8e 5f 3e c7 54 1a be e1 77 1e 3f
       -0.14782716 0.21831644 -0.15071402 0.6190167
0001c0 eb e1 f8 bd 37 e7 54 bf 1e 89 ce 3c 80 d6 cd 3c
       -0.121524654 -0.83165306 0.025211867 0.025126696
0001d0 4b f3 36 3e 90 ce 3d bd 57 1d 68 bd cb 40 34 3e
       0.17866246 -0.04633957 -0.056668606 0.17602842
0001e0 5b af 9b bd 45 0b 7e 3d e7 d3 9a 3d 03 5e ad bd
       -0.07601806 0.062022466 0.075599484 -0.08465197
0001f0 b4 94 f0 3c d4 83 d2 3c 74 39 b6 bd e1 3c 5b bd
       0.029367782 0.025697626 -0.08897677 -0.053524856
000200 d0 4c 83 3d 1b 59 b2 bc dc bf 1d be 0e 29 03 3e
       0.06411135 -0.021771004 -0.1540522 0.1280863
000210 55 a6 a3 3e 1b 36 b3 3d 70 58 c9 bd e9 f7 c3 3d
       0.3196284 0.08750554 -0.09831321 0.095687695
000220 3b 02 99 3e 56 d3 17 3f 48 4e 4d 3d 42 d1 b7 bd
       0.29884514 0.5930685 0.050123483 -0.0897546
000230 f1 3f 45 3d 33 f6 ac be 33 4c e8 be d9 38 33 bf
       0.048156682 -0.33781585 -0.45370635 -0.7000862
000240 96 6f bc bd a7 da be 3c 61 65 0b 3e e1 03 cf 3d
       -0.09200971 0.023297621 0.13612892 0.10108162
000250 fc 50 b8 3d 0f 63 07 bd 27 61 a9 bb 4c 06 1f bc
       0.089998215 -0.033053454 -0.005169052 -0.009706091
000260 78 82 03 bc 4a 33 cf ba 5d 87 d6 ba 36 2a f5 ba
       -0.008026712 -0.0015808132 -0.0016367246 -0.0018704596
000270 57 19 80 bc fe cb ac bc 58 e4 b9 bb 66 25 4d bb
       -0.015637083 -0.021093365 -0.0056729726 -0.0031302809
000280 fc aa 9e bb 6c 9f 39 bb 23 6c 14 3c 1e b7 39 bc
       -0.0048421603 -0.0028323783 0.009058985 -0.011335162
000290 97 01 80 bc 6a 3a 32 bc 0b f9 3e bb 23 c9 b6 3a
       -0.015625758 -0.010878185 -0.002914014 0.0013945441
0002a0 66 b4 45 bb 2a c5 04 bc 6b 3a eb bb e7 d4 5f bb
       -0.003016734 -0.008103648 -0.007178595 -0.0034154
0002b0 2e 77 40 3a 57 e2 41 bb 8f 74 a2 bb 44 42 4d 3e
       0.0007341978 -0.0029584372 -0.0049577425 0.2004481
0002c0 b2 af 0f be 3f f0 98 3d db 88 c0 3c 59 6f 6a 3d
       -0.14031866 0.07467698 0.023502758 0.057235096
0002d0 7d 01 85 3c c4 26 b9 bd 03 51 ca be 94 05 8b be
       0.016236061 -0.09040597 -0.39514932 -0.27152693
0002e0 42 29 49 3d 15 48 9b 3d 44 c7 0e 3d a4 1a 9d c0
       0.049111612 0.07582108 0.034858003 -4.909502
0002f0 14 3f 27 be e4 6a 20 3e a9 7b 16 3e 7f ed e6 bb
       -0.16332656 0.15665776 0.1469561 -0.0070473547
000300 bb bc 11 bf e8 93 f9 bd 5e 6f 43 3e fa 7f 91 3d
       -0.56928605 -0.12186414 0.19085452 0.07104488
000310 90 e8 1d be 6f ac 14 3e 42 da b4 bd 44 ee ce 3d
       -0.15420747 0.14518903 -0.08830692 0.10104039
000320 3d 1e 56 bd de 78 ad bd e5 6a a4 3d 9d f6 52 3d
       -0.05227493 -0.08470319 0.08028201 0.05150472
000330 47 6a a6 3d 79 b5 a9 bd 10 9f a8 3d c9 75 4b bd
       0.081257395 -0.08286566 0.08233464 -0.049672876
000340 c2 28 0e 3e 2a 4b 6a 3d bd 98 fc bb 7b a6 ee 3d
       0.13882735 0.05720059 -0.0077086375 0.116528474
000350 89 80 bc c0 9e 9b 9a be b2 77 94 3d 81 4f 7d 3e
       -5.8906903 -0.30196851 0.072493926 0.2473736
000360 40 03 82 be 32 91 e0 be f8 e0 21 be 96 e2 f7 bd
       -0.25393105 -0.43860775 -0.15808475 -0.12103765
000370 7f e8 5b be 0d 0d 7f 3d b6 d7 7b be 49 a8 61 3e
       -0.21475409 0.062268306 -0.24594006 0.22036852
000380 7f 21 ac 3c ca 10 5c bb 01 7c c8 bb 2f 6d 17 bc
       0.021012066 -0.0033579343 -0.006118298 -0.00924234
000390 25 5f 62 bc 6d 0f 57 bc ae 19 51 bb 3f d9 35 3b
       -0.01381663 -0.013126236 -0.0031906175 0.0027747897
0003a0 b6 77 49 bb 90 d5 86 bc 1c db 80 bc 0d 8b e4 bb
       -0.003074152 -0.016459256 -0.01572948 -0.006974584
0003b0 89 ad 8d 3b cc 25 dd bb 4b d8 a9 bc b9 b3 7c bc
       0.0043236655 -0.0067488905 -0.02073302 -0.015423709
0003c0 16 34 cf bb 20 54 a7 ba e0 b3 1e bc 4d 22 96 bc
       -0.006323348 -0.001276616 -0.00968644 -0.018326903
0003d0 87 14 56 bc 8f eb 9c ba 0d 49 bf 3a 40 da c4 bb
       -0.013066418 -0.0011972057 0.0014593914 -0.0060074627
0003e0 68 e7 5f bc 84 6d 7f bc c3 fd 27 3e 23 57 90 3e
       -0.013666011 -0.015590075 0.16405396 0.2819148
0003f0 0e ad 96 3e 47 bb 2d 3e 33 48 cd 3d 75 7e 7b 3e
       0.29428905 0.16965972 0.100235365 0.24559958

model.0.bias f4 [32]
000000 3a a2 01 bb 79 2f af bc 27 05 16 be de bb 70 bd
       -0.0019780532 -0.021384941 -0.14650403 -0.058772914
000010 dc 41 00 bc b7 7f 97 ba 3d 32 16 bb 82 b8 7e 3c
       -0.007828202 -0.0011558448 -0.0022918128 0.01554692
000020 25 2b a8 3c 06 01 01 bc c5 24 d3 bd 80 9f 4f ba
       0.020528385 -0.007873779 -0.103097476 -0.00079201907
000030 cb 44 7e bd a6 e4 c0 bb 03 6f 33 bd 5b f7 d0 bc
       -0.062077325 -0.005886632 -0.04380704 -0.025508573
000040 04 58 09 3d 50 d6 8a 3d 7b 7d 6c bd 4b 9d 0a ba
       0.033531204 0.06779158 -0.057736855 -0.00052877207
000050 af ad d5 3c 48 66 62 bd d9 df 93 bd 8c 45 ce 3c
       0.026083795 -0.055273324 -0.0722043 0.025179647
000060 4a 9e 1c bd 68 d3 4a 3d 31 7c 80 3d 48 a5 33 3d
       -0.038236894 0.04951802 0.06273688 0.043858796
000070 59 d6 cc bb 3f 20 95 ba 52 89 e9 ba b8 cd 5d bb
       -0.006251138 -0.0011377408 -0.0017817414 -0.0033844542

model.2.weight f4 [16, 32]
000000 c1 52 90 3b d0 0e 93 bf 29 77 00 3f 1d b1 57 3f
       0.0044043963 -1.1488895 0.50181824 0.8425463
000010 73 92 d3 be 2f e3 e0 be 4d d3 44 bc 68 65 8c 3f
       -0.4132267 -0.43923327 -0.012013269 1.0968447
000020 ef e1 d9 3f 7e 23 8b b8 e8 ba 73 3f de 00 a4 39
       1.7022074 -6.6346474e-05 0.9520707 0.00031281164
000030 43 a4 63 3f 94 c7 b7 be c3 0e 4b 3f 53 ad 48 3d
       0.8892252 -0.35894454 0.793194 0.04899342
000040 bd e1 74 3f d7 53 bc be 62 d8 29 bf 79 35 66 3a
       0.9565695 -0.36782715 -0.663458 0.0008781772
000050 56 54 10 3f fc 0d 04 3e c1 60 e2 3d 1f d0 48 be
       0.56378686 0.1289596 0.110536106 -0.19610642
000060 5e 67 76 bf 6f 7c 75 3f 20 24 be be f1 7a 18 3f
       -0.96251476 0.95892996 -0.37136936 0.59562594
000070 97 7f 90 bd b0 8d 7f ba ea ff fa 38 1e 1a 7e ba
       -0.07055586 -0.0009748591 0.00011968597 -0.0009693223
000080 74 c9 28 3b ca 0d 6c 3e 45 7f 1a bf 16 a5 fd be
       0.002575484 0.23052135 -0.6035045 -0.49540013
000090 82 1c c8 be 21 39 9c 3f 75 e5 d0 3a 0c 48 52 bf
       -0.3908425 1.2204934 0.0015937524 -0.82141185
0000a0 61 82 a7 bf 08 de b7 39 f0 7f ca 3d 1c 0b 9f bb
       -1.3086663 0.00035069906 0.098876834 -0.0048536193
0000b0 f4 51 a3 be d5 6b b7 3f 2c 8d de be 24 af 0f 3f
       -0.31898463 1.4329783 -0.4346708 0.5612662
0000c0 39 14 cf be 81 e5 40 3f 6f 12 01 bf c0 fe 90 bb
       -0.40445116 0.75350195 -0.5041875 -0.0044249
0000d0 ae ed 2b be db 15 2e bf f3 f6 17 bf 3c 4b b8 3e
       -0.16789886 -0.680021 -0.5936119 0.359949
0000e0 be b7 2b 3f 3c 0e 29 bf 10 44 9c 3f 15 ad ea be
       0.67077243 -0.66037345 1.2208271 -0.45835176
0000f0 53 77 0a 3f d3 79 3c ba d4 63 0d 39 1a e2 7d ba
       0.54088324 -0.0007189784 0.00013483997 -0.0009684876
000100 16 ec 1b ba 55 68 a3 bf 72 c4 fa 3d c4 ed 12 bf
       -0.00059479603 -1.2766215 0.122445 -0.5739405
000110 15 da 1e 3f f9 2e e5 3e fd 22 ac bb 9a 56 71 bf
       0.62051517 0.447624 -0.0052531944 -0.9427277
000120 7c 39 b5 bf 59 b9 bf 39 92 55 41 be 3e e7 48 ba
       -1.4158168 0.00036568454 -0.18880299 -0.00076638523
000130 d7 78 35 3e 2a f2 18 bf 1b 2d 09 bf 3d ab a4 bc
       0.17721878 -0.59744513 -0.5358445 -0.020101184
000140 b9 e6 2f bf 0b 36 04 3f 10 65 28 3f 1c 24 4d 3b
       -0.6871143 0.51644963 0.6577921 0.003130204
000150 7c 41 bc be f0 3d 79 be 17 eb 34 be b4 3f 29 3f
       -0.3676871 -0.24340034 -0.17667805 0.6611283
000160 73 30 6e 3f 16 1e 3d bf 9c e8 7e 3e d4 9b be be
       0.9304268 -0.7387403 0.24893421 -0.37228262
000170 1c 7a 83 3e 87 83 65 b8 e3 36 e6 39 d7 5d 09 39
       0.256791 -5.472035e-05 0.00043909912 0.00013100296
000180 56 90 59 3b 67 26 07 3f 68 3d 1f 3e 71 ad df 3e
       0.0033197603 0.5279297 0.15550768 0.43687013
000190 15 b4 01 bf 14 04 eb bf a4 57 fe 39 d7 51 76 3f
       -0.5066541 -1.836062 0.00048511953 0.9621863
0001a0 a6 bb c0 3f df cb 54 3c be 41 95 3e f6 c5 2a b9
       1.5057266 0.01298806 0.2915172 -0.0001628621
0001b0 b4 15 28 bd e6 c4 dd bf 9f d3 38 3f c4 b1 c8 3d
       -0.041036323 -1.7325714 0.7219791 0.09799531
0001c0 b3 16 41 3f a5 98 d9 be 91 02 a8 bf 64 d0 e7 bb
       0.7542526 -0.4249927 -1.3125783 -0.0070744026
0001d0 a7 87 4e 3f 69 05 2b bd 5f 1c 64 3f 45 1a 89 be
       0.8067574 -0.041753206 0.8910579 -0.26777855
0001e0 de ff c3 be 12 c2 3a 3f c3 13 e3 be e2 05 95 3f
       -0.3828115 0.7295238 -0.44351014 1.164242
0001f0 bd a2 d5 bd 4f b3 2e b9 df 35 c7 b8 87 19 56 bb
       -0.104314305 -0.00016660731 -9.499094e-05 -0.0032669024
000200 5e 69 3d bb 17 18 80 bf 8c d1 ab bc 3a 8b 33 3f
       -0.0028901915 -1.0007352 -0.020973943 0.7013432
000210 3a d5 a5 be f0 18 04 bf 87 8c 98 3c e9 97 8a 3f
       -0.3238924 -0.5160055 0.018621696 1.0827609
000220 da 9a cd 3f 49 ef 36 bc e7 f6 88 be ea ef 0f bb
       1.6062882 -0.011165448 -0.26750872 -0.0021963068
000230 1a f3 5d 3d aa 7f 22 bd 23 86 44 3f 8e 33 27 3d
       0.054186918 -0.03967253 0.76767176 0.04082065
000240 14 8c 9c 3f 25 63 67 3e 64 6f 31 be ff ea 49 ba
       1.2230248 0.22596414 -0.17327648 -0.00077025587
000250 4b 0b 79 3f 72 a3 85 3e 1d 09 80 3e ae b4 63 3e
       0.97282857 0.2610126 0.25006953 0.22236893
000260 13 e2 5a be 15 6a 79 3f e6 2f 38 3e e5 03 a3 3f
       -0.21375303 0.97427493 0.17987022 1.2735564
000270 46 9d 46 3d e0 c9 92 b9 6d 06 b8 b8 94 85 65 3b
       0.04848983 -0.000279977 -8.7750006e-05 0.0035022246
000280 57 2a a7 ba 8d 6a ad bf 23 f3 2f be c3 2a 0b bf
       -0.0012753707 -1.3548142 -0.17182593 -0.54362124
000290 3f e1 f1 be 81 71 48 bf 7a 0c 93 3b bf 9d 79 3f
       -0.47242162 -0.78298193 0.0044875713 0.97506326
0002a0 8f cc 95 3f dc 8b ae 3b d5 05 0e be a0 df 66 b9
       1.1703051 0.005326731 -0.13869412 -0.00022017816
0002b0 fa 31 2d be f4 d6 60 bf d6 b7 b5 bd e1 e0 73 bf
       -0.16913596 -0.8782799 -0.088729545 -0.9526501
0002c0 0a 54 58 3f 53 12 04 bd cd 03 a6 bf 7e b6 e8 bb
       0.84503233 -0.032244038 -1.296991 -0.007101833
0002d0 39 63 be 3d a9 7f d5 be 6c 98 37 bf 8c d7 c5 be
       0.09296269 -0.4169896 -0.7171695 -0.38641012
0002e0 8d 59 81 bf 38 54 4e 3f 12 e0 2c bd f3 70 03 3f
       -1.0105454 0.8059726 -0.042205878 0.5134422
0002f0 38 63 6f bf 68 6a c7 39 b5 8a 12 ba 88 2f 98 bb
       -0.9351077 0.00038035517 -0.0005590127 -0.004644338
000300 72 06 5c bb b7 64 df bf a9 d3 66 3e 30 30 e4 be
       -0.0033573178 -1.7452611 0.2254168 -0.44568014
000310 4a 07 1d 3f 79 67 ba bc a4 d4 cf bb a0 56 79 bf
       0.6133925 -0.022754418 -0.0063424874 -0.97397804
000320 6b aa 90 bf f8 6b e0 ba 79 f1 d8 bd 83 7c 11 3a
       -1.1302007 -0.0017122021 -0.10592932 0.0005549865
000330 4c ba 99 3d bd 8e 06 bf 8d 97 c5 be 0d 3f a0 3c
       0.075062364 -0.5256155 -0.38592187 0.019561315
000340 b0 27 3e bf d0 af 43 3d fd 70 3a 3f 90 51 2c 3b
       -0.7427931 0.04777509 0.72828656 0.0026293732
000350 24 63 df be ad 3c 8b 3d bc 80 67 bd 94 ff 15 3f
       -0.43630326 0.06798682 -0.056519255 0.58593106
000360 8a 07 97 3f f3 b2 36 bf 82 3e 78 3e bf 77 76 be
       1.1799176 -0.71366805 0.24242595 -0.24069117
000370 42 e0 95 3d 6e f4 c5 39 66 ca e0 b9 d1 0c 57 ba
       0.073181644 0.00037756882 -0.00042875408 -0.0008203509
000380 e1 da 25 ba f7 ef b1 bf ba aa cf 3d 58 5b db be
       -0.0006326866 -1.3901356 0.101399854 -0.42843127
000390 f8 91 11 3f 3c a2 16 3d 58 5c fa 35 37 f6 75 bf
       0.56863356 0.036775813 1.8653327e-06 -0.9607882
0003a0 eb b1 91 bf e2 0d 8e bb ae 5d 1c bc ce d4 2d ba
       -1.1382421 -0.004335151 -0.009543819 -0.00066311366
0003b0 70 83 f8 bd 44 26 03 bd 90 a8 f3 be 6e d1 85 3e
       -0.12134445 -0.032018915 -0.4758954 0.26136345
0003c0 50 98 61 bf f7 6c 05 3e fd 97 2a 3f 8a ee 68 3b
       -0.88123035 0.13029848 0.66638166 0.003554257
0003d0 bb 95 db be d5 39 0a be 48 27 8f be d8 18 0a 3f
       -0.42887673 -0.13498624 -0.27959657 0.5394416
0003e0 b6 d5 a1 3f 42 ff 3e bf c7 87 b1 3e f9 d3 92 be
       1.2643344 -0.7460824 0.34673902 -0.28677347
0003f0 4b 8f a1 3d 2e 86 4d ba f7 7e e4 ba 02 8c 16 b9
       0.07888659 -0.0007840124 -0.0017432858 -0.00014357272

model.2.bias f4 [16]
000000 2d f7 f9 3d 10 61 be 3c 96 72 8f 3d de e1 d0 3e
       0.12205348 0.023239642 0.070042774 0.40797323
000010 19 cb 1a bd 17 13 0f 3f 40 0d b1 3c bd aa 5d 3d
       -0.037791345 0.55888504 0.021612763 0.054117907
000020 f4 2f 3c 3e ea fb f5 3a bf 46 47 3e 00 69 c2 3c
       0.18377668 0.0018767093 0.19460581 0.023731709
000030 79 b5 5a 3e 0b 2f cd ba 34 a0 c9 3e 8f ab 87 bb
       0.21358289 -0.0015654279 0.39380038 -0.0041403244

model.4.weight f4 [2, 16]
000000 b3 1a 38 c0 1b dc 42 40 78 d0 1d 40 63 bf 05 c0
       -2.8766296 3.0446842 2.465849 -2.0898063
000010 db 14 b2 bf ad 56 cd c0 cb 4b 31 40 89 90 29 40
       -1.3912615 -6.4168305 2.770251 2.6494467
000020 28 98 d3 3f 42 a2 3d 40 21 bb d7 3f 9a f0 81 40
       1.6530809 2.9630284 1.6853982 4.0606203
000030 88 c2 e3 3f 57 48 e2 ba 15 db f9 bf 1a 80 57 b9
       1.7793741 -0.0017263991 -1.9519984 -0.0002055172
000040 87 12 38 40 c4 db 42 c0 a1 b5 1d c0 d8 bc 05 40
       2.8761308 -3.0446634 -2.4642107 2.089651
000050 ca 1e b2 3f 79 49 cd 40 1e 4f 31 c0 0b c8 29 c0
       1.3915646 6.415219 -2.770454 -2.6528347
000060 d9 df d3 bf f2 7a 3d c0 2f dd d7 bf ef f7 81 c0
       -1.6552688 -2.960629 -1.6864375 -4.0615153
000070 00 e9 e3 bf 0b 40 a5 39 01 0e fa 3f e1 3b 29 bb
       -1.7805481 0.00031518968 1.9535524 -0.0025823044

model.4.bias f4 [2]
000000 d4 9d 86 be c1 a3 86 3e
       -0.26292288 0.2629681

exp_avg f4 [32, 25]
000000 04 00 00 00 04 00 00 00 04 00 00 00 04 00 00 00
       6e-45 6e-45 6e-45 6e-45
000010 04 00 00 00 04 00 00 00 04 00 00 00 04 00 00 00
       6e-45 6e-45 6e-45 6e-45
000020 04 00 00 00 04 00 00 00 04 00 00 00 04 00 00 00
       6e-45 6e-45 6e-45 6e-45
000030 04 00 00 00 04 00 00 00 04 00 00 00 04 00 00 00
       6e-45 6e-45 6e-45 6e-45
000040 04 00 00 00 04 00 00 00 04 00 00 00 04 00 00 00
       6e-45 6e-45 6e-45 6e-45
000050 04 00 00 00 04 00 00 00 04 00 00 00 04 00 00 00
       6e-45 6e-45 6e-45 6e-45
000060 04 00 00 00 6a d9 52 bd 19 fd 55 bd 25 1b 45 bd
       6e-45 -0.051476873 -0.052243326 -0.04812159
000070 b3 02 d8 bc bc 49 c8 bc b7 ca 4e bd 49 cc 50 bd
       -0.026368475 -0.024449222 -0.050486293 -0.05097607
000080 85 b8 42 bd 7e 5b cd bc 51 17 c5 bc ea e5 49 bd
       -0.047539253 -0.025068041 -0.02405897 -0.04929153
000090 d4 a9 4d bd e9 63 3b bd c1 49 ce bc f2 0f c5 bc
       -0.05021079 -0.04574958 -0.025181653 -0.024055455
0000a0 9e 6f 49 bd 18 9d 4a bd 9b 5b 2f bd 5c 51 b5 bc
       -0.049178712 -0.049466223 -0.04281197 -0.022133522
0000b0 0b 38 c1 bc 2a 38 4d bd a3 f5 4d bd c6 0c 4f bd
       -0.023586294 -0.05010239 -0.050283086 -0.05054929
0000c0 25 ab 51 bd 39 c7 53 bd 3f a3 45 bb ad c9 47 bb
       -0.051188607 -0.051703665 -0.0030157117 -0.0030485198
0000d0 05 01 3b bb ce 74 e4 ba ec 13 d9 ba be bb 45 bb
       -0.0028534543 -0.001742983 -0.0016561723 -0.0030171718
0000e0 d4 8c 47 bb 83 92 3e bb 6a d7 e6 ba 1f 88 da ba
       -0.003044893 -0.0029079027 -0.0017611806 -0.0016672647
0000f0 6a 3e 46 bb f1 fc 46 bb e9 95 3d bb cd 7d e6 ba
       -0.0030249604 -0.0030363167 -0.0028928465 -0.0017585099
000100 81 27 d9 ba 61 22 4a bb 0d 5d 4f bb d6 6e 38 bb
       -0.0016567559 -0.0030843245 -0.0031641156 -0.0028142235
000110 ba 10 e9 ba 39 0e e9 ba a4 01 4e bb ec be 4c bb
       -0.0017781474 -0.0017780728 -0.0031434083 -0.0031241728
000120 f4 25 4f bb f7 a2 4f bb a9 4e 4f bb be 58 83 ba
       -0.0031608315 -0.0031682828 -0.0031632578 -0.0010020954
000130 f0 d3 ef ba 9b a1 4a ba 38 72 07 bc 21 0d 54 bc
       -0.0018297415 -0.00077297696 -0.008266978 -0.012942583
000140 09 a6 80 ba 6b 6a 75 ba c4 3d 92 ba a3 4e 12 bc
       -0.0009815107 -0.0009361866 -0.0011157324 -0.008929881
000150 99 f5 5a bc 0c 3d ed 39 12 01 87 38 50 51 d7 ba
       -0.013364219 0.00045249646 6.437501e-05 -0.0016427431
000160 dd 44 16 bc c6 9f 5b bc d7 da c0 3a b9 d8 25 3a
       -0.009171692 -0.013404792 0.0014713657 0.00063265447
000170 33 91 e9 ba c0 6a 30 bc aa ff 5b bc 95 c4 8b 3a
       -0.0017819762 -0.010767639 -0.013427654 0.0010663444
000180 cf 7a cf 39 de 46 cf ba a4 8a 30 bc 6a 80 5c bc
       0.00039573616 -0.0015813967 -0.010775242 -0.013458351
000190 94 d2 4a 3c 24 fe 5c 3c 7b 47 3d 3c 7a 73 82 3b
       0.012379307 0.013488326 0.011552687 0.003981051
0001a0 8d 91 72 3b f7 a3 3f 3c 56 70 46 3c 1d 28 3e 3c
       0.0037013025 0.011696807 0.012111744 0.011606243
0001b0 3f b1 8e 3b c8 c5 84 3b 36 76 22 3c dc 8e 28 3c
       0.0043546255 0.0040518977 0.009915879 0.010287967
0001c0 1a 67 3f 3c c0 ca 9c 3b 03 a4 88 3b cc 08 13 3c
       0.011682296 0.004784912 0.0041699423 0.008974265
0001d0 0b 7e 2a 3c 8b 71 31 3c b0 2d 84 3b 85 9a 94 3b
       0.010406028 0.010830293 0.0040337667 0.0045350217
0001e0 3d 4f 24 3c 2e b2 31 3c 45 a1 4a 3c c2 24 58 3c
       0.0100286575 0.010845704 0.012367551 0.0131923575
0001f0 52 bb 64 3c 19 6d 86 bc 23 d9 86 bc 65 ec 99 bc
       0.013960676 -0.016409444 -0.01646096 -0.01878948
000200 82 ae cc bc 43 e0 cf bc 6f aa 66 bc 9d c8 8b bc
       -0.024985556 -0.025375491 -0.0140787205 -0.017063433
000210 2b 7e 9b bc dd 1f cd bc 64 bd cf bc 5d 58 fc bb
       -0.01898106 -0.025039608 -0.025358863 -0.0077009634
000220 16 4a 58 bc 6a 11 98 bc 41 8d ca bc 64 d7 cd bc
       -0.013201257 -0.018562991 -0.024725558 -0.02512712
000230 5e 74 0b bc fb 44 01 bc c0 5c 07 bc 6a 36 a7 bc
       -0.008511631 -0.007889981 -0.008261859 -0.020411689
000240 36 74 be bc cf ad 05 bc c1 4b f9 bb d4 88 e2 bb
       -0.023248773 -0.008159115 -0.0076079075 -0.006913284
000250 a3 29 dc bb 03 b0 df bb 04 00 00 00 04 00 00 00
       -0.0067188307 -0.006826402 6e-45 6e-45
000260 04 00 00 80 04 00 00 80 04 00 00 80 04 00 00 00
       -6e-45 -6e-45 -6e-45 6e-45
000270 04 00 00 00 04 00 00 00 04 00 00 00 04 00 00 80
       6e-45 6e-45 6e-45 -6e-45
000280 04 00 00 00 04 00 00 00 04 00 00 00 04 00 00 00
       6e-45 6e-45 6e-45 6e-45
000290 04 00 00 80 04 00 00 00 04 00 00 00 04 00 00 00
       -6e-45 6e-45 6e-45 6e-45
0002a0 04 00 00 00 04 00 00 00 04 00 00 00 04 00 00 00
       6e-45 6e-45 6e-45 6e-45
0002b0 04 00 00 00 04 00 00 00 04 00 00 00 79 fb c9 b1
       6e-45 6e-45 6e-45 -5.878459e-09
0002c0 f7 5b 51 b1 b8 1d 9d b3 be 05 1d b5 0d 6d 89 b5
       -3.0465779e-09 -7.316288e-08 -5.8495414e-07 -1.0239033e-06
0002d0 1d da 91 b2 d1 dd a7 a9 5d 42 ed b1 2c 8d 0b b5
       -1.6979408e-08 -7.454769e-14 -6.9051524e-09 -5.198697e-07
0002e0 cc b8 47 b5 61 20 df b2 98 cd 42 b2 50 74 d4 29
       -7.440219e-07 -2.5975341e-08 -1.1339033e-08 9.434868e-14
0002f0 0b bd f5 b4 93 9a 46 b5 55 e7 49 b3 66 71 d7 b2
       -4.5772353e-07 -7.3985683e-07 -4.7009355e-08 -2.5080862e-08
000300 74 35 e3 b2 86 d2 fe b4 1f 43 3e b5 c0 4e 85 b3
       -2.6450586e-08 -4.7464363e-07 -7.087819e-07 -6.20762e-08
000310 3d d7 ee b0 d5 ec a1 b2 e3 f7 fc b4 ad bd 2b b5
       -1.7377954e-09 -1.8850566e-08 -4.711902e-07 -6.397848e-07
000320 d4 c0 48 36 2a 90 11 38 02 1d d8 38 85 22 d6 38
       2.9914563e-06 3.4704957e-05 0.00010305086 0.00010210745
000330 00 e1 d4 38 d9 c1 48 36 a7 9b 3b 36 74 6e 5a 38
       0.00010150857 2.9915157e-06 2.7955773e-06 5.2078118e-05
000340 a0 59 d6 38 4b af d5 38 bb 4e 49 36 07 c9 2f 36
       0.00010221009 0.00010189282 2.9997161e-06 2.6194045e-06
000350 be ec 62 36 32 00 a6 38 ba df d1 38 e4 02 03 b3
       3.3814426e-06 7.915533e-05 0.00010007569 -3.0503443e-08
000360 23 74 13 ac 69 6b d9 b2 ef 35 8b 36 03 d1 58 38
       -2.0954425e-12 -2.531097e-08 4.1488015e-06 5.169307e-05
000370 5d 07 73 b3 2e e6 a4 ac 6e 76 d9 b2 e3 dd 29 b5
       -5.6584543e-08 -4.6867154e-12 -2.531598e-08 -6.3280294e-07
000380 48 3e 67 b5 04 00 00 80 04 00 00 80 04 00 00 00
       -8.6144837e-07 -6e-45 -6e-45 6e-45
000390 04 00 00 80 04 00 00 80 04 00 00 00 04 00 00 80
       -6e-45 -6e-45 6e-45 -6e-45
0003a0 04 00 00 80 04 00 00 80 04 00 00 80 04 00 00 00
       -6e-45 -6e-45 -6e-45 6e-45
0003b0 04 00 00 00 04 00 00 80 04 00 00 80 04 00 00 80
       6e-45 -6e-45 -6e-45 -6e-45
0003c0 04 00 00 00 04 00 00 00 04 00 00 00 04 00 00 80
       6e-45 6e-45 6e-45 -6e-45
0003d0 04 00 00 00 04 00 00 00 04 00 00 80 04 00 00 80
       6e-45 6e-45 -6e-45 -6e-45
0003e0 04 00 00 80 04 00 00 80 e5 f3 b4 3b cf 9c b6 3b
       -6e-45 -6e-45 0.0055222386 0.0055728923
0003f0 b3 aa d3 3b ff e9 d1 3b bd 44 ce 3b dc 8b a2 3b
       0.006459558 0.0064060683 0.0062948153 0.00496052

exp_avg_sq f4 [32, 25]
000000 f4 01 00 00 f4 01 00 00 f4 01 00 00 f4 01 00 00
       7e-43 7e-43 7e-43 7e-43
000010 f4 01 00 00 f4 01 00 00 f4 01 00 00 f4 01 00 00
       7e-43 7e-43 7e-43 7e-43
000020 f4 01 00 00 f4 01 00 00 f4 01 00 00 f4 01 00 00
       7e-43 7e-43 7e-43 7e-43
000030 f4 01 00 00 f4 01 00 00 f4 01 00 00 f4 01 00 00
       7e-43 7e-43 7e-43 7e-43
000040 f4 01 00 00 f4 01 00 00 f4 01 00 00 f4 01 00 00
       7e-43 7e-43 7e-43 7e-43
000050 f4 01 00 00 f4 01 00 00 f4 01 00 00 f4 01 00 00
       7e-43 7e-43 7e-43 7e-43
000060 f4 01 00 00 4e bc cb 3d 90 9c c2 3d 3a 68 c8 3d
       7e-43 0.09948026 0.09502518 0.09785505
000070 40 57 be 3d 40 21 b5 3d 2b 65 cc 3d 02 e5 ce 3d
       0.09293985 0.088442326 0.09980234 0.101022735
000080 df a9 d1 3d a3 10 c1 3d a2 e1 ac 3d 70 0b cc 3d
       0.102374785 0.09427001 0.084414735 0.09963119
000090 de bb ce 3d 36 59 e7 3d 1e e2 af 3d 1b 58 aa 3d
       0.100944266 0.112963125 0.0858805 0.08317586
0000a0 c1 d7 cd 3d 54 c7 ce 3d 26 d4 cb 3d 06 89 b9 3d
       0.100509174 0.100966126 0.099525735 0.09059338
0000b0 3d 98 ab 3d 5e 31 cb 3d f8 0e bc 3d a0 e5 c4 3d
       0.083786465 0.099215254 0.091825426 0.0961411
0000c0 01 3d c0 3d c1 53 b8 3d eb 18 29 39 55 07 3c 39
       0.093866356 0.0900035 0.00016126379 0.00017931809
0000d0 8b ae 3e 39 6d 42 34 39 3b a3 26 39 a0 62 11 39
       0.00018184834 0.00017190883 0.00015891802 0.00013865018
0000e0 a5 bf 2a 39 6a cc 36 39 2f af 1e 39 06 96 07 39
       0.00016283857 0.00017433023 0.00015133315 0.00012930491
0000f0 99 3c 11 39 89 62 0a 39 0b b2 f0 38 4c c3 02 39
       0.00013850852 0.00013197413 0.00011477255 0.0001247052
000100 b5 e3 1a 39 55 40 18 39 04 29 1f 39 f7 c3 2d 39
       0.00014771412 0.00014519815 0.00015178701 0.00016571568
000110 aa b9 24 39 db ec 20 39 5c 7b 34 39 23 c6 32 39
       0.00015709424 0.00015347025 0.00017212093 0.00017049215
000120 f7 f2 31 39 d4 5d 2f 39 6e 13 2b 39 7a 26 a9 3c
       0.00016970547 0.00016724254 0.00016315069 0.02064823
000130 93 77 9f 3c fc 0f 98 3c b7 1c 99 3c 76 ee 9a 3c
       0.019466197 0.01856231 0.01869045 0.018912535
000140 07 73 a7 3c 36 c9 92 3c bb 18 77 3c 4c f0 91 3c
       0.020440591 0.01791821 0.01508158 0.017814778
000150 66 cd 95 3c 85 d8 a8 3c ca f3 90 3c e7 35 37 3c
       0.018286418 0.020611057 0.017694373 0.011182285
000160 04 fc 6d 3c ac a5 87 3c 0a 84 a4 3c 2b f7 80 3c
       0.014525417 0.01655849 0.020082492 0.015742859
000170 26 d2 2a 3c 80 2d 2f 3c 0b 4b 5f 3c 4f 66 8a 3c
       0.01042608 0.010692 0.0136287315 0.016894488
000180 05 8d 5b 3c 86 35 29 3c 95 3b 32 3c 00 ba 3e 3c
       0.013400321 0.010327702 0.010878463 0.011641026
000190 65 10 dc 3c 12 9e c5 3c d7 10 a2 3c 87 1f 8c 3c
       0.026863286 0.024123225 0.01978342 0.017104877
0001a0 4b 5b 7f 3c 08 49 df 3c da 29 cf 3c cf 50 9c 3c
       0.015585731 0.027256504 0.025288511 0.019081501
0001b0 f7 af 7f 3c 0d 06 5c 3c f4 52 e7 3c 67 24 d2 3c
       0.015605918 0.013429177 0.028237797 0.025652124
0001c0 9f ba 91 3c c7 f8 4d 3c 7c 47 55 3c 16 1c de 3c
       0.017789183 0.01257152 0.0130175315 0.027113002
0001d0 44 8c c1 3c 83 65 8d 3c 93 a7 6f 3c ee 64 66 3c
       0.023626454 0.017260319 0.014627355 0.014062149
0001e0 6b 43 cd 3c 29 d8 ad 3c a4 3f 91 3c 1e 40 89 3c
       0.025056561 0.021221237 0.017730542 0.016754206
0001f0 75 2b 7f 3c f1 5d 7b 3c 6c 2b 83 3c 26 7c 81 3c
       0.015574326 0.015342222 0.016011916 0.015806269
000200 87 81 7c 3c d1 77 6f 3c 62 97 65 3c 79 0b 79 3c
       0.015411741 0.014615969 0.014013143 0.015200489
000210 7e e5 77 3c db e5 73 3c da 31 62 3c c6 d7 4c 3c
       0.015130399 0.014886345 0.013805831 0.012502616
000220 9d 3c 51 3c e0 09 45 3c d1 14 3e 3c 2d f2 34 3c
       0.012770799 0.01202628 0.011601643 0.011044067
000230 a4 59 47 3c 1e 10 2d 3c 32 ee f6 3b 1b 4d 0d 3c
       0.012167368 0.010562925 0.0075357193 0.00862434
000240 c1 3f 1b 3c 27 dd 24 3c 61 68 11 3c 14 17 f6 3b
       0.009475649 0.010062492 0.0088749835 0.0075100753
000250 8b 02 ee 3b ff 14 00 3c f4 01 00 00 f4 01 00 00
       0.0072634867 0.007817506 7e-43 7e-43
000260 f4 01 00 00 f4 01 00 00 f4 01 00 00 f4 01 00 00
       7e-43 7e-43 7e-43 7e-43
000270 f4 01 00 00 f4 01 00 00 f4 01 00 00 f4 01 00 00
       7e-43 7e-43 7e-43 7e-43
000280 f4 01 00 00 f4 01 00 00 f4 01 00 00 f4 01 00 00
       7e-43 7e-43 7e-43 7e-43
000290 f4 01 00 00 f4 01 00 00 f4 01 00 00 f4 01 00 00
       7e-43 7e-43 7e-43 7e-43
0002a0 f4 01 00 00 f4 01 00 00 f4 01 00 00 f4 01 00 00
       7e-43 7e-43 7e-43 7e-43
0002b0 f4 01 00 00 f4 01 00 00 f4 01 00 00 ad 58 90 34
       7e-43 7e-43 7e-43 2.688661e-07
0002c0 55 65 a7 33 23 b4 dc 34 ad b3 c5 35 4d 9b 62 36
       7.794976e-08 4.110926e-07 1.4729936e-06 3.3767021e-06
0002d0 75 fb 81 33 c2 54 0a 33 dd 6a 73 33 04 44 e4 35
       6.0527704e-08 3.2207716e-08 5.6675038e-08 1.7007119e-06
0002e0 0e 29 63 36 9c da 81 33 09 de 20 33 cf 04 2a 30
       3.3849533e-06 6.0467954e-08 3.7454843e-08 6.1852473e-10
0002f0 28 b8 d5 35 13 cb 63 36 ad 30 7f 33 4c 71 42 33
       1.5923333e-06 3.394384e-06 5.9416084e-08 4.5272188e-08
000300 4b 11 d8 31 4d 58 c1 35 7e 26 61 36 33 1e 73 33
       6.2883934e-09 1.440532e-06 3.3550018e-06 5.6605312e-08
000310 a8 5a 52 33 89 a0 ca 33 7f 26 fc 35 c3 9a 3c 36
       4.8976887e-08 9.435559e-08 1.8786667e-06 2.8104266e-06
000320 2b b3 85 36 6f 5f bc 37 54 c3 49 38 be 43 41 38
       3.984567e-06 2.2455786e-05 4.8104048e-05 4.6077876e-05
000330 86 66 41 38 38 fd 54 36 53 3e 6e 36 c7 ce bc 37
       4.6110268e-05 3.1737854e-06 3.550104e-06 2.2507635e-05
000340 67 c0 45 38 7b 15 36 38 72 97 51 36 e8 48 f5 35
       4.714765e-05 4.3412187e-05 3.123158e-06 1.8275141e-06
000350 15 cc d3 32 dc 63 69 37 22 fb 2b 36 6d e9 ac 34
       2.4656439e-08 1.3911133e-05 2.5627164e-06 3.2207336e-07
000360 ad 83 11 32 d2 85 ba 2e aa df 48 34 e7 c8 d9 35
       8.47005e-09 8.482072e-11 1.870782e-07 1.622623e-06
000370 a9 80 d6 32 b4 d4 1b 2e 27 52 00 30 9d ab cb 33
       2.4971387e-08 3.5431838e-11 4.6682874e-10 9.4841404e-08
000380 95 1e 7a 35 f4 01 00 00 f4 01 00 00 f4 01 00 00
       9.317676e-07 7e-43 7e-43 7e-43
000390 f4 01 00 00 f4 01 00 00 f4 01 00 00 f4 01 00 00
       7e-43 7e-43 7e-43 7e-43
0003a0 f4 01 00 00 f4 01 00 00 f4 01 00 00 f4 01 00 00
       7e-43 7e-43 7e-43 7e-43
0003b0 f4 01 00 00 f4 01 00 00 f4 01 00 00 f4 01 00 00
       7e-43 7e-43 7e-43 7e-43
0003c0 f4 01 00 00 f4 01 00 00 f4 01 00 00 f4 01 00 00
       7e-43 7e-43 7e-43 7e-43
0003d0 f4 01 00 00 f4 01 00 00 f4 01 00 00 f4 01 00 00
       7e-43 7e-43 7e-43 7e-43
0003e0 f4 01 00 00 f4 01 00 00 20 fc e9 3a 5d 31 02 3b
       7e-43 7e-43 0.0017851628 0.0019865849
0003f0 2a 6c 14 3b 08 e7 09 3b ab 72 02 3b 23 05 de 3a
       0.0022647479 0.0021042246 0.0019904773 0.0016938787

exp_avg f4 [32]
000000 04 00 00 00 02 42 d5 bd 45 27 c1 bb 89 39 34 bc
       6e-45 -0.104129806 -0.005894574 -0.011000046
000010 08 f7 f4 3c 7e b9 4e bc 04 00 00 00 c7 69 26 b7
       0.02990295 -0.012617467 6e-45 -9.918999e-06
000020 48 98 d3 39 04 00 00 00 86 a5 f5 3b 04 00 00 00
       0.00040358515 6e-45 0.0074965386 6e-45
000030 9a 3d 3b 3b e0 3d 9b 3c fe ce 14 bc e8 32 8b bb
       0.0028570653 0.018950403 -0.009082554 -0.004248012
000040 66 a7 ca b8 cf 0d e0 ba 5f 62 ac 3c 04 00 00 00
       -9.663291e-05 -0.0017093959 0.021043 6e-45
000050 b7 35 41 37 18 ec c7 bc bf 2a 5a 3b f2 df 75 ba
       1.1516203e-05 -0.02440457 0.0033289639 -0.0009379379
000060 d4 d2 d1 bc f6 bf 5d b6 a2 fd 4a bb ae 97 87 35
       -0.025613226 -3.3043302e-06 -0.003097393 1.0102428e-06
000070 e5 3f ca bc 00 00 00 00 04 00 00 00 04 00 00 00
       -0.02468867 0.0 6e-45 6e-45

exp_avg_sq f4 [32]
000000 f4 01 00 00 8b 12 4a 3e c0 6c c8 39 3b a4 20 3d
       7e-43 0.19733636 0.00038227998 0.039219122
000010 1a 2a 25 3d 54 b2 fd 3c f4 01 00 00 13 18 8f 37
       0.040323354 0.030968823 7e-43 1.7058139e-05
000020 1c 39 4f 39 f4 01 00 00 51 ec 59 3b f4 01 00 00
       0.00019762333 7e-43 0.0033252428 7e-43
000030 60 4b a7 3b b1 66 87 3c 33 07 a9 3c 95 61 b9 3c
       0.005105421 0.01652846 0.020633316 0.022629539
000040 02 dd 8d 38 2b 93 2b 3b ce 55 88 3d f4 01 00 00
       6.76457e-05 0.0026180248 0.06656991 7e-43
000050 fc a0 40 35 88 11 b9 3b aa 14 4d 3c db 00 87 3b
       7.1759837e-07 0.005647842 0.012517134 0.004119975
000060 b5 3d 0d 3e 9f d8 e4 36 b9 65 53 3b b4 fc 61 34
       0.1379307 6.8201475e-06 0.0032256676 2.1046691e-07
000070 89 35 06 3d 00 00 00 00 f4 01 00 00 f4 01 00 00
       0.0327659 0.0 7e-43 7e-43

exp_avg f4 [16, 32]
000000 04 00 00 80 f4 86 89 39 87 2d 1a 39 56 a4 27 ba
       -6e-45 0.00026231224 0.00014703545 -0.00063950324
000010 0c 1f 8e 39 2a 4c 38 3a 04 00 00 80 4e 13 07 b3
       0.00027107482 0.00070303923 -6e-45 -3.1449694e-08
000020 c0 43 f5 33 04 00 00 80 a7 66 91 39 04 00 00 80
       1.1421025e-07 -6e-45 0.00027733037 -6e-45
000030 0b 19 18 39 b7 f1 2a 39 c4 52 5e ba 75 2d 36 ba
       0.00014505179 0.00016302509 -0.0008480961 -0.00069495226
000040 f5 de 88 b6 56 80 08 37 31 dd ff 39 04 00 00 80
       -4.0790715e-06 8.136112e-06 0.0004880219 -6e-45
000050 46 9c 20 31 3e d6 51 3a e3 7c dd ba 21 08 9e 34
       2.3371896e-09 0.0008004642 -0.0016898181 2.9435708e-07
000060 f7 0e a7 ba 68 32 70 b3 44 26 af 37 7e 97 2d b2
       -0.0012745549 -5.59252e-08 2.0879444e-05 -1.0104371e-08
000070 4f c8 66 3a 00 00 00 00 00 00 00 00 04 00 00 80
       0.0008803652 0.0 0.0 -6e-45
000080 04 00 00 00 a1 5e 5c 3a 28 ef 81 39 83 96 24 b8
       6e-45 0.0008406435 0.00024782983 -3.9240822e-05
000090 f2 95 ba 3a 3b 02 cf 3a 04 00 00 00 94 0c cc 32
       0.0014235361 0.0015793511 6e-45 2.3754446e-08
0000a0 50 da 29 b4 04 00 00 00 f7 0e 2e ba 04 00 00 00
       -1.5818773e-07 6e-45 -0.0006639803 6e-45
0000b0 da 1a 2c b9 7e 8b d8 3a 8a a2 02 39 81 97 df b9
       -0.00016413201 0.0016521064 0.00012458317 -0.00042646754
0000c0 9c ea 16 34 74 6f 18 b8 d1 71 41 3b 04 00 00 00
       1.4055189e-07 -3.6343423e-05 0.0029517303 6e-45
0000d0 6f 95 54 32 c1 20 96 3b 04 b9 c4 ba 40 b9 2f b6
       1.2374001e-08 0.0045815413 -0.0015008752 -2.6184862e-06
0000e0 b2 e9 bd b9 b6 55 5f 33 aa cb 3c b8 d6 a7 36 32
       -0.00036223006 5.1999187e-08 -4.501237e-05 1.0631956e-08
0000f0 cc 64 35 bb 00 00 00 00 04 00 00 00 04 00 00 00
       -0.0027678488 0.0 6e-45 6e-45
000100 04 00 00 00 6b 92 3f 3a ea b5 cd b7 b4 50 0d 3a
       6e-45 0.000730789 -2.4522615e-05 0.0005390749
000110 a1 a9 68 3a 88 6e 96 3a 04 00 00 00 a3 01 a4 32
       0.00088753743 0.0011477033 6e-45 1.9092857e-08
000120 9c 27 11 b4 04 00 00 80 3a ab a7 b9 04 00 00 00
       -1.3518587e-07 -6e-45 -0.00031980296 6e-45
000130 ef 2f ff b7 f1 da c3 3a 90 46 40 3a 2a 3a 1d 3a
       -3.042069e-05 0.0014942569 0.00073347334 0.0005997742
000140 a4 cd 5d 36 e7 1a f8 b7 4e f3 f7 3a 04 00 00 00
       3.3051265e-06 -2.9576431e-05 0.0018917115 6e-45
000150 56 2a 17 b1 ce 0e 3e 3b 15 a7 99 3a f9 db a3 33
       -2.1997457e-09 0.0029000524 0.0011722768 7.630292e-08
000160 04 b8 7a 3a f7 27 34 33 14 ca 3a 35 14 c6 ee 31
       0.00095641636 4.1945864e-08 6.958446e-07 6.9492305e-09
000170 e5 1a 9a ba 00 00 00 00 04 00 00 00 04 00 00 80
       -0.0011757283 0.0 6e-45 -6e-45
000180 04 00 00 80 30 fa 9f 39 46 e2 d6 37 f1 84 11 ba
       -6e-45 0.00030513247 2.5616155e-05 -0.0005551121
000190 49 d5 9f 38 a5 f6 0b 3a 04 00 00 80 12 2e be b2
       7.621438e-05 0.0005339182 -6e-45 -2.2139861e-08
0001a0 cf 2a b2 33 04 00 00 80 7b 84 29 39 04 00 00 80
       8.296558e-08 -6e-45 0.00016166449 -6e-45
0001b0 4b 1c 1f 38 66 df eb 38 6a 5f 43 ba 6b 3e ec b9
       3.7934904e-05 0.000112472844 -0.00074528775 -0.00045059933
0001c0 0a f6 47 b6 8d cf 48 37 80 f0 f8 38 04 00 00 80
       -2.9796524e-06 1.1969253e-05 0.00011870358 -6e-45
0001d0 80 8f 42 b2 8a e8 29 39 bd 36 78 ba 82 41 94 b6
       -1.1324914e-08 0.00016203723 -0.0009468606 -4.41837e-06
0001e0 82 63 54 ba c0 98 19 b3 3a 67 3c 37 52 5e 81 b2
       -0.0008101986 -3.5762014e-08 1.12297075e-05 -1.5060468e-08
0001f0 ba 26 73 3a 00 00 00 00 04 00 00 80 04 00 00 80
       0.0009275485 0.0 -6e-45 -6e-45
000200 04 00 00 80 cf c4 11 36 58 37 bb 38 98 66 8c b9
       -6e-45 2.1721241e-06 8.9271634e-05 -0.0002677932
000210 2c 00 23 39 0c 52 3a 38 04 00 00 80 64 b9 82 b2
       0.00015544955 4.4422268e-05 -6e-45 -1.5218298e-08
000220 eb e7 4f 33 04 00 00 80 4d 24 e4 36 04 00 00 80
       4.840687e-08 -6e-45 6.7991555e-06 -6e-45
000230 4e 37 95 38 ae 64 a9 38 79 db c9 b9 91 56 c8 b9
       7.115175e-05 8.077301e-05 -0.00038501227 -0.0003821147
000240 76 62 04 b6 c8 6b 1b 36 7d 0a 99 39 04 00 00 80
       -1.9726845e-06 2.3159537e-06 0.00029190248 -6e-45
000250 4e 21 c2 b1 c9 c8 fe 39 9b 97 a7 ba 2c f4 95 b3
       -5.6499294e-09 0.00048596252 -0.0012786271 -6.982768e-08
000260 b1 70 39 ba df 26 ce b2 59 80 2a 37 3a 1c 53 b2
       -0.0007073982 -2.3999233e-08 1.0162673e-05 -1.2288234e-08
000270 7c 83 1a ba 00 00 00 00 00 00 00 00 04 00 00 80
       -0.00058942265 0.0 0.0 -6e-45
000280 04 00 00 80 37 5c 05 3a 1a 8a a7 38 a0 52 13 b9
       -6e-45 0.00050872884 7.988904e-05 -0.00014049793
000290 a8 de 36 39 02 60 a7 3a 04 00 00 80 05 04 58 b3
       0.00017439818 0.0012769701 -6e-45 -5.0295075e-08
0002a0 3d e4 9f 34 04 00 00 80 20 9c 6e b8 04 00 00 80
       2.9782123e-07 -6e-45 -5.6889025e-05 -6e-45
0002b0 93 60 eb 38 cf a3 ea 38 c5 10 25 b8 fc 88 ce 39
       0.000112236616 0.00011188501 -3.9354683e-05 0.00039393443
0002c0 88 0d c7 b3 11 05 76 37 1d 32 b3 39 04 00 00 80
       -9.269121e-08 1.4663922e-05 0.00034178878 -6e-45
0002d0 b2 59 15 b3 fa ab 12 3a da 32 05 3b 7f f8 c8 b3
       -3.4773343e-08 0.00055950845 0.00203245 -9.358427e-08
0002e0 53 46 c7 39 58 29 05 b4 d1 46 16 38 44 46 ab b3
       0.00038008633 -1.2401631e-07 3.582874e-05 -7.975589e-08
0002f0 95 0d 90 3b 00 00 00 00 04 00 00 80 04 00 00 80
       0.0043961504 0.0 -6e-45 -6e-45
000300 04 00 00 00 9c db 97 3a 1e f8 40 b8 26 a2 1e 3a
       6e-45 0.0011585834 -4.6007444e-05 0.00060513837
000310 a1 65 77 3a c4 e1 fc 3a 04 00 00 00 f4 c1 f9 31
       0.0009437446 0.0019293358 6e-45 7.2689037e-09
000320 43 34 38 b4 04 00 00 00 9f 34 fd 38 04 00 00 00
       -1.7155348e-07 6e-45 0.000120737815 6e-45
000330 62 fe 84 b8 9b 3c d1 3a 0c c0 48 3a ed 23 28 3a
       -6.341633e-05 0.0015963496 0.0007658012 0.0006414045
000340 96 94 77 36 dc e3 cf b7 16 40 06 3b 04 00 00 00
       3.6892357e-06 -2.4782428e-05 0.0020484976 6e-45
000350 f2 36 94 b2 33 24 4f 3b 53 42 16 3b 14 e0 59 b6
       -1.7254454e-08 0.003160727 0.0022927716 -3.246595e-06
000360 84 ec 9a 3a cd 69 20 32 d4 5e c4 34 2c dd d3 b2
       0.0011819755 9.337282e-09 3.6576841e-07 -2.466421e-08
000370 9a 56 5b 3a 00 00 00 00 00 00 00 00 04 00 00 00
       0.00083670917 0.0 0.0 6e-45
000380 04 00 00 00 d6 ac 8b 3a 6c bf 59 37 df d5 17 3a
       6e-45 0.0010656368 1.2978777e-05 0.0005792062
000390 81 0f 71 3a 5a 3f e4 3a 04 00 00 00 1e f3 ee 31
       0.00091957307 0.00174139 6e-45 6.954351e-09
0003a0 a1 4e 30 b4 04 00 00 80 01 0e fa b8 04 00 00 00
       -1.6419882e-07 -6e-45 -0.000119235374 6e-45
0003b0 d4 2d 17 b9 0d de bc 3a a9 bc 4f 3a 10 5e 0a 3a
       -0.00014417554 0.0014409438 0.0007924536 0.00052782986
0003c0 26 f4 6c 36 92 c9 ca b7 e0 cb fe 3a 04 00 00 00
       3.5308854e-06 -2.417414e-05 0.0019439422 6e-45
0003d0 c0 d8 8d b2 a7 73 40 3b ef c0 01 3b 40 8a 50 b6
       -1.6513127e-08 0.002936581 0.0019798835 -3.1074887e-06
0003e0 fb d2 8a 3a ec 6f 19 32 e6 8b 10 b8 34 c6 ca b2
       0.0010591442 8.93122e-09 -3.4462566e-05 -2.3606027e-08
0003f0 85 93 0a 3a 00 00 00 00 04 00 00 00 04 00 00 00
       0.00052862643 0.0 6e-45 6e-45

exp_avg_sq f4 [16, 32]
000000 f4 01 00 00 59 de 8b 37 33 b8 ef 37 e7 78 4a 38
       7e-43 1.667363e-05 2.8576795e-05 4.8273152e-05
000010 94 2e f0 37 b8 75 e8 38 f4 01 00 00 07 60 90 30
       2.863192e-05 0.00011084549 7e-43 1.0504672e-09
000020 f1 47 10 32 f4 01 00 00 6b 75 1f 39 f4 01 00 00
       8.398261e-09 7e-43 0.00015207163 7e-43
000030 4f 56 16 39 2e ae c6 38 96 bb af 38 32 46 34 39
       0.00014337267 9.473819e-05 8.379591e-05 0.00017192287
000040 99 cf 8f 32 ef 0b 97 35 e3 a7 cd 38 f4 01 00 00
       1.6741796e-08 1.125385e-06 9.806433e-05 7e-43
000050 b1 26 2c 32 42 60 b6 39 e7 2c 42 39 b5 0e 41 34
       1.0020515e-08 0.00034785463 0.00018518009 1.7979876e-07
000060 f8 6c 5d 38 fb 68 81 30 f7 d4 f3 34 59 b1 ab 2d
       5.279199e-05 9.415823e-10 4.541723e-07 1.9519207e-11
000070 be bc 40 39 00 00 00 00 00 00 00 00 f4 01 00 00
       0.00018380859 0.0 0.0 7e-43
000080 f4 01 00 00 5f ea 5c 38 ac 9d a6 36 2f 78 1d 38
       7e-43 5.2670362e-05 4.965541e-06 3.7543647e-05
000090 b7 63 ec 36 fe 5b 0c 39 f4 01 00 00 aa 5d 9a 30
       7.0449564e-06 0.0001338571 7e-43 1.1231596e-09
0000a0 ea c0 1b 32 f4 01 00 00 96 49 5a 39 f4 01 00 00
       9.066051e-09 7e-43 0.00020817513 7e-43
0000b0 58 01 09 39 51 20 c3 38 09 a1 2a 38 0b 4d 6e 39
       0.00013065839 9.304344e-05 4.0681134e-05 0.0002272615
0000c0 45 ec 8f 32 6c d7 d6 35 97 46 18 38 f4 01 00 00
       1.6754834e-08 1.6006938e-06 3.6305366e-05 7e-43
0000d0 b5 e1 d1 2d 8f 46 35 39 55 47 0a 3a 18 54 31 32
       2.3860783e-11 0.0001728779 0.00052749115 1.0321877e-08
0000e0 8a 1d 04 39 0c 51 90 30 10 58 04 35 e0 d9 37 2c
       0.00012599505 1.0500414e-09 4.930198e-07 2.612681e-12
0000f0 f0 e4 c2 39 00 00 00 00 f4 01 00 00 f4 01 00 00
       0.00037173135 0.0 7e-43 7e-43
000100 f4 01 00 00 62 d6 f1 37 f6 0d ae 37 b8 e8 11 38
       7e-43 2.8829269e-05 2.0748917e-05 3.478743e-05
000110 33 30 0a 38 c2 b5 03 39 f4 01 00 00 82 56 50 30
       3.2946653e-05 0.00012560844 7e-43 7.5792894e-10
000120 8e 46 d1 31 f4 01 00 00 03 a7 ed 38 f4 01 00 00
       6.0907217e-09 7e-43 0.00011332149 7e-43
000130 3e 5c 18 38 aa de e3 37 40 c4 17 38 0c 61 a2 38
       3.632553e-05 2.7164195e-05 3.6183977e-05 7.742838e-05
000140 0d eb 18 32 78 e7 84 35 2e 87 12 39 f4 01 00 00
       8.901009e-09 9.902133e-07 0.00013974003 7e-43
000150 a5 23 f6 31 98 c1 00 3a 90 04 8e 39 3f a6 42 34
       7.1635946e-09 0.000491166 0.0002708775 1.8128138e-07
000160 5a 78 9b 38 cd 66 3c 30 10 a5 1c 34 d0 a8 79 2d
       7.413393e-05 6.854009e-10 1.4588682e-07 1.4191495e-11
000170 ce db 51 39 00 00 00 00 f4 01 00 00 f4 01 00 00
       0.00020013677 0.0 7e-43 7e-43
000180 f4 01 00 00 31 4c b2 37 f1 1c 90 36 74 1d 58 37
       7e-43 2.1254733e-05 4.2949036e-06 1.2881461e-05
000190 72 59 15 36 94 3b e7 36 f4 01 00 00 81 b8 16 30
       2.2254794e-06 6.8912723e-06 7e-43 5.483188e-10
0001a0 f3 8c 94 31 f4 01 00 00 c3 a1 3b 38 f4 01 00 00
       4.323391e-09 7e-43 4.4734927e-05 7e-43
0001b0 ec 87 35 38 88 30 df 37 0f f7 9d 37 a1 fd cc 38
       4.328035e-05 2.660627e-05 1.8830904e-05 9.77472e-05
0001c0 9e db dc 31 5c 41 1e 35 93 af 15 37 f4 01 00 00
       6.4278103e-09 5.8954697e-07 8.921971e-06 7e-43
0001d0 08 f8 5c 2d 99 75 fc 37 98 9f 83 39 c8 ee 99 30
       1.2560626e-11 3.0095502e-05 0.00025105174 1.1200081e-09
0001e0 2f ab 7b 38 45 82 08 30 a8 d2 2e 33 63 b2 74 2b
       6.000249e-05 4.9661636e-10 4.0704123e-08 8.6933775e-13
0001f0 65 d2 1d 39 00 00 00 00 f4 01 00 00 f4 01 00 00
       0.00015051065 0.0 7e-43 7e-43
000200 f4 01 00 00 35 46 d6 33 e9 93 9e 36 7a 61 02 37
       7e-43 9.977922e-08 4.725986e-06 7.771299e-06
000210 b9 52 a9 36 df f3 22 35 f4 01 00 00 ed ae 84 2f
       5.0462227e-06 6.070458e-07 7e-43 2.4134952e-10
000220 a7 f6 04 31 f4 01 00 00 e2 75 ee 35 f4 01 00 00
       1.9348734e-09 7e-43 1.776669e-06 7e-43
000230 51 e2 80 37 fe 4b 2c 37 fb 97 a2 37 15 42 9d 37
       1.5364176e-05 1.0269692e-05 1.9382676e-05 1.874663e-05
000240 65 29 84 31 a7 36 37 34 ff 03 6e 37 f4 01 00 00
       3.8464116e-09 1.7063086e-07 1.4186836e-05 7e-43
000250 46 dc 19 31 aa 71 3b 38 b7 64 dc 37 c0 46 2c 33
       2.2389641e-09 4.4690132e-05 2.6272943e-05 4.0111217e-08
000260 f8 31 42 37 25 c8 6e 2f 26 7c 83 33 10 67 99 2c
       1.1574935e-05 2.171708e-10 6.122745e-08 4.3599638e-12
000270 ae 8f ad 37 00 00 00 00 00 00 00 00 f4 01 00 00
       2.0690113e-05 0.0 0.0 7e-43
000280 f4 01 00 00 47 11 4d 37 5a af c7 37 57 75 cb 37
       7e-43 1.2222975e-05 2.3804303e-05 2.4254126e-05
000290 c2 1c a8 37 d9 cc f8 37 f4 01 00 00 19 6f 77 2f
       2.0040552e-05 2.9659293e-05 7e-43 2.2503989e-10
0002a0 8f f0 2f 30 f4 01 00 00 73 05 0f 38 f4 01 00 00
       6.4006483e-10 7e-43 3.409893e-05 7e-43
0002b0 73 3a 58 37 9d 56 cf 37 7f 81 d3 37 4f 06 c4 38
       1.2888212e-05 2.4716655e-05 2.5213461e-05 9.3471834e-05
0002c0 b2 36 1c 31 f8 a0 4f 34 ec 53 af 38 f4 01 00 00
       2.2732078e-09 1.9336937e-07 8.360282e-05 7e-43
0002d0 71 de 4c 2f f4 70 98 39 9c f7 d5 38 56 13 0f 31
       1.8632719e-10 0.00029075856 0.00010202752 2.082023e-09
0002e0 0e 13 3c 38 b6 9e 6e 2f 4f d8 c7 32 d3 33 85 2c
       4.484044e-05 2.170236e-10 2.3265015e-08 3.785841e-12
0002f0 cb 02 4b 39 00 00 00 00 f4 01 00 00 f4 01 00 00
       0.00019360629 0.0 7e-43 7e-43
000300 f4 01 00 00 36 d0 fa 37 b6 f0 fe 37 36 e3 0f 38
       7e-43 2.9899278e-05 3.039125e-05 3.4305463e-05
000310 ff 65 49 38 1a ff 9f 38 f4 01 00 00 fb 1c 85 30
       4.8017126e-05 7.629227e-05 7e-43 9.68526e-10
000320 f7 fc 00 30 f4 01 00 00 82 a7 f1 37 f4 01 00 00
       4.6925613e-10 7e-43 2.880744e-05 7e-43
000330 c2 35 6d 38 71 1b 3a 38 6f f9 9e 38 a9 20 d8 38
       5.655527e-05 4.4371413e-05 7.580488e-05 0.00010305766
000340 5a 7c 83 32 0c d4 62 35 ca 4b 3c 39 f4 01 00 00
       1.5306956e-08 8.450013e-07 0.00017957311 7e-43
000350 bf d0 1c 32 ea 7f 19 3a 85 f6 9f 39 0b e0 9e 34
       9.1278585e-09 0.00058555475 0.00030510515 2.9592806e-07
000360 21 a8 b7 38 33 28 6e 30 60 28 17 34 02 40 99 2d
       8.7574364e-05 8.664102e-10 1.4077659e-07 1.7422511e-11
000370 2b 17 27 39 00 00 00 00 00 00 00 00 f4 01 00 00
       0.00015934992 0.0 0.0 7e-43
000380 f4 01 00 00 86 2b 09 38 1d 1f e9 37 4f cd 0d 38
       7e-43 3.270388e-05 2.7790253e-05 3.380823e-05
000390 09 d3 3f 38 fc 7f d0 38 f4 01 00 00 9b 67 72 30
       4.573449e-05 9.942052e-05 7e-43 8.818632e-10
0003a0 9b b5 ef 31 f4 01 00 00 9e d2 a4 38 f4 01 00 00
       6.9764616e-09 7e-43 7.85936e-05 7e-43
0003b0 43 5a 82 38 d7 31 63 38 3e dd 91 38 7a 39 ec 38
       6.2156956e-05 5.4167434e-05 6.955348e-05 0.00011264063
0003c0 d6 26 6f 32 e2 f9 6d 35 32 5f 37 39 f4 01 00 00
       1.3920461e-08 8.865301e-07 0.00017487703 7e-43
0003d0 30 5a 0e 32 8e e4 18 3a 37 75 9c 39 b2 f8 90 34
       8.285994e-09 0.0005832397 0.0002984197 2.700304e-07
0003e0 d5 ad b0 38 9e f3 58 30 38 ab 3a 34 e3 09 8c 2d
       8.424713e-05 7.8926543e-10 1.7384889e-07 1.5920548e-11
0003f0 7f 6b 3b 39 00 00 00 00 f4 01 00 00 f4 01 00 00
       0.00017873755 0.0 7e-43 7e-43

exp_avg f4 [16]
000000 23 f3 91 3b 54 cc a4 3b f2 6e b0 3b 97 b1 82 3b
       0.004454033 0.0050292406 0.0053843195 0.0039884555
000010 26 e2 04 ba a4 29 85 3c e9 b1 44 3c 3a ce 37 3c
       -0.0005069099 0.016255207 0.012005308 0.011218602
000020 28 93 4c 3b 3d 74 5d bb 60 f4 b1 3a 11 b6 89 3c
       0.0031215642 -0.0033791207 0.0013576858 0.016810449
000030 9e b7 60 3b 04 00 00 00 0d cc ca bb 04 00 00 80
       0.0034289132 6e-45 -0.0061888755 -6e-45

exp_avg_sq f4 [16]
000000 f7 d5 5f 3b 77 24 92 3b a6 91 73 3b ed 6a f0 3a
       0.0034154633 0.0044599134 0.003716567 0.0018342413
000010 f4 ac ef 39 2c cf 09 3c f0 63 83 3b 12 96 87 3b
       0.00045714492 0.00841121 0.004009716 0.004137763
000020 41 11 f4 3a 5b a1 fa 3a 21 31 f8 3a 85 ae 0d 3c
       0.0018620865 0.0019121574 0.001893554 0.008647566
000030 33 e7 0d 3b f4 01 00 00 1e 76 e6 3a f4 01 00 00
       0.0021652698 7e-43 0.0017582809 7e-43

exp_avg f4 [2, 16]
000000 43 6c 40 38 b1 f8 a2 b9 07 34 d0 b7 47 e5 7a 39
       4.5877194e-05 -0.00031084337 -2.481976e-05 0.0002392727
000010 90 3b 7e 39 5e ed b6 b7 b9 ff 9a 38 fe 3b 38 39
       0.00024245516 -2.1806623e-05 7.390924e-05 0.00017569956
000020 66 de 39 39 ed fd 02 b9 b2 3a 3f 39 dc 91 8f 38
       0.00017725825 -0.00012492361 0.00018237045 6.84594e-05
000030 00 26 43 39 04 00 00 80 f4 53 a4 3a 04 00 00 00
       0.00018610805 -6e-45 0.0012537227 6e-45
000040 ee 6b 40 b8 d3 f8 a2 39 dc 34 d0 37 e0 e4 7a b9
       -4.5876885e-05 0.00031084436 2.4820147e-05 -0.0002392712
000050 84 3b 7e b9 9c ed b6 37 87 ff 9a b8 e2 3b 38 b9
       -0.00024245499 2.1806736e-05 -7.390888e-05 -0.00017569916
000060 42 de 39 b9 ea fd 02 39 92 3a 3f b9 a0 91 8f b8
       -0.00017725772 0.00012492356 -0.00018236999 -6.845896e-05
000070 d3 25 43 b9 04 00 00 00 f8 53 a4 ba 04 00 00 80
       -0.0001861074 6e-45 -0.0012537232 -6e-45

exp_avg_sq f4 [2, 16]
000000 83 a6 f6 36 58 d2 1c 37 a4 81 4a 36 0e ff 1e 38
       7.350756e-06 9.347299e-06 3.0175806e-06 3.7907674e-05
000010 a1 3e fb 35 7c f8 48 35 16 c6 6c 36 58 12 3e 36
       1.8719185e-06 7.48674e-07 3.5282042e-06 2.8322884e-06
000020 90 92 e3 36 5a 4a ba 35 8c 01 df 36 89 9f 2c 36
       6.7821893e-06 1.3879719e-06 6.646098e-06 2.572286e-06
000030 21 7f 03 37 f4 01 00 00 66 57 3c 38 f4 01 00 00
       7.837808e-06 7e-43 4.490409e-05 7e-43
000040 7f a6 f6 36 58 d2 1c 37 a2 81 4a 36 0f ff 1e 38
       7.350754e-06 9.347299e-06 3.0175802e-06 3.7907677e-05
000050 9f 3e fb 35 73 f8 48 35 16 c6 6c 36 58 12 3e 36
       1.8719182e-06 7.486735e-07 3.5282042e-06 2.8322884e-06
000060 91 92 e3 36 5d 4a ba 35 88 01 df 36 87 9f 2c 36
       6.7821898e-06 1.3879722e-06 6.646096e-06 2.5722854e-06
000070 21 7f 03 37 f4 01 00 00 6a 57 3c 38 f4 01 00 00
       7.837808e-06 7e-43 4.4904104e-05 7e-43

exp_avg f4 [2]
000000 b6 c8 7b 3a 8f c8 7b ba
       0.00096047984 -0.00096047757

exp_avg_sq f4 [2]
000000 a1 6c 38 39 a2 6c 38 39
       0.00017588075 0.00017588076

loss f8 []
000000 00 00 e0 af 37 2d 21 3f
       0.0001310472943600871
