26_point_edge_detector.pth (torch, 25342 bytes, 19 tensors)

model.0.weight f4 [32, 25]
0.09660113 0.24673066 0.013450732 0.091730796 0.17059773 0.24986932 -0.038698338 -0.08039657
-0.032279853 0.23073295 -0.014344214 -0.45602104 -0.79582936 -0.45233324 -0.061212543 0.40696853
-0.009740074 0.087764405 -0.047120597 0.41800755 -0.05620972 -0.005396435 0.16916463 0.029683875
-0.09474903 -0.04806952 -0.0085243955 -0.14226873 0.1539352 0.04869969 -0.30355448 -0.381914
-0.09802075 0.47938338 0.3179471 -0.21030316 -0.10848342 0.12136972 0.10325769 0.11415203
0.047644347 0.48978475 -0.013243793 -0.5050341 -0.42206553 0.13285041 0.31433135 0.10128091
-0.16258813 -0.009634895 -0.0004507038 -0.00035561936 -0.00016716841 0.00019598915 -0.00042202036 0.00011261164
3.7589245e-05 0.00036522208 0.00018323766 -0.00035301305 -0.0005005327 1.9851841e-05 -2.8390044e-05 0.00016860095
0.00017412628 -0.0004794267 -0.00038598795 0.0002943793 -7.403251e-05 1.829188e-05 0.00023509235 -7.393221e-05
-0.0003435443 -0.00026719517 -0.00018053708 -0.0013831499 -0.00091679883 -0.0009818944 -0.00035058384 -0.00023041753
-0.0007282136 -0.0014817335 -0.0009687715 -0.00012847081 0.000462766 0.0005233903 0.0001640741 -0.0007243283
-0.0008047817 -4.238458e-05 0.0003123745 -0.00045737004 -0.0014252588 -0.00043916775 -0.0004158298 -6.291308e-05
-0.00059737667 -0.00046673388 -0.00016081709 -0.00033532383 0.15673193 -0.10517607 -0.11621481 0.008274914
-0.064265996 0.32707772 -0.39346918 -0.5026451 0.065587856 0.16436116 -0.06928082 -0.17080712
-0.40348855 0.4124858 0.031195585 -0.05548797 0.041326486 0.42916363 0.48992252 -0.1589241
-0.07498988 -0.06777131 0.005690976 0.07404696 -0.040488016 0.0299704 -0.011313766 -0.037163854
-0.16685104 0.054683857 -0.18440847 -0.3517013 -0.763569 -0.4046161 -0.12566856 0.034161028
0.16835657 0.45541462 0.14507759 0.13822281 0.011367908 0.17313512 0.51300645 0.2422464
0.005187413 -0.023597281 0.060005378 -0.011012441 -0.028533129 0.12972517 0.017388567 0.21783012
0.008336232 -0.41879654 -0.27284968 0.32772452 0.38925958 -0.007913925 -0.39927682 0.014654564
0.1029805 -0.18210894 0.035896923 0.17126155 0.17929454 0.007540662 -0.37223202 -0.2334578
0.34997895 0.44474092 -0.10118738 -0.37706465 -0.048511796 -0.0004725433 0.12553217 0.018789751
-0.0682884 -0.030857462 0.070699826 -0.026646348 -0.07444305 0.07320134 0.44966078 0.47664464
-0.058416035 0.023645109 -0.0885035 -0.12110411 0.4496009 0.12717171 0.01704246 -0.5752545
-0.57884145 -0.021513106 0.11317456 0.041843805 0.013660506 -0.14250948 -0.0696436 -0.027695881
-0.032725453 -0.27209964 0.022852141 -0.24222073 -0.1974301 -0.049172703 0.070548974 0.42886922
0.25571173 -0.11770668 -0.1546092 -0.0142574245 0.40782288 -0.06485513 -0.06503722 -0.014287569
0.2023926 0.4775454 0.43146384 -0.019721147 -0.15491964 -0.2266877 -0.16332056 -0.36206594
-0.12940423 0.06413555 0.08672045 0.15203615 0.29283535 -0.1801748 -0.058376875 0.35684967
0.042504538 -0.41152123 -0.41968057 0.15192913 -0.11809968 0.21980402 -0.10509608 0.19918242
-0.4775859 -0.25156498 -0.051395804 0.42534834 0.20305088 -0.17610021 0.18426837 0.012477356
-0.03979509 -0.0723091 -0.00044579478 -0.0003836389 0.00034850856 -0.0004394717 -0.00031756586 -8.969168e-05
00000000: d0d6 c53d f6a6 7c3e 7660 5c3c 5bdd bb3d
00000010: 2cb1 2e3e bedd 7f3e 2682 1ebd f5a6 a4bd
00000020: e137 04bd 4245 6c3e ff03 6bbc 977b e9be
00000030: 79bb 4bbf 3998 e7be 01ba 7abd 2e5e d03e
00000040: d594 1fbc d3bd b33d 8701 41bd 1605 d63e
00000050: 2a3c 66bd 94d4 b0bb 7e39 2d3e 992b f33c
00000060: c80b c2bd 8ce4 44bd e8a9 0bbc e5ae 11be
00000070: 30a1 1d3e 5379 473d 7e6b 9bbe 3b8a c3be
00000080: 1abf c8bd bd71 f53e f6c9 a23e b659 57be
00000090: 8e2c debd b090 f83d c578 d33d 8ac8 e93d
000000a0: b826 433d 11c5 fa3e 7efc 58bc ea49 01bf
000000b0: f918 d8be f009 083e 0af0 a03e 5e6c cf3d
000000c0: 817d 26be aedb 1dbc 714c ecb9 6c72 bab9
000000d0: ee49 2fb9 7082 4d39 9d42 ddb9 ea29 ec38
000000e0: 25a9 1d38 477b bf39 7c23 4039 9c14 b9b9
000000f0: 2e36 03ba 8187 a637 2827 eeb7 79ca 3039
00000100: ab95 3639 905b fbb9 6d5e cab9 ec56 9a39
00000110: e741 9bb8 8371 9937 1f83 7639 0e0c 9bb8
00000120: bc1d b4b9 5416 8cb9 8e4e 3db9 cf4a b5ba
00000130: 5455 70ba e9b2 80ba 91ce b7b9 3c9c 71b9
00000140: 96e5 3eba ba36 c2ba 28f5 7dba 1fb6 06b9
00000150: 679f f239 2134 093a 4e0b 2c39 d9e0 3dba
00000160: fcf7 52ba 19c6 31b8 32c6 a339 2bcb efb9
00000170: c0cf baba 1940 e6b9 bb03 dab9 34f0 83b8
00000180: 4599 1cba f6b3 f4b9 02a1 28b9 67ce afb9
00000190: 567e 203e 8d66 d7bd 0802 eebd 8193 073c
000001a0: e49d 83bd bb76 a73e cb74 c9be 59ad 00bf
000001b0: ed52 863d 4b4e 283e 1ae3 8dbd 10e8 2ebe
000001c0: 0d96 cebe 5731 d33e e28d ff3c 5b47 63bd
000001d0: f645 293d 56bb db3e 20d7 fa3e 00bd 22be
000001e0: 4b94 99bd afcb 8abd 5e7b ba3b efa5 973d
000001f0: c3d6 25bd 7c84 f53c 605d 39bc 2039 18bd
00000200: 00db 2abe 2efc 5f3d 93d5 3cbe 3112 b4be
00000210: 4279 43bf d729 cfbe 42af 00be 6fec 0b3d
00000220: aa65 2c3e 1b2c e93e 388f 143e 488a 0d3e
00000230: 7640 3a3c 554a 313e 6454 033f 710f 783e
00000240: 2dfb a93b 164f c1bc 33c8 753d 866d 34bc
00000250: 4fbe e9bc add6 043e 7872 8e3c dc0e 5f3e
00000260: b194 083c 806c d6be f4b2 8bbe 82cb a73e
00000270: 084d c73e 68a9 01bc 036e ccbe b219 703c
00000280: 71e7 d23d c47a 3abe a708 133d 305f 2f3e
00000290: fd98 373e a817 f73b 3295 bebe 900f 6fbe
000002a0: 7130 b33e 15b5 e33e 543b cfbd 9e0e c1be
000002b0: 4eb4 46bd b0bf f7b9 818b 003e f7ec 993c
000002c0: cada 8bbd cac8 fcbc 12cb 903d 7149 dabc
000002d0: 9975 98bd 96ea 953d f039 e63e c40a f43e
000002e0: a745 6fbd 63b3 c13c 5341 b5bd 6e05 f8bd
000002f0: 1732 e63e 4d39 023e a19c 8b3c e143 13bf
00000300: f42e 14bf 413c b0bc 10c8 e73d 6964 2b3d
00000310: 51d0 5f3c 01ee 11be 4ea1 8ebd 79e2 e2bc
00000320: 200b 06bd a550 8bbe 6a34 bb3c b608 78be
00000330: 1e2b 4abe 5169 49bd fb7b 903d bf94 db3e
00000340: a6ec 823e 3310 f1bd e051 1ebe f997 69bc
00000350: 29ce d03e c4d2 84bd 3c32 85bd 6816 6abc
00000360: 0140 4f3e d580 f43e d4e8 dc3e 3e8e a1bc
00000370: 41a3 1ebe d220 68be 813d 27be b560 b9be
00000380: 8b82 04be 8059 833d 7e9a b13d 5daf 1b3e
00000390: 84ee 953e be7f 38be 971c 6fbd 00b5 b63e
000003a0: 3d19 2e3d e9b2 d2be 5fe0 d6be 4f93 1b3e
000003b0: 3fde f1bd 4e14 613e 9d3c d7bd 7af6 4b3e
000003c0: 2486 f4be 20cd 80be 6884 52bd 42c7 d93e
000003d0: 92ec 4f3e 9d53 34be d9b0 3c3e d36d 4c3c
000003e0: 2d00 23bd cb16 94bd 90b9 e9b9 2423 c9b9
000003f0: 07b8 b639 e568 e6b9 f87e a6b9 db18 bcb8

model.0.bias f4 [32]
0.0062194024 0.008016891 -0.00054963777 -0.0009124114 -0.0014860559 -0.04870843 -0.005062244 0.0019162023
-0.00979877 0.0030062196 -0.00035351346 -0.05082141 -0.033295546 0.039813466 0.04281633 -0.06624773
-0.00063469535 -0.0015214019 -0.07111944 -0.0016428487 0.055997126 -0.0014643784 -0.0007882823 -0.00041307625
-0.057446647 0.0625729 -0.00045750604 -0.041626927 -0.00081466755 -0.0004891005 -0.025452571 -0.0006600999
00000000: 21cc cb3b 4759 033c 9115 10ba e42e 6fba
00000010: c3c7 c2ba 7e82 47bd 2ee1 a5bb 1429 fb3a
00000020: 058b 20bc ff03 453b c657 b9b9 1c2a 50bd
00000030: e960 08bd 7213 233d 2d60 2f3d e4ac 87bd
00000040: af61 26ba c769 c7ba 12a7 91bd db54 d7ba
00000050: 3e5d 653d 63f0 bfba bba4 4eba 2892 d8b9
00000060: 2d4d 6bbd 3826 803d 6cdd efb9 ff80 2abd
00000070: 6a8f 55ba fb36 00ba e981 d0bc 8e0a 2dba

model.2.weight f4 [16, 32]
0.46381193 0.28879592 4.702335e-06 -0.000525726 0.56425476 -1.1838832 0.21240073 0.21472427
-0.42637855 -0.3554348 0.00041641778 -0.31903 -0.21896431 -3.0454495 0.5856674 0.045030307
0.0001764134 0.00032774507 -1.1103799 0.0009721322 -0.2656357 0.0015152537 0.8481421 -0.0008932272
0.7593408 0.2811072 -0.00021633238 -0.44136715 -0.00037781574 -0.00018433324 -0.02646769 -0.00028437425
-0.29053313 -0.24414834 9.776809e-05 -0.0002737896 0.05085587 0.36118963 -0.7861534 0.31494734
0.008927858 0.08948531 -0.00057527097 0.18023881 -0.020920878 -1.589651 0.13008125 -0.035022106
0.00015802495 -0.00022798286 0.27336898 -0.00057804986 -1.5414256 0.00013704236 0.24211058 -7.818831e-06
-0.35021618 0.17961219 0.0012328083 0.008945065 -0.0002625488 -0.00028646624 -0.7184276 -0.00061078597
-1.045527 0.94322294 -0.00017469452 -0.001138292 -0.6454096 -0.1582524 0.45734352 -0.4003849
-1.3211979 0.66094685 0.00017120782 -0.347941 -0.19623159 0.39882278 0.08756886 -0.17991346
-0.00038323886 -0.0002596155 0.037667222 -0.00068064244 0.19012994 -0.0002578791 -0.18499507 -0.000533577
-0.49613246 0.13337816 0.0012001189 -0.40679216 -0.00055383745 -0.00065527926 0.060793754 -0.00025584135
-1.3180556 0.8904803 -0.0004188607 -0.00019162583 -0.8308744 -0.1301321 0.6609867 -0.5173013
-1.3922149 0.1783625 0.00018985255 -0.057080515 0.62218815 -0.38286126 0.39909634 -0.4767165
0.00018032445 0.00076614384 -0.33062077 0.00013826511 -0.956653 -0.0014087396 0.12690769 -6.934542e-05
-0.51461273 -0.38672927 0.0011066971 -0.052896716 -3.8083832e-05 0.00021929493 0.082169436 -0.00028813045
-1.7017908 0.56076336 0.00012562933 -0.00042054962 -0.29315302 -0.26213264 0.7224925 -0.66059566
0.2706523 0.36871022 0.00012424197 0.1771643 -0.038637627 1.6537915 0.07484476 -0.48792422
-0.00025143643 0.00047254268 -0.7222767 0.0012670591 0.065323755 -0.00073741685 -0.4357267 7.1491566e-05
0.123404145 0.28598186 -9.4561474e-05 0.28526238 0.00028343353 -3.4631983e-05 0.4149402 -5.4087286e-05
0.76607156 -0.61704737 0.0002481188 -0.00027020593 -0.8223695 -0.6859616 -0.2877114 -0.874637
0.8784113 -0.34100115 -0.0001068671 0.601201 0.751045 -0.23049316 0.085495375 -0.86011827
4.7348807e-05 -0.00031682817 -0.85730934 -0.0016920068 0.43093127 -0.0020215216 -1.2418385 -0.0004957103
0.70500356 0.4529464 -0.0007743932 0.6386017 0.000103633894 -0.00012743857 0.08195124 0.00015095896
-0.29467982 -1.3038077 2.1482138e-05 -0.0003668611 -1.4145432 -1.5603751 -1.0420681 -1.7441345
-0.40036637 -0.51120216 -5.5848723e-05 -0.62124455 0.6909333 0.27466992 0.02007389 -0.4415323
0.00035649366 0.0006593885 0.69706047 -0.00014833997 -0.5029851 -0.0021090512 -1.747454 -0.00022127827
-0.16704594 0.10667311 0.00091404177 -0.28604478 0.00025797746 -0.00028572173 -0.4903174 -0.0001483597
0.25517446 -0.001066346 0.000101285885 0.00025364372 -0.2609108 -0.26227382 0.8106878 0.017047891
-0.35225713 0.3409334 -0.0002670054 -0.75518614 0.06331091 0.6099922 -0.6100748 -0.47184458
-4.1448943e-06 0.00096616126 -0.38588837 -0.00022271715 -2.5140882 -0.0004431767 -0.10564632 0.00012441621
-0.069088474 -0.5583639 0.000113550464 -0.52936447 0.00028846797 -0.00011811905 1.073542 -0.00017161094
00000000: c278 ed3e 0fdd 933e c0c8 9d36 e0d0 09ba
00000010: 0073 103f 7c89 97bf 947f 593e aee0 5b3e
00000020: 4a4e dabe 8dfb b5be a652 da39 e657 a3be
00000030: 2e38 60be a5e8 42c0 4cee 153f b371 383d
00000040: 9dfb 3839 33d5 ab39 ee20 8ebf b0d6 7e3a
00000050: 6701 88be 7a9b c63a d71f 593f 7627 6aba
00000060: 2964 423f 48ed 8f3e 48d7 62b9 e0fa e1be
00000070: 9215 c6b9 9449 41b9 c5d2 d8bc 1118 95b9
00000080: c2c0 94be 0602 7abe d808 cd38 6b8b 8fb9
00000090: 3f4e 503d d9ed b83e 5941 49bf c740 a13e
000000a0: 2746 123c 1344 b73d c8cd 16ba 8690 383e
000000b0: 4362 abbc af79 cbbf 0534 053e 5773 0fbd
000000c0: 80b3 2539 af0e 6fb9 05f7 8b3e 4588 17ba
000000d0: 6f4d c5bf 07b3 0f39 d6eb 773e a02d 03b7
000000e0: 894f b3be 42ec 373e 2f96 a13a 528e 123c
000000f0: b4a6 89b9 d930 96b9 dfea 37bf 271d 20ba
00000100: d4d3 85bf 0f77 713f 342e 37b9 be32 95ba
00000110: 9039 25bf eb0c 22be ee28 ea3e 40ff ccbe
00000120: 031d a9bf d033 293f 4086 3339 5325 b2be
00000130: eff0 48be 8032 cc3e 4d57 b33d 3c3b 38be
00000140: 73ed c8b9 011d 88b9 f248 1a3d 246d 32ba
00000150: 6cb1 423e f233 87b9 596f 3dbe bfdf 0bba
00000160: 1305 febe 4994 083e 4f4d 9d3a 1047 d0be
00000170: 672f 11ba 0cc7 2bba df02 793d 7222 86b9
00000180: 0cb6 a8bf 84f6 633f 889a dbb9 2bef 48b9
00000190: 2fb4 54bf 5941 05be 6d36 293f dc6d 04bf
000001a0: 1934 b2bf a9a4 363e 2813 4739 42cd 69bd
000001b0: b947 1f3f 6406 c4be 5b56 cc3e 2f14 f4be
000001c0: 7a15 3d39 0bd7 483a 2047 a9be 42fb 1039
000001d0: 36e7 74bf 75a5 b8ba 17f4 013e 8a6d 91b8
000001e0: a9bd 03bf 6101 c6be 980e 913a 3aaa 58bd
000001f0: 34bc 1fb8 89f2 6539 7348 a83d 3710 97b9
00000200: 48d4 d9bf 308e 0f3f 5ebb 0339 377d dcb9
00000210: 2718 96be 4036 86be 45f5 383f cc1c 29bf
00000220: f092 8a3e 96c7 bc3e f346 0239 8f6a 353e
00000230: 7d42 1ebd 71af d33f 3648 993d 34d1 f9be
00000240: 3ad3 83b9 9bbf f739 20e7 38bf 7313 a63a
00000250: 76c8 853d 354f 41ba 9217 dfbe beed 9538
00000260: 50bb fc3d 376c 923e 4e4f c6b8 e90d 923e
00000270: ce99 9439 cf41 11b8 0b73 d43e c8db 62b8
00000280: 441d 443f d1f6 1dbf f115 8239 6daa 8db9
00000290: cf86 52bf 2e9b 2fbf e94e 93be 36e8 5fbf
000002a0: 90df 603f b497 aebe d61d e0b8 4fe8 193f
000002b0: 7c44 403f 6606 6cbe 3318 af3d b630 5cbf
000002c0: 6598 4638 f51b a6b9 a078 5bbf 54c6 ddba
000002d0: 06a3 dc3e 817b 04bb 90f4 9ebf 8ef2 01ba
000002e0: 1d7b 343f 97e8 e73e a600 4bba 677b 233f
000002f0: 0656 d938 08a1 05b9 0dd6 a73d bd4a 1e39
00000300: 46e0 96be 2ce3 a6bf 8a34 b437 4357 c0b9
00000310: c00f b5bf 5fba c7bf 7d62 85bf cd3f dfbf
00000320: d2fc ccbe 25de 02bf 1c3f 6ab8 e209 1fbf
00000330: 01e1 303f 89a1 8c3e 0072 a43c 8610 e2be
00000340: c5e7 ba39 d0da 2c3a 8e72 323f b58b 1bb9
00000350: a2c3 00bf 0238 0abb 93ac dfbf ef06 68b9
00000360: 170e 2bbe 6e77 da3d 4e9c 6f3a 7674 92be
00000370: 2641 8739 eccc 95b9 e20a fbbe 0191 1bb9
00000380: 3aa6 823e a2c4 8bba 7269 d438 7cfb 8439
00000390: 1a96 85be c148 86be 3c89 4f3f 05a8 8b3c
000003a0: 0c5b b4be d38e ae3e dcfc 8bb9 e153 41bf
000003b0: 26a9 813d 7328 1c3f dd2d 1cbf 9d95 f1be
000003c0: 5f14 8bb6 fc45 7d3a 2993 c5be 2e89 69b9
000003d0: d2e6 20c0 2b5a e8b9 195d d8bd b975 0239
000003e0: 427e 8dbd f0f0 0ebf f121 ee38 6e84 07bf
000003f0: 843d 9739 afb6 f7b8 d369 893f 76f2 33b9

model.2.bias f4 [16]
0.06449371 0.21927682 0.15272065 0.13076498 0.06516681 0.15874165 0.68286115 0.24505873
-0.07676105 -0.00091978593 -0.0009869449 0.22094734 0.15276049 0.24169512 0.13296431 -0.027653717
00000000: 4715 843d 1a8a 603e cd62 1c3e 41e7 053e
00000010: 2d76 853d 2c8d 223e fdcf 2e3f adf0 7a3e
00000020: e634 9dbd ca1d 71ba 605c 81ba 0540 623e
00000030: 3f6d 1c3e ed7e 773e cc27 083e 0c8a e2bc

model.4.weight f4 [3, 16]
1.9224072 2.1080306 -3.5093486 -4.8761306 -3.6010509 -6.0380173 -8.816068 -3.4859014
-1.5670484 -4.8287915e-05 0.000107255626 2.7892268 0.39158034 3.4822583 1.0545496 -2.7392392
-1.8080535 -2.6578133 -1.563095 -0.49792904 0.88795674 4.3436794 6.353714 -0.66895616
-0.40153313 -0.0014122042 -0.00014150677 1.3699812 -5.992469 -1.4615121 -5.769478 1.8230221
-1.0790519 -1.282648 3.74309 4.1266 1.769535 -1.3566651 -4.3617253 3.0423996
1.4913105 -0.00068316085 0.0003600055 -4.311062 1.0299937 -3.037173 0.3535896 0.09320223
00000000: 7011 f63f f9e9 0640 2b99 60c0 4309 9cc0
00000010: 9e77 66c0 7037 c1c0 9d0e 0dc1 0219 5fc0
00000020: 0b95 c8bf c188 4ab8 6dee e038 b182 3240
00000030: 387d c83e 52dd 5e40 7bfb 863f b24f 2fc0
00000040: 4c6e e7bf 9d19 2ac0 7f13 c8bf 8ef0 febe
00000050: 2251 633f 6cff 8a40 a051 cb40 b640 2bbf
00000060: c095 cdbe b619 b9ba 6f61 14b9 8b5b af3f
00000070: 4ec2 bfc0 d412 bbbf 909f b8c0 ca58 e93f
00000080: 5f1e 8abf cf2d a4bf c98e 6f40 1b0d 8440
00000090: 1f80 e23f 34a7 adbf 4193 8bc0 adb6 4240
000000a0: 43e3 be3f 2616 33ba 1fbf bc39 38f4 89c0
000000b0: d5d6 833f 0b61 42c0 b209 b53e d0e0 be3d

model.4.bias f4 [3]
0.39342645 0.21586989 -0.50912017
00000000: 316f c93e ff0c 5d3e b355 02bf

exp_avg f4 [32, 25]
-0.023104394 -0.025679357 0.00012853993 0.013787692 0.024734847 -0.018388022 -0.013465156 -0.009590855
0.024313623 0.025544351 -0.02362912 -0.019438904 0.011149177 0.027572209 0.014360925 -0.018448029
-0.014958532 0.0015000406 0.014782331 0.01841798 -0.0059498427 -0.00066459103 0.0016024832 0.0030615334
0.015150799 -0.002260501 -0.0005950475 -0.018232338 -0.01921263 -0.0115101375 -0.00451919 -0.007704599
-0.0029599422 -0.008767429 -0.00067920156 0.017758392 0.015078928 0.010924092 -0.0038868003 0.006351093
0.018227527 0.016044458 0.011099334 0.0062913396 0.004550356 0.01374669 0.01048852 0.014579606
0.009513752 0.0058164247 6e-45 6e-45 6e-45 6e-45 6e-45 6e-45
6e-45 6e-45 6e-45 6e-45 6e-45 6e-45 6e-45 6e-45
6e-45 6e-45 6e-45 6e-45 6e-45 6e-45 6e-45 6e-45
6e-45 6e-45 6e-45 6e-45 -6e-45 6e-45 6e-45 6e-45
6e-45 6e-45 6e-45 6e-45 6e-45 6e-45 6e-45 6e-45
6e-45 6e-45 6e-45 6e-45 6e-45 6e-45 6e-45 6e-45
6e-45 6e-45 6e-45 6e-45 0.04690773 0.05326306 0.0678347 0.07140636
0.06687513 0.04995411 0.051314883 0.05293115 0.0635403 0.062779486 0.04949778 0.047267053
0.04966187 0.055714272 0.052355863 0.052869048 0.05385264 0.05664949 0.05504875 0.0524128
0.054621052 0.05908003 0.062047083 0.06336219 0.05763232 0.028778803 0.011789211 0.0053862804
0.0029640272 -0.0011327511 0.03918964 0.033474654 0.026814567 -0.0010149133 -0.0038684327 0.035424944
0.03267218 0.032174915 0.029434603 0.029002152 0.035246592 0.03350406 0.034720723 0.03367132
0.03256847 0.033341844 0.026489418 0.034109123 0.040098913 0.03330266 -0.027833076 0.031090368
0.041387986 0.020431783 0.009062185 -0.038579557 -0.034676194 -0.009422991 0.009244115 0.009214859
-0.040375028 -0.03386431 -0.074300796 -0.0816356 -0.07397924 -0.060963303 -0.06000981 -0.08939278
-0.09945699 -0.086328335 -0.06552409 -0.06917514 -0.08675755 -0.09930814 -0.09505012 -0.00029568723
-0.0012283598 0.010311188 0.01910927 0.020109443 -0.007418078 -0.007883278 0.0033321334 0.017996859
0.023905938 -0.0076346346 -0.00901282 -0.00059019396 0.018570308 0.026262537 0.0006201552 0.0030510258
0.011143781 0.013897983 0.011590169 0.0038718302 0.0078446595 0.012406073 0.014054906 0.01457568
-0.012546618 -0.04477495 -0.03822407 -0.02083008 -0.01873621 0.0047602057 0.0015224317 0.0005148135
-0.025660116 -0.026764445 -0.013735321 -0.017172687 -0.004361865 0.04286527 0.049516648 0.0039332807
-0.0020718894 0.0050325734 0.024542725 0.038791396 -0.0016214927 -0.011725152 -0.00521324 0.01672492
0.031540904 -0.0015298397 0.0008532265 -0.002050538 -0.017145844 -0.024782456 -0.0009884865 -0.0009212248
0.00055397046 -0.022520024 -0.025889087 -0.002306393 -0.00042157518 -0.016350502 -0.02614485 -0.024847828
-0.014366032 -0.015042563 -0.026827442 -0.029927384 -0.026517814 -0.021709695 -0.025123889 -0.026724514
-0.029001106 -0.02880418 0.0 0.0 0.0 0.0 0.0 6e-45
00000000: 6d45 bdbc 845d d2bc adc8 0639 c6e5 613c
00000010: bca0 ca3c 7aa2 96bc f59c 5cbc f622 1dbc
00000020: 5d2d c73c 6342 d13c db91 c1bc 563e 9fbc
00000030: 0aab 363c 1ddf e13c 164a 6b3c 5220 97bc
00000040: a114 75bc 039d c43a 9731 723c 4ee1 963c
00000050: e6f6 c2bb f337 2eba 6a0a d23a 02a4 483b
00000060: 0f3b 783c ea24 14bb f6fc 1bba fc5b 95bc
00000070: ce63 9dbc 0495 3cbc b715 94bb dc76 fcbb
00000080: 97fb 41bb 43a5 0fbc 720c 32ba 0c7a 913c
00000090: 9c0d 773c f6fa 323c b0b9 7ebb d41c d03b
000000a0: e551 953c ab6f 833c fbd9 353c 9527 ce3b
000000b0: 271b 953b cc39 613c 0bd8 2b3c 4ddf 6e3c
000000c0: 91df 1b3c b597 be3b 0400 0000 0400 0000
000000d0: 0400 0000 0400 0000 0400 0000 0400 0000
000000e0: 0400 0000 0400 0000 0400 0000 0400 0000
000000f0: 0400 0000 0400 0000 0400 0000 0400 0000
00000100: 0400 0000 0400 0000 0400 0000 0400 0000
00000110: 0400 0000 0400 0000 0400 0000 0400 0000
00000120: 0400 0000 0400 0000 0400 0000 0400 0000
00000130: 0400 0080 0400 0000 0400 0000 0400 0000
00000140: 0400 0000 0400 0000 0400 0000 0400 0000
00000150: 0400 0000 0400 0000 0400 0000 0400 0000
00000160: 0400 0000 0400 0000 0400 0000 0400 0000
00000170: 0400 0000 0400 0000 0400 0000 0400 0000
00000180: 0400 0000 0400 0000 0400 0000 0400 0000
00000190: 5222 403d 5e2a 5a3d ebec 8a3d 7f3d 923d
000001a0: d4f5 883d ae9c 4c3d 8e2f 523d 55ce 583d
000001b0: 6b21 823d 8892 803d 2fbe 4a3d 199b 413d
000001c0: 3f6a 4b3d a634 643d 1a73 563d 378d 583d
000001d0: 9694 5c3d 4c09 683d cc7a 613d ceae 563d
000001e0: 53ba 5f3d e7fd 713d 1525 7e3d 09c4 813d
000001f0: de0f 6c3d 86c1 eb3c 8927 413c 657f b03b
00000200: 2040 423b d278 94ba 5185 203d b81c 093d
00000210: 39aa db3c d706 85ba 8885 7dbb bf19 113d
00000220: 44d3 053d d8c9 033d d620 f13c ec95 ed3c
00000230: bb5e 103d 8e3b 093d 5137 0e3d f0ea 093d
00000240: 8466 053d 7591 083d 5600 d93c 02b6 0b3d
00000250: c23e 243d 5f68 083d 3102 e4bc 3ab1 fe3c
00000260: 7386 293d 8e60 a73c 8f79 143c 9905 1ebd
00000270: a008 0ebd e462 1abc a174 173c ecf9 163c
00000280: 4960 25bd 4db5 0abd 042b 98bd 9130 a7bd
00000290: 6e82 97bd a8b4 79bd d9cc 75bd 9013 b7bd
000002a0: 1bb0 cbbd e9cc b0bd 7e31 86bd b2ab 8dbd
000002b0: f1ad b1bd 1162 cbbd a3a9 c2bd 7806 9bb9
000002c0: ea00 a1ba 42f0 283c 0b8b 9c3c 8fbc a43c
000002d0: 5913 f3bb dd28 01bc ec5f 5a3b 266e 933c
000002e0: 63d6 c33c f52b fabb 82aa 13bc 3fb7 1aba
000002f0: c220 983c 8824 d73c e991 223a b8f3 473b
00000300: 6894 363c 5eb4 633c b1e4 3d3c 88be 7d3b
00000310: e386 003c d742 4b3c 8c46 663c d5ce 6e3c
00000320: 5490 4dbc f065 37bd d890 1cbd d8a3 aabc
00000330: ae7c 99bc 80fb 9b3b 558c c73a 8df4 063a
00000340: 2a35 d2bc 1c41 dbbc 1d0a 61bc bcad 8cbc
00000350: faed 8ebb 7e93 2f3d f8d1 4a3d c0e2 803b
00000360: 89c8 07bb 49e8 a43b d30d c93c bae3 1e3d
00000370: 4488 d4ba da1a 40bc d4d3 aabb b302 893c
00000380: 0931 013d e784 c8ba 10ab 5f3a 5262 06bb
00000390: 7175 8cbc 9404 cbbc 1a90 81ba 5a7e 71ba
000003a0: 5438 113a ea7b b8bc 5a15 d4bc db26 17bb
000003b0: dd06 ddb9 7df1 85bc b92d d6bc ac8d cbbc
000003c0: 815f 6bbc 1575 76bc 39c5 dbbc 462a f5bc
000003d0: e33b d9bc 88d8 b1bc 9dd0 cdbc 5eed dabc
000003e0: ba93 edbc bef6 ebbc 0000 0000 0000 0000
000003f0: 0000 0000 0000 0000 0000 0000 0400 0000

exp_avg_sq f4 [32, 25]
0.051085252 0.049660865 0.047843963 0.048637964 0.048574403 0.052275848 0.04752 0.041882355
0.044978667 0.045703534 0.053944018 0.04689459 0.031904344 0.036409248 0.041567493 0.049133003
0.044345398 0.03686344 0.036400378 0.04031404 0.045777988 0.04177709 0.03778768 0.037622303
0.039445523 0.041497674 0.043512408 0.051070206 0.057983823 0.06152001 0.041551296 0.041904178
0.049425073 0.058919426 0.06081969 0.051464442 0.050585303 0.049684376 0.054848768 0.05596954
0.054746497 0.05443001 0.046041872 0.039637953 0.041297056 0.054836635 0.052917972 0.046024278
0.039676033 0.039886743 7e-43 7e-43 7e-43 7e-43 7e-43 7e-43
7e-43 7e-43 7e-43 7e-43 7e-43 7e-43 7e-43 7e-43
7e-43 7e-43 7e-43 7e-43 7e-43 7e-43 7e-43 7e-43
7e-43 7e-43 7e-43 7e-43 7e-43 7e-43 7e-43 7e-43
7e-43 7e-43 7e-43 7e-43 7e-43 7e-43 7e-43 7e-43
7e-43 7e-43 7e-43 7e-43 7e-43 7e-43 7e-43 7e-43
7e-43 7e-43 7e-43 7e-43 0.023935407 0.02315511 0.026935555 0.03324242
0.036636114 0.025777388 0.023360863 0.026535213 0.035812657 0.039465774 0.02653734 0.025729707
0.030569594 0.041690994 0.045499973 0.027412137 0.028540645 0.034288373 0.041953202 0.044996765
0.028494155 0.030717729 0.035569943 0.04175819 0.04431714 0.007869834 0.007424196 0.0071333046
0.007635864 0.008213638 0.008607161 0.007950716 0.0075756274 0.008191866 0.009344206 0.01082904
0.01061075 0.011384662 0.011155759 0.01202169 0.011957112 0.012258446 0.012454646 0.012177049
0.012171177 0.0121335825 0.012413992 0.012581837 0.01254328 0.012294946 0.10597393 0.10348517
0.09252182 0.082758546 0.08221304 0.11010513 0.10484516 0.089418314 0.0822324 0.09035962
0.10860949 0.1035692 0.09752177 0.10972238 0.11323251 0.091228224 0.07889097 0.078001805
0.09745844 0.111613214 0.08125652 0.073211014 0.07656881 0.09069709 0.103870094 0.042498007
0.045555755 0.051318944 0.05590411 0.056482233 0.03995178 0.043320492 0.04988549 0.05430719
0.054231033 0.037520777 0.037033644 0.042420525 0.049836434 0.05340063 0.034033112 0.031751454
0.032696165 0.04204959 0.047691014 0.031034878 0.029548684 0.03228614 0.039101284 0.04474867
0.09676434 0.09892205 0.1042086 0.10383247 0.09963349 0.09688923 0.100628085 0.11011232
0.10671113 0.10325308 0.11165152 0.11625539 0.1316438 0.11704264 0.111490496 0.10914688
0.11147695 0.1147383 0.1112975 0.10980293 0.10682144 0.1062245 0.10830644 0.10617466
0.10860093 0.012509783 0.0125822015 0.011751894 0.010435121 0.009434076 0.0117577035 0.01228718
0.01130718 0.00944562 0.009114083 0.010324332 0.01009247 0.009754022 0.011104394 0.011601981
0.007641121 0.007093124 0.008216558 0.011069976 0.012266174 0.007085614 0.0072266352 0.008489412
0.010562513 0.011923249 0.0 0.0 0.0 0.0 0.0 7e-43
00000000: c53e 513d 3169 4b3d 08f8 433d 9a38 473d
00000010: f4f5 463d 331f 563d 55a4 423d d58c 2b3d
00000020: 8d3b 383d a133 3b3d 67f4 5c3d 8b14 403d
00000030: 21ae 023d dd21 153d ad42 2a3d b03f 493d
00000040: 85a3 353d 1efe 163d 9018 153d 5620 253d
00000050: b381 3b3d 741e 2b3d 41c7 1a3d d819 1a3d
00000060: a191 213d 77f9 293d 113a 323d fe2e 513d
00000070: 7280 6d3d 68fc 7b3d b131 2a3d b7a3 2b3d
00000080: f271 4a3d 7f55 713d 111e 793d 61cc 523d
00000090: 8932 4f3d d881 4b3d 1aa9 603d 5140 653d
000000a0: dd3d 603d 01f2 5e3d 6796 3c3d 685b 223d
000000b0: 1a27 293d 619c 603d 84c0 583d f483 3c3d
000000c0: 5683 223d 4860 233d f401 0000 f401 0000
000000d0: f401 0000 f401 0000 f401 0000 f401 0000
000000e0: f401 0000 f401 0000 f401 0000 f401 0000
000000f0: f401 0000 f401 0000 f401 0000 f401 0000
00000100: f401 0000 f401 0000 f401 0000 f401 0000
00000110: f401 0000 f401 0000 f401 0000 f401 0000
00000120: f401 0000 f401 0000 f401 0000 f401 0000
00000130: f401 0000 f401 0000 f401 0000 f401 0000
00000140: f401 0000 f401 0000 f401 0000 f401 0000
00000150: f401 0000 f401 0000 f401 0000 f401 0000
00000160: f401 0000 f401 0000 f401 0000 f401 0000
00000170: f401 0000 f401 0000 f401 0000 f401 0000
00000180: f401 0000 f401 0000 f401 0000 f401 0000
00000190: 3014 c43c c9af bd3c f4a7 dc3c 3429 083d
000001a0: c00f 163d 1a2b d33c 485f bf3c 6060 d93c
000001b0: 4bb0 123d dda6 213d d664 d93c 1bc7 d23c
000001c0: 166d fa3c 2dc4 2a3d 2e5e 3a3d 6b8f e03c
000001d0: 12ce e93c f771 0c3d 1fd7 2b3d 874e 383d
000001e0: 936c e93c bfa3 fb3c cab1 113d a30a 2b3d
000001f0: e485 353d 7af0 003c ac46 f33b 7fbe e93b
00000200: 4536 fa3b 7f92 063c 0d05 0d3c b843 023c
00000210: f83c f83b 2d37 063c 7118 193c 496c 313c
00000220: b6d8 2d3c bc86 3a3c a5c6 363c 9ff6 443c
00000230: c3e7 433c a6d7 483c 920e 4c3c 3f82 473c
00000240: 9e69 473c efcb 463c 0e64 4b3c 0d24 4e3c
00000250: 5482 4d3c be70 493c dc08 d93d 08f0 d33d
00000260: 147c bd3d 507d a93d 4f5f a83d cc7e e13d
00000270: 0fb9 d63d f320 b73d 7669 a83d 770e b93d
00000280: a76e de3d 171c d43d 7eb9 c73d 21b6 e03d
00000290: 72e6 e73d ddd5 ba3d 9791 a13d 69bf 9f3d
000002a0: 4a98 c73d 7895 e43d d169 a63d a8ef 953d
000002b0: 1cd0 9c3d 65bf b93d d8b9 d43d 6412 2e3d
000002c0: ac98 3a3d d033 523d b5fb 643d ea59 673d
000002d0: 7aa4 233d d470 313d ba54 4c3d 3771 5e3d
000002e0: 5c21 5e3d 63af 193d 97b0 173d 25c1 2d3d
000002f0: 4a21 4c3d 9eba 5a3d 4e66 0b3d d00d 023d
00000300: 6aec 053d 313c 2c3d a757 433d db3c fe3c
00000310: 1510 f23c 793e 043d ab28 203d 624a 373d
00000320: 622c c63d a597 ca3d 526b d53d 1ea6 d43d
00000330: a50c cc3d dc6d c63d 1916 ce3d 9182 e13d
00000340: 5d8b da3d 5a76 d33d 8da9 e43d 4e17 ee3d
00000350: a2cd 063e 0db4 ef3d 2155 e43d 6688 df3d
00000360: 074e e43d eafb ea3d f2ef e33d 5ce0 e03d
00000370: 33c5 da3d 3b8c d93d c4cf dd3d 1a72 d93d
00000380: 2a6a de3d d5f5 4c3c 9425 4e3c 048b 403c
00000390: 12f8 2a3c 6291 1a3c 62a3 403c 2b50 493c
000003a0: c041 393c cdc1 1a3c 3c53 153c 6327 293c
000003b0: e35a 253c 55cf 1f3c 34ef 353c 3c16 3e3c
000003c0: 5e62 fa3b 706d e83b be9e 063c d85e 353c
000003d0: 10f8 483c 702e e83b 69cd ec3b 2d17 0b3c
000003e0: 640e 2d3c bb59 433c 0000 0000 0000 0000
000003f0: 0000 0000 0000 0000 0000 0000 f401 0000

exp_avg f4 [32]
-0.036996845 0.05587998 6e-45 6e-45 0.060204268 0.033543095 -0.029548105 0.021525454
-0.080691285 0.00572401 6e-45 -0.026584262 -0.0077178334 -0.0003493084 -0.0025764825 0.035692282
6e-45 6e-45 0.024124656 6e-45 -0.061737336 6e-45 0.087604836 6e-45
-0.099338524 -0.017192498 6e-45 -0.021319808 6e-45 6e-45 0.10314651 6e-45
00000000: 018a 17bd 68e2 643d 0400 0000 0400 0000
00000010: c098 763d 7c64 093d de0e f2bc 2656 b03c
00000020: 7941 a5bd 7a90 bb3b 0400 0000 3dc7 d9bc
00000030: e1e5 fcbb 6123 b7b9 34da 28bb 1232 123d
00000040: 0400 0000 0400 0000 12a1 c53c 0400 0000
00000050: 4ae0 7cbd 0400 0000 2a6a b33d 0400 0000
00000060: ff71 cbbd 48d7 8cbc 0400 0000 e1a6 aebc
00000070: 0400 0000 0400 0000 7a3e d33d 0400 0000

exp_avg_sq f4 [32]
0.13146713 0.14251594 7e-43 7e-43 0.092148975 0.024520155 0.25286585 0.11579397
0.2749093 0.02939616 7e-43 0.04944484 0.016799761 0.01708662 0.010067894 0.043894112
7e-43 7e-43 0.031494774 7e-43 0.1990363 7e-43 0.18240555 7e-43
0.05616894 0.013661018 7e-43 0.06634254 7e-43 7e-43 0.14616634 7e-43
00000000: 529f 063e b3ef 113e f401 0000 f401 0000
00000010: 9ab8 bc3d 7ede c83c a277 813e 6425 ed3d
00000020: e9c0 8c3e 37d0 f03c f401 0000 ac86 4a3d
00000030: a79f 893c 3df9 8b3c cff3 243c 50ca 333d
00000040: f401 0000 f401 0000 aa00 013d f401 0000
00000050: 2cd0 4b3e f401 0000 85c8 3a3e f401 0000
00000060: 6711 663d 76d2 5f3c f401 0000 99de 873d
00000070: f401 0000 f401 0000 a1ac 153e f401 0000

exp_avg f4 [16, 32]
0.0010651955 0.0076446687 0.0 6e-45 0.0011495535 0.001477766 -0.006579192 -0.002787388
-0.0012786981 -0.0071015162 6e-45 -0.009257094 -0.0006080851 0.00033503052 0.005435848 -0.004593504
6e-45 -6e-45 9.4923394e-05 -6e-45 -0.0007735885 6e-45 -0.014409877 -6e-45
2.9172032e-05 -0.00033497583 6e-45 0.0016398326 6e-45 -6e-45 -0.00028170936 0.0
0.0008820481 -4.98784e-05 -6e-45 6e-45 0.0051456876 0.0096115405 0.00431769 -0.0075956914
0.0015417193 -0.0016495277 6e-45 -0.005568682 -0.00013759869 1.8862223e-06 0.005177406 -0.0056062187
-6e-45 -6e-45 0.0020616527 -6e-45 -0.0018054338 6e-45 -0.008921309 6e-45
0.0037144925 -0.0012176266 6e-45 -0.0010938146 6e-45 -6e-45 -0.00046120433 6e-45
-0.000254075 -0.0032739884 0.0 -6e-45 -0.0039865645 0.0059066326 0.004642594 -0.004302257
0.0018723954 0.00513929 6e-45 0.010759785 0.0016602329 0.0008484027 -0.010700649 0.0010601415
6e-45 -6e-45 0.003231069 -6e-45 -0.00060496316 -6e-45 0.015421379 6e-45
0.0029259345 0.004340478 6e-45 -0.0028640286 6e-45 6e-45 0.0015536104 6e-45
-0.0016314322 -0.004069119 6e-45 -6e-45 0.00014634921 0.0075131273 0.0008307449 -0.010456993
0.0021211237 0.0053004995 6e-45 0.005554788 -0.0007005906 -0.00046628306 -0.008918267 0.0011208615
6e-45 -6e-45 0.0032335916 -6e-45 0.0006044133 -6e-45 0.010195648 6e-45
0.0014400169 0.0027128498 6e-45 -0.0069947722 -6e-45 6e-45 -0.002658382 6e-45
0.0007328538 0.00089004746 6e-45 -6e-45 -0.005249643 -0.012818985 -0.012449039 -0.0031128833
-0.0034703705 -0.00600018 0.0 0.005116472 -0.0002902437 0.00026644 -0.007255414 0.0005131216
6e-45 6e-45 -0.0033713307 -6e-45 0.0008989952 -6e-45 0.007821171 -6e-45
-0.008433301 0.0042902934 6e-45 -0.0031996295 0.0 6e-45 0.0019872668 0.0
-0.011434118 -0.013342481 6e-45 -6e-45 -0.00044892923 -0.0077562355 0.0003094161 -0.0069519714
-0.0020037368 -0.0009546618 -6e-45 -0.009823368 -0.0017916446 -0.0011606327 -0.006102322 8.105056e-05
6e-45 -6e-45 -0.00050212967 6e-45 -0.009924749 -6e-45 -0.012296154 -6e-45
-0.0056319116 -0.011733995 -6e-45 -0.005099836 -6e-45 6e-45 -0.006381379 6e-45
-0.0031779744 -3.7752732e-05 -6e-45 6e-45 -4.315805e-06 -4.197296e-05 -0.0010913039 0.0008592997
0.00016745507 0.00023184955 -6e-45 -0.0047380617 -0.000842604 -0.00016773836 -0.00026985133 0.00026032436
6e-45 -6e-45 -0.0002505356 6e-45 0.0014426245 6e-45 -0.0042238263 -6e-45
-0.0006131393 -0.0005746559 -6e-45 0.00025320903 -6e-45 -6e-45 -0.0021711134 0.0
0.00360217 0.0064144833 0.0 -6e-45 -0.009337936 -0.02596067 -0.030259583 0.005071416
-0.011818981 -0.017896157 0.0 -0.008741382 0.0012144799 0.00037404633 -0.005548044 0.0028021794
6e-45 6e-45 -0.006026575 -6e-45 0.001159714 -6e-45 -0.002283462 6e-45
-0.023522373 0.0033039253 6e-45 0.0023134984 0.0 -6e-45 0.004144006 6e-45
00000000: 089e 8b3a 2180 fa3b 0000 0000 0400 0000
00000010: 9dac 963a 99b1 c13a 4396 d7bb 9cac 36bb
00000020: fd99 a7ba d6b3 e8bb 0400 0000 11ab 17bc
00000030: e667 1fba 09a7 af39 331f b23b 1b85 96bb
00000040: 0400 0000 0400 0080 9c11 c738 0400 0080
00000050: a5ca 4aba 0400 0000 6817 6cbc 0400 0080
00000060: 76b6 f437 b29f afb9 0400 0000 a7ef d63a
00000070: 0400 0000 0400 0080 64b2 93b9 0000 0000
00000080: 3f39 673a 8634 51b8 0400 0080 0400 0000
00000090: 289d a83b b979 1d3c 697b 8d3b 47e5 f8bb
000000a0: 8413 ca3a f734 d8ba 0400 0000 7e79 b6bb
000000b0: 5e48 10b9 1b2a fd35 3ba7 a93b 5fb4 b7bb
000000c0: 0400 0080 0400 0080 cb1c 073b 0400 0080
000000d0: 4ea4 ecba 0400 0000 af2a 12bc 0400 0000
000000e0: d86e 733b c598 9fba 0400 0000 545e 8fba
000000f0: 0400 0000 0400 0080 cccd f1b9 0400 0000
00000100: 5f35 85b9 6990 56bb 0000 0000 0400 0080
00000110: baa1 82bb 6d8c c13b e720 983b f3f9 8cbb
00000120: 2a6b f53a 7d67 a83b 0400 0000 cf49 303c
00000130: 2c9c d93a 5767 5e3a c651 2fbc 72f4 8a3a
00000140: 0400 0000 0400 0080 58c0 533b 0400 0080
00000150: 6496 1eba 0400 0080 f4a9 7c3c 0400 0000
00000160: 09c1 3f3b 923a 8e3b 0400 0000 6db2 3bbb
00000170: 0400 0000 0400 0000 84a2 cb3a 0400 0000
00000180: c8d5 d5ba 3f56 85bb 0400 0000 0400 0080
00000190: 5175 1939 ae30 f63b 59c6 593a cf53 2bbc
000001a0: 8d02 0b3b d0af ad3b 0400 0000 f004 b63b
000001b0: d7a7 37ba 7477 f4b9 ec1d 12bc dfe9 923a
000001c0: 0400 0000 0400 0080 aaea 533b 0400 0080
000001d0: 7d71 1e3a 0400 0080 a60b 273c 0400 0000
000001e0: f3be bc3a 11ca 313b 0400 0000 6734 e5bb
000001f0: 0400 0080 0400 0000 4038 2ebb 0400 0000
00000200: fc1c 403a 1352 693a 0400 0000 0400 0080
00000210: 3305 acbb b806 52bc 0ef7 4bbc 8401 4cbb
00000220: 286f 63bb 289d c4bb 0000 0000 14a8 a73b
00000230: da2b 98b9 f9b0 8b39 d3be edbb 0283 063a
00000240: 0400 0000 0400 0000 8bf1 5cbb 0400 0080
00000250: 8caa 6b3a 0400 0080 5e24 003c 0400 0080
00000260: d42b 0abc 9795 8c3b 0400 0000 e0b0 51bb
00000270: 0000 0000 0400 0000 ce3c 023b 0000 0000
00000280: 2b56 3bbc 6c9a 5abc 0400 0000 0400 0080
00000290: 435e ebb9 0528 febb 2039 a239 5dcd e3bb
000002a0: 2051 03bb 4542 7aba 0400 0080 31f2 20bc
000002b0: 9ed5 eaba 5f20 98ba fdf5 c7bb b0f9 a938
000002c0: 0400 0000 0400 0080 5aa1 03ba 0400 0000
000002d0: 6a9b 22bc 0400 0080 cf75 49bc 0400 0080
000002e0: e68b b8bb f13f 40bc 0400 0080 861c a7bb
000002f0: 0400 0080 0400 0000 e31a d1bb 0400 0000
00000300: 9045 50bb b058 1eb8 0400 0080 0400 0000
00000310: 7cd0 90b6 1f0c 30b8 150a 8fba a042 613a
00000320: e196 2f39 a41c 7339 0400 0080 be41 9bbb
00000330: 32e2 5cba ece2 2fb9 d57a 8db9 257c 8839
00000340: 0400 0000 0400 0080 525a 83b9 0400 0000
00000350: 7216 bd3a 0400 0000 0668 8abb 0400 0080
00000360: 15bb 20ba 81a4 16ba 0400 0080 24c1 8439
00000370: 0400 0080 0400 0080 3d49 0ebb 0000 0000
00000380: 6212 6c3b 9630 d23b 0000 0000 0400 0080
00000390: 24fe 18bc 79ab d4bc f2e2 f7bc 1f2e a63b
000003a0: 66a4 41bc f69a 92bc 0000 0000 0338 0fbc
000003b0: 2f2f 9f3a a61b c439 5ecc b5bb c5a4 373b
000003c0: 0400 0000 0400 0000 937a c5bb 0400 0080
000003d0: 8b01 983a 0400 0080 23a6 15bb 0400 0000
000003e0: feb1 c0bc ab86 583b 0400 0000 109e 173b
000003f0: 0000 0000 0400 0080 71ca 873b 0400 0000

exp_avg_sq f4 [16, 32]
0.0002483714 0.00034731932 0.0 7e-43 0.00037596724 0.0002831598 0.00044715736 0.0014163179
4.759973e-05 0.00021988979 7e-43 0.0011275564 6.686936e-05 5.2518527e-07 0.00088406005 0.00022179483
7e-43 7e-43 9.327981e-06 7e-43 0.00041743077 7e-43 0.0015338631 7e-43
0.00017293081 0.000274975 7e-43 0.00053838664 7e-43 7e-43 0.00035272326 0.0
0.00013323029 0.00037344557 7e-43 7e-43 0.0006278781 0.0019789685 0.0004667175 0.0013400393
7.845915e-05 0.00020334913 7e-43 0.0012539487 0.00010995842 1.14113526e-07 0.0006761403 0.00021038651
7e-43 7e-43 0.0003096898 7e-43 0.00014389552 7e-43 0.0014657474 7e-43
0.0004564814 0.00026178363 7e-43 0.0005622269 7e-43 7e-43 0.00045365546 7e-43
0.00035925172 0.0017575463 0.0 7e-43 0.00054348016 0.0013818791 0.0016300178 0.0026446367
8.47302e-05 0.0009211864 7e-43 0.001236444 4.3675784e-05 2.4101468e-05 0.0015834948 0.00042304856
7e-43 7e-43 0.00017130385 7e-43 0.0013167447 7e-43 0.0020541926 7e-43
0.00022787016 0.00059343356 7e-43 0.000743885 7e-43 7e-43 0.0006205832 7e-43
0.0003077374 0.0016241969 7e-43 7e-43 0.00033946705 0.0010848826 0.0015444993 0.0024061683
5.429241e-05 0.00039650578 7e-43 0.004359229 0.00033877554 1.0637973e-05 0.0012003533 0.00034805667
7e-43 7e-43 0.00015527807 7e-43 0.00011067193 7e-43 0.00529936 7e-43
0.00019900667 0.0001535438 7e-43 0.0007426764 7e-43 7e-43 0.0016932243 7e-43
3.09386e-05 0.0005721852 7e-43 7e-43 0.0008965038 0.0014430998 0.0012293765 0.0011599474
0.00016156152 0.00047917903 0.0 0.00090054754 4.8925278e-05 1.7220779e-06 0.0010736559 0.0001859608
7e-43 7e-43 0.00017413392 7e-43 0.0004827165 7e-43 0.0011739942 7e-43
0.0003435737 0.00033906547 7e-43 0.00062293664 0.0 7e-43 0.00038570145 0.0
0.0007787725 0.0008165413 7e-43 7e-43 0.0004649182 0.0005194477 0.00071334874 0.0011872181
0.0002579049 0.00037908505 7e-43 0.0020831176 0.00017270783 6.619112e-05 0.0015076529 6.186311e-05
7e-43 7e-43 1.5433554e-05 7e-43 0.0014826518 7e-43 0.0017696361 7e-43
0.00061606633 0.0008217005 7e-43 0.0010993283 7e-43 7e-43 0.0006271609 7e-43
0.00014664825 0.00011188114 7e-43 7e-43 3.3450637e-05 1.2438176e-05 0.00013483307 8.6241205e-05
2.0141206e-05 5.0422677e-05 7e-43 0.00020152361 2.2210637e-05 1.2533319e-05 0.00014835625 5.6910415e-07
7e-43 7e-43 7.10625e-07 7e-43 0.0002284106 7e-43 0.0001197876 7e-43
3.937951e-05 8.514826e-05 7e-43 7.144621e-05 7e-43 7e-43 0.000121254605 0.0
0.00060577807 0.00063008943 0.0 7e-43 0.0010270465 0.003968737 0.0022530542 0.0020246955
0.00013511369 0.000520724 0.0 0.0019419655 0.0003448344 3.094837e-05 0.00070916564 0.00042635613
7e-43 7e-43 0.00061351585 7e-43 1.4955431e-05 7e-43 0.0024867402 7e-43
0.0010363277 0.0001032104 7e-43 0.000725291 0.0 7e-43 0.0017032207 7e-43
00000000: d837 8239 6918 b639 0000 0000 f401 0000
00000010: 781d c539 1175 9439 7270 ea39 bea3 b93a
00000020: d2a5 4738 3792 6639 f401 0000 84ca 933a
00000030: 373c 8c38 75fa 0c35 44c0 673a 9991 6839
00000040: f401 0000 f401 0000 607f 1c37 f401 0000
00000050: 9cda da39 f401 0000 e80b c93a f401 0000
00000060: c354 3539 852a 9039 f401 0000 8422 0d3a
00000070: f401 0000 f401 0000 b7ed b839 0000 0000
00000080: bcb3 0b39 04cb c339 f401 0000 f401 0000
00000090: 3098 243a 95b1 013b c3b1 f439 42a4 af3a
000000a0: 6f8a a438 1e3a 5539 f401 0000 895b a43a
000000b0: 7a99 e638 930e f533 023f 313a 339b 5c39
000000c0: f401 0000 f401 0000 dd5d a239 f401 0000
000000d0: a9e2 1639 f401 0000 521e c03a f401 0000
000000e0: e553 ef39 0140 8939 f401 0000 6962 133a
000000f0: f401 0000 f401 0000 9bd8 ed39 f401 0000
00000100: f359 bc39 785d e63a 0000 0000 f401 0000
00000110: 5678 0e3a 2b20 b53a 52a6 d53a a451 2d3b
00000120: 2eb1 b138 c67b 713a f401 0000 2d10 a23a
00000130: 8430 3738 822d ca37 458d cf3a 9ecc dd39
00000140: f401 0000 f401 0000 07a0 3339 f401 0000
00000150: 9f96 ac3a f401 0000 a29f 063b f401 0000
00000160: 6ef0 6e39 a790 1b3a f401 0000 4701 433a
00000170: f401 0000 f401 0000 a2ae 223a f401 0000
00000180: d157 a139 01e3 d43a f401 0000 f401 0000
00000190: 7ffa b139 9f32 8e3a cc70 ca3a ceb0 1d3b
000001a0: 08b8 6338 1be2 cf39 f401 0000 ddd7 8e3b
000001b0: af9d b139 bf79 3237 2c55 9d3a 607b b639
000001c0: f401 0000 f401 0000 24d2 2239 f401 0000
000001d0: 8a18 e838 f401 0000 41a6 ad3b f401 0000
000001e0: 72ac 5039 9a00 2139 f401 0000 2bb0 423a
000001f0: f401 0000 f401 0000 2eef dd3a f401 0000
00000200: 12c4 0138 b3fe 153a f401 0000 f401 0000
00000210: 5a03 6b3a 6526 bd3a 0823 a13a 6009 983a
00000220: d768 2939 523a fb39 0000 0000 b912 6c3a
00000230: 1e35 4d38 2522 e735 eab9 8c3a 79fe 4239
00000240: f401 0000 f401 0000 b897 3639 f401 0000
00000250: 1d15 fd39 f401 0000 b5e0 993a f401 0000
00000260: ae21 b439 99c4 b139 f401 0000 924c 233a
00000270: 0000 0000 f401 0000 f937 ca39 0000 0000
00000280: 8a26 4c3a 290d 563a f401 0000 f401 0000
00000290: 44c0 f339 8c2b 083a 0600 3b3a 6e9c 9b3a
000002a0: 6937 8739 efbf c639 f401 0000 ea84 083b
000002b0: e818 3539 16d0 8a38 709c c53a 81bc 8138
000002c0: f401 0000 f401 0000 4e77 8137 f401 0000
000002d0: 8a55 c23a f401 0000 22f3 e73a f401 0000
000002e0: 837f 213a 6367 573a f401 0000 5617 903a
000002f0: f401 0000 f401 0000 0e68 243a f401 0000
00000300: 97c5 1939 bba1 ea38 f401 0000 f401 0000
00000310: 594d 0c38 8fad 5037 fa61 0d39 65dc b438
00000320: e9f4 a837 f07c 5338 f401 0000 1550 5339
00000330: fb50 ba37 3246 5237 1490 1b39 8ac4 1835
00000340: f401 0000 f401 0000 c7c1 3e35 f401 0000
00000350: 8181 6f39 f401 0000 7a36 fb38 f401 0000
00000360: 6d2b 2538 a091 b238 f401 0000 64d5 9538
00000370: f401 0000 f401 0000 124a fe38 0000 0000
00000380: 14cd 1e3a 962c 253a 0000 0000 f401 0000
00000390: f69d 863a 2e0c 823b faa7 133b c1b0 043b
000003a0: 4ead 0d39 3281 083a 0000 0000 8d89 fe3a
000003b0: e4ca b439 8fce 0138 4de7 393a 8d88 df39
000003c0: f401 0000 f401 0000 5ad4 203a f401 0000
000003d0: 16e9 7a37 f401 0000 94f8 223b f401 0000
000003e0: 63d5 873a a972 d838 f401 0000 7521 3e3a
000003f0: 0000 0000 f401 0000 9a3e df3a f401 0000

exp_avg f4 [16]
-0.008643754 -0.004940275 0.02064012 0.016587378 0.007336591 -0.055976994 -0.020669857 0.0027601027
0.015207278 6e-45 6e-45 -0.0024666756 0.04630371 0.004452755 -0.0005633057 -0.017297542
00000000: 889e 0dbc 08e2 a1bb 7815 a93c 41e2 873c
00000010: c967 f03b 2248 65bd d553 a9bc d7e2 343b
00000020: f227 793c 0400 0000 0400 0000 f3a7 21bb
00000030: f6a8 3d3d 6be8 913b ceaa 13ba 93b3 8dbc

exp_avg_sq f4 [16]
0.010074659 0.013627075 0.033810068 0.032608267 0.016333068 0.029800933 0.013484659 0.027315168
0.0053857616 7e-43 7e-43 0.037956316 0.020249307 0.026985904 0.010318535 0.009906698
00000000: 2f10 253c 1844 5f3c 6d7c 0a3d 3f90 053d
00000010: edcc 853c 1621 f43c c2ee 5c3c 0fc4 df3c
00000020: 0b7b b03b f401 0000 f401 0000 1578 1b3d
00000030: e0e1 a53c 8b11 dd3c 130f 293c b44f 223c

exp_avg f4 [3, 16]
-0.0023150067 -0.0012298935 5.7451984e-05 0.00023664121 0.000395165 0.00035134933 5.219141e-05 -0.0006029176
-0.00030140436 -6e-45 6e-45 -0.0014672831 -0.001783345 -0.0006473956 -0.0020073194 0.0001699776
-0.0017220975 -0.00039996795 6.4585765e-06 0.00019136864 0.0039884155 -0.0011519013 -0.00033446238 0.002091601
-0.00273002 6e-45 6e-45 -1.9803529e-05 -0.00014843873 -0.00010572817 -2.5603695e-05 0.0022117652
0.0040371055 0.0016298625 -6.3909e-05 -0.0004280093 -0.00438358 0.0008005537 0.00028227604 -0.0014886822
0.003031425 6e-45 -6e-45 0.0014870878 0.0019317874 0.00075312523 0.0020329244 -0.002381743
00000000: 5eb7 17bb 6134 a1ba 99f8 7038 e422 7839
00000010: 262e cf39 4f35 b839 1ae8 5a38 1d0d 1eba
00000020: cf05 9eb9 0400 0080 0400 0000 da51 c0ba
00000030: 21bf e9ba fcb5 29ba 3b8d 03bb 043c 3239
00000040: 01b8 e1ba cab2 d1b9 c0b6 d836 21aa 4839
00000050: 41b1 823b 65fb 96ba c85a afb9 3e13 093b
00000060: 23ea 32bb 0400 0000 0400 0000 c11f a6b7
00000070: 38a6 1bb9 61ba ddb8 84c7 d6b7 43f3 103b
00000080: b249 843b 1ca1 d53a e206 86b8 7066 e0b9
00000090: 22a4 8fbb 40dc 513a 73fe 9339 e31f c3ba
000000a0: dfaa 463b 0400 0000 0400 0080 63ea c23a
000000b0: 0734 fd3a 616d 453a d03a 053b 0417 1cbb

exp_avg_sq f4 [3, 16]
0.00017714064 3.7480382e-05 8.979133e-06 7.940163e-06 1.0475726e-05 4.772826e-06 1.272819e-07 3.6096633e-05
4.7763453e-05 7e-43 7e-43 2.4247112e-05 0.00030532735 1.9405832e-05 0.00010361037 3.1758773e-05
3.971885e-05 4.316724e-06 6.1528885e-06 3.869541e-06 2.6838927e-05 2.503068e-05 6.1192422e-06 3.124385e-05
3.2374195e-05 7e-43 7e-43 1.1787138e-05 1.6525444e-05 3.7776704e-06 4.3951277e-06 7.5474985e-05
0.00019132566 3.6143167e-05 1.4618748e-05 1.1533763e-05 3.4222954e-05 2.5148678e-05 6.1487585e-06 6.3970394e-05
7.566284e-05 7e-43 7e-43 1.9180905e-05 0.0003105179 1.8070588e-05 0.000102273465 8.651298e-05
00000000: d4be 3939 4134 1d38 15a5 1637 be36 0537
00000010: e7c0 2f37 4326 a036 fbaa 0834 7766 1738
00000020: 9e55 4838 f401 0000 f401 0000 4766 cb37
00000030: 5814 a039 b5c9 a237 6549 d938 b934 0538
00000040: ca97 2638 60d8 9036 e974 ce36 1bd7 8136
00000050: 2824 e137 faf8 d137 e453 cd36 d40b 0338
00000060: 87c9 0738 f401 0000 f401 0000 5fc1 4537
00000070: 1fa0 8a37 e283 7d36 dc79 9336 5348 9e38
00000080: 979e 4839 6e98 1738 0b43 7537 2381 4137
00000090: 9e8a 0f38 60f6 d237 6f51 ce36 d827 8638
000000a0: 2ead 9e38 f401 0000 f401 0000 aee6 a037
000000b0: 02cd a239 4b96 9737 a67b d638 4d6e b538

exp_avg f4 [3]
-0.0037515715 -0.0028448487 0.006596432
00000000: eddc 75bb a470 3abb e226 d83b

exp_avg_sq f4 [3]
0.0013762583 0.0006606212 0.0016486802
00000000: 9163 b43a 8a2d 2d3a 8718 d83a

loss f8 []
0.13597982667852193
00000000: 0000 4076 c967 c13f
