28_no_regu_epoch_edge_detector.pth (torch, 25382 bytes, 19 tensors)

model.0.weight f4 [32, 25]
00000000: 8f37 d9bb 7e47 efbb c086 aabb 2a72 90bb
00000010: b8a7 3cbb 7295 c1bb 4365 08bc 94fe 0abc
00000020: 7409 e6ba 0759 b8ba c394 d2bb d462 e8bb
00000030: a43a ddbb 9d04 c53a 577e 7aba ef27 c4bb
00000040: b92d 04bc 23b9 d2bb a8c7 59ba 82be 85bb
00000050: 1b8a 83bb 07d3 bebb 7caa 9fbb 37af 29bb
00000060: 94a6 30bb 2979 033d bd01 863c af6f 043c
00000070: efef 87bc 694e f53c e49e 51be d256 df3c
00000080: 2717 af3e be5f 223e c198 53be a48b b7be
00000090: b7da 63be c605 483f e96c d3bd d1db d1be
000000a0: da71 4abe 852c 663d e5a2 983e 391e a63d
000000b0: cf82 82be 5817 903d bde2 07bc 4b22 ed3c
000000c0: c1a1 87bb 4c0f ad3c 5e0c eabc 11b6 443e
000000d0: fc2a 1a3e 2c3c 833d 6499 0a3e 35f2 083e
000000e0: 2931 223e 7ac9 923d bed2 c43c 9367 4cbd
000000f0: fd55 bfbc 8ae7 68be a600 23bf 4ffa c8be
00000100: 588c 3dbe e05e 1b3d 2fef c0bc 6a31 633d
00000110: 0185 47bd f907 1339 00cc 0c3e 8219 843e
00000120: 7a84 903e 7672 953d 6214 473d 674e 1a3e
00000130: 4794 d33d 5eab 633d 5027 203e acd5 6f3e
00000140: d057 363e 3407 0abe 97ec aabe 067d 3bbd
00000150: 4a27 b93e 858f cc3e 843f b0be 260e f8be
00000160: 835d 34be 88f7 a43e e8a8 4e3e 72fe 683c
00000170: b6c2 4abd daec 85be 857a 50bd 2e76 e7bc
00000180: e02e d6bd fced bdbc 580b b4bd acb9 e1bd
00000190: 4ff7 0fbd d98f 89bd 6137 1bbd a69d 69bd
000001a0: 5fe9 183e 6212 f1bc d7f4 2f3e 4768 74bc
000001b0: bf82 0fbe 59d7 573e 198c 19be edbf 1a3f
000001c0: 28a4 f3bd 12b8 4cbf bf96 f83c 92f4 ba3c
000001d0: 1bda 2e3e acef 42bd fc00 4fbd 7265 2d3e
000001e0: b411 90bd f26f 693d 7f76 893d c2b7 a7bd
000001f0: 8713 d23c b783 e53c 4224 b8bd 891e 74bd
00000200: f547 6b3d cda1 c0bc 89ce 1abe 7867 033e
00000210: 1270 9e3e 1647 a43d efa1 ccbd 9718 ba3d
00000220: c2ad 953e d7f6 133f 83cf 2c3d fbb4 babd
00000230: ce7e 533d f783 a6be 58ed e0be 4be2 2dbf
00000240: 374f a4bd c932 d33c 628a 0d3e b71b ce3d
00000250: f1e5 c13d 9dcd ecbc 6abf 9ebb 340d 15bc
00000260: 228a f6bb 8337 c2ba a011 c9ba 17ce e5ba
00000270: 4424 70bc 19f9 a1bc e53d aebb c848 40bb
00000280: d5b7 94bb b6fc 2dbb 2720 0b3c 2013 2ebc
00000290: 81f7 6fbc b40e 27bc d901 33bb 2755 ab3a
000002a0: 3f4e 39bb 87df f8bb 7a7f dcbb 90cd 51bb
000002b0: 2966 343a e5b6 35bb eb45 98bb cfef 3e3e
000002c0: db87 e9bd c404 b73d 703a d83c 90b4 6c3d
000002d0: d2f4 e638 fb5a cfbd b982 c1be da63 87be
000002e0: 9145 353d c8d2 763d 3451 873c 0bd2 9bc0
000002f0: 4369 2ebe a871 153e b868 083e fd34 71bc
00000300: aa5d 03bf 72b2 f5bd c27b 343e d3d3 8c3d
00000310: 6c92 16be 5f08 163e e11b aabd 13b0 b13d
00000320: 9dd8 88bd acba b8bd dc34 c03d f23b 8c3d
00000330: b252 b73d 7890 b3bd fa8b 973d bc45 39bd
00000340: a53c 163e 39d6 7d3d c5ea 603c df9a 113e
00000350: 085a bcc0 7593 95be b698 8b3d 3c56 883e
00000360: 8f27 6ebe 18e8 c0be f2dc 36be f751 0fbe
00000370: 7f9c 49be 659f 713d 6738 29be 018f 823e
00000380: 57ca 45bb 2444 4ebb 5feb bbbb 35ee 0dbc
00000390: 212c 54bc d892 49bc 6af9 43bb 1a74 2a3b
000003a0: 72da 3cbb d3b1 7cbc 9e8d 71bc a936 d6bb
000003b0: 82c8 843b 3348 cfbb 812f 9fbc 7dd9 6cbc
000003c0: 4138 c2bb f0d7 9cba 28c0 14bc 1db9 8cbc
000003d0: f6a6 48bc ed14 93ba a14d b33a 0787 b8bb
000003e0: 3cdf 51bc 726a 6fbc c2be 283e 5e13 913e
000003f0: 0a59 953e fc3f 2d3e 8c14 c23d 2248 823e
-0.0066289376 -0.0073022237 -0.0052040517 -0.0044081407 -0.0028786492 -0.005907708 -0.008324924 -0.008483548
-0.0017550425 -0.0014064618 -0.006426425 -0.0070918594 -0.0067513753 0.0015031282 -0.0009555569 -0.005986206
-0.008067542 -0.0064307614 -0.0008307644 -0.004081548 -0.004014266 -0.0058234963 -0.0048726182 -0.002589179
-0.0026954757 0.03209797 0.01635825 0.008083268 -0.016593901 0.029944615 -0.20470768 0.027263079
0.3419735 0.15856835 -0.2066374 -0.35848725 -0.22251402 0.7813381 -0.10323507 -0.4098802
-0.19769993 0.0561948 0.2981178 0.08111233 -0.25490424 0.070357025 -0.008293805 0.028947016
-0.0041391556 0.021125458 -0.02857035 0.19210078 0.1505546 0.06407961 0.13535076 0.13373645
0.15839066 0.07167335 0.024026271 -0.049903464 -0.023356432 -0.22744575 -0.63672864 -0.3925347
-0.18510568 0.037932277 -0.023551552 0.055467047 -0.048710827 0.00014021982 0.13749695 0.2580071
0.28226072 0.07297222 0.048603423 0.1506897 0.10331016 0.05558335 0.15639997 0.23421353
0.17806935 -0.1347931 -0.3338363 -0.04577353 0.36162788 0.39953247 -0.3442346 -0.48448294
-0.17613797 0.322201 0.2018162 0.014220821 -0.049502097 -0.26157266 -0.050898094 -0.028254595
-0.104581594 -0.023184769 -0.08791226 -0.11021742 -0.03514796 -0.0671689 -0.03789461 -0.05703511
0.14932774 -0.02942771 0.17183243 -0.01491744 -0.1401472 0.21078242 -0.1499485 0.60449106
-0.11896545 -0.7996837 0.030345319 0.022821698 0.17075388 -0.04759185 -0.05053805 0.1693323
-0.070346266 0.056991525 0.067120545 -0.08189346 0.025644077 0.028016908 -0.08991291 -0.059599433
0.05744167 -0.023514653 -0.1511785 0.12832439 0.30944878 0.08021371 -0.09991824 0.090867214
0.2923413 0.5779852 0.042190086 -0.091165505 0.051634602 -0.32522556 -0.4393108 -0.6792342
-0.080229215 0.025781052 0.1382232 0.1006388 0.09467686 -0.028906638 -0.0048445957 -0.009097386
-0.007523791 -0.0014817569 -0.0015340336 -0.0017532733 -0.014657084 -0.0197721 -0.005317437 -0.0029340256
-0.004538516 -0.0026548333 0.008491552 -0.010624677 -0.014646412 -0.010196377 -0.0027314334 0.0013071642
-0.0028275398 -0.007595006 -0.0067290636 -0.0032013394 0.0006881678 -0.0027727422 -0.0046470067 0.18646167
-0.114028655 0.08936456 0.026395053 0.057789385 0.00011012856 -0.10124775 -0.37795046 -0.26443368
0.044255797 0.06025961 0.016518213 -4.86939 -0.17032342 0.14594138 0.13321197 -0.014722106
-0.51314795 -0.11996926 0.17625335 0.0687634 -0.14704293 0.14651631 -0.08306099 0.086761616
-0.06681941 -0.0901998 0.09385082 0.06847371 0.0895132 -0.087677896 0.07399745 -0.04523252
0.14671572 0.061971877 0.013727848 0.14219235 -5.88599 -0.29214063 0.06816237 0.26628292
-0.23257278 -0.37677073 -0.17857721 -0.13996111 -0.19688605 0.0589899 -0.16525422 0.25499728
-0.0030180418 -0.003147372 -0.0057348455 -0.00866275 -0.012949974 -0.012303077 -0.00299033 0.0026009143
-0.0028816727 -0.015423256 -0.014743237 -0.0065372777 0.0040522227 -0.0063257455 -0.019431831 -0.01445615
-0.005927116 -0.001196621 -0.009079017 -0.017178113 -0.012246838 -0.0011221446 0.0013679751 -0.005631331
-0.012809571 -0.014612781 0.16479018 0.28335088 0.29169494 0.1691894 0.09476575 0.25445658

model.0.bias f4 [32]
00000000: a004 f3ba 36d8 c0bc ee7f 10be d5d7 82bd
00000010: 941b 19bc 6be1 1abc 00c8 0cbb 093d b03c
00000020: 9940 ec3c f2d4 f1bb 5a5e b9bd 169c 42ba
00000030: 8d3d 62bd a0c4 d2b9 22b2 46bd 9950 60bc
00000040: f080 353d 2dc8 583d 3c6b 83bd 4aef 01ba
00000050: 6c55 c93c 3e74 4dbd f5bd 94bd 6ecc 8f3a
00000060: 7c5a dcbc d3f1 133d c71c 413d 355f 0a3d
00000070: b7e1 c2bb 14ca 8bba 84e4 daba 0de5 4fbb
-0.0018540807 -0.023540597 -0.14111301 -0.06388823 -0.009344954 -0.009453158 -0.0021481514 0.021513479
0.028839396 -0.0073801214 -0.09051199 -0.00074237713 -0.05523448 -0.00040200818 -0.048509724 -0.013691091
0.044312418 0.052925278 -0.06416938 -0.00049566163 0.024576865 -0.050159685 -0.07262794 0.0010970959
-0.026898615 0.036119293 0.047146585 0.033782203 -0.0059473175 -0.0010665082 -0.0016700183 -0.0031722218

model.2.weight f4 [16, 32]
00000000: 9b48 873b 0cec 92bf 3762 093f 541e 583f
00000010: 7eab e5be c1a1 ecbe 9880 38bc 8f9f 933f
00000020: ad43 da3f e26b 82b8 5f78 733f acb6 9939
00000030: 0389 673f 6e9f bcbe 8aaa 503f 636e 483d
00000040: b908 823f 1142 cbbe 3e97 2abf f8c9 573a
00000050: c9dd 143f b98a ee3d 99c1 e43d d3ff fbbd
00000060: e038 7dbf 57fe 803f 6d72 d9be 3591 193f
00000070: 3c31 c2bd c588 6fba bf45 eb38 922a 6eba
00000080: 9e33 1e3b 4933 6d3e 2afa 22bf 6687 f6be
00000090: b726 c2be 0c52 a23f 9ec8 c33a 7d92 5cbf
000000a0: 22fc a8bf 1e54 ac39 c7f1 da3d bc11 95bb
000000b0: 9821 9abe f17d ba3f 3b65 cdbe 27eb 143f
000000c0: ff81 ebbe 6c2a 463f 2142 fcbe 1ae8 87bb
000000d0: 4209 47be f4c4 30bf 71be 17bf 34d9 a33e
000000e0: bbfd 313f 810a 34bf 0c77 a23f 57bf f4be
000000f0: f8da 0f3f a5a6 30ba 0084 0439 c8f5 6dba
00000100: bd25 12ba ac88 a5bf bf44 f23d 9cc3 13bf
00000110: ae51 2a3f 371c ef3e eb59 a1bb eba5 78bf
00000120: f0c6 b5bf fdb7 b339 ecbb 43be 3a51 3cba
00000130: 3930 2c3e 7563 18bf adcd 11bf 74d5 8abc
00000140: ed75 31bf bffc 093f b9ce 2b3f 8f47 403b
00000150: a697 bdbe babb 6cbe 5b13 28be 821a 233f
00000160: 9491 783f 06cf 3dbf 66f6 9a3e bf17 b5be
00000170: e17e 8d3e 2b24 57b8 44cb d739 5ec2 0039
00000180: f9eb 4b3b be34 023f 7b0f 153e b21d df3e
00000190: cfdc 13bf 0a79 f0bf 8e64 ee39 7fc4 823f
000001a0: cd44 c23f 7574 473c 9f95 973e 3111 20b9
000001b0: 5a3f d2bc eaca e1bf 1662 373f b040 ba3d
000001c0: ec4a 4e3f e911 c8be f60e a5bf 8944 d9bb
000001d0: dfe2 5e3f 9fa9 01bd b4f0 683f c628 6bbe
000001e0: 34d0 cbbe 2471 473f 6b3e f7be 7725 963f
000001f0: d015 d6bd 20bd 23b9 9cb5 bab8 9aab 48bb
00000200: 4c87 31bb e1cd 75bf a90c 703c e218 353f
00000210: e9d2 b0be d379 03bf a1fa 8e3c 21c1 913f
00000220: 7866 ce3f 4778 2bbc cb14 8fbe 99ec 06bb
00000230: f89c ee3d 6a4d 20bd 5c81 4d3f 4d5b 263d
00000240: c0f5 a13f 928d 7f3e 286c 3fbe 7945 3dba
00000250: e6ba 7d3f a82c 833e ab13 6c3e 5758 833e
00000260: 1bfc 81be c2df 813f d1d9 9a3d cb46 a83f
00000270: 897f 283d f593 89b9 ed79 acb8 2126 573b
00000280: a8b0 9cba da51 afbf 3950 49be afee 0abf
00000290: 0f10 05bf 7305 44bf 06d2 893b 1d0e 853f
000002a0: 894d 963f f197 a33b 9c19 abbd 9565 58b9
000002b0: 0539 27be 3ae5 66bf 4fd7 8ebd 82e4 73bf
000002c0: 48c9 613f 7005 bebb 33c2 a5bf 1c1c dabb
000002d0: 9a03 b13d f07b d0be 1ea8 31bf e46a c3be
000002e0: 8cea 83bf 0fa2 6d3f acde a2bd a63f 163f
000002f0: 93f0 69bf 82e7 ba39 1859 09ba c2a3 8ebb
00000300: 843a 4ebb a0f1 e4bf 37c0 583e 142b ebbe
00000310: 794e 273f 6ead a1bc 7bcd c2bb 79a0 82bf
00000320: 2c5c 92bf 1d5d d2ba a185 cdbd 4c5d 083a
00000330: 5854 893d d891 05bf 4c00 d5be 9e3d d43c
00000340: 14fd 49bf 2060 a23d 5ab2 3b3f c985 213b
00000350: 0acc e0be 5908 9c3d 1d24 2dbd 02e9 0c3f
00000360: c3e1 9a3f 33ac 3abf ab7a 913e 5ea3 82be
00000370: c7ac c43d 6288 b939 20b5 d2b9 5b90 49ba
00000380: 4b75 1bba 5a0b b6bf be9f ac3d 8194 e2be
00000390: 850f 193f 483c 063d c6ab ea35 76fc 80bf
000003a0: d4e9 92bf 1022 85bb b4f6 96bc 54ed 22ba
000003b0: ba53 02be 05b5 96bc 70de 00bf 603c 8b3e
000003c0: 1181 6ebf ed00 153e 9f5f 2a3f 9f50 5a3b
000003d0: d2a8 dbbe e5cc 03be 7b44 88be 1a93 ff3e
000003e0: f869 a73f 52a1 42bf 90f2 e73e 4b66 9dbe
000003f0: efdd bf3d d3a4 40ba 1b2b d6ba dc1b 0db9
0.0041285283 -1.1478286 0.5366549 0.8442128 -0.448574 -0.46217158 -0.011261128 1.1533068
1.7051903 -6.218978e-05 0.95105547 0.00029318535 0.9044344 -0.36840385 0.8151022 0.048933398
1.0158912 -0.39698842 -0.6663703 0.0008231695 0.5815092 0.11647553 0.11169738 -0.12304654
-0.9891491 1.0077618 -0.42470112 0.59987193 -0.09482047 -0.0009137507 0.000112186644 -0.0009085323
0.0024139653 0.23164095 -0.6366297 -0.48150176 -0.37920162 1.2681289 0.0014937108 -0.86161023
-1.3201945 0.0003286907 0.106906466 -0.0045492332 -0.30103755 1.4569684 -0.40116295 0.58171314
-0.45997617 0.7740848 -0.49269202 -0.0041475417 -0.19437125 -0.69050527 -0.59274966 0.3200165
0.69527787 -0.7032853 1.269258 -0.4780223 0.56193495 -0.0006738699 0.00012637675 -0.0009077457
-0.00055750814 -1.2932334 0.118295185 -0.5772035 0.66530883 0.46701214 -0.004924049 -0.9712817
-1.4201336 0.00034278622 -0.19114655 -0.00071837346 0.1681527 -0.5952676 -0.5695446 -0.016947486
-0.69320565 0.53901285 0.6711231 0.0029339527 -0.3702976 -0.23118487 -0.16413634 0.6371232
0.97097135 -0.7414402 0.30266112 -0.3536968 0.27635863 -5.129368e-05 0.0004115944 0.00012279439
0.0031115992 0.5086173 0.14556687 0.43577343 -0.577588 -1.8786938 0.00045469817 1.0216216
1.5177246 0.012173762 0.2960634 -0.00015265193 -0.025664974 -1.764005 0.7163404 0.090943694
0.8058307 -0.39076164 -1.2895191 -0.0066304845 0.8706493 -0.031655904 0.90992284 -0.22964773
-0.39807284 0.77907014 -0.4828981 1.1730183 -0.10453379 -0.00015615346 -8.9029985e-05 -0.003061986
-0.00270887 -0.9601727 0.014651456 0.70741093 -0.34535912 -0.51357764 0.017453494 1.1387063
1.6125021 -0.010465688 -0.2794555 -0.00205878 0.11651033 -0.039136328 0.8027551 0.040614415
1.2653122 0.24956349 -0.18693602 -0.000722013 0.9911331 0.25620008 0.23054378 0.25653335
-0.25387654 1.014641 0.075610764 1.3146604 0.041137252 -0.00026240913 -8.2243096e-05 0.0032829123
-0.0011954503 -1.3696854 -0.19659509 -0.5427045 -0.5197763 -0.76570815 0.004205945 1.0394932
1.1742412 0.004992478 -0.08354494 -0.00020637207 -0.16330345 -0.9019352 -0.069746606 -0.9527055
0.88197756 -0.005798988 -1.294989 -0.006656183 0.08643265 -0.40719557 -0.6939715 -0.3816749
-1.0305953 0.92825407 -0.079526275 0.5869087 -0.9138271 0.0003564917 -0.0005239411 -0.0043530175
-0.0031467983 -1.7886238 0.21167074 -0.45931304 0.65354115 -0.019736018 -0.0059449053 -1.0205222
-1.1434379 -0.0016049478 -0.10035253 0.00052018906 0.067055404 -0.52175665 -0.4160179 0.025908288
-0.7890179 0.07928491 0.7331902 0.0024646393 -0.4390567 0.0761878 -0.04227077 0.5504304
1.2100147 -0.72919005 0.284139 -0.25515264 0.09603267 0.00035387563 -0.0004018927 -0.0007689052
-0.0005930259 -1.4222214 0.08428906 -0.44253924 0.59789306 0.032772332 1.7484351e-06 -1.0077045
-1.1477609 -0.0040628985 -0.018428184 -0.0006215174 -0.12727252 -0.018396864 -0.5033941 0.271945
-0.9316569 0.14551134 0.66552156 0.0033312214 -0.42902237 -0.1287113 -0.26614746 0.49916917
1.3079214 -0.76027405 0.45302248 -0.30742106 0.09368502 -0.00073487795 -0.0016339751 -0.00013457186

model.2.bias f4 [16]
00000000: 26bb f93d 65f9 c63c 1bb5 883d ddf8 ca3e
00000010: b001 3cbd e3f0 0b3f 6420 043d 69f0 573d
00000020: c4b9 323e f153 053c 839d 3d3e 3a23 d23c
00000030: b0e6 4f3e f551 c0ba f2fd c83e 2047 7ebb
0.12193899 0.024288842 0.06675168 0.39642993 -0.045900047 0.5466444 0.032257453 0.052719507
0.17453676 0.008137689 0.18517117 0.025651563 0.20302844 -0.0014672863 0.39256245 -0.0038799718

model.4.weight f4 [2, 16]
00000000: 8e88 3bc0 a333 4a40 20d5 2840 5537 06c0
00000010: 7081 bbbf 901c d0c0 a8d2 3b40 0e3e 3540
00000020: d6d1 df3f bfc8 4340 c37b e43f 666e 8840
00000030: e9b8 ed3f cb16 d4ba b895 fdbf 43fe 49b9
00000040: 5380 3b40 6133 4ac0 b5bc 28c0 bc34 0640
00000050: 918a bb3f 9b0f d040 b4d5 3bc0 2571 35c0
00000060: ee15 e0bf 1aa3 43c0 8e99 e4bf 8275 88c0
00000070: bada edbf bbe3 9a39 37c7 fd3f 589c 1ebb
-2.9302096 3.1594017 2.638008 -2.0971272 -1.4648876 -6.5034866 2.9347324 2.8319125
1.7485912 3.0591276 1.7850269 4.2634764 1.8572055 -0.0016181109 -1.9811316 -0.00019263574
2.9297073 -3.159386 -2.6365178 2.0969687 1.4651662 6.501905 -2.9349184 -2.8350308
-1.7506692 -3.05683 -1.7859361 -4.264344 -1.8582375 0.0002954284 1.982642 -0.0024202075

model.4.bias f4 [2]
00000000: 16f9 8ebe cafd 8e3e
-0.27924412 0.27928

exp_avg f4 [32, 25]
00000000: 0400 0000 0400 0000 0400 0000 0400 0000
00000010: 0400 0000 0400 0000 0400 0000 0400 0000
00000020: 0400 0000 0400 0000 0400 0000 0400 0000
00000030: 0400 0000 0400 0000 0400 0000 0400 0000
00000040: 0400 0000 0400 0000 0400 0000 0400 0000
00000050: 0400 0000 0400 0000 0400 0000 0400 0000
00000060: 0400 0000 b080 523d 610f 743d 4a7f 853d
00000070: 5abd 873d 1597 893d 4f57 7d3d 5a97 7e3d
00000080: 78ae 833d 2451 893d b65f 8a3d 3feb 7c3d
00000090: a734 7d3d dda5 953d 64cb 983d 0e26 8a3d
000000a0: af7d 7d3d d174 803d 0993 873d 03b8 8f3d
000000b0: 60c9 8a3d e198 803d beb3 813d d353 833d
000000c0: ca77 7b3d 6dbd 883d 7a97 dd3b cd6e 033c
000000d0: f922 0d3c 422b 153c 2485 173c 2d97 db3b
000000e0: fe7d ea3b 13cc 0b3c 2213 153c b340 153c
000000f0: 3397 db3b 55bb db3b d8b9 ff3b cdb5 133c
00000100: a9c0 143c 4908 f23b d4d9 f13b 763e fa3b
00000110: 0077 143c 0739 163c 6bd6 f13b 5bcd f13b
00000120: 2534 f23b b548 093c 46b3 123c fe00 84bb
00000130: 171f 92bb 2a3f 8abb a2c1 47bc fabb 75bc
00000140: 7e36 84bb 4c89 86bb a0eb 94bb 6a85 18bc
00000150: df84 75bc a65e 84bb 635c 8abb c747 a3bb
00000160: 86d2 1abc 298e 76bc 7919 333a 2866 e338
00000170: fc7f 2dba 87de e2bb 27a2 6fbc 83c9 cf39
00000180: 6642 73b9 7c18 2bba 347e 00bc 7afb 79bc
00000190: 02ba b7bb 3b5a 97bb 9f74 96bb b132 8bbb
000001a0: aa00 8bbb c44b 57bc 96d4 33bc 1de1 87bb
000001b0: 264a 8bbb 194f 8cbb 301d 56bc ac4f 54bc
000001c0: 3449 40bc 68b2 0abc 0821 8ebb 5b60 54bc
000001d0: f0a0 4dbc 40a1 41bc 1520 edbb 9b2f 94bb
000001e0: f8f5 51bc ae66 4bbc 9e9c 3fbc a3e3 bfbb
000001f0: 9f8e b6bb 2d68 0fbb 86f3 fcba a5e6 31ba
00000200: ba1f 23ba eae7 17ba 34d5 23bc 5502 0fbc
00000210: e58c 81ba 7460 14ba e483 9db8 cf18 22bc
00000220: 3771 20bc 7152 2bbc 3e7b c7bb ef92 6939
00000230: 3c3d 1dbc fb3f 18bc 7304 11bc c141 5dbb
00000240: ce48 dbb9 c36d 19bc 1246 16bc 0e13 0ebc
00000250: e679 8fba 7762 4eba 0400 0000 0400 0000
00000260: 0400 0080 0400 0080 0400 0080 0400 0000
00000270: 0400 0000 0400 0000 0400 0000 0400 0080
00000280: 0400 0000 0400 0000 0400 0000 0400 0000
00000290: 0400 0080 0400 0000 0400 0000 0400 0000
000002a0: 0400 0000 0400 0000 0400 0000 0400 0000
000002b0: 0400 0000 0400 0000 0400 0000 71f0 0234
000002c0: f398 0334 104c 0334 2c83 45b5 e88f a0b5
000002d0: 5d16 a22f c9cb 932f 2d76 c631 2c51 48b5
000002e0: 798c a0b5 ef0d e42e f532 ab2f a2cd 6831
000002f0: 6e69 4cb5 e289 a0b5 0611 0bb0 e136 882f
00000300: a5bf 3cae 62ec 55b5 408a a0b5 b4b4 86af
00000310: e6cd a82f a0fa a82f 78be 5bb5 c477 a0b5
00000320: 9110 3fb6 5b01 3fb6 c401 3fb6 c5fc 83b6
00000330: daf1 88b6 5e01 3fb6 5d01 3fb6 6001 3fb6
00000340: 38fc 83b6 ebf0 88b6 ea14 eeb5 2696 53b5
00000350: 78da be2c 8c72 93b5 ecd6 e5b5 45a3 89b0
00000360: 94e6 ba2c c2db 8025 b46f 93b5 80d7 e5b5
00000370: 52a4 48b0 a249 f4aa 6302 6fa9 386f 93b5
00000380: 7ad4 e5b5 0400 0080 0400 0080 0400 0000
00000390: 0400 0080 0400 0080 0400 0000 0400 0080
000003a0: 0400 0080 0400 0080 0400 0080 0400 0000
000003b0: 0400 0000 0400 0080 0400 0080 0400 0080
000003c0: 0400 0000 0400 0000 0400 0000 0400 0080
000003d0: 0400 0000 0400 0000 0400 0080 0400 0080
000003e0: 0400 0080 0400 0080 9721 923b 4ba3 aa3b
000003f0: 1d03 ab3b 604b a43b 4d72 a13b 727f 6c3b
6e-45 6e-45 6e-45 6e-45 6e-45 6e-45 6e-45 6e-45
6e-45 6e-45 6e-45 6e-45 6e-45 6e-45 6e-45 6e-45
6e-45 6e-45 6e-45 6e-45 6e-45 6e-45 6e-45 6e-45
6e-45 0.051392257 0.05958498 0.06518419 0.06627913 0.0671827 0.061850842 0.06215606
0.06429762 0.067049295 0.06756537 0.061747786 0.06181779 0.073070265 0.07460669 0.067455396
0.06188744 0.06272281 0.066198416 0.07017519 0.067766905 0.06279159 0.06333111 0.064124726
0.061393537 0.06676755 0.006762442 0.008022022 0.008614295 0.009104552 0.009248052 0.006701371
0.0071561327 0.008532542 0.0090988 0.009109664 0.006701374 0.0067056813 0.0078041367 0.009015513
0.009079137 0.0073862416 0.0073807035 0.0076368405 0.009061575 0.00916887 0.007380297 0.0073792166
0.00739147 0.008379151 0.008953875 -0.0040284386 -0.0044592726 -0.0042189555 -0.012192162 -0.01499843
-0.0040348163 -0.0041057225 -0.0045446903 -0.009309152 -0.014985292 -0.0040396033 -0.004222439 -0.0049829218
-0.009449607 -0.015048542 0.0006832104 0.000108432316 -0.00066184974 -0.0069235 -0.0146260625 0.00039632255
-0.00023199021 -0.0006526781 -0.007842589 -0.015257711 -0.0056068907 -0.0046189106 -0.004591539 -0.0042479862
-0.0042420225 -0.0131406225 -0.010975977 -0.0041467086 -0.0042507825 -0.00428189 -0.013068482 -0.012958448
-0.011736203 -0.008465387 -0.0043374337 -0.012962426 -0.0125505775 -0.01181823 -0.0072364905 -0.0045222766
-0.012814991 -0.012414617 -0.011695055 -0.005855994 -0.005571201 -0.0021882162 -0.001929865 -0.0006786383
-0.0006222684 -0.0005794751 -0.009999562 -0.008728583 -0.0009883909 -0.00056601246 -7.51091e-05 -0.00989361
-0.0097926175 -0.010456667 -0.0060876897 0.00022275349 -0.009597119 -0.009292598 -0.008851158 -0.0033761116
-0.0004182518 -0.009364548 -0.0091719795 -0.008671535 -0.0010946363 -0.0007872949 6e-45 6e-45
-6e-45 -6e-45 -6e-45 6e-45 6e-45 6e-45 6e-45 -6e-45
6e-45 6e-45 6e-45 6e-45 -6e-45 6e-45 6e-45 6e-45
6e-45 6e-45 6e-45 6e-45 6e-45 6e-45 6e-45 1.2194666e-07
1.2255968e-07 1.2227997e-07 -7.35791e-07 -1.1962811e-06 2.9483518e-10 2.6883942e-10 5.7759935e-09 -7.4623927e-07
-1.1961812e-06 1.0370715e-10 3.1140926e-10 3.3877332e-09 -7.614934e-07 -1.1961058e-06 -5.0592097e-10 2.477725e-10
-4.2916466e-11 -7.9692666e-07 -1.1961165e-06 -2.4502855e-10 3.0705322e-10 3.0737102e-10 -8.1861026e-07 -1.1955785e-06
-2.847086e-06 -2.8462007e-06 -2.8462246e-06 -3.9335305e-06 -4.081271e-06 -2.8462014e-06 -2.8462011e-06 -2.8462018e-06
-3.9334664e-06 -4.0811624e-06 -1.7738469e-06 -7.882212e-07 5.4243797e-12 -1.0985691e-06 -1.712438e-06 -1.0014466e-09
5.3120373e-12 2.2353374e-16 -1.0984863e-06 -1.7124548e-06 -7.299309e-10 -4.33942e-13 -5.307073e-14 -1.0984722e-06
-1.7123668e-06 -6e-45 -6e-45 6e-45 -6e-45 -6e-45 6e-45 -6e-45
-6e-45 -6e-45 -6e-45 6e-45 6e-45 -6e-45 -6e-45 -6e-45
6e-45 6e-45 6e-45 -6e-45 6e-45 6e-45 -6e-45 -6e-45
-6e-45 -6e-45 0.0044595706 0.0052074543 0.005218877 0.005013868 0.004926956 0.0036086706

exp_avg_sq f4 [32, 25]
00000000: f401 0000 f401 0000 f401 0000 f401 0000
00000010: f401 0000 f401 0000 f401 0000 f401 0000
00000020: f401 0000 f401 0000 f401 0000 f401 0000
00000030: f401 0000 f401 0000 f401 0000 f401 0000
00000040: f401 0000 f401 0000 f401 0000 f401 0000
00000050: f401 0000 f401 0000 f401 0000 f401 0000
00000060: f401 0000 4fcc 773d ea9a 803d aa20 8b3d
00000070: 024f 8b3d e1e6 833d 9f58 783d bd7d 833d
00000080: 44ea 903d c929 913d 0d57 853d aaef 7a3d
00000090: 00e1 803d b650 9b3d a3b4 873d f35b 843d
000000a0: c53f 803d 4bae 843d a96b 893d a16b 8a3d
000000b0: 0367 853d bf1a 813d 8ea8 7d3d 1735 853d
000000c0: b932 843d 8f57 863d bb78 a939 413d ad39
000000d0: f929 c239 9bf8 ca39 a0f3 d039 9530 b239
000000e0: 7592 b239 8452 bb39 6fc7 cc39 3c0c c739
000000f0: d9db b439 8f5f ba39 2894 c939 5e0f d139
00000100: d544 eb39 f87d c439 945d e939 5f3b 1e3a
00000110: d720 283a 3091 243a a301 ee39 9049 f539
00000120: e570 1e3a 51fd 253a 7908 283a 5161 9f3c
00000130: 1fed 983c 677f 973c 127c 923c 9c4f 8b3c
00000140: f14a a03c 74e5 923c 852f 7c3c 58d5 7e3c
00000150: 807b 853c 7ed4 a03c c63c 8b3c d1ea 323c
00000160: 46d0 5a3c 7b04 753c 2f46 963c 7385 6a3c
00000170: 964a 203c 8266 2e3c a165 523c 8dcc 6f3c
00000180: 094a 493c 4615 263c 9a15 303c ecd5 3a3c
00000190: 8bf2 af3c e4c1 ac3c ddd1 9e3c df7b 8d3c
000001a0: c31c 783c 12d1 b53c 8d80 b33c 5c41 943c
000001b0: e087 6f3c 6bb7 5b3c b073 bb3c e838 ad3c
000001c0: 821d 723c a62d 393c 7f47 363c 88aa b03c
000001d0: 6e45 993c 00f6 6f3c 996b 4e3c 7be1 443c
000001e0: a3f8 9d3c 56e0 893c 8929 713c a699 5c3c
000001f0: 3b02 513c 8f27 763c 22b2 883c 3e93 933c
00000200: 388d 923c 1645 8f3c 21b0 663c f067 7f3c
00000210: 028f 8b3c d100 8c3c 6d15 883c 4bc1 5b3c
00000220: 5fb3 5c3c 1b43 4f3c dfde 5d3c c2fd 643c
00000230: 551d 4d3c cd45 393c 7fea 0f3c 529e 1a3c
00000240: 61a8 323c 55cf 213c a535 173c 87a9 0f3c
00000250: 85eb 0c3c f244 123c f401 0000 f401 0000
00000260: f401 0000 f401 0000 f401 0000 f401 0000
00000270: f401 0000 f401 0000 f401 0000 f401 0000
00000280: f401 0000 f401 0000 f401 0000 f401 0000
00000290: f401 0000 f401 0000 f401 0000 f401 0000
000002a0: f401 0000 f401 0000 f401 0000 f401 0000
000002b0: f401 0000 f401 0000 f401 0000 b22d b333
000002c0: ed6e 3931 277d 6234 4c79 c234 96a8 1435
000002d0: 2848 4331 4d4a 0c31 8d7b 0e33 d7c4 ed34
000002e0: f086 1c35 b1d4 4031 5669 0731 7ba5 452f
000002f0: f964 9b34 9da0 1c35 d849 3c31 a9e9 ba30
00000300: fb99 9431 3520 3134 cae2 1535 3d04 f133
00000310: 0a3c ef33 6315 f833 b9b1 2934 50a3 b534
00000320: 7934 8c36 f160 8836 2620 9936 63cd bf35
00000330: 20f4 ad35 99a5 8236 7fd8 8536 248a 8b36
00000340: 46f5 3436 dc07 ad35 fe61 8236 1190 1736
00000350: a576 962f 5337 1f35 5a41 8a35 7c86 d334
00000360: 02ca 7231 9b37 af2b 0e08 0e33 5ddf 3335
00000370: 766b d331 1e99 1e31 ea53 ed2c d18e dc31
00000380: 34c0 9b34 f401 0000 f401 0000 f401 0000
00000390: f401 0000 f401 0000 f401 0000 f401 0000
000003a0: f401 0000 f401 0000 f401 0000 f401 0000
000003b0: f401 0000 f401 0000 f401 0000 f401 0000
000003c0: f401 0000 f401 0000 f401 0000 f401 0000
000003d0: f401 0000 f401 0000 f401 0000 f401 0000
000003e0: f401 0000 f401 0000 8690 063b d86e 173b
000003f0: 796a 223b d1a4 163b ad98 053b ab08 013b
7e-43 7e-43 7e-43 7e-43 7e-43 7e-43 7e-43 7e-43
7e-43 7e-43 7e-43 7e-43 7e-43 7e-43 7e-43 7e-43
7e-43 7e-43 7e-43 7e-43 7e-43 7e-43 7e-43 7e-43
7e-43 0.06049758 0.062795475 0.067933396 0.06802179 0.06440521 0.06063139 0.06420467
0.070759326 0.07088048 0.06510744 0.061263718 0.06292915 0.07583754 0.066262506 0.064628504
0.06262163 0.06478556 0.06709988 0.0675881 0.065137886 0.063039295 0.061928324 0.06504267
0.06454987 0.06559669 0.00032324143 0.0003304277 0.00037033836 0.00038713668 0.00039854366 0.00033987002
0.00034059925 0.00035728898 0.00039058502 0.00037965353 0.00034496075 0.0003554788 0.00038448093 0.00039875036
0.00044873977 0.00037477887 0.00044510944 0.00060360687 0.0006413585 0.0006277738 0.00045396117 0.0004678485
0.0006044044 0.00063319976 0.0006409954 0.019455584 0.018667756 0.018493367 0.017881427 0.017005734
0.019566985 0.017931677 0.015392189 0.015553795 0.016294241 0.019632574 0.016996752 0.010920242
0.01335532 0.0149546815 0.018344013 0.014314043 0.009783408 0.010644557 0.012841613 0.014636171
0.012285718 0.010136908 0.010747338 0.011403542 0.021477958 0.021088548 0.01938718 0.01727098
0.015143576 0.022194419 0.021911884 0.018097572 0.0146197975 0.0134104295 0.022882313 0.0211453
0.014777543 0.011302387 0.011125444 0.02156569 0.018709864 0.014646053 0.0125988955 0.012016649
0.019283598 0.016830605 0.014719375 0.013464367 0.012756879 0.01502408 0.016686503 0.018014546
0.017889604 0.017488997 0.014080078 0.0155887455 0.017035965 0.017090233 0.01661178 0.013412784
0.0134705 0.0126502765 0.013541906 0.013976516 0.0125192 0.011308146 0.008783936 0.009437161
0.0109044025 0.009876092 0.009229098 0.008768446 0.008601074 0.008927571 7e-43 7e-43
7e-43 7e-43 7e-43 7e-43 7e-43 7e-43 7e-43 7e-43
7e-43 7e-43 7e-43 7e-43 7e-43 7e-43 7e-43 7e-43
7e-43 7e-43 7e-43 7e-43 7e-43 7e-43 7e-43 8.343649e-08
2.6984097e-09 2.109342e-07 3.622357e-07 5.537962e-07 2.841725e-09 2.0414916e-09 3.317432e-08 4.428791e-07
5.831089e-07 2.8060578e-09 1.9704962e-09 1.7975836e-10 2.8944467e-07 5.834825e-07 2.7399576e-09 1.3599691e-09
4.3248725e-09 1.6496126e-07 5.5836847e-07 1.1223208e-07 1.1140226e-07 1.155229e-07 1.5804007e-07 3.3832703e-07
4.1784338e-06 4.0644013e-06 4.563498e-06 1.4290384e-06 1.2960554e-06 3.89358e-06 3.9889123e-06 4.1586045e-06
2.6964858e-06 1.2891792e-06 3.8857097e-06 2.258461e-06 2.7369143e-10 5.9312623e-07 1.0300821e-06 3.9399663e-07
3.5330463e-09 1.2449931e-12 3.3069277e-08 6.700773e-07 6.153125e-09 2.3079063e-09 6.7452615e-12 6.419079e-09
2.9010846e-07 7e-43 7e-43 7e-43 7e-43 7e-43 7e-43 7e-43
7e-43 7e-43 7e-43 7e-43 7e-43 7e-43 7e-43 7e-43
7e-43 7e-43 7e-43 7e-43 7e-43 7e-43 7e-43 7e-43
7e-43 7e-43 0.002053292 0.002310684 0.00247827 0.0022986422 0.0020385191 0.0019689004

exp_avg f4 [32]
00000000: 0400 0000 0a0c b33d 6a9e 353c 4343 19bd
00000010: 036c 40bc e844 37bc 0400 0000 3a15 d2b6
00000020: 30a2 9ab7 0400 0000 bd4d de3b 0400 0000
00000030: 7a93 703c 3610 b4bc c7db 53bd e12f cd3c
00000040: 6f4e b437 dad6 0bbb 7bd8 56bc 0400 0000
00000050: a6ad 70b5 14d8 1e3c 616f 793c 43e0 96b9
00000060: 6260 cebb 740e b8b6 0ab2 e4ba 5d89 bab6
00000070: 398c d13c 0000 0000 0400 0000 0400 0000
6e-45 0.08742531 0.011085132 -0.03741766 -0.011744502 -0.011185862 6e-45 -6.260959e-06
-1.8433755e-05 6e-45 0.0067841695 6e-45 0.014683599 -0.021980386 -0.051723268 0.025047245
2.1494196e-05 -0.0021337778 -0.013113136 6e-45 -8.965966e-07 0.009695072 0.015224309 -0.00028777317
-0.006298111 -5.48531e-06 -0.0017448079 -5.559223e-06 0.025579559 0.0 6e-45 6e-45

exp_avg_sq f4 [32]
00000000: f401 0000 f897 1a3e e64a 5f3a c9a4 063d
00000010: a898 1f3d 4df0 ea3c f401 0000 38f9 6536
00000020: 7e9c 9938 f401 0000 306c 633b f401 0000
00000030: 8522 c53b 7048 953c 09c4 b63c d094 a63c
00000040: baf3 093a 8423 213b ca91 4e3d f401 0000
00000050: bcaa ad36 85c8 893b 880d 573c 6b3a 8b3b
00000060: bfbe f03d 3e0d c934 f5b4 2d3b 2ae3 4937
00000070: 4d30 e33c 0000 0000 f401 0000 f401 0000
7e-43 0.15097034 0.00085179356 0.032871995 0.038963944 0.028679037 7e-43 3.4268724e-06
7.3247575e-05 7e-43 0.0034701936 7e-43 0.006016078 0.018223017 0.022310274 0.020334631
0.00052624533 0.002458782 0.050432004 7e-43 5.175678e-06 0.004204812 0.013125785 0.0042489073
0.11755132 3.7448802e-07 0.0026505564 1.2033424e-05 0.027732993 0.0 7e-43 7e-43

exp_avg f4 [16, 32]
00000000: 0400 0080 b47f 933a 5373 ef39 b2c4 37ba
00000010: 6f00 313a c35e 983a 0400 0080 f793 b4b2
00000020: e039 04b4 0400 0080 5b32 b239 0400 0080
00000030: f15e 423b 88c0 7d3b 75f0 5c38 ddf3 103b
00000040: 4a7f 0231 23a4 6a37 6551 ef3a 0400 0080
00000050: 9a92 01b3 f206 db3b b2c5 7c3a 8c2d 54b6
00000060: b288 df38 e1e0 f0b2 48d4 0e38 fd3b a3b3
00000070: 9c6a 843a 0000 0000 0000 0000 0400 0080
00000080: 0400 0000 5a65 a3ba b8f0 a9b9 59b2 4c3a
00000090: 33a7 0aba 0783 9fba 0400 0000 883d b932
000000a0: 1339 0c34 0400 0000 d3bd a4b9 0400 0000
000000b0: a1a6 47bb 988e 83bb 7fac af35 8768 24bb
000000c0: 70f7 6331 d5d1 cdb7 edb7 d0ba 0400 0000
000000d0: 4cca 0633 f775 d6bb c904 bdba 9e6a 6db3
000000e0: f2f7 92b9 47a5 f432 cc5d 1ab8 02d8 aa33
000000f0: 76f2 a6ba 0000 0000 0400 0000 0400 0000
00000100: 0400 0000 1e31 9bb9 63a1 d0b9 17df 243a
00000110: 7ade 06b9 3637 9db8 0400 0000 fbd7 8c32
00000120: 51be 9632 0400 0080 86ef 49b9 0400 0000
00000130: b4d3 eab8 9505 adb8 bf5b 1e38 c4e0 dcb9
00000140: 6a1b ebb1 44b6 aeb7 a802 81b9 0400 0000
00000150: 6807 65a8 a290 b3b9 f130 98ba 6687 adb5
00000160: f2d9 79b9 f0f7 b432 c935 b1b4 4a56 3d30
00000170: bc6e 7bba 0000 0000 0400 0000 0400 0080
00000180: 0400 0080 fc94 a339 75cb 7339 ad1b 0cba
00000190: 2af5 c637 a65e 9738 0400 0080 296b 81b2
000001a0: 6c67 bdb3 0400 0080 9843 3139 0400 0080
000001b0: 86da f937 2fc4 5838 5aa3 9db8 be2c ad39
000001c0: fed0 7eb1 3692 8237 d706 5338 0400 0080
000001d0: fba3 b9b2 4bfa 9038 f2bc 703a adf8 27b6
000001e0: 696a 4139 ae9d acb2 37a8 6c36 3bcc 69b3
000001f0: 3ba5 4f3a 0000 0000 0400 0080 0400 0080
00000200: 0400 0080 71fb 6737 d25c 2839 8fa8 bab9
00000210: c29b b838 e8dd b336 0400 0080 d698 34b2
00000220: 103d 84b3 0400 0080 529c 8237 0400 0080
00000230: d014 5f39 6e08 5739 9c18 c237 cc29 3e39
00000240: 33d3 8230 99f7 1736 dffc 2539 0400 0080
00000250: d997 81b2 6a5d b139 d66e 57ba db96 dab5
00000260: d18a b6b9 18e7 70b2 c2de 8a37 ff3f 23b3
00000270: 04d6 13ba 0000 0000 0000 0000 0400 0080
00000280: 0400 0080 4e7c 0239 611b 083a 560a ebba
00000290: 1cd7 9038 2b4c 0a39 0400 0080 bcdc 55b3
000002a0: 8820 76b4 0400 0080 aa72 7339 0400 0080
000002b0: 6732 0f37 06b9 1437 1cb2 c4b9 9ad8 5339
000002c0: 77a7 a133 0004 0837 5fd9 2d39 0400 0080
000002d0: 38a5 edb1 cece 8d39 ed5b 3cbb 5874 f8b6
000002e0: 1461 b5ba fe83 85b3 9a3f 1836 6a2a 04b4
000002f0: e90b b1ba 0000 0000 0400 0080 0400 0080
00000300: 0400 0000 eeab b7b9 a26a e1b9 8cb4 373a
00000310: 0e74 5cb9 5663 6db8 0400 0000 56c8 9c32
00000320: 77df a132 0400 0000 2fde 43b9 0400 0000
00000330: 5051 58b9 9b9f 86b9 3cdb 2838 be1a 0aba
00000340: 19a8 02b2 b9af b9b7 38cd bbb9 0400 0000
00000350: 59cf 3ca8 c956 0aba 1897 a8ba 168c c0b5
00000360: a602 8ab9 9c70 c932 e195 ccb4 85ef 32a9
00000370: 42d0 87ba 0000 0000 0000 0000 0400 0000
00000380: 0400 0000 cf8b c3b9 de11 dcb9 2f2c 313a
00000390: 2a94 5db9 d567 d5b8 0400 0000 7b5c 9732
000003a0: 9947 9c32 0400 0080 0b98 71b9 0400 0000
000003b0: 5ce5 70b9 d999 92b9 f958 1538 df2c 10ba
000003c0: 75e2 fcb1 9cdc ebb7 ebbb c0b9 0400 0000
000003d0: 5afc 75a8 11e3 10ba e06c adba 7c1a bbb5
000003e0: f3af 92b9 be7a c232 6bfb a8b6 06bb 2ca9
000003f0: 3d86 8cba 0000 0000 0400 0000 0400 0000
-6e-45 0.0011253268 0.00045671556 -0.0007010206 0.0006752079 0.0011624921 -6e-45 -2.1022045e-08
-1.2314513e-07 -6e-45 0.00033988323 -6e-45 0.002965864 0.0038719494 5.267603e-05 0.002211801
1.8989845e-09 1.3985703e-05 0.001825851 -6e-45 -3.0168486e-08 0.0066841776 0.0009642496 -3.1616974e-06
0.0001065893 -2.804194e-08 3.405314e-05 -7.601191e-08 0.0010102573 0.0 0.0 -6e-45
6e-45 -0.0012466118 -0.0003241354 0.00078085583 -0.0005289197 -0.0012169786 6e-45 2.1564816e-08
1.305928e-07 6e-45 -0.00031421948 6e-45 -0.0030464309 -0.0040148012 1.3088719e-06 -0.0025086717
3.31735e-09 -2.4535615e-05 -0.0015923955 6e-45 3.1383294e-08 -0.006544824 -0.0014420982 -5.527783e-08
-0.00028032024 2.8480498e-08 -3.6803816e-05 7.9555335e-08 -0.0012737054 0.0 6e-45 6e-45
6e-45 -0.000296005 -0.00039793094 0.00062893465 -0.00012862115 -7.496627e-05 6e-45 1.6396362e-08
1.7548844e-08 -6e-45 -0.00019258083 6e-45 -0.00011197422 -8.2503226e-05 3.775558e-05 -0.00042129133
-6.8425168e-09 -2.082729e-05 -0.00024606776 6e-45 -1.271366e-14 -0.000342493 -0.0011611265 -1.292891e-06
-0.00023827681 2.1067507e-08 -3.3007953e-07 6.8880424e-10 -0.0009591391 0.0 6e-45 -6e-45
-6e-45 0.00031200785 0.0002325008 -0.00053447 2.3717603e-05 7.217871e-05 -6e-45 -1.5066307e-08
-8.819811e-08 -6e-45 0.00016905216 -6e-45 2.9784871e-05 5.1681123e-05 -7.51677e-05 0.00033030467
-3.7080663e-09 1.5565292e-05 5.031269e-05 -6e-45 -2.1611404e-08 6.913076e-05 0.00091834285 -2.5029688e-06
0.00018445555 -2.009514e-08 3.5264654e-06 -5.4435287e-08 0.00079210446 0.0 -6e-45 -6e-45
-6e-45 1.3827216e-05 0.00016056307 -0.0003560227 8.802816e-05 5.360449e-06 -6e-45 -1.051213e-08
-6.157836e-08 -6e-45 1.557e-05 -6e-45 0.0002127469 0.00020507138 2.3138062e-05 0.00018135383
9.518771e-10 2.2644874e-06 0.00015829828 -6e-45 -1.5086629e-08 0.0003382967 -0.0008218115 -1.628617e-06
-0.0003481717 -1.4022383e-08 1.6554612e-05 -3.80096e-08 -0.0005639496 0.0 0.0 -6e-45
-6e-45 0.00012444073 0.0005192068 -0.0017932157 6.906522e-05 0.0001318908 -6e-45 -4.9793684e-08
-2.292237e-07 -6e-45 0.00023217002 -6e-45 8.535199e-06 8.864567e-06 -0.00037516735 0.00020203218
7.5276084e-08 8.107163e-06 0.00016579543 -6e-45 -6.916391e-09 0.00027047697 -0.0028741315 -7.40452e-06
-0.0013838136 -6.2173044e-08 2.2686786e-06 -1.2308888e-07 -0.0013507578 0.0 -6e-45 -6e-45
6e-45 -0.00035032578 -0.00042994792 0.00070077996 -0.00021024069 -5.6597717e-05 6e-45 1.8251892e-08
1.8844487e-08 6e-45 -0.00018679419 6e-45 -0.00020629657 -0.00025677387 4.02585e-05 -0.0005268267
-7.605217e-09 -2.2135546e-05 -0.0003582032 6e-45 -1.0481058e-14 -0.0005277214 -0.0012862412 -1.4345885e-06
-0.00026323384 2.3450689e-08 -3.8107012e-07 -3.973169e-14 -0.0010361748 0.0 0.0 6e-45
6e-45 -0.00037297464 -0.00041974982 0.0006758598 -0.00021131398 -0.00010175972 6e-45 1.7620769e-08
1.8193349e-08 -6e-45 -0.00023040191 6e-45 -0.00022973627 -0.00027961915 3.560723e-05 -0.00054998504
-7.3599105e-09 -2.8116912e-05 -0.00036761104 6e-45 -1.3654952e-14 -0.00055269996 -0.00132313 -1.3940294e-06
-0.00027978382 2.264039e-08 -5.036059e-06 -3.835389e-14 -0.0010721158 0.0 6e-45 6e-45

exp_avg_sq f4 [16, 32]
00000000: f401 0000 7a7f 6b37 98ae 7038 fdd5 1538
00000010: 5f07 a737 9742 3f38 f401 0000 7fc5 0c2f
00000020: 9258 4c30 f401 0000 2786 b638 f401 0000
00000030: adbf e338 e099 a338 c861 3938 1fdc 2639
00000040: 3a05 3034 34c5 6135 1c73 6538 f401 0000
00000050: b402 c131 c5b2 6839 737f 3039 f6ff 0435
00000060: 2fdd 4538 4078 b02d 7002 5c35 dca0 4d2f
00000070: 47ab 0639 0000 0000 0000 0000 f401 0000
00000080: f401 0000 c41b 3c38 4e2f b537 bd85 d637
00000090: 548d f136 fd57 5038 f401 0000 5d0b 202f
000000a0: 6cc0 5930 f401 0000 b12b f338 f401 0000
000000b0: 8835 0039 373d b938 12f3 1238 05f9 6739
000000c0: 81b6 ec33 cb1d 9035 bf0a 5137 f401 0000
000000d0: cd4b dc31 946c c838 03f5 d839 9b8e b533
000000e0: 80cb d638 7c77 cb2d fee1 7535 f4cd 652f
000000f0: 4b7e 8b39 0000 0000 f401 0000 f401 0000
00000100: f401 0000 b403 9637 b81d 4c38 a780 eb37
00000110: f841 c037 d1a2 9538 f401 0000 0e96 de2e
00000120: 44a3 2230 f401 0000 8d5e a138 f401 0000
00000130: f896 1538 9192 7637 07f2 de37 c7e4 8738
00000140: 833c 0d34 6fea 4335 030e a038 f401 0000
00000150: 4030 9c31 4fc6 9239 fca5 5339 ea58 fb34
00000160: f932 7238 66e7 8c2d b9ee 4733 0629 262f
00000170: df4f 1739 0000 0000 f401 0000 f401 0000
00000180: f401 0000 d3cc 9d37 071a a037 b1a2 2037
00000190: a1f8 8b36 41a0 ec36 f401 0000 3b22 8f2e
000001a0: e927 c42f f401 0000 967e 2d38 f401 0000
000001b0: a316 0e38 2337 9737 ae4f 9737 4e5a b938
000001c0: 553d 0533 8c4f e734 6b8e ba36 f401 0000
000001d0: 5718 4431 cd84 8937 1d7b 4439 0105 4734
000001e0: 4b9b 4238 1eaa 352d aadd d234 209e cc2e
000001f0: 8e7d ec38 0000 0000 f401 0000 f401 0000
00000200: f401 0000 4abd a035 0a64 1d37 75e9 d436
00000210: fb3e 6c36 a039 2535 f401 0000 e9f6 0c2e
00000220: 3b9b 4b2f f401 0000 5278 9635 f401 0000
00000230: c92e 9337 5a28 7137 d327 3837 9795 c237
00000240: b105 3033 e0f1 2c34 315f 2437 f401 0000
00000250: 3a44 c030 811c 1d38 7c19 a437 4c15 0034
00000260: 8492 0937 6e52 b12c 617c a132 726e 4d2e
00000270: 2561 3f37 0000 0000 0000 0000 f401 0000
00000280: f401 0000 8940 9f36 486d a638 514d de37
00000290: 691e 8037 0378 8238 f401 0000 14d8 672d
000002a0: 5193 4131 f401 0000 65dd 2038 f401 0000
000002b0: ffca 6837 7a81 7d37 3209 8837 0b54 6138
000002c0: ad59 9134 c839 a135 85f8 f237 f401 0000
000002d0: 6d3c ea32 64f3 0939 7f10 b438 79ad 8833
000002e0: 5671 2538 b9bf 602d d969 0a34 0fe8 7330
000002f0: 516a dc38 0000 0000 f401 0000 f401 0000
00000300: f401 0000 0338 a837 250e 7e38 d4a6 ed37
00000310: ff1f f937 2c99 8038 f401 0000 38d9 0b2f
00000320: 9cef 4530 f401 0000 33da 2a38 f401 0000
00000330: b7ed 3b38 d615 b037 6b52 0f38 a3af ad38
00000340: f11d 3034 6e2c 1e35 98c5 cc38 f401 0000
00000350: 5962 c131 3c71 b739 8773 7339 9b44 1c35
00000360: 1e13 9238 656b af2d bd8a 8d33 d0bc 4d2f
00000370: 64b2 0039 0000 0000 0000 0000 f401 0000
00000380: f401 0000 5873 eb37 da58 7038 7054 e137
00000390: cdfa f537 4157 7838 f401 0000 0621 022f
000003a0: bab8 3830 f401 0000 03f9 8038 f401 0000
000003b0: eeb6 9a38 4f4f 3838 119d 0b38 face 0d39
000003c0: 4806 2434 f789 2935 d484 c538 f401 0000
000003d0: 14cb b331 bfc0 b239 60a4 9239 6576 1135
000003e0: 03c6 a338 e0dd a32d 8481 4a35 ce70 3f2f
000003f0: c5d5 1b39 0000 0000 f401 0000 f401 0000
7e-43 1.4036772e-05 5.7383062e-05 3.572366e-05 1.9911384e-05 4.5599965e-05 7e-43 1.280309e-10
7.4340634e-10 7e-43 8.703424e-05 7e-43 0.00010859906 7.801107e-05 4.4198503e-05 0.00015912995
1.6393179e-07 8.4106e-07 5.470506e-05 7e-43 5.6173466e-09 0.00022191841 0.00016832147 4.9546304e-07
4.7174453e-05 2.0062285e-11 8.1959934e-07 1.870179e-10 0.00012843042 0.0 0.0 7e-43
7e-43 4.484855e-05 2.159891e-05 2.5573065e-05 7.1988125e-06 4.967301e-05 7e-43 1.4555952e-10
7.921759e-10 7e-43 0.00011595281 7e-43 0.00012226973 8.8328896e-05 3.503549e-05 0.00022122644
1.1022804e-07 1.0737507e-06 1.2459873e-05 7e-43 6.4114603e-09 9.5569674e-05 0.00041381278 8.454409e-08
0.0001024222 2.313149e-11 9.1598474e-07 2.0900598e-10 0.00026606242 0.0 7e-43 7e-43
7e-43 1.7883118e-05 4.8665068e-05 2.8074091e-05 2.2918903e-05 7.1352006e-05 7e-43 1.0122046e-10
5.916727e-10 7e-43 7.69469e-05 7e-43 3.566497e-05 1.4696868e-05 2.6577165e-05 6.479915e-05
1.3153662e-07 7.2984307e-07 7.6320044e-05 7e-43 4.545683e-09 0.0002799504 0.00020184362 4.6817087e-07
5.7744768e-05 1.6018919e-11 4.6550415e-08 1.5112187e-10 0.00014430236 0.0 7e-43 7e-43
7e-43 1.8811237e-05 1.9085606e-05 9.574623e-06 4.171467e-06 7.052004e-06 7e-43 6.508968e-11
3.568055e-10 7e-43 4.1364307e-05 7e-43 3.387652e-05 1.8026278e-05 1.8037706e-05 8.838308e-05
3.1022257e-08 4.308498e-07 5.5598116e-06 7e-43 2.853559e-09 1.6393513e-05 0.0001873788 1.853514e-07
4.6397832e-05 1.0326432e-11 3.927683e-07 9.3049346e-11 0.00011276743 0.0 7e-43 7e-43
7e-43 1.1976019e-06 9.381221e-06 6.3452703e-06 3.52034e-06 6.1551145e-07 7e-43 3.2051615e-11
1.8517891e-10 7e-43 1.1210889e-06 7e-43 1.7545552e-05 1.43741145e-05 1.0976527e-05 2.319626e-05
4.098337e-08 1.6106742e-07 9.797325e-06 7e-43 1.398923e-09 3.7458263e-05 1.956219e-05 1.1928677e-07
8.19995e-06 5.039794e-12 1.8799428e-08 4.67097e-11 1.1407105e-05 0.0 0.0 7e-43
7e-43 4.746082e-06 7.935852e-05 2.6500466e-05 1.527295e-05 6.221237e-05 7e-43 1.3178809e-11
2.8168936e-09 7e-43 3.8353162e-05 7e-43 1.3875541e-05 1.5110121e-05 1.6216745e-05 5.372245e-05
2.7073602e-07 1.2012251e-06 2.8964374e-05 7e-43 2.7268664e-08 0.00013156008 8.5861415e-05 6.364548e-08
3.9444618e-05 1.2775497e-11 1.2890759e-07 8.873266e-10 0.000105102205 0.0 7e-43 7e-43
7e-43 2.0053243e-05 6.0571492e-05 2.8330287e-05 2.9698012e-05 6.132046e-05 7e-43 1.2719148e-10
7.200869e-10 7e-43 4.0734372e-05 7e-43 4.4805663e-05 2.0991003e-05 3.4170615e-05 8.281998e-05
1.640217e-07 5.892424e-07 9.764283e-05 7e-43 5.62822e-09 0.00034988846 0.00023217323 5.821436e-07
6.965383e-05 1.994289e-11 6.5910605e-08 1.8711721e-10 0.00012273487 0.0 0.0 7e-43
7e-43 2.8067894e-05 5.730321e-05 2.686141e-05 2.9323064e-05 5.920907e-05 7e-43 1.1835163e-10
6.720132e-10 7e-43 6.149898e-05 7e-43 7.3773655e-05 4.394288e-05 3.3286462e-05 0.00013523913
1.5275975e-07 6.315817e-07 9.418433e-05 7e-43 5.232673e-09 0.00034094413 0.0002796976 5.4188996e-07
7.809328e-05 1.8629487e-11 7.5439334e-07 1.7411425e-10 0.00014861587 0.0 7e-43 7e-43

exp_avg f4 [16]
00000000: 7845 0f3c 695d 1cbc b2fa 23bb a10c 073b
00000010: 94d0 48bb a971 33bc 8c29 59bb e845 65bb
00000020: eb99 96bb f81e 20b8 71be 99bb b733 4cbc
00000030: abe0 9fbb 0400 0000 5eb7 573b 0400 0080
0.00874459 -0.009543755 -0.0025021252 0.0020606893 -0.00306419 -0.010952392 -0.0033136336 -0.0034984294
-0.004595985 -3.8175815e-05 -0.004691892 -0.012463502 -0.0048790774 6e-45 0.0032915692 -6e-45

exp_avg_sq f4 [16]
00000000: 81a7 3e3b 746d 723b 4858 483b 07fc d23a
00000010: 4cd2 c739 c9c6 c63b 3bd3 613b 3d75 6d3b
00000020: 7b90 d03a 52fa a43a 3cb5 d33a 4b13 ee3b
00000030: af34 ec3a f401 0000 7674 be3a f401 0000
0.002909154 0.0036991509 0.0030570198 0.0016096839 0.0003811292 0.0060661775 0.0034458179 0.003623321
0.0015912199 0.0012586808 0.0016152035 0.0072654835 0.0018021072 7e-43 0.0014530558 7e-43

exp_avg f4 [2, 16]
00000000: 9179 d337 9013 04ba 0138 f8b8 5152 95b9
00000010: d226 7938 a942 c438 bd1e c1b8 31f3 b7b8
00000020: f8cb 2db9 3608 1fb8 0ae0 3bb9 432d 1aba
00000030: 661a 20b9 0400 0080 aa50 4bba 0400 0000
00000040: e876 d3b7 a413 043a 2739 f838 0653 9539
00000050: 4626 79b8 f040 c4b8 b81f c138 36f4 b738
00000060: b3cc 2d39 c608 1f38 bee0 3b39 5f2d 1a3a
00000070: 3b1b 2039 0400 0000 fe50 4b3a 0400 0080
2.5209769e-05 -0.00050383154 -0.00011835993 -0.00028480825 5.940238e-05 9.358425e-05 -9.2086826e-05 -8.771418e-05
-0.0001657455 -3.79162e-05 -0.00017917171 -0.00058813783 -0.00015268623 -6e-45 -0.00077558553 6e-45
-2.520853e-05 0.0005038327 0.00011836207 0.00028481352 -5.940187e-05 -9.358104e-05 9.208865e-05 8.771608e-05
0.00016574822 3.7916725e-05 0.00017917433 0.00058813946 0.00015268933 6e-45 0.0007755904 -6e-45

exp_avg_sq f4 [2, 16]
00000000: 2fb8 e736 b191 d336 a9cf 1f36 3f4d f937
00000010: c44a a335 5c90 b034 fd80 3e36 ecc3 1136
00000020: cd16 a036 2e43 6435 3d42 9a36 1afb e835
00000030: f920 c536 f401 0000 04e0 e037 f401 0000
00000040: 2bb8 e736 b791 d336 aacf 1f36 434d f937
00000050: c84a a335 5190 b034 0281 3e36 edc3 1136
00000060: cd16 a036 2f43 6435 4242 9a36 1bfb e835
00000070: f720 c536 f401 0000 0ae0 e037 f401 0000
6.9057783e-06 6.3052507e-06 2.381372e-06 2.9719084e-05 1.2166206e-06 3.288759e-07 2.8387287e-06 2.1720725e-06
4.771026e-06 8.503438e-07 4.597269e-06 1.7358427e-06 5.874896e-06 7e-43 2.6807196e-05 7e-43
6.9057764e-06 6.3052535e-06 2.3813723e-06 2.971909e-05 1.2166211e-06 3.288756e-07 2.8387299e-06 2.1720728e-06
4.771026e-06 8.5034384e-07 4.597271e-06 1.7358428e-06 5.874895e-06 7e-43 2.6807207e-05 7e-43

exp_avg f4 [2]
00000000: b00d a7ba 1e0e a73a
-0.0012745168 0.0012745296

exp_avg_sq f4 [2]
00000000: 802a 0d39 822a 0d39
0.0001346264 0.00013462643

loss f8 []
00000000: 8ee3 a81c 3269 263f
0.0001709817573372321
