29_point_edge_detector.pth (torch, 25342 bytes, 19 tensors)

model.0.weight f4 [32, 25]
0.08309411 0.23764823 0.0048026135 0.086744875 0.15426287 0.2333866 -0.046010673 -0.08535518
-0.028816577 0.21446106 -0.014418404 -0.4351873 -0.77190316 -0.42701712 -0.063439846 0.3946429
-0.0084037315 0.10099537 -0.04343893 0.4056071 -0.061998155 -0.0064899703 0.15711457 0.021346916
-0.09740857 -0.047310207 -0.003901373 -0.13484365 0.15201399 0.04343611 -0.2918749 -0.36600584
-0.08868398 0.46578065 0.29687026 -0.21353464 -0.10984624 0.11864498 0.092441395 0.114783786
0.039517097 0.47186664 -0.015515145 -0.49159825 -0.4121912 0.12537324 0.29827353 0.105058625
-0.16315804 -0.0071778987 -0.00040255958 -0.00031761956 -0.00014929254 0.00017502747 -0.00037693253 0.000100582765
3.3571265e-05 0.00032619387 0.00016366562 -0.00031524277 -0.0004470519 1.772898e-05 -2.5354377e-05 0.00015059071
0.00015553659 -0.0004281358 -0.00034473935 0.0002629691 -6.612233e-05 1.6336928e-05 0.00020995627 -6.603567e-05
-0.00030680487 -0.00023866577 -0.0001612238 -0.0012353476 -0.000818745 -0.000876851 -0.00031308303 -0.00020579905
-0.00065034546 -0.0013233101 -0.00086527574 -0.000114723465 0.00041334523 0.0004673477 0.0001465309 -0.00064682344
-0.0007188098 -3.785553e-05 0.00027900637 -0.00040845328 -0.0012730209 -0.00039223494 -0.00037134407 -5.618501e-05
-0.00053349894 -0.00041680346 -0.00014363967 -0.00029947446 0.16103894 -0.09729039 -0.1144266 0.0070036943
-0.060880605 0.32372552 -0.37363777 -0.47351813 0.07134937 0.15707792 -0.06909953 -0.1667298
-0.40571323 0.3950435 0.028185766 -0.044275913 0.044352327 0.40401474 0.47127622 -0.15501048
-0.070511445 -0.06974815 -0.004500503 0.06884367 -0.03965521 0.02804138 -0.0071852678 -0.03431753
-0.16306086 0.044191964 -0.1763316 -0.32292977 -0.7375943 -0.3753757 -0.1273638 0.04174092
0.16623747 0.44684276 0.14148574 0.12638128 0.008032244 0.15299648 0.49565244 0.23420517
-0.00459409 -0.023407722 0.05920403 -0.013077941 -0.02928283 0.124664925 0.011129585 0.21442287
0.007272674 -0.4094331 -0.2675991 0.31047696 0.3719623 -0.006094321 -0.37931046 0.030162934
0.09857745 -0.18035692 0.04035282 0.16972415 0.16621082 0.020242592 -0.35509 -0.22363152
0.33229637 0.42647934 -0.09412468 -0.36068925 -0.041094124 -0.007361658 0.1180414 0.016768392
-0.057507206 -0.03262007 0.06876189 -0.025060156 -0.081470504 0.076259136 0.44071978 0.44580105
-0.071104914 0.03334795 -0.07762712 -0.12112039 0.42559737 0.11911967 0.01901874 -0.5536313
-0.557028 -0.014854351 0.11969819 0.044815313 0.026420452 -0.13712439 -0.0697656 -0.023241201
-0.029776517 -0.26040283 0.019686816 -0.2414347 -0.19557652 -0.03830294 0.06817018 0.4068859
0.24785243 -0.106893435 -0.1391122 -0.018952215 0.37623686 -0.07171029 -0.053963985 -0.008021958
0.19598897 0.45802546 0.42489776 -0.012069322 -0.15231884 -0.21391988 -0.16072519 -0.3538642
-0.12614667 0.057489056 0.07788728 0.12768468 0.26316515 -0.18475947 -0.05143174 0.36238962
0.025251424 -0.39325207 -0.40146452 0.15621015 -0.13008094 0.19448309 -0.10652385 0.1852057
-0.444106 -0.25848046 -0.046486136 0.42464375 0.19404647 -0.17860167 0.16987607 0.013798067
-0.018971382 -0.059902154 -0.0003981316 -0.00034261416 0.00031129393 -0.00039250418 -0.00028360588 -8.011242e-05
00000000: 3f2d aa3d 0f5a 733e 3e5f 9d3b 4ca7 b13d
00000010: 16f7 1d3e e6fc 6e3e b075 3cbd b2ce aebd
00000020: be10 ecbc ae9b 5b3e 2b3b 6cbc dfd0 debe
00000030: 729b 45bf fda1 dabe c0ec 81bd a20e ca3e
00000040: ceaf 09bc a9d6 ce3d 05ed 31bd bcab cf3e
00000050: c7f1 7dbd d1a9 d4bb a4e2 203e badf ae3c
00000060: 257e c7bd 59c8 41bd 2dae 7fbb 7414 0abe
00000070: 8ea9 1b3e 10ea 313d a070 95be 1e65 bbbe
00000080: f29f b5bd cd7a ee3e 61ff 973e d3a8 5abe
00000090: 11f7 e0bd 24fc f23d ea51 bd3d c313 eb3d
000000a0: aedc 213d 8198 f13e 3c33 7ebc c4b2 fbbe
000000b0: ba0a d3be d861 003e 4fb7 983e fa28 d73d
000000c0: e712 27be 9434 ebbb a20e d3b9 2d86 a6b9
000000d0: 698b 1cb9 9487 3739 079f c5b9 f6ef d238
000000e0: dfce 0c38 0005 ab39 a89d 2b39 2b47 a5b9
000000f0: 4a62 eab9 b2b8 9437 1cb0 d4b7 e3e7 1d39
00000100: 8917 2339 6a77 e0b9 22be b4b9 1ddf 8939
00000110: 28ab 8ab8 490b 8937 b527 5c39 a17c 8ab8
00000120: a7da a0b9 5b42 7ab9 2f0e 29b9 63eb a1ba
00000130: 0ca1 56ba 79dc 65ba 4b25 a4b9 c3cb 57b9
00000140: f27b 2aba eb72 adba acd3 62ba b197 f0b8
00000150: 42b6 d839 5906 f539 17a6 1939 968f 29ba
00000160: 826e 3cba 11c7 1eb8 9a47 9239 ac25 d6b9
00000170: 7edb a6ba e2a4 cdb9 f5b0 c2b9 32a8 6bb8
00000180: 82da 0bba 6a86 dab9 fb9d 16b9 c802 9db9
00000190: 64e7 243e 2f40 c7bd 7e58 eabd 3f7f e53b
000001a0: f15d 79bd 5abf a53e 734d bfbe f870 f2be
000001b0: 9e1f 923d 09d9 203e 0e84 8dbd 37bb 2abe
000001c0: a5b9 cfbe 2443 ca3e d6e5 e63c a95a 35bd
000001d0: c9aa 353d 05db ce3e 1e4b f13e 11bb 1ebe
000001e0: 4e68 90bd 1ed8 8ebd f578 93bb e9fd 8c3d
000001f0: 806d 22bd 09b7 e53c 6572 ebbb 8a90 0cbd
00000200: 6df9 26be a202 353d 4590 34be 0d57 a5be
00000210: fbd2 3cbf 3e31 c0be a86b 02be 87f8 2a3d
00000220: 283a 2a3e 93c8 e43e a3e1 103e 186a 013e
00000230: ac99 033c 1cab 1c3e 28c6 fd3e 7bd3 6f3e
00000240: 058a 96bb 8dc1 bfbc ed7f 723d dc44 56bc
00000250: 8ce2 efbc 5350 ff3d dd58 363c ab91 5b3e
00000260: 9c4f ee3b 37a1 d1be c002 89be d6f6 9e3e
00000270: d871 be3e dfb2 c7bb fb34 c2be 4218 f73c
00000280: f9e2 c93d 7caf 38be 0049 253d 2bcc 2d3e
00000290: 2b33 2a3e cbd3 a53c 5bce b5be a9ff 64be
000002a0: c022 aa3e 805b da3e 71c4 c0bd 43ac b8be
000002b0: 5052 28bd 103a f1bb b1bf f13d de5d 893c
000002c0: ad8c 6bbd 9f9c 05bd 09d3 8c3d f54a cdbc
000002d0: 02da a6bd c02d 9c3d 06a6 e13e 0940 e43e
000002e0: 749f 91bd dc97 083d f8fa 9ebd f80d f8bd
000002f0: e6e7 d93e 03f5 f33d 30cd 9b3c c8ba 0dbf
00000300: 6399 0ebf aa5f 73bc 5324 f53d 4390 373d
00000310: b46f d83c 566a 0cbe 44e1 8ebd 5564 bebc
00000320: e2ed f3bc 8553 85be 3f46 a13c a83a 77be
00000330: 3645 48be 8be3 1cbd cf9c 8b3d 5953 d03e
00000340: 07cd 7d3e f2ea dabd 6e73 0ebe ad41 9bbc
00000350: 1ea2 c03e d8dc 92bd 5709 5dbd 886e 03bc
00000360: 55b1 483e 5082 ea3e 338c d93e 68be 45bc
00000370: 78f9 1bbe d00d 5bbe 2595 24be b02d b5be
00000380: 982c 01be a579 6b3d 5e83 9f3d c6bf 023e
00000390: 95bd 863e 9631 3dbe 17aa 52bd 228b b93e
000003a0: 13dc ce3c 5658 c9be c28c cdbe 8ef5 1f3e
000003b0: f033 05be 9326 473e 2d29 dabd 90a6 3d3e
000003c0: dd61 e3be 8d57 84be 3f68 3ebd e86a d93e
000003d0: 1eb4 463e 5be3 36be fef3 2d3e 4a11 623c
000003e0: df69 9bbc f65b 75bd 52bc d0b9 e5a0 b3b9
000003f0: 2a35 a339 05c9 cdb9 f0b0 94b9 0702 a8b8

model.0.bias f4 [32]
0.006686491 -0.00040625437 -0.00049091806 -0.0008148466 -0.0037789876 -0.039262902 -0.004195668 -0.0013939394
-0.008516559 0.0020377971 -0.00031568817 -0.051506042 -0.043357905 0.044826187 0.038942948 -0.0728916
-0.0005668152 -0.0013587427 -0.06778517 -0.0014673598 0.055033498 -0.0013079708 0.0019812484 -0.0003689389
-0.051168125 0.05878958 -0.00040857476 -0.040853642 -0.0007275638 -0.00043680088 -0.024055978 -0.00058957614
00000000: 5a1a db3b 8afe d4b9 f4b0 00ba 6e9b 55ba
00000010: e4a8 77bb 23d2 20bd d07b 89bb d8b4 b6ba
00000020: 0a89 0bbc 908c 053b f382 a5b9 00f8 52bd
00000030: 0f98 31bd aa9b 373d a482 1f3d 3148 95bd
00000040: 5396 14ba d717 b2ba f4d2 8abd 6d54 c0ba
00000050: ce6a 613d 3870 abba d5d7 013b 246e c1b9
00000060: ab95 51bd 58cd 703d fa35 d6b9 2656 27bd
00000070: fbb9 3eba 6c02 e5b9 0b11 c5bc c98d 1aba

model.2.weight f4 [16, 32]
0.4701664 0.26084968 4.199715e-06 -0.0004694573 0.59755963 -1.1727103 0.21408387 0.22530639
-0.44510004 -0.36144808 0.00037186418 -0.31165776 -0.2135495 -3.132517 0.59968644 0.033926554
0.00015753858 0.000292708 -1.1272522 0.00086826045 -0.26179978 0.0013533615 0.8648505 -0.00079772045
0.75760293 0.29670814 -0.000193213 -0.4104838 -0.00033745926 -0.00016464466 0.0030236198 -0.0002540246
-0.27536342 -0.2700508 8.7313616e-05 -0.00024454395 0.009904572 0.33655822 -0.79027385 0.3106414
0.0074289083 0.075108476 -0.0005137171 0.18647276 -0.03239396 -1.544973 0.102780916 -0.01734381
0.00014111714 -0.00020360459 0.29877594 -0.00051620486 -1.5895568 0.00012240316 0.25951844 -6.983466e-06
-0.3447876 0.17799023 0.0011010121 -0.000688733 -0.00023444484 -0.00025584202 -0.72543335 -0.0005454892
-1.0342684 0.96233153 -0.0001560265 -0.0010168086 -0.6684023 -0.15207286 0.4419309 -0.39300376
-1.4425466 0.67717266 0.00015290188 -0.3206429 -0.21783736 0.39783016 0.10666182 -0.18909672
-0.00034224612 -0.00023179747 0.016900226 -0.0006078551 0.17836918 -0.00023026904 -0.1846241 -0.00047661827
-0.4957602 0.12581031 0.0010718204 -0.4069717 -0.0004946061 -0.0005852309 0.07902729 -0.00022848244
-1.3465253 0.9046445 -0.00037407738 -0.00017112894 -0.85326546 -0.13137972 0.6564189 -0.518657
-1.4416167 0.22250825 0.00016956123 -0.05371577 0.63636976 -0.3969806 0.42770168 -0.49127588
0.00016103969 0.00068418495 -0.35708535 0.00012348415 -0.9211599 -0.001258026 0.13743281 -6.192549e-05
-0.5101909 -0.43579626 0.0009883697 -0.07648178 -3.4011024e-05 0.00019586155 0.06647718 -0.00025730167
-1.6701694 0.58920574 0.000112196045 -0.00037562835 -0.32634777 -0.22942166 0.72195315 -0.65090704
0.28503245 0.39680344 0.000110982495 0.17030291 -0.014270611 1.6574912 0.07742019 -0.5013942
-0.000224549 0.0004220726 -0.76063186 0.001131519 0.024358928 -0.0006586537 -0.42723572 6.385222e-05
0.15213528 0.30259314 -8.446118e-05 0.32271537 0.0002531845 -3.0927655e-05 0.4324201 -4.830697e-05
0.7459938 -0.5885041 0.00022162992 -0.00024135486 -0.8623668 -0.69752455 -0.294401 -0.8667493
0.8828552 -0.34365296 -9.543956e-05 0.60978675 0.78328156 -0.24238546 0.080698565 -0.83656096
4.2290056e-05 -0.000282937 -0.9628747 -0.001511203 0.41626334 -0.0018053879 -1.2436315 -0.00044277593
0.6751659 0.4635766 -0.0006916512 0.6567682 9.255587e-05 -0.00011382053 0.045790866 0.00013482611
-0.1746452 -1.3884841 1.9184721e-05 -0.00032767488 -1.3512002 -1.4805754 -0.968341 -1.6869682
-0.3429968 -0.6564837 -4.9877122e-05 -0.5378679 0.73277146 0.21669295 -0.036252722 -0.5528604
0.00031841884 0.0005889065 0.5828041 -0.0001324758 -0.4580581 -0.0018833814 -1.7957758 -0.00019762502
-0.08389848 0.1285599 0.0008162877 -0.24220438 0.00023035491 -0.00025520075 -0.46774572 -0.00013249299
0.24471055 0.017892053 9.045066e-05 0.00022653442 -0.26563168 -0.2590656 0.83083826 0.028960858
-0.3620771 0.35335138 -0.00023849936 -0.7696331 0.07655474 0.59775174 -0.6216134 -0.45613205
-3.7021196e-06 0.00086295186 -0.39732194 -0.0001989054 -2.5735075 -0.0003958019 -0.1022314 0.00011113958
-0.08426128 -0.58591294 0.00010140885 -0.5327281 0.00025760382 -0.00010550293 1.0641292 -0.00015325943
00000000: a6b9 f03e 178e 853e 47eb 8c36 7e21 f6b9
00000010: abf9 183f 5f1b 96bf cd38 5b3e b8b6 663e
00000020: 27e4 e3be b90f b9be c4f6 c239 9b91 9fbe
00000030: b8ac 5abe 297b 48c0 0d85 193f 92f6 0a3d
00000040: f130 2539 9a76 9939 cd49 90bf f99b 633a
00000050: 9f0a 86be 4763 b13a d866 5d3f 1d1e 51ba
00000060: 44f2 413f 21ea 973e 3899 4ab9 ef2a d2be
00000070: 04ed b0b9 77a4 2cb9 ec27 463b 9b2e 85b9
00000080: 6ffc 8cbe 1944 8abe 241c b738 2236 80b9
00000090: c946 223c 5c51 ac3e 634f 4abf 640c 9f3e
000000a0: 336e f33b 79d2 993d f9aa 06ba b7f2 3e3e
000000b0: 87af 04bd adc1 c5bf cd7e d23d 9b14 8ebc
000000c0: d8f8 1339 b17e 55b9 29f9 983e ec51 07ba
000000d0: 9976 cbbf 5959 0039 9adf 843e 8453 eab6
000000e0: 0088 b0be 1243 363e d64f 903a 178c 34ba
000000f0: 4fd5 75b9 8922 86b9 00b6 39bf 29ff 0eba
00000100: e862 84bf 5c5b 763f 0b9b 23b9 6f46 85ba
00000110: 6a1c 2bbf fdb8 1bbe c444 e23e ca37 c9be
00000120: 5ea5 b8bf 305b 2d3f 4954 2039 4e2b a4be
00000130: c210 5fbe 65b0 cb3e 8371 da3d 92a2 41be
00000140: 7f6f b3b9 a90e 73b9 5872 8a3c 7758 1fba
00000150: 69a6 363e 6074 71b9 1a0e 3dbe 9fe2 f9b9
00000160: 48d4 fdbe 6bd4 003e 537c 8c3a 985e d0be
00000170: 74a8 01ba 2e6a 19ba 0fd9 a13d ca94 6fb9
00000180: f15a acbf c896 673f d11f c4b9 1371 33b9
00000190: 9b6f 5abf 6888 06be 120b 283f b5c6 04bf
000001a0: e586 b8bf 34d9 633e 3fcc 3139 1105 5cbd
000001b0: 21e9 223f 0b41 cbbe b7fb da3e 8388 fbbe
000001c0: c3dc 2839 e05a 333a e4d3 b6be 867b 0139
000001d0: 23d1 6bbf 59e4 a4ba 30bb 0c3e ffdd 81b8
000001e0: df9b 02bf b020 dfbe 2f8c 813a 7ba2 9cbd
000001f0: 0fa7 0eb8 2f60 4d39 3025 883d 72e6 86b9
00000200: 1cc8 d5bf 30d6 163f cb4a eb38 fcef c4b9
00000210: 0e17 a7be 83ed 6abe ecd1 383f d8a1 26bf
00000220: c6ef 913e d229 cb3e 46bf e838 e363 2e3e
00000230: 48cf 69bc ac28 d43f 7a8e 9e3d 5f5b 00bf
00000240: ea74 6bb9 a049 dd39 c5b8 42bf 7a4f 943a
00000250: 608c c73c 80a9 2cba a4be dabe 66e8 8538
00000260: 5ac9 1b3e 7ded 9a3e c020 b1b8 f33a a53e
00000270: d9bd 8439 51b8 01b8 2b66 dd3e 379d 4ab8
00000280: 73f9 3e3f 34a8 16bf 5465 6839 3414 7db9
00000290: 12c4 5cbf f890 32bf babb 96be 48e3 5dbf
000002a0: cc02 623f 48f3 afbe b926 c8b8 fc1a 1c3f
000002b0: 2485 483f e533 78be 4a45 a53d dc28 56bf
000002c0: 9a60 3138 2957 94b9 f57e 76bf 8f13 c6ba
000002d0: 7820 d53e c4a2 ecba 512f 9fbf 6124 e8b9
000002e0: acd7 2c3f ea59 ed3e ed4f 35ba f621 283f
000002f0: 8e1a c238 efb2 eeb8 348f 3b3d 1c60 0d39
00000300: 31d6 32be d9b9 b1bf e0ee a037 c7cb abb9
00000310: 21f4 acbf 7f83 bdbf 32e5 77bf 93ee d7bf
00000320: 479d afbe 510f 28bf 2733 51b8 b6b1 09bf
00000330: e996 3b3f c2e4 5d3e bc7d 14bd 4288 0dbf
00000340: 74f1 a639 d960 1a3a a632 153f 34e9 0ab9
00000350: 9786 eabe cbdb f6ba fbdb e5bf 9039 4fb9
00000360: f7d2 abbd 35a5 033e 24fc 553a 6d04 78be
00000370: 6d8b 7139 77cc 85b9 5e7c efbe d1ed 0ab9
00000380: 6795 7a3e 5b92 923c 54b0 bd38 df89 6d39
00000390: e000 88be 3fa4 84be d1b1 543f 523f ed3c
000003a0: 2b62 b9be 79ea b43e af15 7ab9 ad06 45bf
000003b0: bbc8 9c3d 4206 193f 0e22 1fbf 248a e9be
000003c0: ee71 78b6 b837 623a c86d cbbe 4391 50b9
000003d0: 59b4 24c0 a283 cfb9 b25e d1bd 9c13 e938
000003e0: 2e91 acbd 64fe 15bf 76ab d438 de60 08bf
000003f0: 000f 8739 7441 ddb8 6335 883f 44b4 20b9

model.2.bias f4 [16]
0.058735203 0.19417632 0.14404635 0.119965345 0.07133159 0.15610066 0.6695988 0.23440753
-0.06927376 -0.0008214736 -0.0008814917 0.20311469 0.15130459 0.23483796 0.12122094 -0.01754312
00000000: 5394 703d 28d6 463e e380 133e 64b0 f53d
00000010: 4c16 923d dad8 1f3e d46a 2b3f 8708 703e
00000020: 67df 8dbd 2958 57ba e813 67ba 4cfd 4f3e
00000030: 97ef 1a3e 5d79 703e af42 f83d 97b6 8fbc

model.4.weight f4 [3, 16]
1.9786668 2.2374854 -3.720737 -5.048908 -3.8494122 -6.241158 -8.827642 -3.5499225
-1.6264654 -4.312785e-05 9.578507e-05 2.8892462 0.3939532 3.6187184 1.0756716 -2.8716776
-1.8161018 -2.646805 -1.6491346 -0.5745211 0.8855062 4.430679 6.4461536 -0.7379117
-0.3911306 -0.0012611062 -0.0001264047 1.4342757 -6.2352023 -1.434653 -6.1493583 1.8556218
-1.136053 -1.4181322 3.9578118 4.3229523 1.8719095 -1.3649322 -4.4565306 3.1379607
1.5353476 -0.00061008596 0.00032152227 -4.452948 1.0562611 -3.1916175 0.36857805 0.1548759
00000000: f444 fd3f f632 0f40 8e20 6ec0 a890 a1c0
00000010: c55c 76c0 91b7 c7c0 063e 0dc1 ee31 63c0
00000020: 0530 d0bf 2de4 34b8 38e0 c838 69e9 3840
00000030: 3cb4 c93e 1599 6740 9baf 893f 91c9 37c0
00000040: 0676 e8bf 4165 29c0 d816 d3bf d113 13bf
00000050: 89b0 623f 1fc8 8d40 e446 ce40 c8e7 3cbf
00000060: 4542 c8be b44b a5ba 818b 04b9 5996 b73f
00000070: c786 c7c0 b6a2 b7bf 8bc7 c4c0 0485 ed3f
00000080: 2f6a 91bf 5b85 b5bf ca4c 7d40 a055 8a40
00000090: bb9a ef3f 19b6 aebf e69b 8ec0 59d4 4840
000000a0: 4586 c43f 2dee 1fba fd91 a839 8d7e 8ec0
000000b0: 9033 873f 7643 4cc0 43b6 bc3e ca97 1e3e

model.4.bias f4 [3]
0.39642224 0.19901183 -0.4999977
00000000: dbf7 ca3e c2c9 4b3e b3ff ffbe

exp_avg f4 [32, 25]
-0.025644273 -0.01291571 -0.015582165 -0.004006022 0.023485053 -0.03260852 -0.02764579 -0.009041207
0.033345323 0.030874653 -0.025694208 -0.008539601 0.02161267 0.023711082 0.031766642 0.0034018026
0.020793429 0.027731959 0.03180528 0.02724622 0.022419415 0.028406702 0.030593108 0.03224125
0.0297142 0.029859653 0.019280698 0.014892853 0.015259798 0.016083738 0.026413655 0.026593776
0.01971127 0.01669823 0.017614486 0.027450608 0.028360264 0.023224974 0.019759312 0.015469082
0.02989687 0.02969604 0.024302352 0.019253125 0.01789558 0.024000606 0.020751381 0.022313423
0.019765357 0.018998936 6e-45 6e-45 6e-45 6e-45 6e-45 6e-45
6e-45 6e-45 6e-45 6e-45 6e-45 6e-45 6e-45 6e-45
6e-45 6e-45 6e-45 6e-45 6e-45 6e-45 6e-45 6e-45
6e-45 6e-45 6e-45 6e-45 -6e-45 6e-45 6e-45 6e-45
6e-45 6e-45 6e-45 6e-45 6e-45 6e-45 6e-45 6e-45
6e-45 6e-45 6e-45 6e-45 6e-45 6e-45 6e-45 6e-45
6e-45 6e-45 6e-45 6e-45 -0.012704367 -0.019667482 -0.019300452 -0.021567747
-0.02060624 -0.012209093 -0.01090089 -0.015762374 -0.02055647 -0.020856094 -0.01161565 -0.011676941
-0.009688736 -0.01893113 -0.019429417 -0.009876337 -0.010746689 -0.021703357 -0.024969002 -0.023286797
-0.010236035 -0.022754343 -0.024015 -0.024954025 -0.024762448 -0.011390577 -0.010701326 -0.008371149
-0.007245626 -0.0073792944 -0.009678563 -0.008818005 -0.008519369 -0.007979384 -0.0073314994 -0.013334
-0.013301412 -0.012046069 -0.009347358 -0.008410618 -0.014438369 -0.0120468 -0.009945383 -0.009382584
-0.009409747 -0.012723676 -0.010301487 -0.00948847 -0.0082674455 -0.008682697 -0.002814517 -0.003479108
0.01754224 0.011712067 0.013911665 -0.011346405 -0.010173444 0.012143038 0.015577053 0.017238943
-0.0058741043 -0.009271202 0.013217422 0.014232848 0.016025852 -0.0067752893 -0.0051661935 0.015545714
0.012754379 0.011194029 -0.010811021 0.0018238124 0.014910687 0.013712275 0.0123802805 -0.13338956
-0.14171962 -0.1439907 -0.14345652 -0.13444497 -0.09582043 -0.11867849 -0.1443446 -0.15798743
-0.13966598 -0.10042293 -0.10662829 -0.12502341 -0.13441221 -0.13141108 -0.11883638 -0.12679192
-0.12757395 -0.12950838 -0.12828907 -0.11988996 -0.1264517 -0.1287401 -0.12843724 -0.1274903
0.009378147 0.009575963 0.009577073 0.01374124 0.0055525154 0.0060995673 0.008582116 0.012711865
0.0074538095 0.0016106323 -0.002930764 -0.0031168947 0.0022956084 0.0068372022 0.0049165636 -0.009531327
-0.008818729 -0.00062016514 0.0064418004 0.009148032 -0.010085518 -0.007471615 0.00042923662 0.007145845
0.008946147 -0.03094323 -0.029361997 -0.033142693 -0.037600398 -0.020258734 -0.03022493 -0.032317385
-0.035165586 -0.01591763 -0.011474842 -0.028255329 -0.02700063 -0.012001195 -0.012653409 -0.011927848
-0.016531477 -0.007998723 -0.0077696578 -0.009793784 -0.012772857 -0.007654191 -0.006324579 -0.007937601
-0.009457606 -0.011237932 0.0 0.0 0.0 0.0 0.0 6e-45
00000000: f013 d2bc 6a9c 53bc 564c 7fbc f344 83bb
00000010: ba63 c03c 8390 05bd 6c79 e2bc 9221 14bc
00000020: 1b95 083d d7ec fc3c a97c d2bc afe9 0bbc
00000030: 0e0d b13c be3d c23c bd1d 023d c7f0 5e3b
00000040: fb56 aa3c 222e e33c 4146 023d 7733 df3c
00000050: eca8 b73c 2cb5 e83c 669e fa3c 670f 043d
00000060: 326b f33c 3b9c f43c 8ef2 9d3c 2701 743c
00000070: 3b04 7a3c 0bc2 833c 7361 d83c 31db d93c
00000080: 8879 a13c baca 883c 414c 903c 19e0 e03c
00000090: c953 e83c 4d42 be3c 48de a13c 0872 7d3c
000000a0: 48ea f43c 1c45 f33c ba15 c73c bbb8 9d3c
000000b0: c099 923c eb9c c43c cdfe a93c a4ca b63c
000000c0: f5ea a13c a8a3 9b3c 0400 0000 0400 0000
000000d0: 0400 0000 0400 0000 0400 0000 0400 0000
000000e0: 0400 0000 0400 0000 0400 0000 0400 0000
000000f0: 0400 0000 0400 0000 0400 0000 0400 0000
00000100: 0400 0000 0400 0000 0400 0000 0400 0000
00000110: 0400 0000 0400 0000 0400 0000 0400 0000
00000120: 0400 0000 0400 0000 0400 0000 0400 0000
00000130: 0400 0080 0400 0000 0400 0000 0400 0000
00000140: 0400 0000 0400 0000 0400 0000 0400 0000
00000150: 0400 0000 0400 0000 0400 0000 0400 0000
00000160: 0400 0000 0400 0000 0400 0000 0400 0000
00000170: 0400 0000 0400 0000 0400 0000 0400 0000
00000180: 0400 0000 0400 0000 0400 0000 0400 0000
00000190: fa25 50bc b31d a1bc fb1b 9ebc d8ae b0bc
000001a0: 6bce a8bc a608 48bc a699 32bc 1820 81bc
000001b0: 0b66 a8bc 66da aabc 914f 3ebc a450 3fbc
000001c0: 81bd 1ebc 7515 9bbc 712a 9fbc 5cd0 21bc
000001d0: e112 30bc 3dcb b1bc cb8b ccbc f4c3 bebc
000001e0: 0bb5 27bc 5167 babc 1bbb c4bc 626c ccbc
000001f0: 9eda cabc 8b9f 3abc 9d54 2fbc 2527 09bc
00000200: b76c edbb 02ce f1bb d692 1ebc 6579 10bc
00000210: d394 0bbc f6bb 02bc 133d f0bb d976 5abc
00000220: 2aee 59bc e05c 45bc a925 19bc b0cc 09bc
00000230: e98e 6cbc f15f 45bc f6f1 22bc 69b9 19bc
00000240: 572b 1abc f776 50bc 91c7 28bc 8775 1bbc
00000250: 2e74 07bc df41 0ebc c273 38bb bf01 64bb
00000260: beb4 8f3c f8e3 3f3c c1ed 633c 46e6 39bc
00000270: 84ae 26bc 98f3 463c e536 7f3c af38 8d3c
00000280: 8f7b c0bb 3de6 17bc e38d 583c e430 693c
00000290: a648 833c 3f03 debb 2c49 a9bb 73b3 7e3c
000002a0: bef7 503c 2967 373c b520 31bc fd0c ef3a
000002b0: f44b 743c 73a9 603c a9d6 4a3c 4697 08be
000002c0: f31e 11be 4c72 13be 44e6 12be f1ab 09be
000002d0: 803d c4bd b50d f3bd 12cf 13be 75c7 21be
000002e0: 9904 0fbe 8aaa cdbd ef5f dabd 2306 00be
000002f0: 5ba3 09be a090 06be 7d60 f3bd bed5 01be
00000300: bfa2 02be d89d 04be 365e 03be de88 f5bd
00000310: 8e7c 01be 72d4 03be 0d85 03be d18c 02be
00000320: cda6 193c 80e4 1c3c 28e9 1c3c f022 613c
00000330: e0f1 b53b e1de c73b 019c 0c3c 6d45 503c
00000340: 163f f43b da1b d33a 1012 40bb d144 4cbb
00000350: eb71 163b 9c0a e03b 201b a13b 4829 1cbc
00000360: 6e7c 10bc 9492 22ba bd15 d33b a1e1 153c
00000370: ba3d 25bc 73d4 f4bb 2a0b e139 b127 ea3b
00000380: dc92 123c a87c fdbc 9288 f0bc a2c0 07bd
00000390: e002 1abd a5f5 a5bc 469a f7bc 3c5f 04bd
000003a0: ca09 10bd b165 82bc fa00 3cbc b877 e7bc
000003b0: 6d30 ddbc a9a0 44bc 3e50 4fbc 056d 43bc
000003c0: 056d 87bc 130d 03bc 9d98 febb 1b76 20bc
000003d0: 3f45 51bc 02d0 fabb 6a3e cfbb b60c 02bc
000003e0: 13f4 1abc 4e1f 38bc 0000 0000 0000 0000
000003f0: 0000 0000 0000 0000 0000 0000 0400 0000

exp_avg_sq f4 [32, 25]
0.061810344 0.06065736 0.060896337 0.060132235 0.060241185 0.0635951 0.05891814 0.052751955
0.05586863 0.059551965 0.06512597 0.056019574 0.039709352 0.046322446 0.054685723 0.06200449
0.054522544 0.045341343 0.04695935 0.051921025 0.056645587 0.051526085 0.047437027 0.04734702
0.050524622 0.053883918 0.057060596 0.06558283 0.075034305 0.08059292 0.0563791 0.05551551
0.06474256 0.076745614 0.08181101 0.0669059 0.06520534 0.0663649 0.07403358 0.07673042
0.06979166 0.069958635 0.062015466 0.05725657 0.059278153 0.07126906 0.06957726 0.06296441
0.05724726 0.05785449 7e-43 7e-43 7e-43 7e-43 7e-43 7e-43
7e-43 7e-43 7e-43 7e-43 7e-43 7e-43 7e-43 7e-43
7e-43 7e-43 7e-43 7e-43 7e-43 7e-43 7e-43 7e-43
7e-43 7e-43 7e-43 7e-43 7e-43 7e-43 7e-43 7e-43
7e-43 7e-43 7e-43 7e-43 7e-43 7e-43 7e-43 7e-43
7e-43 7e-43 7e-43 7e-43 7e-43 7e-43 7e-43 7e-43
7e-43 7e-43 7e-43 7e-43 0.037588187 0.03505401 0.040058427 0.050300438
0.055930108 0.039908268 0.03594325 0.039506927 0.05338352 0.06054737 0.041472044 0.039928447
0.04522437 0.06022231 0.066505045 0.04458142 0.045637216 0.05186629 0.061217017 0.06607665
0.046135206 0.047614712 0.0538257 0.060483664 0.065173924 0.008067009 0.00773568 0.0075974236
0.008305275 0.0091978675 0.008714518 0.007995952 0.00790847 0.008588669 0.010246554 0.011247311
0.010928711 0.011679315 0.012081657 0.012835894 0.011953975 0.012257292 0.012961428 0.013572603
0.013727604 0.012286964 0.012557699 0.013381318 0.01373027 0.013762402 0.114616394 0.11060016
0.09902428 0.08460239 0.0844698 0.12178395 0.11449875 0.09558776 0.08724395 0.09650084
0.118528835 0.11381122 0.105799384 0.11706626 0.11787227 0.098886654 0.08376131 0.08493278
0.10320618 0.11694947 0.08579453 0.07812305 0.08367635 0.09835211 0.10838461 0.055789143
0.05966115 0.06738583 0.074330166 0.07483293 0.05356482 0.05632538 0.06499514 0.07293429
0.0756372 0.051069435 0.050523337 0.05635691 0.067450054 0.07265423 0.047237437 0.043773614
0.047281902 0.059149854 0.066269346 0.043612566 0.04227387 0.048193797 0.056752574 0.06274793
0.09831533 0.099493325 0.10686497 0.10587569 0.10487581 0.100528695 0.10125419 0.113341935
0.11042323 0.11157356 0.1142136 0.11777214 0.13798456 0.12840398 0.124814585 0.11084159
0.11106285 0.11644611 0.11510342 0.11582873 0.10775184 0.106924884 0.10890566 0.10964332
0.11302054 0.017697932 0.017646728 0.016576475 0.014244949 0.0125850495 0.01737117 0.01743487
0.015522207 0.01259835 0.01226858 0.015441498 0.015147479 0.013458593 0.0149487285 0.01521555
0.011550399 0.0103595145 0.011798662 0.014937644 0.016160548 0.010224573 0.0105100535 0.012140555
0.014762618 0.015753698 0.0 0.0 0.0 0.0 0.0 7e-43
00000000: d82c 7d3d da73 783d 706e 793d 384d 763d
00000010: 76bf 763d 263e 823d 2654 713d 6f12 583d
00000020: 81d6 643d c3ec 733d c460 853d c874 653d
00000030: 46a6 223d 9bbc 3d3d 23fe 5f3d 6cf8 7d3d
00000040: 0853 5f3d d8b7 393d 7358 403d 24ab 543d
00000050: 3405 683d 040d 533d 544d 423d f3ee 413d
00000060: e8f2 4e3d 62b5 5c3d 5fb8 693d 4a50 863d
00000070: 96ab 993d e70d a53d c5ed 663d 3b64 633d
00000080: bf97 843d ce2c 9d3d 888c a73d f605 893d
00000090: 618a 853d 52ea 873d eb9e 973d d724 9d3d
000000a0: eeee 8e3d 7946 8f3d ee03 7e3d dd85 6a3d
000000b0: a6cd 723d 83f5 913d 867e 8e3d 7cf3 803d
000000c0: 1a7c 6a3d d4f8 6c3d f401 0000 f401 0000
000000d0: f401 0000 f401 0000 f401 0000 f401 0000
000000e0: f401 0000 f401 0000 f401 0000 f401 0000
000000f0: f401 0000 f401 0000 f401 0000 f401 0000
00000100: f401 0000 f401 0000 f401 0000 f401 0000
00000110: f401 0000 f401 0000 f401 0000 f401 0000
00000120: f401 0000 f401 0000 f401 0000 f401 0000
00000130: f401 0000 f401 0000 f401 0000 f401 0000
00000140: f401 0000 f401 0000 f401 0000 f401 0000
00000150: f401 0000 f401 0000 f401 0000 f401 0000
00000160: f401 0000 f401 0000 f401 0000 f401 0000
00000170: f401 0000 f401 0000 f401 0000 f401 0000
00000180: f401 0000 f401 0000 f401 0000 f401 0000
00000190: 12f6 193d cb94 0f3d 4e14 243d d507 4e3d
000001a0: f816 653d da76 233d 3b39 133d 04d2 213d
000001b0: aea8 5a3d 8500 783d 97de 293d 038c 233d
000001c0: 303d 393d abab 763d cc33 883d 029b 363d
000001d0: 17ee 3a3d bf71 543d b2be 7a3d 3253 873d
000001e0: 45f8 3c3d a507 433d 5678 5c3d b8bd 773d
000001f0: e879 853d 7d2b 043c 967b fd3b cff3 f83b
00000200: d912 083c a7b2 163c 56c7 0e3c 7401 033c
00000210: 8792 013c 7db7 0c3c 2ae1 273c a446 383c
00000220: 560e 333c 995a 3f3c 24f2 453c a44d 523c
00000230: 9bda 433c cfd2 483c 2b5c 543c a05f 5e3c
00000240: bfe9 603c 434f 493c cfbe 4d3c 513d 5b3c
00000250: edf4 603c b37b 613c 00bc ea3d 5682 e23d
00000260: 3ecd ca3d 0544 ad3d 81fe ac3d dd69 f93d
00000270: 527e ea3d 84c3 c33d f5ac b23d 3ba2 c53d
00000280: 3fbf f23d db15 e93d 59ad d83d 6fc0 ef3d
00000290: 0467 f13d 1685 ca3d 0d8b ab3d 3df1 ad3d
000002a0: c35d d33d 3483 ef3d 0bb5 af3d fafe 9f3d
000002b0: 825e ab3d d56c c93d c0f8 dd3d 2883 643d
000002c0: 405f 743d 9501 8a3d 6a3a 983d 0242 993d
000002d0: c966 5b3d 71b5 663d 2c1c 853d 935e 953d
000002e0: ade7 9a3d 2f2e 513d 8ff1 4e3d 81d6 663d
000002f0: 4123 8a3d becb 943d 0b7c 413d f64b 333d
00000300: abaa 413d 1e47 723d 39b8 873d 17a3 323d
00000310: 5e27 2d3d dc66 453d 6375 683d fd81 803d
00000320: 8c59 c93d 28c3 cb3d 05dc da3d 5bd5 d83d
00000330: 21c9 d63d fde1 cd3d 5b5e cf3d d11f e83d
00000340: 9325 e23d ae80 e43d d2e8 e93d 8532 f13d
00000350: d34b 0d3e 557c 033e ca9e ff3d ea00 e33d
00000360: eb74 e33d 4c7b ee3d 58bb eb3d 9d37 ed3d
00000370: ffac dc3d 6ffb da3d ee09 df3d ad8c e03d
00000380: 5077 e73d 41fb 903c df8f 903c 63cb 873c
00000390: a663 693c 8631 4e3c fc4d 8e3c 93d3 8e3c
000003a0: db50 7e3c 4f69 4e3c 2702 493c 56fe 7c3c
000003b0: 222d 783c 6e81 5c3c 83eb 743c a44a 793c
000003c0: e23d 3d3c f4ba 293c 2d4f 413c 05bd 743c
000003d0: 2063 843c f884 273c 5c32 2c3c 2ee9 463c
000003e0: e8de 713c e60d 813c 0000 0000 0000 0000
000003f0: 0000 0000 0000 0000 0000 0000 f401 0000

exp_avg f4 [32]
0.0037653258 0.029657453 6e-45 6e-45 -0.036499057 -0.0069498275 -0.09953516 -0.15382393
0.0073714275 -0.02666753 6e-45 0.018375058 -0.054274846 0.03353203 -0.02609959 0.07812374
6e-45 6e-45 -0.018242823 6e-45 0.07072865 6e-45 0.01331957 6e-45
-0.010410646 0.08549547 6e-45 0.027061654 6e-45 6e-45 -0.07760294 6e-45
00000000: afc3 763b 30f4 f23c 0400 0000 0400 0000
00000010: 0980 15bd 61bb e3bb 17d9 cbbd 0584 1dbe
00000020: 048c f13b dd75 dabc 0400 0000 4a87 963c
00000030: 4d4f 5ebd e258 093d cfce d5bc 57ff 9f3d
00000040: 0400 0000 0400 0000 f971 95bc 0400 0000
00000050: 2fda 903d 0400 0000 533a 5a3c 0400 0000
00000060: 6a91 2abc 4018 af3d 0400 0000 67b0 dd3c
00000070: 0400 0000 0400 0000 4aee 9ebd 0400 0000

exp_avg_sq f4 [32]
0.1615062 0.17599894 7e-43 7e-43 0.128909 0.026741128 0.28829703 0.14658155
0.28563184 0.04183144 7e-43 0.039982356 0.02613472 0.014789147 0.011646035 0.04330072
7e-43 7e-43 0.042294748 7e-43 0.17898 7e-43 0.1829201 7e-43
0.056308486 0.021303322 7e-43 0.066705205 7e-43 7e-43 0.14791119 7e-43
00000000: e261 253e 1139 343e f401 0000 f401 0000
00000010: b900 043e 3610 db3c ab9b 933e 7919 163e
00000020: 563e 923e 7257 2b3d f401 0000 8ac4 233d
00000030: 7b18 d63c 2e4e 723c 03cf 3e3c 195c 313d
00000040: f401 0000 f401 0000 423d 2d3d f401 0000
00000050: 8846 373e f401 0000 684f 3b3e f401 0000
00000060: baa3 663d 4e84 ae3c f401 0000 bd9c 883d
00000070: f401 0000 f401 0000 0876 173e f401 0000

exp_avg f4 [16, 32]
0.00035006413 -0.0025190178 0.0 6e-45 -0.0044056457 -0.001782437 0.005382737 -0.0043794075
-0.00040872634 0.0041796668 6e-45 0.0035091774 -0.0004893594 -0.00017592087 -0.011153243 -0.0003213975
6e-45 -6e-45 -1.3187211e-05 -6e-45 -0.006457384 6e-45 0.006750712 -6e-45
-0.0013702202 -0.006463862 6e-45 -0.0029335567 6e-45 -6e-45 -0.0019366366 0.0
0.005305448 -0.0033938438 -6e-45 6e-45 -0.005040986 -0.012230068 0.004456158 0.0010629697
-0.001108137 0.006841872 6e-45 0.0022862114 -0.0015375128 9.83306e-06 -0.004351497 -0.00063232804
-6e-45 -6e-45 -0.002142284 -6e-45 -0.0022340582 6e-45 0.0033301532 6e-45
-0.004825126 -0.0032587987 6e-45 -0.0028097471 6e-45 -6e-45 -0.0025089532 6e-45
0.0015721238 -0.0024074435 0.0 -6e-45 0.0007333854 0.0034301733 0.0016220562 0.0031262848
0.00049767474 0.0023917684 6e-45 0.0014844316 -0.00019817946 -0.0012615593 0.004456893 -0.0012249073
6e-45 -6e-45 0.00075470353 -6e-45 0.0045488025 -6e-45 -0.00015726288 6e-45
0.0004263172 0.0070874393 6e-45 -0.002552989 6e-45 6e-45 -0.002855818 6e-45
-7.592538e-05 -0.0012364095 6e-45 -6e-45 6.112218e-05 0.004071665 0.0017724157 -0.0022264551
0.0012165549 0.0008132709 6e-45 0.003773671 0.00097371073 2.8049692e-05 -0.001788731 -0.0016414048
6e-45 -6e-45 0.001128309 -6e-45 -9.20676e-06 -6e-45 0.0006182831 6e-45
0.00078109436 0.0009157135 6e-45 -0.0001360303 -6e-45 6e-45 0.00082100235 6e-45
0.0002202236 -0.00097448943 6e-45 -6e-45 -0.00041926437 -0.00041557182 -0.0014973037 -0.0018783252
-0.00042686844 -0.0012158444 0.0 0.0037202707 -6.311518e-05 -0.0001876866 -0.0019700015 -0.0011330293
6e-45 6e-45 -0.00035390424 -6e-45 -0.0002470104 -6e-45 0.004158897 -6e-45
-0.0001427005 0.0024933228 6e-45 -0.0016050591 0.0 6e-45 0.00046896978 0.0
0.0062461696 0.005674372 6e-45 -6e-45 0.0045496426 0.0006577835 -0.0038306909 0.015234301
0.0016558875 0.003914415 -6e-45 0.0004441882 -0.00022262709 0.001547689 0.018169377 -0.00024338195
6e-45 -6e-45 -7.928995e-05 6e-45 0.01645436 -6e-45 -0.001289836 -6e-45
0.00039370966 0.013818966 -6e-45 0.0062408643 -6e-45 6e-45 0.0033647658 6e-45
0.0036898258 5.342566e-06 -6e-45 6e-45 -7.167502e-05 -5.2055868e-05 -0.00013150416 0.010332572
0.0013839778 0.0052874386 -6e-45 0.0037856435 -7.502853e-05 -0.00014687893 0.0076784184 -2.0402678e-07
6e-45 -6e-45 -0.000311489 6e-45 0.016611088 6e-45 0.0015031426 -6e-45
-0.0001732115 0.010077772 -6e-45 -0.00014674771 -6e-45 -6e-45 0.0012469023 0.0
-0.00354524 -0.0007211314 0.0 -6e-45 7.6692166e-05 0.0005117116 -0.0024669592 -0.003153458
0.00043973498 9.4745774e-05 0.0 0.00022291568 0.00069219974 0.00017719646 -0.0024562082 0.00045787537
6e-45 6e-45 0.00032465867 -6e-45 0.00020121911 -6e-45 -0.0034830258 6e-45
-0.00097546837 0.00082126417 6e-45 -0.00020710625 0.0 -6e-45 -0.00042543426 6e-45
00000000: d088 b739 1b16 25bb 0000 0000 0400 0000
00000010: 3c5d 90bb a9a0 e9ba ac61 b03b 2281 8fbb
00000020: 524a d6b9 96f5 883b 0400 0000 3afa 653b
00000030: 5a48 00ba 6677 38b9 17bc 36bc 3e81 a8b9
00000040: 0400 0000 0400 0080 a43e 5db7 0400 0080
00000050: 7798 d3bb 0400 0000 1435 dd3b 0400 0080
00000060: f698 b3ba cece d3bb 0400 0000 ea40 40bb
00000070: 0400 0000 0400 0080 bed6 fdba 0000 0000
00000080: 53d9 ad3b 406b 5ebb 0400 0080 0400 0000
00000090: db2e a5bb a060 48bc f604 923b 5853 8b3a
000000a0: e83e 91ba c831 e03b 0400 0000 43d4 153b
000000b0: 5e86 c9ba acf8 2437 0197 8ebb d1c2 25ba
000000c0: 0400 0080 0400 0080 9065 0cbb 0400 0080
000000d0: 4769 12bb 0400 0000 b33e 5a3b 0400 0000
000000e0: 171c 9ebb 9291 55bb 0400 0000 bc23 38bb
000000f0: 0400 0000 0400 0080 406d 24bb 0400 0000
00000100: b90f ce3a 33c6 1dbb 0000 0000 0400 0080
00000110: a940 403a c2cc 603b 2d9b d43a 5be2 4c3b
00000120: 6376 023a 37bf 1c3b 0400 0000 4291 c23a
00000130: 65ce 4fb9 e85a a5ba 210b 923b 128d a0ba
00000140: 0400 0000 0400 0080 4cd7 453a 0400 0080
00000150: 1f0e 953b 0400 0080 efe6 24b9 0400 0000
00000160: 5383 df39 c03d e83b 0400 0000 0c50 27bb
00000170: 0400 0000 0400 0000 ad28 3bbb 0400 0000
00000180: 213a 9fb8 050f a2ba 0400 0000 0400 0080
00000190: b82e 8038 9a6b 853b 6750 e83a b8e9 11bb
000001a0: cf74 9f3a b031 553a 0400 0000 b24f 773b
000001b0: 9f40 7f3a 414c eb37 da73 eaba 6824 d7ba
000001c0: 0400 0000 0400 0080 c5e3 933a 0400 0080
000001d0: bc76 1ab7 0400 0080 4714 223a 0400 0000
000001e0: 5bc2 4c3a 7e0c 703a 0400 0000 5ba3 0eb9
000001f0: 0400 0080 0400 0000 8938 573a 0400 0000
00000200: d3eb 6639 e174 7fba 0400 0000 0400 0080
00000210: b6d0 dbb9 1be1 d9b9 2d41 c4ba 2332 f6ba
00000220: 50cd dfb9 f85c 9fba 0000 0000 c9cf 733b
00000230: b45c 84b8 bdcd 44b9 241b 01bb 2882 94ba
00000240: 0400 0000 0400 0000 398c b9b9 0400 0080
00000250: 2d81 81b9 0400 0080 5b47 883b 0400 0080
00000260: e0a1 15b9 0467 233b 0400 0000 d960 d2ba
00000270: 0000 0000 0400 0000 0fe0 f539 0000 0000
00000280: abac cc3b 15f0 b93b 0400 0000 0400 0080
00000290: 2b15 953b 1a6f 2c3a 540c 7bbb 4a99 793c
000002a0: 5d0a d93a 7e44 803b 0400 0080 eee1 e839
000002b0: 0171 69b9 d3db ca3a f2d7 943c 5834 7fb9
000002c0: 0400 0000 0400 0080 7848 a6b8 0400 0000
000002d0: 4bcb 863c 0400 0080 b70f a9ba 0400 0080
000002e0: d16a ce39 f268 623c 0400 0080 2a80 cc3b
000002f0: 0400 0080 0400 0000 6783 5c3b 0400 0000
00000300: 01d1 713b 4b44 b336 0400 0080 0400 0000
00000310: 3c50 96b8 9056 5ab8 61e4 09b9 f349 293c
00000320: 9766 b53a 4042 ad3b 0400 0080 8f18 783b
00000330: a358 9db8 8303 1ab9 3e9b fb3b 7412 5bb4
00000340: 0400 0000 0400 0080 594f a3b9 0400 0000
00000350: fa13 883c 0400 0000 1905 c53a 0400 0080
00000360: 1ca0 35b9 3d1d 253c 0400 0080 4ae0 19b9
00000370: 0400 0080 0400 0080 196f a33a 0000 0000
00000380: 4257 68bb 4f0a 3dba 0000 0000 0400 0080
00000390: cbd5 a038 6224 063a b5ac 21bb 3faa 4ebb
000003a0: 3b8c e639 40b2 c638 0000 0000 79be 6939
000003b0: bd74 353a d0cd 3939 56f8 20bb fe0e f039
000003c0: 0400 0000 0400 0000 f336 aa39 0400 0080
000003d0: 58fe 5239 0400 0080 7a43 64bb 0400 0000
000003e0: 93b6 7fba 1b4a 573a 0400 0000 a92a 59b9
000003f0: 0000 0000 0400 0080 d20c dfb9 0400 0000

exp_avg_sq f4 [16, 32]
0.00025566254 0.00034750282 0.0 7e-43 0.00036812518 0.0003121906 0.00041672008 0.001138711
4.7900114e-05 0.00018437926 7e-43 0.001187765 7.360313e-05 5.853704e-07 0.0007881295 0.0002234941
7e-43 7e-43 1.5907228e-05 7e-43 0.00043170893 7e-43 0.0015797762 7e-43
0.0002144863 0.0003122124 7e-43 0.00042453365 7e-43 7e-43 0.00029253465 0.0
0.00013524701 0.00033207095 7e-43 7e-43 0.00060449407 0.0018996894 0.00047202923 0.0010274008
7.344902e-05 0.00018100886 7e-43 0.0013703116 0.00013296524 9.992128e-08 0.0005914679 0.00016687512
7e-43 7e-43 0.00031665745 7e-43 0.00011860221 7e-43 0.0015872493 7e-43
0.00048062592 0.00025203027 7e-43 0.0003925751 7e-43 7e-43 0.00036304904 7e-43
0.00039859564 0.0019694928 0.0 7e-43 0.0005985466 0.0017191967 0.0014497646 0.0023903933
8.533844e-05 0.00097335695 7e-43 0.0011729833 9.842472e-05 3.098307e-05 0.0016024852 0.00036884146
7e-43 7e-43 0.00030403477 7e-43 0.0016127111 7e-43 0.0021177833 7e-43
0.0003321087 0.00087329245 7e-43 0.00076373306 7e-43 7e-43 0.00071438483 7e-43
0.00037794732 0.0017062448 7e-43 7e-43 0.00030553574 0.0012646639 0.001532521 0.0019124356
6.213621e-05 0.00041976568 7e-43 0.005110155 0.0004726922 1.0679698e-05 0.0009518212 0.00036361656
7e-43 7e-43 0.0002775714 7e-43 9.946693e-05 7e-43 0.0063296477 7e-43
0.00017950784 0.00015011479 7e-43 0.0006907776 7e-43 7e-43 0.0017839723 7e-43
3.728655e-05 0.00071233494 7e-43 7e-43 0.001096906 0.0016064105 0.0011748547 0.0009757119
0.00017880677 0.00047727802 0.0 0.000843679 6.877411e-05 1.4489029e-06 0.0011820825 0.00017185684
7e-43 7e-43 0.00022555249 7e-43 0.0004713455 7e-43 0.0012104667 7e-43
0.0004394153 0.00044800254 7e-43 0.000611025 0.0 7e-43 0.00035684468 0.0
0.00077418267 0.00079145085 7e-43 7e-43 0.0005742042 0.00048654928 0.0006950805 0.0010072364
0.00023676781 0.00031363743 7e-43 0.0016111061 0.0002364427 5.387687e-05 0.0016637128 4.1402167e-05
7e-43 7e-43 2.2348315e-05 7e-43 0.0010571763 7e-43 0.0013847433 7e-43
0.0008562656 0.00072072033 7e-43 0.0010702756 7e-43 7e-43 0.0006433275 7e-43
0.0002039525 0.00014486046 7e-43 7e-43 7.195154e-05 3.0856638e-05 0.00013614891 0.00015274464
4.0280655e-05 6.377247e-05 7e-43 0.00019415471 3.8684466e-05 2.0148484e-05 0.00025751267 1.1050264e-06
7e-43 7e-43 4.9916725e-06 7e-43 0.0003105313 7e-43 0.00017873294 7e-43
0.00024007258 0.0001239931 7e-43 0.00017150088 7e-43 7e-43 0.00017042735 0.0
0.0005955836 0.00069552753 0.0 7e-43 0.00088849594 0.0034779476 0.0019954229 0.0021270008
0.000106815554 0.0004907462 0.0 0.0019355973 0.0004126491 1.9625319e-05 0.0006746991 0.0004807928
7e-43 7e-43 0.0006608993 7e-43 1.01518235e-05 7e-43 0.0024440566 7e-43
0.0007998459 0.000109923785 7e-43 0.0007970013 0.0 7e-43 0.0016256367 7e-43
00000000: 720a 8639 0a31 b639 0000 0000 f401 0000
00000010: ed00 c139 83ad a339 397b da39 cd40 953a
00000020: 5be8 4838 ee55 4139 f401 0000 c8ae 9b3a
00000030: 615b 9a38 5922 1d35 7a9a 4e3a be59 6a39
00000040: f401 0000 f401 0000 8370 8537 f401 0000
00000050: fe56 e239 f401 0000 7e10 cf3a f401 0000
00000060: bae7 6039 70b0 a339 f401 0000 f193 de39
00000070: f401 0000 f401 0000 565f 9939 0000 0000
00000080: 18d1 0d39 cf19 ae39 f401 0000 f401 0000
00000090: e976 1e3a 00ff f83a b17a f739 daa9 863a
000000a0: a408 9a38 32cd 3d39 f401 0000 079c b33a
000000b0: 966c 0b39 4e94 d633 bd0c 1b3a 33fb 2e39
000000c0: f401 0000 f401 0000 0b05 a639 f401 0000
000000d0: 14ba f838 f401 0000 400b d03a f401 0000
000000e0: 85fc fb39 ee22 8439 f401 0000 8ad2 cd39
000000f0: f401 0000 f401 0000 9e57 be39 f401 0000
00000100: 9afa d039 9b12 013b 0000 0000 f401 0000
00000110: c8e7 1c3a ab56 e13a 0706 be3a 25a8 1c3b
00000120: baf7 b238 e128 7f3a f401 0000 cabe 993a
00000130: 5f69 ce38 d1f3 0138 7b0a d23a 1061 c139
00000140: f401 0000 f401 0000 db66 9f39 f401 0000
00000150: 9b61 d33a f401 0000 82ca 0a3b f401 0000
00000160: e01e ae39 aaed 643a f401 0000 4235 483a
00000170: f401 0000 f401 0000 8e45 3b3a f401 0000
00000180: 3b27 c639 13a4 df3a f401 0000 f401 0000
00000190: 5030 a039 14c3 a53a dfde c83a b1aa fa3a
000001a0: 204f 8238 ff13 dc39 f401 0000 1673 a73b
000001b0: acd3 f739 f42c 3337 a483 793a caa3 be39
000001c0: f401 0000 f401 0000 0187 9139 f401 0000
000001d0: e798 d038 f401 0000 ef68 cf3b f401 0000
000001e0: 453a 3c39 2268 1d39 f401 0000 4d15 353a
000001f0: f401 0000 f401 0000 2dd4 e93a f401 0000
00000200: 2164 1c38 fdbb 3a3a f401 0000 f401 0000
00000210: 0fc6 8f3a 318e d23a 95fd 993a ebc6 7f3a
00000220: 147e 3b39 2c3b fa39 0000 0000 572a 5d3a
00000230: d23a 9038 ed77 c235 1bf0 9a3a 7834 3439
00000240: f401 0000 f401 0000 4982 6c39 f401 0000
00000250: ec1e f739 f401 0000 86a8 9e3a f401 0000
00000260: 5361 e639 e2e1 ea39 f401 0000 322d 203a
00000270: 0000 0000 f401 0000 e216 bb39 0000 0000
00000280: 85f2 4a3a 5e79 4f3a f401 0000 f401 0000
00000290: 3186 163a 8a17 ff39 1036 363a 3f05 843a
000002a0: e044 7839 b46f a439 f401 0000 c02b d33a
000002b0: 9bed 7739 d9f9 6138 f010 da3a 3da7 2d38
000002c0: f401 0000 f401 0000 a478 bb37 f401 0000
000002d0: f390 8a3a f401 0000 4680 b53a f401 0000
000002e0: 0377 603a b9ee 3c3a f401 0000 7d48 8c3a
000002f0: f401 0000 f401 0000 faa4 283a f401 0000
00000300: 15dc 5539 afe5 1739 f401 0000 f401 0000
00000310: b0e4 9638 106c 0138 32c3 0e39 142a 2039
00000320: 06f3 2838 96bd 8538 f401 0000 0296 4b39
00000330: 2141 2238 8a04 a937 c402 8739 6b50 9435
00000340: f401 0000 f401 0000 247e a736 f401 0000
00000350: cece a239 f401 0000 426a 3b39 f401 0000
00000360: febb 7b39 2504 0239 f401 0000 ebd4 3339
00000370: f401 0000 f401 0000 beb4 3239 0000 0000
00000380: f020 1c3a 1054 363a 0000 0000 f401 0000
00000390: f4e9 683a 47ee 633b a4c5 023b 2765 0b3b
000003a0: 2a02 e038 6ca5 003a 0000 0000 deb3 fd3a
000003b0: d358 d839 0da1 a437 4ade 303a eb12 fc39
000003c0: f401 0000 f401 0000 3440 2d3a f401 0000
000003d0: c051 2a37 f401 0000 772c 203b f401 0000
000003e0: c0ac 513a e286 e638 f401 0000 daed 503a
000003f0: 0000 0000 f401 0000 5113 d53a f401 0000

exp_avg f4 [16]
-0.015630845 -0.00961158 0.025874037 -0.022054676 0.0072670323 0.048194144 0.05689213 -0.027520258
0.033540163 6e-45 6e-45 0.0236592 -0.009841082 -0.0015065364 -0.00047045815 0.015887735
00000000: 420c 80bc e379 1dbc caf5 d33c 02ac b4bc
00000010: 4920 ee3b 3967 453d b907 693d 2a72 e1bc
00000020: 6961 093d 0400 0000 0400 0000 f0d0 c13c
00000030: 7d3c 21bc f976 c5ba d3a7 f6b9 ff26 823c

exp_avg_sq f4 [16]
0.010923288 0.014759079 0.039142262 0.03830783 0.019687992 0.027274666 0.018886354 0.028824676
0.005865183 7e-43 7e-43 0.040797327 0.019419111 0.030561643 0.011173917 0.009839926
00000000: 97f7 323c 10d0 713c a353 203d ace8 1c3d
00000010: b648 a13c 1f6f df3c 8eb7 9a3c ba21 ec3c
00000020: b930 c03b f401 0000 f401 0000 191b 273d
00000030: d414 9f3c 695c fa3c ce12 373c a437 213c

exp_avg f4 [3, 16]
-0.0017842295 -0.00066672853 -0.00047036423 0.00038612276 0.00017644314 -0.0022389148 -0.00041392882 0.001333721
-0.0029410513 -6e-45 6e-45 -0.0006349099 -0.0046674237 -0.00066120026 -0.0014927987 -0.00079783396
-0.0016721534 6.189454e-05 0.0004077588 8.0130216e-05 -2.1548934e-05 0.00044465848 0.00022923136 0.00013262802
-0.00048648453 6e-45 6e-45 8.438871e-05 0.001205249 0.0004055637 0.00029309685 -0.0011531689
0.0034563846 0.0006048357 6.260695e-05 -0.0004662524 -0.000154893 0.0017942585 0.00018470228 -0.0014663482
0.0034275362 6e-45 -6e-45 0.0005505236 0.0034621789 0.00025563798 0.0011997044 0.0019510036
00000000: cfdc e9ba 65c7 2eba 389b f6b9 8570 ca39
00000010: 9803 3939 c2ba 12bb 9604 d9b9 40d0 ae3a
00000020: a7be 40bb 0400 0080 0400 0000 1570 26ba
00000030: 30f1 98bb 6654 2dba 03aa c3ba bb25 51ba
00000040: 282c dbba 61cd 8138 76c8 d539 950b a838
00000050: fcc3 b4b7 0d21 e939 d35d 7039 1012 0b39
00000060: d90e ffb9 0400 0000 0400 0000 d8f9 b038
00000070: 72f9 9d3a d7a1 d439 cbaa 9939 ed25 97ba
00000080: 8384 623b d68d 1e3a da4b 8338 5673 f4b9
00000090: c66a 22b9 532d eb3a a4ac 4139 7b32 c0ba
000000a0: 84a0 603b 0400 0000 0400 0080 0351 103a
000000b0: b9e5 623b 2607 8639 663f 9d3a d1b8 ff3a

exp_avg_sq f4 [3, 16]
0.0001878714 2.8603523e-05 8.958787e-06 9.341045e-06 1.0035815e-05 4.7386143e-06 2.727451e-07 3.5994144e-05
4.66888e-05 7e-43 7e-43 2.0770174e-05 0.0002771677 2.1998789e-05 8.6774235e-05 2.881513e-05
4.564268e-05 3.2138664e-06 4.9394316e-06 3.029085e-06 2.164166e-05 2.2631632e-05 7.315897e-06 2.3875722e-05
2.7645223e-05 7e-43 7e-43 7.2874464e-06 1.174668e-05 5.0617423e-06 3.5878136e-06 6.283644e-05
0.00020448846 2.66805e-05 1.36166755e-05 1.1960503e-05 3.0316382e-05 2.352803e-05 7.303166e-06 5.7689722e-05
7.275497e-05 7e-43 7e-43 1.8822053e-05 0.00028336348 1.950665e-05 8.5313455e-05 7.749263e-05
00000000: 58ff 4439 99f1 ef37 b24d 1637 7cb7 1c37
00000010: 7f5f 2837 6300 9f36 cd6d 9234 6bf8 1638
00000020: b8d3 4338 f401 0000 f401 0000 9c3b ae37
00000030: d250 9139 0a8a b837 90fa b538 05b8 f137
00000040: 7470 3f38 cead 5736 65bd a536 4947 4b36
00000050: 1c8b b537 0fd9 bd37 147b f536 b948 c837
00000060: aae7 e737 f401 0000 f401 0000 b086 f436
00000070: 9b13 4537 09d8 a936 2bc6 7036 0fc7 8338
00000080: f46b 5639 f0cf df37 2d73 6437 f8a9 4837
00000090: ef4f fe37 0f5e c537 b80d f536 def7 7138
000000a0: 0794 9838 f401 0000 f401 0000 0de4 9d37
000000b0: 6790 9439 36a2 a337 50ea b238 8a83 a238

exp_avg f4 [3]
-0.008199703 -0.00013125718 0.00833097
00000000: 0c58 06bc 15a2 09b9 9f7e 083c

exp_avg_sq f4 [3]
0.001332351 0.0005744547 0.0016309876
00000000: 48a2 ae3a 0197 163a ddc6 d53a

loss f8 []
0.041359949490288275
00000000: 9a99 d99c 212d a53f
