34_no_regu_epoch_edge_detector.pth (torch, 25382 bytes, 19 tensors)

model.0.weight f4 [32, 25]
-0.005819869 -0.0064116516 -0.0045708604 -0.0038678842 -0.0025273256 -0.005187947 -0.0073100347 -0.0074493303
-0.0015407616 -0.0012347325 -0.0056420574 -0.0062235203 -0.0059281345 0.0013193167 -0.0008388344 -0.005253922
-0.007082514 -0.005645816 -0.0007293418 -0.0035839307 -0.0035244243 -0.005114194 -0.004283132 -0.0022749726
-0.0023673333 0.03711388 0.015369309 0.005799045 -0.00944524 0.032788064 -0.19128908 0.028164467
0.3160159 0.14830728 -0.18669626 -0.3334034 -0.20830525 0.74154973 -0.1005772 -0.38351387
-0.18258016 0.047564056 0.27323118 0.07678853 -0.23332362 0.06797919 -0.0064575267 0.02610466
-0.003039988 0.025455344 -0.03884514 0.1973885 0.15922505 0.062969156 0.12447321 0.11219974
0.15787093 0.074227154 0.013639877 -0.050787136 -0.02008279 -0.1962466 -0.62892 -0.37944296
-0.16007815 0.027481643 -0.02807315 0.038577277 -0.06280991 -0.0065902798 0.12769681 0.24504803
0.26016337 0.053720683 0.03980645 0.1467464 0.10166238 0.05190692 0.14493486 0.21181223
0.16928142 -0.115832485 -0.30735102 -0.044805657 0.34132805 0.38035566 -0.31373635 -0.45177183
-0.15787971 0.30628765 0.18316552 0.012458022 -0.041095663 -0.24734266 -0.054758847 -0.037855774
-0.09606001 -0.018050352 -0.0861207 -0.10453915 -0.028294154 -0.06228441 -0.0318063 -0.049183585
0.14411293 -0.025400827 0.15850888 -0.012779223 -0.12587087 0.1950657 -0.15163393 0.56857663
-0.11388034 -0.74015456 0.039782714 0.0175993 0.15375966 -0.044609357 -0.035080887 0.16419785
-0.064423904 0.047111966 0.06114784 -0.06817605 0.023546655 0.029329678 -0.0851639 -0.056890707
0.05821823 -0.014572359 -0.14441955 0.12573451 0.2952355 0.079823054 -0.088981986 0.08027756
0.27255782 0.5347608 0.02760712 -0.095051356 0.059448704 -0.29884532 -0.407035 -0.6386146
-0.060733106 0.02744149 0.13721359 0.09816909 0.10019695 -0.031216301 -0.004255236 -0.007993748
-0.006608287 -0.0013011812 -0.0013471526 -0.0015393329 -0.012866912 -0.01735763 -0.004666491 -0.0025763328
-0.0039883084 -0.0023294897 0.007456347 -0.009323125 -0.012858001 -0.008956113 -0.0023984783 0.0011476757
-0.0024819789 -0.006669204 -0.005908819 -0.0028107353 0.00060421583 -0.002434801 -0.0040775696 0.15111499
-0.09108238 0.08238532 0.023246592 0.042288024 0.009255292 -0.080485195 -0.3228644 -0.23827636
0.04974272 0.06404276 0.008568904 -4.733739 -0.16655703 0.1455814 0.12375666 -0.031149836
-0.40933964 -0.09878739 0.17322436 0.045609865 -0.094239205 0.12548597 -0.055753965 0.08129054
-0.06206102 -0.0845578 0.08460523 0.06842771 0.08148217 -0.09266305 0.061268676 -0.03870242
0.13462423 0.0530684 -0.0027536491 0.14879088 -5.8215575 -0.299041 0.07015434 0.24840619
-0.230866 -0.27665287 -0.18783583 -0.12457259 -0.19163755 0.051770363 -0.0774158 0.2576116
-0.009427595 -0.0027630902 -0.0050344 -0.0076056737 -0.011369053 -0.010803782 -0.002624611 0.0022845264
-0.0025301122 -0.013537267 -0.012937578 -0.005740838 0.0035578317 -0.0055531524 -0.017074393 -0.012699252
-0.0052047963 -0.0010504387 -0.007978351 -0.015084052 -0.010755145 -0.0009855304 0.001201234 -0.004943558
-0.011246594 -0.012830068 0.14326164 0.25568527 0.2692435 0.16420525 0.08943902 0.24119258
00000000: 9ab4 bebb d518 d2bb 28c7 95bb 547c 7dbb
00000010: 7da1 25bb a7ff a9bb 0489 efbb 8319 f4bb
00000020: 61f3 c9ba bfd6 a1ba 02e1 b8bb acee cbbb
00000030: cc40 c2bb ecec ac3a 39e5 5bba 1829 acbb
00000040: 6f14 e8bb 8a00 b9bb 4d31 3fba 61e0 6abb
00000050: 07fa 66bb f894 a7bb 8459 8cbb b517 15bb
00000060: 4325 1bbb b904 183d 8ecf 7b3c ea05 be3b
00000070: 35c0 1abc c74c 063d 49e1 43be 2bb9 e63c
00000080: d6cc a13e dddd 173e 4e2d 3fbe dab3 aabe
00000090: f94d 55be 34d6 3d3f 6bfb cdbd ee5b c4be
000000a0: 4bf6 3abe 87d2 423d f5e4 8b3e 4e43 9d3d
000000b0: 63ec 6ebe ac38 8b3d a999 d3bb 71d9 d53c
000000c0: 893a 47bb ba87 d03c 151c 1fbd 3620 4a3e
000000d0: e40b 233e f9f5 803d cfeb fe3d fac8 e53d
000000e0: eba8 213e 6804 983d ca79 5f3c 2c06 50bd
000000f0: aa84 a4bc def4 48be e700 21bf 5946 c2be
00000100: 87eb 23be 2f21 e13c aaf9 e5bc 3503 1e3d
00000110: 7ba2 80bd 46f3 d7bb f4c2 023e dfed 7a3e
00000120: 2234 853e 380a 5c3d 170c 233d b044 163e
00000130: 5e34 d03d 5a9c 543d ce69 143e 4ee5 583e
00000140: 1c58 2d3e 9539 edbd 1d5d 9dbe 2386 37bd
00000150: 8dc2 ae3e fabd c23e 0da2 a0be a34e e7be
00000160: 38ab 21be bcd1 9c3e be8f 3b3e bb1c 4c3c
00000170: ed53 28bd 6547 7dbe d04a 60bd a80e 1bbd
00000180: 1cbb c4bd 55de 93bc 0d60 b0bd 9f18 d6bd
00000190: 24c9 e7bc f01d 7fbd 5347 02bd ba74 49bd
000001a0: 5792 133e 6515 d0bc 2750 223e f25f 51bc
000001b0: 4be4 00be 4ebf 473e ed45 1bbe 3d8e 113f
000001c0: 183a e9bd c57a 3dbf 33f3 223d 682c 903c
000001d0: 2c73 1d3e 4db8 36bd fab0 0fbd 7b23 283e
000001e0: aef0 83bd 7af8 403d 2876 7a3d e39f 8bbd
000001f0: eae4 c03c cb44 f03c 696a aebd 3b06 69bd
00000200: 3d76 6e3d e7c0 6ebc b8e2 13be 8cc0 003e
00000210: 1c29 973e 457a a33d 303c b6bd 9068 a43d
00000220: b38c 8b3e 15e6 083f 5428 e23c 49aa c2bd
00000230: 7c80 733d 4102 99be e466 d0be 3f7c 23bf
00000240: 47c3 78bd facc e03c b881 0c3e e00c c93d
00000250: 0f34 cd3d 54b9 ffbc 826f 8bbb 36f8 02bc
00000260: 548a d8bb 658c aaba f192 b0ba 71c3 c9ba
00000270: becf 52bc 9731 8ebc 5de9 98bb b1d7 28bb
00000280: 5bb0 82bb 5aaa 18bb 5f54 f43b 05c0 18bc
00000290: 5daa 52bc a9bc 12bc ca2f 1dbb 9b6d 963a
000002a0: b2a8 22bb 5789 dabb c49e c1bb 5034 38bb
000002b0: 3d64 1e3a 2f91 1fbb 229d 85bb e3bd 1a3e
000002c0: 6689 babd a2b9 a83d a36f be3c 3536 2d3d
000002d0: 82a3 173c 6cd5 a4bd 7c4e a5be b8fe 73be
000002e0: 06bf 4b3d da28 833d 9764 0c3c ca7a 97c0
000002f0: ed8d 2abe 4a13 153e 2274 fd3d f12d ffbc
00000300: f794 d1be 0b51 cabd ba61 313e 69d1 3a3d
00000310: 7c00 c1bd 657f 003e 455e 64bd a87b a63d
00000320: b233 7ebd a42c adbd 8245 ad3d d423 8c3d
00000330: 20e0 a63d 20c6 bdbd ddf4 7a3d 6e86 1ebd
00000340: efda 093e 405e 593d 9176 34bb a35c 183e
00000350: 334a bac0 e71b 99be 14ad 8f3d 315e 7e3e
00000360: 2368 6cbe 72a5 8dbe 0958 40be ea1f ffbd
00000370: a23c 44be 290d 543d 2d8c 9ebd abe5 833e
00000380: 3376 1abc f614 35bb 9cf7 a4bb 0439 f9bb
00000390: 4445 3abc 5902 31bc aa01 2cbb feb7 153b
000003a0: 3dd0 25bb 6acb 5dbc 23f8 53bc a41d bcbb
000003b0: 832a 693b 38f7 b5bb 99df 8bbc 8610 50bc
000003c0: ff8c aabb e0ae 89ba a1b7 02bc 1a23 77bc
000003d0: 5936 30bc ea2c 81ba b972 9d3a 92fd a1bb
000003e0: a243 38bc 3535 52bc 2eb3 123e 2ee9 823e
000003f0: 49da 893e 6c25 283e ce2b b73d 30fb 763e

model.0.bias f4 [32]
-0.0016273017 -0.028122202 -0.11756347 -0.063534856 -0.0047957096 0.0006284707 -0.0018862869 0.018003209
0.019973336 -0.0064760726 -0.09199163 -0.000651831 -0.058317285 -0.0013101248 -0.04906795 -0.008942655
0.03604577 0.03065361 -0.06162979 -0.00043524473 0.008763322 -0.047298618 -0.06047082 0.0068836375
-0.027477426 0.04580996 0.035429593 0.027080797 0.002183925 -0.0009364826 -0.0014660432 -0.0027849074
00000000: 2f4b d5ba 8860 e6bc 1ec5 f0bd 901e 82bd
00000010: 5425 9dbb f4bf 243a 493d f7ba 777b 933c
00000020: 1f9f a33c 3c35 d4bb 1c66 bcbd a3df 2aba
00000030: 1bde 6ebd 7eb8 abba 7afb 48bd 3784 12bc
00000040: bba4 133d 481d fb3c 856f 7cbd 8f31 e4b9
00000050: 0994 0f3c 32bc 41bd 40b0 77bd 2390 e13b
00000060: 5718 e1bc 3aa3 3b3d 9f1e 113d 8cd8 dd3c
00000070: 2e20 0f3b 497e 75ba 3f28 c0ba fe82 36bb

model.2.weight f4 [16, 32]
0.003625774 -1.16892 0.5628703 0.8693599 -0.52555513 -0.50241256 -0.0098858215 1.3133463
1.7263601 -5.4607033e-05 0.9691304 0.00025729742 0.9213353 -0.376584 0.86612153 0.022620816
1.0671685 -0.4932622 -0.6738637 0.0007227691 0.6166756 0.121656746 0.121889636 -0.11967303
-1.043589 1.2507062 -0.56181216 0.6789295 -0.12360196 -0.0008022469 9.8516735e-05 -0.00079800916
0.0021197195 0.24666218 -0.67923105 -0.49701682 -0.34776196 1.3262877 0.0013110727 -0.9570273
-1.3177202 0.00028841547 0.10645961 -0.0039973133 -0.28474855 1.5225681 -0.3798316 0.6277645
-0.53510135 0.848585 -0.4658266 -0.0036420298 -0.21480463 -0.70646626 -0.62077796 0.4137325
0.71312606 -0.8198143 1.4216605 -0.49568367 0.59246063 -0.0005918342 0.00011095191 -0.00079737045
-0.0004894277 -1.3254951 0.13931938 -0.6032684 0.767964 0.50562835 -0.0043254537 -1.0551502
-1.4420255 0.0003010084 -0.194802 -0.0006306551 0.15856014 -0.56916744 -0.58437735 0.016979165
-0.6612657 0.60950303 0.70074165 0.0025762704 -0.35172272 -0.23052174 -0.18253349 0.7905682
1.0336106 -0.7968471 0.5523624 -0.32816073 0.30415207 -4.5043736e-05 0.00036139291 0.00010783897
0.002732246 0.4717087 0.16542804 0.42284724 -0.6719658 -1.93495 0.00039935534 1.1862038
1.5509309 0.01068965 0.30793133 -0.00013419474 0.018314099 -1.8078148 0.7468307 0.08003059
0.8759389 -0.4016091 -1.235854 -0.005821207 0.8858753 -0.0058093183 0.96918106 -0.25999075
-0.40586093 1.014938 -0.61962724 1.1861061 -0.108095184 -0.00013694985 -7.815574e-05 -0.0026890398
-0.0023791923 -0.8681166 0.057402372 0.75225514 -0.41954267 -0.49340674 0.015319066 1.2947215
1.640503 -0.009187884 -0.24282728 -0.0018080702 0.21643901 -0.061115056 0.8631591 0.042215355
1.2857807 0.31859 -0.21668042 -0.00063397863 1.0779629 0.2625236 0.26023802 0.24641694
-0.30805743 1.2264348 -0.19670446 1.5065043 0.04171849 -0.0002303896 -7.216153e-05 0.0028829013
-0.0010494097 -1.3585284 -0.2138745 -0.5312935 -0.60786194 -0.7880258 0.0036927753 1.1826369
1.190024 0.0043784785 -0.051816657 -0.00018119396 -0.1574404 -0.94719744 0.008287896 -0.9544093
0.90844756 -0.025437485 -1.2843642 -0.0058434475 0.074538544 -0.3771075 -0.6394446 -0.4164874
-1.0606083 1.1644677 -0.12581693 0.5939546 -0.9509198 0.000312953 -0.00046000787 -0.003821465
-0.0027626026 -1.8519497 0.23044819 -0.49546677 0.76470286 -0.011975397 -0.005219592 -1.1386395
-1.1555232 -0.0014090765 -0.11738773 0.00045677208 0.06752637 -0.4872884 -0.46220803 0.055322792
-0.82693434 0.16634253 0.7615422 0.0021646498 -0.42507285 0.082979426 -0.0687456 0.696578
1.2406844 -0.84254926 0.49675086 -0.2946227 0.101131655 0.0003106327 -0.0003528376 -0.0006752045
-0.0005205747 -1.5056018 0.09219407 -0.46123183 0.67364454 0.084323 1.5350763e-06 -1.1283203
-1.1651402 -0.0035674192 -0.05144192 -0.00054514315 -0.1508839 0.012138831 -0.54757315 0.30070007
-0.9822359 0.2559646 0.66907305 0.0029243862 -0.4182386 -0.13068908 -0.29531938 0.64208525
1.3495257 -0.8573483 0.65263623 -0.358046 0.10809477 -0.00064529455 -0.0014349085 -0.00011816398
00000000: 659e 6d3b 2c9f 95bf 4518 103f 5f8e 5e3f
00000010: c88a 06bf 1c9e 00bf 24f8 21bc bb1b a83f
00000020: 5ef9 dc3f db09 65b8 ee18 783f e0e5 8639
00000030: a1dc 6b3f 9ecf c0be 24ba 5d3f 4a4f b93c
00000040: fa98 883f dd8c fcbe 5582 2cbf 3778 3d3a
00000050: 74de 1d3f 2c27 f93d 46a1 f93d 2217 f5bd
00000060: 5394 85bf 2417 a03f ecd2 0fbf 53ce 2d3f
00000070: 0623 fdbd e14d 52ba c59a ce38 7d31 51ba
00000080: feea 0a3b 0395 7c3e 16e2 2dbf fd78 febe
00000090: db0d b2be ccc3 a93f 4dd8 ab3a beff 74bf
000000a0: 0eab a8bf 7836 9739 7f07 da3d e5fb 82bb
000000b0: 90ca 91be 83e3 c23f 4a79 c2be 2db5 203f
000000c0: 67fc 08bf de3c 593f d380 eebe 1faf 6ebb
000000d0: bff5 5bbe f9da 34bf 4eeb 1ebf bfd4 d33e
000000e0: 6e8f 363f 5adf 51bf f9f8 b53f 40ca fdbe
000000f0: 80ab 173f 5225 1bba daae e838 a006 51ba
00000100: f04c 00ba d3a9 a9bf bda9 0e3e cc6f 1abf
00000110: 4a99 443f dc70 013f 89bc 8dbb 290f 87bf
00000120: 4b94 b8bf aad0 9d39 2d7a 47be 8c52 25ba
00000130: 975d 223e f5b4 11bf c199 15bf e417 8b3c
00000140: b548 29bf 6408 1c3f ce63 333f a5d6 283b
00000150: 0015 b4be e40d 6cbe 0fea 3abe ad62 4a3f
00000160: 5a4d 843f 2cfe 4bbf 9f67 0d3f af04 a8be
00000170: d2b9 9b3e 58ed 3cb8 5679 bd39 9b27 e238
00000180: 7b0f 333b cd83 f13e f865 293e 6f7f d83e
00000190: f305 2cbf 71ac f7bf 9160 d139 87d5 973f
000001a0: e784 c63f a423 2f3c 2da9 9d3e a0b6 0cb9
000001b0: 7307 963c 7a66 e7bf 4c30 3f3f 14e7 a33d
000001c0: 883d 603f b59f cdbe 7730 9ebf d3bf bebb
000001d0: b9c8 623f 185c bebb 401c 783f 821d 85be
000001e0: 01cd cfbe 7de9 813f e49f 1ebf 53d2 973f
000001f0: 0261 ddbd 329a 0fb9 8be7 a3b8 9a3a 30bb
00000200: 39ec 1bbb e43c 5ebf c01e 6b3d cb93 403f
00000210: 4cce d6be cf9f fcbe d2fc 7a3c 6fb9 a53f
00000220: 01fc d13f c788 16bc b7a7 78be c5fc ecba
00000230: 30a2 5d3e c853 7abd fff7 5c3f 02ea 2c3d
00000240: 7694 a43f 3a1e a33e 79e1 5dbe 9631 26ba
00000250: b0fa 893f 7e69 863e eb3d 853e b954 7c3e
00000260: b4b9 9dbe d1fb 9c3f e56c 49be 22d5 c03f
00000270: 02e1 2a3d bd94 71b9 6d55 97b8 0fef 3c3b
00000280: 598c 89ba 42e4 adbf eb01 5bbe da02 08bf
00000290: d79c 1bbf 0fbc 49bf 7d02 723b a560 973f
000002a0: b552 983f 5779 8f3b b43d 54bd e2fe 3db9
000002b0: 0e38 21be 887b 72bf f5c9 073c 2b54 74bf
000002c0: 0590 683f 4662 d0bc 0c66 a4bf 647a bfbb
000002d0: aaa7 983d 3c14 c1be a4b2 23bf d63d d5be
000002e0: 03c2 87bf 470d 953f 27d6 00be 690d 183f
000002f0: 7b6f 73bf d713 a439 362d f1b9 8b71 7abb
00000300: c80c 35bb b00c edbf 9cfa 6b3e d2ad fdbe
00000310: 91c3 433f 7534 44bc 1c09 abbb f0be 91bf
00000320: 2fe8 93bf c3b0 b8ba fa68 f0bd e97a ef39
00000330: 444b 8a3d dd7d f9be 88a6 ecbe 279a 623d
00000340: f8b1 53bf b255 2a3e 6ef4 423f ccdc 0d3b
00000350: 26a3 d9be 1ef1 a93d 7eca 8cbd f052 323f
00000360: bfce 9e3f 4fb1 57bf 2156 fe3e c9d8 96be
00000370: 1d1e cf3d 6adc a239 10fd b8b9 3500 31ba
00000380: 2d77 08ba 8fb7 c0bf 3fd0 bc3d 9426 ecbe
00000390: f873 2c3f 89b1 ac3d d208 ce35 cd6c 90bf
000003a0: 5023 95bf 5dcb 69bb c3b4 52bd f0e7 0eba
000003b0: 4f81 1abe f3e1 463c c12d 0cbf 5cf5 993e
000003c0: d073 7bbf cb0d 833e 5f48 2b3f 0fa7 3f3b
000003d0: 5f23 d6be 5cd3 05be 1a34 97be b35f 243f
000003e0: 42bd ac3f 2e7b 5bbf 2b13 273f ce51 b7be
000003f0: ca60 dd3d fc28 29ba 8a13 bcba cece f7b8

model.2.bias f4 [16]
0.11795789 0.028812053 0.04645767 0.38720483 -0.038097486 0.51757365 0.014553372 0.040406212
0.15650521 -0.00076882204 0.16686513 0.011390625 0.17871147 -0.0012884015 0.38183534 -0.0034063759
00000000: e893 f13d 4107 ec3c 664a 3e3d b63f c63e
00000010: 1c0c 1cbd b57f 043f 4471 6e3c fc80 253d
00000020: e742 203e c68a 49ba b1de 2a3e be9f 3a3c
00000030: 2400 373e 95df a8ba ec7f c33e 813d 5fbb

model.4.weight f4 [2, 16]
-3.049728 3.3950114 3.0287957 -2.1392748 -1.6356281 -6.6851044 3.2779274 3.2298853
2.0093207 3.2349668 2.0666707 4.7992573 2.0834043 -0.0014205829 -2.0607374 -0.00016915411
3.0492613 -3.3950067 -3.0275435 2.1391342 1.6358929 6.683576 -3.2781024 -3.2327266
-2.0111313 -3.2326734 -2.0674675 -4.7999644 -2.0843158 0.0002593342 2.0622416 -0.0021255277
00000000: be2e 43c0 de47 5940 cad7 4140 e1e9 08c0
00000010: 435c d1bf 60ec d5c0 90c9 5140 71b6 4e40
00000020: b698 0040 b209 4f40 5544 0440 8493 9940
00000030: 7f56 0540 da32 baba 1fe3 03c0 f65e 31b9
00000040: 1927 4340 ca47 59c0 46c3 41c0 93e7 0840
00000050: f064 d13f dbdf d540 6ecc 51c0 fee4 4ec0
00000060: 60b6 00c0 1fe4 4ec0 6351 04c0 4f99 99c0
00000070: 6e65 05c0 3ff7 8739 c4fb 0340 704c 0bbb

model.4.bias f4 [2]
-0.31835595 0.31837815
00000000: 8dff a2be 7602 a33e

exp_avg f4 [32, 25]
6e-45 6e-45 6e-45 6e-45 6e-45 6e-45 6e-45 6e-45
6e-45 6e-45 6e-45 6e-45 6e-45 6e-45 6e-45 6e-45
6e-45 6e-45 6e-45 6e-45 6e-45 6e-45 6e-45 6e-45
6e-45 0.0050556576 0.00528409 0.00519671 0.004292305 0.004181859 0.005060295 0.005165842
0.0052432385 0.004344094 0.0040979898 0.0050446014 0.005144924 0.0053313538 0.004281523 0.004088661
0.0045891744 0.004767066 0.004760701 0.0040899725 0.0040998063 0.004863278 0.0050490107 0.004591733
0.004054092 0.004115848 -0.00027566386 -0.0002754556 -0.00026324528 -0.00023013575 -0.00023678326 -0.0002749521
-0.00027486568 -0.0002837293 -0.00024926304 -0.00023835618 -0.0002593521 -0.00026522143 -0.00029208028 -0.00022930402
-0.00022195072 -0.00026683917 -0.00030466446 -0.0002930199 -0.00023396211 -0.00022735614 -0.0002994445 -0.0003052137
-0.0002919893 -0.00023599483 -0.00022920819 0.002974962 0.0029748036 0.0027105764 0.001806759 0.0010561872
0.0029720475 0.0029670503 0.0021583498 0.0010734384 0.0010920507 0.0029978794 0.0027358874 0.0012199568
0.0012283567 0.0011336511 0.0029042007 0.0013433004 0.0010558503 0.0012372043 0.0012014408 0.0016180503
0.0011217879 0.0010620252 0.0011835754 0.001346068 -0.00040396838 -0.0003055143 -2.7103182e-05 0.0013252987
0.0021554055 -0.0003910152 -0.00029353256 0.0006364565 0.002010168 0.002090994 -0.000401093 -0.00013490718
0.0014614118 0.0020522221 0.0020576047 -0.00029804485 0.0011194804 0.0016185573 0.002030481 0.0020371645
0.00080870633 0.0013594916 0.0016426313 0.001996266 0.002021173 0.004281455 0.004090624 0.0040565566
0.0047352514 0.005213029 0.0043046535 0.0042442624 0.004300412 0.004945984 0.005161424 0.004661038
0.0043982877 0.004603132 0.005042498 0.005392708 0.0031860569 0.0042646835 0.0059235767 0.0057119275
0.0054716724 0.003704781 0.0056616087 0.0059311255 0.005957553 0.005900097 6e-45 6e-45
-6e-45 -6e-45 -6e-45 6e-45 6e-45 6e-45 6e-45 -6e-45
6e-45 6e-45 6e-45 6e-45 -6e-45 6e-45 6e-45 6e-45
6e-45 6e-45 6e-45 6e-45 6e-45 6e-45 6e-45 -6.10544e-09
-6.0837135e-09 -6.0821614e-09 3.7346664e-09 9.589598e-09 -5.190666e-09 -5.1696993e-09 -5.1624958e-09 4.8732094e-09
1.0892637e-08 -3.3335588e-11 -1.1091308e-11 5.090976e-10 1.2622551e-08 1.137363e-08 -2.653559e-11 -2.6813822e-12
8.423524e-10 1.2868575e-08 1.1373664e-08 -1.9283328e-11 5.461525e-11 1.5403891e-09 1.2868575e-08 9.884513e-09
4.4696485e-06 3.154423e-06 -3.330852e-05 -4.3458727e-05 -4.4714634e-05 4.4707544e-06 4.4707767e-06 -4.976708e-06
-4.4679815e-05 -4.944067e-05 5.9888307e-06 5.2283654e-06 3.803282e-07 -3.1200132e-05 -2.143134e-05 3.2167914e-06
-2.8042085e-12 -6.2759563e-13 -2.3897062e-10 -4.006175e-09 -2.1990767e-11 -1.14547645e-14 -6.3905505e-13 -3.2152433e-10
-7.845904e-09 -6e-45 -6e-45 6e-45 -6e-45 -6e-45 6e-45 -6e-45
-6e-45 -6e-45 -6e-45 6e-45 6e-45 -6e-45 -6e-45 -6e-45
6e-45 6e-45 6e-45 -6e-45 6e-45 6e-45 -6e-45 -6e-45
-6e-45 -6e-45 0.00047083193 0.0005172915 0.0005382495 2.6108306e-05 -0.00036612374 0.00046593795
00000000: 0400 0000 0400 0000 0400 0000 0400 0000
00000010: 0400 0000 0400 0000 0400 0000 0400 0000
00000020: 0400 0000 0400 0000 0400 0000 0400 0000
00000030: 0400 0000 0400 0000 0400 0000 0400 0000
00000040: 0400 0000 0400 0000 0400 0000 0400 0000
00000050: 0400 0000 0400 0000 0400 0000 0400 0000
00000060: 0400 0000 eea9 a53b 2926 ad3b 2a49 aa3b
00000070: 77a6 8c3b fa07 893b d5d0 a53b 3946 a93b
00000080: 79cf ab3b e758 8e3b 6e48 863b 2f4d a53b
00000090: c096 a83b a3b2 ae3b 054c 8c3b 2dfa 853b
000000a0: c960 963b 0c35 9c3b a8ff 9b3b 2d05 863b
000000b0: ab57 863b 225c 9f3b 2c72 a53b 4076 963b
000000c0: 30d8 843b 3cde 863b fa86 90b9 066b 90b9
000000d0: 2f04 8ab9 9850 71b9 0649 78b9 7227 90b9
000000e0: d91b 90b9 81c1 94b9 85af 82b9 40ef 79b9
000000f0: a6f9 87b9 6b0d 8bb9 5a22 99b9 5471 70b9
00000100: 71bb 68b9 8ce6 8bb9 5fbb 9fb9 77a0 99b9
00000110: ba53 75b9 7366 6eb9 c3fe 9cb9 1705 a0b9
00000120: 2416 99b9 6175 77b9 9b57 70b9 94f7 423b
00000130: ecf4 423b eda3 313b c6d0 ec3a c36f 8a3a
00000140: afc6 423b d872 423b 1a73 0d3b 9eb2 8c3a
00000150: 2423 8f3a 1278 443b 934c 333b f5e6 9f3a
00000160: d000 a13a 0597 943a 6754 3e3b af11 b03a
00000170: 7564 8a3a b029 a23a aa79 9d3a c214 d43a
00000180: f508 933a a733 8b3a 3322 9b3a 8c6e b03a
00000190: b8cb d3b9 6f2d a0b9 a45b e3b7 a5b5 ad3a
000001a0: b441 0d3b 2c01 cdb9 46e5 99b9 dfd7 263a
000001b0: 06bd 033b 0f09 093b cb49 d2b9 df75 0db9
000001c0: d88c bf3a 937e 063b e1d8 063b e742 9cb9
000001d0: 87bb 923a c525 d43a d111 053b f381 053b
000001e0: 5dff 533a f830 b23a 8f4d d73a c9d3 023b
000001f0: a875 043b 734b 8c3b a40a 863b ddec 843b
00000200: 2b2a 9b3b 0fd2 aa3b 0d0e 8d3b 7413 8b3b
00000210: 78ea 8c3b ec11 a23b 2a21 a93b 9fbb 983b
00000220: 831f 903b dfd5 963b 8a3b a53b 50b5 b03b
00000230: 2acd 503b c2be 8b3b 901a c23b 1f2b bb3b
00000240: b74b b33b e9cb 723b 0485 b93b e359 c23b
00000250: 9437 c33b 9a55 c13b 0400 0000 0400 0000
00000260: 0400 0080 0400 0080 0400 0080 0400 0000
00000270: 0400 0000 0400 0000 0400 0000 0400 0080
00000280: 0400 0000 0400 0000 0400 0000 0400 0000
00000290: 0400 0080 0400 0000 0400 0000 0400 0000
000002a0: 0400 0000 0400 0000 0400 0000 0400 0000
000002b0: 0400 0000 0400 0000 0400 0000 05c8 d1b1
000002c0: e908 d1b1 42fb d0b1 7952 8031 7fbf 2432
000002d0: 9559 b2b1 28a1 b1b1 cb61 b1b1 3471 a731
000002e0: 5322 3b32 899c 12ae d01e 43ad 8ff0 0b30
000002f0: 91da 5832 c165 4332 d668 e9ad 7daf 3cac
00000300: 488b 6730 9714 5d32 e765 4332 329e a9ad
00000310: 4e33 702e a0b5 d330 9714 5d32 8cd0 2932
00000320: fdf9 9536 93b0 5336 c0b4 0bb8 7447 36b8
00000330: f98b 3bb8 7d03 9636 ae03 9636 99fd a6b6
00000340: 9666 3bb8 845e 4fb8 aaf3 c836 516f af36
00000350: e92f cc34 e3dc 02b8 74c7 b3b7 0ee0 5736
00000360: 2154 45ac 08a7 30ab 2060 83af b0a6 89b1
00000370: ce6e c1ad c759 4ea8 c5e0 33ab 87c2 b0af
00000380: a7ca 06b2 0400 0080 0400 0080 0400 0000
00000390: 0400 0080 0400 0080 0400 0000 0400 0080
000003a0: 0400 0080 0400 0080 0400 0080 0400 0000
000003b0: 0400 0000 0400 0080 0400 0080 0400 0080
000003c0: 0400 0000 0400 0000 0400 0000 0400 0080
000003d0: 0400 0000 0400 0000 0400 0080 0400 0080
000003e0: 0400 0080 0400 0080 fed9 f639 d89a 073a
000003f0: 5019 0d3a 2903 db37 4cf4 bfb9 2249 f439

exp_avg_sq f4 [32, 25]
7e-43 7e-43 7e-43 7e-43 7e-43 7e-43 7e-43 7e-43
7e-43 7e-43 7e-43 7e-43 7e-43 7e-43 7e-43 7e-43
7e-43 7e-43 7e-43 7e-43 7e-43 7e-43 7e-43 7e-43
7e-43 0.05260568 0.048796576 0.04950045 0.050063815 0.05407659 0.052414868 0.05353007
0.053785387 0.055485494 0.05408534 0.052315842 0.053307306 0.065419264 0.055029735 0.05371192
0.053703535 0.05750554 0.06255434 0.057859473 0.053943854 0.055787016 0.0582713 0.060677074
0.058902595 0.056131717 8.5152285e-05 9.724205e-05 0.000102499915 9.990707e-05 9.8060744e-05 7.308865e-05
8.813436e-05 9.788118e-05 8.789877e-05 7.206267e-05 7.643747e-05 7.490685e-05 6.361261e-05 6.214624e-05
6.7089066e-05 8.245634e-05 8.310449e-05 7.823953e-05 7.054938e-05 6.798066e-05 8.999831e-05 8.520999e-05
8.1284656e-05 7.4930016e-05 7.212875e-05 0.01930703 0.018072221 0.01621521 0.01669819 0.016658885
0.019218627 0.016957475 0.013891416 0.01572794 0.016005224 0.019944198 0.01744527 0.01190452
0.01377983 0.014903132 0.019492028 0.015830839 0.010118113 0.010517594 0.012552993 0.016310392
0.013747125 0.010192488 0.010499994 0.011573551 0.0284131 0.025929824 0.02055038 0.018870872
0.018085565 0.0298794 0.02673239 0.019541318 0.017383505 0.01688244 0.032526344 0.029298838
0.019262062 0.01536669 0.015404125 0.03254028 0.028447527 0.02119766 0.016838081 0.0158288
0.03078208 0.027195172 0.021968514 0.0189915 0.016766177 0.021284673 0.02159461 0.020419324
0.020365294 0.019712571 0.020757569 0.021130238 0.020033829 0.01951314 0.018758235 0.01857044
0.019600438 0.017763043 0.016835993 0.015875781 0.018191257 0.016142342 0.011104459 0.0121095
0.013057921 0.014287369 0.012866417 0.011144049 0.010488216 0.010227955 7e-43 7e-43
7e-43 7e-43 7e-43 7e-43 7e-43 7e-43 7e-43 7e-43
7e-43 7e-43 7e-43 7e-43 7e-43 7e-43 7e-43 7e-43
7e-43 7e-43 7e-43 7e-43 7e-43 7e-43 7e-43 7.1328635e-08
7.040442e-08 7.990133e-08 8.6944176e-08 3.6987132e-07 7.777906e-09 7.502741e-09 1.798821e-08 1.24783e-07
5.356976e-07 7.777538e-09 5.8993357e-09 6.807963e-11 2.4140718e-07 5.359053e-07 7.550307e-09 1.0173733e-09
1.0551039e-09 3.839258e-07 5.296057e-07 4.3892934e-09 7.798754e-11 4.541692e-08 4.5619095e-07 4.7885663e-07
2.7269781e-08 3.3879417e-07 1.0034164e-06 1.0684483e-06 1.0685142e-06 1.0977272e-08 1.3864494e-08 3.4447888e-07
1.0586209e-06 1.0682589e-06 1.0742238e-08 6.381056e-09 6.0329036e-10 5.7695513e-07 9.383777e-07 1.0414265e-09
1.5613658e-11 1.2269431e-12 3.9066483e-09 2.3588399e-07 5.683169e-11 3.8027823e-12 4.2921354e-11 6.5965516e-10
2.3961457e-08 7e-43 7e-43 7e-43 7e-43 7e-43 7e-43 7e-43
7e-43 7e-43 7e-43 7e-43 7e-43 7e-43 7e-43 7e-43
7e-43 7e-43 7e-43 7e-43 7e-43 7e-43 7e-43 7e-43
7e-43 7e-43 0.002033565 0.0021950733 0.002246508 0.002144211 0.002023694 0.0019455004
00000000: f401 0000 f401 0000 f401 0000 f401 0000
00000010: f401 0000 f401 0000 f401 0000 f401 0000
00000020: f401 0000 f401 0000 f401 0000 f401 0000
00000030: f401 0000 f401 0000 f401 0000 f401 0000
00000040: f401 0000 f401 0000 f401 0000 f401 0000
00000050: f401 0000 f401 0000 f401 0000 f401 0000
00000060: f401 0000 0e79 573d ebde 473d fcc0 4a3d
00000070: b70f 4d3d 6a7f 5d3d f9b0 563d 5942 5b3d
00000080: 114e 5c3d c244 633d 9788 5d3d 2349 563d
00000090: c358 5a3d 89fa 853d dc66 613d 0801 5c3d
000000a0: 3df8 5b3d ee8a 6b3d 7d1c 803d 0efe 6c3d
000000b0: 3bf4 5c3d ed80 643d e3ad 6e3d 8688 783d
000000c0: d943 713d 5fea 653d c993 b238 6eee cb38
000000d0: 39f5 d638 3385 d138 f6a5 cd38 2c47 9938
000000e0: c6d4 b838 8f45 cd38 4b56 b838 5a20 9738
000000f0: 0e4d a038 4f17 9d38 c367 8538 8254 8238
00000100: 2bb2 8c38 69ec ac38 6248 ae38 8714 a438
00000110: e9f3 9338 d790 8e38 7abd bc38 c4b2 b238
00000120: 5e77 aa38 bf23 9d38 d443 9738 c729 9e3c
00000130: 320c 943c c3d5 843c a4ca 883c 3778 883c
00000140: 6270 9d3c 67ea 8a3c d298 633c e1d7 803c
00000150: 631d 833c 0462 a33c 62e9 8e3c 2d0b 433c
00000160: ccc4 613c 442c 743c bfad 9f3c adaf 813c
00000170: 71c6 253c fd51 2c3c 12ab 4d3c 5f9d 853c
00000180: 9f3b 613c 65fe 263c 2b08 2c3c fe9e 3d3c
00000190: 97c2 e83c c86a d43c 4559 a83c 1697 9a3c
000001a0: 2e28 943c a5c5 f43c e3fd da3c 1d15 a03c
000001b0: da67 8e3c 0b4d 8a3c 583a 053d 1e04 f03c
000001c0: 79cb 9d3c 92c4 7b3c 9561 7c3c f548 053d
000001d0: ca0a e93c b7a6 ad3c 04f0 893c 66ab 813c
000001e0: b32a fc3c 69c8 de3c 50f7 b33c 1094 9b3c
000001f0: 3959 893c 325d ae3c 2ee7 b03c 6d46 a73c
00000200: 1ed5 a63c 427c a13c c70b aa3c 5219 ad3c
00000210: fc1d a43c 05da 9f3c dfaa 993c 0921 983c
00000220: 1991 a03c cd83 913c a3eb 893c ed0d 823c
00000230: d505 953c f23c 843c 7aef 353c ed66 463c
00000240: e4f0 553c 9215 6a3c aacd 523c 8895 363c
00000250: c4d6 2b3c 2793 273c f401 0000 f401 0000
00000260: f401 0000 f401 0000 f401 0000 f401 0000
00000270: f401 0000 f401 0000 f401 0000 f401 0000
00000280: f401 0000 f401 0000 f401 0000 f401 0000
00000290: f401 0000 f401 0000 f401 0000 f401 0000
000002a0: f401 0000 f401 0000 f401 0000 f401 0000
000002b0: f401 0000 f401 0000 f401 0000 552d 9933
000002c0: 3d31 9733 3996 ab33 11b6 ba33 ba92 c634
000002d0: 989f 0532 67e5 0032 7e84 9a32 17fc 0534
000002e0: dccc 0f35 f99d 0532 1bb3 ca31 6db5 952e
000002f0: c09a 8134 22db 0f35 9ab6 0132 a4d3 8b30
00000300: 2b03 9130 5c1e ce34 3a2a 0e35 a2d0 9631
00000310: 157f ab2e 6e10 4333 68ea f434 c78a 0035
00000320: e23e ea32 84e3 b534 20ad 8635 9b67 8f35
00000330: de69 8f35 8e96 3c32 b130 6e32 d1f0 b834
00000340: f015 8e35 1961 8f35 dd8c 3832 5d40 db31
00000350: c9d4 2530 0ee0 1a35 d3e4 7b35 f021 8f30
00000360: d556 892d 49ad ac2b 3e3b 8631 4c47 7d34
00000370: cbf2 792e 6bcc 852c 26c5 3c2e 1b53 3530
00000380: cdd3 cd32 f401 0000 f401 0000 f401 0000
00000390: f401 0000 f401 0000 f401 0000 f401 0000
000003a0: f401 0000 f401 0000 f401 0000 f401 0000
000003b0: f401 0000 f401 0000 f401 0000 f401 0000
000003c0: f401 0000 f401 0000 f401 0000 f401 0000
000003d0: f401 0000 f401 0000 f401 0000 f401 0000
000003e0: f401 0000 f401 0000 8f45 053b 38db 0f3b
000003f0: 263a 133b e485 0c3b f49f 043b 2900 ff3a

exp_avg f4 [32]
6e-45 0.011056335 -0.00044740058 0.002892743 -0.00051990093 0.0019078614 6e-45 -1.2942359e-06
-3.1404452e-05 6e-45 0.0017275545 6e-45 0.0012040855 -0.0019624769 0.0034007176 -0.0016057475
0.000103294486 -0.0028413443 -0.006114968 6e-45 -5.797532e-07 0.0024468661 0.0016180929 -0.0004443868
-0.0017027167 -1.2372265e-06 -0.00022354876 -3.829901e-06 5.532899e-05 0.0 6e-45 6e-45
00000000: 0400 0000 a125 353c 1791 eab9 2d94 3d3b
00000010: f649 08ba 3511 fa3a 0400 0000 9bb5 adb5
00000020: 46b8 03b8 0400 0000 1c6f e23a 0400 0000
00000030: 68d2 9d3a e69c 00bb 93de 5e3b f277 d2ba
00000040: ce9f d838 d935 3abb 1260 c8bb 0400 0000
00000050: 56a0 1bb5 9a5b 203b 3016 d43a 96fc e8b9
00000060: b12d dfba c70e a6b5 6a68 6ab9 9982 80b6
00000070: 0d11 6838 0000 0000 0400 0000 0400 0000

exp_avg_sq f4 [32]
7e-43 0.11527232 0.0002041078 0.0318962 0.05542799 0.038270824 7e-43 2.4998126e-06
1.2145646e-05 7e-43 0.003773434 7e-43 0.005266424 0.019251568 0.022570452 0.020016996
0.00019662356 0.0029856449 0.0599897 7e-43 3.03287e-08 0.005278303 0.009456324 0.0019053526
0.08712079 1.4765268e-06 0.0010891935 2.440808e-07 0.028648876 0.0 7e-43 7e-43
00000000: f401 0000 e513 ec3d c505 5639 97a5 023d
00000010: 7608 633d dec1 1c3d f401 0000 74c2 2736
00000020: 27c5 4b37 f401 0000 b84b 773b f401 0000
00000030: f791 ac3b 77b5 9d3c abe5 b83c affa a33c
00000040: bc2c 4e39 cfaa 433b c2b7 753d f401 0000
00000050: c242 0233 9df5 ac3b b3ee 1a3c 06bd f93a
00000060: 626c b23d 132d c635 45c3 8e3a 360a 8334
00000070: 0cb1 ea3c 0000 0000 f401 0000 f401 0000

exp_avg f4 [16, 32]
-6e-45 2.8061064e-05 9.563944e-05 6.131299e-05 8.949278e-05 0.0002719603 -6e-45 -2.7758496e-09
-1.0817716e-06 -6e-45 0.0002340875 -6e-45 3.6746907e-05 6.0201794e-05 1.9813075e-05 0.00010763847
1.11651296e-07 3.7658356e-05 0.00025865692 -6e-45 -1.6746488e-09 0.0004865332 -0.00014186298 3.3021115e-07
2.5917228e-05 -6.9148847e-09 1.51644e-06 -3.5223994e-08 1.6618464e-05 0.0 0.0 -6e-45
6e-45 -4.4746295e-05 1.6972188e-05 4.8568225e-05 2.3159555e-05 -0.0002232816 6e-45 6.84945e-12
1.2007781e-06 6e-45 -0.000104979794 6e-45 2.6707201e-05 -2.3040311e-05 -8.507919e-06 -1.31658935e-05
-1.1774324e-07 -4.527958e-05 -1.1632675e-05 6e-45 2.4857968e-10 -8.400947e-05 0.00016673388 -8.2120614e-08
-3.3057953e-05 -1.06758824e-10 -1.6904121e-06 3.4467508e-08 -0.00015857902 0.0 6e-45 6e-45
6e-45 -6.448959e-05 -0.00012644324 -7.12578e-05 -0.00016362719 -0.0003727643 6e-45 -1.9573985e-11
1.0355026e-06 -6e-45 -0.00026873962 6e-45 -1.5031158e-05 -5.2483843e-05 -2.16601e-05 -6.372621e-05
-1.6177688e-07 -4.0422077e-05 -0.0003674852 6e-45 6.3956856e-14 -0.00072338874 6.5194625e-05 -2.4272542e-06
-6.5346816e-05 -1.1296189e-10 -9.2868385e-07 1.1941717e-10 -8.9830246e-05 0.0 6e-45 -6e-45
-6e-45 -1.554608e-05 -1.0769108e-05 -3.5652985e-05 -1.15493585e-05 2.3581037e-05 -6e-45 -1.94487e-09
-7.6936743e-07 -6e-45 -2.5704894e-05 -6e-45 -2.594084e-05 1.3925878e-05 3.4378927e-06 -7.144119e-06
6.288445e-08 2.1915362e-06 3.0877928e-07 -6e-45 -1.1746892e-09 -2.9881394e-05 -0.00013232746 -4.915743e-08
1.662983e-05 -4.850697e-09 8.943735e-07 -2.4709028e-08 7.488523e-06 0.0 -6e-45 -6e-45
-6e-45 3.8107834e-07 8.928943e-07 -2.2614598e-05 4.4921967e-06 1.2124698e-06 -6e-45 -1.4873164e-09
-5.8831404e-07 -6e-45 -4.5456297e-08 -6e-45 1.2457272e-05 1.8572744e-05 6.2431154e-06 3.565126e-05
5.988736e-08 6.6120003e-07 8.587952e-06 -6e-45 -8.9826857e-10 1.5289848e-05 1.3093046e-05 8.472331e-08
1.1756163e-05 -3.709195e-09 8.160933e-07 -1.8894237e-08 -7.901847e-06 0.0 0.0 -6e-45
-6e-45 -3.9280043e-05 -9.887883e-06 -0.000111139125 -2.2186116e-05 -2.3679648e-05 -6e-45 -6.081427e-09
-8.489217e-08 -6e-45 -8.9922985e-05 -6e-45 -1.6790778e-05 -5.2726186e-06 -9.720894e-06 -1.8090013e-05
2.0379076e-07 2.5482564e-06 1.8373647e-05 -6e-45 -2.9637217e-09 3.3378605e-05 -0.0005415439 -1.1005007e-07
-5.8211615e-05 -1.5155114e-08 1.9448964e-06 -7.657202e-08 -0.00032837625 0.0 -6e-45 -6e-45
6e-45 -3.1988347e-05 -0.00013779657 -7.202238e-05 -0.00017936705 -0.00025528713 6e-45 -2.0396516e-11
1.1209451e-06 6e-45 -0.0002545842 6e-45 -2.6210013e-05 -6.006893e-05 -2.46768e-05 -7.9047095e-05
-1.7513737e-07 -3.1834204e-06 -0.00036546736 6e-45 6.926032e-14 -0.0006424847 -0.00013868955 -2.6275466e-06
-6.97558e-05 -1.215122e-10 -8.0892784e-07 1.2927259e-10 -0.00012219895 0.0 0.0 6e-45
6e-45 -3.598981e-05 -0.00013279688 -7.498551e-05 -0.00017471134 -0.0002653856 6e-45 -2.0754417e-11
1.1049655e-06 -6e-45 -0.00025980608 6e-45 -6.0949085e-05 -0.00011023653 -2.4304341e-05 -0.00014417639
-1.7263595e-07 -4.4339886e-06 -0.00036084937 6e-45 6.825615e-14 -0.00063997076 -0.00014965155 -2.5900883e-06
-7.231743e-05 -1.2055261e-10 -1.7325026e-06 1.2742823e-10 -0.00013683057 0.0 6e-45 6e-45
00000000: 0400 0080 ad64 eb37 0992 c838 2995 8038
00000010: 12ae bb38 e595 8e39 0400 0080 43c1 3eb1
00000020: 6431 91b5 0400 0080 6375 7539 0400 0080
00000030: b120 1a38 2f81 7c38 4134 a637 f7bb e138
00000040: f3c4 ef33 5af3 1d38 589c 8739 0400 0080
00000050: 7729 e6b0 6115 ff39 0ec1 14b9 e047 b134
00000060: d368 d937 f897 edb1 7b88 cb35 3149 17b3
00000070: e167 8b37 0000 0000 0000 0000 0400 0080
00000080: 0400 0000 f8ad 3bb8 7f5f 8e37 bcb5 4b38
00000090: c446 c237 b320 6ab9 0400 0000 5cfe f02c
000000a0: 6c2a a135 0400 0000 9928 dcb8 0400 0000
000000b0: 4709 e037 b146 c1b7 3cbd 0eb7 15e3 5cb7
000000c0: 08da fcb3 94ea 3db8 f529 43b7 0400 0000
000000d0: 7ba8 882f 3e2e b0b8 49d5 2e39 495a b0b3
000000e0: b5a7 0ab8 e0c3 eaae 1ee2 e2b5 6d09 1433
000000f0: 3b48 26b9 0000 0000 0400 0000 0400 0000
00000100: 0400 0000 963e 87b8 d995 04b9 3d70 95b8
00000110: 5793 2bb9 946f c3b9 0400 0000 b22c acad
00000120: 99fb 8a35 0400 0080 9fe5 8cb9 0400 0000
00000130: 552e 7cb7 1922 5cb8 b6b2 b5b7 c0a4 85b8
00000140: e4b4 2db4 e08a 29b8 07ab c0b9 0400 0000
00000150: 9e04 9029 cca1 3dba 19b9 8838 e9e3 22b6
00000160: ce0a 89b8 e467 f8ae ab4a 79b5 f24c 032f
00000170: 3f63 bcb8 0000 0000 0400 0000 0400 0080
00000180: 0400 0080 f468 82b7 f7ac 34b7 1a8a 15b8
00000190: 1ec4 41b7 e4cf c537 0400 0080 84a6 05b1
000001a0: 8786 4eb5 0400 0080 d7a0 d7b7 0400 0080
000001b0: 889b d9b7 31a3 6937 8cb6 6636 84b7 efb6
000001c0: 180b 8733 4e12 1336 4dc6 a534 0400 0080
000001d0: b472 a1b0 cea9 fab7 62c1 0ab9 2a21 53b3
000001e0: 4a80 8b37 2fab a6b1 e114 7035 ba3f d4b2
000001f0: ec45 fb36 0000 0000 0400 0080 0400 0080
00000200: 0400 0080 0297 cc34 3baf 6f35 7bb4 bdb7
00000210: adbb 9636 25bc a235 0400 0080 4b6a ccb0
00000220: a2ec 1db5 0400 0080 ba3b 43b3 0400 0080
00000230: 93ff 5037 aacc 9b37 f47b d136 4088 1538
00000240: 6d9b 8033 527d 3135 f914 1037 0400 0080
00000250: 08ea 76b0 b342 8037 34aa 5b37 22f1 b533
00000260: 563c 4537 d9e4 7eb1 8111 5b35 de4c a2b2
00000270: 2d92 04b7 0000 0000 0000 0000 0400 0080
00000280: 0400 0080 a0c0 24b8 22e4 25b7 5d13 e9b8
00000290: 521c bab7 a8a3 c6b7 0400 0080 ccf4 d0b1
000002a0: f74d b6b3 0400 0080 0995 bcb8 0400 0080
000002b0: ecd9 8cb7 73eb b0b6 ec16 23b7 02c0 97b7
000002c0: 94d1 5a34 b602 2b36 1b21 9a37 0400 0080
000002d0: 58aa 4bb1 0100 0c38 65f6 0dba aa54 ecb3
000002e0: 3f28 74b8 732e 82b2 1185 0236 ea6f a4b3
000002f0: ea29 acb9 0000 0000 0400 0080 0400 0080
00000300: 0400 0000 3a2b 06b8 7c7d 10b9 b90a 97b8
00000310: 7a14 3cb9 0fd8 85b9 0400 0000 df68 b3ad
00000320: 6173 9635 0400 0000 b779 85b9 0400 0000
00000330: 93dd dbb7 86f2 7bb8 0601 cfb7 16c6 a5b8
00000340: 650d 3cb4 bfa2 55b6 339c bfb9 0400 0000
00000350: dbf5 9b29 6b6c 28ba 316d 11b9 e854 30b6
00000360: dc49 92b8 a59a 05af 1925 59b5 0023 0e2f
00000370: 8822 00b9 0000 0000 0000 0000 0400 0000
00000380: 0400 0000 c4f3 16b8 643f 0bb9 8a41 9db8
00000390: b832 37b9 7423 8bb9 0400 0000 cb8e b6ad
000003a0: 534e 9435 0400 0080 9536 88b9 0400 0000
000003b0: 95a3 7fb8 c92e e7b8 2de1 cbb7 0e2e 17b9
000003c0: cf5d 39b4 acc7 94b6 6230 bdb9 0400 0000
000003d0: feb2 9929 b6c3 27ba c8eb 1cb9 61d1 2db6
000003e0: 20a9 97b8 8b8c 04af 5688 e8b5 dc1b 0c2f
000003f0: 2d7a 0fb9 0000 0000 0400 0000 0400 0000

exp_avg_sq f4 [16, 32]
7e-43 4.1870276e-06 1.45080385e-05 2.9954248e-05 1.30176295e-05 5.5062865e-05 7e-43 8.920826e-11
1.7218099e-10 7e-43 0.00010431236 7e-43 4.7308182e-05 2.6918708e-05 1.3080306e-05 5.9068745e-05
9.466981e-08 1.4418214e-07 3.3267337e-05 7e-43 2.4660385e-11 0.00015829646 7.588325e-05 1.4678873e-08
1.2999795e-05 1.4025232e-10 2.4483981e-08 1.5356481e-12 0.00010729923 0.0 0.0 7e-43
7e-43 1.9157687e-05 3.2673731e-06 2.1501655e-05 6.206077e-06 7.6568234e-05 7e-43 1.1047867e-10
2.1056645e-10 7e-43 0.00012705967 7e-43 5.491203e-05 3.2081112e-05 6.262609e-06 9.717716e-05
4.331654e-10 2.3552123e-07 1.3974259e-05 7e-43 7.95603e-12 0.00010180835 0.00021809808 6.8617567e-10
3.5216606e-05 1.7376421e-10 1.9573113e-07 9.07858e-13 0.0001732181 0.0 7e-43 7e-43
7e-43 1.2145761e-05 1.678944e-05 2.9337985e-05 2.0037949e-05 7.4447875e-05 7e-43 8.763876e-11
1.6798246e-10 7e-43 0.00010618729 7e-43 2.1223317e-05 1.5401778e-05 1.0348679e-05 3.8887243e-05
9.312506e-08 1.729211e-07 5.602548e-05 7e-43 2.4007643e-11 0.00025624898 0.00014847294 2.1691088e-08
2.5992162e-05 1.3789189e-10 1.5401252e-08 1.4197134e-12 0.00012899819 0.0 7e-43 7e-43
7e-43 5.435014e-06 2.811682e-06 4.9290175e-06 2.3811394e-06 7.2245302e-06 7e-43 4.3905622e-11
8.48237e-11 7e-43 3.466643e-05 7e-43 1.3455746e-05 6.1211695e-06 2.1984072e-06 3.5382913e-05
1.7340061e-10 8.506085e-08 4.228834e-06 7e-43 1.1967408e-11 2.3919203e-05 8.6721535e-05 1.4064809e-09
1.4071528e-05 6.905432e-11 4.8245345e-09 7.527534e-13 5.8798756e-05 0.0 7e-43 7e-43
7e-43 3.388688e-07 2.918802e-06 5.0532312e-06 3.1519835e-06 5.984876e-07 7e-43 2.5639216e-11
4.953066e-11 7e-43 7.947463e-07 7e-43 1.2543616e-05 7.177481e-06 3.757596e-06 1.5426036e-05
2.7213591e-08 1.5397559e-08 7.501949e-06 7e-43 5.2925806e-12 3.1406667e-05 1.5092628e-05 4.049145e-09
3.2218984e-06 4.0309846e-11 6.5738477e-09 2.5645545e-13 5.92726e-06 0.0 0.0 7e-43
7e-43 1.13238e-05 1.8153716e-05 2.1702472e-05 2.3088227e-05 4.80748e-05 7e-43 5.2633974e-12
1.1554839e-10 7e-43 3.478754e-05 7e-43 2.1402924e-05 2.7579274e-05 1.2423701e-05 4.4398963e-05
1.4266958e-09 3.2584686e-07 4.0364317e-05 7e-43 3.066431e-11 0.00023900117 7.235615e-05 1.0256871e-08
2.0464211e-05 9.851384e-13 3.0173444e-09 3.3667546e-12 8.692414e-05 0.0 7e-43 7e-43
7e-43 1.1496067e-05 1.976733e-05 2.2386617e-05 2.5058891e-05 3.6283447e-05 7e-43 1.02996896e-10
1.9560965e-10 7e-43 2.4571866e-05 7e-43 3.017264e-05 2.3482808e-05 1.3588323e-05 4.7024052e-05
1.0940161e-07 1.1703188e-07 6.846878e-05 7e-43 2.8231046e-11 0.0002871345 0.00014355392 2.6197014e-08
2.817254e-05 1.6201228e-10 1.7862037e-08 1.0791195e-12 5.7585843e-05 0.0 0.0 7e-43
7e-43 1.1761122e-05 1.9168534e-05 2.2171565e-05 2.3894347e-05 4.2481068e-05 7e-43 1.0003427e-10
1.9022849e-10 7e-43 5.1624225e-05 7e-43 4.996999e-05 3.0591313e-05 1.3230715e-05 8.051667e-05
1.0624044e-07 1.3005439e-07 6.6725115e-05 7e-43 2.7304237e-11 0.0002848057 0.00016645304 2.344682e-08
2.8751323e-05 1.572862e-10 2.3117822e-08 1.0838657e-12 8.089135e-05 0.0 7e-43 7e-43
00000000: f401 0000 4b7e 8c36 8d67 7337 4246 fb37
00000010: 4b66 5a37 4df3 6638 f401 0000 c92b c42e
00000020: a450 3d2f f401 0000 46c2 da38 f401 0000
00000030: c66c 4638 7ccf e137 7d73 5b37 95c0 7738
00000040: 474d cb33 7cd0 1a34 8888 0b38 f401 0000
00000050: 40ea d82d 62fc 2539 8223 9f38 5e2e 7c32
00000060: b219 5a37 8535 1a2f d850 d232 8e1f d82b
00000070: d605 e138 0000 0000 0000 0000 f401 0000
00000080: f401 0000 d2b4 a037 0b45 5b36 745e b437
00000090: cc3d d036 4293 a038 f401 0000 f6f1 f22e
000000a0: 3085 672f f401 0000 523b 0539 f401 0000
000000b0: 5851 6638 d58e 0638 6723 d236 97cb cb38
000000c0: 9c22 ee2f 95e3 7c34 fc72 6a37 f401 0000
000000d0: c6f6 0b2d f181 d538 42b1 6439 529d 3c30
000000e0: 8bb5 1338 470e 3f2f 2a2a 5234 108a 7f2b
000000f0: e1a1 3539 0000 0000 f401 0000 f401 0000
00000100: f401 0000 a5c5 4b37 0cd7 8c37 d81a f637
00000110: 2b17 a837 e620 9c38 f401 0000 3cb8 c02e
00000120: dcb2 382f f401 0000 deb0 de38 f401 0000
00000130: ba08 b237 1133 8137 3d9f 2d37 dc1a 2338
00000140: 0bfc c733 31ac 3934 e7fc 6a38 f401 0000
00000150: 682c d32d 2859 8639 67af 1b39 3553 ba32
00000160: be09 da37 1e9d 172f b64b 8432 91ce c72b
00000170: b043 0739 0000 0000 f401 0000 f401 0000
00000180: f401 0000 6a5e b636 54b0 3c36 f063 a536
00000190: aacb 1f36 3e6a f236 f401 0000 5619 412e
000001a0: 7f87 ba2e f401 0000 cc66 1138 f401 0000
000001b0: fdbf 6137 7264 cd36 5988 1336 1d68 1438
000001c0: efa7 3e2f b2aa b633 68e5 8d36 f401 0000
000001d0: 6a88 522d 19a6 c837 45de b538 264e c130
000001e0: c114 6c37 20da 972e 0ec5 a531 99e1 532b
000001f0: af9e 7638 0000 0000 f401 0000 f401 0000
00000200: f401 0000 c6ed b534 a3e0 4336 ed8e a936
00000210: aa86 5336 c1a7 2035 f401 0000 6286 e12d
00000220: 91d6 592e f401 0000 8d56 5535 f401 0000
00000230: 6c72 5237 18d6 f036 022b 7c36 2967 8137
00000240: 52c3 e932 9743 8432 40b9 fb36 f401 0000
00000250: 5437 ba2c a7ba 0338 5836 7d37 a820 8b31
00000260: cb37 5836 da48 312e 2de0 e131 205f 902a
00000270: c7e2 c636 0000 0000 0000 0000 f401 0000
00000280: f401 0000 5afb 3d37 cf48 9837 b40d b637
00000290: 97ad c137 eca3 4938 f401 0000 7830 b92c
000002a0: f617 fe2e f401 0000 d6e8 1138 f401 0000
000002b0: 6e8a b337 0a5a e737 646f 5037 0639 3a38
000002c0: 6515 c430 0df0 ae34 db4c 2938 f401 0000
000002d0: f2dc 062e 639c 7a39 eabd 9738 3236 3032
000002e0: 8faa ab37 5aa5 8a2b af59 4f31 0fea 6c2c
000002f0: 0b4b b638 0000 0000 f401 0000 f401 0000
00000300: f401 0000 3bdf 4037 05d2 a537 e5ca bb37
00000310: 8f35 d237 0e2f 1838 f401 0000 197e e22e
00000320: 3913 572f f401 0000 ae1f ce37 f401 0000
00000330: 401b fd37 f2fc c437 67f9 6337 b13b 4538
00000340: 2cf0 ea33 f552 fb33 e596 8f38 f401 0000
00000350: aa52 f82d 8a8a 9639 f686 1639 d807 e132
00000360: 1254 ec37 6722 322f 096f 9932 61df 972b
00000370: 5488 7138 0000 0000 0000 0000 f401 0000
00000380: f401 0000 a251 4537 1dcc a037 13fd b937
00000390: b870 c837 b32d 3238 f401 0000 4afa db2e
000003a0: 8f28 512f f401 0000 1787 5838 f401 0000
000003b0: de96 5138 2c4f 0038 7df9 5d37 0fdb a838
000003c0: 4d26 e433 14a5 0b34 c6ee 8b38 f401 0000
000003d0: ad2b f02d f951 9539 e689 2e39 1a68 c932
000003e0: ff2e f137 21f0 2c2f a194 c632 618a 982b
000003f0: 36a4 a938 0000 0000 f401 0000 f401 0000

exp_avg f4 [16]
5.7255333e-05 -7.0805186e-06 -0.00077347696 -0.00050205475 1.6056041e-05 -0.0032413525 -0.0009103471 -0.0011023113
-0.00070245785 -0.00069710764 -0.0007721498 -0.0022850228 -0.0007280021 6e-45 0.000105472696 -6e-45
00000000: 7225 7038 3195 edb6 29c3 4aba 539c 03ba
00000010: 16b0 8637 df6c 54bb 5ca4 6eba 6e7b 90ba
00000020: 2625 38ba 1abe 36ba 196a 4aba 52c0 15bb
00000030: 65d7 3eba 0400 0000 3931 dd38 0400 0080

exp_avg_sq f4 [16]
0.0022292973 0.002733481 0.0028070835 0.0010924104 0.00035120186 0.006875216 0.0026754169 0.0029086864
0.0013706533 0.0011233178 0.0014245285 0.005684325 0.0014814669 7e-43 0.0011863604 7e-43
00000000: 6719 123b 3324 333b 0cf7 373b 362f 8f3a
00000010: 8421 b839 7e49 e13b 0c56 2f3b a99f 3e3b
00000020: 7ea7 b33a 4a3c 933a 3fb7 ba3a 9343 ba3b
00000030: c82d c23a f401 0000 a67f 9b3a f401 0000

exp_avg f4 [2, 16]
4.48505e-06 -8.958638e-05 -6.166069e-05 9.9668745e-05 3.4054378e-06 6.109006e-05 -6.775888e-05 -5.3766176e-05
-6.6194545e-05 -2.5681855e-05 -6.141124e-05 -5.2287833e-05 -6.196581e-05 -6e-45 -6.923458e-05 6e-45
-4.48425e-06 8.958806e-05 6.1662424e-05 -9.9667945e-05 -3.4053185e-06 -6.109076e-05 6.776069e-05 5.3767748e-05
6.619628e-05 2.5682777e-05 6.141273e-05 5.228935e-05 6.1967585e-05 6e-45 6.92357e-05 -6e-45
00000000: 497e 9636 52e0 bbb8 d54f 81b8 4005 d138
00000010: fa88 6436 7a1d 8038 c619 8eb8 fe82 61b8
00000020: edd1 8ab8 5d6f d7b7 e9c9 80b8 a24f 5bb8
00000030: a4f3 81b8 0400 0080 0832 91b8 0400 0000
00000040: 6a77 96b6 39e1 bb38 c350 8138 d204 d1b8
00000050: ed86 64b6 da1d 80b8 be1a 8e38 ae84 6138
00000060: dbd2 8a38 5871 d737 b5ca 8038 4351 5b38
00000070: 98f4 8138 0400 0000 a232 9138 0400 0080

exp_avg_sq f4 [2, 16]
4.600505e-06 4.2812794e-06 9.719042e-07 1.4949635e-05 5.9439446e-07 3.037764e-07 1.2131408e-06 7.7741527e-07
2.5030276e-06 5.0367623e-07 2.2830923e-06 9.831066e-07 2.8124232e-06 7e-43 1.9502651e-05 7e-43
4.6005057e-06 4.281281e-06 9.719043e-07 1.4949635e-05 5.943944e-07 3.03776e-07 1.2131408e-06 7.774154e-07
2.5030272e-06 5.036762e-07 2.283092e-06 9.831068e-07 2.8124234e-06 7e-43 1.9502651e-05 7e-43
00000000: 095e 9a36 e9a7 8f36 6072 8235 32d0 7a37
00000010: 7a8e 1f35 b616 a334 33d3 a235 92af 5035
00000020: b0f9 2736 5e34 0735 3a37 1936 49f3 8335
00000030: 10bd 3c36 f401 0000 a099 a337 f401 0000
00000040: 0b5e 9a36 eca7 8f36 6172 8235 32d0 7a37
00000050: 798e 1f35 a816 a334 33d3 a235 94af 5035
00000060: aef9 2736 5d34 0735 3937 1936 4bf3 8335
00000070: 11bd 3c36 f401 0000 a099 a337 f401 0000

exp_avg f4 [2]
-0.00012576721 0.00012577204
00000000: 61e0 03b9 ade1 0339

exp_avg_sq f4 [2]
8.683501e-05 8.683504e-05
00000000: 311b b638 351b b638

loss f8 []
0.001228715124953952
00000000: 711c c7d1 9a21 543f
