36_no_regu_epoch_edge_detector.pth (torch, 25382 bytes, 19 tensors)

model.0.weight f4 [32, 25]
0	0xbbb98e3a	-0.0056627067
1	0xbbcc4da9	-0.0062348437
2	0xbb91c12d	-0.004448077
3	0xbb769800	-0.003762722
4	0xbb211fe9	-0.002458567
5	0xbba554e0	-0.0050455183
6	0xbbe9165c	-0.007113261
7	0xbbed5bee	-0.007243625
8	0xbac47a9b	-0.0014990153
9	0xba9d76ba	-0.0012013533
10	0xbbb3d15b	-0.0054876036
11	0xbbc675e6	-0.006056535
12	0xbbbcf162	-0.0057660798
13	0x3aa83baf	0.001283517
14	0xba55cc58	-0.0008155755
15	0xbba77e51	-0.0051114936
16	0xbbe1a477	-0.006886061
17	0xbbb3ef08	-0.005491141
18	0xba3a0aed	-0.0007096965
19	0xbb647069	-0.003485704
20	0xbb609dfc	-0.0034273854
21	0xbba3087b	-0.004975376
22	0xbb888dec	-0.004167309
23	0xbb1111ba	-0.002213581
24	0xbb16ec02	-0.0023028855
25	0x3d1811cf	0.03712636
26	0x3c6b57f4	0.014364231
27	0x3ba9961b	0.0051753647
28	0xbc016fdf	-0.007900207
29	0x3d0a60ef	0.03378385
30	0xbe416e61	-0.18889762
31	0x3cdaf022	0.026725832
32	0x3e9f2c89	0.31088665
33	0x3e159bb7	0.14610182
34	0xbe3ce066	-0.18444976
35	0xbea7997b	-0.32734284
36	0xbe526bce	-0.20548937
37	0x3f3b755f	0.7322597
38	0xbdd138e3	-0.102159284
39	0xbec21f3f	-0.37914464
40	0xbe3705b8	-0.17873275
41	0x3d3b8085	0.045776863
42	0x3e88d96f	0.2672839
43	0x3d97240c	0.07379922
44	0xbe6be283	-0.23035626
45	0x3d8afd7f	0.06786632
46	0xbbdda132	-0.0067636007
47	0x3cd160a0	0.02555877
48	0xba9b5775	-0.0011851626
49	0x3ce6ed2b	0.028189262
50	0xbd05744d	-0.032581616
51	0x3e522b49	0.20524324
52	0x3e2a3bc9	0.16624369
53	0x3d851d19	0.064996906
54	0x3dfce95a	0.12349196
55	0x3deeaa8e	0.116536245
56	0x3e29ddc4	0.16588503
57	0x3da34c2e	0.079735145
58	0x3c6a49b3	0.014299798
59	0xbd47f290	-0.04881531
60	0xbc32785b	-0.010892953
61	0xbe37fa79	-0.17966641
62	0xbf1e752d	-0.61897546
63	0xbebd897e	-0.3701896
64	0xbe182d30	-0.14860988
65	0x3d176ed0	0.036970913
66	0xbc9063de	-0.017625745
67	0x3d390c6c	0.045177862
68	0xbd71ac1e	-0.059002034
69	0x3aa1dd35	0.001234925
70	0x3e0b8712	0.13625744
71	0x3e812fdb	0.25231823
72	0x3e875e14	0.26438963
73	0x3d6165b4	0.055028632
74	0x3d3de782	0.04636336
75	0x3e140e06	0.14458475
76	0x3dcda939	0.10042042
77	0x3d52dec7	0.05148199
78	0x3e14d0f7	0.14532839
79	0x3e5679cf	0.20944904
80	0x3e2aa20f	0.16663383
81	0xbde691a8	-0.112582505
82	0xbe9a5ea0	-0.30150318
83	0xbd3592be	-0.044329397
84	0x3eac9ef8	0.33715034
85	0x3ec0b9b9	0.37641695
86	0xbe9ce912	-0.3064657
87	0xbee3b422	-0.44473368
88	0xbe1d8b41	-0.15385152
89	0x3e9b6c6a	0.3035615
90	0x3e381c54	0.17979556
91	0x3c660f43	0.014041725
92	0xbd0f2ca6	-0.03495469
93	0xbe77cfa4	-0.24200302
94	0xbd5cfcb9	-0.053951953
95	0xbd104273	-0.03521962
96	0xbdb67db0	-0.08910692
97	0xbc402fd1	-0.01173015
98	0xbda9614f	-0.08270513
99	0xbdd09002	-0.10183717
100	0xbce842ff	-0.028352259
101	0xbd845a32	-0.06462516
102	0xbd116522	-0.03549684
103	0xbd54b0cd	-0.051926423
104	0x3e0e7200	0.13910675
105	0xbcd62d20	-0.026144564
106	0x3e1d052f	0.15334009
107	0xbc88d6d1	-0.016703995
108	0xbe01bb00	-0.12668991
109	0x3e41dd14	0.18931991
110	0xbe1e510e	-0.15460607
111	0x3f0ec660	0.55771446
112	0xbdea631d	-0.114446856
113	0xbf3a9df3	-0.7289726
114	0x3d24ddea	0.040250696
115	0x3c7a620a	0.015282163
116	0x3e187cb6	0.14891323
117	0xbd362484	-0.044468418
118	0xbd00b1bc	-0.0314195
119	0x3e2677cf	0.16256641
120	0xbd84a99f	-0.06477665
121	0x3d32905e	0.04359471
122	0x3d71f0f7	0.059067693
123	0xbd85bf14	-0.06530586
124	0x3cb6238f	0.022233753
125	0x3cf86ee6	0.030326318
126	0xbdac88ec	-0.08424553
127	0xbd753799	-0.059867475
128	0x3d5f03f9	0.054447148
129	0xbc89955c	-0.016794853
130	0xbe11f50e	-0.14253637
131	0x3dfe2a40	0.12410402
132	0x3e94c6dc	0.29057968
133	0x3d9c4e2b	0.07632097
134	0xbdb62190	-0.0889312
135	0x3da0b9f4	0.07847968
136	0x3e8947dd	0.2681264
137	0x3f06ad45	0.5260814
138	0x3cc6f477	0.024286492
139	0xbdc48d97	-0.095973186
140	0x3d7d7b23	0.06188501
141	0xbe960826	-0.29303092
142	0xbecd23d4	-0.40066397
143	0xbf212087	-0.6294026
144	0xbd668e23	-0.056287896
145	0x3cdd0ff4	0.026985146
146	0x3e0b78a8	0.13620245
147	0x3dc70a60	0.09718776
148	0x3dcde64d	0.10053692
149	0xbd03f0d3	-0.03221209
150	0xbb87b5ea	-0.004141559
151	0xbbfe9a4b	-0.007769858
152	0xbbd2bd08	-0.0064312257
153	0xbaa5e19e	-0.001265574
154	0xbaabbef7	-0.0013103177
155	0xbac44aab	-0.0014975866
156	0xbc4d0492	-0.012513297
157	0xbc8a54cf	-0.016886143
158	0xbb94ba2f	-0.0045387964
159	0xbb243427	-0.00250555
160	0xbb7e111d	-0.0038767525
161	0xbb147b2c	-0.0022656424
162	0x3bed93d8	0.0072502904
163	0xbc1490d7	-0.009067736
164	0xbc4cdf31	-0.012504385
165	0xbc0eb6ae	-0.008710546
166	0xbb18d769	-0.0023321754
167	0x3a926490	0.0011168886
168	0xbb1e3aae	-0.0024143863
169	0xbbd48d9a	-0.006486607
170	0xbbbc597a	-0.005747971
171	0xbb332ed2	-0.002734114
172	0x3a1a0bdc	0.0005876401
173	0xbb1b38ce	-0.0023684981
174	0xbb81e98d	-0.003964609
175	0x3e253f97	0.16137539
176	0xbda71e26	-0.08160047
177	0x3db5149b	0.08841821
178	0x3ccdbbc6	0.025113951
179	0x3d206ae3	0.039164435
180	0x3c981744	0.018565781
181	0xbd8d67a8	-0.069045365
182	0xbe998d45	-0.29990593
183	0xbe6dc6c5	-0.23220356
184	0x3d428129	0.047486458
185	0x3d96dfab	0.0736688
186	0x3c84b295	0.016198436
187	0xc095e28c	-4.6839046
188	0xbe2cb712	-0.16866711
189	0x3e10811e	0.14111754
190	0x3e083e34	0.13304979
191	0xbcddb8a8	-0.02706559
192	0xbecba79b	-0.3977631
193	0xbdd1b2e9	-0.102392025
194	0x3e2b307b	0.16717713
195	0x3d16f915	0.036858637
196	0xbdb8854e	-0.09009801
197	0x3dd64e5e	0.10464166
198	0xbd7f23e4	-0.062290087
199	0x3d95472f	0.07288968
200	0xbd826a32	-0.063679114
201	0xbdad98e9	-0.08476431
202	0x3db3a1ae	0.08771072
203	0x3d976d1f	0.0739386
204	0x3dafa51f	0.08576416
205	0xbdaf73b5	-0.08566991
206	0x3d7082a2	0.05871833
207	0xbd13c70c	-0.036078498
208	0x3e0d201c	0.1378178
209	0x3d6e0bfd	0.0581169
210	0x3ab2dcee	0.0013646164
211	0x3e1941ac	0.14966458
212	0xc0b9d6c5	-5.807467
213	0xbe9a2c47	-0.30111906
214	0x3d933fea	0.07189925
215	0x3e80cedd	0.25157824
216	0xbe643e87	-0.22289477
217	0xbe85cd29	-0.26133087
218	0xbe3c17b4	-0.18368417
219	0xbdfe2ad3	-0.12410512
220	0xbe457ab1	-0.19285084
221	0x3d6032d1	0.054735962
222	0xbd74d1e1	-0.05977047
223	0x3e84d808	0.2594607
224	0xba5c1105	-0.000839487
225	0xbb302333	-0.002687645
226	0xbba07608	-0.004896883
227	0xbbf276a6	-0.007399398
228	0xbc3520a8	-0.011055149
229	0xbc2c2e5f	-0.010509103
230	0xbb2756e3	-0.0025533966
231	0x3b11b203	0.0022231347
232	0xbb214ea9	-0.0024613535
233	0xbc57add8	-0.013164006
234	0xbc4e2cf7	-0.012583963
235	0xbbb6f744	-0.0055836756
236	0x3b62ba8b	0.0034596052
237	0xbbb0fa0b	-0.005400901
238	0xbc881d62	-0.016615573
239	0xbc4a518f	-0.012348547
240	0xbba5e238	-0.0050623678
241	0xba85fb4b	-0.0010221986
242	0xbbfe1f00	-0.0077551603
243	0xbc7060bc	-0.014671501
244	0xbc2b625f	-0.010460465
245	0xba7b2bfd	-0.0009581445
246	0x3a991a58	0.0011680825
247	0xbb9d9af7	-0.004809733
248	0xbc333d3d	-0.010939893
249	0xbc4c6a09	-0.012476453
250	0x3e0f6d46	0.14006528
251	0x3e80c8b1	0.25153115
252	0x3e88ed24	0.26743424
253	0x3e2a47ae	0.16628906
254	0x3dba980f	0.09111034
255	0x3e7509ed	0.23929568

model.0.bias f4 [32]
0	0xbacf8003	-0.0015830997
1	0xbccf38ab	-0.025295576
2	0xbddae0eb	-0.10687431
3	0xbd7d86f1	-0.06189627
4	0xbba223ce	-0.004948116
5	0xbac96fb9	-0.0015368379
6	0xbaf07aeb	-0.0018347179
7	0x3c9b49f1	0.018956156
8	0x3ca1838d	0.019716049
9	0xbbce6a10	-0.0062992647
10	0xbdb5a287	-0.0886889
11	0xba2634dc	-0.0006340274
12	0xbd762307	-0.060092
13	0x398b6172	0.00026584748
14	0xbd484a26	-0.04889884
15	0xbc03982b	-0.008031885
16	0x3cfbfb38	0.030759439
17	0x3cca27bc	0.02467715
18	0xbd73fcb7	-0.05956718
19	0xb9de13bf	-0.00042357852
20	0x3c81ddf6	0.01585291
21	0xbd3d8f2f	-0.04627913
22	0xbd66b275	-0.056322534
23	0x3c1612e7	0.00915978
24	0xbcdf20e1	-0.027237358
25	0x3d24d6aa	0.040243782
26	0x3d00248a	0.031284846
27	0x3cfb8717	0.030704064
28	0x39640969	0.0002174728
29	0xba6ebbeb	-0.00091069815
30	0xbabafa5e	-0.0014265289
31	0xbb3185d1	-0.0027087817

model.2.weight f4 [16, 32]
0	0x3b672e6d	0.0035275475
1	0xbf97981c	-1.1843295
2	0x3f13e403	0.57769793
3	0x3f601995	0.87539035
4	0xbf0b56d1	-0.54429346
5	0xbf03cd17	-0.5148482
6	0xbc1d95e5	-0.009618257
7	0x3fabac37	1.3411931
8	0x3fdcf60c	1.7262588
9	0xb85ede4f	-5.3135966e-05
10	0x3f77f434	0.96857
11	0x3983324b	0.00025023738
12	0x3f6e8d20	0.9318409
13	0xbec3624c	-0.38160932
14	0x3f63499b	0.8878419
15	0x3c87c77a	0.01657461
16	0x3f8ad224	1.084538
17	0xbf0608d4	-0.5235722
18	0xbf2e00b2	-0.6796981
19	0x3a3851d7	0.0007031238
20	0x3f20d4d5	0.62824756
21	0x3de3a796	0.11115949
22	0x3de7af4f	0.11312734
23	0xbdc312a8	-0.09525043
24	0xbf87756a	-1.0582707
25	0x3fa62a73	1.2981704
26	0xbf197cd1	-0.5995608
27	0x3f386699	0.7203155
28	0xbe0ed4e6	-0.13948402
29	0xba4c82b5	-0.0007801459
30	0x38c8f299	9.5819305e-05
31	0xba4b6651	-0.0007759082
32	0x3b073769	0.0020632392
33	0x3e816841	0.25274852
34	0xbf31ae99	-0.6940704
35	0xbefda70d	-0.49541512
36	0xbeb02069	-0.34399727
37	0x3fab8fd1	1.3403264
38	0x3aa72d86	0.0012754656
39	0xbf77afeb	-0.96752805
40	0xbfa8d961	-1.3191339
41	0x39931f15	0.00028061183
42	0x3dec0320	0.115240335
43	0xbb7ea153	-0.003885348
44	0xbe92aaa9	-0.28645828
45	0x3fc3ede6	1.5306976
46	0xbec79557	-0.38981125
47	0x3f235a48	0.63809633
48	0xbf0f0c9c	-0.55878615
49	0x3f5ffd7f	0.8749618
50	0xbeed56c0	-0.46355247
51	0xbb683f27	-0.0035438032
52	0xbe5cf182	-0.21576503
53	0xbf3637c3	-0.71178836
54	0xbf1fb2fa	-0.6238247
55	0x3edb990f	0.42890212
56	0x3f39034c	0.72270656
57	0xbf52ed6c	-0.8239353
58	0x3fb9702d	1.4487358
59	0xbf03e3c3	-0.5151941
60	0x3f1b980b	0.60778874
61	0xba16ec10	-0.0005757222
62	0x38e23ee2	0.000107882326
63	0xba4b3b74	-0.00077526947
64	0xb9f983b2	-0.00047591102
65	0xbfabcd48	-1.3422022
66	0x3e0617d6	0.1309503
67	0xbf1be0cb	-0.6088988
68	0x3f49f25c	0.78885436
69	0x3f029892	0.51014054
70	0xbb89dfc1	-0.0042075817
71	0xbf88682a	-1.0656788
72	0xbfb8f678	-1.4450216
73	0x39997849	0.00029272054
74	0xbe49a0ba	-0.19690219
75	0xba20d0f8	-0.00061346544
76	0x3e1bc240	0.15210819
77	0xbf0f299f	-0.55922884
78	0xbf1a59cc	-0.6029327
79	0x3ca4b297	0.02010469
80	0xbf2cc81e	-0.67492855
81	0x3f21319c	0.6296632
82	0x3f34140d	0.70343095
83	0x3b24332e	0.002505492
84	0xbeb4ded1	-0.35326245
85	0xbe6b588f	-0.22983001
86	0xbe3ea96f	-0.18619321
87	0x3f509394	0.81475186
88	0x3f8601bb	1.0469278
89	0xbf4be26a	-0.79642355
90	0x3f1c0788	0.6094899
91	0xbead9c04	-0.33908093
92	0x3e9ff143	0.31238756
93	0xb837c6f8	-4.3815904e-05
94	0x39b852f6	0.00035157026
95	0x38dc0a09	0.00010492287
96	0x3b2e3b81	0.002658576
97	0x3ee97784	0.45598996
98	0x3e317ca5	0.17332704
99	0x3ed68da0	0.41904926
100	0xbf324a38	-0.696445
101	0xbff9a430	-1.9503231
102	0x39cb9565	0.00038830485
103	0x3f9b7049	1.2143642
104	0x3fc7038c	1.5547957
105	0x3c2a4faa	0.01039497
106	0x3e9ae31b	0.30251393
107	0xb908e3df	-0.0001305486
108	0x3cf8612e	0.030319776
109	0xbfe90860	-1.8205681
110	0x3f41808d	0.7558678
111	0x3d9a265b	0.07526847
112	0x3f668880	0.9005203
113	0xbed4135d	-0.41421023
114	0xbf9d9fb7	-1.2314366
115	0xbbb99973	-0.0056640445
116	0x3f659ecf	0.8969545
117	0xbc60f5cc	-0.013730478
118	0x3f7ad7f3	0.9798576
119	0xbe84bf61	-0.2592726
120	0xbed2d7ae	-0.41180176
121	0x3f876ad4	1.0579476
122	0xbf2811c6	-0.6565212
123	0x3f9cd870	1.2253551
124	0xbdeaa081	-0.11456395
125	0xb90ba142	-0.00013316146
126	0xb89f65f7	-7.600703e-05
127	0xbb2b66a0	-0.0026153699
128	0xbb17a3aa	-0.0023138323
129	0xbf5a0969	-0.8517061
130	0x3da50672	0.0805787
131	0x3f43515f	0.7629604
132	0xbee0592a	-0.43818027
133	0xbefaddce	-0.4899735
134	0x3c74344c	0.014905047
135	0x3fa8fe3e	1.3202589
136	0x3fd25c3b	1.6434397
137	0xbc127dcc	-0.008941125
138	0xbe73503d	-0.23761077
139	0xbae68ccd	-0.0017589569
140	0x3e795785	0.24349792
141	0xbd865413	-0.06559005
142	0x3f62993d	0.88515073
143	0x3d3b7ae0	0.04577148
144	0x3fa5d3cb	1.2955259
145	0x3e974689	0.29546002
146	0xbe683db3	-0.22679786
147	0xba21b002	-0.000616789
148	0x3f8c9e30	1.0985775
149	0x3e845b69	0.2585099
150	0x3e838575	0.25687757
151	0x3e7e49db	0.24832861
152	0xbea7d0be	-0.32776445
153	0x3fa22373	1.2667068
154	0xbe7da905	-0.24771507
155	0x3fc82abc	1.5638041
156	0x3cf18ca7	0.029486014
157	0xb96b055d	-0.00022413344
158	0xb8933bd3	-7.020649e-05
159	0x3b37c8af	0.00280432
160	0xba85d8c4	-0.0010211696
161	0xbfac226e	-1.3448007
162	0xbe600868	-0.21878207
163	0xbf05721c	-0.5212724
164	0xbf211c0d	-0.6293343
165	0xbf4b18ba	-0.79334605
166	0x3b6b68e3	0.0035920672
167	0x3f9b8524	1.2150006
168	0x3f9a0e1d	1.2035557
169	0x3b8b8324	0.0042575765
170	0xbd1a2f7b	-0.037642937
171	0xb938d882	-0.00017628263
172	0xbe1a2001	-0.15051271
173	0xbf75cf3a	-0.9601933
174	0x3cc8403a	0.024444688
175	0xbf74cf4f	-0.9562883
176	0x3f6a08de	0.9141978
177	0xbd02ab19	-0.031901453
178	0xbfa53b5d	-1.2908741
179	0xbbba5404	-0.005686285
180	0x3d9c2744	0.07624677
181	0xbec19a4b	-0.3781303
182	0xbf21b990	-0.6317377
183	0xbedc4b63	-0.43026266
184	0xbf88e802	-1.0695803
185	0x3f9d4e77	1.228957
186	0xbe272056	-0.16320929
187	0x3f268ce6	0.65058744
188	0xbf739c7a	-0.9516064
189	0x399f9243	0.00030435817
190	0xb9eaa774	-0.0004475672
191	0xbb73af14	-0.0037183212
192	0xbb301b91	-0.00268719
193	0xbfef371c	-1.8688693
194	0x3e6497a0	0.22323465
195	0xbf0213ac	-0.50811267
196	0x3f4a1904	0.7894442
197	0xbc9138ee	-0.017727342
198	0xbba65e55	-0.005077163
199	0xbf93aef0	-1.1537762
200	0xbf9487c2	-1.160393
201	0xbab3a3f3	-0.0013705477
202	0xbe063466	-0.13105926
203	0x39e908e5	0.0004444785
204	0x3d8a2b94	0.06746593
205	0xbef7c7e1	-0.48394683
206	0xbef52316	-0.4787833
207	0x3d7d3be2	0.061824687
208	0xbf576798	-0.84142447
209	0x3e51d388	0.20490849
210	0x3f43bcbc	0.7645986
211	0x3b0a0004	0.0021057138
212	0xbed8f5e8	-0.42375112
213	0x3da9b96e	0.08287321
214	0xbd94dd73	-0.072688006
215	0x3f37aaa0	0.7174473
216	0x3fa0775a	1.2536423
217	0xbf59a7ad	-0.8502148
218	0x3f045624	0.5169394
219	0xbe9b78af	-0.30365512
220	0x3dcea5b2	0.100901976
221	0x399e6af3	0.00030215792
222	0xb9b3ebc3	-0.00034317197
223	0xba2c2c3b	-0.000656787
224	0xba04c398	-0.0005064546
225	0xbfc37bb4	-1.5272126
226	0x3da83397	0.08212965
227	0xbef09b4c	-0.46993482
228	0x3f2fc790	0.68663883
229	0x3dbd5119	0.09243984
230	0x35c87077	1.4933893e-06
231	0xbf92a7cd	-1.1457459
232	0xbf96bab5	-1.1775728
233	0xbb635b65	-0.0034691927
234	0xbd598acd	-0.053110886
235	0xba0afddb	-0.00053021096
236	0xbe1b0d14	-0.15141708
237	0x3cd668b7	0.026172979
238	0xbf0fbc73	-0.56146926
239	0x3ea0e812	0.31427056
240	0xbf7f9ecd	-0.99851686
241	0x3e9a2baa	0.30111438
242	0x3f2add9b	0.66744393
243	0x3b3a80af	0.002845805
244	0xbed81cd6	-0.422095
245	0xbe037413	-0.12837248
246	0xbe9852eb	-0.2975076
247	0x3f2a4abe	0.665203
248	0x3faedda1	1.3661386
249	0xbf5f03b0	-0.87115
250	0x3f36ce4f	0.7140855
251	0xbebfc958	-0.374583
252	0x3df20b60	0.11818576
253	0xba247fa4	-0.00062751235
254	0xbab6ed2a	-0.0013956178
255	0xb8f10c70	-0.00011494092

model.2.bias f4 [16]
0	0x3deb8cfb	0.11501499
1	0x3cc6e45c	0.024278812
2	0x3d1b129f	0.037859555
3	0x3ec43469	0.38321236
4	0xbd0acd87	-0.033887412
5	0x3f0302ad	0.5117596
6	0x3c0e8456	0.0086985435
7	0x3d1baa99	0.03800449
8	0x3e1b149f	0.15144585
9	0x3b57c2a7	0.0032922418
10	0x3e260dfe	0.16216275
11	0x3c0c9a84	0.008581761
12	0x3e2f864b	0.17141072
13	0xbaa43b7b	-0.0012529934
14	0x3ec4880b	0.38385043
15	0xbb591fef	-0.0033130606

model.4.weight f4 [2, 16]
0	0xc0459004	-3.086915
1	0x405ccd21	3.45002
2	0x4047de51	3.122944
3	0xc009b9d6	-2.1519675
4	0xbfd79a58	-1.6843977
5	0xc0d7985f	-6.73735
6	0x40570989	3.359957
7	0x40551e03	3.3299568
8	0x4003ebe6	2.061273
9	0x405250b5	3.286176
10	0x4008076e	2.1254535
11	0x409db52c	4.9283657
12	0x400871cb	2.1319454
13	0xbab50f54	-0.0013813772
14	0xc0052dca	-2.0809197
15	0xb92c8afc	-0.00016454974
16	0x40458855	3.086446
17	0xc05ccd12	-3.4500165
18	0xc047cad3	-3.1217544
19	0x4009b778	2.151823
20	0x3fd7a2c8	1.6846552
21	0x40d78bd2	6.735818
22	0xc0570c5d	-3.3601296
23	0xc0554b83	-3.3327339
24	0xc0040999	-2.0630858
25	0xc0522b2c	-3.283885
26	0xc008148e	-2.1262546
27	0xc09dbafd	-4.9290757
28	0xc00880c7	-2.13286
29	0x398443aa	0.00025227416
30	0x4005466a	2.0824227
31	0xbb07958b	-0.00206885

model.4.bias f4 [2]
0	0xbea8ad98	-0.32944942
1	0x3ea8b02f	0.32946917

exp_avg f4 [32, 25]
0	0x00000004	6e-45
1	0x00000004	6e-45
2	0x00000004	6e-45
3	0x00000004	6e-45
4	0x00000004	6e-45
5	0x00000004	6e-45
6	0x00000004	6e-45
7	0x00000004	6e-45
8	0x00000004	6e-45
9	0x00000004	6e-45
10	0x00000004	6e-45
11	0x00000004	6e-45
12	0x00000004	6e-45
13	0x00000004	6e-45
14	0x00000004	6e-45
15	0x00000004	6e-45
16	0x00000004	6e-45
17	0x00000004	6e-45
18	0x00000004	6e-45
19	0x00000004	6e-45
20	0x00000004	6e-45
21	0x00000004	6e-45
22	0x00000004	6e-45
23	0x00000004	6e-45
24	0x00000004	6e-45
25	0xbcd0571b	-0.02543216
26	0xbcc8f805	-0.024532327
27	0xbd1d4d0e	-0.038403563
28	0xbd941b8d	-0.072318174
29	0xbd9a129d	-0.075230815
30	0xbcd65089	-0.026161449
31	0xbcd0fb61	-0.025510492
32	0xbd3143d8	-0.04327759
33	0xbd917ef5	-0.07104293
34	0xbd9a0ea4	-0.07522324
35	0xbd039145	-0.03212096
36	0xbcdbb0b5	-0.026817659
37	0xbd7c14fb	-0.061543446
38	0xbd9d739b	-0.076880656
39	0xbd9ed316	-0.07755105
40	0xbd04a789	-0.032386336
41	0xbd1090d0	-0.035294354
42	0xbda670b9	-0.08126969
43	0xbda7ff53	-0.08202996
44	0xbd9f0683	-0.07764914
45	0xbd084788	-0.033271343
46	0xbd5415ad	-0.051778484
47	0xbdb2d8bd	-0.08732746
48	0xbdb18731	-0.08668364
49	0xbdb0878b	-0.08619603
50	0x3a4e5d29	0.00078721583
51	0x3a714bc4	0.00092047104
52	0x3a72d16b	0.0009262773
53	0x3a798b9a	0.00095193984
54	0x3a85bdec	0.0010203696
55	0x3a378844	0.0007001201
56	0x3a5448b0	0.00080979895
57	0x3a6b6cc1	0.0008980744
58	0x3a80ca9b	0.0009826006
59	0x3a83919d	0.0010037903
60	0x39e58a43	0.00043781297
61	0x3a14a663	0.00056705455
62	0x3a1a1ede	0.00058792334
63	0x3a7418ef	0.0009311577
64	0x3a82b565	0.0009972273
65	0x3a00c49d	0.000491211
66	0x3a09bee1	0.00052545784
67	0x3a1e15d0	0.0006030472
68	0x3a2ddc23	0.0006632229
69	0x3a455064	0.0007526933
70	0x3a0c15eb	0.0005343842
71	0x3a156d2f	0.00057001685
72	0x3a2768e0	0.0006386172
73	0x3a2a76a0	0.0006502662
74	0x3a331c50	0.0006832527
75	0x3bc68031	0.006057762
76	0x3bc11efb	0.0058935857
77	0x3bbf23f3	0.005833143
78	0x3bc41a28	0.0059845634
79	0x3bbd7f3b	0.0057829893
80	0x3bc6bb34	0.006064797
81	0x3bc2b5d5	0.005942086
82	0x3bbcbd2a	0.005759855
83	0x3bbe1f64	0.005802082
84	0x3bb8d379	0.005640444
85	0x3b924e3b	0.004464892
86	0x3b91e546	0.0044523804
87	0x3b7fbeb2	0.0039023575
88	0x3ba396ab	0.0049923263
89	0x3bca6579	0.0061766473
90	0x3b8e1408	0.004335884
91	0x3b7ee501	0.0038893821
92	0x3b81588f	0.0039473246
93	0x3b8cb288	0.0042937435
94	0x3b92a9b0	0.0044757947
95	0x3b7c9bb3	0.0038544952
96	0x3b912eea	0.0044306414
97	0x3b896953	0.004193464
98	0x3b8b883c	0.0042581838
99	0x3b925945	0.004466208
100	0xbc376bdd	-0.01119515
101	0xbc42f428	-0.011899032
102	0xbc2e4b0b	-0.010638009
103	0xbc28ed40	-0.010310471
104	0xbc1098a4	-0.008825455
105	0xbc2f85fd	-0.010713098
106	0xbc360330	-0.011109158
107	0xbc4224b3	-0.01184957
108	0xbc42033b	-0.0118415905
109	0xbc2e3be5	-0.010634397
110	0xbc332f10	-0.010936514
111	0xbc565e4c	-0.013084006
112	0xbc423c78	-0.011855237
113	0xbc16aaee	-0.009196026
114	0xbc0f90e1	-0.008762569
115	0xbc4c67b3	-0.012475896
116	0xbc42ca69	-0.011889079
117	0xbc08c888	-0.008348592
118	0xbbffa21d	-0.007801308
119	0xbc0f78a1	-0.0087567875
120	0xbc3c2261	-0.011482806
121	0xbc18981e	-0.009313611
122	0xbc001875	-0.007818331
123	0xbbfaff4c	-0.0076598283
124	0xbc029b9c	-0.0079716705
125	0xbc9a64e5	-0.018846938
126	0xbc9cc3ff	-0.019136427
127	0xbc9b00ea	-0.018921334
128	0xbca0a7b1	-0.019611211
129	0xbc9cf903	-0.019161707
130	0xbc98072a	-0.018558104
131	0xbc9f117b	-0.019417515
132	0xbca429d5	-0.020039478
133	0xbca1b1e1	-0.01973814
134	0xbc9c4816	-0.019077342
135	0xbc08e90b	-0.008356343
136	0xbc843ba7	-0.016141726
137	0xbc887800	-0.016658783
138	0xbc941e38	-0.018080816
139	0xbcb15d0b	-0.021650812
140	0xbbfe25cb	-0.00775597
141	0xbbf61bbc	-0.0075106304
142	0xbc20c4eb	-0.009812574
143	0xbc7898b0	-0.015173122
144	0xbc94a90a	-0.01814701
145	0xbc0b39ed	-0.008497697
146	0xbc2dde60	-0.0106121
147	0xbc26b40c	-0.010174762
148	0xbc264b35	-0.010149767
149	0xbc26c5ca	-0.0101789925
150	0x00000004	6e-45
151	0x00000004	6e-45
152	0x80000004	-6e-45
153	0x80000004	-6e-45
154	0x80000004	-6e-45
155	0x00000004	6e-45
156	0x00000004	6e-45
157	0x00000004	6e-45
158	0x00000004	6e-45
159	0x80000004	-6e-45
160	0x00000004	6e-45
161	0x00000004	6e-45
162	0x00000004	6e-45
163	0x00000004	6e-45
164	0x80000004	-6e-45
165	0x00000004	6e-45
166	0x00000004	6e-45
167	0x00000004	6e-45
168	0x00000004	6e-45
169	0x00000004	6e-45
170	0x00000004	6e-45
171	0x00000004	6e-45
172	0x00000004	6e-45
173	0x00000004	6e-45
174	0x00000004	6e-45
175	0xb29810bc	-1.7702739e-08
176	0xb2986795	-1.7742233e-08
177	0xb29898bb	-1.7764583e-08
178	0xb29af711	-1.8040312e-08
179	0x352fffb8	6.55647e-07
180	0xb2940ba1	-1.7234756e-08
181	0xb2940269	-1.7230564e-08
182	0xb2812d7c	-1.503826e-08
183	0x344ee4e5	1.9268516e-07
184	0x3581f90d	9.683732e-07
185	0xb2940700	-1.723265e-08
186	0xb2617612	-1.312357e-08
187	0x330ac552	3.231009e-08
188	0x3558d43b	8.0775106e-07
189	0x35889072	1.0174829e-06
190	0xb204301d	-7.694351e-09
191	0xab6877be	-8.2589133e-13
192	0x34ad5e13	3.229221e-07
193	0x35888d9e	1.0174006e-06
194	0x35888b4f	1.0173334e-06
195	0xae2d376c	-3.938487e-11
196	0x334fd7c9	4.83922e-08
197	0x357b6d74	9.366406e-07
198	0x35888da4	1.0174012e-06
199	0x35888bb8	1.0173453e-06
200	0x357d9d02	9.447832e-07
201	0x357d99b8	9.4473535e-07
202	0x357d978d	9.447038e-07
203	0x35754203	9.136567e-07
204	0x33d3c1ce	9.860706e-08
205	0x357dc36c	9.453422e-07
206	0x357dc39c	9.4534494e-07
207	0x35762414	9.169464e-07
208	0x33d8da05	1.0097941e-07
209	0xb13eb75a	-2.7752862e-09
210	0x357f41bf	9.5090576e-07
211	0x355f6761	8.322441e-07
212	0x33843718	6.1567505e-08
213	0xabcf0fa9	-1.4712581e-12
214	0xaf88b8a5	-2.4869454e-10
215	0x3560fdee	8.381602e-07
216	0x3384368d	6.156652e-08
217	0x80000004	-6e-45
218	0xab94389e	-1.0531747e-12
219	0xaeaced77	-7.863837e-11
220	0xae49749e	-4.5805686e-11
221	0xab813bf5	-9.182643e-13
222	0xa97ef8ec	-5.6615235e-14
223	0xaa9d8a8f	-2.7984947e-13
224	0xae9025da	-6.5550856e-11
225	0x80000004	-6e-45
226	0x80000004	-6e-45
227	0x00000004	6e-45
228	0x80000004	-6e-45
229	0x80000004	-6e-45
230	0x00000004	6e-45
231	0x80000004	-6e-45
232	0x80000004	-6e-45
233	0x80000004	-6e-45
234	0x80000004	-6e-45
235	0x00000004	6e-45
236	0x00000004	6e-45
237	0x80000004	-6e-45
238	0x80000004	-6e-45
239	0x80000004	-6e-45
240	0x00000004	6e-45
241	0x00000004	6e-45
242	0x00000004	6e-45
243	0x80000004	-6e-45
244	0x00000004	6e-45
245	0x00000004	6e-45
246	0x80000004	-6e-45
247	0x80000004	-6e-45
248	0x80000004	-6e-45
249	0x80000004	-6e-45
250	0x3bd3f57b	0.0064684725
251	0x3bd1e3a8	0.0064053126
252	0x3bc907b7	0.006134953
253	0x3bc7fee4	0.0061033834
254	0x3bbc5f00	0.0057486296
255	0x3bd1f69c	0.006407572

exp_avg_sq f4 [32, 25]
0	0x000001f4	7e-43
1	0x000001f4	7e-43
2	0x000001f4	7e-43
3	0x000001f4	7e-43
4	0x000001f4	7e-43
5	0x000001f4	7e-43
6	0x000001f4	7e-43
7	0x000001f4	7e-43
8	0x000001f4	7e-43
9	0x000001f4	7e-43
10	0x000001f4	7e-43
11	0x000001f4	7e-43
12	0x000001f4	7e-43
13	0x000001f4	7e-43
14	0x000001f4	7e-43
15	0x000001f4	7e-43
16	0x000001f4	7e-43
17	0x000001f4	7e-43
18	0x000001f4	7e-43
19	0x000001f4	7e-43
20	0x000001f4	7e-43
21	0x000001f4	7e-43
22	0x000001f4	7e-43
23	0x000001f4	7e-43
24	0x000001f4	7e-43
25	0x3d52a5d4	0.051427677
26	0x3d4b4351	0.049624745
27	0x3d53c510	0.051701605
28	0x3d5ab655	0.05339654
29	0x3d511f14	0.05105503
30	0x3d484dff	0.048902508
31	0x3d5fe750	0.054663956
32	0x3d5f8bf3	0.054576825
33	0x3d592045	0.05300929
34	0x3d453930	0.04815024
35	0x3d4dfe8c	0.050291583
36	0x3d55daf9	0.05221078
37	0x3d6d16a8	0.057882935
38	0x3d3c2667	0.04593506
39	0x3d381438	0.044941157
40	0x3d4e7637	0.050405707
41	0x3d519411	0.051166598
42	0x3d4c611d	0.049897302
43	0x3d492536	0.049107753
44	0x3d376d12	0.044781752
45	0x3d4d177b	0.05007122
46	0x3d44a580	0.048009396
47	0x3d473d98	0.048642725
48	0x3d45e947	0.048318174
49	0x3d40cf62	0.047072776
50	0x394a3954	0.00019285578
51	0x3991d23f	0.000278132
52	0x399e4e9e	0.00030194683
53	0x399a605b	0.0002944496
54	0x399967a7	0.0002925966
55	0x394aec41	0.00019352233
56	0x3989ef22	0.00026308844
57	0x398ec188	0.00027228543
58	0x3994a1a3	0.00028349189
59	0x3990bab4	0.00027604925
60	0x3943e154	0.0001868059
61	0x3957f630	0.0002059571
62	0x391df981	0.00015065634
63	0x3921a82f	0.0001541681
64	0x393e6004	0.0001815558
65	0x39394618	0.00017669087
66	0x39376bd3	0.00017492408
67	0x3932ecc5	0.00017063606
68	0x392e4e64	0.00016623136
69	0x3948ea0e	0.00019160678
70	0x3937df3d	0.00017535403
71	0x39333f68	0.00017094391
72	0x3932076d	0.00016978169
73	0x392fd220	0.00016767578
74	0x39414b7a	0.00018434032
75	0x3cc75301	0.024331572
76	0x3ccc423c	0.024933927
77	0x3cd0f66c	0.025508128
78	0x3ccf2ea1	0.02529079
79	0x3cca1d47	0.024672164
80	0x3cd7ecca	0.026358027
81	0x3cbcbd00	0.023039341
82	0x3c994665	0.018710325
83	0x3caf4615	0.021395722
84	0x3cb4c65c	0.022067241
85	0x3ce8789b	0.028377822
86	0x3cc873c4	0.024469264
87	0x3c659ba7	0.014014161
88	0x3c889c10	0.016675979
89	0x3c915daf	0.017744867
90	0x3ce2046e	0.027590003
91	0x3cbf581f	0.02335745
92	0x3c82cf13	0.015967881
93	0x3c56b658	0.013104998
94	0x3c803d41	0.015654208
95	0x3ccb513d	0.02481901
96	0x3cb2ee33	0.021842098
97	0x3c8f8e99	0.01752405
98	0x3c6b6748	0.014367886
99	0x3c71cb29	0.01475791
100	0x3d26162f	0.0405485
101	0x3d24bf2f	0.04022139
102	0x3d17fc02	0.037105568
103	0x3d101dec	0.035184786
104	0x3d075728	0.033042103
105	0x3d30a5c7	0.043126848
106	0x3d2556da	0.04036603
107	0x3d05f149	0.03270081
108	0x3cf47c04	0.029844292
109	0x3ce88c77	0.028387291
110	0x3d444119	0.047913644
111	0x3d338e17	0.04383668
112	0x3ce90219	0.028443383
113	0x3cbc3968	0.022976592
114	0x3cbfbf92	0.023406778
115	0x3d4151cb	0.047197144
116	0x3d2b9628	0.041891247
117	0x3d01bbe6	0.031673335
118	0x3cc74ed6	0.024329584
119	0x3cc5f91c	0.024166636
120	0x3d35101d	0.04420482
121	0x3d21930b	0.03944687
122	0x3d069d3d	0.032864798
123	0x3ce48e39	0.027899848
124	0x3cd7b49a	0.026331235
125	0x3ccef531	0.0252634
126	0x3ce836bd	0.028346414
127	0x3cf6a88e	0.03010967
128	0x3d00bcb0	0.031429946
129	0x3cf812b4	0.030282356
130	0x3cc2a1ac	0.023758732
131	0x3cdefed4	0.02722112
132	0x3ce844f2	0.028353188
133	0x3cf53694	0.029933251
134	0x3cef5e0a	0.029219646
135	0x3cb6acb7	0.022299154
136	0x3cc4b982	0.024014238
137	0x3caec9af	0.021336405
138	0x3caf5d2b	0.02140673
139	0x3cadcdc2	0.021216277
140	0x3cb2d613	0.021830594
141	0x3ca35e27	0.019942356
142	0x3c80d3b9	0.015725957
143	0x3c86d97a	0.016461123
144	0x3c9978c8	0.01873435
145	0x3c9f9500	0.019480228
146	0x3c9227cb	0.01784124
147	0x3c7c5410	0.015400901
148	0x3c616f60	0.013759464
149	0x3c83238f	0.016008167
150	0x000001f4	7e-43
151	0x000001f4	7e-43
152	0x000001f4	7e-43
153	0x000001f4	7e-43
154	0x000001f4	7e-43
155	0x000001f4	7e-43
156	0x000001f4	7e-43
157	0x000001f4	7e-43
158	0x000001f4	7e-43
159	0x000001f4	7e-43
160	0x000001f4	7e-43
161	0x000001f4	7e-43
162	0x000001f4	7e-43
163	0x000001f4	7e-43
164	0x000001f4	7e-43
165	0x000001f4	7e-43
166	0x000001f4	7e-43
167	0x000001f4	7e-43
168	0x000001f4	7e-43
169	0x000001f4	7e-43
170	0x000001f4	7e-43
171	0x000001f4	7e-43
172	0x000001f4	7e-43
173	0x000001f4	7e-43
174	0x000001f4	7e-43
175	0x334c21a4	4.7528047e-08
176	0x334ab297	4.7194217e-08
177	0x33655a1a	5.3400164e-08
178	0x337b271b	5.8476058e-08
179	0x3296c868	1.7553432e-08
180	0x334a9e80	4.7175945e-08
181	0x334a5629	4.7110152e-08
182	0x331d9834	3.669284e-08
183	0x325a5b81	1.2710076e-08
184	0x32668758	1.3418536e-08
185	0x334a9e70	4.7175888e-08
186	0x32eb6c45	2.7406836e-08
187	0x2ce48de0	6.495901e-12
188	0x31eedc7b	6.9517774e-09
189	0x3266c9f8	1.3433684e-08
190	0x322397ed	9.522393e-09
191	0x2eece264	1.07722525e-10
192	0x2d4e3c86	1.1723183e-11
193	0x30a7d0b6	1.2210168e-09
194	0x325c5476	1.282489e-08
195	0x2f612f39	2.0480408e-10
196	0x2ea19e5a	7.349561e-11
197	0x2ee0a647	1.02158774e-10
198	0x2fdecc68	4.0526804e-10
199	0x32091f7c	7.981608e-09
200	0x3394913e	6.9182065e-08
201	0x34ec7e38	4.4050262e-07
202	0x35dfb718	1.6668082e-06
203	0x3612bbb3	2.186495e-06
204	0x360f76b6	2.137776e-06
205	0x3373fab7	5.680587e-08
206	0x3388de40	6.3734205e-08
207	0x34f36118	4.5332922e-07
208	0x360811a0	2.0275838e-06
209	0x360d279b	2.103369e-06
210	0x3372d9f4	5.6543243e-08
211	0x33108b43	3.365427e-08
212	0x2fc557dd	3.5896522e-10
213	0x35685877	8.655547e-07
214	0x3518d17d	5.692926e-07
215	0x323f50bc	1.113602e-08
216	0x2df1c804	2.7487353e-11
217	0x2b838ffa	9.348071e-13
218	0x30852a3e	9.68903e-10
219	0x33901799	6.709815e-08
220	0x2d147d8b	8.440702e-12
221	0x293a1457	4.131794e-14
222	0x2e1cea2e	3.5678287e-11
223	0x2ffd7ff8	4.611136e-10
224	0x31af2081	5.0968656e-09
225	0x000001f4	7e-43
226	0x000001f4	7e-43
227	0x000001f4	7e-43
228	0x000001f4	7e-43
229	0x000001f4	7e-43
230	0x000001f4	7e-43
231	0x000001f4	7e-43
232	0x000001f4	7e-43
233	0x000001f4	7e-43
234	0x000001f4	7e-43
235	0x000001f4	7e-43
236	0x000001f4	7e-43
237	0x000001f4	7e-43
238	0x000001f4	7e-43
239	0x000001f4	7e-43
240	0x000001f4	7e-43
241	0x000001f4	7e-43
242	0x000001f4	7e-43
243	0x000001f4	7e-43
244	0x000001f4	7e-43
245	0x000001f4	7e-43
246	0x000001f4	7e-43
247	0x000001f4	7e-43
248	0x000001f4	7e-43
249	0x000001f4	7e-43
250	0x3b25064e	0.002518076
251	0x3b42ad4e	0.0029705348
252	0x3b5dbc19	0.0033834039
253	0x3b565d0b	0.0032709267
254	0x3b4a1ef3	0.00308412
255	0x3b1e7718	0.0024179872

exp_avg f4 [32]
0	0x00000004	6e-45
1	0xbe192ba3	-0.14958052
2	0x3ab82486	0.0014048971
3	0x3bbaa6f6	0.005696173
4	0xbc99be91	-0.018767627
5	0xbc93a0cc	-0.01802101
6	0x00000004	6e-45
7	0x36557639	3.1808288e-06
8	0x363d7801	2.8233046e-06
9	0x00000004	6e-45
10	0x3be0c512	0.00685943
11	0x00000004	6e-45
12	0x3bba0979	0.0056773988
13	0xbc20a19d	-0.009804157
14	0x3b5f20b2	0.0034046588
15	0x3d27f193	0.041001868
16	0xb5379061	-6.838291e-07
17	0xb93d2513	-0.00018038256
18	0x3c017b1e	0.007902889
19	0x00000004	6e-45
20	0xb4bd2540	-3.5231096e-07
21	0xbb400228	-0.002929816
22	0xbd0ff3d5	-0.035144646
23	0x3a28c582	0.00064381224
24	0x3dcf2091	0.101136334
25	0xb562d3af	-8.44996e-07
26	0xb94e4282	-0.00019670467
27	0xb51da78a	-5.873086e-07
28	0x3d144154	0.036195114
29	0x00000000	0.0
30	0x00000004	6e-45
31	0x00000004	6e-45

exp_avg_sq f4 [32]
0	0x000001f4	7e-43
1	0x3e04d909	0.12973417
2	0x39ebdae0	0.00044985767
3	0x3d33558f	0.043782767
4	0x3d9739d3	0.07384076
5	0x3d51d408	0.0512276
6	0x000001f4	7e-43
7	0x357deae4	9.4591655e-07
8	0x3754c2e1	1.26815585e-05
9	0x000001f4	7e-43
10	0x3bac5b9e	0.005259945
11	0x000001f4	7e-43
12	0x3bb7f9b6	0.0056144847
13	0x3c96d998	0.018414304
14	0x3cb304c8	0.021852866
15	0x3c948cd8	0.018133566
16	0x38046380	3.156392e-05
17	0x3b8d8fe7	0.004320133
18	0x3d8d07c1	0.068862446
19	0x000001f4	7e-43
20	0x33fb60d3	1.17057105e-07
21	0x3baaae06	0.0052087335
22	0x3c68e40d	0.014214528
23	0x3bed1200	0.007234812
24	0x3db27610	0.08713925
25	0x31d3cb94	6.1640524e-09
26	0x3b5394f6	0.0032284833
27	0x35bbfe29	1.4006556e-06
28	0x3d06c87a	0.032906033
29	0x00000000	0.0
30	0x000001f4	7e-43
31	0x000001f4	7e-43

exp_avg f4 [16, 32]
0	0x80000004	-6e-45
1	0xb89703f6	-7.200979e-05
2	0x390b54d3	0.00013287672
3	0x39c38ce5	0.00037298273
4	0x3822724a	3.873025e-05
5	0x3a14159d	0.00056489726
6	0x80000004	-6e-45
7	0xb102fa73	-1.9059854e-09
8	0xb03c05a5	-6.8402023e-10
9	0x80000004	-6e-45
10	0x3b08fc05	0.0020902168
11	0x80000004	-6e-45
12	0x39a99e71	0.0003235224
13	0x39563d77	0.00020431528
14	0x38eb3db8	0.00011217169
15	0x3a32d6e7	0.0006822184
16	0xb23736ec	-1.066449e-08
17	0x3832f4b1	4.2666394e-05
18	0x38b2acd7	8.519895e-05
19	0x80000004	-6e-45
20	0xb10a0c07	-2.008848e-09
21	0xba0e5b97	-0.0005430518
22	0x3ad39800	0.0016143322
23	0x34ef0f5d	4.4528397e-07
24	0x39dd9e7d	0.00042270488
25	0xb1854cfd	-3.879562e-09
26	0x35942ae8	1.1039347e-06
27	0xb1635ac6	-3.3084446e-09
28	0x3b0c98c7	0.0021453367
29	0x00000000	0.0
30	0x00000000	0.0
31	0x80000004	-6e-45
32	0x00000004	6e-45
33	0x3a880f0b	0.001038046
34	0xb9938847	-0.0002813956
35	0xb9d13318	-0.00039901654
36	0xb92b27fd	-0.00016322728
37	0xba58d608	-0.0008271639
38	0x00000004	6e-45
39	0xb04e9722	-7.5157136e-10
40	0xb0eadd85	-1.70887e-09
41	0x00000004	6e-45
42	0xbb220a02	-0.0024725203
43	0x00000004	6e-45
44	0xba12b38c	-0.00055962126
45	0xba01bb63	-0.0004948882
46	0xb90594b7	-0.00012739269
47	0x3b2662f9	0.0025388582
48	0x321255c0	8.517816e-09
49	0xb88411a2	-6.297535e-05
50	0xb934f84a	-0.00017258633
51	0x00000004	6e-45
52	0x2f932075	2.6762206e-10
53	0x39da920a	0.00041689008
54	0x3b97c4a4	0.0046315957
55	0xb44ffd92	-1.9370626e-07
56	0x3b02428b	0.0019876088
57	0x2d27d34d	9.539769e-12
58	0xb5a7c41d	-1.2499546e-06
59	0x2f20e3ea	1.4632887e-10
60	0xb8c88e61	-9.563263e-05
61	0x00000000	0.0
62	0x00000004	6e-45
63	0x00000004	6e-45
64	0x00000004	6e-45
65	0x3a4b752a	0.0007761294
66	0xba088627	-0.00052079785
67	0xb9c9faa7	-0.00038524458
68	0xb9c39338	-0.00037302985
69	0xbaa4cb38	-0.0012572771
70	0x00000004	6e-45
71	0xb02f8220	-6.384955e-10
72	0xb0bdc731	-1.3808173e-09
73	0x80000004	-6e-45
74	0xbb15d039	-0.0022859706
75	0x00000004	6e-45
76	0xb97bee67	-0.00024026037
77	0xb8f134de	-0.00011501623
78	0xb8c9cf7c	-9.623074e-05
79	0x3b3cd8cd	0.0028815747
80	0xafc79f49	-3.6311068e-10
81	0xb8a973fa	-8.08015e-05
82	0xba2e02c5	-0.0006637986
83	0x00000004	6e-45
84	0x2f79c9e3	2.2718143e-10
85	0xba3cfbdb	-0.000720916
86	0x3b8f0a88	0.004365269
87	0xb60c3666	-2.089329e-06
88	0x3ae5e725	0.00175402
89	0xa6d32640	-1.4651434e-15
90	0xb4b9bd21	-3.4596545e-07
91	0x2f77ad16	2.2526012e-10
92	0xb94030c8	-0.0001832872
93	0x00000000	0.0
94	0x00000004	6e-45
95	0x80000004	-6e-45
96	0x80000004	-6e-45
97	0xba3889fc	-0.0007039604
98	0x39063a03	0.00012800847
99	0x39237ae5	0.00015590673
100	0x384304eb	4.6496203e-05
101	0x398aa755	0.00026446083
102	0x80000004	-6e-45
103	0xb0698299	-8.4950497e-10
104	0xb0e15585	-1.6395211e-09
105	0x80000004	-6e-45
106	0x3aa8a7f5	0.0012867438
107	0x80000004	-6e-45
108	0x3995a19b	0.000285399
109	0x397cc630	0.00024106423
110	0x3861cf1a	5.383706e-05
111	0xbad933a7	-0.001657118
112	0xb1ff6163	-7.4325484e-09
113	0x3823c972	3.904984e-05
114	0x3502d215	4.8734483e-07
115	0x80000004	-6e-45
116	0xb0c071b0	-1.400215e-09
117	0xba069494	-0.0005133834
118	0xbb3f361c	-0.0029176539
119	0xb23ff0da	-1.11724265e-08
120	0xbaa3aac0	-0.00124868
121	0xb139d38b	-2.7041291e-09
122	0x3536aa8b	6.8048456e-07
123	0xb11e78b2	-2.3060633e-09
124	0xb890dd4e	-6.907676e-05
125	0x00000000	0.0
126	0x80000004	-6e-45
127	0x80000004	-6e-45
128	0x80000004	-6e-45
129	0x35551f13	7.93939e-07
130	0x37b3a5a6	2.1415599e-05
131	0x37343c20	1.0742835e-05
132	0x37705089	1.4323866e-05
133	0xb5e0afed	-1.6740502e-06
134	0x80000004	-6e-45
135	0xb036cfb9	-6.6506406e-10
136	0xb0b067bb	-1.2835167e-09
137	0x80000004	-6e-45
138	0xb6c0a8b3	-5.741685e-06
139	0x80000004	-6e-45
140	0x398acbd9	0.0002647329
141	0x396be31c	0.00022495951
142	0x38805073	6.1185005e-05
143	0x39d28d8b	0.0004015978
144	0xb1c7efad	-5.8189102e-09
145	0x3374472c	5.6875407e-08
146	0x376e28eb	1.4195432e-05
147	0x80000004	-6e-45
148	0xb096a8a2	-1.0961865e-09
149	0x38283951	4.01077e-05
150	0x395ab0a5	0.00020855905
151	0x3476f740	2.3000484e-07
152	0x387ecd2a	6.0749393e-05
153	0xb1117c22	-2.1170838e-09
154	0x3525f047	6.181694e-07
155	0xb0f82126	-1.8053796e-09
156	0x37bdbe2a	2.2619108e-05
157	0x00000000	0.0
158	0x00000000	0.0
159	0x80000004	-6e-45
160	0x80000004	-6e-45
161	0xb96c03ba	-0.00022508102
162	0x392c9e40	0.00016462151
163	0x39ef74fd	0.00045672795
164	0xb71e0d43	-9.420622e-06
165	0xba8cb28b	-0.0010734362
166	0x80000004	-6e-45
167	0xb18ee8c4	-4.1592063e-09
168	0xb1a6c347	-4.8534363e-09
169	0x80000004	-6e-45
170	0x385ebb96	5.3103628e-05
171	0x80000004	-6e-45
172	0xb5bcf7c2	-1.4079199e-06
173	0xb6d46703	-6.3300845e-06
174	0xb7cee09a	-2.4661702e-05
175	0xb7e1c99c	-2.6915972e-05
176	0xb2cd458e	-2.389677e-08
177	0xb8fd5b7b	-0.0001208102
178	0xb887f383	-6.482659e-05
179	0x80000004	-6e-45
180	0xb184a83d	-3.860832e-09
181	0xbacb4927	-0.0015509472
182	0xb889c00b	-6.56844e-05
183	0xb315cc98	-3.4877843e-08
184	0x3a142fe8	0.00056528905
185	0xb211723c	-8.466085e-09
186	0x35aa0311	1.266688e-06
187	0xb1ef2e09	-6.961049e-09
188	0x3a01c70c	0.000495062
189	0x00000000	0.0
190	0x80000004	-6e-45
191	0x80000004	-6e-45
192	0x00000004	6e-45
193	0x3a845df9	0.0010098807
194	0xb9c978e7	-0.00038427787
195	0xb9cc45b3	-0.00038961842
196	0xb939a808	-0.00017705571
197	0xba333881	-0.0006836728
198	0x00000004	6e-45
199	0xb03ce864	-6.872425e-10
200	0xb0cc4880	-1.4863559e-09
201	0x00000004	6e-45
202	0xba1a80a9	-0.00058938056
203	0x00000004	6e-45
204	0xb8ce91e7	-9.850022e-05
205	0x38cbbaac	9.714565e-05
206	0xb8d47de0	-0.00010132394
207	0x3b4ed7f6	0.0031561828
208	0xafd6d8ea	-3.90805e-10
209	0xb830632a	-4.2054024e-05
210	0xb9ec1a70	-0.00045033125
211	0x00000004	6e-45
212	0x2f866c26	2.4451302e-10
213	0xba7dc6f3	-0.000968083
214	0x3bc556f2	0.0060223276
215	0xb61612b4	-2.2362628e-06
216	0x3af78137	0.0018883114
217	0xa6b5422c	-1.2577334e-15
218	0xb4c7e3dd	-3.723243e-07
219	0x2f854929	2.4244542e-10
220	0x3ad16777	0.001597627
221	0x00000000	0.0
222	0x00000000	0.0
223	0x00000004	6e-45
224	0x00000004	6e-45
225	0x3a823755	0.0009934703
226	0xb9c926cd	-0.00038366616
227	0xb9cf9436	-0.00039592542
228	0xb941b6c6	-0.00018474003
229	0xba83d4a5	-0.001005788
230	0x00000004	6e-45
231	0xb03b4d5b	-6.814013e-10
232	0xb0ca8c5b	-1.4737326e-09
233	0x80000004	-6e-45
234	0xbac0d342	-0.0014711397
235	0x00000004	6e-45
236	0xb9e2f2f9	-0.00043287108
237	0xb96d012e	-0.00022602521
238	0xb8da73aa	-0.00010416594
239	0x3b272ccd	0.002550888
240	0xafd50972	-3.8751186e-10
241	0xb8eb2299	-0.000112121175
242	0xb9ec7aa0	-0.0004510479
243	0x00000004	6e-45
244	0x2f854a37	2.4245292e-10
245	0xba7ef2b6	-0.0009725498
246	0x3ba7a947	0.005116615
247	0xb614d352	-2.2176723e-06
248	0x3af2b28e	0.0018516348
249	0xa6b4fd3d	-1.2558649e-15
250	0xb5b7fba7	-1.3707803e-06
251	0x2f8429a7	2.4040256e-10
252	0x3a44bf1c	0.0007505284
253	0x00000000	0.0
254	0x00000004	6e-45
255	0x00000004	6e-45

exp_avg_sq f4 [16, 32]
0	0x000001f4	7e-43
1	0x36963fa0	4.4777553e-06
2	0x38955316	7.1203496e-05
3	0x38aa73cc	8.1278005e-05
4	0x3803242f	3.1266532e-05
5	0x382edead	4.1692216e-05
6	0x000001f4	7e-43
7	0x2ba63b60	1.1811489e-12
8	0x3056c11e	7.812718e-10
9	0x000001f4	7e-43
10	0x38f8d039	0.00011864346
11	0x000001f4	7e-43
12	0x385f7c0b	5.3282867e-05
13	0x38216e86	3.8488324e-05
14	0x378c649c	1.673615e-05
15	0x388f0b85	6.820917e-05
16	0x307ec6e4	9.26873e-10
17	0x341e0e74	1.4720155e-07
18	0x388d887b	6.7488254e-05
19	0x000001f4	7e-43
20	0x2db22248	2.0251481e-11
21	0x396ebcd1	0.00022767788
22	0x38b2a1b9	8.5178246e-05
23	0x359aedcb	1.1543101e-06
24	0x37de0544	2.6466914e-05
25	0x2a486c53	1.7801151e-13
26	0x33e7f2c2	1.0800933e-07
27	0x2d12c007	8.341778e-12
28	0x38d86ed2	0.000103203245
29	0x00000000	0.0
30	0x00000000	0.0
31	0x000001f4	7e-43
32	0x000001f4	7e-43
33	0x37e263d2	2.6987782e-05
34	0x37617b5c	1.3439767e-05
35	0x3814d240	3.548176e-05
36	0x379b1435	1.848685e-05
37	0x389c3ae6	7.44963e-05
38	0x000001f4	7e-43
39	0x2b57ada4	7.662432e-13
40	0x3082b1f3	9.509321e-10
41	0x000001f4	7e-43
42	0x3929e0d4	0.00016200851
43	0x000001f4	7e-43
44	0x38ae8755	8.322174e-05
45	0x380940f4	3.2723838e-05
46	0x37235338	9.734933e-06
47	0x38cd419d	9.787383e-05
48	0x3099aa96	1.1180699e-09
49	0x34a464d7	3.062075e-07
50	0x37c20b51	2.3131872e-05
51	0x000001f4	7e-43
52	0x2d81a0e8	1.4737059e-11
53	0x38dd449c	0.00010550881
54	0x398639eb	0.00025601624
55	0x3318135f	3.5407876e-08
56	0x38838db6	6.2729625e-05
57	0x29bce860	8.389188e-14
58	0x34118d56	1.3555595e-07
59	0x2b261b23	5.9012707e-13
60	0x39604e8a	0.00021391563
61	0x00000000	0.0
62	0x000001f4	7e-43
63	0x000001f4	7e-43
64	0x000001f4	7e-43
65	0x37a63093	1.9811361e-05
66	0x389ed921	7.5744705e-05
67	0x38ae25a5	8.3039784e-05
68	0x383158ff	4.2282973e-05
69	0x38a2cc29	7.76279e-05
70	0x000001f4	7e-43
71	0x2b9ec4b4	1.1281171e-12
72	0x305a3870	7.938814e-10
73	0x000001f4	7e-43
74	0x3913bda2	0.00014089656
75	0x000001f4	7e-43
76	0x382056d2	3.822783e-05
77	0x37d8b80d	2.5834912e-05
78	0x37707ed5	1.4334645e-05
79	0x37d577ba	2.544733e-05
80	0x3061cef2	8.214861e-10
81	0x34853aca	2.4815955e-07
82	0x38c6f6a1	9.487314e-05
83	0x000001f4	7e-43
84	0x2db5739a	2.0628655e-11
85	0x39b30f80	0.0003415309
86	0x392e24c5	0.00016607631
87	0x359f74d2	1.1880422e-06
88	0x384a57c0	4.8242277e-05
89	0x2999f4e3	6.837046e-14
90	0x323c3ebc	1.0957304e-08
91	0x2d15e086	8.519524e-12
92	0x392fb53d	0.00016756817
93	0x00000000	0.0
94	0x000001f4	7e-43
95	0x000001f4	7e-43
96	0x000001f4	7e-43
97	0x37031897	7.813934e-06
98	0x37288547	1.0044611e-05
99	0x378cf4ae	1.6803238e-05
100	0x36cdcf56	6.133613e-06
101	0x371490f1	8.855234e-06
102	0x000001f4	7e-43
103	0x2b207db0	5.7017845e-13
104	0x2fd0a8a1	3.7954798e-10
105	0x000001f4	7e-43
106	0x385daf9b	5.285405e-05
107	0x000001f4	7e-43
108	0x378b431f	1.6601347e-05
109	0x36e691b1	6.871495e-06
110	0x36576884	3.2098333e-06
111	0x3813a0bc	3.5197227e-05
112	0x2ff072f7	4.3737433e-10
113	0x33d4c4b5	9.9078e-08
114	0x36b58c36	5.410543e-06
115	0x000001f4	7e-43
116	0x2d2d0a3f	9.8361866e-12
117	0x378f4856	1.7080612e-05
118	0x38d25a1c	0.000100303645
119	0x325cb05c	1.2845785e-08
120	0x37ce445e	2.458895e-05
121	0x29b9b433	8.24691e-14
122	0x3354b7a7	4.9527127e-08
123	0x2c8ead5d	4.05513e-12
124	0x38a6c54a	7.952245e-05
125	0x00000000	0.0
126	0x000001f4	7e-43
127	0x000001f4	7e-43
128	0x000001f4	7e-43
129	0x34dd7f2d	4.125699e-07
130	0x3792bc60	1.7492275e-05
131	0x37bd67d7	2.257891e-05
132	0x36e2e1f7	6.7616306e-06
133	0x35aaaf82	1.2717067e-06
134	0x000001f4	7e-43
135	0x2ac53004	3.5027547e-13
136	0x2f7dc786	2.3081101e-10
137	0x000001f4	7e-43
138	0x36a9bbf0	5.0584713e-06
139	0x000001f4	7e-43
140	0x377ceeed	1.5076e-05
141	0x372c478e	1.0268659e-05
142	0x36a62dee	4.9525324e-06
143	0x37a4dbb6	1.9652634e-05
144	0x2f9677d2	2.7369979e-10
145	0x3228662e	9.80212e-09
146	0x37974524	1.8032799e-05
147	0x000001f4	7e-43
148	0x2c30afc4	2.5108674e-12
149	0x3870bd9f	5.7397057e-05
150	0x37923bc3	1.7432385e-05
151	0x34b414db	3.3542787e-07
152	0x36ee4e4c	7.1020677e-06
153	0x296e5c9f	5.2926952e-14
154	0x3306dd3d	3.140052e-08
155	0x2c24d7c0	2.3425567e-12
156	0x3732be57	1.0653944e-05
157	0x00000000	0.0
158	0x00000000	0.0
159	0x000001f4	7e-43
160	0x000001f4	7e-43
161	0x370afe1f	8.284608e-06
162	0x3838d52a	4.4067543e-05
163	0x376ad725	1.3997579e-05
164	0x37c025a9	2.290572e-05
165	0x38431958	4.6515226e-05
166	0x000001f4	7e-43
167	0x2c81f658	3.69375e-12
168	0x2f88aa93	2.4859456e-10
169	0x000001f4	7e-43
170	0x381ed64d	3.786972e-05
171	0x000001f4	7e-43
172	0x376de167	1.4178781e-05
173	0x37837bbb	1.5674033e-05
174	0x36ed7b4f	7.0775054e-06
175	0x38017933	3.0868872e-05
176	0x3184be93	3.8633714e-09
177	0x348647ff	2.501183e-07
178	0x3817fe16	3.623784e-05
179	0x000001f4	7e-43
180	0x2ecf4a56	9.426475e-11
181	0x39379903	0.00017509241
182	0x3848df04	4.7891415e-05
183	0x3097c62f	1.1043023e-09
184	0x3724f38e	9.831869e-06
185	0x2a1be886	1.3847438e-13
186	0x3383c53e	6.136041e-08
187	0x2e2e28eb	3.9599362e-11
188	0x389d4191	7.498556e-05
189	0x00000000	0.0
190	0x000001f4	7e-43
191	0x000001f4	7e-43
192	0x000001f4	7e-43
193	0x377d4550	1.5096113e-05
194	0x38b896fc	8.801927e-05
195	0x38c08f58	9.181973e-05
196	0x3851927f	4.9965918e-05
197	0x38698008	5.5670767e-05
198	0x000001f4	7e-43
199	0x2bb80e73	1.3077997e-12
200	0x307aefbe	9.1290164e-10
201	0x000001f4	7e-43
202	0x38ac7403	8.223208e-05
203	0x000001f4	7e-43
204	0x383ef973	4.5531848e-05
205	0x38107ac4	3.444661e-05
206	0x3797e84e	1.8108778e-05
207	0x37e8511a	2.7694321e-05
208	0x308802e2	9.896122e-10
209	0x34068c27	1.253071e-07
210	0x38e81d66	0.00011068098
211	0x000001f4	7e-43
212	0x2dd286b2	2.3934053e-11
213	0x39c79ff2	0.00038075406
214	0x391321b7	0.00014031572
215	0x35b932da	1.3798374e-06
216	0x38462207	4.723857e-05
217	0x2a608727	1.9942087e-13
218	0x323fac8f	1.11568985e-08
219	0x2d241bb0	9.3284686e-12
220	0x38edd6eb	0.00011341072
221	0x00000000	0.0
222	0x00000000	0.0
223	0x000001f4	7e-43
224	0x000001f4	7e-43
225	0x37ab9825	2.0455636e-05
226	0x38b5a482	8.6613945e-05
227	0x38bd5cff	9.029544e-05
228	0x384b5c51	4.8484948e-05
229	0x387e42ed	6.062065e-05
230	0x000001f4	7e-43
231	0x2bc077d5	1.3675681e-12
232	0x30769beb	8.971585e-10
233	0x000001f4	7e-43
234	0x38c38f77	9.325047e-05
235	0x000001f4	7e-43
236	0x389562eb	7.1232986e-05
237	0x3833ac01	4.2837117e-05
238	0x37974665	1.8033383e-05
239	0x389574ee	7.1266535e-05
240	0x30931ebc	1.0704393e-09
241	0x344dca6f	1.9165758e-07
242	0x38e38400	0.000108487904
243	0x000001f4	7e-43
244	0x2dcee986	2.3523194e-11
245	0x39c6813b	0.00037861787
246	0x39424edf	0.00018530664
247	0x35b5feb6	1.3559682e-06
248	0x386524dd	5.4632186e-05
249	0x2a6521ef	2.0351059e-13
250	0x32f15fc9	2.809965e-08
251	0x2d2163e3	9.17397e-12
252	0x390e646a	0.00013579582
253	0x00000000	0.0
254	0x000001f4	7e-43
255	0x000001f4	7e-43

exp_avg f4 [16]
0	0x3b82c6ec	0.0039909985
1	0x3c5c8d49	0.013461419
2	0x3c4baef2	0.012431847
3	0xbc19ae8d	-0.009379995
4	0x3ab2478d	0.0013601646
5	0xbb42de9c	-0.0029734736
6	0x3c7dfd24	0.015502248
7	0x3c3ec747	0.011644191
8	0x3bf698e1	0.007525549
9	0xbaeee64e	-0.0018226595
10	0x3bfe3a2b	0.007758399
11	0x3c9c1e49	0.01905741
12	0x3bff001f	0.007781997
13	0x00000004	6e-45
14	0x3b362e4b	0.002779859
15	0x80000004	-6e-45

exp_avg_sq f4 [16]
0	0x3b1ba0f6	0.0023747063
1	0x3b52615a	0.0032101483
2	0x3b60bccc	0.003429222
3	0x3aaa4906	0.0012991733
4	0x39d226b1	0.0004008315
5	0x3bca0a20	0.006165758
6	0x3b53caf2	0.003231701
7	0x3b78a978	0.0037942808
8	0x3add8f2b	0.0016903629
9	0x3aa1e14e	0.0012350471
10	0x3ae00e75	0.0017094152
11	0x3bc6c620	0.006066099
12	0x3aec57b5	0.001803151
13	0x000001f4	7e-43
14	0x3aa7483d	0.0012762618
15	0x000001f4	7e-43

exp_avg f4 [2, 16]
0	0xb9c30e9f	-0.00037204192
1	0xb91ff03e	-0.00015252919
2	0xb7a0543f	-1.9112716e-05
3	0x3ad0566a	0.0015894894
4	0xb818f8e1	-3.647141e-05
5	0x389632a9	7.1619936e-05
6	0x37d125ec	2.49324e-05
7	0x38ec16c0	0.000112575945
8	0x38f0d72c	0.00011484171
9	0xb85bb49f	-5.2381885e-05
10	0x38e599ab	0.00010948194
11	0x3942e3d9	0.00018586162
12	0x392ffe7a	0.000167841
13	0x80000004	-6e-45
14	0x37af0b60	2.0866923e-05
15	0x00000004	6e-45
16	0x39c30f0d	0.00037204512
17	0x391ff123	0.00015253252
18	0x37a05626	1.9113602e-05
19	0xbad05648	-0.0015894854
20	0x3818f9e5	3.6472356e-05
21	0xb89630ba	-7.1616334e-05
22	0xb7d12509	-2.4931987e-05
23	0xb8ec1650	-0.00011257513
24	0xb8f0d5be	-0.000114839044
25	0x385bb4ad	5.2381936e-05
26	0xb8e59836	-0.000109479224
27	0xb942e397	-0.00018586066
28	0xb92ffdbc	-0.00016783824
29	0x00000004	6e-45
30	0xb7af0006	-2.0861637e-05
31	0x80000004	-6e-45

exp_avg_sq f4 [2, 16]
0	0x36c2ce60	5.8056758e-06
1	0x3688d82a	4.0782807e-06
2	0x35aa6685	1.2695824e-06
3	0x3795c778	1.7855069e-05
4	0x35b9aef3	1.3834491e-06
5	0x35199b00	5.7222496e-07
6	0x360587c2	1.9897566e-06
7	0x35b66f10	1.359238e-06
8	0x365c5d4b	3.2836858e-06
9	0x3529f541	6.33143e-07
10	0x36482d1b	2.9828577e-06
11	0x355fb6ad	8.33398e-07
12	0x367641be	3.6695124e-06
13	0x000001f4	7e-43
14	0x37bcd626	2.2511067e-05
15	0x000001f4	7e-43
16	0x36c2ce60	5.8056758e-06
17	0x3688d82d	4.078282e-06
18	0x35aa6689	1.2695829e-06
19	0x3795c777	1.7855067e-05
20	0x35b9aef4	1.3834492e-06
21	0x35199afe	5.7222485e-07
22	0x360587c2	1.9897566e-06
23	0x35b66f11	1.3592381e-06
24	0x365c5d4b	3.2836858e-06
25	0x3529f540	6.331429e-07
26	0x36482d16	2.9828566e-06
27	0x355fb6b0	8.333982e-07
28	0x367641bc	3.669512e-06
29	0x000001f4	7e-43
30	0x37bcd62a	2.2511074e-05
31	0x000001f4	7e-43

exp_avg f4 [2]
0	0x3af6874b	0.0018808631
1	0xbaf686da	-0.00188085

exp_avg_sq f4 [2]
0	0x38d22c79	0.00010021864
1	0x38d22c7c	0.00010021866

loss f8 []
0	0x3f145d9fa99f1c71	7.768904688908327e-05
