36_point_edge_detector.pth (torch, 25342 bytes, 19 tensors)

model.0.weight f4 [32, 25]
000000 18 c7 9f 3d d5 f6 73 3e 56 75 47 3a 4f 93 b3 3d
       0.07801646 0.23824628 0.0007608732 0.08768331
000010 8b d1 0d 3e 4e c6 5e 3e e6 4b 28 bd 5b 23 b0 bd
       0.13849466 0.21755335 -0.041088007 -0.086004935
000020 f0 ba b7 bc ec 12 4b 3e 38 08 ed bb 77 d4 cd be
       -0.022428006 0.19831437 -0.0072336458 -0.4020116
000030 47 74 3b bf 06 1f c5 be ed df 91 bd 94 08 c2 3e
       -0.732243 -0.38500232 -0.071227886 0.3789717
000040 04 ad 05 bc 6d 1a e3 3d 1d 9c 0b bd 79 bb c1 3e
       -0.008158926 0.11089025 -0.034084428 0.37838343
000050 64 c2 8f bd 9f 22 61 bc af e7 0a 3e 6e 1b b2 3c
       -0.07019499 -0.0137411645 0.13564943 0.021741595
000060 fb 27 e0 bd b5 87 33 bd 2e 9b 34 ba 29 56 0c be
       -0.10945126 -0.043830592 -0.00068895787 -0.13704742
000070 e7 77 0c 3e 33 04 fa 3c db 4e 87 be 19 45 af be
       0.13717614 0.03051958 -0.2642735 -0.34232405
000080 bf e3 a4 bd 63 6c e1 3e 5b 08 88 3e 42 a8 54 be
       -0.080512516 0.44028005 0.26568875 -0.2076731
000090 b3 68 de bd ed 50 e8 3d 2a 10 a9 3d 91 58 f7 3d
       -0.108598135 0.1134356 0.08255036 0.120774396
0000a0 c3 73 e3 3c 85 6b e6 3e f1 56 6e bc 70 98 ec be
       0.02776516 0.45003906 -0.014547096 -0.4621005
0000b0 75 cc c1 be a1 10 fd 3d 3f b3 90 3e b2 40 df 3d
       -0.378513 0.12356687 0.28261754 0.109010115
0000c0 d7 bd 1e be a5 63 ad 3b 27 e9 b3 b9 bd 0f 8e b9
       -0.15502106 0.0052914196 -0.00034315253 -0.00027096077
0000d0 bd b4 05 b9 fb 84 1c 39 c9 85 a8 b9 35 cf b3 38
       -0.00012751199 0.00014926858 -0.00032143135 8.5739804e-05
0000e0 04 16 f0 37 d9 e0 91 39 b5 59 12 39 25 f8 8c b9
       2.8620481e-05 0.0002782408 0.00013957063 -0.00026887763
0000f0 ab fc c7 b9 10 aa 7d 37 c7 53 b5 b7 9e ee 06 39
       -0.0003814449 1.5119571e-05 -2.1615893e-05 0.00012868128
000100 1b fc 0a 39 ac 74 bf b9 be 2c 9a b9 b6 32 6b 39
       0.00013254622 -0.00036517286 -0.00029406504 0.00022430238
000110 b7 81 6c b8 d2 d6 69 37 19 bc 3b 39 88 34 6c b8
       -5.638759e-05 1.3937899e-05 0.00017903782 -5.631571e-05
000120 75 0f 89 b9 7e 43 55 b9 c0 3d 10 b9 20 ec 89 ba
       -0.00026142193 -0.00020338406 -0.00013755914 -0.0010522641
000130 2d 12 37 ba 3f f9 43 ba d9 ea 8b b9 72 23 38 b9
       -0.00069836044 -0.00074758 -0.0002668712 -0.00017560812
000140 55 74 11 ba ad dd 93 ba 00 70 41 ba 6b 14 cd b8
       -0.0005548646 -0.0011281274 -0.0007379055 -9.778965e-05
000150 99 eb b8 39 66 22 d1 39 77 ea 02 39 ce ac 10 ba
       0.0003527075 0.00039889215 0.00012485111 -0.0005518914
000160 28 c0 20 ba 5e 97 07 b8 ad 72 79 39 15 a5 b6 b9
       -0.0006132149 -3.232748e-05 0.0002378921 -0.0003483674
000170 49 5a 8e ba 5c 65 af b9 bf 01 a6 b9 df fa 48 b8
       -0.0010860647 -0.0003345412 -0.00031663288 -4.7917358e-05
000180 6c 7a ee b9 83 6a ba b9 d9 50 00 b9 07 28 86 b9
       -0.0004548611 -0.00035556042 -0.0001223715 -0.00025588294
000190 ea 4d 2d 3e cd 56 c2 bd b6 09 d7 bd 9d d2 71 3b
       0.16924253 -0.09489212 -0.10499899 0.0036899217
0001a0 dc 11 74 bd 02 da a3 3e f0 29 b1 be d2 11 df be
       -0.059587345 0.32002264 -0.34602308 -0.43568283
0001b0 ab aa 97 3d 7d f6 15 3e 7f 0d 8b bd e1 8a 20 be
       0.07405599 0.14644809 -0.067896836 -0.15677978
0001c0 63 16 ce be 91 78 bc 3e c3 ab cb 3c 01 56 b2 bc
       -0.40251455 0.36810735 0.024862176 -0.021769525
0001d0 99 73 4a 3d 73 9a bd 3e 39 8e e1 3e e5 59 1f be
       0.04942665 0.37031898 0.4405382 -0.15561636
0001e0 5b 19 76 bd 89 59 90 bd 05 1f 34 bc e2 80 73 3d
       -0.060082775 -0.070483275 -0.010993724 0.059449084
0001f0 75 ba 31 bd 0c bb 39 3c 46 4c 53 bc a5 1c 19 bd
       -0.04339071 0.011336099 -0.012896603 -0.037380833
000200 e2 f0 1d be 77 0d 0c 3d 0f 1e 30 be 9d a0 94 be
       -0.15423921 0.03419253 -0.17198966 -0.29028788
000210 68 ff 32 bf 4c df ab be da 95 ff bd 72 ad 29 3d
       -0.6992097 -0.335688 -0.12479754 0.041425176
000220 19 8c 19 3e 9a 37 da 3e fc c2 08 3e 13 c5 f0 3d
       0.1499485 0.42620546 0.1335563 0.11756339
000230 95 ed 79 3a 98 3a f6 3d 1e 6b ec 3e 95 59 5f 3e
       0.00095339987 0.120228946 0.46175474 0.21811517
000240 e7 04 a7 bb ae d3 ce bc d4 e5 5e 3d 88 28 9e bc
       -0.00509702 -0.025247421 0.0544184 -0.019306436
000250 8c d7 df bc 09 d2 fd 3d fc 96 37 ba 9c ac 54 3e
       -0.02732446 0.12393577 -0.00070033944 0.2076897
000260 38 34 4d 3c 07 87 c5 be 2c c4 80 be 2c 9b 92 3e
       0.012524657 -0.3857958 -0.25149667 0.28634012
000270 66 d5 ae 3e 51 f9 b7 3a cb e6 b1 be a4 10 57 3d
       0.34147185 0.0014036094 -0.34746394 0.052506104
000280 fa d1 bc 3d 6f 42 37 be bd a7 1a 3d bd 2c 29 3e
       0.09219737 -0.17896436 0.037757624 0.16520973
000290 4c f2 19 3e 3c ea 16 3d 13 b1 a7 be 79 19 58 be
       0.15033835 0.036844477 -0.32752284 -0.21103467
0002a0 64 c3 9b 3e 96 c9 cd 3e ad d2 9f bd 01 a9 ad be
       0.3042251 0.4019286 -0.07803855 -0.33918002
0002b0 bd 91 11 bd b2 df cc bc cf 4f cc 3d 55 c4 39 3c
       -0.035539377 -0.02500901 0.0997616 0.011338313
0002c0 90 b0 64 bd 05 c0 fd bc 4d 72 88 3d 45 67 b7 bc
       -0.055832446 -0.030975351 0.06662426 -0.02238811
0002d0 89 b2 a5 bd 3d 49 9c 3d a3 09 da 3e 12 45 d1 3e
       -0.080906935 0.076311566 0.42585477 0.4087301
0002e0 6e a5 a8 bd 76 c8 36 3d 33 27 91 bd 1d 27 01 be
       -0.08234678 0.04462477 -0.07087555 -0.12612577
0002f0 91 d6 c8 3e df 9d dd 3d 04 77 df 3b 68 7e 07 bf
       0.392262 0.10821127 0.0068196077 -0.52927256
000300 9e b2 05 bf 8a d4 61 bc 69 b5 f3 3d 37 6f 14 3d
       -0.52225673 -0.013783583 0.118998356 0.036238875
000310 30 89 25 3d 1c 58 01 be b7 76 98 bd 2c 86 bb bc
       0.040414035 -0.12631267 -0.07444518 -0.022891127
000320 c7 d8 a2 bc 04 52 7c be 93 c1 94 3c 69 42 65 be
       -0.019878758 -0.24640661 0.01815871 -0.22388615
000330 17 db 39 be b0 33 05 bd f2 71 86 3d 71 dc c1 3e
       -0.18149982 -0.032519996 0.06564702 0.37863496
000340 5d 84 75 3e 5e 81 bf bd de 54 f9 bd 2a b9 eb bc
       0.23976274 -0.09350847 -0.1217439 -0.028774817
000350 34 d2 aa 3e 85 e8 a4 bd 7c a9 26 bd 6c e4 99 3a
       0.33363497 -0.08052162 -0.040688977 0.0011741049
000360 2e 6c 39 3e 48 6a da 3e 68 f7 d1 3e b0 57 36 bc
       0.18107674 0.4265921 0.41009068 -0.011129305
000370 43 c2 1a be 7a f7 47 be e9 17 1c be a5 9e ae be
       -0.15113167 -0.19527999 -0.15243496 -0.3410541
000380 e8 74 01 be 7c 57 65 3d 07 b4 a9 3d c2 b3 f0 3d
       -0.12642252 0.055991635 0.082862906 0.11753036
000390 90 51 73 3e 6c dc 3b be ce 4c 35 bd 05 ad be 3e
       0.23761582 -0.18345803 -0.0442627 0.37241378
0003a0 3b 98 d0 3c 78 8a af be 69 36 b7 be 51 27 1b 3e
       0.025463214 -0.3428533 -0.357837 0.15151717
0003b0 9d a7 15 be 66 2d 34 3e 54 24 c6 bd 86 da 35 3e
       -0.1461472 0.17595443 -0.09674898 0.17759141
0003c0 c6 77 cc be 15 d3 85 be eb 2b 15 bd 67 4c d0 3e
       -0.3993513 -0.26137605 -0.036418837 0.4068329
0003d0 7c 56 38 3e 09 ff 34 be 2b 6e 15 3e 29 87 33 3c
       0.18001741 -0.17675413 0.14592807 0.010957518
0003e0 76 60 f7 bb 4c 6a 6e bd 1f 06 b2 b9 15 35 99 b9
       -0.007549341 -0.05820684 -0.00033955366 -0.00029221983
0003f0 31 17 8b 39 35 83 af b9 e4 9d 7d b9 3e 5a 8f b8
       0.00026529425 -0.00033476358 -0.00024186779 -6.83558e-05

model.0.bias f4 [32]
000000 7a 8b 60 3b d9 5a 4d 3b 71 9e db b9 1f 2a 36 ba
       0.0034262822 0.0031334667 -0.00041888983 -0.00069490256
000010 6b 3e 3a 3a 72 e9 d2 bc d4 14 a5 bb fa 95 d6 ba
       0.0007104638 -0.025746081 -0.0050378833 -0.0016371601
000020 71 be 92 bb 9a f5 0f bb 3d 2d 8d b9 12 e5 50 bd
       -0.004478269 -0.0021966458 -0.0002692732 -0.05099971
000030 4f ee 21 bd 85 64 2a 3d 8e 34 c8 3c 7b c3 80 bd
       -0.03953391 0.04159977 0.024439123 -0.06287285
000040 68 72 fd b9 08 db 97 ba 5e 85 84 bd 00 00 a4 ba
       -0.0004834116 -0.0011585662 -0.0647075 -0.0012512207
000050 5b 4d 59 3d bc 35 92 ba e1 53 de ba c3 ea a4 b9
       0.053052288 -0.001115493 -0.0016962254 -0.0003145543
000060 49 e8 4c bd 76 21 68 3d 95 b3 b6 b9 be f4 30 bd
       -0.050026212 0.056672536 -0.00034847544 -0.043202154
000070 94 bb 22 ba ed 3b c3 b9 a6 88 a2 bc ef bd 03 ba
       -0.0006207761 -0.00037237947 -0.01984055 -0.0005025556

model.2.weight f4 [16, 32]
000000 bd e0 ef 3e e9 52 7b 3e 74 45 70 36 27 1b d2 b9
       0.4685115 0.24543346 3.5803214e-06 -0.0004007455
000010 57 55 24 3f 02 35 93 bf 6b c1 52 3e f3 56 5a 3e
       0.6419272 -1.1500552 0.20581596 0.21322231
000020 48 c4 e0 be a5 14 c1 be 5d 3e a6 39 ad e6 a3 be
       -0.4389975 -0.37711063 0.00031708452 -0.3201193
000030 a2 db 8b be cd 70 4e c0 e3 1e 1d 3f cb d6 a2 bc
       -0.27316004 -3.2256348 0.61375254 -0.019877812
000040 b4 e3 0c 39 20 bf 82 39 b7 71 91 bf 17 13 42 3a
       0.00013436266 0.0002493793 -1.1362828 0.00074033573
000050 7f 1e 88 be af 48 97 3a 19 6c 62 3f 05 57 32 ba
       -0.26585767 0.0011542047 0.88446194 -0.0006803128
000060 96 96 43 3f e4 88 a4 3e 0f dd 2c b9 2c 8c d3 be
       0.7640165 0.3213569 -0.00016485549 -0.4131788
000070 dc e6 96 b9 5c 32 13 b9 40 96 7c 3c 2e 24 63 b9
       -0.00028782233 -0.00014037773 0.015416682 -0.00021661885
000080 a2 7f 91 be 3a 25 8b be 7b 31 9c 38 75 c1 5a b9
       -0.2841769 -0.2717684 7.447876e-05 -0.00020862168
000090 db 73 d1 bb 64 df 98 3e ec 47 4c bf 2d 35 9c 3e
       -0.006391985 0.29857934 -0.79797244 0.3050932
0000a0 c9 dc 97 3d dc 93 75 3d df ba e5 b9 24 5f 50 3e
       0.07415158 0.059955463 -0.00043817514 0.20348793
0000b0 6e b5 5b bd 70 02 c9 bf 57 e5 f7 3d fd a2 47 3b
       -0.05363982 -1.5703869 0.1210429 0.0030462139
0000c0 46 69 fc 38 90 10 36 b9 de 69 ad 3e 23 df e6 b9
       0.00012035905 -0.00017363043 0.33869833 -0.00044035268
0000d0 6f 90 d1 bf 5b 01 db 38 60 e6 88 3e b2 f0 c7 b6
       -1.6372203 0.00010442986 0.26738262 -5.958683e-06
0000e0 2b f7 a1 be 6b 55 32 3e b0 24 76 3a dd 3e ff 3b
       -0.31633887 0.17415397 0.0009389622 0.0077894763
0000f0 43 dc 51 b9 d0 d1 64 b9 8b 63 41 bf 87 d5 f3 b9
       -0.00020013847 -0.00021821936 -0.75542516 -0.00046507662
000100 2d 83 87 bf 5f 59 75 3f fe 70 0b b9 bb 4e 63 ba
       -1.0586907 0.95839494 -0.00013298166 -0.00086710945
000110 46 98 35 bf fe 19 ee bd f7 63 d6 3e 47 97 cb be
       -0.70935476 -0.11626051 0.41873142 -0.39763853
000120 d5 c8 cb bf 95 73 32 3f fd ae 08 39 79 59 98 be
       -1.5920664 0.69707614 0.00013035159 -0.29755762
000130 bb 4a 49 be ef 0d af 3e 1c 19 b2 3d a2 fd 4b be
       -0.19657414 0.34190318 0.086961955 -0.19920972
000140 f4 07 99 b9 0a 5b 4f b9 65 d1 00 bc b8 fd 07 ba
       -0.0002918836 -0.00019774973 -0.007862424 -0.00051876483
000150 89 44 40 3e b8 e2 4d b9 37 b7 35 be 28 f8 d4 b9
       0.18776144 -0.00019634783 -0.17745672 -0.00040620682
000160 ef 9f fe be e5 a8 f4 3d 26 8c 6f 3a 94 59 db be
       -0.49731395 0.119462766 0.000913801 -0.4284178
000170 2f 43 dd b9 c9 b3 02 ba 31 fb a9 3d 4f 30 4c b9
       -0.0004220246 -0.00049858965 0.08299864 -0.00019472952
000180 82 ed af bf 13 29 68 3f 58 41 a7 b9 66 09 19 b9
       -1.3744357 0.90687674 -0.00031901407 -0.00014594718
000190 d3 56 5b bf be 46 cb bd be 30 25 3f a0 20 01 bf
       -0.8567936 -0.099256024 0.645275 -0.50440407
0001a0 bd 68 c6 bf a4 68 8e 3e 54 9e 17 39 79 05 02 bd
       -1.5500714 0.2781421 0.00014459464 -0.0317435
0001b0 7e a6 2c 3f cc b6 dc be 0a 18 e2 3e aa c2 07 bf
       0.67441547 -0.43108213 0.44158965 -0.5303141
0001c0 56 13 10 39 1e f5 18 3a 13 d1 b8 be cc fa dc 38
       0.00013740113 0.0005834865 -0.3609701 0.00010537132
0001d0 5e fe 67 bf 33 9c 8c ba 39 8a 20 3e 73 99 5d b8
       -0.9062251 -0.0010727703 0.15677728 -5.2833417e-05
0001e0 56 68 09 bf 6c 13 0a bf a3 15 5d 3a 37 8f bb bd
       -0.5367483 -0.53935885 0.0008433705 -0.091581754
0001f0 e5 36 f3 b7 9c 2c 2f 39 63 09 85 3d c0 20 66 b9
       -2.899342e-05 0.00016705919 0.06495931 -0.0002194671
000200 da 19 d2 bf 13 5c 1c 3f 82 b5 c8 38 24 f4 a7 b9
       -1.6414139 0.61077994 9.5705516e-05 -0.0003203462
000210 9e 53 c0 be fb cc 3b be 3f fe 30 3f 53 d4 2c bf
       -0.37563795 -0.18339913 0.6913795 -0.6751148
000220 73 13 97 3e 13 d3 d2 3e b7 a2 c6 38 5e a7 3a 3e
       0.29507026 0.41176662 9.471684e-05 0.18227908
000230 2c 3f e2 bc 27 b6 d0 3f 22 24 19 3d bf c8 0c bf
       -0.027618013 1.6305588 0.037387975 -0.54993814
000240 cb d4 48 b9 e2 a4 bc 39 c0 2d 50 bf 2b fc 7c 3a
       -0.00019152758 0.00035981002 -0.8131981 0.0009650613
000250 13 dc 08 3c 68 36 13 ba 95 28 d5 be 65 6c 64 38
       0.008353251 -0.0005615712 -0.41632524 5.4460386e-05
000260 8e e5 1b 3e d7 63 9b 3e e4 10 97 b8 ac 55 b3 3e
       0.15224287 0.3034961 -7.203387e-05 0.350263
000270 d4 5a 62 39 bf 5c dd b7 62 62 e4 3e 72 e0 2c b8
       0.00021586876 -2.6388441e-05 0.4460631 -4.1217027e-05
000280 73 ed 3f 3f 9e 70 1a bf fc 52 46 39 1e cb 57 b9
       0.74971694 -0.6032809 0.00018913666 -0.00020579665
000290 60 b4 68 bf ab 68 29 bf f3 52 8a be d8 f8 62 bf
       -0.9090023 -0.66175336 -0.2701641 -0.88660955
0002a0 61 5e 66 3f db fa a2 be 8a aa aa b8 da b6 22 3f
       0.8998776 -0.31832013 -8.137997e-05 0.6356026
0002b0 25 20 62 3f f7 02 82 be 14 12 71 3d e5 29 53 bf
       0.883303 -0.25392887 0.05885513 -0.824858
0002c0 6a 46 17 38 33 09 7d b9 89 a9 82 bf bf e6 a8 ba
       3.6066784e-05 -0.00024131387 -1.0207988 -0.001288615
0002d0 4f ee c1 3e fa bd c9 ba 76 48 9e bf 69 19 c6 b9
       0.37877128 -0.00153917 -1.2365863 -0.00037784435
0002e0 d1 0d 2c 3f fe f4 fe 3e 15 a5 1a ba 54 26 2f 3f
       0.6720858 0.4979629 -0.0005899233 0.6841786
0002f0 53 81 a5 38 fa 6f cb b8 0c 00 57 3c 93 08 f1 38
       7.8919016e-05 -9.7006516e-05 0.01312257 0.000114933726
000300 cf 1f 1c be 8c 65 b9 bf 2a 1f 89 37 7f 7f 92 b9
       -0.15246509 -1.4484115 1.6346185e-05 -0.00027942282
000310 d1 74 ac bf eb 5d bb bf 98 ed 60 bf 41 92 d7 bf
       -1.347315 -1.4638036 -0.8786254 -1.6841508
000320 89 b0 8c be 83 9a 43 bf 01 68 32 b8 99 d5 dc be
       -0.27478436 -0.7640764 -4.253537e-05 -0.43131712
000330 1b 00 53 3f aa e1 fd 3d 7c 54 ba bd dc eb 13 bf
       0.82422036 0.12396558 -0.09098145 -0.5778177
000340 78 6d 8e 39 eb 94 03 3a a9 06 fe 3e a5 e8 ec b8
       0.0002716591 0.0005019444 0.49614456 -0.0001129669
000350 13 57 cd be 29 a5 d2 ba 06 b3 ec bf 3a b2 30 b9
       -0.40105495 -0.001607095 -1.8492134 -0.00016851063
000360 7f 72 f1 bc b1 c7 23 3e 24 80 36 3a 32 f9 1b be
       -0.029473541 0.15994145 0.00069618435 -0.15231779
000370 7c f8 4d 39 13 3b 64 b9 c4 17 f3 be 4d f0 ec b8
       0.00019642891 -0.00021765781 -0.4747907 -0.000112981164
000380 bb c3 76 3e cd 84 4f 3d 32 df a1 38 a2 74 4a 39
       0.24098103 0.050663758 7.7186516e-05 0.0001930767
000390 8d 95 7e be 42 00 82 be d1 b0 59 3f 44 e4 32 3d
       -0.24861737 -0.25390822 0.85035425 0.043674722
0003a0 d8 93 c4 be 87 e0 c0 3e 01 20 55 b9 24 59 49 bf
       -0.38394046 0.376713 -0.00020325185 -0.7865164
0003b0 ce a9 cc 3d f3 75 0b 3f 9e 5b 22 bf 51 ad de be
       0.09993325 0.5447685 -0.63421047 -0.43491605
0003c0 6e d8 53 b6 25 ef 40 3a 41 0f da be 1d e2 31 b9
       -3.1567429e-06 0.0007359854 -0.42589763 -0.00016964269
0003d0 93 9b 29 c0 73 f4 b0 b9 7b 7a a4 bd 79 ed c6 38
       -2.6501205 -0.00033751465 -0.08031174 9.4856085e-05
0003e0 c0 8f c8 bd e4 fd 22 bf 99 4f b5 38 45 e7 08 bf
       -0.09793043 -0.63668656 8.645579e-05 -0.5347789
0003f0 97 68 66 39 5a 9e bc b8 e3 7d 8a 3f 8d f2 08 b9
       0.00021973472 -8.994034e-05 1.0819668 -0.00013060328

model.2.bias f4 [16]
000000 7a d8 8d 3d 00 10 38 3e 4c 1a 0f 3e 08 74 e6 3d
       0.06926055 0.17974854 0.13974875 0.112526
000010 b8 a6 58 3d ce c4 19 3e 31 1d 21 3f 69 52 67 3e
       0.05289337 0.15016481 0.6293517 0.2259003
000020 4d 3e 81 bd e9 b8 37 ba 7e 1a 45 ba eb fc 40 3e
       -0.06310711 -0.000700845 -0.0007518901 0.1884648
000030 af 86 1e 3e af aa 60 3e 7d ad c5 3d a8 1d bb bb
       0.15481065 0.2194011 0.09652231 -0.0057103224

model.4.weight f4 [3, 16]
000000 f7 7e 03 40 30 2b 1e 40 04 55 80 c0 b7 5b aa c0
       2.0546243 2.471386 -4.010378 -5.3236957
000010 fd 5f 87 c0 ca d4 d2 c0 f7 61 12 c1 c1 85 6c c0
       -4.2304673 -6.588475 -9.148917 -3.6956637
000020 66 54 db bf 25 4c 1a b8 61 4e ab 38 34 31 44 40
       -1.7135131 -3.6787376e-05 8.1685146e-05 3.0655031
000030 6f 9f cc 3e 48 03 75 40 52 75 8c 3f ad e7 44 c0
       0.39965388 3.8283253 1.0973303 -3.0766404
000040 f2 c9 eb bf 6b d0 2c c0 08 84 de bf 5c 9f 27 bf
       -1.8421004 -2.7002208 -1.7384043 -0.6547754
000050 3a 23 6f 3f a9 e9 93 40 64 19 d3 40 ed a2 4a bf
       0.93413126 4.622273 6.5968494 -0.79154855
000060 dd b2 c9 be 51 fc 8c ba 38 01 e2 b8 86 44 c8 3f
       -0.39394274 -0.0010756348 -0.00010776747 1.5645912
000070 76 40 d5 c0 d8 dc ae bf 2e 54 da c0 59 75 fa 3f
       -6.664119 -1.3661146 -6.822776 1.9567062
000080 79 be 9a bf d2 fa d2 bf 69 cb 87 40 b4 9e 93 40
       -1.2089378 -1.6482794 4.2435803 4.613123
000090 5d e7 fb 3f 1b 7c b5 bf 61 0e 92 c0 a7 2c 52 40
       1.9679981 -1.4178499 -4.564255 3.2839754
0000a0 57 c0 cd 3f 1c 67 08 ba 29 d3 8f 39 e7 d7 96 c0
       1.6074322 -0.0005203353 0.00027432412 -4.7138553
0000b0 dc b6 8c 3f 9f 67 5c c0 4b ff cf 3e 5d 3b 55 3e
       1.0993304 -3.4438245 0.4062446 0.20823427

model.4.bias f4 [3]
000000 40 13 d1 3e 8d 84 40 3e ad 77 00 bf
       0.40835 0.18800564 -0.5018261

exp_avg f4 [32, 25]
000000 f0 77 83 bd 6e c9 9b bd af 65 86 bd 5f 98 20 bd
       -0.06419361 -0.07606779 -0.06562363 -0.039207812
000010 a7 62 1e bd b2 19 75 bd 37 52 76 bd 26 8d 14 bd
       -0.0386683 -0.059838958 -0.060137 -0.036267422
000020 d9 9d 1b bd a5 78 12 bd 9c 86 67 bd 95 c5 e8 bc
       -0.037992332 -0.035759587 -0.056524858 -0.028414527
000030 cf b2 89 bc c6 59 07 bd d7 35 c0 bc 77 fd fe bc
       -0.016808895 -0.0330446 -0.023463173 -0.03112672
000040 8b 21 87 bc 31 c2 85 bc 73 be ab bc 3f 86 c0 bc
       -0.016495487 -0.01632795 -0.020964837 -0.023501514
000050 2c 34 94 bc f4 0f 92 bc 19 4a 7f bc 76 96 b3 bc
       -0.018091284 -0.017829873 -0.015581631 -0.021922331
000060 62 c5 c3 bc e7 bd a0 3d d5 03 c7 3d 40 bd d5 3d
       -0.02389783 0.07848721 0.09717528 0.10436487
000070 5f 90 df 3d 67 47 e2 3d c1 91 96 3d 36 32 af 3d
       0.109162085 0.11048775 0.07352019 0.08554499
000080 82 0d d9 3d 56 e5 e5 3d 0b b3 cb 3d 5c 03 95 3d
       0.105982795 0.11225383 0.09946259 0.072760314
000090 39 fc 9e 3d 79 a9 bd 3d 61 e3 b9 3d b6 19 9e 3d
       0.077629514 0.0926084 0.09076572 0.07719748
0000a0 85 68 98 3d 41 87 92 3d e4 0e a3 3d ae 85 a7 3d
       0.074418105 0.07154704 0.079618245 0.08179794
0000b0 5c 72 a5 3d e5 82 7d 3d e5 64 88 3d 66 b1 a0 3d
       0.08078453 0.06189241 0.06659869 0.07846336
0000c0 69 39 a4 3d 0a 50 a4 3d 04 00 00 00 04 00 00 00
       0.080187626 0.08023079 6e-45 6e-45
0000d0 04 00 00 00 04 00 00 00 04 00 00 00 04 00 00 00
       6e-45 6e-45 6e-45 6e-45
0000e0 04 00 00 00 04 00 00 00 04 00 00 00 04 00 00 00
       6e-45 6e-45 6e-45 6e-45
0000f0 04 00 00 00 04 00 00 00 04 00 00 00 04 00 00 00
       6e-45 6e-45 6e-45 6e-45
000100 04 00 00 00 04 00 00 00 04 00 00 00 04 00 00 00
       6e-45 6e-45 6e-45 6e-45
000110 04 00 00 00 04 00 00 00 04 00 00 00 04 00 00 00
       6e-45 6e-45 6e-45 6e-45
000120 04 00 00 00 04 00 00 00 04 00 00 00 04 00 00 00
       6e-45 6e-45 6e-45 6e-45
000130 04 00 00 80 04 00 00 00 04 00 00 00 04 00 00 00
       -6e-45 6e-45 6e-45 6e-45
000140 04 00 00 00 04 00 00 00 04 00 00 00 04 00 00 00
       6e-45 6e-45 6e-45 6e-45
000150 04 00 00 00 04 00 00 00 04 00 00 00 04 00 00 00
       6e-45 6e-45 6e-45 6e-45
000160 04 00 00 00 04 00 00 00 04 00 00 00 04 00 00 00
       6e-45 6e-45 6e-45 6e-45
000170 04 00 00 00 04 00 00 00 04 00 00 00 04 00 00 00
       6e-45 6e-45 6e-45 6e-45
000180 04 00 00 00 04 00 00 00 04 00 00 00 04 00 00 00
       6e-45 6e-45 6e-45 6e-45
000190 48 55 97 3c ab 7a 94 3c c8 18 a4 3c de 28 c9 3c
       0.018473282 0.018124899 0.020031348 0.02455562
0001a0 36 a7 dd 3c 7e d8 ad 3c 02 e4 97 3c 4a 1f d5 3c
       0.027057271 0.021221396 0.01854134 0.026015896
0001b0 9b 64 c3 3c 40 7c bb 3c 19 fb ce 3c 97 1d d4 3c
       0.023851683 0.022886395 0.025266217 0.025893016
0001c0 7e a4 cb 3c 05 6c af 3c 63 32 d1 3c ab 81 b5 3c
       0.02485871 0.021413812 0.025536722 0.022156557
0001d0 da 23 b4 3c bd c6 aa 3c 50 ed a1 3c 01 1e ac 3c
       0.021989752 0.020846719 0.01976648 0.0210104
0001e0 08 fd b3 3c dd 76 aa 3c 94 76 bb 3c 44 cb b1 3c
       0.02197124 0.020808632 0.02288369 0.02170337
0001f0 60 e7 96 3c 00 b4 ae bb df 44 ab bb 12 0f 4b 3c
       0.018420875 -0.0053315163 -0.005226716 0.01239373
000200 8c e2 03 3d f0 4c 09 3d bb ec aa bb 68 b7 5a bb
       0.032198474 0.03352064 -0.0052162088 -0.0033373479
000210 f5 01 4e 3c be 18 07 3d 96 dc 0e 3d 02 53 6b bb
       0.012573709 0.03298258 0.034878336 -0.003590763
000220 dd 2d fa ba 60 27 de 3b 04 c6 ea 3c b5 4c 03 3d
       -0.0019087155 0.006779596 0.028658874 0.032055575
000230 ab 8d 44 bb a7 ee 19 bb 65 6b 39 3b f0 a9 c6 3c
       -0.0029991667 -0.0023488195 0.0028292772 0.024250954
000240 b8 1c fb 3c 8f 46 24 bb ec e5 b0 ba e2 c6 7c 3b
       0.030653343 -0.002506647 -0.0013496256 0.0038570692
000250 88 79 68 3c 09 97 f6 3c f0 a8 94 3d 22 be 7e 3d
       0.014189132 0.030101316 0.07258785 0.062193044
000260 f3 0a 73 3d ad d4 14 3d 1d f4 f5 3c cb 78 8f 3d
       0.059336614 0.036335636 0.030023629 0.07005461
000270 59 ff 8e 3d e8 e9 3a 3d 49 13 13 3d ec 17 de 3c
       0.069822975 0.045633227 0.035907064 0.027111016
000280 92 ab 90 3d 38 dd 53 3d 15 14 41 3d 33 8e 1b 3d
       0.070639744 0.051724643 0.047138292 0.03797741
000290 6b 17 e6 3c a7 0a 5d 3d e7 5e 22 3d 63 09 48 3d
       0.028087338 0.053965237 0.039641287 0.048837077
0002a0 40 26 18 3d 7a b4 e9 3c 16 ee 1c 3d ad 4f 21 3d
       0.037145853 0.02852844 0.038312994 0.039382625
0002b0 8c c5 26 3d 83 44 1e 3d f4 97 f4 3c 7b 7b 75 3c
       0.04071574 0.038639557 0.029857613 0.014983053
0002c0 f4 fa 20 3a 2a 6f a7 3b 30 2b 37 3b 93 55 02 3c
       0.00061409106 0.0051096873 0.0027949326 0.007954973
0002d0 34 cc 90 3c 33 cf 1a 3c 4c a6 49 3b fa fb be 39
       0.017675497 0.009448814 0.0030769287 0.0003642736
0002e0 1b 7a 52 3c ec 44 a3 3c 19 f1 1f 3c 40 fe db 3b
       0.012846495 0.019930325 0.009762072 0.0067136586
0002f0 fb 9e d9 3b 11 0d 75 bb f8 ab 88 3c 64 32 14 3c
       0.0066412664 -0.0037391821 0.016683564 0.009045217
000300 a3 34 ed bb cc 40 f2 bb 85 21 d1 bb a5 40 87 bc
       -0.007238941 -0.0073929783 -0.0063821697 -0.016510317
000310 72 ac 8f bc 5f 9b 28 bc a1 f2 a1 bb af 84 c9 bb
       -0.017538283 -0.01029095 -0.0049422537 -0.0061498503
000320 07 e3 52 bd 3d ab 87 bd a4 2a a9 bd 36 0b cd bd
       -0.05148604 -0.06624458 -0.08260086 -0.10011904
000330 9b 79 c6 bd fe 18 40 bd ea b8 6f bd 95 69 af bd
       -0.09691163 -0.046898834 -0.058525957 -0.0856506
000340 98 49 c6 bd 40 0b 9d bd 74 13 27 bd ab 4b 59 bd
       -0.09682006 -0.076681614 -0.040790036 -0.05305068
000350 95 32 99 bd 95 ee a6 bd 39 3c 90 bd a7 30 24 bd
       -0.07480351 -0.08150975 -0.070427366 -0.04008546
000360 ce 7e 10 bd 31 0f 3b bd de 42 66 bd e8 65 8e bd
       -0.03527718 -0.045668785 -0.056216113 -0.06953031
000370 ba 86 d8 bc 3c 0e cc bc f9 bf 1c bd 4b a7 51 bd
       -0.02643143 -0.024909131 -0.038269017 -0.051184934
000380 5f 0d 8c bd 81 bd 4b 3d d6 92 4f 3d 2b 2d 6b 3d
       -0.06838488 0.049741272 0.050677143 0.057416122
000390 18 72 80 3d 51 c0 75 3d d3 e5 48 3d 33 2e 59 3d
       0.06271762 0.05999786 0.049047302 0.053022575
0003a0 c7 6f 6b 3d bf 4e 83 3d 4e ba 73 3d 51 fd 4f 3d
       0.057479646 0.06411504 0.059503846 0.05077869
0003b0 7e 41 4e 3d 76 c4 80 3d 6d ab 7c 3d 8d f3 6e 3d
       0.050355427 0.06287472 0.061686922 0.058337737
0003c0 74 73 41 3d a9 a1 3f 3d d9 9a 69 3d 37 05 80 3d
       0.047229245 0.04678503 0.05703244 0.06250995
0003d0 80 49 68 3d 65 55 3c 3d a4 41 46 3d 3e 1d 59 3d
       0.05671072 0.045979876 0.048402444 0.053006403
0003e0 54 42 75 3d 64 7d 6d 3d 00 00 00 00 00 00 00 00
       0.05987771 0.05798091 0.0 0.0
0003f0 00 00 00 00 00 00 00 00 00 00 00 00 04 00 00 00
       0.0 0.0 0.0 6e-45

exp_avg_sq f4 [32, 25]
000000 c3 82 77 3d 1d 6e 6d 3d 94 d4 63 3d c8 24 5c 3d
       0.06042744 0.05796634 0.055622652 0.053746015
000010 8c 0e 5e 3d 12 5e 7d 3d ef e8 65 3d 8b 93 45 3d
       0.05421309 0.06185729 0.056130346 0.04823641
000020 0c cc 52 3d af 84 5f 3d 3d 9d 81 3d c8 0d 59 3d
       0.051464126 0.054569896 0.06328819 0.05299166
000030 bc 2c 0f 3d f2 05 29 3d 55 f3 3c 3d ff 59 6b 3d
       0.03495477 0.041265436 0.046130497 0.057458874
000040 d5 f5 47 3d c5 f3 20 3d 48 ca 23 3d 23 e1 32 3d
       0.048818428 0.039294977 0.039987832 0.04367174
000050 94 73 54 3d 40 cd 3f 3d 20 47 2a 3d 4d 09 29 3d
       0.051868036 0.0468266 0.041571736 0.041268636
000060 61 b1 30 3d ae ae 4c 3d d8 ce 62 3d 5a fb 85 3d
       0.04313791 0.049971275 0.055373043 0.06542082
000070 8d 96 95 3d f7 7b a0 3d 8a 73 53 3d b2 a4 54 3d
       0.07304106 0.078361444 0.05162386 0.05191488
000080 d4 be 81 3d 47 9b 9d 3d 90 c7 ac 3d 3f b4 74 3d
       0.06335226 0.076956324 0.08436501 0.05974221
000090 11 b7 6e 3d aa ed 79 3d 62 38 96 3d 60 7c 9a 3d
       0.058280054 0.06101767 0.07334973 0.07543254
0000a0 dd c7 7e 3d 07 1e 80 3d 7d b2 64 3d a0 41 58 3d
       0.062202323 0.06255727 0.055834282 0.05279696
0000b0 9a 5e 65 3d a6 09 84 3d ee d2 7f 3d 21 4d 68 3d
       0.055998422 0.06447153 0.062457018 0.05671418
0000c0 46 dc 53 3d 3a d6 5b 3d f4 01 00 00 f4 01 00 00
       0.05172374 0.0536711 7e-43 7e-43
0000d0 f4 01 00 00 f4 01 00 00 f4 01 00 00 f4 01 00 00
       7e-43 7e-43 7e-43 7e-43
0000e0 f4 01 00 00 f4 01 00 00 f4 01 00 00 f4 01 00 00
       7e-43 7e-43 7e-43 7e-43
0000f0 f4 01 00 00 f4 01 00 00 f4 01 00 00 f4 01 00 00
       7e-43 7e-43 7e-43 7e-43
000100 f4 01 00 00 f4 01 00 00 f4 01 00 00 f4 01 00 00
       7e-43 7e-43 7e-43 7e-43
000110 f4 01 00 00 f4 01 00 00 f4 01 00 00 f4 01 00 00
       7e-43 7e-43 7e-43 7e-43
000120 f4 01 00 00 f4 01 00 00 f4 01 00 00 f4 01 00 00
       7e-43 7e-43 7e-43 7e-43
000130 f4 01 00 00 f4 01 00 00 f4 01 00 00 f4 01 00 00
       7e-43 7e-43 7e-43 7e-43
000140 f4 01 00 00 f4 01 00 00 f4 01 00 00 f4 01 00 00
       7e-43 7e-43 7e-43 7e-43
000150 f4 01 00 00 f4 01 00 00 f4 01 00 00 f4 01 00 00
       7e-43 7e-43 7e-43 7e-43
000160 f4 01 00 00 f4 01 00 00 f4 01 00 00 f4 01 00 00
       7e-43 7e-43 7e-43 7e-43
000170 f4 01 00 00 f4 01 00 00 f4 01 00 00 f4 01 00 00
       7e-43 7e-43 7e-43 7e-43
000180 f4 01 00 00 f4 01 00 00 f4 01 00 00 f4 01 00 00
       7e-43 7e-43 7e-43 7e-43
000190 b3 ef 0f 3d 14 b7 08 3d e0 04 1d 3d d6 3f 45 3d
       0.035140704 0.033377722 0.038334727 0.04815658
0001a0 f3 9e 65 3d 19 2b 19 3d d3 93 09 3d b9 e9 16 3d
       0.05605979 0.037394617 0.03358824 0.03684399
0001b0 97 55 52 3d 3d 76 79 3d 3e 65 1b 3d 6d db 15 3d
       0.051351156 0.060903776 0.03793835 0.036586214
0001c0 32 e9 26 3d 9d fc 6d 3d 3f 7b 84 3d a9 6d 22 3d
       0.040749736 0.05810224 0.0646882 0.03965536
0001d0 9a ca 26 3d 53 04 3e 3d a4 4e 71 3d 97 79 80 3d
       0.04072056 0.046390843 0.05891289 0.062731914
0001e0 78 d2 2a 3d bb dd 34 3d b7 e2 48 3d 05 ee 70 3d
       0.041704625 0.04415677 0.049044337 0.058820743
0001f0 16 87 7e 3d 16 2e dd 3b 25 eb ce 3b ad 97 c2 3b
       0.062140547 0.0067498786 0.0063146525 0.0059384913
000200 cc ac e9 3b 08 48 12 3c 9d 9c ef 3b 70 e3 dd 3b
       0.0071311947 0.008928306 0.007312371 0.0067714974
000210 83 00 d1 3b 18 6b 05 3c 73 10 28 3c d7 e7 10 3c
       0.006378235 0.008143209 0.010257828 0.008844337
000220 b7 e4 0e 3c fa 98 1b 3c 36 8d 34 3c 74 6e 42 3c
       0.008721522 0.009496922 0.011019995 0.011867154
000230 8b 9b 18 3c 3b b8 1e 3c a8 3a 30 3c 1c cd 4a 3c
       0.009314428 0.009687479 0.010756172 0.012378003
000240 b4 6a 4d 3c f7 cd 22 3c f3 21 2b 3c d8 6b 3c 3c
       0.012537647 0.009936801 0.010445106 0.011500321
000250 48 3a 4d 3c 1d 7a 50 3c 66 58 e6 3d 3c d8 e4 3d
       0.012526102 0.012724427 0.112473294 0.11174056
000260 2e 22 d0 3d 30 12 bb 3d a0 ad be 3d 64 82 f6 3d
       0.10162769 0.09134328 0.0931046 0.12036589
000270 6f 6c e7 3d 4d f0 c9 3d 99 6e c1 3d 25 f1 dd 3d
       0.11299979 0.09860287 0.09444923 0.1083701
000280 38 5e f1 3d 87 49 e9 3d 9c a6 dd 3d e7 33 02 3e
       0.11785549 0.11390977 0.10822794 0.12715112
000290 a8 27 04 3e 97 26 cf 3d 83 56 b2 3d cb 23 ac 3d
       0.12905753 0.10114782 0.08707907 0.084052645
0002a0 81 a6 d5 3d d7 b4 fd 3d e5 ce b6 3d 52 c1 a5 3d
       0.10432149 0.12388008 0.08926181 0.080935135
0002b0 84 ac aa 3d ae 7d c5 3d ea 26 e5 3d 85 6a 5d 3d
       0.08333686 0.09643112 0.11189063 0.054056663
0002c0 54 7a 71 3d 81 37 88 3d 38 44 95 3d 85 5b 9c 3d
       0.05895455 0.066512115 0.07288402 0.076346435
0002d0 66 80 5a 3d 0d b9 65 3d d2 45 84 3d 70 fc 93 3d
       0.053345107 0.05608468 0.0645863 0.07225883
0002e0 45 3f 9d 3d 94 13 4d 3d 39 7b 4a 3d df 37 60 3d
       0.07678083 0.0500675 0.04943392 0.054740783
0002f0 e6 21 89 3d 9e 37 93 3d 2c 49 3d 3d 36 49 2e 3d
       0.06695919 0.071883425 0.04621236 0.04255029
000300 ef b9 30 3d 21 a1 6b 3d 77 98 84 3d 67 08 2f 3d
       0.04314607 0.05752671 0.06474393 0.042732622
000310 6e 76 26 3d 0c 66 37 3d bc 49 63 3d 93 8a 7c 3d
       0.040640287 0.044775054 0.05549024 0.061655592
000320 a7 0c f7 3d 31 37 fe 3d 5c 39 02 3e eb d7 fa 3d
       0.1206296 0.12412871 0.12717193 0.12248214
000330 04 71 fc 3d 69 03 f9 3d d9 b3 fe 3d 19 9a 07 3e
       0.123262435 0.121588536 0.12436647 0.13242377
000340 de 35 04 3e 14 12 08 3e f7 03 09 3e 6c 27 0e 3e
       0.12911174 0.13288146 0.13380419 0.13882226
000350 d0 e4 21 3e 94 83 14 3e 7e 23 0d 3e 96 fb 04 3e
       0.15809941 0.14503318 0.1378307 0.12986597
000360 cc 2c 06 3e be 3a 05 3e 6e 13 04 3e b7 0d 09 3e
       0.13103026 0.1301069 0.12898037 0.13384138
000370 47 d8 01 3e 0f 88 ff 3d 48 eb fa 3d d0 eb f6 3d
       0.1268016 0.12477123 0.122519076 0.120566964
000380 bb 06 01 3e 60 98 b3 3c c6 82 b6 3c d2 4e af 3c
       0.12600224 0.021923244 0.022279155 0.02139989
000390 e1 f3 a2 3c f7 5d 96 3c 12 ca b1 3c 9e dc b4 3c
       0.019891681 0.018355353 0.0217028 0.022077855
0003a0 c3 7f a9 3c c4 17 98 3c 68 5f 96 3c fc 0d 9e 3c
       0.020690804 0.01856602 0.01835604 0.019293778
0003b0 d9 ad 9a 3c 21 8e 92 3c a8 3e af 3c cc 05 b3 3c
       0.018881725 0.017890038 0.021392182 0.02185335
0003c0 c8 dd 75 3c 73 94 57 3c 6f 53 76 3c 48 b3 a2 3c
       0.01500649 0.013157952 0.015034541 0.019860879
0003d0 17 86 b4 3c e9 59 57 3c b6 04 5d 3c 50 33 82 3c
       0.022036595 0.013143995 0.013489893 0.015893608
0003e0 70 be 9c 3c 02 d1 ac 3c 00 00 00 00 00 00 00 00
       0.019133776 0.021095756 0.0 0.0
0003f0 00 00 00 00 00 00 00 00 00 00 00 00 f4 01 00 00
       0.0 0.0 0.0 7e-43

exp_avg f4 [32]
000000 04 b7 0c be a9 d7 00 3e 04 00 00 00 04 00 00 00
       -0.1374169 0.12582268 6e-45 6e-45
000010 79 5e 2c 3d d7 d4 10 3b a8 94 0b 3e 20 a8 01 3e
       0.042082284 0.0022099519 0.13630927 0.12661791
000020 bb 0d d8 bd 57 4e 91 3d 04 00 00 00 6b a1 5f bd
       -0.10549494 0.0709502 6e-45 -0.0545973
000030 77 81 4c bd bc 97 da 38 9e 70 31 3c b2 32 71 bc
       -0.049928155 0.00010423313 0.010830073 -0.014721559
000040 04 00 00 00 04 00 00 00 f7 fb 8b bc 04 00 00 00
       6e-45 6e-45 -0.01708792 6e-45
000050 04 41 bf 3c 04 00 00 00 4b 85 58 3e 04 00 00 00
       0.023346432 6e-45 0.21144597 6e-45
000060 3b 8a a2 3d 80 9f e2 3b 04 00 00 00 f2 8e 39 bd
       0.079365216 0.0069159865 6e-45 -0.04530234
000070 04 00 00 00 04 00 00 00 c0 ae b3 bb 04 00 00 00
       6e-45 6e-45 -0.0054834783 6e-45

exp_avg_sq f4 [32]
000000 c5 40 1c 3e 43 21 3b 3e f4 01 00 00 f4 01 00 00
       0.15259083 0.18274407 7e-43 7e-43
000010 ad 89 0d 3e 11 91 bf 3c 8a 28 9d 3e 17 a7 29 3e
       0.1382205 0.023384603 0.3069499 0.16567646
000020 2c 3f ae 3e 03 94 68 3d f4 01 00 00 8f 37 3b 3d
       0.3403257 0.05678178 7e-43 0.04570728
000030 b1 a4 10 3d a7 61 a2 3c d9 48 48 3c 99 df 86 3d
       0.035313312 0.019821955 0.0122243995 0.065856166
000040 f4 01 00 00 f4 01 00 00 e3 9c 57 3d f4 01 00 00
       7e-43 7e-43 0.052639853 7e-43
000050 cd 5b 5f 3e f4 01 00 00 f3 ce 5f 3e f4 01 00 00
       0.21812363 7e-43 0.21856289 7e-43
000060 47 36 7b 3d 90 96 c9 3c f4 01 00 00 a5 4b 96 3d
       0.06133106 0.024607927 7e-43 0.07338647
000070 f4 01 00 00 f4 01 00 00 ac e9 1f 3e f4 01 00 00
       7e-43 7e-43 0.15616482 7e-43

exp_avg f4 [16, 32]
000000 93 8f a7 3a 93 04 b6 bb 00 00 00 00 04 00 00 00
       0.0012783877 -0.0055547445 0.0 6e-45
000010 08 cb dc ba 3d 16 7d ba d4 bb 34 3b e3 6c e0 ba
       -0.0016845176 -0.0009654498 0.0027577775 -0.0017122295
000020 51 64 57 ba 57 99 f5 3a 04 00 00 00 85 89 1e 3c
       -0.00082165474 0.0018737715 6e-45 0.009676342
000030 3b 9f 91 39 ca b6 e5 b6 df 82 a9 bb 8d 8f da b9
       0.0002777519 -6.8460113e-06 -0.0051730718 -0.00041687154
000040 04 00 00 00 04 00 00 80 5b 40 36 b8 04 00 00 80
       6e-45 -6e-45 -4.3452117e-05 -6e-45
000050 0d 7b 2d bb 04 00 00 00 e1 b3 f8 3b 04 00 00 80
       -0.002647105 6e-45 0.0075898026 -6e-45
000060 b9 bd fe ba f3 fd b2 3a 04 00 00 00 02 a6 0d bb
       -0.0019435204 0.0013656005 6e-45 -0.002161384
000070 04 00 00 00 04 00 00 80 ee 1e cd 39 00 00 00 00
       6e-45 -6e-45 0.0003912369 0.0
000080 72 00 8e 3b c4 12 ab 3a 04 00 00 80 04 00 00 00
       0.004333549 0.0013051857 -6e-45 6e-45
000090 1f 8c ba ba 4a c6 f8 ba 5d 2a 6c 3b 56 65 0f 3c
       -0.0014232433 -0.0018979993 0.0036035993 0.008752188
0000a0 06 e6 49 3a ba 05 a9 3a 04 00 00 00 24 da 49 3c
       0.00077018177 0.0012895383 6e-45 0.012320075
0000b0 ff 6a 34 3a b0 64 94 36 8f c7 64 3b 5a ae 9a 3a
       0.0006882399 4.4224653e-06 0.0034908985 0.0011801228
0000c0 04 00 00 80 04 00 00 80 d9 c6 09 3a 04 00 00 80
       -6e-45 -6e-45 0.0005255766 -6e-45
0000d0 76 37 5d 3b 04 00 00 00 67 da 2f 3c 04 00 00 00
       0.003375498 6e-45 0.0107332235 6e-45
0000e0 93 c8 7d 39 ef 2a 64 3b 04 00 00 00 4c 5c 83 3b
       0.0002420268 0.003481563 6e-45 0.0040088054
0000f0 04 00 00 00 04 00 00 80 bc 79 a9 3a 04 00 00 00
       6e-45 -6e-45 0.0012929956 6e-45
000100 f9 c4 23 3c 35 2d 5d 3c 00 00 00 00 04 00 00 80
       0.009995692 0.013499548 0.0 -6e-45
000110 7a a2 98 3b 4f 98 72 3b a5 da e7 3b 96 22 96 3c
       0.0046580406 0.0037017053 0.007075625 0.018327039
000120 23 eb 8a 3b 9e 4b 37 3c 04 00 00 00 c3 51 99 3b
       0.0042394563 0.011187462 6e-45 0.004678936
000130 d2 6d 43 ba 6d af b4 b9 b9 cb b1 3c b6 20 5d 3b
       -0.0007455024 -0.00034462978 0.021703588 0.003374142
000140 04 00 00 00 04 00 00 80 73 2a 88 3a 04 00 00 80
       6e-45 -6e-45 0.0010388627 -6e-45
000150 5f 5a b8 3c 04 00 00 80 94 2c ed 3a 04 00 00 00
       0.02250403 -6e-45 0.001809495 6e-45
000160 4e ac 23 ba 5c 07 d3 3b 04 00 00 00 cb d3 14 3c
       -0.0006243632 0.0064400863 6e-45 0.0090836985
000170 04 00 00 00 04 00 00 00 59 8e f5 39 04 00 00 00
       6e-45 6e-45 0.000468361 6e-45
000180 a0 be 7a 3b 82 7f fe bb 04 00 00 00 04 00 00 80
       0.0038260594 -0.007766665 6e-45 -6e-45
000190 85 b0 05 bb 24 cf 8c bb a6 f6 a3 3b ca 2b 95 bb
       -0.0020399403 -0.004297154 0.005003768 -0.004552339
0001a0 2c 7c c7 ba 5e 38 3c 3b 04 00 00 00 c3 77 3b 3b
       -0.0015219501 0.002872012 6e-45 0.002860532
0001b0 c0 69 34 bb ad cc 6c b9 9a 06 86 bb 05 1a a1 ba
       -0.0027528852 -0.00022582962 -0.0040901424 -0.001229108
0001c0 04 00 00 00 04 00 00 80 db 2a 31 ba 04 00 00 80
       6e-45 -6e-45 -0.00067584 -6e-45
0001d0 5c 0a df ba 04 00 00 80 24 c5 81 3a 04 00 00 00
       -0.0017016637 -6e-45 0.0009900671 6e-45
0001e0 76 0d 0b bb 56 c0 05 3b 04 00 00 00 d7 59 7e bb
       -0.002121774 0.002040883 6e-45 -0.0038810873
0001f0 04 00 00 80 04 00 00 00 fe 38 03 bc 04 00 00 00
       -6e-45 6e-45 -0.008009193 6e-45
000200 91 36 25 39 9d 4e 02 b8 04 00 00 00 04 00 00 80
       0.00015755954 -3.106763e-05 6e-45 -6e-45
000210 46 5a 89 3b 0d 09 8f 3b bb 0d 96 3b a3 ba 8e 3b
       0.0041916696 0.0043650926 0.0045792735 0.004355745
000220 6b a1 c2 3b 8e 79 e1 3b 00 00 00 00 b2 46 81 bb
       0.0059396527 0.0068809455 0.0 -0.003945195
000230 01 b1 0b b8 6b 1b 75 b8 58 dd 45 3b a7 56 53 3b
       -3.330503e-05 -5.8438087e-05 0.0030191746 0.0032247694
000240 04 00 00 00 04 00 00 00 22 c8 51 3a 04 00 00 80
       6e-45 6e-45 0.00080025394 -6e-45
000250 e6 ec 5f 3c 04 00 00 80 85 10 80 39 04 00 00 80
       0.013667321 -6e-45 0.0002442637 -6e-45
000260 80 40 4b 3b 69 57 32 3b 04 00 00 00 9f 90 d1 3a
       0.0031013787 0.0027212745 6e-45 0.0015988535
000270 00 00 00 00 04 00 00 00 ea 18 47 bb 00 00 00 00
       0.0 6e-45 -0.003037984 0.0
000280 dc 58 bf bb 32 ad 16 bb 04 00 00 00 04 00 00 80
       -0.0058394503 -0.0022991416 6e-45 -6e-45
000290 24 ce 34 ba 69 8a d0 3a 00 7b 01 bc a3 15 c7 3a
       -0.00068971724 0.001591039 -0.007902861 0.0015188943
0002a0 73 6e 25 b9 51 4a 1c ba 04 00 00 80 7c c1 d2 ba
       -0.00015776772 -0.0005962002 -6e-45 -0.0016079391
0002b0 62 18 d3 b9 dd a4 86 b9 c8 0a 68 bb ca 1e 0d 3b
       -0.00040263223 -0.00025681304 -0.0035406817 0.0021533244
0002c0 04 00 00 00 04 00 00 80 3a 63 ad b9 04 00 00 00
       6e-45 -6e-45 -0.0003307106 6e-45
0002d0 86 6d 92 3c 04 00 00 80 9a d4 70 3b 04 00 00 80
       0.01787449 -6e-45 0.0036747814 -6e-45
0002e0 60 28 89 ba ab 67 11 3c 04 00 00 80 fa 73 2d bb
       -0.0010464303 0.008874814 -6e-45 -0.0026466832
0002f0 04 00 00 80 04 00 00 00 f9 b3 a0 bb 04 00 00 00
       -6e-45 6e-45 -0.004904267 6e-45
000300 b6 27 5e bb 28 f7 4c bb 04 00 00 80 04 00 00 00
       -0.0033898181 -0.0031275246 -6e-45 6e-45
000310 21 fc 15 bb e6 cf f0 b9 30 a1 8a ba 50 84 a4 bb
       -0.0022885876 -0.00045931264 -0.0010576602 -0.0050206557
000320 72 fb 4f bb e7 1f e8 ba 04 00 00 80 0b 95 5b bc
       -0.0031735566 -0.0017709703 -6e-45 -0.013402234
000330 e6 99 bc ba e1 cd 82 b8 3d d2 b9 bb ab cb c6 ba
       -0.0014389127 -6.237231e-05 -0.0056708143 -0.0015166899
000340 04 00 00 00 04 00 00 80 d6 73 01 37 04 00 00 00
       6e-45 -6e-45 7.715969e-06 6e-45
000350 4f f0 75 bb 04 00 00 00 86 ec 16 bc 04 00 00 80
       -0.0037527268 6e-45 -0.009211665 -6e-45
000360 67 74 7a b9 8a fb b0 ba 04 00 00 80 71 28 8c bb
       -0.00023885221 -0.0013502699 -6e-45 -0.004277282
000370 04 00 00 80 04 00 00 80 bb 94 c1 bb 00 00 00 00
       -6e-45 -6e-45 -0.0059076226 0.0
000380 a9 70 45 bb b7 14 44 bb 00 00 00 00 04 00 00 80
       -0.0030126965 -0.0029919574 0.0 -6e-45
000390 42 db e5 b8 9b 64 b2 ba 30 54 4b ba 53 7d 07 bc
       -0.00010960411 -0.0013610305 -0.00077563804 -0.008269626
0003a0 45 20 20 3b 7e 1d 4d 3a 00 00 00 00 52 ce 56 3b
       0.0024433297 0.0007824524 0.0 0.0032776785
0003b0 23 f1 50 bb c0 da 6a b9 22 20 5b bb 0e 35 bb ba
       -0.003188201 -0.0002239747 -0.00334359 -0.0014282779
0003c0 04 00 00 00 04 00 00 00 06 6e 90 39 04 00 00 80
       6e-45 6e-45 0.00027547794 -6e-45
0003d0 9a f0 de 39 04 00 00 80 f0 b1 0a bb 04 00 00 00
       0.00042522402 -6e-45 -0.0021163188 6e-45
0003e0 b2 b2 6b bb 05 32 9a 3a 04 00 00 00 cb 95 69 bb
       -0.0035964665 0.0011764175 6e-45 -0.0035642262
0003f0 00 00 00 00 04 00 00 80 53 83 6c bb 04 00 00 00
       0.0 -6e-45 -0.0036089018 6e-45

exp_avg_sq f4 [16, 32]
000000 e0 67 58 39 67 89 9e 39 00 00 00 00 f4 01 00 00
       0.00020638062 0.0003023848 0.0 7e-43
000010 46 13 b2 39 8a 79 6b 39 a6 af e6 39 00 6a a4 3a
       0.00033965165 0.00022456623 0.00043999887 0.0012543797
000020 d8 fc 1f 38 7b d6 5b 39 f4 01 00 00 66 cc 71 3a
       3.8144033e-05 0.00020965368 7e-43 0.0009223878
000030 fa c3 4f 38 d9 4e e5 34 af bc 94 3a 7c 96 4b 39
       4.9535163e-05 4.2711943e-07 0.0011347736 0.00019415648
000040 f4 01 00 00 f4 01 00 00 76 e8 06 37 f4 01 00 00
       7e-43 7e-43 8.041146e-06 7e-43
000050 aa b7 b8 39 f4 01 00 00 cc 22 a2 3a f4 01 00 00
       0.00035232055 7e-43 0.0012369989 7e-43
000060 5e 8b fe 38 8d ed 6c 39 f4 01 00 00 b9 5b 0f 3a
       0.00012137623 0.00022595208 7e-43 0.0005468685
000070 f4 01 00 00 f4 01 00 00 10 b9 83 39 00 00 00 00
       7e-43 7e-43 0.0002512415 0.0
000080 25 57 0e 39 a0 f6 d2 39 f4 01 00 00 f4 01 00 00
       0.00013574639 0.0004023807 7e-43 7e-43
000090 57 5d 0d 3a f6 a7 01 3b f7 84 ee 39 7c 63 ae 3a
       0.0005392632 0.001978395 0.00045493964 0.0013304795
0000a0 81 3f ad 38 1c 25 45 39 f4 01 00 00 22 92 a7 3a
       8.261111e-05 0.00018801208 7e-43 0.001278464
0000b0 82 36 0e 39 f5 c8 12 34 64 fc 51 3a a8 50 6d 39
       0.00013562481 1.3670417e-07 0.00080103264 0.00022632128
0000c0 f4 01 00 00 f4 01 00 00 e5 fb c0 39 f4 01 00 00
       7e-43 7e-43 0.0003680877 7e-43
0000d0 98 94 f2 38 f4 01 00 00 09 8b c9 3a f4 01 00 00
       0.00011567137 7e-43 0.0015376519 7e-43
0000e0 14 b8 e5 39 bb 93 47 39 f4 01 00 00 45 e2 0e 3a
       0.00043815433 0.00019033153 7e-43 0.0005450587
0000f0 f4 01 00 00 f4 01 00 00 9f e9 df 39 f4 01 00 00
       7e-43 7e-43 0.00042707936 7e-43
000100 d6 1b af 39 68 41 dc 3a 00 00 00 00 f4 01 00 00
       0.0003339934 0.001680416 0.0 7e-43
000110 bf 31 2b 3a 46 5d dd 3a ca 60 b9 3a e7 eb 28 3b
       0.0006530545 0.001688876 0.0014143225 0.0025775374
000120 ef 52 9a 38 28 a0 79 3a f4 01 00 00 97 1a 7d 3a
       7.35874e-05 0.00095224613 7e-43 0.0009655146
000130 44 5c 7d 38 bb fb a9 37 0f 14 0e 3b 65 d8 b5 39
       6.040583e-05 2.0263591e-05 0.0021679436 0.00034684237
000140 f4 01 00 00 f4 01 00 00 b3 28 81 39 f4 01 00 00
       7e-43 7e-43 0.0002463512 7e-43
000150 3f 83 b3 3a f4 01 00 00 ee d5 d7 3a f4 01 00 00
       0.0013695731 7e-43 0.0016466954 7e-43
000160 d0 94 8c 39 2d ca 47 3a f4 01 00 00 ad 7a 48 3a
       0.00026813755 0.0007621374 7e-43 0.00076476746
000170 f4 01 00 00 f4 01 00 00 d6 ff 0b 3a f4 01 00 00
       7e-43 7e-43 0.0005340552 7e-43
000180 fe a1 c3 39 ff 73 cc 3a f4 01 00 00 f4 01 00 00
       0.00037313992 0.0015598534 7e-43 7e-43
000190 b6 43 b6 39 39 3d 96 3a ad 15 b6 3a ce ff 2b 3b
       0.00034764194 0.0011462338 0.0013891958 0.0026245
0001a0 f6 7a 4a 38 59 8e da 39 f4 01 00 00 44 dd 85 3b
       4.827507e-05 0.00041686257 7e-43 0.004085215
0001b0 00 f4 b7 39 b2 87 1a 37 0d c9 e4 3a 33 3b a9 39
       0.00035086274 9.210709e-06 0.0017454937 0.000322783
0001c0 f4 01 00 00 f4 01 00 00 55 a6 7b 39 f4 01 00 00
       7e-43 7e-43 0.00023999189 7e-43
0001d0 b6 c5 ed 38 f4 01 00 00 0b b9 a4 3b f4 01 00 00
       0.00011337867 7e-43 0.0050269417 7e-43
0001e0 51 38 2e 39 8f 49 fa 38 f4 01 00 00 dc c7 9e 3a
       0.00016614913 0.0001193463 7e-43 0.0012114006
0001f0 f4 01 00 00 f4 01 00 00 78 4c af 3a f4 01 00 00
       7e-43 7e-43 0.001337423 7e-43
000200 4f 5c 0f 38 e0 c7 21 3a f4 01 00 00 f4 01 00 00
       3.4179826e-05 0.00061714463 7e-43 7e-43
000210 e4 57 8b 3a db aa dc 3a a9 55 95 3a 3a 55 76 3a
       0.0010631052 0.0016835587 0.0011393327 0.0009396855
000220 58 a8 2f 39 be 2c 00 3a 00 00 00 00 60 9d 1d 3a
       0.00016752013 0.00048894796 0.0 0.00060125254
000230 cc b7 96 38 b2 04 a2 35 3a 7b ca 3a 22 05 14 39
       7.186792e-05 1.2071307e-06 0.0015448101 0.00014116292
000240 f4 01 00 00 f4 01 00 00 05 3d 61 39 f4 01 00 00
       7e-43 7e-43 0.00021480404 7e-43
000250 8e d2 c8 39 f4 01 00 00 1d a5 6e 3a f4 01 00 00
       0.00038303848 7e-43 0.0009103583 7e-43
000260 e7 27 cc 39 8f 42 bc 39 f4 01 00 00 62 1b 41 3a
       0.00038939642 0.00035907744 7e-43 0.0007366446
000270 00 00 00 00 f4 01 00 00 07 8d aa 39 00 00 00 00
       0.0 7e-43 0.0003253 0.0
000280 dd ea 3f 3a cd 26 1e 3a f4 01 00 00 f4 01 00 00
       0.0007321069 0.00060330034 7e-43 7e-43
000290 56 f8 cb 39 63 b7 9e 39 9b e2 05 3a 8b e1 8c 3a
       0.00038904202 0.00030272742 0.0005107314 0.0010748369
0002a0 19 ba 3e 39 12 c9 a6 39 f4 01 00 00 4e 5a e7 3a
       0.00018189139 0.00031811796 7e-43 0.0017650814
0002b0 46 fc 45 39 3a 94 3e 38 63 3c e0 3a 80 ba 49 38
       0.00018881363 4.5437577e-05 0.001710784 4.8095826e-05
0002c0 f4 01 00 00 f4 01 00 00 8b 5f 49 37 f4 01 00 00
       7e-43 7e-43 1.2002779e-05 7e-43
0002d0 19 d3 82 3a f4 01 00 00 63 0d cb 3a f4 01 00 00
       0.0009981125 7e-43 0.001549166 7e-43
0002e0 57 e2 d6 39 03 81 1c 3a f4 01 00 00 0a 9e 8a 3a
       0.00040985897 0.0005970152 7e-43 0.0010575664
0002f0 f4 01 00 00 f4 01 00 00 21 6d 08 3a f4 01 00 00
       7e-43 7e-43 0.000520425 7e-43
000300 77 e6 26 39 81 3e d8 38 f4 01 00 00 f4 01 00 00
       0.00015916848 0.00010311325 7e-43 7e-43
000310 70 f5 8f 38 9f 5f c2 37 90 87 e5 38 b4 89 21 39
       6.864488e-05 2.317113e-05 0.000109448214 0.00015405455
000320 0a 8d 15 38 68 06 83 38 f4 01 00 00 6a c1 98 39
       3.565572e-05 6.24776e-05 7e-43 0.00029135804
000330 47 bf 26 38 9d ad 4b 37 b9 c5 ac 39 cb 8b 91 36
       3.9755625e-05 1.2140165e-05 0.0003295371 4.337611e-06
000340 f4 01 00 00 f4 01 00 00 f8 e9 a6 35 f4 01 00 00
       7e-43 7e-43 1.2436058e-06 7e-43
000350 7c 93 6f 39 f4 01 00 00 c9 8c 43 39 f4 01 00 00
       0.00022847758 7e-43 0.00018649096 7e-43
000360 9d 65 2b 39 37 4a de 38 f4 01 00 00 00 e7 1e 39
       0.00016345685 0.000105996085 7e-43 0.00015154108
000370 f4 01 00 00 f4 01 00 00 e3 1b 2a 39 00 00 00 00
       7e-43 7e-43 0.00016222852 0.0
000380 08 b0 04 3a 6a 76 13 3a 00 00 00 00 f4 01 00 00
       0.0005061631 0.000562525 0.0 7e-43
000390 8d fd 3c 3a b2 30 4b 3b 38 de e8 3a 84 59 13 3b
       0.0007209413 0.0031004366 0.0017766422 0.0022483775
0003a0 d1 7b c4 38 a0 b8 08 3a 00 00 00 00 9a 7e e5 3a
       9.369071e-05 0.00052154996 0.0 0.0017509044
0003b0 6b 18 af 39 f5 15 a7 37 8d d5 62 3a bb 67 0d 3a
       0.00033396794 1.9918176e-05 0.00086530374 0.000539418
0003c0 f4 01 00 00 f4 01 00 00 04 49 1a 3a f4 01 00 00
       7e-43 7e-43 0.0005885514 7e-43
0003d0 b9 55 2e 37 f4 01 00 00 82 86 0a 3b f4 01 00 00
       1.0391167e-05 7e-43 0.0021137302 7e-43
0003e0 63 f4 11 3a d8 4d d1 38 f4 01 00 00 eb 5a 85 3a
       0.00055677275 9.980396e-05 7e-43 0.001017419
0003f0 00 00 00 00 f4 01 00 00 9e 00 ca 3a f4 01 00 00
       0.0 7e-43 0.0015411561 7e-43

exp_avg f4 [16]
000000 b8 93 a1 3c 47 85 0e 3d de 24 d0 3d ab 9d 76 bc
       0.019723758 0.034795072 0.10163282 -0.015052239
000010 89 98 3a 3d 8b 7c 04 bd 44 5c b0 bd e0 9d 82 3a
       0.045555625 -0.032345336 -0.08611348 0.0009965263
000020 65 47 2b 3c 04 00 00 00 04 00 00 00 ac a7 95 bd
       0.0104540335 6e-45 6e-45 -0.073073715
000030 91 9d f7 3c 82 a3 0d 3d c2 3e 6e 3c 7d 57 45 bc
       0.0302265 0.03457976 0.01454133 -0.012044785

exp_avg_sq f4 [16]
000000 9d eb 39 3c ed 5a 88 3c db 1f 22 3d 0a 54 22 3d
       0.0113476785 0.01664492 0.03958116 0.039630927
000010 bb 79 95 3c 34 eb f0 3c fa 5a 93 3c 09 e0 f0 3c
       0.018246522 0.029409029 0.017987717 0.029403703
000020 ad 9a d8 3b f4 01 00 00 f4 01 00 00 cf a3 2e 3d
       0.0066102357 7e-43 7e-43 0.04263669
000030 07 6d 9e 3c 58 e5 16 3d 8f 6b 38 3c 53 70 39 3c
       0.019339098 0.036839813 0.011256113 0.011318284

exp_avg f4 [3, 16]
000000 4e 61 04 3a fa d8 4a 3a 40 64 93 ba 33 4f 36 3a
       0.00050499 0.00077380205 -0.0011245087 0.00069545506
000010 bf 07 9f b9 f4 a0 9d b9 01 8d 33 39 97 a1 cc 3a
       -0.00030332615 -0.00030065293 0.00017123298 0.0015612122
000020 2c e9 06 b9 04 00 00 80 04 00 00 00 e0 33 fc b9
       -0.00012866099 -6e-45 6e-45 -0.00048103835
000030 e8 ec 0f ba 88 a2 63 3a e0 3b 93 3a 36 76 9d 3a
       -0.0005490319 0.0008683582 0.0011233054 0.0012013379
000040 6b d7 68 39 95 89 62 ba 23 fe 60 b9 53 ca 01 ba
       0.00022205494 -0.0008641717 -0.00021456978 -0.0004951108
000050 75 05 d1 b8 09 55 aa ba e9 57 ee b9 5b 44 a8 ba
       -9.966913e-05 -0.0012995313 -0.00045460396 -0.0012837754
000060 8d ec e1 3a 04 00 00 00 04 00 00 00 aa 90 79 ba
       0.0017236635 6e-45 6e-45 -0.0009520153
000070 f5 6f 65 3a 92 94 c0 b9 08 f3 30 b9 dc 26 66 b9
       0.00087523396 -0.00036731787 -0.00016875204 -0.00021948986
000080 16 97 3e ba 8c 85 bd 38 08 84 af 3a 74 13 52 b9
       -0.00072704384 9.037097e-05 0.0013390789 -0.00020034407
000090 34 49 d3 39 48 bd d1 3a 76 91 94 39 e2 74 91 b9
       0.00040299597 0.0016001845 0.00028337137 -0.0002774364
0000a0 63 0f d1 ba 04 00 00 00 04 00 00 80 5c d5 bb 3a
       -0.001595002 6e-45 -6e-45 0.0014330554
0000b0 b6 05 ab b9 2d 58 03 ba dd 3a 7a ba 52 b1 80 ba
       -0.00032619917 -0.00050103926 -0.00095455145 -0.000981847

exp_avg_sq f4 [3, 16]
000000 ed 7b 36 39 d0 52 d6 37 2b 38 ed 36 34 6c ee 36
       0.00017403039 2.554935e-05 7.069689e-06 7.1055492e-06
000010 d9 80 fa 36 58 78 88 36 56 4c 50 34 54 87 e9 37
       7.4655804e-06 4.0671257e-06 1.939928e-07 2.7838782e-05
000020 b3 fa 20 38 f4 01 00 00 f4 01 00 00 ef 87 99 37
       3.8380454e-05 7e-43 7e-43 1.830232e-05
000030 23 a7 85 39 d3 57 a3 37 02 81 b0 38 c6 a8 08 38
       0.00025492263 1.947201e-05 8.4163636e-05 3.258211e-05
000040 4a 22 13 38 89 ea 31 36 4f 9d 79 36 d9 62 24 36
       3.5079465e-05 2.6511573e-06 3.7195457e-06 2.4495441e-06
000050 fa 89 69 37 d5 d2 9c 37 6d b3 69 36 5e 96 9d 37
       1.3920007e-05 1.8694825e-05 3.4824145e-06 1.8785879e-05
000060 3b cf d5 37 f4 01 00 00 f4 01 00 00 41 1a ee 36
       2.5488078e-05 7e-43 7e-43 7.096009e-06
000070 ad e1 36 37 92 06 35 36 4d 20 16 36 89 98 64 38
       1.090059e-05 2.6974926e-06 2.2370543e-06 5.4501495e-05
000080 89 3d 45 39 6a ca d0 37 7c 34 2d 37 3a c1 1e 37
       0.00018810308 2.4889789e-05 1.03238235e-05 9.462523e-06
000090 a7 0b a1 37 5e 39 a4 37 bb 95 62 36 1b df 36 38
       1.9198122e-05 1.9577037e-05 3.376378e-06 4.3599965e-05
0000a0 27 40 80 38 f4 01 00 00 f4 01 00 00 43 6e 7e 37
       6.115465e-05 7e-43 7e-43 1.5165252e-05
0000b0 a9 a8 87 39 ea 6d 9e 37 89 c0 af 38 2e 31 99 38
       0.00025874868 1.888625e-05 8.380513e-05 7.304769e-05

exp_avg f4 [3]
000000 c9 5b fb ba 06 4f 69 bb 8a 7e b3 3b
       -0.0019177134 -0.003560008 0.005477731

exp_avg_sq f4 [3]
000000 2b 8d a6 3a 10 83 02 3a 26 8f c1 3a
       0.0012706866 0.0004978636 0.0014767393

loss f8 []
000000 00 00 e0 cc 2c 23 c2 3f
       0.14169845584547147
