38_point_edge_detector.pth (torch, 25342 bytes, 19 tensors)

model.0.weight f4 [32, 25]
00000000: b132 9b3d b28e 723e 89cd 38b9 51d5 b43d
00000010: cfdf 0a3e 2251 5b3e b37e 29bd 8aac b3bd
00000020: e907 b0bc c5cf 473e 95c0 cbbb 24fe cabe
00000030: 3796 39bf c6fb c1be 280b 96bd 710e c13e
00000040: da7a e1bb 5f9b e83d 166a 0cbd 1649 bf3e
00000050: 97fe 8ebd 8814 3ebc addd 073e 88e5 9d3c
00000060: 9855 e5bd 786e 2cbd 6485 ca3a 4e4c 0bbe
00000070: 7e5b 0a3e 2eb2 e63c 04a6 84be 7688 acbe
00000080: 2ec4 9fbd 241a df3e 8b4e 853e f8c8 52be
00000090: 33a6 dcbd 6137 e43d 0af3 a33d 2936 f83d
000000a0: ea36 ce3c ec88 e33e b2ee 6abc 1b10 eabe
000000b0: cdee bebe 1afc fa3d 1af6 8e3e f027 de3d
000000c0: 66d2 1dbe 044f db3b 18fd aeb9 6a44 8ab9
000000d0: 18f7 01b9 fe40 1839 88fc a3b9 26e3 ae38
000000e0: a764 e937 10e0 8d39 d64c 0e39 803a 89b9
000000f0: 6779 c2b9 19b0 7637 b867 b0b7 f930 0339
00000100: 763e 0739 124d bab9 4b0a 96b9 d6e5 6439
00000110: a32a 66b8 f289 6337 a39d 3639 bee1 65b8
00000120: d051 85b9 6c5b 4fb9 b44d 0cb9 7b2e 86ba
00000130: 9b10 32ba 0d9e 3eba 342d 88b9 5b0e 33b9
00000140: 667e 0dba 3abb 8fba 6021 3cba 2791 c7b8
00000150: 23cd b339 0d68 cb39 1b71 fe38 c2bc 0cba
00000160: 0365 1cba b9d9 03b8 81be 7239 4eab b1b9
00000170: 2f88 8aba b4ab aab9 7e7a a1b9 9b77 43b8
00000180: 2fee e7b9 0d4c b5b9 2183 f9b8 626a 82b9
00000190: 7c79 2e3e afd6 bebd dfe4 d2bd a8a1 2a3b
000001a0: ba94 71bd 1f1b a33e e583 aebe 5625 dbbe
000001b0: 5baf 963d 29cb 133e f054 8fbd a97f 1fbe
000001c0: 7301 ccbe 4dd4 ba3e 96c5 ce3c 331e 9fbc
000001d0: 0e8f 4c3d f00a bb3e e9c3 df3e b86d 1ebe
000001e0: 2838 6fbd 8582 8ebd 1b5e 37bc 032c 723d
000001f0: afde 32bd a177 3b3c f6a5 36bc 08c2 18bd
00000200: f303 1dbe 6028 013d ee25 2bbe eca5 8fbe
00000210: 0234 31bf 4325 a9be 3e18 01be f2d8 2f3d
00000220: b0b7 183e 02ce d83e 3b8e 033e 82c5 e73d
00000230: 6119 2e3b 4b0b f03d f72d e93e b418 593e
00000240: 6890 11bc 2091 b8bc 2f60 623d 1798 b0bc
00000250: 9ccf f2bc 715b f43d e907 8cbb 4441 513e
00000260: 9800 403c 010d c4be 940a 80be d706 903e
00000270: 6819 ab3e 5b43 d33a 1964 afbe dff0 643d
00000280: 5c4f b93d e317 37be ac41 1d3d 8856 273e
00000290: 07e4 153e a70a 1c3d 5d68 a5be ebc5 55be
000002a0: 76f2 983e bf02 cb3e 74cb 9cbd e6a4 acbe
000002b0: 7feb 0fbd 7258 e1bc ef9c c33d 1112 2f3c
000002c0: e9b7 59bd 9223 f4bc 6bd6 873d 5c9a b4bc
000002d0: a046 a4bd 175c a03d 7e14 da3e 8c9c cd3e
000002e0: fdd4 abbd 42ec 453d 2f9e 8bbd a906 01be
000002f0: 4784 c63e d5e8 dc3d 1d9e 053c a8f3 05bf
00000300: ecb5 03bf a270 33bc 90b0 f53d 6d18 1c3d
00000310: 71c8 393d df0c fdbd 4772 97bd 13df adbc
00000320: f5a2 8bbc b5d4 79be 5744 923c a61b 61be
00000330: 80a3 37be 9547 f5bc 7e54 863d f876 bf3e
00000340: f81f 733e 60d9 bcbd fc96 f3bd 3cc6 fabc
00000350: 8a52 a63e ece9 aabd 6d4f 20bd 43ec 733b
00000360: 914b 383e 991f d83e 3513 d13e f799 1cbc
00000370: a634 18be 3e6a 43be f8c7 18be 4faa acbe
00000380: 710c 00be 305c 5e3d ded4 aa3d ab59 ee3d
00000390: d80c 6e3e 85fb 3bbe d9af 34bd 088f be3e
000003a0: 23ef d43c 36fa aabe e6cd b3be f243 1a3e
000003b0: c206 18be ed6b 333e 8cae c6bd 98bc 313e
000003c0: 3dd1 c9be bde4 85be 0935 0abd 934b cd3e
000003d0: 64cc 323e ab21 35be 972f 113e 384d 343c
000003e0: 4dac ecbb fd4f 7cbd a71b adb9 a212 95b9
000003f0: 8c59 8739 8dc9 aab9 a5a4 76b9 df70 8bb8
0.07578028 0.23687246 -0.00017624175 0.088297494 0.13561939 0.21417668 -0.041380595 -0.087731436
-0.021488147 0.19512852 -0.006218026 -0.3964702 -0.72494835 -0.378874 -0.07326347 0.3770633
-0.0068811 0.1135776 -0.03428086 0.37360448 -0.06982153 -0.011601575 0.13268156 0.019274488
-0.11197966 -0.04209754 0.001545113 -0.13603327 0.13511464 0.028161135 -0.2590791 -0.3369786
-0.0780109 0.4357463 0.26036486 -0.20584476 -0.107738875 0.11143375 0.080053404 0.12119705
0.02517267 0.444404 -0.014339136 -0.45715412 -0.37291566 0.12255116 0.27922136 0.10847461
-0.15412292 0.006692769 -0.00033376436 -0.00026372384 -0.00012394448 0.00014520061 -0.00031277933 8.339276e-05
2.7822634e-05 0.00027060555 0.00013570799 -0.00026174262 -0.00037093015 1.4703744e-05 -2.1029133e-05 0.00012511377
0.00012897872 -0.00035534106 -0.00028617898 0.00021829395 -5.487598e-05 1.3562372e-05 0.00017415597 -5.4808093e-05
-0.00025428692 -0.00019775116 -0.00013380387 -0.0010237241 -0.00067926355 -0.0007271476 -0.0002597362 -0.00017076118
-0.0005397558 -0.0010965832 -0.0007176604 -9.516096e-05 0.0003429438 0.000387967 0.00012132731 -0.0005368703
-0.00059659797 -3.1435604e-05 0.00023149887 -0.00033887703 -0.001056915 -0.00032552856 -0.00030799577 -4.6603014e-05
-0.00044237214 -0.00034579673 -0.0001189767 -0.00024874794 0.1703853 -0.093182914 -0.1029756 0.0026036296
-0.058979727 0.3185663 -0.34085003 -0.42801923 0.07357665 0.14432968 -0.069986224 -0.15576042
-0.39844856 0.36490098 0.0252407 -0.01942358 0.049941115 0.36531782 0.43704155 -0.15471542
-0.058403164 -0.069584884 -0.01119187 0.059124004 -0.0436694 0.011442096 -0.011147967 -0.037294418
-0.15333538 0.031532645 -0.16713688 -0.28056276 -0.6921998 -0.3303624 -0.12606904 0.042931505
0.14913821 0.4234467 0.12847225 0.113169685 0.002656542 0.11720904 0.4554288 0.2120083
-0.008884527 -0.022530138 0.05526751 -0.021556897 -0.029640011 0.119315036 -0.004273404 0.20435053
0.011718892 -0.3829117 -0.2500807 0.28130218 0.3341782 0.0016118096 -0.34256056 0.055893775
0.0904834 -0.17880206 0.038392708 0.16341603 0.14637767 0.038096096 -0.32306185 -0.20876281
0.29872483 0.39650533 -0.07655993 -0.33719558 -0.035136696 -0.027507994 0.09551417 0.01068546
-0.053153906 -0.029802117 0.06632694 -0.02204626 -0.08021283 0.07830065 0.4259376 0.40158498
-0.08390234 0.048321016 -0.068172805 -0.12600197 0.38772795 0.10786597 0.008155373 -0.52324915
-0.51449466 -0.010952147 0.11996567 0.03810923 0.04535717 -0.123559706 -0.073948435 -0.021224534
-0.017045477 -0.24397548 0.017854853 -0.21983203 -0.17933464 -0.02994136 0.06559084 0.37395453
0.23742664 -0.092211485 -0.11894032 -0.030612104 0.32484847 -0.08345398 -0.039138246 0.003721968
0.17997576 0.42211607 0.40834966 -0.009558192 -0.14863834 -0.19083497 -0.14920032 -0.33723685
-0.12504746 0.054287136 0.083413824 0.116381966 0.23247087 -0.18357666 -0.044113014 0.372185
0.025992936 -0.3339402 -0.35118026 0.15064982 -0.14846328 0.17521639 -0.09701261 0.17357099
-0.3941745 -0.26151076 -0.033741985 0.4009672 0.17460781 -0.17688625 0.1417831 0.0110047385
-0.0072226883 -0.06159972 -0.00033017734 -0.00028433377 0.00025815924 -0.00032575094 -0.00023521723 -6.6490604e-05

model.0.bias f4 [32]
00000000: 4ac2 223b b57d 0b3b 5fb6 d5b9 2139 31ba
00000010: 2cd2 c8ba 38b3 ccbc d619 93bb a7c7 c2b9
00000020: 0f55 38bb c66a 5eba 986f 89b9 e7d7 4cbd
00000030: 2dd3 1dbd e872 2e3d 2a05 d43c 8b98 81bd
00000040: b87b f6b9 95b8 93ba f15b 86bd bf78 9fba
00000050: 944a 503d 762c 8eba 45cf 27ba 8263 a0b9
00000060: a9bb 3fbd e91e 6a3d c5b8 b1b9 de02 32bd
00000070: 5334 1eba 10eb bdb9 4f63 98bc 4a00 00ba
0.0024835044 0.0021284644 -0.00040762403 -0.0006760527 -0.0015321425 -0.024987802 -0.004489164 -0.00037151316
-0.002812687 -0.00084845384 -0.0002621382 -0.050010588 -0.03853147 0.042590052 0.025881369 -0.063279234
-0.00047012954 -0.001127022 -0.06560505 -0.0012166722 0.050852373 -0.0010846991 -0.000640143 -0.00030591717
-0.046809826 0.057158384 -0.00033897735 -0.043459766 -0.00060350186 -0.00036224024 -0.018602042 -0.00048828556

model.2.weight f4 [16, 32]
00000000: 9d7a f03e 00e3 743e c693 6936 4251 ccb9
00000010: dc6e 273f c8a3 92bf 6afc 573e f712 5e3e
00000020: 7a7c e1be 9e4e c0be 1cb7 a139 71da a6be
00000030: 8417 94be e0ea 4fc0 6dec 1d3f 7f41 dabc
00000040: 0f26 0939 3e1f 7e39 68ba 90bf 3ac2 3c3a
00000050: ab8b 8abe 3c26 933a dbfe 613f f66a 2dba
00000060: 872e 443f 6a87 a73e 6723 28b9 e5f6 d2be
00000070: 69c4 92b9 e90f 0fb9 a22e 883c 4ed7 5cb9
00000080: 1009 95be a3fa 8cbe 73f4 9738 63d9 54b9
00000090: 9ad5 17bc 9113 933e e0a5 4cbf 9693 9f3e
000000a0: 2f9b b13d 45f1 793d ff6d dfb9 a892 513e
000000b0: a17a 84bd 5ceb c9bf 5ee4 013e 0d54 753c
000000c0: b289 f538 6521 31b9 adc0 ae3e 4392 e0b9
000000d0: 27fc d1bf 4919 d538 8103 883e 6e6d c2b6
000000e0: cd7c 9fbe bed8 2e3e 0273 6f3a 4a3c 2a3c
000000f0: 4d16 4cb9 f084 5eb9 1cf1 45bf d923 edb9
00000100: 3a2d 88bf 3d40 763f 59b3 07b9 db01 5dba
00000110: b0b6 37bf a062 ebbd f7de d33e 3f3a cabe
00000120: be01 cfbf 209a 343f 58f1 0439 881d 97be
00000130: 5949 4ebe 72a5 ac3e e8af b93d ac1d 48be
00000140: 81e5 94b9 82c3 49b9 1e5a 9dbc 1340 04ba
00000150: 0d9d 443e 745f 48b9 bd4f 34be 1610 cfb9
00000160: 9714 01bf 44a6 eb3d 67e3 683a 11fb dabe
00000170: 1d5b d7b9 d309 feb9 d6fc a93d 0bad 46b9
00000180: f1a3 b0bf b895 673f 17ba a2b9 f3e6 14b9
00000190: 7ae2 5abf 5f73 cbbd 7236 253f 97d1 ffbe
000001a0: 381c c9bf fb91 943e e17b 1339 faa1 efbc
000001b0: eb8c 2e3f d909 e3be 4a0c e53e 4ded 09bf
000001c0: 4a23 0c39 abd2 143a 5920 bcbe ba12 d738
000001d0: 9b4c 67bf 8ede 88ba dd13 243e bcaf 57b8
000001e0: ddd6 0cbf c54c 10bf 912d 573a ffa1 c2bd
000001f0: 3785 ecb7 f472 2a39 620a 933d e0d3 5fb9
00000200: 7e32 d1bf 0dd3 1c3f 3e32 c338 e36c a3b9
00000210: 5c1a c7be 626d 39be 1924 313f 6c05 2ebf
00000220: 629d 9a3e 370e d53e 731f c138 5ae5 3e3e
00000230: 4801 21bd 670b d13f 1bb8 fd3c 095c 0ebf
00000240: 8751 43b9 6c86 b739 5242 54bf ac0c 763a
00000250: c9bf 8b3b f513 0fba 378a d0be 851f 5e38
00000260: 78a6 133e a12b 9b3e 71ee 92b8 3ba8 b73e
00000270: f40d 5c39 ad74 d7b7 e14f e53e ca26 28b8
00000280: 3b8f 403f ff00 1abf b8cf 4039 0ce3 51b9
00000290: 1e1d 69bf e270 25bf 2ad3 8bbe bfd9 64bf
000002a0: ecd8 683f c922 a3be 12f7 a5b8 489d 233f
000002b0: ee9b 673f ab7c 85be e60d 753d e51c 51bf
000002c0: f723 1338 b318 76b9 fbb8 81bf 0856 a4ba
000002d0: 0c0f c03e b63a c4ba 13c2 9dbf f099 c0b9
000002e0: eaa2 2c3f 8e6e 023f a282 16ba 47d1 313f
000002f0: 12fa a038 b6ec c5b8 d28d e43b e556 ea38
00000300: 4122 19be 58f7 b9bf 8561 8537 d96e 8eb9
00000310: eaa0 adbf 9a25 bbbf 7390 5cbf f267 d7bf
00000320: 712d 7fbe 00e3 47bf f27b 2db8 3260 d0be
00000330: 98d1 553f 9ec6 cc3d 6637 d0bd f8b8 0dbf
00000340: 9f99 8a39 13b3 ff39 0f3d ff3e 718a e6b8
00000350: ebb6 c9be a4d2 ccba 51d1 edbf 15e4 2bb9
00000360: cfb1 61bc 1a93 263e 0189 313a b4f2 05be
00000370: 3875 4839 33ee 5db9 c7e2 f1be 3891 e6b8
00000380: 4e43 723e 0217 753d f569 9d38 5ef1 4439
00000390: 63ea 7bbe a1a3 7dbe 0cf9 593f 3311 253d
000003a0: a06b c4be 192b c33e ef37 4fb9 deea 49bf
000003b0: 1e3c df3d 7b12 0a3f ed00 23bf 2755 ddbe
000003c0: b5f2 4db6 6eaa 3b3a c864 dabe a5fa 2cb9
000003d0: 19f4 2ac0 ca20 acb9 7747 a0bd 356a c138
000003e0: ba1e c7bd 28eb 25bf 8a63 b038 fe69 09bf
000003f0: b71b 6039 e47f b7b8 cf94 8b3f e834 05b9
0.46968547 0.23914719 3.480572e-06 -0.00038970454 0.65403533 -1.1456232 0.21092382 0.21686922
-0.4404028 -0.3755998 0.0003084474 -0.32588533 -0.2892419 -3.2487106 0.6168888 -0.02664256
0.00013079516 0.00024234966 -1.1306887 0.0007200573 -0.27059683 0.0011226605 0.88279504 -0.00066153647
0.76633495 0.327205 -0.00016034917 -0.4120399 -0.00027993627 -0.0001364347 0.016623799 -0.00021061042
-0.29108477 -0.2753497 7.245773e-05 -0.00020298878 -0.009267235 0.28725865 -0.79940605 0.31167287
0.08672177 0.06102111 -0.00042615828 0.20466101 -0.06468702 -1.5774951 0.12684771 0.014973653
0.00011708158 -0.00016892476 0.34131375 -0.00042833583 -1.6405076 0.00010161341 0.26565173 -5.79439e-06
-0.31149903 0.17074868 0.0009134264 0.010390351 -0.00019463264 -0.00021221093 -0.7732103 -0.0004523087
-1.0638802 0.9619177 -0.00012941415 -0.00084307574 -0.71763134 -0.114934206 0.41381046 -0.39497563
-1.6172407 0.70547676 0.00012678409 -0.29514718 -0.20145167 0.33719975 0.090667546 -0.19542569
-0.00028399754 -0.00019241686 -0.01920801 -0.0005044948 0.19200535 -0.00019109045 -0.17608543 -0.00039494102
-0.5042204 0.11506322 0.0008883983 -0.42769673 -0.0004107588 -0.00048453975 0.08300178 -0.00018947215
-1.3800031 0.9046283 -0.00031037696 -0.00014200415 -0.85501826 -0.09934115 0.645362 -0.49964592
-1.5711737 0.29017624 0.00014065161 -0.029252041 0.68183774 -0.4434345 0.44735938 -0.5387772
0.00013364587 0.0005677144 -0.3674343 0.00010255487 -0.90351266 -0.0010442303 0.16023202 -5.142366e-05
-0.55015355 -0.5636714 0.0008208389 -0.095035546 -2.8195425e-05 0.00016255287 0.07179715 -0.00021345867
-1.6343534 0.6125954 9.307683e-05 -0.0003117091 -0.38887298 -0.18108132 0.69195706 -0.67977023
0.301982 0.41612408 9.208815e-05 0.18642178 -0.039307863 1.6331605 0.030971577 -0.55609185
-0.0001862702 0.00035004632 -0.82913697 0.00093860435 0.004264806 -0.0005457991 -0.4073045 5.295828e-05
0.14418972 0.30306724 -7.006236e-05 0.35870537 0.00020986033 -2.5684329e-05 0.44787505 -4.0090446e-05
0.7521855 -0.6015777 0.00018387928 -0.00020016375 -0.91060054 -0.6462537 -0.27309543 -0.89394754
0.90955997 -0.31862476 -7.9138335e-05 0.6391187 0.90472305 -0.26071677 0.059827708 -0.81684715
3.5081026e-05 -0.0002346959 -1.0134577 -0.0012537846 0.3751148 -0.001497111 -1.2324852 -0.00036735786
0.6743609 0.50949943 -0.00057415117 0.69459957 7.675974e-05 -9.437783e-05 0.006974914 0.00011174175
-0.14954473 -1.4528608 1.5900247e-05 -0.00027166939 -1.3564732 -1.462085 -0.8615791 -1.6828597
-0.24919678 -0.7808075 -4.1361847e-05 -0.4069839 0.8352294 0.09998821 -0.101668164 -0.55360365
0.00026435868 0.0004877081 0.49851272 -0.00010993041 -0.39397368 -0.0015626741 -1.8579503 -0.00016392798
-0.013775303 0.16267052 0.00067724293 -0.13080865 0.00019117154 -0.00021164939 -0.4724333 -0.00010994304
0.23658487 0.059836395 7.5060794e-05 0.00018781933 -0.2460113 -0.2476945 0.8514564 0.040299606
-0.3836336 0.38118818 -0.00019761895 -0.78874004 0.10900138 0.5393445 -0.6367329 -0.4322903
-3.0688655e-06 0.000715888 -0.42655015 -0.0001649657 -2.6711485 -0.00032830826 -0.07826131 9.22274e-05
-0.097226575 -0.64811945 8.4108746e-05 -0.53677356 0.00021372629 -8.7499415e-05 1.0904788 -0.00012703578

model.2.bias f4 [16]
00000000: 873f 953d fa49 353e da66 0e3e 4e24 e53d
00000010: f3ee 593d 00ac 183e cb7d 1f3f 443b 653e
00000020: 7ebc 81bd 6eab 32ba 04ac 3fba 017e 3e3e
00000030: 81f2 1b3e 49e6 623e 0df0 c63d d9c8 c6bb
0.072875075 0.17704001 0.13906422 0.11188565 0.053206395 0.14909363 0.6230132 0.2238589
-0.0633478 -0.0006815706 -0.0007311704 0.18602754 0.15229227 0.2215816 0.09713755 -0.0060664234

model.4.weight f4 [3, 16]
00000000: 8f55 0440 0d1b 2140 ad36 82c0 6135 acc0
00000010: 703f 8ac0 bf31 d5c0 78ca 13c1 e5d4 6dc0
00000020: 8222 debf b229 16b8 b994 a638 5d2b 4640
00000030: 4c19 cd3e f844 7840 1ef8 8d3f 9d54 47c0
00000040: 6dec ebbf e319 2dc0 aa39 e1bf 24a7 2bbf
00000050: 3ef9 703f a4f3 9440 69cc d340 a51f 4ebf
00000060: 155a cebe ac3e 89ba 58b4 dbb8 683b cb3f
00000070: 5ccf d7c0 a048 adbf 6939 dfc0 b2de fb3f
00000080: 637f 9cbf 4c01 d9bf 98d0 8940 a97f 9540
00000090: a02d ff3f 7c24 b6bf ba47 92c0 38e4 5340
000000a0: 7dc7 d03f 77a9 04ba 1de3 8b39 3e54 98c0
000000b0: 9bf0 8d3f f4f8 5fc0 b422 d13e 58c7 643e
2.067722 2.517276 -4.0691743 -5.381516 -4.320244 -6.6623225 -9.236931 -3.716119
-1.7354281 -3.580162e-05 7.9431986e-05 3.0963967 0.40058362 3.8792095 1.1091344 -3.1145394
-1.8431526 -2.704705 -1.7595723 -0.6705191 0.94130313 4.6547413 6.6187024 -0.80517036
-0.40303102 -0.0010470948 -0.000104763254 1.5877504 -6.7440624 -1.3537788 -6.975758 1.9677336
-1.2226375 -1.6953521 4.306713 4.6718335 1.9935799 -1.4229884 -4.5712557 3.3108044
1.6310879 -0.00050606526 0.0002668136 -4.7602835 1.1089052 -3.49957 0.4084679 0.22341669

model.4.bias f4 [3]
00000000: 85b9 d13e 1149 3a3e 3731 ffbe
0.40961853 0.18191935 -0.49842235

exp_avg f4 [32, 25]
00000000: a859 2a3d 07f3 283d 8b7e 553c 9dd1 01bc
00000010: 01e4 18bc f1dd 353d c5f7 2d3d ff12 ad3c
00000020: a445 2fbb 1457 96bb 6312 3c3d 60f2 353d
00000030: a937 663c 2f45 e73b 1b3e 023b d529 0a3d
00000040: 2d8c ab3c af0e afb9 6fa7 80ba 3b1d bdba
00000050: bc1f a43c 8ada af3b 591c 49bb 626f c9b8
00000060: 34e1 85b9 bda0 013d 6059 0a3d a87d 303d
00000070: 97b9 513d 307a 533d c0a7 f03c b239 e23c
00000080: bdaf 1e3d 7146 3c3d 1191 443d 9808 ce3c
00000090: a4bd c53c f6fa f33c 6cfd 2a3d a076 453d
000000a0: 275e eb3c 8076 f43c a907 0e3d 46b8 0e3d
000000b0: 11b1 1c3d 9bde dd3c 8422 f93c fcb2 0d3d
000000c0: 62b2 033d ff11 103d 0400 0000 0400 0000
000000d0: 0400 0000 0400 0000 0400 0000 0400 0000
000000e0: 0400 0000 0400 0000 0400 0000 0400 0000
000000f0: 0400 0000 0400 0000 0400 0000 0400 0000
00000100: 0400 0000 0400 0000 0400 0000 0400 0000
00000110: 0400 0000 0400 0000 0400 0000 0400 0000
00000120: 0400 0000 0400 0000 0400 0000 0400 0000
00000130: 0400 0080 0400 0000 0400 0000 0400 0000
00000140: 0400 0000 0400 0000 0400 0000 0400 0000
00000150: 0400 0000 0400 0000 0400 0000 0400 0000
00000160: 0400 0000 0400 0000 0400 0000 0400 0000
00000170: 0400 0000 0400 0000 0400 0000 0400 0000
00000180: 0400 0000 0400 0000 0400 0000 0400 0000
00000190: 8417 45bc 9da3 0bbc bb16 49bc 69d7 85bc
000001a0: e53b 6ebc 7e45 cabc bffe 70bc 8f7f 59bc
000001b0: b51b abbc 6b2a 97bc 90d1 d5bc d17e d5bc
000001c0: 396e b2bc c5e9 c3bc f557 c0bc bd73 10bd
000001d0: 05a9 17bd 74fb f5bc 57dd dbbc 126e d8bc
000001e0: fabd 17bd 2284 12bd 1728 03bd e034 e2bc
000001f0: 21ce eabc 3e61 943b f1a4 913b bd8c 923b
00000200: 82b0 503b a8da 063b 671b 0a3b dfed d13a
00000210: 9444 3e3b c085 9d3b 207a a63b 9bb0 883a
00000220: 2189 673b 0fce a23b 1683 883b 41d3 2a3b
00000230: 2e07 a13b a027 d63b 58eb ee3b 9094 e23b
00000240: fa9d b73b 17f1 d33b 59d7 ea3b 44a2 f33b
00000250: a9c2 f53b d56f e63b 44f9 07bd ccb5 07bd
00000260: 7b06 733b 595d 893c 5cf9 023c 6ce0 cfbc
00000270: 78d4 c9bc b909 023c 5b26 463c 37a7 153c
00000280: f3d1 e5bc 7b2b dabc da8b f13c e084 143d
00000290: c964 ae3c 84ae a4bc ab9f 133b 4b88 303d
000002a0: 10fd 2c3d 1336 f93c 9e46 9bba 0b09 063d
000002b0: 1bd9 283d 4302 223d b92c 283d e8f1 4ebb
000002c0: 368c 37bb dc1a 36bb d851 9cbb 3729 9aba
000002d0: a882 b5bb 5f38 95bb ce87 acbb 26da 9ebb
000002e0: 7eb9 8cbb e552 d6bb 5ef5 82bb 3e3b 85bb
000002f0: 8a21 16bc 33f9 54bc 770f 0fbc 6a0c eebb
00000300: bfa7 9abb b8b2 d2bb 57ef 0cbc 09f5 f1bb
00000310: 1919 92bb 99b5 2ebb 11f1 5fbb 6a65 e2bb
00000320: 9b81 adbd 581c b4bd 338d dbbd e86b 9abd
00000330: 8208 75bd 3c4d a2bd 55ee 9dbd 5c2c b2bd
00000340: a694 5dbd 8b9e 4cbd 2a02 a3bd 8549 95bd
00000350: 3995 b3bd 658e b5bd 341d 63bd 0227 9cbd
00000360: 882e adbd dc88 cbbd f919 d1bd 63ae 92bd
00000370: 0da0 afbd 3dc4 c5bd da01 cdbd d616 cebd
00000380: f453 cfbd d3cf 453c ed97 3f3c 5759 753c
00000390: 6c38 963c 9948 923c 8623 763c e5c9 5e3c
000003a0: c777 663c 46cd a83c a296 a23c d6ce 683c
000003b0: 7e01 573c cada 963c d20f d33c 6c19 cf3c
000003c0: 2025 863c 6986 b03c d7a7 ca3c 4f33 cd3c
000003d0: c625 ce3c 9cc8 c03c d6b6 cc3c a64c c43c
000003e0: dd4e c23c fedf c93c 0000 0000 0000 0000
000003f0: 0000 0000 0000 0000 0000 0000 0400 0000
0.04158941 0.041247394 0.0130306585 -0.007923511 -0.009331704 0.044401113 0.04247262 0.021127222
-0.002674439 -0.0045880172 0.045915972 0.0444206 0.014051356 0.007057808 0.0019873444 0.0337313
0.020940864 -0.0003338954 -0.0009815524 -0.0014428267 0.020034663 0.005366628 -0.0030687063 -9.6051735e-05
-0.00025535526 0.031647433 0.03377664 0.043088585 0.051202383 0.0516302 0.029376864 0.027615402
0.038741816 0.045965616 0.04798991 0.025150582 0.02413828 0.029782753 0.04174559 0.048208833
0.028731419 0.029841661 0.034675274 0.034843706 0.0382548 0.027083686 0.030411966 0.03459452
0.03215254 0.035173412 6e-45 6e-45 6e-45 6e-45 6e-45 6e-45
6e-45 6e-45 6e-45 6e-45 6e-45 6e-45 6e-45 6e-45
6e-45 6e-45 6e-45 6e-45 6e-45 6e-45 6e-45 6e-45
6e-45 6e-45 6e-45 6e-45 -6e-45 6e-45 6e-45 6e-45
6e-45 6e-45 6e-45 6e-45 6e-45 6e-45 6e-45 6e-45
6e-45 6e-45 6e-45 6e-45 6e-45 6e-45 6e-45 6e-45
6e-45 6e-45 6e-45 6e-45 -0.012029532 -0.008522895 -0.012273486 -0.016338067
-0.014540647 -0.02469134 -0.014709174 -0.013275041 -0.020887235 -0.018452844 -0.026100904 -0.026061447
-0.021781074 -0.023915181 -0.023479441 -0.035266627 -0.037026424 -0.030027129 -0.026838941 -0.026419673
-0.03704641 -0.035770543 -0.032020655 -0.027613103 -0.028662743 0.0045281937 0.0044447114 0.0044723437
0.0031843488 0.0020577107 0.0021073462 0.0016016326 0.0029032575 0.004807204 0.0050804764 0.0010428609
0.0035329538 0.0049684118 0.0041660173 0.0026065859 0.004914186 0.0065354854 0.0072912388 0.0069146827
0.005603549 0.006467949 0.0071667847 0.007435115 0.007500012 0.0070323744 -0.033196703 -0.03313236
0.003708272 0.016768144 0.007994022 -0.025375567 -0.024637446 0.007936888 0.012094106 0.009134105
-0.028054213 -0.026632061 0.029485632 0.036259532 0.021288292 -0.020102747 0.002252559 0.04309873
0.042233527 0.030421292 -0.0011846607 0.032723468 0.041222673 0.03955294 0.041058276 -0.0031577293
-0.0028007156 -0.0027787006 -0.0047704987 -0.001176155 -0.005539257 -0.004553839 -0.0052652126 -0.0048477827
-0.0042945733 -0.0065406435 -0.003996535 -0.0040659 -0.00916327 -0.012998867 -0.008731714 -0.0072646635
-0.004719704 -0.0064299963 -0.008601985 -0.007383947 -0.0044585583 -0.0026658534 -0.0034170786 -0.006909062
-0.08471986 -0.08794469 -0.10720291 -0.07540113 -0.059822567 -0.079248875 -0.07711474 -0.08699867
-0.05409684 -0.049955886 -0.07959397 -0.07289413 -0.08768696 -0.0886505 -0.055447772 -0.07624628
-0.08456141 -0.09938213 -0.10210032 -0.07162168 -0.08575449 -0.0965657 -0.10010119 -0.10062949
-0.10123435 0.012073475 0.011693937 0.014974914 0.01833745 0.017856883 0.015023118 0.01359794
0.014066643 0.020605695 0.019847218 0.01420947 0.013122914 0.018414874 0.02576438 0.025280677
0.016375124 0.021548467 0.024738235 0.02504888 0.025164496 0.023533158 0.024989527 0.02396233
0.023719246 0.02464294 0.0 0.0 0.0 0.0 0.0 6e-45

exp_avg_sq f4 [32, 25]
00000000: 9087 713d c99f 673d 1f90 5b3d 2b4c 543d
00000010: 5214 5c3d c4c5 7b3d da5f 5f3d 6f76 3b3d
00000020: 1b99 4b3d 530a 573d bde6 7d3d d16d 543d
00000030: a9fb 093d 6281 2a3d 9463 423d df37 693d
00000040: 51f8 473d ef90 203d d700 273d a699 3b3d
00000050: 8d8c 573d f428 403d bdee 2e3d 59c1 2a3d
00000060: bd22 333d f3c9 3b3d 4757 4d3d 634c 783d
00000070: 7006 8c3d 3870 963d 26a2 3f3d 21a6 3e3d
00000080: 6bae 6f3d 5960 933d d113 9d3d 4a95 653d
00000090: 21f0 5e3d 6c10 683d c454 8a3d 6395 8c3d
000000a0: a054 753d 2139 753d d555 5b3d 441c 483d
000000b0: a02e 553d 8bf6 793d 2f48 733d a754 613d
000000c0: 1dae 463d fda9 4b3d f401 0000 f401 0000
000000d0: f401 0000 f401 0000 f401 0000 f401 0000
000000e0: f401 0000 f401 0000 f401 0000 f401 0000
000000f0: f401 0000 f401 0000 f401 0000 f401 0000
00000100: f401 0000 f401 0000 f401 0000 f401 0000
00000110: f401 0000 f401 0000 f401 0000 f401 0000
00000120: f401 0000 f401 0000 f401 0000 f401 0000
00000130: f401 0000 f401 0000 f401 0000 f401 0000
00000140: f401 0000 f401 0000 f401 0000 f401 0000
00000150: f401 0000 f401 0000 f401 0000 f401 0000
00000160: f401 0000 f401 0000 f401 0000 f401 0000
00000170: f401 0000 f401 0000 f401 0000 f401 0000
00000180: f401 0000 f401 0000 f401 0000 f401 0000
00000190: 7a00 143d 0404 033d 7800 123d e964 363d
000001a0: 04f3 523d f1ad 223d d1f7 063d 41bf 0e3d
000001b0: 38a4 483d 3630 683d dd60 203d d7ce 153d
000001c0: 4e7d 233d 4cff 713d c0cc 853d be63 243d
000001d0: 76aa 283d 4054 403d a3b0 703d bbb3 843d
000001e0: d3ec 293d 5c92 353d 9e55 4c3d 5037 733d
000001f0: 7c74 813d 52ba f23b cd39 e43b 1ae1 df3b
00000200: 5fc3 fa3b a66d 103c a722 093c 8edb fd3b
00000210: ae81 f23b 73fb 0b3c a5b4 263c 11d7 2d3c
00000220: df02 203c 9e23 243c 267b 333c f7f9 413c
00000230: 7cda 3a3c 5d1a 3e3c 4a7e 403c ec44 4c3c
00000240: c707 503c f36b 3f3c a2d2 423c ddda 4b3c
00000250: c9ec 543c 2b71 553c 2f84 c93d d06f c33d
00000260: b2c5 aa3d 652f 963d 0d7c 9a3d 4827 d93d
00000270: 2a69 ca3d b062 a73d 77ed a03d 3e37 b53d
00000280: e718 d63d d0a2 cd3d d6fe bf3d 0b17 df3d
00000290: 2358 e33d f48a b43d 09a6 973d acde 943d
000002a0: 9ed1 be3d 421d df3d d579 9d3d c070 8b3d
000002b0: d26e 923d 43c1 ae3d d059 cb3d 39ea 3a3d
000002c0: ee85 4e3d cc81 733d 053f 873d f378 8b3d
000002d0: fea6 373d 3025 433d 5406 6b3d 18ae 843d
000002e0: a633 873d eda0 2e3d c309 2c3d 6866 463d
000002f0: ffa3 753d e833 843d e0f4 203d ee3f 143d
00000300: 7ee1 1d3d 3e8a 533d 32d0 703d ef4a 133d
00000310: da98 0a3d f270 1e3d 2a94 483d 6441 623d
00000320: 3dee f03d 2470 f63d 0b72 003e 7adb f43d
00000330: 324c f13d 1c89 f33d 3ca7 fb3d 7b18 063e
00000340: 5592 003e a489 fc3d 21e7 073e c82e 0d3e
00000350: 5947 203e fc9a 133e a489 0c3e e709 ff3d
00000360: 7cd2 fd3d c8d9 063e 51ce 073e 0104 0a3e
00000370: a430 f63d aa2d fa3d 1ed6 fc3d 6654 fd3d
00000380: cf35 063e b948 b73c 40d5 b93c b4fb b13c
00000390: 4b67 a53c e4ce 9a3c 84b3 b73c cc24 ba3c
000003a0: e2d3 ac3c cca6 9b3c ea41 953c 4159 a33c
000003b0: f5e8 9e3c c972 983c 26a3 be3c 7921 c03c
000003c0: c748 793c 9b8c 5d3c 93fd 863c 390e b73c
000003d0: 4245 c93c a158 5f3c 00c3 6b3c 75f8 8d3c
000003e0: 009e ac3c 7bb1 bf3c 0000 0000 0000 0000
000003f0: 0000 0000 0000 0000 0000 0000 f401 0000
0.058967173 0.056548867 0.05360424 0.051830452 0.053730316 0.0614679 0.05453477 0.045767244
0.04970656 0.05250008 0.061987627 0.05186254 0.033687267 0.041627295 0.047458246 0.05693805
0.048820797 0.03920072 0.040772285 0.045800827 0.052624274 0.046914056 0.042708147 0.041688297
0.0437343 0.04584689 0.050132062 0.060619723 0.06837165 0.07345623 0.046785496 0.04654515
0.058515947 0.07196111 0.07669795 0.056050576 0.054428224 0.056656286 0.06754449 0.06864431
0.059895158 0.059868935 0.053548653 0.04885508 0.05204642 0.061026137 0.05939501 0.05501237
0.04850589 0.04972266 7e-43 7e-43 7e-43 7e-43 7e-43 7e-43
7e-43 7e-43 7e-43 7e-43 7e-43 7e-43 7e-43 7e-43
7e-43 7e-43 7e-43 7e-43 7e-43 7e-43 7e-43 7e-43
7e-43 7e-43 7e-43 7e-43 7e-43 7e-43 7e-43 7e-43
7e-43 7e-43 7e-43 7e-43 7e-43 7e-43 7e-43 7e-43
7e-43 7e-43 7e-43 7e-43 7e-43 7e-43 7e-43 7e-43
7e-43 7e-43 7e-43 7e-43 0.036133267 0.03198625 0.03564498 0.04452983
0.05150129 0.039716665 0.03295118 0.034850363 0.048984736 0.056686603 0.039154876 0.03657421
0.03991442 0.05908136 0.065331936 0.040134184 0.04117819 0.046955347 0.058762204 0.06479593
0.04148562 0.044329032 0.04988634 0.059378922 0.06321046 0.007407465 0.006964898 0.006832254
0.0076526846 0.008815205 0.008370078 0.00774712 0.007400713 0.008543837 0.010174905 0.010610358
0.0097663095 0.010018257 0.010954654 0.011839381 0.01140463 0.011602965 0.01174886 0.012467604
0.012697167 0.011683452 0.011891039 0.012442318 0.012995907 0.01302747 0.09839665 0.09542811
0.08338489 0.073332585 0.07543192 0.106031954 0.0988334 0.0817312 0.07857793 0.08848427
0.104539685 0.1004082 0.09374778 0.10893067 0.11100795 0.08815566 0.074047156 0.07269034
0.09317325 0.10894252 0.07689253 0.06808615 0.071500435 0.085329555 0.0992924 0.04563353
0.050420694 0.059449956 0.06603817 0.068101786 0.04483699 0.047642887 0.05737908 0.06478518
0.06601648 0.04263394 0.042001497 0.048437506 0.059970852 0.06455213 0.03929603 0.03619378
0.038545124 0.05164551 0.0587923 0.035960134 0.033837177 0.03868193 0.048969425 0.055238143
0.1176419 0.12033108 0.12543504 0.11955924 0.11782111 0.11891386 0.12287757 0.13095276
0.12555821 0.1233094 0.13271762 0.13787377 0.15652217 0.1441459 0.1372438 0.124530606
0.12393662 0.13169014 0.13262297 0.1347809 0.12020996 0.12215741 0.12345527 0.12369613
0.13106464 0.022373544 0.022684693 0.021726467 0.020190855 0.018897481 0.022424467 0.022722624
0.021097127 0.019000433 0.018219907 0.01994002 0.019398192 0.018609421 0.023271155 0.023453461
0.015215105 0.0135222925 0.016478335 0.02234565 0.024569158 0.013631971 0.014389753 0.017330388
0.021071434 0.023400059 0.0 0.0 0.0 0.0 0.0 7e-43

exp_avg f4 [32]
00000000: d4fc 2e3d b8f4 8f3d 0400 0000 0400 0000
00000010: af9a 4ebd 2db9 dd3a a774 b9bd b512 473c
00000020: 3cad 55bd c59a 77ba 0400 0000 dca5 593c
00000030: 4a6d 80bc 75de b03b 1098 153b 84c9 513c
00000040: 0400 0000 0400 0000 6f6b 9139 0400 0000
00000050: ebcd f13d 0400 0000 78fa cdbc 0400 0000
00000060: 806c a1bc e127 813d 0400 0000 736f 0abd
00000070: 0400 0000 0400 0000 3660 76bd 0400 0000
0.042721584 0.07029098 6e-45 6e-45 -0.050440487 0.0016916149 -0.09055453 0.012150456
-0.052167162 -0.00094453647 6e-45 0.013284173 -0.015677113 0.0053976127 0.0022826232 0.012804393
6e-45 6e-45 0.000277366 6e-45 0.11806854 6e-45 -0.025143847 6e-45
-0.019705057 0.063064344 6e-45 -0.033797693 6e-45 6e-45 -0.060150348 6e-45

exp_avg_sq f4 [32]
00000000: a273 243e 09df 373e f401 0000 f401 0000
00000010: 3528 1c3e dd5a ef3c 084b 8e3e f887 153e
00000020: 6b7a b53e 5993 693d f401 0000 1ff3 583d
00000030: e0df 243d 73a8 bb3c 797c 413c abde 723d
00000040: f401 0000 f401 0000 f440 5c3d f401 0000
00000050: 6a36 6c3e f401 0000 d775 513e f401 0000
00000060: e1ac 8a3d 9070 ec3c f401 0000 6e3e 953d
00000070: f401 0000 f401 0000 1f9b 2e3e f401 0000
0.16059735 0.17956175 7e-43 7e-43 0.15249713 0.029218132 0.2779162 0.14602649
0.3544496 0.057025287 7e-43 0.052966233 0.040252566 0.022907471 0.011809462 0.059294384
7e-43 7e-43 0.05377288 7e-43 0.23067632 7e-43 0.20455109 7e-43
0.06771255 0.028862268 7e-43 0.07287298 7e-43 7e-43 0.17051362 7e-43

exp_avg f4 [16, 32]
00000000: 5b2d 1c3a 081c 56bb 0000 0000 0400 0000
00000010: 2959 27bb 2b85 f5ba 6009 6b3b 449d 97bb
00000020: 82f4 39ba 6c70 32ba 0400 0000 7009 173b
00000030: 8586 b5ba 98a2 7336 61bb 5abb 75c7 a8ba
00000040: 0400 0000 0400 0080 5f8d 9bb9 0400 0080
00000050: 8065 e4ba 0400 0000 c18b 0a3b 0400 0080
00000060: f8e7 cdba 0706 a9ba 0400 0000 db8d e4ba
00000070: 0400 0000 0400 0080 894f 10bb 0000 0000
00000080: 550c 0b3b e184 8cba 0400 0080 0400 0000
00000090: 356d caba b331 66bb c5a8 6e3b 8a75 d5bb
000000a0: 35d1 90ba 169e b6ba 0400 0000 c41d 8c3b
000000b0: 4d07 cab9 e95f db35 55f4 36bb 7817 f1ba
000000c0: 0400 0080 0400 0080 dac6 a8ba 0400 0080
000000d0: dba2 06bb 0400 0000 c54f 8d3b 0400 0000
000000e0: 06d2 08bb 22f0 b9b9 0400 0000 eaf9 1bbb
000000f0: 0400 0000 0400 0080 9865 3dba 0400 0000
00000100: 36a1 553b 5702 a43b 0000 0000 0400 0080
00000110: 94b1 953b 0782 103c 7106 493a a6a3 cfb9
00000120: d9b0 cb3a f3a3 843b 0400 0000 0211 e93b
00000130: d3a8 e83a 06f2 c0b8 2c93 dc3b de2e 23bb
00000140: 0400 0000 0400 0080 5621 893b 0400 0080
00000150: b01d a33b 0400 0080 682f 823a 0400 0000
00000160: 00b5 103b 36cd 203c 0400 0000 69d0 ab3a
00000170: 0400 0000 0400 0000 ff90 aa3a 0400 0000
00000180: 11c5 8bbb b6e3 493b 0400 0000 0400 0080
00000190: d8da cf3a d408 993a 1093 43bc bebe 3b3b
000001a0: 5f49 ce39 b2b0 efba 0400 0000 3ab2 b4bc
000001b0: b69a 0a3a 519a c6b9 fc02 4b3b 6b4d a9b9
000001c0: 0400 0000 0400 0080 d1ce abb8 0400 0080
000001d0: 437b a939 0400 0080 5c35 c0bc 0400 0000
000001e0: 2db5 ce3a d848 07b9 0400 0000 64bc 4f3b
000001f0: 0400 0080 0400 0000 441d 603a 0400 0000
00000200: 30b9 983a 337c 643a 0400 0000 0400 0080
00000210: b6bb 173b affb 053b 2847 02b9 9767 8cb9
00000220: c525 be3a 1544 df3a 0000 0000 934e b53a
00000230: cbe6 5b39 39dc fdb8 1737 373b d5fd 4939
00000240: 0400 0000 0400 0000 3752 4639 0400 0080
00000250: 3f0a 5e3b 0400 0080 47dd a53a 0400 0080
00000260: 413f 0d3b c927 573b 0400 0000 d715 693a
00000270: 0000 0000 0400 0000 33c8 3239 0000 0000
00000280: 058c 1bbb 632d 7dbb 0400 0000 0400 0080
00000290: 0cc6 54ba 5836 143a 0168 84ba 4e0e 74bb
000002a0: b5ff 5b39 75c6 96ba 0400 0080 b84d 863b
000002b0: e96c 6e3a 7980 5339 b280 d7bb d0ec 98ba
000002c0: 0400 0000 0400 0080 3323 b2b8 0400 0000
000002d0: 759e eebb 0400 0080 be34 a23b 0400 0080
000002e0: 0381 803a e9c6 04bb 0400 0080 955e a8bb
000002f0: 0400 0080 0400 0000 ff3c 9f3a 0400 0000
00000300: 0fc0 5eba 32b8 8a39 0400 0080 0400 0000
00000310: 369d 15b9 5a65 4339 9dbe adb9 85c5 e439
00000320: 35ae c93a 6fbf 94b9 0400 0080 55af 1c3b
00000330: 022f 233a 8d80 83b8 1e7d c139 f8fb b335
00000340: 0400 0000 0400 0080 e191 81b8 0400 0000
00000350: 2fb4 85b9 0400 0000 f8ab 853b 0400 0080
00000360: 725d e03a 0e7e 6cba 0400 0080 0b33 b239
00000370: 0400 0080 0400 0080 7708 a73a 0000 0000
00000380: dae2 50bb 10f3 ab39 0000 0000 0400 0080
00000390: b58f 023b 0eeb ca3b 24bf 91bb ab83 9e3a
000003a0: 6888 f13a 5e43 833a 0000 0000 af20 65bc
000003b0: f2cf 383a fb6b 95b9 d432 403a c65e dbb8
000003c0: 0400 0000 0400 0000 9243 863a 0400 0080
000003d0: 1a05 0b39 0400 0080 ea3b 70bc 0400 0000
000003e0: 11ca d93b 0ca7 3eb8 0400 0000 f748 74b7
000003f0: 0000 0000 0400 0080 7d0e 6f3a 0400 0000
0.0005957686 -0.0032670517 0.0 6e-45 -0.0025535321 -0.0018731704 0.0035863742 -0.004626902
-0.00070936244 -0.00068069133 6e-45 0.0023046397 -0.0013849294 3.6304464e-06 -0.0033375847 -0.0012876826
6e-45 -6e-45 -0.00029669233 -6e-45 -0.0017425269 6e-45 0.0021140429 -6e-45
-0.0015709391 -0.0012895473 6e-45 -0.0017437296 6e-45 -6e-45 -0.0022020063 0.0
0.0021217067 -0.0010720753 -6e-45 6e-45 -0.0015443923 -0.0035124838 0.0036416512 -0.006514256
-0.0011048677 -0.0013932611 6e-45 0.0042760093 -0.00038533882 1.6344685e-06 -0.002791663 -0.0018393835
-6e-45 -6e-45 -0.0012876645 -6e-45 -0.0020543847 6e-45 0.004312488 6e-45
-0.0020877137 -0.00035464863 6e-45 -0.0023800083 6e-45 -6e-45 -0.00072249165 6e-45
0.003259731 0.0050051617 0.0 -6e-45 0.004568288 0.008820063 0.00076685013 -0.00039604044
0.0015540376 0.0040478646 6e-45 0.007112623 0.0017750509 -9.200354e-05 0.0067314114 -0.0024899761
6e-45 -6e-45 0.004184882 -6e-45 0.0049779043 -6e-45 0.0009932341 6e-45
0.002208054 0.009814551 6e-45 0.0013108376 6e-45 6e-45 0.0013013183 6e-45
-0.0042654355 0.0030805892 6e-45 -6e-45 0.0015858067 0.0011675605 -0.011936918 0.0028647627
0.00039346048 -0.0018286912 6e-45 -0.022057641 0.0005287336 -0.00037880478 0.003097712 -0.00032291873
6e-45 -6e-45 -8.192438e-05 -6e-45 0.0003232603 -6e-45 -0.023462944 6e-45
0.0015770547 -0.0001290174 6e-45 0.0031697983 -6e-45 6e-45 0.0008549283 6e-45
0.001165187 0.0008716017 6e-45 -6e-45 0.0023152656 0.0020444205 -0.00012424274 -0.0002678006
0.0014507106 0.001703384 0.0 0.0013832621 0.00020971445 -0.00012105 0.002795642 0.00019263414
6e-45 6e-45 0.00018913379 -6e-45 0.003388062 -6e-45 0.0012654447 -6e-45
0.0021552595 0.003283011 6e-45 0.0008891499 0.0 6e-45 0.00017049983 0.0
-0.0023734581 -0.003863179 6e-45 -6e-45 -0.00081166695 0.000565385 -0.0010101796 -0.0037239972
0.00020980726 -0.0011503237 -6e-45 0.0040986203 0.00090952084 0.00020170388 -0.006576621 -0.0011667255
6e-45 -6e-45 -8.494258e-05 6e-45 -0.007282073 -6e-45 0.004950135 -6e-45
0.0009804073 -0.0020260161 -6e-45 -0.005138228 -6e-45 6e-45 0.0012148916 6e-45
-0.0008497247 0.00026458647 -6e-45 6e-45 -0.00014268313 0.00018634406 -0.0003313915 0.00043634712
0.0015387001 -0.0002837139 -6e-45 0.0023908217 0.0006224961 -6.270511e-05 0.00036905048 1.3409872e-06
6e-45 -6e-45 -6.1783714e-05 6e-45 -0.00025501984 6e-45 0.004079338 -6e-45
0.0017117693 -0.0009021469 -6e-45 0.00033988836 -6e-45 -6e-45 0.0012743612 0.0
-0.0031873495 0.00032796757 0.0 -6e-45 0.0019922082 0.0061925715 -0.0044478346 0.0012093683
0.0018427493 0.0010014584 0.0 -0.013984843 0.0007050029 -0.00028499946 0.0007331793 -0.00010460387
6e-45 6e-45 0.0010243526 -6e-45 0.00013257973 -6e-45 -0.014662722 6e-45
0.0066464026 -4.5455105e-05 6e-45 -1.4560522e-05 0.0 -6e-45 0.00091192854 6e-45

exp_avg_sq f4 [16, 32]
00000000: 9594 7539 384b 9b39 0000 0000 f401 0000
00000010: 064b cf39 313f a639 10c9 073a 8012 983a
00000020: c34b 1238 2a3d 8a39 f401 0000 1781 763a
00000030: 18fe 4838 89a1 a634 9b69 8f3a 8f7c 3a39
00000040: f401 0000 f401 0000 96db 6b37 f401 0000
00000050: 5779 c539 f401 0000 6333 a23a f401 0000
00000060: 20d5 2339 1793 9339 f401 0000 0d8d ef39
00000070: f401 0000 f401 0000 9d0f 7039 0000 0000
00000080: 11f2 0d39 948f b639 f401 0000 f401 0000
00000090: ab0f 0d3a 3bbc 0f3b 4f7e de39 f505 903a
000000a0: 0dfe a238 88ad 5b39 f401 0000 0e9c ab3a
000000b0: ad4e 0a39 58f7 1a34 11ad 493a 55f9 5b39
000000c0: f401 0000 f401 0000 35c7 d939 f401 0000
000000d0: dc0a 2039 f401 0000 2e0c c93a f401 0000
000000e0: d77f f939 4a8b 7539 f401 0000 b804 063a
000000f0: f401 0000 f401 0000 7b17 c439 f401 0000
00000100: a5a8 a339 dd00 b43a 0000 0000 f401 0000
00000110: 09d3 773a 82b3 003b 27e3 e13a 3edd 143b
00000120: 1d16 a438 989b a23a f401 0000 dd0a 993a
00000130: f26c 7c38 b317 cd37 be63 103b 2eec ab39
00000140: f401 0000 f401 0000 20b4 8239 f401 0000
00000150: 005e ca3a f401 0000 74c1 ff3a f401 0000
00000160: f0fc b639 9ff5 783a f401 0000 c903 4d3a
00000170: f401 0000 f401 0000 a564 0f3a f401 0000
00000180: a5c4 bf39 bbcb 993a f401 0000 f401 0000
00000190: 1064 fd39 73a1 933a b5e7 e43a 780c 0e3b
000001a0: 8a34 2f38 dd2b 083a f401 0000 61e5 6a3b
000001b0: a012 8939 147a 4f37 51cd d63a ccae 7739
000001c0: f401 0000 f401 0000 9e9f 5439 f401 0000
000001d0: c09c c238 f401 0000 6753 903b f401 0000
000001e0: c653 7439 9854 d038 f401 0000 c8c6 6e3a
000001f0: f401 0000 f401 0000 a110 9e3a f401 0000
00000200: 2d20 3438 32d5 253a f401 0000 f401 0000
00000210: 0be0 aa3a bb2d ee3a 814c c73a 74af 883a
00000220: 0cab 3239 5600 2a3a 0000 0000 633e 243a
00000230: 8631 b838 f440 be35 5729 f13a 6a61 1539
00000240: f401 0000 f401 0000 42ad 6339 f401 0000
00000250: 4dbd ee39 f401 0000 b7d6 853a f401 0000
00000260: f67c 053a 9148 d439 f401 0000 315c 573a
00000270: 0000 0000 f401 0000 4582 b239 0000 0000
00000280: cd07 433a badc 3b3a f401 0000 f401 0000
00000290: b81f dd39 1012 da39 e62d 153a 71fb 8e3a
000002a0: 3ee7 5239 b989 b639 f401 0000 a046 e83a
000002b0: cf48 3239 6ab3 5b38 9417 f43a ec6d 3538
000002c0: f401 0000 f401 0000 ae3e 8b37 f401 0000
000002d0: 03ea 803a f401 0000 bd21 c43a f401 0000
000002e0: b23e 283a fb60 2f3a f401 0000 47fb 913a
000002f0: f401 0000 f401 0000 82af 113a f401 0000
00000300: 3a9f 0939 dcdf f838 f401 0000 f401 0000
00000310: 9b39 9b38 2cd9 e937 2d32 0439 7a4d e738
00000320: a1dc d537 d24f 7438 f401 0000 0d83 5b39
00000330: 8a34 1138 ac9b 0537 6c44 9b39 65cd 7e35
00000340: f401 0000 f401 0000 fe97 4a35 f401 0000
00000350: 1ee1 2939 f401 0000 67f8 1839 f401 0000
00000360: 82d9 ec38 186a ca38 f401 0000 069a 2739
00000370: f401 0000 f401 0000 e585 3539 0000 0000
00000380: 9abb 133a ea6c 013a 0000 0000 f401 0000
00000390: c803 713a cca2 5d3b 6154 0b3b 9187 0e3b
000003a0: d934 ed38 7508 2e3a 0000 0000 f5c3 d93a
000003b0: af38 9f39 3ba6 ae37 9198 833a d513 e839
000003c0: f401 0000 f401 0000 b952 263a f401 0000
000003d0: 1439 4137 f401 0000 9f01 003b f401 0000
000003e0: 2e52 503a 6eb4 cc38 f401 0000 89e3 473a
000003f0: 0000 0000 f401 0000 49ee ae3a f401 0000
0.00023420372 0.00029619946 0.0 7e-43 0.00039538014 0.0003170907 0.0005179802 0.0011602193
3.487967e-05 0.00026366982 7e-43 0.0009403391 4.792036e-05 3.1037442e-07 0.0010941507 0.00017784744
7e-43 7e-43 1.4058218e-05 7e-43 0.00037665173 7e-43 0.0012374934 7e-43
0.00015624287 0.00028147615 7e-43 0.00045690723 7e-43 7e-43 0.00022894 0.0
0.00013536985 0.0003482072 7e-43 7e-43 0.0005381058 0.0021932262 0.00042437247 0.0010988103
7.7720826e-05 0.00020950113 7e-43 0.0013092773 0.00013190015 1.4432351e-07 0.00076933304 0.00020978351
7e-43 7e-43 0.00041537886 7e-43 0.00015262834 7e-43 0.0015338713 7e-43
0.0004758823 0.0002341691 7e-43 0.00051123975 7e-43 7e-43 0.00037401528 7e-43
0.00031215433 0.0013733167 0.0 7e-43 0.0009453749 0.0019638245 0.0017233834 0.0022714878
7.824248e-05 0.001240599 7e-43 0.0011676211 6.0182945e-05 2.444894e-05 0.0022032107 0.0003279163
7e-43 7e-43 0.00024929736 7e-43 0.0015439391 7e-43 0.001951261 7e-43
0.00034902198 0.00094970496 7e-43 0.00078206934 7e-43 7e-43 0.00054700143 7e-43
0.0003657687 0.001173369 7e-43 7e-43 0.00048330473 0.0011263326 0.0017464074 0.0021674912
4.1772182e-05 0.00051945244 7e-43 0.0035842287 0.00026144553 1.2366585e-05 0.0016388093 0.00023620873
7e-43 7e-43 0.00020277358 7e-43 9.279838e-05 7e-43 0.0044044736 7e-43
0.00023300861 9.93397e-05 7e-43 0.00091086 7e-43 7e-43 0.0012059399 7e-43
4.294531e-05 0.0006326019 7e-43 7e-43 0.0013036741 0.0018171588 0.0015205295 0.0010428266
0.00017039123 0.00064850354 0.0 0.00062654 8.783028e-05 1.4175007e-06 0.0018399161 0.00014246037
7e-43 7e-43 0.0002171295 7e-43 0.00045535938 7e-43 0.0010211085 7e-43
0.0005092168 0.00040489857 7e-43 0.0008215337 0.0 7e-43 0.00034047864 0.0
0.0007439822 0.00071663747 7e-43 7e-43 0.00042176037 0.00041593658 0.00056907383 0.0010908676
0.00020113305 0.00034816356 7e-43 0.0017721243 0.00017002526 5.238076e-05 0.001862275 4.3256136e-05
7e-43 7e-43 1.6599279e-05 7e-43 0.0009835366 7e-43 0.0014963668 7e-43
0.0006418034 0.00066901714 7e-43 0.0011137509 7e-43 7e-43 0.0005557464 7e-43
0.00013124655 0.000118672586 7e-43 7e-43 7.401706e-05 2.7876893e-05 0.00012607193 0.000110293695
2.5494317e-05 5.824847e-05 7e-43 0.00020934288 3.4619625e-05 7.963663e-06 0.00029614882 9.492126e-07
7e-43 7e-43 7.547204e-07 7e-43 0.00016200959 7e-43 0.00014588387 7e-43
0.00011293871 9.651872e-05 7e-43 0.0001598374 7e-43 7e-43 0.00017311385 0.0
0.000563556 0.0004937189 0.0 7e-43 0.0009193984 0.0033818958 0.002126001 0.0021748284
0.00011310884 0.00066388334 0.0 0.0016614186 0.00030369076 2.0819823e-05 0.0010039975 0.00044265264
7e-43 7e-43 0.0006344724 7e-43 1.1516986e-05 7e-43 0.0019532216 7e-43
0.0007946816 9.761086e-05 7e-43 0.0007625153 0.0 7e-43 0.0013346161 7e-43

exp_avg f4 [16]
00000000: fc9b 8536 a10b ce38 2663 443c ad3d 36bd
00000010: 1c96 aa3b 2d9b ffbb ffcc 2c3c 2bf1 a2bc
00000020: c087 683c 0400 0000 0400 0000 44c8 fbbc
00000030: 4d3c c43c aa98 0b3c 9f6b 8dbc f84a 5ebc
3.981868e-06 9.8250115e-05 0.011986529 -0.044492412 0.0052058827 -0.007800481 0.010546922 -0.019890388
0.014192522 6e-45 6e-45 -0.030735143 0.023954535 0.008520285 -0.017263232 -0.013567679

exp_avg_sq f4 [16]
00000000: 9dcc 333c 0c02 893c bfc8 313d d8b8 1c3d
00000010: ac2a b63c 0def f03c 42f3 8c3c 0aec ea3c
00000020: dd32 e13b f401 0000 f401 0000 fa18 2c3d
00000030: 2151 b13c c458 043d 682d 383c 2f73 353c
0.010974077 0.016724609 0.043404337 0.03826222 0.022237144 0.029410863 0.017205838 0.028677005
0.0068725185 7e-43 7e-43 0.042016007 0.02164513 0.032311216 0.011241294 0.011074825

exp_avg f4 [3, 16]
00000000: d0c1 03b9 6009 b1b8 2cfb f239 b809 823a
00000010: 24e8 8639 fac2 f5b6 dd7f 6638 4aeb 6839
00000020: 04bc 31b9 0400 0080 0400 0000 5515 2dba
00000030: 3b64 5fb7 f536 59b9 066b 28ba 1586 2f3a
00000040: 4998 e0b8 02dc ae39 ea38 cab9 62b2 9538
00000050: 02f2 c5ba 9ada 50ba dfd1 89b9 3698 c8b9
00000060: 2732 bbba 0400 0000 0400 0000 37d1 20b8
00000070: dc01 b8ba 5f3b ea38 8e86 df39 1e05 01bb
00000080: d70d 7439 9099 82b9 0009 a3b8 e164 8bba
00000090: fb37 a43a 37c6 523a 4004 5a39 1145 2839
000000a0: aa69 d13a 0400 0000 0400 0080 8222 373a
000000b0: aac0 b93a 8b32 c838 f79e 6239 3647 aa3a
-0.00012565334 -8.441764e-05 0.00046344975 0.0009921109 0.0002573143 -7.3242672e-06 5.4955355e-05 0.00022212896
-0.00016950077 -6e-45 6e-45 -0.0006602605 -1.33151725e-05 -0.00020715206 -0.0006424639 0.00066957
-0.00010709518 0.00033351785 -0.00038570847 7.1381e-05 -0.0015102031 -0.00079671445 -0.00026287042 -0.0003826038
-0.0014281914 6e-45 6e-45 -3.834182e-05 -0.001403864 0.00011169048 0.00042634126 -0.0019686888
0.00023274809 -0.00024909945 -7.774122e-05 -0.0010634923 0.001252889 0.00080404006 0.00020791683 0.00016047458
0.0015976925 6e-45 -6e-45 0.0006986038 0.0014171798 9.5461575e-05 0.00021612259 0.0012991193

exp_avg_sq f4 [3, 16]
00000000: de1b 3639 3b66 af37 034f ef36 3aa2 d336
00000010: 43a5 0f37 7c2e 9636 f7d4 4534 ed4a f937
00000020: e764 2838 f401 0000 f401 0000 b765 8737
00000030: 8d76 8c39 6bb5 8937 97bb 9e38 955c ff37
00000040: 371e fd37 6068 1f36 cf55 9436 41f2 3236
00000050: 0292 a637 f8b5 9137 7f9a 8b36 479d ab37
00000060: 66b7 c437 f401 0000 f401 0000 8bad 0837
00000070: 1b30 3d37 98db 4636 0987 0f36 c539 6138
00000080: 7fc5 3f39 d0ba a637 9815 3d37 fd24 1637
00000090: 3e0d e337 e5c9 9a37 95f2 8b36 88b6 4638
000000a0: 5950 8238 f401 0000 f401 0000 08da 8037
000000b0: 24ab 8f39 421d 8337 e579 9c38 2461 9c38
0.00017367254 2.090923e-05 7.131953e-06 6.3071757e-06 8.561942e-06 4.47576e-06 1.8424531e-07 2.9718003e-05
4.0148294e-05 7e-43 7e-43 1.6140619e-05 0.00026791208 1.6416152e-05 7.5689684e-05 3.044148e-05
3.017402e-05 2.37536e-06 4.420733e-06 2.6665077e-06 1.9856732e-05 1.7370083e-05 4.1605085e-06 2.0458026e-05
2.3450422e-05 7e-43 7e-43 8.146638e-06 1.1276478e-05 2.963212e-06 2.1387261e-06 5.3697982e-05
0.00018288752 1.9875733e-05 1.1270306e-05 8.949309e-06 2.7066675e-05 1.8452245e-05 4.170763e-06 4.7376874e-05
6.213849e-05 7e-43 7e-43 1.5360318e-05 0.00027402595 1.5630041e-05 7.461364e-05 7.4567535e-05

exp_avg f4 [3]
00000000: 143d 013a f76a 81bb b886 623b
0.0004930061 -0.003949519 0.0034565162

exp_avg_sq f4 [3]
00000000: 5c88 a73a 48d6 0c3a 64c5 cb3a
0.0012781727 0.00053725066 0.0015546498

loss f8 []
00000000: cdcc d4f4 cb5e 953f
0.020869433229745483
