3_no_regu_epoch_edge_detector.pth (torch, 25353 bytes, 19 tensors)

model.0.weight f4 [32, 25]
-0.079676114 -0.10353746 -0.04916999 -0.0700018 -0.030060241 -0.05408884 -0.1397853 -0.17510371
0.01419913 -0.010122873 -0.07247061 -0.09609196 -0.14398083 0.09542244 0.0033559778 -0.056896728
-0.13064118 -0.13427272 0.03506668 -0.06994806 0.012986816 -0.07902732 -0.07839555 -0.018870952
-0.020833056 -0.0066622803 0.21718022 0.3569746 0.1838294 0.06375566 -0.13384216 0.08652347
0.5917386 0.24185483 -0.21419376 -0.6634691 -0.5325252 0.71210045 -0.32173473 -0.5519251
-0.6013292 0.089170165 1.0857185 0.35322905 -0.4835361 -0.14469287 -0.23182301 0.012753149
-0.2685105 -0.37893236 -0.016829554 -0.07657974 -0.025860677 -0.08892648 -0.056638416 0.043969482
0.0044749174 0.050756067 0.051605295 0.03752591 -0.09291432 -0.14693123 -0.05258752 -0.09493369
-0.04881498 -0.102383986 -0.035902046 0.082935035 -0.013953611 -0.08166178 -0.08389754 -0.07058877
-0.0012071173 0.00041313277 -0.06247977 0.38794175 0.11386534 0.033416238 0.18790081 0.45157224
0.51463556 -0.19063954 -0.74002427 -0.27566308 0.5147542 0.7176236 -0.80047727 -0.8372227
-0.9176799 0.6862143 0.36300403 -0.1956914 -0.26936975 -0.34193683 0.21752125 0.012815736
-0.12034929 -0.19130063 -0.14250386 0.028218443 0.08248417 -0.08018201 -0.089952946 -0.20183842
0.28710884 -0.014687344 0.2779372 -0.211791 -0.7470287 0.67515963 -0.19535628 0.80609787
-0.34388223 -1.9619125 -0.26000494 0.11703277 0.39886776 -0.035157185 -0.4139911 0.20755495
-0.07591755 0.18996541 0.03871169 -0.19861303 -0.28583425 -0.14124352 -0.11842915 0.03852785
0.2295997 -0.19579738 -0.27992368 0.14140397 0.49367735 0.15717226 -0.24259038 -0.055433515
0.4265995 0.8403627 0.14099076 -0.2487752 -0.31527033 -0.7675417 -0.9005043 -0.9154854
-0.5356929 -0.010088891 0.17190565 0.3590245 0.1550205 -0.20986956 -0.08912988 -0.2012619
-0.27441004 -0.05782944 -0.057462726 -0.24156886 -0.4061543 -0.52699405 -0.061171785 -0.10733894
-0.25449505 -0.051636763 0.3023555 -0.250349 -0.5227983 -0.30659017 -0.03730425 0.10808313
-0.024334474 -0.17808636 -0.21097392 -0.07150009 0.045257557 -0.05048852 -0.04293099 -0.08429058
-0.103327416 -0.008133488 -0.13235267 -0.12942171 -0.108001016 -0.14399356 -0.3994785 -0.4394988
-0.21467362 -0.075250685 0.14447235 0.049477134 -0.26285362 -0.18689734 -0.05514992 0.047392733
0.034562957 -0.20869735 -0.1803855 -0.030256404 0.00019342378 -0.05593025 -0.18639667 -0.24508092
-0.10295158 0.2607365 0.17510074 0.019313628 0.14898904 0.15814707 0.017314693 -0.5809744
0.1801759 0.22372259 0.28451836 -0.22330938 -7.7407637 -0.9246393 0.09512583 0.09893641
-0.47554648 -1.245058 -1.0722982 0.12708095 -0.12836523 -0.18691392 -0.5085875 -0.16953132
-0.22486381 0.0067636734 -0.076693304 -0.07375697 -0.083634995 0.00018981051 -0.04994498 0.03520472
-0.04820236 -0.09039261 -0.065620884 -0.017575905 0.12153347 -0.098343335 -0.17776209 -0.09676803
-0.03565311 0.06303873 -0.12545244 -0.09765699 0.037641633 -0.02604701 0.018835044 -0.061257865
-0.08256174 -0.054511867 0.16687913 0.36180857 0.6193604 0.32946277 0.17372404 0.09153744
00000000: 3b2d a3bd 730b d4bd 7966 49bd 1b5d 8fbd
00000010: e540 f6bc 428c 5dbd e123 0fbe 634e 33be
00000020: 78a3 683c 68da 25bc 796b 94bd ddcb c4bd
00000030: b66f 13be d76c c33d f7ef 5b3b 8b0c 69bd
00000040: cdc6 05be ca7e 09be 14a2 0f3d ee40 8fbd
00000050: a7c6 543c 13d9 a1bd d98d a0bd 4197 9abc
00000060: 16aa aabc 424f dabb 7e64 5e3e 60c5 b63e
00000070: c63d 3c3e 5492 823d eb0d 09be 3833 b13d
00000080: 2e7c 173f cba8 773e 9c55 5bbe 1cd9 29bf
00000090: 9253 08bf 374c 363f 6aba a4be f74a 0dbf
000000a0: b6f0 19bf d99e b63d d3f8 8a3f 70da b43e
000000b0: 0b92 f7be 5e2a 14be 0363 6dbe 95f2 503c
000000c0: 357a 89be 6c03 c2be 22de 89bc d7d5 9cbd
000000d0: c5d9 d3bc 161f b6bd affd 67bd 5819 343d
000000e0: 54a2 923b 98e5 4f3d 1360 533d c5b4 193d
000000f0: dd49 bebd 2475 16be 0366 57bd 986c c2bd
00000100: 37f2 47bd b2ae d1bd 060e 13bd d8d9 a93d
00000110: b09d 64bc 4b3e a7bd 79d2 abbd d890 90bd
00000120: 2338 9eba be99 d839 caea 7fbd 4da0 c63e
00000130: 3b32 e93d 77df 083d 1269 403e 7a34 e73e
00000140: 28bf 033f 0337 43be 3b72 3dbf b623 8dbe
00000150: eec6 033f 2eb6 373f 14ec 4cbf 3a54 56bf
00000160: 12ed 6abf beab 2f3f aadb b93e 5463 48be
00000170: d5ea 89be 5812 afbe e4bd 5e3e 18f9 513c
00000180: b079 f6bd 50e4 43be 88ec 11be 5d2a e73c
00000190: 76ed a83d 7736 a4bd 4039 b8bd bbae 4ebe
000001a0: eeff 923e 30a3 70bc c94d 8e3e bddf 58be
000001b0: 463d 3fbf 43d7 2c3f 7a0b 48be 6e5c 4e3f
000001c0: 5511 b0be f31f fbbf 5e1f 85be e0ae ef3d
000001d0: 6538 cc3e fb00 10bd a4f6 d3be 4989 543e
000001e0: a97a 9bbd 4b86 423e 2690 1e3d 3761 4bbe
000001f0: de58 92be 24a2 10be fb8a f2bd 61cf 1d3d
00000200: 2f1c 6b3e 1c7f 48be 2852 8fbe 34cc 103e
00000210: 47c3 fc3e c4f1 203e 9d69 78be 410e 63bd
00000220: 406b da3e 0322 573f e25f 103e edbe 7ebe
00000230: 1d6b a1be 9d7d 44bf 7387 66bf 405d 6abf
00000240: 2b23 09bf e04b 25bc 0908 303e 0fd2 b73e
00000250: b2bd 1e3e 0ce8 56be ba89 b6bd 9917 4ebe
00000260: 797f 8cbe 90de 6cbd 095e 6bbd d45d 77be
00000270: 75f3 cfbe 15e9 06bf 448f 7abd 85d4 dbbd
00000280: 2d4d 82be 1281 53bd 57ce 9a3e be2d 80be
00000290: 1cd6 05bf 63f9 9cbe 57cc 18bd b05a dd3d
000002a0: 1759 c7bc 455c 36be 8c09 58be a46e 92bd
000002b0: fd5f 393d 0dcd 4ebd 68d8 2fbd 8aa0 acbd
000002c0: 539d d3bd 5242 05bc 7587 07be 2087 04be
000002d0: a32f ddbd 0c73 13be 7288 ccbe fd05 e1be
000002e0: 67d3 5bbe 081d 9abd 8ff0 133e 89a8 4a3d
000002f0: c094 86be 0462 3fbe e2e4 61bd e21e 423d
00000300: e391 0d3d c2b4 55be fab6 38be 47dc f7bc
00000310: cdd1 4a39 1e17 65bd c5de 3ebe 7ef6 7abe
00000320: 47d8 d2bd 417f 853e 9c4d 333e 9d37 9e3c
00000330: 9590 183e 4ef1 213e 8bd7 8d3c bdba 14bf
00000340: 0880 383e 8917 653e 64ac 913e 37ab 64be
00000350: 56b4 f7c0 29b5 6cbf 55d1 c23d 2c9f ca3d
00000360: d47a f3be 0f5e 9fbf 1141 89bf 8221 023e
00000370: 2d72 03be 5d66 3fbe ca32 02bf 9e99 2dbe
00000380: b342 66be cea1 dd3b 6111 9dbd e50d 97bd
00000390: d348 abbd df07 4739 1b93 4cbd d332 103d
000003a0: d66f 45bd c31f b9bd 3e64 86bd 58fb 8fbc
000003b0: 8ae6 f83d 3b68 c9bd 4407 36be 512e c6bd
000003c0: ff08 12bd 731a 813d 9b76 00be 6300 c8bd
000003d0: 1d2e 1a3d 8a60 d5bc f34b 9a3c 87e9 7abd
000003e0: 2116 a9bd d647 5fbd 5de2 2a3e f93e b93e
000003f0: 678e 1e3f 58af a83e b7e4 313e fb77 bb3d

model.0.bias f4 [32]
-0.047152083 -0.027464982 -0.025840944 -0.03223117 0.24719878 0.052814957 -0.030617043 -0.01858302
0.103361614 -0.062601626 0.006791757 -0.026302926 -0.1187733 0.20130894 -0.12859504 -0.028568223
0.046229143 0.24582168 0.011692165 -0.017562415 0.2109316 -0.19353792 -0.16458865 0.103016384
0.09931967 0.29180077 0.19190326 0.11273421 -0.026060393 -0.03778628 -0.059171014 -0.11240698
00000000: 8b22 41bd 3efe e0bc 63b0 d3bc d504 04bd
00000010: ad21 7d3e 7f54 583d 98d0 fabc 6b3b 98bc
00000020: 41af d33d 4835 80bd 638d de3b 3c79 d7bc
00000030: 6a3f f3bd ee23 4e3e 6bae 03be e807 eabc
00000040: c55a 3d3d aeb8 7b3e 7f90 3f3c 0edf 8fbc
00000050: 74fe 573e ce2e 46be ed89 28be 41fa d23d
00000060: 1c68 cb3d e966 953e 4a82 443e 32e1 e63d
00000070: 9b7c d5bc c9c5 1abd 4e5d 72bd a135 e6bd

model.2.weight f4 [16, 32]
0.08056893 0.06320157 0.0053560967 0.8554901 -0.08832824 -0.24467583 -0.43099716 0.030978838
1.102701 0.040054582 0.48677137 0.01038929 0.37745082 -0.31345388 0.43757123 -0.48917946
0.93238527 -0.12456414 -0.7669777 0.029164378 0.5098193 0.61656165 0.2739838 0.17338526
0.08445786 2.4415336 -0.11265338 0.3317116 -0.26074058 -0.032374512 0.0039739977 -0.032194845
0.14028108 0.014678842 0.08376627 -0.39135998 0.19257323 -0.13689475 0.12887241 0.0932582
-0.016316937 -0.024530832 -0.9652091 -0.16119727 -0.3226304 0.96179634 -0.40412366 0.83028
-0.36017781 0.33563754 -0.20977938 -0.14696722 -0.15670583 0.4765149 -0.47484183 0.4662599
0.27499276 -0.34839258 0.582911 -0.07106063 0.67780906 -0.02387757 0.0044779996 -0.032168716
0.036198027 -0.21225783 -0.008801863 -0.64778703 0.4686229 0.6343693 -0.01122268 0.019347783
-0.7343798 0.022866853 -0.22752948 -0.02545236 -0.5262339 -0.19539477 -0.23582101 0.5518582
-0.55540824 0.49797818 0.70458627 0.10395254 -0.19461519 -0.46160975 -0.5312744 0.1003013
0.4124094 -0.090720885 -0.12532972 -0.053609442 0.59640133 -0.0018171206 0.0145825725 0.004350577
-0.007295537 0.21203105 0.056146737 0.77098316 0.1309748 -0.37682033 0.023815852 0.0735716
0.65846467 -0.1444966 0.23234783 -0.00540866 -0.4059701 -0.16795501 -0.21296136 -0.5093186
0.43995363 -0.42851967 -1.4375771 -0.23495072 0.16896945 -0.03990265 0.86840767 0.079337575
-0.17039062 0.6799404 -0.21353345 -0.103865996 -0.96084094 -0.005532591 -0.00315454 -0.10848746
-0.0986793 -0.81460214 -0.14676678 0.05857772 0.3364271 0.29728258 0.5430947 0.26663297
0.56339717 0.0016820738 -0.17242478 -0.07293876 -0.031511515 -0.058531996 0.083762 -0.4726033
1.0617552 0.4472761 -0.16215026 -0.025580022 0.48404673 0.13654537 -0.119091496 0.22155523
-0.15717229 3.1869912 0.68071115 1.6597204 -0.15822652 -0.009298175 -0.0029143705 0.11629996
-0.10589643 -0.46663916 -0.033309706 -0.50136983 -0.37696806 0.16299999 -0.014950993 0.087969586
0.6983689 -0.1711619 -0.688819 -0.0073122745 -0.10929536 0.37924376 0.28161502 -1.5334187
0.53896844 0.19281445 -1.2269282 -0.23585081 0.5622193 -0.42247587 -0.718183 0.27208638
-0.15280378 0.63878995 0.2581601 0.4675995 -1.3371003 0.0126314135 -0.018564431 -0.15425478
-0.0535193 -1.0745193 0.038804695 -0.5108454 0.3228368 0.21735337 -0.105213314 -0.19024526
-0.33919805 0.024992837 -0.33869284 0.01843248 -0.325096 -0.06488477 -0.15012103 0.22513397
-0.9241318 -0.091699556 0.79746646 0.08731986 -0.27653152 -0.22663878 -0.12544225 0.094417356
0.27860382 -0.0024357024 -0.1417116 -0.015462048 0.6329699 0.012539245 -0.014239463 -0.027246756
0.03492089 -0.3735863 0.021599863 -0.5003337 0.41951624 -0.1589542 0.11659411 0.022349548
-0.28291628 -0.04503043 -0.37403905 -0.022022177 -0.46430486 0.4434223 -0.3229631 0.4548364
-0.9027281 -0.13609332 0.70884657 0.11803642 -0.1902923 -0.66917455 -0.6197662 -0.01958765
0.30505493 -0.1281478 -0.10283664 -0.21141101 0.47182944 -0.026036927 -0.05789048 -0.004767638
00000000: 5301 a53d d36f 813d 3282 af3b 6601 5b3f
00000010: 70e5 b4bd 4d8c 7abe a9ab dcbe 55c7 fd3c
00000020: 4e25 8d3f 4610 243d 193a f93e d737 2a3c
00000030: 3c41 c13e 077d a0be 5609 e03e bb75 fabe
00000040: cdb0 6e3f 7c1b ffbd a758 44bf 22ea ee3c
00000050: 8583 023f fcd6 1d3f 9b47 8c3e e88b 313e
00000060: 3ef8 ac3d 1642 1c40 d1b6 e6bd 1ad6 a93e
00000070: ca7f 85be 239b 04bd 4f38 823b bede 03bd
00000080: d8a5 0f3e 877f 703c a68d ab3d 5660 c8be
00000090: eb31 453e 232e 0cbe 21f7 033e 28fe be3d
000000a0: 19ab 85bc e2f4 c8bc f217 77bf e610 25be
000000b0: d02f a5be 4938 763f 4ce9 cebe 3b8d 543f
000000c0: 3a69 b8be afd8 ab3e 68d0 56be 937e 16be
000000d0: 7e77 20be c3f9 f33e 781e f3be 9eb9 ee3e
000000e0: dacb 8c3e 8360 b2be a839 153f 3c88 91bd
000000f0: e584 2d3f e59a c3bc 2fbc 923b 58c3 03bd
00000100: 6244 143d 1e5a 59be b035 10bc 5fd5 25bf
00000110: 57ef ef3e 0766 223f 55df 37bc 3e7f 9e3c
00000120: 5100 3cbf 4453 bb3c 7dfd 68be 7881 d0bc
00000130: 44b7 06bf 9115 48be 107b 71be 9446 0d3f
00000140: 3c2f 0ebf fff6 fe3e c45f 343f 12e5 d43d
00000150: 3449 47be 1d58 ecbe 9901 08bf c56a cd3d
00000160: 5327 d33e dfcb b9bd 6f56 00be 9395 5bbd
00000170: c2ad 183f 732c eeba beeb 6e3c 498f 8e3b
00000180: 660f efbb ab1e 593e 1ffa 653d 275f 453f
00000190: 421e 063e 98ee c0be 7619 c33c b5ac 963d
000001a0: 2491 283f ebf6 13be 97ec 6d3e 213b b1bb
000001b0: 50db cfbe 66fc 2bbe 8b12 5abe b462 02bf
000001c0: 9a41 e13e ee66 dbbe 8702 b8bf ec96 70be
000001d0: 5406 2d3e f670 23bd f74f 5e3f bd7b a23d
000001e0: e17a 2ebe 9310 2e3f 83a8 5abe b2b7 d4bd
000001f0: acf9 75bf bd4a b5bb 66bc 4ebb ac2e debd
00000200: 5f18 cabd c489 50bf 084a 16be 31ef 6f3d
00000210: 2c40 ac3e 6c35 983e 4108 0b3f 1e84 883e
00000220: cc3a 103f 0879 dc3a 1f90 30be eb60 95bd
00000230: 3812 01bd 3fbf 6fbd 698b ab3d 0ff9 f1be
00000240: 98e7 873f 5f01 e53e b80a 26be 328d d1bc
00000250: f9d4 f73e 8dd2 0b3e 3ee6 f3bd 60df 623e
00000260: c6f1 20be aaf7 4b40 1643 2e3f b871 d43f
00000270: 2206 22be 5f57 18bc 06ff 3ebb ac2e ee3d
00000280: 3ae0 d8bd 54eb eebe c26f 08bd c659 00bf
00000290: f501 c1be 78e9 263e 02f5 74bc 6629 b43d
000002a0: 4ec8 323f 1145 2fbe 7156 30bf ce9b efbb
000002b0: 3fd6 dfbd 3d2c c23e d82f 903e 1047 c4bf
000002c0: d6f9 093f 2771 453e fc0b 9dbf e082 71be
000002d0: 9bed 0f3f c24e d8be d7da 37bf e84e 8b3e
000002e0: 9878 1cbe bd87 233f 902d 843e 3469 ef3e
000002f0: 1a26 abbf fdf3 4e3c 6f14 98bc f7f4 1dbe
00000300: 0e37 5bbd d989 89bf acf1 1e3d c4c6 02bf
00000310: dd4a a53e e291 5e3e 147a d7bd a7cf 42be
00000320: 5eab adbe c7bd cc3c 2669 adbe b6ff 963c
00000330: fc72 a6be 4ee2 84bd 54b9 19be 8589 663e
00000340: e793 6cbf facc bbbd c326 4c3f c1d4 b23d
00000350: 8a95 8dbe ff13 68be ef73 00be e35d c13d
00000360: 29a5 8e3e 4ea0 1fbb d81c 11be 8854 7dbc
00000370: 510a 223f 6871 4d3c a34c 69bc 9734 dfbc
00000380: 3509 0f3d b446 bfbe 32f2 b03c df15 00bf
00000390: d5ca d63e e4c4 22be e5c8 ee3d 6616 b73c
000003a0: 67da 90be d471 38bd 0c82 bfbe da67 b4bc
000003b0: 5eb9 edbe 3f08 e33e 6b5b a5be 51e0 e83e
000003c0: 3019 67bf 0c5c 0bbe f876 353f 14bd f13d
000003d0: fcdb 42be 064f 2bbf ffa8 1ebf 4876 a0bc
000003e0: 2930 9c3e 2d39 03be 049c d2bd 217c 58be
000003f0: a193 f13e 654b d5bc 911e 6dbd d939 9cbb

model.2.bias f4 [16]
0.11998321 0.05614788 0.37197384 0.3076142 -0.34499848 0.82885814 0.176508 0.28935692
0.27808836 -0.08914015 0.22492017 0.26518 0.23912992 -0.051987328 0.39571458 -0.13719061
00000000: c2b9 f53d 52fb 653d 5b73 be3e 9c7f 9d3e
00000010: a4a3 b0be 0c30 543f 83be 343e 9726 943e
00000020: 9961 8e3e 1c8f b6bd 7951 663e acc5 873e
00000030: 79de 743e aaf0 54bd 1a9b ca3e b27b 0cbe

model.4.weight f4 [2, 16]
-0.6045809 0.84323734 0.72856134 -2.155948 -0.14398119 -3.8598144 0.5199492 0.60309106
0.6099077 1.0492489 0.4366925 0.50984794 0.4985625 -0.057336677 -2.068642 -0.006770086
0.59000033 -0.84069926 -0.6723156 2.1508813 0.15548965 3.8081954 -0.526487 -0.71505564
-0.6834192 -0.9805573 -0.47451526 -0.5369126 -0.5365559 0.010467667 2.121646 -0.085818805
00000000: d0c5 1abf 67de 573f ff82 3a3f 0dfb 09c0
00000010: ce6f 13be 3307 77c0 641b 053f 2d64 1a3f
00000020: e922 1c3f ca4d 863f 2996 df3e 6585 023f
00000030: 9643 ff3e ddd9 6abd a164 04c0 99d7 ddbb
00000040: 430a 173f 1138 57bf e01c 2cbf 0aa8 0940
00000050: ae38 1f3e 79b9 7340 dac7 06bf e30d 37bf
00000060: 90f4 2ebf ce05 7bbf aaf3 f2be 1b73 09bf
00000070: ba5b 09bf 9480 2b3c 0cc9 0740 c5c1 afbd

model.4.bias f4 [2]
0.065891355 -0.06264933
00000000: 0cf2 863d 4b4e 80bd

exp_avg f4 [32, 25]
6e-45 6e-45 -6e-45 6e-45 -6e-45 6e-45 6e-45 -6e-45
-6e-45 -6e-45 6e-45 6e-45 -6e-45 -6e-45 -6e-45 6e-45
6e-45 -6e-45 -6e-45 -6e-45 6e-45 6e-45 -6e-45 -6e-45
-6e-45 -0.0011121196 -0.0009932872 -0.0035294886 -0.004035465 -0.0041995198 -0.0012885766 -0.0014601869
-0.0036506336 -0.004317618 -0.0047099097 -0.0010060583 -0.00201425 -0.0041628256 -0.0046973387 -0.0048321597
-0.0010387085 -0.00253872 -0.0045398637 -0.00508567 -0.0051253214 -0.0013203399 -0.0033450222 -0.0045712567
-0.004853487 -0.0048403353 6e-45 6e-45 6e-45 6e-45 6e-45 6e-45
6e-45 6e-45 -6e-45 -6e-45 -6e-45 6e-45 6e-45 6e-45
-6e-45 -6e-45 6e-45 -6e-45 -6e-45 -6e-45 -6e-45 -6e-45
-6e-45 -6e-45 -6e-45 -0.09810088 -0.07731437 -0.049191557 -0.0492308 -0.049302045
-0.098090135 -0.07729413 -0.049228597 -0.04925169 -0.049373887 -0.098094456 -0.08537964 -0.04932078
-0.049324907 -0.049352624 -0.098147325 -0.09089871 -0.05206257 -0.049361072 -0.049357843 -0.0982243
-0.090920754 -0.05207048 -0.04937353 -0.049374912 -0.0007232889 -0.00070375303 -0.000530511 -0.0002873324
-0.00024197812 -0.0007386734 -0.0007354717 -0.0005578316 -0.00021878925 -0.00018018465 -0.00075439224 -0.00075262145
-0.0005627863 -0.00017200636 -0.00016757997 -0.0007045357 -0.00067702756 -0.0005197109 -0.00019010046 -0.00016708799
-0.00064080313 -0.0006317598 -0.00048549718 -0.00021797547 -0.00015568969 -3.416745e-05 -0.00014860628 -0.00015713487
-0.00014063624 -9.1594826e-05 -2.2342234e-05 -0.00016945988 -0.00016399744 -0.00011691856 -7.075584e-05 -0.00020200587
-0.00016144662 -0.0001507237 -8.87854e-05 -5.3436168e-05 -0.00017775972 -0.00013957455 -7.421295e-05 0.00013928609
0.00017349518 -0.0001175021 -9.9163706e-05 -7.526728e-05 -6.572268e-05 -6.851518e-05 6e-45 6e-45
6e-45 6e-45 6e-45 6e-45 6e-45 6e-45 -6e-45 6e-45
6e-45 6e-45 6e-45 6e-45 6e-45 6e-45 6e-45 6e-45
6e-45 6e-45 6e-45 6e-45 6e-45 6e-45 6e-45 -6e-45
-6e-45 -6e-45 -6e-45 -6e-45 -6e-45 6e-45 6e-45 6e-45
-6e-45 6.0462516e-15 6.0462516e-15 4.606668e-15 6e-45 -6e-45 6.0462516e-15 6.0462516e-15
3.7429166e-15 6e-45 -6e-45 6.0462516e-15 3.7429166e-15 6e-45 6e-45 -6e-45
3.5923178e-05 2.296485e-05 4.1400144e-05 3.0239176e-05 1.4169383e-05 4.949748e-05 5.402442e-05 7.7363975e-06
-2.5467664e-06 -6.4545084e-06 4.7155605e-05 4.9990293e-05 5.6182025e-06 -2.0654888e-05 -1.8741595e-05 1.7524239e-05
1.7065653e-05 2.4949773e-06 1.7474241e-10 -8.129649e-06 6.810457e-06 1.3413856e-05 2.217972e-06 -4.6793434e-13
-1.29295925e-08 6e-45 6e-45 6e-45 6e-45 6e-45 -1.2868086e-17 -1.246439e-17
-1.5138937e-18 -6e-45 6e-45 -1.2868086e-17 -1.246439e-17 -1.5138937e-18 6e-45 6e-45
-1.2868086e-17 -1.246439e-17 -1.5138937e-18 -6e-45 6e-45 -1.2868086e-17 -1.1152343e-17 -8.5787315e-19
-6e-45 6e-45 0.0017675774 0.0015585321 -0.0015264661 -0.0017622842 -0.001757378 0.001522149
00000000: 0400 0000 0400 0000 0400 0080 0400 0000
00000010: 0400 0080 0400 0000 0400 0000 0400 0080
00000020: 0400 0080 0400 0080 0400 0000 0400 0000
00000030: 0400 0080 0400 0080 0400 0080 0400 0000
00000040: 0400 0000 0400 0080 0400 0080 0400 0080
00000050: 0400 0000 0400 0000 0400 0080 0400 0080
00000060: 0400 0080 8bc4 91ba 3031 82ba fe4e 67bb
00000070: ef3b 84bb 209c 89bb 75e5 a8ba be63 bfba
00000080: 783f 6fbb ce7a 8dbb 9655 9abb b7dd 83ba
00000090: 8201 04bb 5068 88bb 22ec 99bb 1857 9ebb
000000a0: 4625 88ba a760 26bb 23c3 94bb b1a5 a6bb
000000b0: 50f2 a7bb 410f adba 2938 5bbb 7bca 95bb
000000c0: 000a 9fbb ad9b 9ebb 0400 0000 0400 0000
000000d0: 0400 0000 0400 0000 0400 0000 0400 0000
000000e0: 0400 0000 0400 0000 0400 0080 0400 0080
000000f0: 0400 0080 0400 0000 0400 0000 0400 0000
00000100: 0400 0080 0400 0080 0400 0000 0400 0080
00000110: 0400 0080 0400 0080 0400 0080 0400 0080
00000120: 0400 0080 0400 0080 0400 0080 1de9 c8bd
00000130: ff56 9ebd 167d 49bd 3ca6 49bd f1f0 49bd
00000140: 7be3 c8bd 634c 9ebd eda3 49bd 24bc 49bd
00000150: 463c 4abd bfe5 c8bd 85db aebd 9604 4abd
00000160: ea08 4abd fa25 4abd 7701 c9bd 1a29 babd
00000170: 903f 55bd d62e 4abd 732b 4abd d229 c9bd
00000180: a934 babd db47 55bd e63b 4abd 593d 4abd
00000190: 199b 3dba 117c 38ba fe11 0bba 1aa5 96b9
000001a0: 82bb 7db9 88a3 41ba accc 40ba 723b 12ba
000001b0: cb6a 65b9 f3ef 3cb9 68c2 45ba 924b 45ba
000001c0: f387 13ba 9b5c 34b9 68b8 2fb9 97b0 38ba
000001d0: 8d7a 31ba 353d 08ba b455 47b9 5734 2fb9
000001e0: 92fb 27ba af9c 25ba 548a feb9 5890 64b9
000001f0: a240 23b9 054f 0fb8 32d3 1bb9 92c4 24b9
00000200: c177 13b9 9916 c0b8 956b bbb7 0ab1 31b9
00000210: baf6 2bb9 2d32 f5b8 c162 94b8 8ad1 53b9
00000220: ff49 29b9 960b 1eb9 4c32 bab8 a620 60b8
00000230: 0365 3ab9 c25a 12b9 c6a2 9bb8 530d 1239
00000240: 42ec 3539 766b f6b8 1cf6 cfb8 d0d8 9db8
00000250: 98d4 89b8 cfaf 8fb8 0400 0000 0400 0000
00000260: 0400 0000 0400 0000 0400 0000 0400 0000
00000270: 0400 0000 0400 0000 0400 0080 0400 0000
00000280: 0400 0000 0400 0000 0400 0000 0400 0000
00000290: 0400 0000 0400 0000 0400 0000 0400 0000
000002a0: 0400 0000 0400 0000 0400 0000 0400 0000
000002b0: 0400 0000 0400 0000 0400 0000 0400 0080
000002c0: 0400 0080 0400 0080 0400 0080 0400 0080
000002d0: 0400 0080 0400 0000 0400 0000 0400 0000
000002e0: 0400 0080 d4d6 d927 d4d6 d927 03f9 a527
000002f0: 0400 0000 0400 0080 d4d6 d927 d4d6 d927
00000300: 50da 8627 0400 0000 0400 0080 d4d6 d927
00000310: 50da 8627 0400 0000 0400 0000 0400 0080
00000320: 38ac 1638 a4a4 c037 11a5 2d38 23aa fd37
00000330: 09b9 6d37 849b 4f38 4798 6238 93cb 0137
00000340: 1de9 2ab6 ce93 d8b6 f2c8 4538 abac 5138
00000350: fe83 bc36 0944 adb7 4537 9db7 0401 9337
00000360: 3628 8f37 626f 2736 9e21 402f 9464 08b7
00000370: 6185 e436 130c 6137 78d8 1436 39b6 03ab
00000380: f320 5eb2 0400 0000 0400 0000 0400 0000
00000390: 0400 0000 0400 0000 d15f 6da3 6bed 65a3
000003a0: 4969 dfa1 0400 0080 0400 0000 d15f 6da3
000003b0: 6bed 65a3 4969 dfa1 0400 0000 0400 0000
000003c0: d15f 6da3 6bed 65a3 4969 dfa1 0400 0080
000003d0: 0400 0000 d15f 6da3 73b9 4da3 1033 7da1
000003e0: 0400 0080 0400 0000 0eae e73a a947 cc3a
000003f0: b413 c8ba 72fc e6ba d257 e6ba d882 c73a

exp_avg_sq f4 [32, 25]
8.97216e-16 1.003265e-15 1.3294326e-15 1.8163675e-15 2.3078611e-15 3.2527018e-16 3.619096e-16 7.9041234e-16
1.9021904e-15 2.3857532e-15 2.0903577e-16 2.3741002e-16 5.6044464e-16 1.5690906e-15 2.1809074e-15 2.0521223e-16
2.4083762e-16 5.4490985e-16 1.0106305e-15 1.848035e-15 2.9045718e-16 3.5914536e-16 4.94361e-16 9.586105e-16
1.4283387e-15 0.0020510363 0.00224137 0.002398346 0.0022833582 0.0020944793 0.0019748856 0.002127235
0.0024391157 0.0021910435 0.0019750616 0.001815346 0.001878098 0.0021675548 0.0018352283 0.0018025669
0.0016337368 0.0016150664 0.0016753442 0.001684637 0.0017130579 0.0015504815 0.0014541703 0.0014993349
0.0015539882 0.0015954163 1.9007275e-15 2.313226e-15 2.5872704e-15 2.684725e-15 2.5343778e-15 1.5413562e-15
2.0855423e-15 2.4619805e-15 2.3135424e-15 2.1682157e-15 1.5129325e-15 1.50958e-15 1.6430285e-15 1.9086272e-15
1.9807908e-15 1.5323665e-15 1.5893989e-15 1.8082747e-15 1.9884899e-15 1.992136e-15 1.5448322e-15 1.6719122e-15
1.8334812e-15 1.9536665e-15 1.9864223e-15 0.009654191 0.008983029 0.008119779 0.00802714 0.008014919
0.009611554 0.008341709 0.00629865 0.007018498 0.0075830105 0.009307588 0.007331479 0.0043358635
0.0054335403 0.006681914 0.008519425 0.006426004 0.0041039838 0.0047568665 0.005749281 0.007389353
0.005993471 0.0042757518 0.0047069485 0.005388896 0.0004106184 0.00037245327 0.0003152476 0.00018953203
0.00014123571 0.00042340602 0.00037745875 0.00021622945 9.823039e-05 7.872134e-05 0.00046432854 0.00037438792
0.00017886603 6.927154e-05 6.767029e-05 0.00041837723 0.00032910187 0.00020556383 9.724788e-05 8.1499966e-05
0.00035299835 0.00028407172 0.00020129715 0.0001364062 0.00010593871 0.00013991431 0.0001684289 0.0001902058
0.00018863738 0.00014081992 0.00011406524 0.00015624444 0.00018002535 0.00015316797 0.000117802985 7.297973e-05
7.908822e-05 0.00011686463 8.763266e-05 8.546791e-05 5.5856923e-05 4.8632555e-05 2.7457418e-05 4.3572192e-05
5.4778004e-05 3.3044165e-05 2.9812072e-05 2.68604e-05 2.4902478e-05 3.5905443e-05 4.958768e-09 7.763071e-09
8.376876e-09 1.5455223e-08 4.527401e-08 8.201439e-09 8.046827e-07 2.4626026e-08 7.753427e-08 7.90788e-08
1.7162636e-08 1.2051963e-06 2.055573e-06 1.9813283e-06 2.0133675e-06 3.1048888e-08 1.2777502e-06 2.1405199e-06
2.1956744e-06 2.1172477e-06 8.1085005e-08 1.365136e-06 2.1543296e-06 2.1494225e-06 2.1975095e-06 7.8999385e-10
5.3021315e-10 1.4549392e-10 3.875931e-11 3.6057584e-11 8.1939855e-10 7.7751006e-10 2.0879638e-10 9.138733e-11
5.624737e-11 9.677628e-10 9.498511e-10 7.340409e-10 7.135402e-11 6.2342284e-11 1.0664477e-09 1.0511353e-09
8.710719e-10 2.0684186e-10 7.2615434e-11 1.0542403e-09 1.0187405e-09 8.548804e-10 6.3717204e-10 1.172676e-10
0.00029089642 0.0003119344 0.0003647488 0.0003432966 0.00031991166 0.00028027833 0.0002458715 0.00021622087
0.00028014925 0.00027860684 0.00026160254 0.00014163325 3.4381648e-07 0.000115537514 0.00022738185 0.00014710703
4.7599162e-05 1.1953782e-07 1.4346218e-06 8.7807966e-05 0.0001004511 3.5929912e-05 1.2805586e-07 6.9197014e-08
2.1059233e-05 2.220416e-15 2.0737238e-15 1.5525813e-15 5.3902223e-16 4.966624e-16 2.1665642e-15 2.021334e-15
1.0419438e-15 4.6820874e-16 3.8399008e-16 2.6171548e-15 1.8739312e-15 9.292305e-16 3.95964e-16 3.69378e-16
2.5277096e-15 1.7548905e-15 1.2590133e-15 4.1333032e-16 3.6754912e-16 2.081047e-15 1.6258169e-15 1.3443123e-15
8.782229e-16 7.10296e-16 0.002988763 0.0033142376 0.0035571824 0.003405543 0.0030699775 0.0028106442
00000000: 6e4d 8126 f295 9026 6897 bf26 11e2 0227
00000010: 864c 2627 6881 bb25 6ea0 d025 23d2 6326
00000020: 3811 0927 61e9 2b27 7800 7125 89db 8825
00000030: 8489 2126 3a21 e226 a426 1d27 f697 6c25
00000040: 5cd5 8a25 400f 1d26 afa5 9126 3b2a 0527
00000050: ea6f a725 8008 cf25 677d 0e26 7c26 8a26
00000060: 66d8 cd26 ae6a 063b f3e3 123b 922d 1d3b
00000070: 65a4 153b 8843 093b 156d 013b 1569 0b3b
00000080: 92d9 1f3b 9c97 0f3b 0970 013b e7f0 ed3a
00000090: 832a f63a 890d 0e3b 0b8c f03a 1c44 ec3a
000000a0: 1c23 d63a a3b0 d33a 3997 db3a 0acf dc3a
000000b0: af88 e03a 8739 cb3a dc99 be3a 5585 c43a
000000c0: 31af cb3a 4a1d d13a 3cf6 0827 7daf 2627
000000d0: b76e 3a27 6f74 4127 059f 3627 0222 de26
000000e0: 7747 1627 8667 3127 53b5 2627 853c 1c27
000000f0: 5b09 da26 ac8d d926 0dc9 ec26 f587 0927
00000100: 24bb 0e27 58d6 dc26 780e e526 c84c 0227
00000110: 2a49 0f27 6c8c 0f27 40a2 de26 acf2 f026
00000120: c21d 0427 c9c6 0c27 0623 0f27 9d2c 1e3c
00000130: 8e2d 133c d208 053c 4484 033c 0251 033c
00000140: c879 1d3c aaab 083c e864 ce3b 6efb e53b
00000150: e77a f83b db7e 183c e73c f03b dc13 8e3b
00000160: d70b b23b f5f3 da3b 0f95 0b3c 3b91 d23b
00000170: b67a 863b 7ddf 9b3b 7764 bc3b 6322 f23b
00000180: e164 c43b 9b1b 8c3b bf3c 9a3b 5695 b03b
00000190: 4548 d739 d545 c339 d147 a539 1ebd 4639
000001a0: ac18 1439 98fc dd39 a8e5 c539 a7bb 6239
000001b0: 0a01 ce38 3317 a538 1f71 f339 7f49 c439
000001c0: fc8d 3b39 e045 9138 36ea 8d38 a459 db39
000001d0: 4e8b ac39 9f8c 5739 8ff1 cb38 f6ea aa38
000001e0: a312 b939 76ef 9439 4b13 5339 4308 0f39
000001f0: 692b de38 f6b5 1239 4a9c 3039 fb71 4739
00000200: f6cc 4539 0fa9 1339 4f36 ef38 8cd5 2339
00000210: 30c5 3c39 b79b 2039 ff0c f738 b20c 9938
00000220: 2adc a538 3815 f538 6dc7 b738 3c3d b338
00000230: ea47 6a38 cffa 4b38 5b54 e637 49c1 3638
00000240: 6fc1 6538 e798 0a38 f014 fa37 4552 e137
00000250: aae5 d037 2d99 1638 c961 aa31 595e 0532
00000260: e4e9 0f32 65c2 8432 4d73 4233 4fe6 0c32
00000270: 6001 5835 3489 d332 ea80 a633 08d2 a933
00000280: 096d 9332 3bc2 a135 7af2 0936 f6f6 0436
00000290: 641d 0736 9d5a 0533 2a7f ab35 daa5 0f36
000002a0: 6659 1336 0a16 0e36 f420 ae33 b739 b735
000002b0: 1a93 1036 cc3e 1036 ed78 1336 e026 5930
000002c0: 6fbe 1130 e6f8 1f2f 1b77 2a2e 3b95 1e2e
000002d0: 0c3c 6130 68b8 5530 f592 652f 7ef6 c82e
000002e0: e960 772e 2002 8530 ea8b 8230 89c5 4930
000002f0: bee8 9c2e 9617 892e 4b92 9230 8977 9030
00000300: 3c70 6f30 cf6c 632f dbae 9f2e c8e4 9030
00000310: bf03 8c30 dcfc 6a30 ff24 2f30 e5ef 002f
00000320: 7583 9839 208b a339 c13b bf39 7dfc b339
00000330: d1b9 a739 52f2 9239 50e8 8039 59b9 6239
00000340: ffe0 9239 fa11 9239 b327 8939 6383 1439
00000350: c795 b834 bb4c f238 5a6d 6e39 be40 1a39
00000360: 36a5 4738 4e5a 0034 3b8d c035 8b25 b838
00000370: 46a9 d238 73b3 1638 ba7f 0934 7699 9433
00000380: 5ca8 b037 72ff 1f27 746d 1527 24c0 df26
00000390: d25c 1b26 3727 0f26 0e1e 1c27 08a7 1127
000003a0: f128 9626 b5f3 0626 ef5a dd25 fc95 3c27
000003b0: ee07 0727 8eea 8526 f941 e425 92ee d425
000003c0: 0324 3627 08e8 fc26 6471 b526 ca44 ee25
000003d0: ade0 d325 8bf4 1527 0e4e ea26 5fbc c126
000003e0: 6a21 7d26 98ba 4c26 1fdf 433b ae33 593b
000003f0: 9e1f 693b 882f 5f3b ad31 493b c932 383b

exp_avg f4 [32]
-6e-45 -0.009277391 -6e-45 -0.09769128 -0.0011285113 0.00027127325 6e-45 2.4472918e-14
0.00025055165 -1.2868086e-17 -0.006966224 6e-45 0.0050168247 -7.4603144e-05 -0.00018202525 0.011040652
-0.00016596308 -0.00042659167 0.06298862 6e-45 0.00012541773 -0.028234055 -0.0134238545 -1.0869202e-05
-0.0013227159 0.00012287027 -5.1990424e-05 -8.3649735e-07 0.035282128 0.0 6e-45 6e-45
00000000: 0400 0080 3300 18bc 0400 0080 5e12 c8bd
00000010: 8eea 93ba ae39 8e39 0400 0000 b56e dc28
00000020: 795c 8339 d15f 6da3 ec44 e4bb 0400 0000
00000030: 2d64 a43b 4274 9cb8 08de 3eb9 dae3 343c
00000040: 6006 2eb9 2aa8 dfb9 2d00 813d 0400 0000
00000050: 9182 0339 1b4b e7bc baef 5bbc de5a 36b7
00000060: fb5e adba bdd6 0039 4b10 5ab8 a98b 60b5
00000070: fe83 103d 0000 0000 0400 0000 0400 0000

exp_avg_sq f4 [32]
5.5133726e-15 0.004941062 2.0845445e-14 0.019411633 0.0010880479 0.00047054395 2.9497276e-06 2.8460676e-09
0.0027254543 5.1574155e-15 0.0069570527 1.5571769e-14 0.0068718703 0.0005520339 0.00044503206 0.06577897
0.0016314554 0.00020914082 0.10191684 8.5055064e-14 3.982531e-05 0.006120238 0.019075973 1.880286e-05
0.0018008233 0.00023096961 0.000109741 5.952969e-06 0.078614056 0.0 6.3792783e-21 1.8880343e-15
00000000: e3a3 c627 a2e8 a13b 53c2 bb28 2505 9f3c
00000010: d49c 8e3a 57b3 f639 eff3 4536 8d94 4331
00000020: 899d 323b c3d0 b927 fdf7 e33b 0e42 8c28
00000030: 6d2d e13b 5eb6 103a 3153 e939 20b7 863d
00000040: 8fd6 d53a d04c 5b39 c7b9 d03d e886 bf29
00000050: 1a0a 2738 478c c83b 3745 9c3c d6ba 9d37
00000060: 9a09 ec3a 6f30 7239 c024 e638 9dbf c736
00000070: 6800 a13d 0000 0000 9800 f11d 160c 0827

exp_avg f4 [16, 32]
-6e-45 -0.0001852874 -6e-45 -1.7847545e-06 6.2931445e-05 9.354114e-05 6e-45 6e-45
-2.9133457e-07 6e-45 0.00033306694 -6e-45 -4.948106e-05 -3.6922459e-06 -1.8666042e-05 -0.00038217395
-4.449964e-06 1.2224047e-05 0.00046622794 -6e-45 3.1762786e-06 0.00022735068 -0.000625419 2.0768412e-06
6.7828354e-05 2.1621452e-06 -5.063884e-06 -1.9962908e-08 0.00019289077 0.0 0.0 -6e-45
-6e-45 0.00040569622 6e-45 0.0007184591 -6.503451e-05 -7.8337776e-05 6e-45 -1.4737228e-14
1.7679625e-07 -1.0174832e-18 -0.000101704885 6e-45 -0.00038529115 -4.379263e-06 1.4686578e-05 -0.0005199147
6.4312553e-06 -2.109923e-05 0.01973367 6e-45 -4.886377e-07 0.0076638423 0.0008978065 2.2552277e-07
-0.00020595979 -3.046069e-06 -1.0763083e-05 2.7546088e-08 -0.00029205767 0.0 6e-45 6e-45
-6e-45 0.00018673332 -6e-45 0.00059863745 -0.00013345265 -0.00014316023 -6e-45 -1.1775717e-14
-1.3833663e-07 -8.1308023e-19 -0.00055050675 6e-45 -0.0004320719 -8.4907356e-07 9.865798e-06 -0.0004256459
3.903265e-06 -1.7802342e-05 0.015425485 6e-45 -3.7131692e-06 0.005985408 0.00053214474 -2.4493268e-06
-0.00013311136 -2.522912e-06 -6.6002654e-06 2.3215394e-08 -0.00041812475 0.0 6e-45 -6e-45
-6e-45 -0.0009541398 -6e-45 1.467863e-05 1.6065234e-05 -3.6810846e-08 -6e-45 -6e-45
8.761396e-06 -6e-45 -0.00032552076 -6e-45 2.335658e-05 -3.0437192e-07 -1.6615053e-07 -0.0003613685
3.0860326e-07 -1.532638e-07 -9.307256e-06 -6e-45 -2.0297266e-07 -2.5874813e-05 -0.0028348144 -1.4578896e-07
0.00029261602 -2.5568798e-07 4.6206424e-06 -7.202346e-08 -0.001251336 0.0 -6e-45 -6e-45
-6e-45 -3.8316364e-11 -6e-45 5.4624866e-07 2.1514877e-07 -2.6857643e-09 -6e-45 6e-45
5.623551e-07 6e-45 -8.035516e-10 -6e-45 -9.102411e-08 5.5061827e-07 -6.2796246e-08 1.0753174e-06
-3.818597e-07 7.545885e-07 -3.7997955e-07 -6e-45 5.0091536e-08 -1.6192105e-06 8.792295e-08 -2.2841407e-08
1.0949065e-06 5.395175e-07 6.663998e-07 -5.000049e-09 8.1527674e-07 0.0 0.0 -6e-45
-6e-45 -8.087018e-05 -6e-45 -1.3215734e-05 -3.5270856e-05 -6.872866e-08 -6e-45 6e-45
-1.303553e-07 -6e-45 -0.0005621494 -6e-45 -8.335403e-05 -2.282438e-05 -4.7535887e-05 0.0005202052
-1.8519077e-05 1.9296316e-05 0.000981147 -6e-45 1.2805016e-06 -0.00033154394 4.4707296e-05 -1.1728979e-07
3.0237867e-05 1.3940562e-05 -3.408422e-05 -1.2799731e-07 5.8899714e-05 0.0 -6e-45 -6e-45
-6e-45 0.00017602308 6e-45 0.00044870566 -0.0001042704 -0.00010349991 -6e-45 -9.016362e-15
-9.845407e-08 -6.222518e-19 -0.00034702223 6e-45 -0.0003554147 -5.5991404e-06 1.41525e-07 -0.00033530538
4.6947943e-07 -1.30794415e-05 0.011560258 6e-45 -2.7713743e-06 0.0044709146 0.00027922646 -1.8264433e-06
-0.00011902365 -1.8806389e-06 -1.18180815e-05 1.6986943e-08 -0.00038444166 0.0 0.0 6e-45
-6e-45 0.00012551264 6e-45 0.00055052683 -0.00012559157 -3.4155906e-05 -6e-45 -1.1209283e-14
-3.8127166e-06 -7.7314375e-19 -0.00056870707 6e-45 -0.0004240554 -3.5483392e-06 7.74783e-06 -0.00041239645
3.6769786e-06 -1.654704e-05 0.014547633 6e-45 -3.5072146e-06 0.0056697493 0.0005601107 -2.3166438e-06
-0.00016210576 -2.38585e-06 -8.651756e-06 2.1838824e-08 -0.00026423807 0.0 6e-45 6e-45
00000000: 0400 0080 b549 42b9 0400 0080 b38b efb5
00000010: 10fa 8338 842b c438 0400 0000 0400 0000
00000020: b868 9cb4 0400 0000 7d9f ae39 0400 0080
00000030: e289 4fb8 4dc8 77b6 0595 9cb7 855e c8b9
00000040: e650 95b6 e215 4d37 0e70 f439 0400 0080
00000050: 0d28 5536 fc64 6e39 29f3 23ba dc5f 0b36
00000060: 123f 8e38 5f19 1136 6fea a9b6 e67a abb2
00000070: b942 4a39 0000 0000 0000 0000 0400 0080
00000080: 0400 0080 a0b3 d439 0400 0000 f956 3c3a
00000090: 2363 88b8 4649 a4b8 0400 0000 bcbd 84a8
000000a0: 62d5 3d34 6e27 96a1 654a d5b8 0400 0000
000000b0: e700 cab9 95f1 92b6 5f66 7637 e34a 08ba
000000c0: 10cc d736 40fe b0b7 81a8 a13c 0400 0000
000000d0: ed2a 03b5 f820 fb3b c65a 6b3a 3a27 7234
000000e0: e9f6 57b9 116b 4cb6 1793 34b7 7d9e ec32
000000f0: 511f 99b9 0000 0000 0400 0000 0400 0000
00000100: 0400 0080 d8cd 4339 0400 0080 e1ed 1c3a
00000110: 6cef 0bb9 481d 16b9 0400 0080 e921 54a8
00000120: af89 14b4 9bfa 6fa1 e24f 10ba 0400 0000
00000130: b587 e2b9 e4eb 63b5 4885 2537 3a29 dfb9
00000140: cbf8 8236 3d56 95b7 2cbb 7c3c 0400 0000
00000150: c32f 79b6 3e21 c43b a17f 0b3a 1d5f 24b6
00000160: cf93 0bb9 4c4f 29b6 d977 ddb6 316b c732
00000170: c137 dbb9 0000 0000 0400 0000 0400 0080
00000180: 0400 0080 3d1f 7aba 0400 0080 3c44 7637
00000190: d4c3 8637 f419 1eb3 0400 0080 0400 0080
000001a0: e9fd 1237 0400 0080 a8aa aab9 0400 0080
000001b0: e0ed c337 8f68 a3b4 1c67 32b4 0f76 bdb9
000001c0: 1cae a534 d590 24b4 5c26 1cb7 0400 0080
000001d0: b3f0 59b4 bd0d d9b7 4bc8 39bb 2a8a 1cb4
000001e0: 426a 9939 7d45 89b4 040b 9b36 51ab 9ab3
000001f0: de03 a4ba 0000 0000 0400 0080 0400 0080
00000200: 0400 0080 6484 28ae 0400 0080 eca1 1235
00000210: a503 6734 7790 38b1 0400 0080 0400 0000
00000220: c0f4 1635 0400 0000 ebe0 5cb0 0400 0080
00000230: 0979 c3b3 33ce 1335 9ada 86b3 a053 9035
00000240: 6602 cdb4 ed8e 4a35 feff cbb4 0400 0080
00000250: 3a24 5733 a653 d9b5 27d0 bc33 c934 c4b2
00000260: b3f4 9235 5cd3 1035 a5e2 3235 e5cc abb1
00000270: 64d9 5a35 0000 0000 0000 0000 0400 0080
00000280: 0400 0080 d998 a9b8 0400 0080 25b9 5db7
00000290: cbef 13b8 fb97 93b3 0400 0080 0400 0000
000002a0: cbf7 0bb4 0400 0080 355d 13ba 0400 0080
000002b0: 5bce aeb8 fc76 bfb7 4561 47b8 615e 083a
000002c0: 6a59 9bb7 86de a137 d599 803a 0400 0080
000002d0: b3dd ab35 13d3 adb9 1884 3b38 bee0 fbb3
000002e0: 53a7 fd37 42e2 6937 a7f5 0eb8 a26f 09b4
000002f0: 160b 7738 0000 0000 0400 0080 0400 0080
00000300: 0400 0080 d692 3839 0400 0000 4140 eb39
00000310: bfab dab8 170e d9b8 0400 0080 a16c 22a8
00000320: b36d d3b3 04a8 37a1 89f0 b5b9 0400 0000
00000330: f456 bab9 40e0 bbb6 19f6 1734 edcb afb9
00000340: c30c fc34 c66f 5bb7 3d67 3d3c 0400 0000
00000350: d9fb 39b6 c080 923b 2465 9239 1d24 f5b5
00000360: 569c f9b8 436a fcb5 4646 46b7 afea 9132
00000370: e38e c9b9 0000 0000 0000 0000 0400 0000
00000380: 0400 0080 0b9c 0339 0400 0000 3b51 103a
00000390: 3bb1 03b9 a042 0fb8 0400 0080 b2ed 49a8
000003a0: f9dd 7fb6 1731 64a1 4915 15ba 0400 0000
000003b0: c153 deb9 0120 6eb6 adfc 0137 ea36 d8b9
000003c0: 03c2 7636 7fce 8ab7 3259 6e3c 0400 0000
000003d0: 7d5d 6bb6 4ec9 b93b 65d4 123a a377 1bb6
000003e0: effa 29b9 971c 20b6 0227 11b7 1598 bb32
000003f0: 6f89 8ab9 0000 0000 0400 0000 0400 0000

exp_avg_sq f4 [16, 32]
3.1241519e-16 7.2634786e-05 7.4612284e-16 3.950203e-05 1.203289e-05 6.541873e-06 5.2216226e-08 5.962785e-11
1.210759e-06 1.479775e-16 0.00013170013 2.5671157e-15 7.881409e-05 2.5337727e-06 2.5960679e-05 8.1201295e-05
4.33104e-06 1.656112e-06 0.0002140705 4.665987e-16 8.312299e-08 0.00017473061 0.00011959197 1.0803392e-06
2.7759697e-05 5.266933e-08 8.8321946e-07 1.0847734e-07 0.00027441443 0.0 0.0 1.675396e-16
1.449874e-16 8.654e-05 1.1267173e-15 4.6249166e-05 1.1507323e-05 3.691702e-06 5.850819e-07 1.7488067e-10
5.057406e-07 3.7375854e-18 7.183023e-05 8.238599e-17 0.00012696654 1.0824216e-05 4.0751067e-05 0.0005049075
2.6126597e-06 1.3807048e-06 0.00026544282 1.4831898e-18 1.6273971e-07 0.00021793254 0.0005147324 1.0323613e-06
6.270922e-05 1.1480844e-07 3.0683516e-06 1.9908927e-07 0.0004491685 0.0 6.2576827e-23 4.631374e-17
2.677503e-16 0.00012477 6.694716e-16 6.152631e-05 1.5887197e-05 1.0517905e-05 1.837324e-08 5.215584e-11
1.8240457e-06 1.04595586e-16 0.00019955973 2.3529641e-15 5.4613316e-05 2.0707284e-06 1.5510568e-05 0.000300326
3.3998977e-06 2.64973e-06 0.00030723578 3.41134e-16 1.30158e-07 0.00016747451 0.00038110284 1.3011054e-06
4.931989e-05 6.3540455e-08 1.2135965e-06 1.6886085e-07 0.0004743483 0.0 1.9330393e-23 1.1196461e-16
2.034765e-15 0.00074399315 5.8724087e-15 0.0003517116 1.6799924e-05 2.5282116e-05 4.1078442e-06 4.1502888e-11
1.1147302e-05 5.067267e-18 0.00066861307 5.79462e-15 0.00011849929 4.3948075e-05 9.7781e-05 0.0027036273
9.829637e-06 6.2152226e-06 8.478381e-05 2.8208476e-16 9.592821e-08 3.1564676e-05 0.0036688629 4.505141e-07
0.00044533348 6.261786e-07 3.0347742e-06 2.1612304e-07 0.002445823 0.0 9.2248574e-23 1.3984234e-17
1.1470426e-19 4.5605995e-09 1.4528096e-18 1.728964e-07 3.7069898e-07 3.1443823e-09 4.387412e-10 5.207027e-13
1.9610974e-08 1.2268876e-18 9.6143475e-09 1.3711763e-19 1.2675472e-06 2.4540189e-08 8.809717e-07 8.9222925e-07
3.2761184e-07 8.4299007e-10 1.1646085e-06 1.515998e-19 3.039272e-09 3.8941766e-07 1.2412566e-08 3.411456e-08
3.4354645e-08 2.8262417e-09 3.2322767e-08 4.548006e-09 3.1510623e-08 0.0 0.0 4.3071266e-18
8.537938e-18 0.00018323757 2.0460784e-15 3.9065155e-05 1.9778204e-06 3.5968314e-06 2.3121638e-08 2.1800772e-10
1.800364e-07 5.0713533e-18 0.00015461959 3.687116e-15 0.00015488455 6.6368425e-06 1.753751e-05 0.0003234795
9.577702e-07 1.3987478e-06 0.0008384436 1.2073433e-16 1.8390854e-09 0.0001236449 4.8944683e-05 6.420768e-07
6.421737e-05 6.1206424e-07 4.6374325e-06 4.3381476e-09 0.0003177118 0.0 4.0944563e-23 1.0123992e-17
9.761704e-17 1.99482e-05 3.6618635e-16 3.1219668e-05 9.295929e-06 3.1891145e-06 5.1933116e-09 5.485052e-11
9.467615e-07 7.477784e-17 7.089011e-05 8.936033e-16 4.6692196e-05 1.0611016e-06 5.3259987e-06 0.00011741466
1.5392774e-06 1.0212997e-06 0.00021382238 2.422877e-16 7.080605e-08 0.00013702203 0.00014650224 7.8282864e-07
2.0239335e-05 3.1320678e-08 6.6165666e-07 9.179189e-08 0.00020593592 0.0 0.0 8.307491e-17
2.2973053e-16 5.1297295e-05 7.152515e-16 5.1870156e-05 1.4557052e-05 4.763697e-06 1.501947e-08 1.1703394e-10
1.507153e-06 9.363767e-17 0.0001194936 1.9595557e-15 5.0556344e-05 2.3141122e-06 1.0878829e-05 0.00021475182
2.5813313e-06 1.5794553e-06 0.0002795064 3.0107664e-16 1.0631668e-07 0.00013859347 0.00022971808 1.3400244e-06
3.5760342e-05 6.702122e-08 1.5860314e-06 1.3721169e-07 0.00031314726 0.0 1.8346677e-23 1.02508814e-16
00000000: 5818 b425 8153 9838 260e 5726 fbae 2538
00000010: dee0 4937 4382 db36 5944 6033 7f1f 832e
00000020: 5d81 a235 409b 2a25 fc18 0a39 edfa 3827
00000030: fe48 a538 e209 2a36 22c6 d937 9d4a aa38
00000040: 5a53 9136 9347 de35 1d78 6039 e87c 0626
00000050: 5981 b233 e437 3739 73cd fa38 2c00 9135
00000060: 7fdd e837 8a36 6233 6116 6d35 0cf4 e833
00000070: 48df 8f39 0000 0000 0000 0000 f628 4125
00000080: ba28 2725 cf7c b538 8860 a226 aafb 4138
00000090: 930f 4137 f5be 7736 860e 1d35 8848 402f
000000a0: 3bc2 0735 7fe4 8922 90a3 9638 1bf8 bd24
000000b0: 5222 0539 a799 3537 20ec 2a38 c55b 043a
000000c0: 2755 2f36 a850 b935 222b 8b39 54e1 da21
000000d0: 8dbd 2e34 d284 6439 1bef 063a aa8f 8a35
000000e0: c282 8338 9b8c f633 e1e9 4d36 3ec5 5534
000000f0: 607e eb39 0000 0000 2e4d 971a 9d95 5524
00000100: f858 9a25 b1d4 0239 49f6 4026 b007 8138
00000110: 7f45 8537 0f76 3037 2fd3 9d32 4162 652e
00000120: bcd1 f435 562e f124 e840 5139 878c 2927
00000130: 9a10 6538 d8f6 0a36 b11c 8237 1375 9d39
00000140: cc29 6436 04d2 3136 7d14 a139 7ea6 c425
00000150: 8fc1 0b34 199c 2f39 c2ce c739 a4a1 ae35
00000160: d4dc 4e38 bc73 8833 dce2 a235 1e50 3534
00000170: f3b1 f839 0000 0000 bcf3 ba19 1f16 0125
00000180: ca9e 1227 8908 433a 6993 d327 ef65 b839
00000190: 90ed 8c37 ee14 d437 1dd6 8936 1988 362e
000001a0: 4c05 3b37 fcf2 ba22 dd45 2f3a f0c5 d027
000001b0: d282 f838 e354 3838 c60f cd38 572f 313b
000001c0: f8e9 2437 5b8c d036 f6cd b138 5d9c a225
000001d0: 1701 ce33 5064 0438 4e71 703b 30de f134
000001e0: a67b e939 aa16 2835 06a9 4b36 730f 6834
000001f0: 1a4a 203b 0000 0000 1a0b df1a 57fb 8023
00000200: 3c6b 0720 75b3 9c31 9865 d621 67a5 3934
00000210: 7b04 c734 8f14 5831 5633 f12f 9590 122b
00000220: fd74 a832 810e b521 592c 2532 43e1 2120
00000230: 9720 aa35 72cc d232 ea7b 6c35 8781 6f35
00000240: a1e2 af34 27b8 6730 a54f 9c35 3afa 3220
00000250: 70db 5031 2811 d134 0b3f 5532 5b85 1233
00000260: 558d 1333 c537 4231 42d3 0a33 af44 9c31
00000270: 4c56 0733 0000 0000 0000 0000 a9e7 9e22
00000280: 467f 1d23 7623 4039 7c6f 1327 e4d9 2338
00000290: b2ba 0436 1861 7136 059d c632 b8b3 6f2f
000002a0: 0750 4134 9419 bb22 6121 2239 a5d7 8427
000002b0: 8168 2239 0bb2 de36 841d 9337 af98 a939
000002c0: bc8c 8035 9cbc bb35 ffca 5b3a 7c32 0b25
000002d0: 11c3 fc30 ada6 0139 f449 4d38 2f5b 2c35
000002e0: 70ac 8638 bc4c 2435 3e9b 9b36 c00e 9531
000002f0: 8e92 a639 0000 0000 eafe 451a 33c1 3a23
00000300: ee16 e124 6f56 a737 9117 d325 ddf1 0238
00000310: b6f5 1b37 9204 5636 da70 b231 323c 712e
00000320: f424 7e35 0c6d ac24 d7aa 9438 25c8 8026
00000330: 5dd7 4338 2c6b 8e35 fbb5 b236 843c f638
00000340: 2b99 ce35 9713 8935 8235 6039 5bab 8b25
00000350: 0a0e 9833 92ad 0f39 659e 1939 9323 5235
00000360: a4c7 a937 7385 0633 b39c 3135 201f c533
00000370: 81f0 5739 0000 0000 0000 0000 c58e bf24
00000380: 3e6e 8425 0d28 5738 3f28 4e26 288f 5938
00000390: 103a 7437 d8d7 9f36 2a04 8132 20ae 002f
000003a0: 6249 ca35 ede9 d724 a398 fa38 6c33 0d27
000003b0: 760c 5438 254c 1b36 3784 3637 012f 6139
000003c0: ef3a 2d36 acfd d335 b78a 9239 128f ad25
000003d0: 3750 e433 6753 1139 7ae0 7039 e3da b335
000003e0: 60fd 1538 4eed 8f33 a0df d435 7654 1334
000003f0: ea2d a439 0000 0000 2c70 b119 865e ec24

exp_avg f4 [16]
-0.0019579618 0.020390201 0.015619837 -0.007614147 5.2072214e-06 -0.0026653744 0.011890339 0.01459357
0.014414913 0.020913003 0.010098066 0.012195522 0.012089576 6e-45 -0.009162413 -2.4543247e-20
00000000: 2651 00bb 5a09 a73c 58ea 7f3c 1880 f9bb
00000010: b1b9 ae36 90ad 2ebb b2cf 423c de19 6f3c
00000020: 872c 6c3c bf51 ab3c 5c72 253c bacf 473c
00000030: 5b13 463c 0400 0000 f21d 16bc eecd e79e

exp_avg_sq f4 [16]
0.0008604058 0.00181749 0.0018216434 0.009259956 1.4697301e-06 0.015582394 0.0008704179 0.001475737
0.0015368279 0.0012053752 0.0007409461 0.00093964837 0.0009335422 7.299371e-22 0.01040664 5.9009186e-17
00000000: db8c 613a d838 ee3a 36c4 ee3a 12b7 173c
00000010: 8b43 c535 4c4d 7f3c c22c 643a 846d c13a
00000020: 636f c93a aefd 9d3a 0d3c 423a bc52 763a
00000030: f5b8 743a 269c 5c1c 9d80 2a3c e010 8824

exp_avg f4 [2, 16]
0.00027565236 -0.00019820058 0.0092451945 0.00084176235 -1.3668587e-07 0.00047713818 0.00929212 0.0077254404
0.0083588045 0.0062023797 0.006982333 0.0053366264 0.0052041495 -6e-45 0.00016754576 1.8312745e-19
-0.00027565105 0.00019820218 -0.00924519 -0.0008417601 1.3648535e-07 -0.00047713445 -0.009292116 -0.007725437
-0.008358801 -0.0062023783 -0.00698233 -0.005336624 -0.0052041477 6e-45 -0.00016754318 -6e-45
00000000: 6f85 9039 10d4 4fb9 2879 173c b7a9 5c3a
00000010: edc3 12b4 6728 fa39 fa3d 183c b125 fd3b
00000020: 5ef3 083c 553d cb3b 0ecc e43b dede ae3b
00000030: 9287 aa3b 0400 0080 39af 2f39 e032 5820
00000040: 4285 90b9 7ed4 4f39 2379 17bc 90a9 5cba
00000050: cf8c 1234 e727 fab9 f63d 18bc aa25 fdbb
00000060: 5af3 08bc 523d cbbb 07cc e4bb d9de aebb
00000070: 8e87 aabb 0400 0000 88ae 2fb9 0400 0080

exp_avg_sq f4 [2, 16]
6.335685e-05 7.7738936e-05 0.00021669858 5.2064384e-05 2.6745263e-06 2.5373443e-05 0.0001216888 0.00013073078
0.00017492315 5.0354716e-05 0.00016267014 8.739654e-05 9.084526e-05 1.0455899e-21 4.5903947e-05 4.0675816e-16
6.335684e-05 7.773893e-05 0.00021669858 5.206438e-05 2.674527e-06 2.537344e-05 0.000121688805 0.00013073078
0.00017492301 5.0354716e-05 0.00016267016 8.739654e-05 9.084526e-05 1.0455899e-21 4.590396e-05 4.0675816e-16
00000000: 73de 8438 c607 a338 9539 6339 b55f 5a38
00000010: 037c 3336 0ed9 d437 2d33 ff38 c714 0939
00000020: 936b 3739 f733 5338 6f92 2a39 a948 b738
00000030: 2d84 be38 4d01 9e1c fd88 4038 e97a ea25
00000040: 72de 8438 c507 a338 9539 6339 b45f 5a38
00000050: 067c 3336 0cd9 d437 2e33 ff38 c714 0939
00000060: 8a6b 3739 f733 5338 7092 2a39 a948 b738
00000070: 2d84 be38 4d01 9e1c 0089 4038 e97a ea25

exp_avg f4 [2]
0.011137682 -0.011137674
00000000: d37a 363c ca7a 36bc

exp_avg_sq f4 [2]
0.0009362146 0.0009362146
00000000: 4c6c 753a 4c6c 753a

loss f8 []
0.8258938121722015
00000000: aaf2 27dc b86d ea3f
