44_point_edge_detector.pth (torch, 25342 bytes, 19 tensors)

model.0.weight f4 [32, 25]
000000 95 b1 94 3d 86 c5 71 3e 87 38 0e bb 98 7f b6 3d
       0.072604336 0.23610505 -0.0021701173 0.08911055
000010 d8 dd 06 3e dc 66 53 3e 4c 83 25 bd 8f eb b5 bd
       0.13170564 0.20644706 -0.040408418 -0.0888282
000020 26 e5 98 bc 7f 30 43 3e 8b 6f 8e bb b2 23 c5 be
       -0.018663954 0.19061469 -0.004346793 -0.38503796
000030 0d 8b 35 bf 5a 39 ba be ef c2 96 bd b6 3b be 3e
       -0.709153 -0.3637188 -0.073613994 0.3715493
000040 26 7c ac bb 73 1a f2 3d 24 aa 05 bd 02 b2 bb 3e
       -0.005263823 0.11821451 -0.032632962 0.36659247
000050 59 80 8d bd e4 f0 30 bc e3 40 fa 3d dc 86 80 3c
       -0.06909246 -0.01079962 0.122194074 0.015689306
000060 99 84 ed bd b0 f8 26 bd 43 11 56 3b 2f 13 0a be
       -0.115975566 -0.04076451 0.0032664097 -0.1348388
000070 aa dc 05 3e 0b 38 be 3c 6e 0c 80 be 2e 63 a8 be
       0.13072458 0.023220083 -0.25009483 -0.32888168
000080 9c 10 98 bd bb 27 db 3e 35 30 81 3e 00 22 51 be
       -0.07425043 0.4280375 0.25232092 -0.20423126
000090 d5 f2 dc bd 4c d7 de 3d 93 e5 99 3d eb 9a fd 3d
       -0.10788504 0.10880908 0.07514491 0.12383064
0000a0 1c 06 9f 3c 00 a3 dd 3e ed b0 3f bc d1 59 e3 be
       0.019412093 0.43288422 -0.011699897 -0.44404462
0000b0 00 69 b8 be 96 e6 f6 3d 50 2c 8c 3e 32 09 e2 3d
       -0.3601761 0.120556995 0.27377558 0.1103691
0000c0 d5 2f 19 be e9 d6 40 3c 2f bc a5 b9 87 fb 82 b9
       -0.14959653 0.011769989 -0.0003161146 -0.00024982935
0000d0 38 c1 f5 b8 7f 2e 10 39 8e 4d 9b b9 3d a2 a5 38
       -0.000117185 0.00013750231 -0.00029621687 7.898032e-05
0000e0 3b a2 dc 37 a2 62 86 39 de bf 06 39 9d f1 81 b9
       2.6301588e-05 0.0002563196 0.00012850712 -0.00024784813
0000f0 31 4e b8 b9 f2 e3 69 37 53 14 a7 b7 fa 34 f8 38
       -0.00035153472 1.3940955e-05 -1.9917416e-05 0.00011835429
000100 3c ed ff 38 41 5d b0 b9 cc f7 8d b9 d8 cb 58 39
       0.00012203536 -0.00033638816 -0.0002707824 0.00020675303
000110 ba d8 59 b8 82 95 57 37 85 c5 2c 39 75 9a 59 b8
       -5.1938674e-05 1.2849809e-05 0.0001647678 -5.188068e-05
000120 41 44 7c b9 bd 50 44 b9 6a d2 04 b9 97 fd 7d ba
       -0.0002405802 -0.00018722094 -0.00012666886 -0.0009688972
000130 4b 9d 28 ba 88 93 34 ba 51 e4 80 b9 0b 9b 29 b9
       -0.000643213 -0.0006888439 -0.00024584171 -0.00016174854
000140 1c 03 06 ba 89 0d 88 ba db 16 32 ba 6d ef bc b8
       -0.00051121577 -0.001038001 -0.0006793567 -9.009135e-05
000150 d4 4b aa 39 ec 93 c0 39 de b4 f0 38 78 41 05 ba
       0.00032481423 0.00036731304 0.00011477781 -0.0005083303
000160 02 44 14 ba 7a 86 f9 b7 5a f2 65 39 fe 37 a8 b9
       -0.0005655886 -2.9745734e-05 0.00021929425 -0.00032085174
000170 4c 3f 83 ba 32 9d a1 b9 31 03 99 b9 65 1c 39 b8
       -0.0010013371 -0.00030825433 -0.00029184812 -4.413388e-05
000180 41 5d db b9 63 86 ab b9 10 94 ec b8 cc a7 76 b9
       -0.00041840415 -0.00032715788 -0.00011280936 -0.00023522897
000190 6d 98 2f 3e 0c 1b bb bd 22 91 cb bd 56 56 e8 3a
       0.1714799 -0.09136018 -0.09939791 0.0017725925
0001a0 f2 80 65 bd bf 7f a0 3e 13 a3 aa be b9 25 d4 be
       -0.056031175 0.31347463 -0.3332754 -0.4143503
0001b0 67 ce 97 3d 99 e1 10 3e 7c e7 98 bd c2 a9 1d be
       0.07412415 0.14148559 -0.07466027 -0.15396789
0001c0 1c 46 c9 be 7f 99 b5 3e 7e e2 cf 3c 08 e7 80 bc
       -0.39311302 0.3546867 0.025376555 -0.015735164
0001d0 8f fd 4b 3d 71 13 b5 3e 07 9d da 3e ab 1d 1d be
       0.04980236 0.35366395 0.42697927 -0.15343349
0001e0 a4 a4 65 bd ff 87 90 bd 39 34 5c bc 93 d0 62 3d
       -0.056065217 -0.07057189 -0.013440185 0.055374693
0001f0 ca aa 3c bd 4d 22 58 3b ab c2 58 bc a3 cb 1d bd
       -0.046061315 0.003297943 -0.013230006 -0.03852428
000200 a8 7c 19 be ac 7c ed 3c 67 5c 28 be 15 45 89 be
       -0.14988959 0.028990112 -0.16441499 -0.26810518
000210 c1 03 2e bf f1 f8 a1 be 8f 86 fd bd d3 5e 3b 3d
       -0.6797448 -0.3163524 -0.12379181 0.04574473
000220 5e 19 15 3e 99 59 d5 3e c6 66 fe 3d 50 f4 e2 3d
       0.14560458 0.4166992 0.12421946 0.11081755
000230 ef 33 56 3b d4 cb e0 3d ed 9b e5 3e a7 e4 57 3e
       0.0032684763 0.10976377 0.44845524 0.21083318
000240 65 5b d0 bb ed 54 9d bc b5 24 69 3d 0e d6 a5 bc
       -0.0063585513 -0.019205535 0.056919772 -0.02024367
000250 38 fe d0 bc c8 8f f6 3d fa 38 d5 bb 7d d7 50 3e
       -0.025511846 0.12039143 -0.0065070363 0.20394702
000260 98 24 60 3c b5 66 c0 be c2 d9 7b be 18 4a 8c 3e
       0.0136806 -0.3757836 -0.24594787 0.2740028
000270 58 1b a6 3e f3 3f bc 3b 8f aa a9 be 6c 75 7f 3d
       0.32442737 0.005744928 -0.33137938 0.06236784
000280 a9 0e b5 3d b8 11 35 be c4 6b 22 3d 6a c3 24 3e
       0.08840687 -0.1768254 0.039653555 0.1609017
000290 07 d1 0e 3e e8 1d 38 3d a5 ce 9f be b7 8a 51 be
       0.13946925 0.044950396 -0.31212345 -0.20463072
0002a0 5f 1a 94 3e c4 19 c6 3e d7 d1 91 bd 33 af a9 be
       0.2892637 0.38691533 -0.07120102 -0.3314148
0002b0 53 49 0c bd 9a ee 07 bd 0a 23 b5 3d f5 54 b9 3b
       -0.034249615 -0.033186533 0.08844574 0.0056558796
0002c0 5d 83 5c bd 6e 7a 02 bd e5 6e 82 3d 21 d1 b6 bc
       -0.053836215 -0.03185504 0.06368808 -0.022316517
0002d0 ed 6f a7 bd c8 bb 9f 3d 91 f6 d6 3e 6a 46 c6 3e
       -0.08175645 0.07799488 0.4198499 0.38725597
0002e0 5a 00 b0 bd cc 95 53 3d f4 61 86 bd 93 2c 03 be
       -0.08593817 0.05165653 -0.06561652 -0.12809972
0002f0 77 43 c0 3e e2 2b d5 3d 2f bf 80 3b e4 af 03 bf
       0.37551472 0.104087606 0.003929041 -0.5144026
000300 6c dc ff be 76 75 06 bc 17 d4 f5 3d 23 2a 1c 3d
       -0.49972856 -0.008206716 0.120033436 0.038126122
000310 f9 ad 59 3d 3c 4e f1 bd 11 0a 96 bd 35 18 9a bc
       0.05314443 -0.117825 -0.07326139 -0.018810371
000320 6f 59 67 bc ae 7c 74 be 7a e8 8b 3c 0a 8b 5a be
       -0.014120444 -0.23875687 0.017078627 -0.21342102
000330 62 e2 32 be 9e 8c cc bc ef a0 84 3d f0 22 ba 3e
       -0.1746917 -0.024969395 0.06476008 0.3635478
000340 47 55 6f 3e 59 9e af bd 47 87 e4 bd a5 72 07 bd
       0.23372374 -0.08575124 -0.111586146 -0.033068318
000350 51 0c 9f 3e 51 34 ab bd 60 c7 0d bd e4 df c5 3b
       0.31064084 -0.08359588 -0.034613967 0.0060386527
000360 b6 aa 32 3e d2 ba d1 3e f5 c7 ce 3e 7d f2 17 bc
       0.17447934 0.40962845 0.4038693 -0.009274122
000370 02 f6 16 be 3d 95 3c be bf b2 16 be 42 4c aa be
       -0.14742282 -0.18416305 -0.14716624 -0.33261305
000380 c8 35 00 be 00 14 54 3d 6d c3 ad 3d 84 25 e6 3d
       -0.12520516 0.051776886 0.0848454 0.11237624
000390 ef fa 5f 3e 44 6a 3f be ad 48 35 bd 27 61 be 3e
       0.21873067 -0.18692881 -0.044258762 0.37183496
0003a0 99 ad c2 3c a7 e7 a3 be c1 3f ad be b7 c1 15 3e
       0.023764418 -0.32012674 -0.33837703 0.14624678
0003b0 93 e6 1d be b5 af 2f 3e 28 91 c0 bd f2 70 2d 3e
       -0.15419988 0.1715687 -0.09402686 0.16937616
0003c0 1d cf c3 be f0 a2 86 be 19 37 f7 bc b6 62 c8 3e
       -0.38243952 -0.26296186 -0.03017764 0.3913781
0003d0 eb 2d 2c 3e 4d 3f 35 be 6e 1a 08 3e f4 62 3c 3c
       0.16814391 -0.17699929 0.13291332 0.011498202
0003e0 84 c3 c0 bb b3 a0 82 bd a2 0c a4 b9 23 00 8d b9
       -0.0058826823 -0.06378307 -0.0003128993 -0.00026893718
0003f0 a9 10 80 39 0b bb a1 b9 7e d8 69 b9 d9 10 84 b8
       0.00024426475 -0.0003084767 -0.00022301261 -6.2973886e-05

model.0.bias f4 [32]
000000 16 94 45 3b a4 8f 12 3a e5 5f ca b9 cb d0 27 ba
       0.003014808 0.0005590862 -0.0003859989 -0.0006401657
000010 d4 ab 86 3a ff ae 9d bc 93 bb 92 ba 0e 4e 95 39
       0.0010274597 -0.019248484 -0.0011194817 0.0002847765
000020 eb 4e 2a bb 5e 9a bc 3a b5 26 82 b9 f7 83 52 bd
       -0.002598698 0.0014389267 -0.0002482437 -0.051395383
000030 dc 80 26 bd a2 97 26 3d 5c ae 96 3c 88 ad 77 bd
       -0.040650234 0.040671952 0.018393688 -0.060468227
000040 91 af e9 b9 33 ad 8b ba 46 7f 7d bd 72 01 97 ba
       -0.0004457203 -0.0010656476 -0.061888956 -0.0011520816
000050 af 0f 48 3d 1e a4 86 ba d7 54 c2 b8 35 ec 97 b9
       0.048843082 -0.0010272299 -9.2664435e-05 -0.00028976952
000060 cc f0 45 bd e2 84 4e 3d 75 45 a8 b9 95 d8 34 bd
       -0.048325345 0.050419696 -0.00032095207 -0.04415186
000070 df d2 15 ba 8b e0 b3 b9 f8 0a 85 bc fa 05 f2 b9
       -0.0005715321 -0.00034308838 -0.016240582 -0.0004616229

model.2.weight f4 [16, 32]
000000 3b 01 ef 3e 07 be 74 3e ba cd 5c 36 78 77 c1 b9
       0.46680626 0.23900615 3.2902303e-06 -0.0003690084
000010 c1 4f 2a 3f 73 ac 92 bf 77 8e 47 3e 50 82 5d 3e
       0.66527945 -1.1458877 0.1948794 0.21631742
000020 95 9d dc be bc fb c6 be cf 3f 99 39 f1 f4 a8 be
       -0.43088976 -0.38863933 0.00029229975 -0.32999375
000030 0c 48 a0 be 01 31 54 c0 17 94 1d 3f cb 14 17 bd
       -0.31304967 -3.315491 0.6155409 -0.036885064
000040 2c dd 01 39 54 79 70 39 02 ab 8f bf b5 b7 32 3a
       0.00012384792 0.00022933382 -1.1224062 0.00068175356
000050 df d4 87 be 3f 33 8b 3a d3 fb 62 3f 9c 50 24 ba
       -0.26529595 0.0010620131 0.88665503 -0.0006268115
000060 ca ef 41 3f bd 19 ad 3e e5 14 1f b9 dc 65 d2 be
       0.75756514 0.338087 -0.00015171205 -0.41093338
000070 6a e3 8a b9 13 67 07 b9 2d 6d f4 3c 91 39 51 b9
       -0.00026490848 -0.00012913001 0.029837215 -0.00019953238
000080 2f d5 9a be 70 46 8b be f4 e1 8f 38 2b 9c 49 b9
       -0.3024077 -0.27202177 6.8608584e-05 -0.00019227031
000090 2a e0 5a bc ed 71 8a 3e 6f 8b 4e bf 78 51 9e 3e
       -0.013359109 0.27040043 -0.8068151 0.3092153
0000a0 b2 60 d7 3d 29 a3 36 3d 42 d0 d3 b9 58 0d 55 3e
       0.1051649 0.044589195 -0.0004040022 0.20805871
0000b0 8a 60 91 bd 6c 34 cd bf d9 15 fe 3d 0f 17 02 3d
       -0.070984915 -1.6031623 0.12406511 0.03176027
0000c0 8b bd e8 38 6e bb 27 b9 b2 76 b6 3e 85 d4 d4 b9
       0.00011097927 -0.00015996184 0.35637432 -0.0004059413
0000d0 50 a1 d5 bf bd d6 c9 38 7b f8 87 3e dc 44 b8 b6
       -1.6689854 9.624425e-05 0.26556763 -5.4916436e-06
0000e0 29 a8 99 be 6a 04 35 3e db a6 62 3a 53 fd 13 3c
       -0.3001111 0.17677465 0.0008646079 0.009032565
0000f0 2c 42 41 b9 33 e7 52 b9 7c 83 47 bf b2 57 e0 b9
       -0.00018430565 -0.00020113289 -0.77935004 -0.00042789947
000100 11 c2 88 bf 00 96 76 3f 76 6a 00 b9 1e 64 51 ba
       -1.0684224 0.9632263 -0.00012246691 -0.0007987636
000110 ab 55 3b bf af 0f d4 bd 35 10 d3 3e 3a 41 cc be
       -0.73177594 -0.10354554 0.41223302 -0.39893514
000120 cc 58 d7 bf e1 7f 37 3f 3d 93 fb 38 5d d3 92 be
       -1.6823974 0.716795 0.00011996038 -0.28676882
000130 9f 4e 42 be a6 ba a8 3e 9f 1d bf 3d 9a 30 52 be
       -0.18975304 0.329549 0.09331822 -0.20526353
000140 02 d3 8c b9 61 ef 3e b9 0a 98 0b bd 3e 4e fa b9
       -0.00026860094 -0.00018208988 -0.034080543 -0.0004774201
000150 aa 30 45 3e ce ad 3d b9 30 13 32 be 8e 09 c4 b9
       0.19256845 -0.00018089192 -0.17390132 -0.00037391152
000160 4f 2e 03 bf 70 71 e9 3d 71 2f 5c 3a 5e 6b dc be
       -0.51242536 0.113985896 0.00083994033 -0.43050665
000170 f2 c7 cb b9 c0 69 f0 b9 11 11 a9 3d 51 0b 3c b9
       -0.00038868148 -0.00045855157 0.08255208 -0.00017933293
000180 b2 90 b2 bf 1c 08 68 3f 97 33 9a b9 74 d4 0c b9
       -1.3950408 0.90637374 -0.00029411606 -0.00013430585
000190 c3 f6 59 bf 53 b1 b2 bd 13 0d 28 3f 18 9a ff be
       -0.85142154 -0.08725228 0.6564495 -0.49922252
0001a0 46 eb cd bf f0 53 a3 3e 9d 7a 0b 39 6d 92 cf bc
       -1.6087425 0.31899977 0.0001330175 -0.025338376
0001b0 05 36 2f 3f 0d 3b ed be 70 07 ea 3e 11 76 0e bf
       0.684418 -0.46334115 0.457088 -0.55648905
0001c0 f7 ac 04 39 2c c0 0c 3a 99 64 bd be a8 86 cb 38
       0.00012652935 0.0005369212 -0.36990812 9.704876e-05
0001d0 0e 36 61 bf ab 95 81 ba 9a 6d 24 3e 0f 16 4c b8
       -0.87973106 -0.0009886523 0.16057435 -4.8657934e-05
0001e0 8e 9c 0c bf a0 4f 1a bf e7 9d 4b 3a fe 5f e3 bd
       -0.54926383 -0.6027775 0.0007767365 -0.111022934
0001f0 10 b9 df b7 72 64 21 39 4e 77 8d 3d ef 2d 54 b9
       -2.6669848e-05 0.00015391575 0.06907521 -0.00020235007
000200 56 48 ce bf 41 f6 20 3f 39 de b8 38 82 d4 9a b9
       -1.6115825 0.62875754 8.815196e-05 -0.000295315
000210 d3 b6 cf be a1 60 28 be e5 43 33 3f 12 0d 2f bf
       -0.4056917 -0.16443111 0.70025474 -0.6837932
000220 6d 51 9e 3e 15 22 de 3e ee 14 b7 38 d5 0b 3b 3e
       0.30921498 0.43385378 8.7300185e-05 0.18266232
000230 2d f9 4a bd 61 d9 d0 3f 98 bc b4 3c a0 97 13 bf
       -0.04955404 1.6316339 0.022062585 -0.57653236
000240 c7 f9 38 b9 4e ae ad 39 10 84 5a bf 85 40 69 3a
       -0.00017640657 0.00033126998 -0.8535776 0.0008897859
000250 ac 79 74 b9 8b 6a 07 ba ee 9f cc be c8 81 52 38
       -0.0002331498 -0.00051657174 -0.39965767 5.018877e-05
000260 31 4e 15 3e c9 f8 9b 3e c0 04 8b b8 ed 6b be 3e
       0.14580609 0.30463246 -6.628921e-05 0.37191716
000270 37 70 50 39 8b df cb b7 7a 8b e7 3e 48 18 1f b8
       0.00019878229 -2.4303581e-05 0.452236 -3.7931168e-05
000280 99 36 41 3f bc 7f 1b bf 33 c5 36 39 1d aa 46 b9
       0.75473934 -0.6074178 0.00017430335 -0.00018946124
000290 9b 60 6f bf c8 07 24 bf 50 99 8b be 9d 6b 66 bf
       -0.93506783 -0.64074373 -0.27265406 -0.90007955
0002a0 f9 87 6a 3f f4 21 a0 be 90 e8 9c b8 2e 58 26 3f
       0.9161373 -0.31275904 -7.481978e-05 0.649783
0002b0 75 be 6e 3f 3a 98 88 be b3 14 61 3d 3b a8 49 bf
       0.93259364 -0.2667864 0.05495138 -0.78772324
0002c0 5a 31 0b 38 8c 4c 69 b9 68 ee 82 bf 5b 93 9b ba
       3.3186145e-05 -0.00022249128 -1.0229006 -0.0011869477
0002d0 77 c7 bc 3e c3 cd b9 ba 0b f2 9d bf 6b 8f b6 b9
       0.3687093 -0.0014175702 -1.2339491 -0.000348206
0002e0 24 82 2c 3f 75 ce 04 3f 23 70 0e ba 2c f3 34 3f
       0.6738608 0.5187753 -0.000543358 0.7068355
0002f0 c5 82 98 38 04 5a bb b8 5d 74 18 bc be 8a dd 38
       7.2722825e-05 -8.9336216e-05 -0.009305087 0.00010563944
000300 9c 62 1b be f5 95 bb bf ab 63 7c 37 06 dd 86 b9
       -0.15174335 -1.4655138 1.5043576e-05 -0.00025723147
000310 40 d3 af bf 7f b9 bb bf 40 99 56 bf 05 02 d8 bf
       -1.3736343 -1.4665984 -0.8382759 -1.6875616
000320 8e 5c 59 be 09 7e 51 bf 2b 5f 24 b8 67 b2 bb be
       -0.21226713 -0.8183294 -3.918928e-05 -0.36659548
000330 25 6f 62 3f 2a 91 77 3d 92 7b fa bd bd f2 0c bf
       0.88450843 0.060441174 -0.122306004 -0.5505789
000340 bc 50 83 39 21 ba f1 39 28 a9 06 3f 7b 2d da b8
       0.0002504642 0.0004610578 0.5260186 -0.000104035214
000350 36 94 c4 be 7a ea c1 ba fd c8 f0 bf 93 d5 22 b9
       -0.38394326 -0.0014794611 -1.8811337 -0.00015529087
000360 16 e8 71 3c 78 bd 2d 3e ae 18 28 3a 81 8c b7 bd
       0.014764806 0.16966808 0.0006412369 -0.08962346
000370 d9 c0 3d 39 76 50 52 b9 09 58 f2 be 34 33 da b8
       0.00018096286 -0.00020057135 -0.4733279 -0.000104045874
000380 1f ff 70 3e 22 93 86 3d fd 1e 95 38 9e 73 3a 39
       0.23534821 0.06571032 7.110646e-05 0.00017781413
000390 a4 81 7c be b3 f9 7c be be 3a 5d 3f 31 a7 28 3d
       -0.24658829 -0.24704628 0.8641776 0.04117507
0003a0 74 4d cd be 91 9d ca 3e cd 30 44 b9 df 23 4d bf
       -0.40098155 0.3957334 -0.00018710196 -0.8013286
0003b0 5f d5 f5 3d 26 8f 07 3f 33 21 22 bf c5 bf dc be
       0.12003588 0.529528 -0.6333191 -0.4311506
0003c0 2d ec 42 b6 e9 9f 31 3a bc 8b e1 be 23 ec 23 b9
       -2.9045725e-06 0.00067758426 -0.4405192 -0.00015632859
0003d0 a8 1c 2d c0 48 12 a3 b9 0a e4 9b bd b0 5f b7 38
       -2.704874 -0.00031103403 -0.076118544 8.743943e-05
0003e0 c9 62 d5 bd 9b 2e 2c bf 90 10 a7 38 36 31 08 bf
       -0.104192324 -0.67258614 7.9662655e-05 -0.5320009
0003f0 cb 6c 54 39 c6 a7 ad b8 ff 50 8b 3f 1a 0f fc b8
       0.00020258424 -8.280533e-05 1.0884093 -0.00012019109

model.2.bias f4 [16]
000000 93 90 9b 3d eb e2 31 3e 4a 61 0f 3e 0d 41 e8 3d
       0.07595935 0.17371719 0.14001957 0.113405325
000010 06 36 55 3d 96 77 0f 3e f2 4f 1b 3f 6f 44 61 3e
       0.052053474 0.14010462 0.6066886 0.21998762
000020 85 bc 82 bd 1e 38 29 ba 7f a1 35 ba c4 04 39 3e
       -0.063836135 -0.00064552005 -0.0006928667 0.18068224
000030 50 fa 1a 3e 91 0c 5e 3e 5b 61 c5 3d 31 03 b9 39
       0.15134549 0.21684481 0.0963771 0.00035288327

model.4.weight f4 [3, 16]
000000 22 e2 05 40 34 56 27 40 48 63 86 c0 7c 10 b0 c0
       2.091927 2.6146364 -4.1996193 -5.5020123
000010 0a a7 8f c0 0c cb d9 c0 3e f9 16 c1 f6 91 71 c0
       -4.4891405 -6.806036 -9.43585 -3.7745337
000020 e0 3c e3 bf 33 17 0e b8 37 86 9d 38 9c 7b 4a 40
       -1.7752953 -3.3877044e-05 7.511343e-05 3.1637945
000030 91 28 d0 3e 05 c3 7d 40 dc d3 8f 3f 8e 21 4d c0
       0.4065595 3.965028 1.1236529 -3.205173
000040 95 94 eb bf f4 61 2e c0 16 f6 e5 bf 2b ce 34 bf
       -1.8404719 -2.7247286 -1.7965724 -0.7062709
000050 1c ac 73 3f ed a8 97 40 ea cf d5 40 03 1e 54 bf
       0.95184493 4.739371 6.68163 -0.82858294
000060 20 62 cf be c9 f5 81 ba 9b 16 d0 b8 b0 20 d2 3f
       -0.4050455 -0.0009915169 -9.9224235e-05 1.6416225
000070 7e e5 dc c0 98 0a ab bf f2 1c e9 c0 99 34 00 40
       -6.903014 -1.3362608 -7.2847834 2.0032103
000080 76 05 a0 bf 9f 08 e5 bf 40 a6 8d 40 b3 8e 99 40
       -1.2501667 -1.7893256 4.426544 4.7986693
000090 46 2a 03 40 d9 e3 b8 bf 1d 71 93 c0 b7 89 57 40
       2.0494552 -1.4444534 -4.607558 3.3677804
0000a0 1f 5c d5 3f 76 0f fb b9 cf 74 84 39 66 96 9b c0
       1.6668738 -0.0004788597 0.0002526403 -4.862109
0000b0 a5 79 8f 3f 15 5c 66 c0 79 c0 d5 3e d8 f7 81 3e
       1.1208998 -3.5993702 0.41748407 0.25384402

model.4.bias f4 [3]
000000 82 57 d3 3e de c1 38 3e 88 77 ff be
       0.412777 0.18042704 -0.49895883

exp_avg f4 [32, 25]
000000 6f 0b d5 bb 9d 95 a4 bb 2d e0 13 ba c8 4c 0a 3b
       -0.006501607 -0.005022718 -0.000564101 0.0021102894
000010 20 c7 a3 ba 3a e2 86 bb 67 50 b8 bb d2 02 69 bb
       -0.0012495257 -0.004116324 -0.005624819 -0.003555466
000020 5e ff 20 bb e4 e7 89 bc 35 2f aa 3b e7 4b 57 bb
       -0.0024566273 -0.016834207 0.005193616 -0.0032851638
000030 59 b6 93 bc 15 e2 e4 bc e4 ba ed bc 6a 1b d1 bb
       -0.018031286 -0.027939836 -0.02901978 -0.006381442
000040 04 a1 90 bc 6d 26 a9 bc 71 81 9c bc 41 6d 9d bc
       -0.017654903 -0.020648206 -0.019104691 -0.019217135
000050 dc 76 33 bc 6b d7 ab bc 62 97 af bc 3d ad a9 bc
       -0.010953631 -0.020976743 -0.02143449 -0.02071249
000060 61 08 8c bc 1a 81 9e 3c d5 7b 6d 3c c1 cf 90 3c
       -0.01709384 0.01934867 0.014494856 0.01767719
000070 7e 36 d4 3c 0c 55 da 3c fe 31 b2 3c 4f a5 b4 3c
       0.02590489 0.026651882 0.021752354 0.022051482
000080 6b ad d9 3c 96 41 dc 3c 74 28 c3 3c f4 a2 fd 3c
       0.02657195 0.026886743 0.023823 0.030961491
000090 66 d5 08 3d 66 ee f2 3c 32 6e cd 3c ab 04 dd 3c
       0.033406638 0.029654693 0.02507696 0.026979765
0000a0 28 2f 18 3d 13 4a 13 3d cb 30 0d 3d 25 ff fd 3c
       0.037154347 0.035959315 0.03447036 0.031005451
0000b0 ad 91 ea 3c d4 23 17 3d 13 09 16 3d 3b 6b 10 3d
       0.028633917 0.036899403 0.036629748 0.035258513
0000c0 f7 72 ec 3c d8 7b 03 3d 04 00 00 00 04 00 00 00
       0.028863413 0.03210053 6e-45 6e-45
0000d0 04 00 00 00 04 00 00 00 04 00 00 00 04 00 00 00
       6e-45 6e-45 6e-45 6e-45
0000e0 04 00 00 00 04 00 00 00 04 00 00 00 04 00 00 00
       6e-45 6e-45 6e-45 6e-45
0000f0 04 00 00 00 04 00 00 00 04 00 00 00 04 00 00 00
       6e-45 6e-45 6e-45 6e-45
000100 04 00 00 00 04 00 00 00 04 00 00 00 04 00 00 00
       6e-45 6e-45 6e-45 6e-45
000110 04 00 00 00 04 00 00 00 04 00 00 00 04 00 00 00
       6e-45 6e-45 6e-45 6e-45
000120 04 00 00 00 04 00 00 00 04 00 00 00 04 00 00 00
       6e-45 6e-45 6e-45 6e-45
000130 04 00 00 80 04 00 00 00 04 00 00 00 04 00 00 00
       -6e-45 6e-45 6e-45 6e-45
000140 04 00 00 00 04 00 00 00 04 00 00 00 04 00 00 00
       6e-45 6e-45 6e-45 6e-45
000150 04 00 00 00 04 00 00 00 04 00 00 00 04 00 00 00
       6e-45 6e-45 6e-45 6e-45
000160 04 00 00 00 04 00 00 00 04 00 00 00 04 00 00 00
       6e-45 6e-45 6e-45 6e-45
000170 04 00 00 00 04 00 00 00 04 00 00 00 04 00 00 00
       6e-45 6e-45 6e-45 6e-45
000180 04 00 00 00 04 00 00 00 04 00 00 00 04 00 00 00
       6e-45 6e-45 6e-45 6e-45
000190 13 88 ba 3c 13 80 c1 3c 2a b9 8c 3c 71 b7 12 3c
       0.022769963 0.02362064 0.017178137 0.008954869
0001a0 3a 2a c8 3b 3f f1 d7 3c 58 9d bf 3c 9c 7b 87 3c
       0.0061085494 0.026360152 0.023390457 0.016538434
0001b0 53 74 d2 3b 6d 58 f5 3b 51 03 e5 3c 04 7e c3 3c
       0.0064225583 0.007487348 0.027955683 0.0238638
0001c0 a7 1a c2 3c 53 aa 37 3c c8 40 11 3c 62 a5 f8 3b
       0.02369435 0.011210042 0.008865543 0.0075880745
0001d0 2f b5 42 3b 58 fc 97 3c 6b 2c 52 3c 15 93 24 3c
       0.0029710045 0.018552944 0.012827973 0.010044833
0001e0 41 fd f7 3a 8a 57 8d 3a a9 03 34 3b fa 85 79 3c
       0.001892008 0.0010783535 0.0027468002 0.015229696
0001f0 4a 64 28 3c 90 32 ac ba 1e 5c 76 ba 6b aa 86 ba
       0.010277817 -0.0013137627 -0.0009397882 -0.0010274177
000200 75 d5 ba b9 8c 9f 81 3a e7 03 84 bb 30 47 8d ba
       -0.00035635722 0.0009889468 -0.0040287855 -0.0010778662
000210 31 fd a4 b9 ce bf 4e 3a fe cf 21 3b 97 82 22 bb
       -0.0003146916 0.00078868575 0.0024690623 -0.0024797076
000220 39 34 36 bb a9 81 7c 36 b3 ca 08 3b 12 12 1f 3b
       -0.0027802123 3.7626398e-06 0.0020872771 0.0024272245
000230 03 ab fe ba 7c 46 ab ba ff 3e 19 3a 02 6e 78 3b
       -0.0019429628 -0.0013067271 0.0005845874 0.0037907367
000240 75 d8 58 3b 1c c1 fa ba ea 59 30 b9 ad 8e 10 3a
       0.0033088003 -0.0019131037 -0.00016818164 0.00055144244
000250 13 3e 3a 3b 50 52 c5 3b 7f 20 7f 3b d3 51 24 3b
       0.0028418347 0.0060217753 0.0038929281 0.0025073185
000260 96 5c 56 3b 2b f4 58 3c d1 3b 9f 3c 99 22 8f 3c
       0.0032708994 0.013241808 0.019437702 0.017472552
000270 63 b3 5a 3a 0b e8 22 3b 6a 8e 98 3c 5c 5e 24 3c
       0.0008342771 0.0024857547 0.018622596 0.010032263
000280 ac 82 1c 3c 1a 6b 98 3b 1b f4 4d 3c 09 89 e3 3b
       0.009552639 0.0046514394 0.012570406 0.006943826
000290 e8 85 e3 3b d1 08 b8 39 ce bf bc bb 3d 88 d0 3c
       0.006943453 0.00035101784 -0.0057601696 0.025455588
0002a0 1c 33 f5 3c 33 ad 0a 3d 3f 71 0f bc 3a 73 7d 3b
       0.029931597 0.033856582 -0.008755027 0.0038673417
0002b0 c2 f6 eb 3b 95 ec d1 3c 17 09 ee 3c 45 a1 f4 3b
       0.0072010467 0.025625506 0.029057069 0.007465514
0002c0 7a 40 0b 3c 76 27 d6 3b a5 eb 6b ba 7f e3 c0 ba
       0.008499259 0.006535466 -0.00089996523 -0.0014716237
0002d0 2a 0c bf 3b ea ac e2 3b e0 16 b2 3a df f6 aa ba
       0.0058303075 0.0069175856 0.001358714 -0.0013043544
0002e0 07 30 55 3c a3 ac 01 3b 9f 39 8b 3c 1f ac 03 3d
       0.013011939 0.0019786737 0.01699525 0.03214657
0002f0 cf 39 cd 3c c9 20 b6 3c 74 95 39 bc 2f f7 e4 3b
       0.02505198 0.02223243 -0.011327136 0.0069874744
000300 59 5b ec 3c d7 20 f1 3c 35 f4 df 3c 95 ba 0d bc
       0.028852152 0.029434605 0.027338127 -0.008650442
000310 78 44 08 3c 6e cf 32 3c 0e 6a ee 3c 2a 4f ee 3c
       0.0083171055 0.010913713 0.029103305 0.029090483
000320 24 6e 8f bd 96 3a 84 bd e1 87 a4 bd d1 ba ce bd
       -0.070034295 -0.06456487 -0.08033729 -0.10094226
000330 1f 2e d8 bd 88 b3 94 bd 61 fc 92 bd b2 a4 b7 bd
       -0.10555672 -0.07260805 -0.07177044 -0.0896696
000340 5b 6d d8 bd 0a 26 d8 bd 1c e9 85 bd ba 86 75 bd
       -0.10567733 -0.105541304 -0.06538603 -0.05994294
000350 9a 57 a4 bd 52 44 d4 bd a8 81 d5 bd ca 7b 6c bd
       -0.08024521 -0.103645936 -0.104251206 -0.057735242
000360 35 80 4d bd 56 7a b2 bd ff fb ac bd 22 c2 b7 bd
       -0.050171096 -0.0871474 -0.08446502 -0.08972575
000370 3f ef 4c bd fa b9 61 bd d3 2b 74 bd a2 35 a1 bd
       -0.05003285 -0.055109 -0.059612107 -0.07871558
000380 e4 09 ac bd 07 bf 93 3c af f9 88 3c a3 90 8a 3c
       -0.08400324 0.018035425 0.01672062 0.016914671
000390 6c f8 b4 3c 01 f7 d2 3c aa b8 98 3c f4 bc 83 3c
       0.022091113 0.025752546 0.018642742 0.01608131
0003a0 29 ab 8b 3c 67 22 cd 3c 11 f8 e0 3c bf bd 84 3c
       0.017049389 0.025040818 0.027462037 0.01620376
0003b0 8a 05 5a 3c 0f 80 94 3c 53 ff d0 3c 8d 9d d9 3c
       0.013306985 0.01812747 0.025512373 0.026564384
0003c0 65 55 51 3c a8 c0 18 3c 71 3e 86 3c 0b c5 a0 3c
       0.012776707 0.009323277 0.016387196 0.019625207
0003d0 f3 9e b8 3c ba e6 1a 3c a1 e2 0e 3c 45 69 27 3c
       0.02253673 0.009454424 0.008721025 0.010217969
0003e0 75 e5 90 3c 01 4e 9e 3c 00 00 00 00 00 00 00 00
       0.017687539 0.019324305 0.0 0.0
0003f0 00 00 00 00 00 00 00 00 00 00 00 00 04 00 00 00
       0.0 0.0 0.0 6e-45

exp_avg_sq f4 [32, 25]
000000 32 08 85 3d 33 f6 83 3d 55 9a 7b 3d 05 38 82 3d
       0.06495704 0.06443443 0.06142648 0.06358341
000010 09 cf 84 3d 7d 03 88 3d e8 23 79 3d c8 9d 59 3d
       0.06484801 0.0664129 0.06082526 0.053128988
000020 81 10 77 3d d2 5b 83 3d cd c4 88 3d b6 f8 68 3d
       0.060318474 0.06413998 0.06678162 0.056877814
000030 c9 5d 21 3d f5 f4 3f 3d 1f 41 63 3d b4 70 81 3d
       0.03939608 0.04686447 0.055482026 0.063203245
000040 74 94 64 3d f8 1a 32 3d 75 7a 3b 3d 7b f8 57 3d
       0.05580564 0.04348275 0.04577108 0.052727204
000050 94 04 70 3d 30 8c 55 3d ba 1e 3c 3d 5f 00 3c 3d
       0.058598116 0.052135646 0.04592774 0.04589879
000060 e8 89 50 3d 8e fa 34 3d e9 ce 42 3d 6d 25 60 3d
       0.050912768 0.04418426 0.047560606 0.054723192
000070 e8 d4 83 3d f8 2c 8d 3d f4 56 31 3d 45 7a 34 3d
       0.06437093 0.06893343 0.043295816 0.044061918
000080 c6 8f 57 3d c8 05 87 3d 9b d9 96 3d df 23 55 3d
       0.052627347 0.065928996 0.07365724 0.052036162
000090 69 77 52 3d 13 66 50 3d 5a 22 7d 3d ce 1e 89 3d
       0.05138341 0.050878596 0.06180034 0.06695329
0000a0 3f 02 63 3d 9b f0 67 3d 60 65 47 3d 26 02 31 3d
       0.055422064 0.056625944 0.048680663 0.04321494
0000b0 1f fb 3f 3d b5 2d 6b 3d f1 fe 66 3d 6c 46 50 3d
       0.046870347 0.057416636 0.056395475 0.05084841
0000c0 1f 40 34 3d f8 3a 38 3d f4 01 00 00 f4 01 00 00
       0.044006463 0.044978112 7e-43 7e-43
0000d0 f4 01 00 00 f4 01 00 00 f4 01 00 00 f4 01 00 00
       7e-43 7e-43 7e-43 7e-43
0000e0 f4 01 00 00 f4 01 00 00 f4 01 00 00 f4 01 00 00
       7e-43 7e-43 7e-43 7e-43
0000f0 f4 01 00 00 f4 01 00 00 f4 01 00 00 f4 01 00 00
       7e-43 7e-43 7e-43 7e-43
000100 f4 01 00 00 f4 01 00 00 f4 01 00 00 f4 01 00 00
       7e-43 7e-43 7e-43 7e-43
000110 f4 01 00 00 f4 01 00 00 f4 01 00 00 f4 01 00 00
       7e-43 7e-43 7e-43 7e-43
000120 f4 01 00 00 f4 01 00 00 f4 01 00 00 f4 01 00 00
       7e-43 7e-43 7e-43 7e-43
000130 f4 01 00 00 f4 01 00 00 f4 01 00 00 f4 01 00 00
       7e-43 7e-43 7e-43 7e-43
000140 f4 01 00 00 f4 01 00 00 f4 01 00 00 f4 01 00 00
       7e-43 7e-43 7e-43 7e-43
000150 f4 01 00 00 f4 01 00 00 f4 01 00 00 f4 01 00 00
       7e-43 7e-43 7e-43 7e-43
000160 f4 01 00 00 f4 01 00 00 f4 01 00 00 f4 01 00 00
       7e-43 7e-43 7e-43 7e-43
000170 f4 01 00 00 f4 01 00 00 f4 01 00 00 f4 01 00 00
       7e-43 7e-43 7e-43 7e-43
000180 f4 01 00 00 f4 01 00 00 f4 01 00 00 f4 01 00 00
       7e-43 7e-43 7e-43 7e-43
000190 bc bc 23 3d 60 d9 11 3d f9 59 27 3d 8f 49 60 3d
       0.039974913 0.035607696 0.04085729 0.05475765
0001a0 af 5d 7a 3d 01 2b 2a 3d 91 4e 14 3d ab 34 22 3d
       0.0611245 0.041544918 0.03620774 0.03960101
0001b0 2d ab 66 3d aa 1a 85 3d 1f 93 2b 3d 53 93 25 3d
       0.05631559 0.064992264 0.041888352 0.040423702
0001c0 8a 51 31 3d 08 3f 77 3d 7f 43 8d 3d 99 fc 31 3d
       0.043290652 0.060362846 0.068976395 0.043453787
0001d0 e1 f7 39 3d 11 19 4b 3d b1 bf 7c 3d 81 ec 8d 3d
       0.04540241 0.049584452 0.06170625 0.06929875
0001e0 0d c7 39 3d 85 2a 40 3d b4 26 52 3d eb 04 7c 3d
       0.045355845 0.04691555 0.05130644 0.061528128
0001f0 6a 74 8b 3d c6 fe db 3b bb c0 cb 3b 89 af c2 3b
       0.068093136 0.006713721 0.0062180436 0.0059413356
000200 32 bc ee 3b 58 d7 0c 3c cc ae ea 3b 1f e3 d0 3b
       0.007285618 0.008596264 0.0071619507 0.006374731
000210 0c 4d c7 3b 7c 2f 00 3c 62 7b 1e 3c de 97 14 3c
       0.0060821828 0.007823821 0.009672971 0.009069411
000220 c1 b4 0c 3c f4 91 0c 3c d0 0d 24 3c 8d 78 36 3c
       0.008588017 0.00857972 0.010013059 0.01113714
000230 d7 c0 1e 3c 86 14 24 3c 6a 40 2f 3c 2a 10 44 3c
       0.009689531 0.010014659 0.01069651 0.011966744
000240 6c 01 45 3c f6 65 25 3c ca 83 2a 3c a1 f0 3e 3c
       0.012024265 0.01009511 0.0104073975 0.01165405
000250 66 33 50 3c 14 ce 4c 3c 06 2b db 3d e2 32 d3 3d
       0.012707567 0.012500305 0.107015654 0.103124395
000260 1e f7 b5 3d 51 b4 a0 3d 44 bd a5 3d 24 5e e5 3d
       0.088850245 0.078468926 0.0809274 0.111995965
000270 32 fa d6 3d d0 5c af 3d 33 c0 a4 3d 36 c7 bf 3d
       0.1049694 0.085626245 0.080444716 0.09364168
000280 99 4d e2 3d 36 b2 d6 3d 37 6c c1 3d 6b 7f e3 3d
       0.11049957 0.1048321 0.094444685 0.111082874
000290 bb 76 ee 3d 0e b0 c7 3d 65 32 a7 3d 95 f3 9e 3d
       0.1164374 0.09750377 0.08163909 0.07761303
0002a0 4e 97 bf 3d 22 9d de 3d 5c 02 af 3d 95 38 98 3d
       0.09355031 0.108698145 0.08545372 0.07432667
0002b0 84 b8 9b 3d 2f 03 b1 3d 3b 36 c8 3d 34 69 52 3d
       0.07603553 0.08643185 0.09775969 0.05136986
0002c0 db 6b 65 3d c3 2b 83 3d 39 e5 95 3d c1 1e 9a 3d
       0.056011062 0.06404831 0.073191114 0.07525397
0002d0 fc 0e 44 3d a0 33 52 3d 0b 82 7d 3d 28 e5 91 3d
       0.047865853 0.051318765 0.061891597 0.07123786
0002e0 0b 28 98 3d cb 96 39 3d 92 d8 37 3d 5b 5a 50 3d
       0.074295126 0.045309823 0.044884272 0.05086742
0002f0 d9 60 81 3d eb 94 8f 3d a4 32 2d 3d 31 e9 1d 3d
       0.063173 0.07010826 0.042284623 0.038552467
000300 a2 f4 24 3d 0d f2 5c 3d ca 43 81 3d b1 43 19 3d
       0.040272363 0.053941775 0.06311758 0.03741807
000310 ec b3 11 3d 6e 1b 24 3d 3d f4 4f 3d de b2 72 3d
       0.035571977 0.04006522 0.050770033 0.059252612
000320 15 c1 dd 3d ea ee de 3d 6b e1 e1 3d 27 ff dd 3d
       0.10827843 0.10885413 0.11029323 0.10839682
000330 fb 79 de 3d 57 f3 e0 3d 46 98 e3 3d f2 3c ee 3d
       0.1086311 0.109839134 0.11113028 0.11632718
000340 71 22 e6 3d 3b d2 e5 3d 5b f8 fa 3d e6 09 02 3e
       0.11237038 0.11221739 0.12254401 0.12699088
000350 54 a7 0e 3e 0d 6e fb 3d 4e c7 f5 3d 03 c8 eb 3d
       0.13931018 0.1227685 0.12000905 0.115127586
000360 6a 29 eb 3d df c3 ec 3d 73 2f e6 3d 25 b1 ee 3d
       0.114825085 0.11560797 0.11239519 0.116548814
000370 81 e5 e2 3d 9e d1 df 3d 5a 20 dc 3d 98 ff d5 3d
       0.11078931 0.10928653 0.10748358 0.10449141
000380 53 e4 e1 3d 94 c6 b7 3c fb b1 ba 3c e4 e1 ac 3c
       0.110298775 0.022433557 0.022789946 0.021103807
000390 a0 46 9b 3c 9f 25 8d 3c f6 6e ae 3c e3 1c b4 3c
       0.018954575 0.017229853 0.021293145 0.02198643
0003a0 cf da a4 3c a3 5b 8e 3c 34 41 8a 3c ce ee 99 3c
       0.020123867 0.01737768 0.016876794 0.018790629
0003b0 21 0c 94 3c 7e 15 8d 3c 46 df a1 3c 9c 22 a3 3c
       0.01807219 0.017222162 0.019759785 0.019913964
0003c0 b4 4e 6b 3c 81 26 50 3c 07 be 77 3c b7 ff 98 3c
       0.014362026 0.012704493 0.01512099 0.018676622
0003d0 4c 9b a1 3c 3e 63 4f 3c 12 c5 58 3c 34 29 81 3c
       0.019727372 0.0126579385 0.013230579 0.015766717
0003e0 a7 59 93 3c fc 50 9c 3c 00 00 00 00 00 00 00 00
       0.017987086 0.019081585 0.0 0.0
0003f0 00 00 00 00 00 00 00 00 00 00 00 00 f4 01 00 00
       0.0 0.0 0.0 7e-43

exp_avg f4 [32]
000000 a9 0b 28 bc f7 32 02 3d 04 00 00 00 04 00 00 00
       -0.010256686 0.031786885 6e-45 6e-45
000010 c1 e5 83 3d 95 0d c2 bb bb 19 e2 bb c1 99 fd 3c
       0.064403065 -0.0059220293 -0.00690004 0.030957105
000020 aa cf 24 be 48 f4 09 3d 04 00 00 00 80 bf be 3c
       -0.16094843 0.03368023 6e-45 0.023284674
000030 7d dc b3 3c 50 34 9a b9 60 56 4e 3c 2f a7 a0 bb
       0.021955723 -0.00029412145 0.012593836 -0.0049027423
000040 04 00 00 00 04 00 00 00 98 6c 85 bb 04 00 00 00
       6e-45 6e-45 -0.0040717833 6e-45
000050 f6 9a ce bd 04 00 00 00 2b 63 34 bd 04 00 00 00
       -0.1008815 6e-45 -0.044039886 6e-45
000060 25 a7 bf 3b b0 ac 80 bc 04 00 00 00 8b 8c 9e bd
       0.0058487826 -0.015707344 6e-45 -0.0774165
000070 04 00 00 00 04 00 00 00 3a 0c 27 3d 04 00 00 00
       6e-45 6e-45 0.040783145 6e-45

exp_avg_sq f4 [32]
000000 a4 18 2a 3e be d9 32 3e f4 01 00 00 f4 01 00 00
       0.16610962 0.17465875 7e-43 7e-43
000010 90 65 18 3e b0 c4 e3 3c 71 bf 9d 3e 30 a0 25 3e
       0.14882493 0.027803749 0.3081012 0.16174388
000020 e5 30 ac 3e e5 f9 68 3d f4 01 00 00 1c 50 48 3d
       0.33631054 0.056878943 7e-43 0.048904523
000030 33 e9 48 3d ee 03 50 3c 2f 82 53 3c 60 dc 7c 3d
       0.04905052 0.012696249 0.012909456 0.061733603
000040 f4 01 00 00 f4 01 00 00 86 e9 6b 3d f4 01 00 00
       7e-43 7e-43 0.057595752 7e-43
000050 8c ee 4b 3e f4 01 00 00 71 4a 5c 3e f4 01 00 00
       0.19915217 7e-43 0.21512772 7e-43
000060 66 83 8a 3d 12 b7 04 3d f4 01 00 00 2e 43 a2 3d
       0.067633435 0.032401152 7e-43 0.0792297
000070 f4 01 00 00 f4 01 00 00 8b 1f 2c 3e f4 01 00 00
       7e-43 7e-43 0.16808908 7e-43

exp_avg f4 [16, 32]
000000 6f 8d 89 ba f4 da f6 ba 00 00 00 00 04 00 00 00
       -0.0010494421 -0.0018833564 0.0 6e-45
000010 0e 3f 8b bb 7a 75 4b bb 12 7a e2 3a 4a a2 4b 3a
       -0.00424946 -0.0031045363 0.0017278811 0.00077680184
000020 e2 27 da 39 22 ab 31 3b 04 00 00 00 17 39 a9 39
       0.00041609915 0.002711006 6e-45 0.00032276727
000030 bb 0e ca ba c8 f8 b1 37 a5 47 f7 b9 9a db 8e 3a
       -0.0015415767 2.1215892e-05 -0.0004716489 0.0010899187
000040 04 00 00 00 04 00 00 80 44 ab 9c ba 04 00 00 80
       6e-45 -6e-45 -0.0011952897 -6e-45
000050 1c a7 23 3b 04 00 00 00 b9 e8 52 3b 04 00 00 80
       0.002497143 6e-45 0.003218217 -6e-45
000060 3a a6 16 bb b8 ca 31 3b 04 00 00 00 f3 2e 22 ba
       -0.0022987262 0.0027128886 6e-45 -0.00061868055
000070 04 00 00 00 04 00 00 80 4b aa 2a bb 00 00 00 00
       6e-45 -6e-45 -0.0026041444 0.0
000080 95 c6 1d ba 3f 00 09 bb 04 00 00 80 04 00 00 00
       -0.0006018666 -0.0020904688 -6e-45 6e-45
000090 c4 8e 54 bb b0 87 50 bb 14 06 e8 3a 44 3a 47 3b
       -0.0032433728 -0.0031819157 0.0017702007 0.003039972
0000a0 f8 16 48 ba ac cf dc 3a 04 00 00 00 4a ad 86 3a
       -0.0007632817 0.0016846559 6e-45 0.0010275033
0000b0 da 67 c0 ba 9a 57 14 36 fe 81 ad 3a 42 3b 58 3a
       -0.0014679388 2.210471e-06 0.0013237593 0.0008248576
0000c0 04 00 00 80 04 00 00 80 a4 7e c8 ba 04 00 00 80
       -6e-45 -6e-45 -0.0015296531 -6e-45
0000d0 79 93 16 3a 04 00 00 00 4f 42 a0 3a 04 00 00 00
       0.0005744021 6e-45 0.0012226793 6e-45
0000e0 f8 01 e8 ba 7c 29 87 3a 04 00 00 00 f0 31 e3 39
       -0.0017700782 0.0010312046 6e-45 0.0004333402
0000f0 04 00 00 00 04 00 00 80 57 aa 66 ba 04 00 00 00
       6e-45 -6e-45 -0.00087991863 6e-45
000100 3a 6a ca ba 52 60 57 3b 00 00 00 00 04 00 00 80
       -0.0015443035 0.0032863808 0.0 -6e-45
000110 d4 5c e6 37 65 9f db bb e1 f0 af 3a a0 05 ef 3b
       2.7461363e-05 -0.006702351 0.0013423228 0.0072943717
000120 22 24 c9 39 fb e7 c5 ba 04 00 00 00 c9 95 df ba
       0.0003836463 -0.0015099043 6e-45 -0.0017058189
000130 07 fc 04 ba a4 88 ff b7 d0 8f d0 3b 9d cc 31 3a
       -0.00050729554 -3.0461997e-05 0.0063648 0.0006782504
000140 04 00 00 00 04 00 00 80 e9 f2 24 bb 04 00 00 80
       6e-45 -6e-45 -0.00251692 -6e-45
000150 5a e5 14 bc 04 00 00 80 90 16 af bb 04 00 00 00
       -0.009087885 -6e-45 -0.005343266 6e-45
000160 61 6a dd ba a5 4f e8 bb 04 00 00 00 88 4e 2d 3b
       -0.0016892665 -0.0070895725 6e-45 0.0026444513
000170 04 00 00 00 04 00 00 00 8a 52 9e 39 04 00 00 00
       6e-45 6e-45 0.00030197605 6e-45
000180 c4 d1 94 3a e0 8e de 3b 04 00 00 00 04 00 00 80
       0.0011354019 0.0067919344 6e-45 -6e-45
000190 04 5b 05 3b 2c e6 56 3b eb dd 8b 39 d1 1f b0 3b
       0.002034844 0.0032791002 0.00026677488 0.0053748866
0001a0 3a 00 b1 3a c7 5f d6 39 04 00 00 00 cf cb 90 bb
       0.0013504096 0.0004088862 6e-45 -0.004418827
0001b0 98 0d 0f 39 08 5e 28 b8 e5 fc b2 3b 9d f3 8c 3a
       0.00013642607 -4.0141895e-05 0.0054622763 0.0010753755
0001c0 04 00 00 00 04 00 00 80 18 7e 51 3a 04 00 00 80
       6e-45 -6e-45 0.0007991507 -6e-45
0001d0 4b 01 06 b8 04 00 00 80 c0 97 62 bb 04 00 00 00
       -3.1949294e-05 -6e-45 -0.0034575313 6e-45
0001e0 de ae 4f 3a eb fe c9 3a 04 00 00 00 d3 d0 3f 3b
       0.00079224806 0.0015411054 6e-45 0.0029268756
0001f0 04 00 00 80 04 00 00 00 18 fb b6 3a 04 00 00 00
       -6e-45 6e-45 0.001396033 6e-45
000200 80 f5 d3 39 d6 1e b0 3b 04 00 00 00 04 00 00 80
       0.00040427968 0.0053747697 6e-45 -6e-45
000210 ae 49 5f 3b b1 79 42 3b 3b 93 ca ba f9 bf 27 3b
       0.0034071016 0.0029674585 -0.0015455255 0.0025596602
000220 3a 16 45 3a a2 a2 98 ba 00 00 00 00 44 91 a1 bb
       0.00075182656 -0.0011645148 0.0 -0.004930647
000230 36 15 b9 39 69 fb 93 37 42 e9 aa 3b 22 7f fc 39
       0.00035301753 1.7640838e-05 0.005215795 0.00048159907
000240 04 00 00 00 04 00 00 00 e4 85 7a 3a 04 00 00 80
       6e-45 6e-45 0.00095566944 -6e-45
000250 95 80 29 bb 04 00 00 80 3f 33 84 bb 04 00 00 80
       -0.0025863994 -6e-45 -0.0040344293 -6e-45
000260 fb 6d de 3a 7c c7 be ba 04 00 00 00 69 50 42 3b
       0.0016970033 -0.0014555301 6e-45 0.002964998
000270 00 00 00 00 04 00 00 00 47 4e d8 3a 00 00 00 00
       0.0 6e-45 0.0016502821 0.0
000280 bf bd 8d 3c 69 d1 96 3a 04 00 00 00 04 00 00 80
       0.017302392 0.0011506501 6e-45 -6e-45
000290 fa 19 a2 39 1f 16 07 3a fb c6 02 bc 60 dc 73 3c
       0.00030918402 0.00051531376 -0.007982011 0.014884084
0002a0 ed ad 12 bb ba c7 d6 bb 04 00 00 80 82 a5 93 3c
       -0.00223815 -0.006554571 -6e-45 0.018023256
0002b0 f3 3c 28 39 b0 fa 88 b9 eb 3b 0b bb 81 30 9b b9
       0.00016044434 -0.00026126718 -0.002124543 -0.00029600042
0002c0 04 00 00 00 04 00 00 80 ae 21 7c b8 04 00 00 00
       6e-45 -6e-45 -6.011285e-05 6e-45
0002d0 f0 89 b7 3b 04 00 00 80 c8 b8 66 3b 04 00 00 80
       0.00560116 -6e-45 0.0035205353 -6e-45
0002e0 05 8f ed 38 75 07 3b bb 04 00 00 80 74 a2 1e bb
       0.0001132768 -0.002853838 -6e-45 -0.0024205716
0002f0 04 00 00 80 04 00 00 00 d8 08 04 3c 04 00 00 00
       -6e-45 6e-45 0.008058749 6e-45
000300 cd fa ce b9 f2 5a 06 39 04 00 00 80 04 00 00 00
       -0.00039478243 0.00012813116 -6e-45 6e-45
000310 74 f9 77 ba d7 64 3d b9 92 ed fa bb 10 9c a0 bb
       -0.00094594737 -0.0001806201 -0.007657715 -0.0049014166
000320 63 a6 50 bb 27 cd c0 bb 04 00 00 80 0a d7 6f ba
       -0.0031837455 -0.005883831 -6e-45 -0.000914917
000330 4c 13 d5 b8 f9 a7 70 b8 7e f3 84 bb 8f fb dd b6
       -0.00010160226 -5.7376896e-05 -0.004057347 -6.6155985e-06
000340 04 00 00 00 04 00 00 80 02 ac 11 b7 04 00 00 00
       6e-45 -6e-45 -8.682722e-06 6e-45
000350 a5 eb 97 ba 04 00 00 00 f3 eb 5b ba 04 00 00 80
       -0.0011590613 6e-45 -0.0008389346 -6e-45
000360 9c 79 0d b9 47 ed b1 b9 04 00 00 80 30 27 38 bb
       -0.00013492111 -0.00033936856 -6e-45 -0.002809953
000370 04 00 00 80 04 00 00 80 a5 50 c2 b9 00 00 00 00
       -6e-45 -6e-45 -0.00037062648 0.0
000380 cc 9c 5f 3a 3e a3 9d 3b 00 00 00 00 04 00 00 80
       0.00085301395 0.0048107198 0.0 -6e-45
000390 50 35 91 39 0b e8 9a bb c9 06 92 3b 00 27 4a 3c
       0.00027696276 -0.0047273687 0.0044563753 0.0123384
0003a0 41 e6 0c 3b 8e ca 23 3b 00 00 00 00 75 d1 4c 3b
       0.0021499547 0.0024992558 0.0 0.0031252776
0003b0 7c ac 93 b9 be 41 e9 38 19 dd ff 3b 5f a1 6b 3b
       -0.00028166536 0.00011122551 0.0078083393 0.003595434
0003c0 04 00 00 00 04 00 00 00 80 4a 9d ba 04 00 00 80
       6e-45 6e-45 -0.0012000352 -6e-45
0003d0 83 4a a9 3a 04 00 00 80 98 67 99 ba 04 00 00 00
       0.0012915883 -6e-45 -0.0011703847 6e-45
0003e0 9e ce 1e bb bb 0a 86 ba 04 00 00 00 61 71 cd 3b
       -0.002423204 -0.0010226587 6e-45 0.0062696193
0003f0 00 00 00 00 04 00 00 80 a1 23 a0 3a 04 00 00 00
       0.0 -6e-45 0.001221765 6e-45

exp_avg_sq f4 [16, 32]
000000 86 70 5a 39 a9 5c 9c 39 00 00 00 00 f4 01 00 00
       0.00020832018 0.00029823676 0.0 7e-43
000010 96 69 94 39 f3 65 89 39 2f 6f a9 39 d0 a7 9d 3a
       0.00028307427 0.00026206634 0.0003231703 0.0012028161
000020 e8 64 fb 37 ce bb 42 39 f4 01 00 00 4c 47 6c 3a
       2.996852e-05 0.00018571244 7e-43 0.00090133096
000030 cd 79 55 38 9e 4e 36 34 7a 39 8d 3a 7a 97 39 39
       5.0896593e-05 1.6978672e-07 0.0010774576 0.00017699404
000040 f4 01 00 00 f4 01 00 00 8b ec 4d 37 f4 01 00 00
       7e-43 7e-43 1.2274027e-05 7e-43
000050 d7 e4 bf 39 f4 01 00 00 a1 3f ab 3a f4 01 00 00
       0.00036600858 7e-43 0.0013065228 7e-43
000060 aa 46 f8 38 d2 1a 92 39 f4 01 00 00 02 09 0d 3a
       0.00011838724 0.00027867273 7e-43 0.00053800654
000070 f4 01 00 00 f4 01 00 00 51 75 83 39 00 00 00 00
       7e-43 7e-43 0.00025073675 0.0
000080 ca c0 20 39 e1 b4 ba 39 f4 01 00 00 f4 01 00 00
       0.00015330609 0.0003561145 7e-43 7e-43
000090 da 4b f9 39 38 3c 08 3b f1 f8 dd 39 30 ec b5 3a
       0.00047549495 0.0020787846 0.0004233788 0.0013879593
0000a0 73 61 94 38 a5 a6 53 39 f4 01 00 00 01 80 ac 3a
       7.075341e-05 0.00020184608 7e-43 0.0013160707
0000b0 6e 28 01 39 8d cd 84 33 9b 7a 61 3a a8 a5 6d 39
       0.0001231746 6.1841185e-08 0.00086013385 0.00022663793
0000c0 f4 01 00 00 f4 01 00 00 78 3b b1 39 f4 01 00 00
       7e-43 7e-43 0.00033804378 7e-43
0000d0 95 d4 02 39 f4 01 00 00 41 07 df 3a f4 01 00 00
       0.00012476959 7e-43 0.0017015712 7e-43
0000e0 36 bd dc 39 06 61 86 39 f4 01 00 00 7a 37 12 3a
       0.00042102643 0.0002563076 7e-43 0.00055777247
0000f0 f4 01 00 00 f4 01 00 00 1e b0 b6 39 f4 01 00 00
       7e-43 7e-43 0.00034844963 7e-43
000100 6a 45 ab 39 e7 d7 cb 3a 00 00 00 00 f4 01 00 00
       0.0003266738 0.0015552015 0.0 7e-43
000110 5f 36 eb 39 7c f0 d8 3a 6c d7 85 3a 92 f7 06 3b
       0.00044863202 0.0016551162 0.0010211295 0.002059434
000120 f4 c2 90 38 73 b7 51 3a f4 01 00 00 9d 9d 8a 3a
       6.902768e-05 0.00080000533 7e-43 0.0010575537
000130 bf 83 86 38 b4 70 99 37 37 94 d2 3a 27 94 92 39
       6.4141575e-05 1.8291503e-05 0.00160659 0.00027957672
000140 f4 01 00 00 f4 01 00 00 bb 20 91 39 f4 01 00 00
       7e-43 7e-43 0.0002768094 7e-43
000150 37 dd c0 3a f4 01 00 00 0a 7d f2 3a f4 01 00 00
       0.0014714365 7e-43 0.0018500399 7e-43
000160 3b ce 71 39 71 ce 53 3a f4 01 00 00 f7 d9 1d 3a
       0.00023060378 0.00080797734 7e-43 0.0006021554
000170 f4 01 00 00 f4 01 00 00 f4 55 0f 3a f4 01 00 00
       7e-43 7e-43 0.0005467825 7e-43
000180 39 fc d5 39 9e 24 ba 3a f4 01 00 00 f4 01 00 00
       0.00040814446 0.0014201587 7e-43 7e-43
000190 6d 63 bd 39 41 0f a8 3a 04 80 8f 3a 0a a0 b6 3a
       0.00036122967 0.0012821929 0.0010948186 0.0013933193
0001a0 40 a1 35 38 5e 75 9c 39 f4 01 00 00 c1 31 72 3b
       4.330394e-05 0.00029842084 7e-43 0.0036955925
0001b0 ea 7b be 39 35 77 20 37 ef e9 82 3a 6c 18 74 39
       0.00036331947 9.564498e-06 0.000998793 0.00023278751
0001c0 f4 01 00 00 f4 01 00 00 3a 0b 91 39 f4 01 00 00
       7e-43 7e-43 0.0002766492 7e-43
0001d0 8f 66 d7 38 f4 01 00 00 a8 25 97 3b f4 01 00 00
       0.00010271102 7e-43 0.0046126433 7e-43
0001e0 f1 50 16 39 02 ad 06 39 f4 01 00 00 47 ba 3a 3a
       0.00014335268 0.00012843686 7e-43 0.00071230944
0001f0 f4 01 00 00 f4 01 00 00 e5 d3 bd 3a f4 01 00 00
       7e-43 7e-43 0.0014482705 7e-43
000200 e6 b2 19 38 0f 52 27 3a f4 01 00 00 f4 01 00 00
       3.6644655e-05 0.0006382772 7e-43 7e-43
000210 06 12 55 3a 29 e5 b9 3a a3 9e 47 3a ea 95 44 3a
       0.0008127991 0.0014182675 0.0007614886 0.00074991456
000220 7f 28 03 39 fe 02 b1 39 00 00 00 00 44 8a 19 3a
       0.0001250822 0.000337623 0.0 0.000585709
000230 11 fb 5c 38 fe d4 ca 35 93 7d ab 3a 42 c8 e9 38
       5.268591e-05 1.5112162e-06 0.0013083689 0.00011147607
000240 f4 01 00 00 f4 01 00 00 e8 46 3c 39 f4 01 00 00
       7e-43 7e-43 0.00017955492 7e-43
000250 49 42 df 39 f4 01 00 00 32 48 60 3a f4 01 00 00
       0.0004258326 7e-43 0.000855568 7e-43
000260 59 2e ae 39 53 e5 db 39 f4 01 00 00 57 b6 35 3a
       0.00033222398 0.00041941795 7e-43 0.0006931773
000270 00 00 00 00 f4 01 00 00 a7 6b 9e 39 00 00 00 00
       0.0 7e-43 0.00030216316 0.0
000280 57 34 4a 3a 18 f8 1f 3a f4 01 00 00 f4 01 00 00
       0.0007713488 0.00061023375 7e-43 7e-43
000290 11 29 a9 39 bc dd dc 39 96 41 0a 3a ea db 92 3a
       0.0003226479 0.00042126875 0.00052740553 0.0011204456
0002a0 70 51 2e 39 e3 75 a3 39 f4 01 00 00 26 e5 10 3b
       0.00016624271 0.00031177615 7e-43 0.002210924
0002b0 e5 9b 45 39 db 6c 4e 38 c7 8b cb 3a 84 59 3d 38
       0.00018845459 4.9215607e-05 0.0015529328 4.514448e-05
0002c0 f4 01 00 00 f4 01 00 00 d1 8c 70 37 f4 01 00 00
       7e-43 7e-43 1.4337901e-05 7e-43
0002d0 64 51 8c 3a f4 01 00 00 fa e1 ca 3a f4 01 00 00
       0.0010705409 7e-43 0.0015478723 7e-43
0002e0 65 5a d0 39 85 d4 22 3a f4 01 00 00 73 cd 97 3a
       0.000397402 0.00062114774 7e-43 0.0011581614
0002f0 f4 01 00 00 f4 01 00 00 ea be 18 3a f4 01 00 00
       7e-43 7e-43 0.0005826788 7e-43
000300 86 c8 23 39 68 16 02 39 f4 01 00 00 f4 01 00 00
       0.00015619592 0.00012406113 7e-43 7e-43
000310 51 34 85 38 8f c5 b3 37 27 1d 0b 39 55 b6 24 39
       6.351679e-05 2.1430458e-05 0.00013266933 0.00015708183
000320 2e 53 98 37 1e 8b 8c 38 f4 01 00 00 11 71 90 39
       1.8158546e-05 6.701633e-05 7e-43 0.0002755006
000330 85 40 20 38 29 6f 6f 37 29 a1 91 39 2b dc 3c 36
       3.820706e-05 1.4271392e-05 0.0002777663 2.8142338e-06
000340 f4 01 00 00 f4 01 00 00 47 38 b5 35 f4 01 00 00
       7e-43 7e-43 1.350193e-06 7e-43
000350 7d 01 3c 39 f4 01 00 00 87 c8 44 39 f4 01 00 00
       0.00017929632 7e-43 0.00018766719 7e-43
000360 d6 b5 51 38 8c 71 ba 38 f4 01 00 00 b7 6a 48 39
       4.999883e-05 8.890321e-05 7e-43 0.0001911324
000370 f4 01 00 00 f4 01 00 00 e7 c1 15 39 00 00 00 00
       7e-43 7e-43 0.00014281982 0.0
000380 4a e5 f5 39 56 e7 1c 3a 00 00 00 00 f4 01 00 00
       0.00046900875 0.00059853995 0.0 7e-43
000390 9a 09 2b 3a 11 b1 2f 3b 6b 94 af 3a 2e 00 e9 3a
       0.0006524563 0.002680842 0.0013395672 0.0017776543
0003a0 3c 71 8c 38 55 33 d5 39 00 00 00 00 85 6c b4 3a
       6.696812e-05 0.0004066477 0.0 0.0013765251
0003b0 5d fe 9d 39 8f bd 86 37 ce 2e 41 3a 07 bd a7 39
       0.0003013489 1.6062315e-05 0.000736934 0.00031993559
0003c0 f4 01 00 00 f4 01 00 00 0f b0 f1 39 f4 01 00 00
       7e-43 7e-43 0.00046098276 7e-43
0003d0 40 4f ed 36 f4 01 00 00 94 4c dd 3a f4 01 00 00
       7.0723763e-06 7e-43 0.0016883784 7e-43
0003e0 a5 f3 09 3a 68 f9 bb 38 f4 01 00 00 31 df 56 3a
       0.0005262441 8.9633104e-05 7e-43 0.000819671
0003f0 00 00 00 00 f4 01 00 00 42 ca a3 3a f4 01 00 00
       0.0 7e-43 0.0012496191 7e-43

exp_avg f4 [16]
000000 e0 26 81 bb a8 b2 94 bb 99 0c 8c 3b af 0f ec 3c
       -0.003941402 -0.004537899 0.0042739627 0.028816072
000010 aa 2a d2 3b 3e e4 78 3c 72 b0 42 bd 2f c5 dc 3c
       0.0064137774 0.015191136 -0.047531553 0.026949493
000020 a0 9c f2 bc 04 00 00 00 04 00 00 00 12 d3 d3 bb
       -0.0296157 6e-45 6e-45 -0.0064643705
000030 93 14 93 3c 51 6c 69 3c 3f 43 83 3c 17 56 67 3b
       0.017954146 0.014247016 0.016023276 0.0035299116

exp_avg_sq f4 [16]
000000 ba 54 2f 3c 57 14 88 3c ab 99 1a 3d 0a 71 1d 3d
       0.010701353 0.016611261 0.037744205 0.03843788
000010 90 aa 95 3c a8 69 f4 3c 7b 1a 9c 3c 25 94 df 3c
       0.018269807 0.029835537 0.019055596 0.02729232
000020 cd 8a d0 3b f4 01 00 00 f4 01 00 00 5e ea 27 3d
       0.0063642026 7e-43 7e-43 0.040994994
000030 84 6b ba 3c 08 35 06 3d 91 d5 59 3c 8a c3 3b 3c
       0.022756346 0.03276542 0.013295547 0.011460194

exp_avg f4 [3, 16]
000000 0f 7a 62 3a 6b e8 1f b9 c7 a1 a1 b7 06 12 04 38
       0.0008639404 -0.00015250004 -1.9268029e-05 3.1488038e-05
000010 0a bc 6d 39 a5 cb fb 39 51 9d a7 38 51 e5 1f 3a
       0.00022672131 0.00048026178 7.992483e-05 0.00060995395
000020 8f 05 04 3b 04 00 00 80 04 00 00 00 a8 9c d3 b9
       0.0020144915 -6e-45 6e-45 -0.00040361774
000030 54 32 0d 3a 07 e1 d4 b9 2b bc ab b8 b9 9a 67 36
       0.00053862226 -0.0004060345 -8.1889644e-05 3.4511743e-06
000040 65 01 0b 3b f6 7e 8b b8 ea d5 37 b9 ff 5e 7b b9
       0.0021210548 -6.651685e-05 -0.00017531929 -0.00023972614
000050 96 1f 6a ba eb a5 fb 3a 9c 96 ab b9 af 09 5a ba
       -0.0008931098 0.0019199228 -0.00032727874 -0.0008317483
000060 81 3c 0c 3b 04 00 00 00 04 00 00 00 a5 12 ce b9
       0.0021398368 6e-45 6e-45 -0.00039305273
000070 18 6b 33 39 52 66 33 38 6a 58 44 39 bc e8 31 3a
       0.00017110666 4.277222e-05 0.00018724953 0.0006786694
000080 e9 9f 43 bb 23 a8 65 39 36 0a 4c 39 7f 5a 5a 39
       -0.0029849953 0.00021901778 0.0001945876 0.00020823813
000090 99 b0 2e 3a 64 4c 1d bb ac af 81 39 b4 91 68 39
       0.00066638883 -0.0024001831 0.00024735683 0.00022179523
0000a0 08 21 88 bb 04 00 00 00 04 00 00 80 bf d7 50 3a
       -0.0041543283 6e-45 -6e-45 0.0007966719
0000b0 13 0d 3a ba 4e 74 be 39 b7 f4 dc b8 4c d0 32 ba
       -0.0007097285 0.00036326278 -0.00010535999 -0.00068212

exp_avg_sq f4 [3, 16]
000000 c5 78 25 39 ba b5 a6 37 1a b3 b9 36 11 6d c4 36
       0.00015780616 1.9873365e-05 5.53428e-06 5.853952e-06
000010 21 c6 a6 36 71 e7 60 36 52 91 44 34 e5 8c da 37
       4.9702508e-06 3.3513318e-06 1.830679e-07 2.6053234e-05
000020 6f ea 38 38 f4 01 00 00 f4 01 00 00 34 bf 80 37
       4.4087352e-05 7e-43 7e-43 1.5347825e-05
000030 30 c5 82 39 a7 65 5a 37 a1 59 9c 38 c8 c7 e3 37
       0.00024942448 1.301748e-05 7.455354e-05 2.715354e-05
000040 eb 31 fc 37 9a 30 17 36 8f 7a 6a 36 90 d8 12 36
       3.0063986e-05 2.2529043e-06 3.4940056e-06 2.1881751e-06
000050 fe 34 82 37 81 04 9a 37 b7 8d 7a 36 2b 0d 9f 37
       1.5521884e-05 1.8360328e-05 3.7335392e-06 1.8960409e-05
000060 27 0c e0 37 f4 01 00 00 f4 01 00 00 8c 17 18 37
       2.670854e-05 7e-43 7e-43 9.065388e-06
000070 7a 05 13 37 83 7a 33 36 43 e7 11 36 a4 ca 5d 38
       8.763158e-06 2.674439e-06 2.1741296e-06 5.287923e-05
000080 7a ea 32 39 9f 0d a3 37 25 ae 16 37 c5 18 07 37
       0.00017062752 1.9437457e-05 8.981243e-06 8.052394e-06
000090 7b 76 9d 37 71 91 9b 37 50 59 78 36 c7 a3 3c 38
       1.877103e-05 1.8545166e-05 3.7006866e-06 4.4975222e-05
0000a0 78 8a 8d 38 f4 01 00 00 f4 01 00 00 87 ec 5d 37
       6.749196e-05 7e-43 7e-43 1.3227697e-05
0000b0 e7 0d 85 39 1b 7d 4d 37 f5 01 9d 38 08 15 8d 38
       0.00025378095 1.2248081e-05 7.486708e-05 6.727321e-05

exp_avg f4 [3]
000000 bc c0 c6 b9 b9 dc b0 3b 9c 70 a4 bb
       -0.000379091 0.005397406 -0.005018307

exp_avg_sq f4 [3]
000000 d2 13 97 3a 5c 72 04 3a 62 01 b7 3a
       0.0011526293 0.0005052441 0.0013962204

loss f8 []
000000 67 66 b6 e6 f7 87 cc 3f
       0.2228994251752738
