46_no_regu_epoch_edge_detector.pth (torch, 25382 bytes, 19 tensors)

model.0.weight f4 [32, 25]
000000 18 b7 ab bb ef 2c bd bb 22 e1 86 bb b0 91 64 bb
       -0.0052403323 -0.005773179 -0.0041161934 -0.0034876876
000010 ff 35 15 bb ef 42 99 bb 2b e8 d7 bb e2 9a db bb
       -0.002276778 -0.0046771686 -0.006588956 -0.006701813
000020 ec 14 b6 ba 62 e0 91 ba f7 92 a6 bb 7c cc b7 bb
       -0.0013891733 -0.0011129493 -0.0050834375 -0.0056090932
000030 ca fa ae bb 25 ae 9b 3a d2 06 46 ba 7b 02 9b bb
       -0.005339955 0.0011877461 -0.0007554117 -0.0047305203
000040 bf e7 d0 bb ac ad a6 bb cb 33 2c ba 7e 8a 53 bb
       -0.0063752825 -0.0050866213 -0.0006568997 -0.0032278593
000050 cf e7 4f bb 8a f6 96 bb fe c2 7c bb 09 57 06 bb
       -0.0031723862 -0.0046070265 -0.0038568373 -0.0020498654
000060 10 a8 0b bb 82 7b 24 3d ea cc 4d 3c fa f1 9d 3a
       -0.002130989 0.04015685 0.012561062 0.0012050264
000070 8e be f8 bb fe 37 11 3d 9e 29 38 be ac ef d1 3c
       -0.0075910753 0.03545379 -0.17984626 0.02562698
000080 8f 3c 97 3e 1f 55 0d 3e 59 60 33 be ec d5 9f be
       0.2953839 0.13802002 -0.17517222 -0.31217897
000090 60 04 49 be 63 b2 34 3f eb b4 d6 bd fd cf ba be
       -0.19630575 0.70584697 -0.10483726 -0.36486807
0000a0 d2 6d 2c be 97 11 23 3d 87 61 81 3e 44 20 8c 3d
       -0.16838768 0.039811697 0.2526972 0.06842092
0000b0 f5 e9 60 be 48 6d 8a 3d 3a 46 da bb 19 c8 d9 3c
       -0.21964248 0.06759125 -0.0066612037 0.026584672
0000c0 04 31 40 3a cf d1 01 3d 16 29 2a bd 8e aa 4f 3e
       0.00073315226 0.03169423 -0.04154309 0.20279905
0000d0 67 7b 2b 3e 35 17 67 3d 3c 69 d8 3d b8 63 d6 3d
       0.16746293 0.056418616 0.10566947 0.104682386
0000e0 c6 3b 28 3e ec 75 8e 3d e5 1e ac 39 f5 5a 6f bd
       0.16429052 0.069560856 0.00032829415 -0.058436353
0000f0 5a 4f 4c bc 20 3b 28 be a2 e2 1d bf 11 d6 ba be
       -0.012470091 -0.16428804 -0.6167394 -0.36491445
000100 a4 fc 0d be 26 9c f9 3c 77 4e b2 bc f1 d8 11 3d
       -0.13865906 0.030469965 -0.02176593 0.035607282
000110 31 62 85 bd 61 b6 3d ba 99 03 03 3e 0e 44 76 3e
       -0.06512869 -0.00072369544 0.12794341 0.24049398
000120 3b 96 7e 3e a6 ba 2f 3d 24 43 37 3d bf 09 09 3e
       0.24861996 0.04290261 0.044741765 0.13382624
000130 7f 98 c1 3d 1d 71 49 3d 06 b6 0b 3e 9a 71 46 3e
       0.094529144 0.04918014 0.13643655 0.19379273
000140 65 2b 1f 3e 78 a6 d7 bd 18 af 92 be bd 5b 30 bd
       0.15543897 -0.10529798 -0.2864921 -0.04305624
000150 b5 5a a6 3e 0d 83 b8 3e b2 e9 94 be c9 29 dc be
       0.3249108 0.36037484 -0.29084545 -0.4300063
000160 79 bd 14 be 3d 4f 96 3e 84 82 28 3e 36 51 21 3c
       -0.14525403 0.2935733 0.16456038 0.009846022
000170 d9 4b dd bc 31 5c 71 be 24 fb 71 bd 56 59 33 bd
       -0.027013706 -0.23570324 -0.059077397 -0.04378637
000180 d2 78 ae bd 9c a6 c0 bb f4 1d a7 bd 62 f7 d0 bd
       -0.085191384 -0.0058792364 -0.0816001 -0.102034345
000190 db 13 b4 bc eb e4 83 bd e6 0e 09 bd 01 2d 2b bd
       -0.021982124 -0.06440147 -0.033461474 -0.041790966
0001a0 8e 07 0e 3e e0 ed b3 bc 8b 2a 13 3e c9 14 9b bc
       0.1387007 -0.021964014 0.14371698 -0.01893081
0001b0 18 33 f5 bd 49 af 38 3e 73 10 1f be 29 83 08 3f
       -0.11972636 0.18035616 -0.15533619 0.53325135
0001c0 c3 b5 df bd 7c 57 31 bf d0 13 38 3d 7c 52 44 3c
       -0.1092334 -0.69274116 0.04494077 0.011982556
0001d0 c0 a3 0d 3e 11 d2 2e bd df e3 9d bc 20 fa 25 3e
       0.13831997 -0.042680804 -0.019273696 0.16208696
0001e0 c3 f1 77 bd 81 56 1c 3d 6d ef 5a 3d de 18 69 bd
       -0.060533296 0.038168434 0.05345099 -0.05690848
0001f0 1e 4e a6 3c 69 d5 f3 3c 0e 34 af bd 7d 0a 7f bd
       0.020300921 0.029764848 -0.085548505 -0.06226586
000200 f2 ac 5f 3d 4f 00 59 bc fb ef 0f be f6 99 ee 3d
       0.054608293 -0.0132447025 -0.14056389 0.116504595
000210 63 bc 8e 3e 28 ab 95 3d c1 09 ab bd 71 77 93 3d
       0.27878103 0.07308036 -0.0835147 0.07200516
000220 8b 24 82 3e 4c c4 ff 3e 84 77 82 3c 80 05 cb bd
       0.25418505 0.4995445 0.01592613 -0.099131584
000230 7b 5d 83 3d 32 42 8f be e8 8e c3 be c6 e6 1a bf
       0.06414314 -0.2798019 -0.38194966 -0.6050838
000240 43 94 3e bd 40 bb d8 3c c9 67 08 3e 94 8c c0 3d
       -0.046528112 0.026456475 0.13320841 0.09401813
000250 11 f8 cf 3d f8 7b 0c bd ba 24 7b bb ab 2a ec bb
       0.10154737 -0.034297913 -0.0038321451 -0.007207235
000260 90 2b c3 bb 7c ce 99 ba 3a 08 9f ba 2e e8 b5 ba
       -0.005956121 -0.0011734511 -0.0012133189 -0.0013878399
000270 d8 e3 3d bc 0f 08 80 bc a4 c0 89 bb 36 22 18 bb
       -0.011589967 -0.015628843 -0.0042038728 -0.002321375
000280 68 ad 6b bb a2 88 09 bb 50 c5 db 3b e4 9b 09 bc
       -0.0035961512 -0.002098598 0.006706871 -0.008398984
000290 77 be 3d bc 76 29 04 bc 77 93 0d bb 2f 74 87 3a
       -0.011581055 -0.008066526 -0.0021602788 0.0010334308
0002a0 56 a4 12 bb 8a ce c4 bb 49 7d ae bb 7c fc 25 bb
       -0.0022375784 -0.0060060667 -0.0053249937 -0.0025327494
0002b0 69 c4 0e 3a cd c5 0f bb fb fe 6f bb 22 0e ad 3d
       0.00054461375 -0.0021937967 -0.0036620486 0.08449961
0002c0 fb ff 95 bd 9e 6c c6 3d 3c df e4 3c fc 2e 9d 3c
       -0.07324215 0.09688686 0.027938478 0.019187443
0002d0 6a 2a f4 3a c1 a4 08 be 65 5a 7b be a9 ec 66 be
       0.0018628363 -0.13344099 -0.24546202 -0.22551216
0002e0 f4 35 fe 3c 84 ae ad 3d b5 69 b7 3c 03 7b 91 c0
       0.031031586 0.08480552 0.022389272 -4.546266
0002f0 2f b8 2e be e8 c1 02 3e 3f aa 20 3e 82 8a 68 3c
       -0.17062448 0.12769282 0.15689944 0.014193179
000300 27 15 9e be 4d c4 bf bd f8 2c 26 3e 12 8c 2a 3d
       -0.30875513 -0.09363613 0.16228092 0.041637488
000310 7c 98 61 bd 8a 35 f6 3d aa bf 0b bd 2d ee 91 3d
       -0.05507706 0.120219305 -0.034118332 0.071255066
000320 01 b9 50 bd 26 fb b8 bd a1 86 ac 3d ac 74 98 3d
       -0.050957683 -0.09032278 0.08424116 0.074441284
000330 a3 42 ac 3d b8 64 95 bd fd cd 4f 3d c5 1c 0d bd
       0.084111474 -0.07294601 0.050733555 -0.034451265
000340 ce 64 08 3e e3 a1 6c 3d 97 37 0f bc 7d f0 1b 3e
       0.13319704 0.057771575 -0.008741281 0.15228458
000350 7b 7f b6 c0 ec 1f 99 be f5 9e a1 3d 53 cb 82 3e
       -5.7030616 -0.29907167 0.07891647 0.2554575
000360 52 25 55 be ec da 55 be 00 f8 44 be da 90 ef bd
       -0.20815018 -0.20884293 -0.1923523 -0.1169755
000370 6b 8d 44 be 3e 91 5c 3d dc 0f ac bc ac 76 83 3e
       -0.19194572 0.05384945 -0.021003656 0.25676477
000380 d4 3d 21 3c d2 4d 23 bb b8 ac 94 bb 56 70 e0 bb
       0.009841401 -0.002491821 -0.0045371912 -0.006849329
000390 1f c5 27 bc a2 77 1f bc 19 e7 1a bb 7c d3 06 3b
       -0.010239868 -0.0097331125 -0.002363628 0.0020572832
0003a0 c6 5b 15 bb 52 e8 47 bc b0 03 3f bc 24 88 a9 bb
       -0.0022790297 -0.012201386 -0.011658594 -0.0051737
0003b0 d3 fd 51 3b cc f4 a3 bb aa f3 7b bc 41 62 3b bc
       0.003204216 -0.0050035473 -0.015377918 -0.011437
0003c0 06 cf 99 bb af d8 77 ba 9b b9 eb bb 6c 5a 5e bc
       -0.0046938686 -0.00094545906 -0.0071937568 -0.013571363
0003d0 a2 ab 1e bc f5 0b 69 ba 66 d6 8d 3a 9f 04 92 bb
       -0.009684475 -0.00088900264 0.0010821342 -0.0044561173
0003e0 e7 0a 26 bc 4f 49 3d bc 6d bc ff 3d 93 94 70 3e
       -0.010134435 -0.011553123 0.12487111 0.23494177
0003f0 6e 60 83 3e b2 fe 25 3e 6b ec b3 3d 9d cf 6a 3e
       0.25659508 0.1621044 0.087853275 0.2293076

model.0.bias f4 [32]
000000 84 3e c0 ba f8 e5 c5 bc 95 72 c3 bd 6d 3b 81 bd
       -0.0014667069 -0.02415751 -0.09543339 -0.06310163
000010 e7 84 61 bb 5c 39 0b 3a 9b 74 de ba f2 34 b7 3c
       -0.0034411491 0.00053109764 -0.0016972007 0.022364113
000020 6e 60 91 3c 6c 3c bf bb ad d7 b7 bd 67 19 1a ba
       0.017746177 -0.0058360603 -0.08976684 -0.0005878419
000030 b5 4f 70 bd 6e 0f 25 ba b0 66 43 bd d1 84 6e bb
       -0.058669765 -0.00062965497 -0.047705352 -0.0036395083
000040 0c 2d ec 3c c0 f1 6a 3c 03 ad 68 bd 02 bf cd b9
       0.028830074 0.014339864 -0.05680562 -0.0003924296
000050 39 a1 3b 3c f5 5a 2f bd 6d 68 56 bd 1e 26 02 3c
       0.011452013 -0.042811353 -0.052345682 0.007943658
000060 4f 34 c5 bc ab cc 35 3d 04 97 cc 3c a4 a8 ef 3c
       -0.024072794 0.04438464 0.024974354 0.029255219
000070 e7 d8 e4 3a ff b7 5c ba 3c 23 ad ba 0a 60 24 bb
       0.0017459661 -0.00084197515 -0.0013209353 -0.0025081658

model.2.weight f4 [16, 32]
000000 19 22 56 3b ab 95 9a bf 8a 1b 16 3f dd e2 65 3f
       0.0032674132 -1.2076925 0.5863577 0.8979929
000010 8a a5 19 bf 00 c2 0f bf 8d ff 11 bc 58 b5 af 3f
       -0.6001822 -0.56155396 -0.008911026 1.3727217
000020 f2 aa de 3f 32 66 4e b8 22 f6 7c 3f 72 6b 72 39
       1.7395918 -4.9209404e-05 0.9881307 0.00023118945
000030 8a f7 75 3f 7a 9e cd be fd 65 6e 3f 0c 27 af bb
       0.9608084 -0.4015997 0.9312437 -0.005345231
000040 2d b1 91 3f d5 dd 10 bf 5a 20 33 bf 60 97 2a 3a
       1.1382195 -0.5658849 -0.6997124 0.0006507542
000050 a0 8e 24 3f 2e b4 e4 3d ea 14 eb 3d 74 0e ca bd
       0.6428013 0.11167179 0.114785984 -0.09866038
000060 22 95 8c bf 4e 7b c1 3f 09 98 41 bf 48 c7 53 3f
       -1.0983012 1.5115755 -0.7562261 0.82725954
000070 7e e4 1f be fb 61 3d ba 8a 20 ba 38 31 60 3c ba
       -0.15614507 -0.0007224378 8.875232e-05 -0.00071859645
000080 ae 2f fa 3a cf fa 8f 3e ef 67 38 bf bc 3b 03 bf
       0.0019087696 0.2812104 -0.7203359 -0.5126302
000090 10 52 a5 be 36 0a b2 3f f4 cb 9a 3a 54 bb 75 bf
       -0.3228917 1.3909366 0.001181005 -0.95988965
0000a0 8c 27 a9 bf 89 2d 88 39 d4 ee e0 3d 3b 31 6c bb
       -1.3215194 0.00025973868 0.10983053 -0.0036040086
0000b0 66 09 8f be 10 50 c8 3f b9 a7 c7 be d7 c5 2d 3f
       -0.27936858 1.5649433 -0.3899515 0.67880005
0000c0 34 d4 1e bf 52 e4 6e 3f 80 15 eb be 7b 26 57 bb
       -0.62042546 0.9331714 -0.4591484 -0.0032829333
0000d0 3f c1 57 be 83 cd 3b bf aa 34 24 bf 95 2c f0 3e
       -0.21069811 -0.7336046 -0.6414286 0.46909013
0000e0 fc 99 3f 3f e1 a8 56 bf e8 35 c5 3f ca 5c 13 bf
       0.74844337 -0.8385144 1.5407076 -0.5756346
0000f0 3c e1 22 3f 1e a8 0b ba 2a 82 d1 38 af 3a 3c ba
       0.6362493 -0.00053274806 9.9901416e-05 -0.00071803754
000100 ff 79 e7 b9 70 30 af bf 85 d5 11 3e e4 32 1f bf
       -0.00044150648 -1.3686657 0.14241607 -0.6218703
000110 8f 38 5e 3f a1 b5 0d 3f 42 41 7f bb 5e 81 85 bf
       0.8680505 0.5535527 -0.0038948809 -1.0430105
000120 b3 3d bb bf 57 34 8e 39 ab 01 54 be 34 f6 14 ba
       -1.4628204 0.00027123347 -0.20703761 -0.0005682439
000130 3e 0b f4 3d 45 2e 08 bf 33 01 21 bf c6 a2 38 3d
       0.11916207 -0.531956 -0.62892455 0.045077108
000140 7d 56 2f bf 98 e4 2a 3f 1f 86 3c 3f 3d 21 18 3b
       -0.68491346 0.66755056 0.7364215 0.002321317
000150 9d 23 b2 be 66 f8 69 be 81 f9 4b be fb 6f 72 3f
       -0.34792796 -0.22848663 -0.19919397 0.9470212
000160 0f 3e 8c 3f 0c 5c 55 bf f1 55 62 3f 07 5d b3 be
       1.0956439 -0.8334358 0.88412386 -0.35031912
000170 7d e5 ac 3e 4c 2e 2a b8 44 98 aa 39 22 cd cb 38
       0.33768836 -4.0574276e-05 0.00032538373 9.718003e-05
000180 c4 84 21 3b 97 6d cf 3e 68 a9 3b 3e 0c 68 d7 3e
       0.0024645785 0.40513298 0.18326342 0.4207157
000190 a8 a0 4a bf 7d 32 ff bf 62 89 bc 39 d2 97 a0 3f
       -0.7915139 -1.9937283 0.00035960512 1.2546332
0001a0 b5 2b ca 3f e7 9c 1d 3c 50 22 a0 3e b3 5d fd b8
       1.5794588 0.009619928 0.31276178 -0.00012081433
0001b0 66 df 6e 3d 58 30 ee bf 68 a1 47 3f 50 9c 43 3d
       0.058318518 -1.8608503 0.7798066 0.047756493
0001c0 22 16 74 3f c8 43 d6 be 47 18 9f bf 51 c2 ab bb
       0.9534627 -0.41848588 -1.2429284 -0.00524167
0001d0 c7 1e 64 3f 9f 81 78 3c 6d 95 81 3f 01 18 85 be
       0.8910946 0.015167623 1.0123726 -0.25994876
0001e0 f2 cd da be d4 68 a1 3f dd f6 41 bf cd 8e a5 3f
       -0.4273525 1.2610116 -0.7576731 1.2934204
0001f0 38 56 fa bd 82 54 01 b9 31 b5 93 b8 e3 af 1e bb
       -0.12223476 -0.0001233388 -7.043256e-05 -0.0024213723
000200 b8 5f 0c bb df dd 4a bf 3b f8 02 3e c7 1e 4b 3f
       -0.0021419358 -0.792448 0.12790005 0.7934384
000210 08 23 03 bf e5 4d ee be fc 2d 62 3c 2f 34 ad 3f
       -0.5122533 -0.46543804 0.013804909 1.353155
000220 fb f0 d4 3f 40 8c 07 bc eb e9 36 be 6e 92 d5 ba
       1.6636041 -0.008273184 -0.1786267 -0.001629425
000230 e3 74 9b 3e 36 2e ca bd 25 74 6e 3f f6 d1 e8 3c
       0.30362615 -0.09872095 0.9314597 0.02842043
000240 77 be aa 3f 27 60 9e 3e ee 51 8d be 70 aa 15 ba
       1.3339375 0.30932733 -0.2760157 -0.0005709296
000250 be 56 92 3f 1e cc 81 3e 07 03 80 3e 92 94 62 3e
       1.1432722 0.25351042 0.2500231 0.22126988
000260 82 03 cd be 4a 46 ba 3f 89 73 e1 be 47 ed d7 3f
       -0.4004174 1.45527 -0.4403346 1.6869286
000270 e2 d4 94 3c d9 a3 59 b9 47 4a 88 b8 90 2f 2a 3b
       0.018167917 -0.0002075577 -6.4988206e-05 0.002596829
000280 a1 93 77 ba 84 64 ad bf 8a c1 6f be 66 26 f5 be
       -0.00094443007 -1.35463 -0.23413673 -0.47880858
000290 d9 f6 30 bf 7a 07 55 bf 5f 07 5a 3b 1f 58 9d 3f
       -0.6912666 -0.83214533 0.0033268554 1.2292517
0002a0 b3 8f 9d 3f 64 36 81 3b 43 3a 8d bb 90 08 2b b9
       1.2309479 0.0039432514 -0.004309924 -0.0001631102
0002b0 e5 49 f0 bd 9f 59 7d bf 91 88 bf 3d 79 60 78 bf
       -0.11732844 -0.98964876 0.0935222 -0.97022206
0002c0 61 02 6f 3f 80 a3 45 bd 8b 42 a8 bf e2 7c ac bb
       0.93363005 -0.04825163 -1.3145307 -0.0052639106
0002d0 04 af ae 3d f2 54 b2 be b9 de 18 bf e9 6d e7 be
       0.08529475 -0.34830433 -0.5971485 -0.45201042
0002e0 5d 53 8d bf 4d 05 c5 3f 7b a4 9d be 3a 9a 46 3f
       -1.1041065 1.5392243 -0.3078955 0.7757908
0002f0 11 cb 79 bf 29 db 93 39 ac 4c d9 b9 c4 a8 61 bb
       -0.9757548 0.00028201312 -0.0004144659 -0.0034432868
000300 d3 47 23 bb ac 24 f6 bf b0 dd 68 3e f3 a3 08 bf
       -0.0024914637 -1.9229941 0.22740817 -0.53375167
000310 2e ef 5e 3f fe d2 6b bc 6f 3c 9a bb d1 fb 93 bf
       0.8708371 -0.014393566 -0.0047069113 -1.1561223
000320 36 6e 95 bf 19 6a a6 ba ce c1 1d be 0c dc d7 39
       -1.1674259 -0.0012696414 -0.15405962 0.00041171943
000330 96 a6 37 3d 35 53 ec be 6d 65 05 bf 80 ed af 3d
       0.044836603 -0.46157232 -0.5210789 0.085902214
000340 70 12 63 bf 51 98 8e 3e 9e fe 4a 3f b7 79 ff 3a
       -0.8870001 0.27850583 0.79294765 0.001949123
000350 4b 95 d2 be 5e 32 a6 3d fd 6a ac bd fc f6 56 3f
       -0.41129526 0.081150755 -0.08418844 0.8397062
000360 9d bf a5 3f 26 d2 6c bf d0 b9 27 3f 9a 51 a7 be
       1.2949101 -0.9250816 0.655179 -0.32679445
000370 5b a5 e4 3d 9b d4 92 39 bb aa a6 b9 7e 75 1f ba
       0.111643516 0.00028005693 -0.0003178919 -0.00060828764
000380 49 69 f5 b9 95 aa c9 bf 04 05 a2 3d dd 7d fa be
       -0.00046808485 -1.5755183 0.07911113 -0.4892415
000390 ca 4d 3e 3f e6 89 0c 3e 23 a2 b9 35 f1 28 94 bf
       0.74337447 0.13724479 1.3830762e-06 -1.1574994
0003a0 e4 d4 98 bf 82 8e 52 bb 1e b8 93 bd 1b b1 00 ba
       -1.1939969 -0.0032128398 -0.07212852 -0.0004909203
0003b0 7f da 28 be 31 a5 7d 3d fd 9a 17 bf 19 ab b2 3e
       -0.164896 0.061925117 -0.5922087 0.34896162
0003c0 cc a8 85 bf 1c 1b be 3e f3 76 2f 3f 8d a9 2c 3b
       -1.0442138 0.37130058 0.6854088 0.0026346177
0003d0 23 d0 d2 be cc 3a 06 be 64 fe 9e be 12 e0 4b 3f
       -0.4117442 -0.13108367 -0.3105346 0.7963878
0003e0 b8 98 b5 3f 8e 67 70 bf 17 55 63 3f d6 88 cf be
       1.4187231 -0.9390801 0.8880171 -0.40534085
0003f0 e6 05 13 3e b3 6d 18 ba c3 7e a9 ba 20 06 df b8
       0.14357719 -0.00058146863 -0.0012931455 -0.000106346095

model.2.bias f4 [16]
000000 ea c2 eb 3d f7 86 9e 3c bf 5e e4 3c 53 51 c0 3e
       0.11511786 0.019351466 0.02787721 0.37562045
000010 2b f3 9a bc 2e 59 fd 3e 47 40 dc 3a 33 82 db 3c
       -0.01891478 0.494821 0.0016803824 0.026795482
000020 46 5b 0f 3e 9c dd 3d 3a 21 fa 1a 3e 05 f1 98 3a
       0.13999662 0.00072428 0.15134479 0.0011668509
000030 ba b4 23 3e 8a 29 98 ba 00 3d c1 3e 82 2f 49 bb
       0.1598691 -0.0011609059 0.37741852 -0.0030698483

model.4.weight f4 [2, 16]
000000 83 f7 4c c0 9f 9b 68 40 7f 3a 5d 40 f5 71 0c c0
       -3.202607 3.6344984 3.4566953 -2.1944554
000010 7e f3 e7 bf bf c6 dc c0 91 84 6a 40 c5 3b 6c 40
       -1.8121183 -6.899261 3.6643412 3.691148
000020 1f 15 11 40 5b 0d 5e 40 f3 90 16 40 d5 55 ac 40
       2.2669141 3.4695652 2.352597 5.3854775
000030 cf 9e 14 40 cb b3 a7 ba 34 06 0b c0 3f d4 1f b9
       2.322193 -0.0012794671 -2.1722536 -0.0001524249
000040 b8 ef 4c 40 b9 9b 68 c0 f8 28 5d c0 85 6f 0c 40
       3.2021313 -3.6345046 -3.4556255 2.1943066
000050 de fa e7 3f f0 b9 dc 40 59 87 6a c0 cb 66 6c c0
       1.8123434 6.8976974 -3.664511 -3.693774
000060 32 2d 11 c0 f5 f0 5d c0 41 9e 16 c0 57 5b ac c0
       -2.2683835 -3.4678319 -2.353409 -5.38615
000070 f3 ad 14 c0 04 6c 74 39 c0 1e 0b 40 fc e3 fa ba
       -2.323117 0.00023309892 2.1737518 -0.0019141431

model.4.bias f4 [2]
000000 8a f3 b6 be db f4 b6 3e
       -0.3573268 0.35733685

exp_avg f4 [32, 25]
000000 04 00 00 00 04 00 00 00 04 00 00 00 04 00 00 00
       6e-45 6e-45 6e-45 6e-45
000010 04 00 00 00 04 00 00 00 04 00 00 00 04 00 00 00
       6e-45 6e-45 6e-45 6e-45
000020 04 00 00 00 04 00 00 00 04 00 00 00 04 00 00 00
       6e-45 6e-45 6e-45 6e-45
000030 04 00 00 00 04 00 00 00 04 00 00 00 04 00 00 00
       6e-45 6e-45 6e-45 6e-45
000040 04 00 00 00 04 00 00 00 04 00 00 00 04 00 00 00
       6e-45 6e-45 6e-45 6e-45
000050 04 00 00 00 04 00 00 00 04 00 00 00 04 00 00 00
       6e-45 6e-45 6e-45 6e-45
000060 04 00 00 00 1d 5a dd 3c 00 b7 dc 3c 81 30 fe 3c
       6e-45 0.027020508 0.02694273 0.031028988
000070 60 85 0f 3d f2 1b 10 3d 43 39 e1 3c d7 ee df 3c
       0.035039306 0.0351829 0.027493125 0.027335567
000080 05 fd 03 3d 83 e3 0f 3d 18 16 10 3d 32 3a e1 3c
       0.03222372 0.03512908 0.03517732 0.02749357
000090 af 3c e2 3c e4 ac 05 3d f0 04 11 3d d0 38 10 3d
       0.027616827 0.032635584 0.0354051 0.03521043
0000a0 85 f5 e4 3c bd c6 e9 3c 76 ae 10 3d 98 c3 12 3d
       0.027949104 0.028537149 0.03532263 0.035831064
0000b0 ff b4 11 3d f8 c3 e5 3c a8 80 ee 3c 7b 12 11 3d
       0.035573002 0.028047547 0.029114082 0.035418015
0000c0 88 c4 11 3d dd 35 10 3d 9a 17 36 38 2d 4f 0e 38
       0.035587817 0.035207618 4.3414162e-05 3.3929176e-05
0000d0 c8 76 41 37 98 3d 72 38 05 74 b7 38 e5 ca f5 37
       1.1531352e-05 5.775466e-05 8.74773e-05 2.9300756e-05
0000e0 ee f4 8d 37 6f e5 bc 36 71 75 9e 38 ba cc d4 38
       1.6922564e-05 5.629546e-06 7.555902e-05 0.00010147081
0000f0 4a 5c 2c 38 d2 31 0d 38 c3 65 75 b6 53 02 77 38
       4.1093946e-05 3.366342e-05 -3.6567078e-06 5.8891554e-05
000100 e3 83 d5 38 9a 2c 3f 38 12 35 55 38 1d 48 84 37
       0.00010181197 4.5579487e-05 5.0832583e-05 1.5769207e-05
000110 40 4a 11 38 d8 0f 92 38 fb d1 73 38 06 d9 86 38
       3.4639845e-05 6.964774e-05 5.8131274e-05 6.430042e-05
000120 ad 41 10 38 11 46 1a 38 21 8c 4f 38 0d 52 09 3c
       3.439344e-05 3.6781716e-05 4.948315e-05 0.008381379
000130 73 ce 07 3c 6b 09 05 3c 0f 44 03 3c 70 04 03 3c
       0.008288967 0.008119921 0.008011832 0.007996663
000140 0e bc 07 3c 4a 5f fc 3b 19 31 de 3b d6 6d fd 3b
       0.008284582 0.007701789 0.0067807552 0.0077340407
000150 eb ca 02 3c 3b 11 08 3c 92 69 01 3c 16 6e b8 3b
       0.00798295 0.008304889 0.007898705 0.0056283576
000160 7c 5c e1 3b 60 f3 fc 3b ca 8b 05 3c 08 99 f8 3b
       0.00687748 0.0077194422 0.008151004 0.007586602
000170 65 b0 b6 3b 2b d3 bd 3b 44 43 e5 3b f4 92 eb 3b
       0.005575227 0.0057929954 0.006996544 0.007189149
000180 f8 15 e0 3b a1 de be 3b 07 cb b8 3b 32 17 c8 3b
       0.0068385564 0.0058248793 0.005639437 0.0061062807
000190 be 95 0d bc a7 2c 00 bc 16 fc dd bb 19 23 c2 bb
       -0.008641658 -0.007823146 -0.0067744358 -0.005924594
0001a0 7e 42 b6 bb 68 0d 14 bc e1 07 05 bc 8b 6a af bb
       -0.0055621257 -0.009036399 -0.008119554 -0.005353277
0001b0 a8 74 a3 bb 7d b1 a7 bb 0e f0 16 bc a0 75 07 bc
       -0.0049882717 -0.005117594 -0.009212507 -0.00826779
0001c0 da 4b a7 bb 7f f6 89 bb 00 cb 9a bb a6 ec 11 bc
       -0.0051054778 -0.004210293 -0.0047239065 -0.008906519
0001d0 28 94 05 bc 7b 27 b2 bb 88 68 96 bb 44 70 8d bb
       -0.008152999 -0.0054368353 -0.004590098 -0.0043163616
0001e0 dc 23 02 bc 49 f2 e9 bb 3f e8 b7 bb fa d1 9c bb
       -0.00794312 -0.0071394783 -0.0056124027 -0.0047857733
0001f0 21 d2 90 bb 73 ba b6 bb 2e de b0 bb 96 a9 9d bb
       -0.0044195806 -0.0055764257 -0.0053975796 -0.004811476
000200 df ef 8d bb 86 9d 89 bb c4 22 b1 bb 93 40 a8 bb
       -0.0043315734 -0.0041996865 -0.0054057557 -0.005134651
000210 af 81 81 bb d4 8e 82 bb 0a ba 86 bb d4 8a bb bb
       -0.003952227 -0.0039843116 -0.004111533 -0.0057233367
000220 ff 42 a8 bb 77 11 5e bb 13 fd 5e bb 8a a9 7e bb
       -0.0051349397 -0.0033884922 -0.0034025356 -0.0038858377
000230 be 32 b8 bb 07 7a a6 bb 5b 66 5e bb 1e df 43 bb
       -0.0056212833 -0.0050804648 -0.003393552 -0.0029887627
000240 58 55 4f bb bf 17 98 bb 8e 7a 8d bb 62 7c 65 bb
       -0.0031636562 -0.0046415026 -0.004317588 -0.0035016765
000250 6e 38 53 bb 53 2d 5a bb 04 00 00 00 04 00 00 00
       -0.003222968 -0.0033291175 6e-45 6e-45
000260 04 00 00 80 04 00 00 80 04 00 00 80 04 00 00 00
       -6e-45 -6e-45 -6e-45 6e-45
000270 04 00 00 00 04 00 00 00 04 00 00 00 04 00 00 80
       6e-45 6e-45 6e-45 -6e-45
000280 04 00 00 00 04 00 00 00 04 00 00 00 04 00 00 00
       6e-45 6e-45 6e-45 6e-45
000290 04 00 00 80 04 00 00 00 04 00 00 00 04 00 00 00
       -6e-45 6e-45 6e-45 6e-45
0002a0 04 00 00 00 04 00 00 00 04 00 00 00 04 00 00 00
       6e-45 6e-45 6e-45 6e-45
0002b0 04 00 00 00 04 00 00 00 04 00 00 00 4c 65 bb b0
       6e-45 6e-45 6e-45 -1.3634831e-09
0002c0 76 28 bb b0 78 d7 b6 b2 6a 20 32 b3 da 63 6d b3
       -1.361754e-09 -2.1285572e-08 -4.1473335e-08 -5.5271677e-08
0002d0 09 d0 ba b0 d5 c1 b7 b0 ab 7b 22 b1 9b b1 22 b3
       -1.3592408e-09 -1.3370093e-09 -2.36444e-09 -3.7880096e-08
0002e0 73 20 32 b3 b3 0b bb b0 f5 f7 8e b0 6a 70 78 2b
       -4.1473367e-08 -1.3609366e-09 -1.0402333e-09 8.8263305e-13
0002f0 ae aa ad b2 da f8 31 b3 a8 cb 13 b2 1d ca 03 b2
       -2.0217467e-08 -4.1437353e-08 -8.602832e-09 -7.671159e-09
000300 e5 a5 f9 b1 07 70 1e b2 0c 29 42 b3 f9 c2 27 b2
       -7.265714e-09 -9.2222825e-09 -4.5206477e-08 -9.765011e-09
000310 08 a7 f9 b1 5f a6 f9 b1 c7 b0 f9 b1 a6 99 ed b2
       -7.265843e-09 -7.265768e-09 -7.266951e-09 -2.7660302e-08
000320 02 b2 b9 b0 5c d8 a7 33 9b 8e d0 34 ed 78 d9 34
       -1.3511114e-09 7.815899e-08 3.8846778e-07 4.0507385e-07
000330 77 40 d1 34 33 c7 d9 b0 d0 c3 c1 b0 91 35 5b 34
       3.8976188e-07 -1.5845444e-09 -1.4098251e-09 2.0415452e-07
000340 45 84 da 34 78 80 d9 34 cc 7b b7 b0 65 21 8c b0
       4.0701903e-07 4.0512873e-07 -1.3350188e-09 -1.0195832e-09
000350 87 32 3f 32 6c 66 b3 34 f7 9b d9 34 e1 a0 b4 b0
       1.1129152e-08 3.341587e-07 4.053288e-07 -1.3142448e-09
000360 28 de db af 02 91 36 ac 90 76 51 33 37 ec c8 34
       -3.999372e-10 -2.5944251e-12 4.8769436e-08 3.7424772e-07
000370 11 69 8c b0 70 9c 3c ac 70 ec 41 ac bb 83 cd 32
       -1.0216202e-09 -2.6803247e-12 -2.7558199e-12 2.3925045e-08
000380 f6 c4 e2 33 04 00 00 80 04 00 00 80 04 00 00 00
       1.0559772e-07 -6e-45 -6e-45 6e-45
000390 04 00 00 80 04 00 00 80 04 00 00 00 04 00 00 80
       -6e-45 -6e-45 6e-45 -6e-45
0003a0 04 00 00 80 04 00 00 80 04 00 00 80 04 00 00 00
       -6e-45 -6e-45 -6e-45 6e-45
0003b0 04 00 00 00 04 00 00 80 04 00 00 80 04 00 00 80
       6e-45 -6e-45 -6e-45 -6e-45
0003c0 04 00 00 00 04 00 00 00 04 00 00 00 04 00 00 80
       6e-45 6e-45 6e-45 -6e-45
0003d0 04 00 00 00 04 00 00 00 04 00 00 80 04 00 00 80
       6e-45 6e-45 -6e-45 -6e-45
0003e0 04 00 00 80 04 00 00 80 db 6d 0e 3b 1e e3 16 3b
       -6e-45 -6e-45 0.002173296 0.0023023556
0003f0 a7 78 13 3b 68 52 04 3b 02 d1 ff 3a 2d 83 09 3b
       0.0022502334 0.002019072 0.0019517245 0.0020982728

exp_avg_sq f4 [32, 25]
000000 f4 01 00 00 f4 01 00 00 f4 01 00 00 f4 01 00 00
       7e-43 7e-43 7e-43 7e-43
000010 f4 01 00 00 f4 01 00 00 f4 01 00 00 f4 01 00 00
       7e-43 7e-43 7e-43 7e-43
000020 f4 01 00 00 f4 01 00 00 f4 01 00 00 f4 01 00 00
       7e-43 7e-43 7e-43 7e-43
000030 f4 01 00 00 f4 01 00 00 f4 01 00 00 f4 01 00 00
       7e-43 7e-43 7e-43 7e-43
000040 f4 01 00 00 f4 01 00 00 f4 01 00 00 f4 01 00 00
       7e-43 7e-43 7e-43 7e-43
000050 f4 01 00 00 f4 01 00 00 f4 01 00 00 f4 01 00 00
       7e-43 7e-43 7e-43 7e-43
000060 f4 01 00 00 0c 02 3a 3d 90 81 3e 3d 20 5a 49 3d
       7e-43 0.04541211 0.04651028 0.049158216
000070 4d 21 45 3d e2 bb 3e 3d f4 e8 37 3d 8c b9 43 3d
       0.04812746 0.046565898 0.044899896 0.047784373
000080 84 5d 50 3d 5b f1 48 3d 93 ee 39 3d 46 c8 2f 3d
       0.050870433 0.0490583 0.045393538 0.042915605
000090 06 39 3b 3d 22 81 5c 3d 08 90 35 3d 58 ab 31 3d
       0.04570868 0.05383409 0.044326812 0.043376297
0000a0 c8 d9 35 3d 9c 1a 3b 3d f4 56 3a 3d 16 1c 3a 3d
       0.044397146 0.045679674 0.04549308 0.04543694
0000b0 44 e7 32 3d 4e 6b 39 3d b2 f8 2f 3d 7f 0b 3a 3d
       0.043677583 0.04526835 0.042961784 0.04542112
0000c0 5b 1d 31 3d 43 de 35 3d ff a7 2b 39 b5 19 60 39
       0.043240886 0.04440142 0.00016370414 0.00021371881
0000d0 fe 5e 6c 39 11 24 6a 39 16 ad 60 39 97 82 23 39
       0.00022542101 0.00022329415 0.00021426784 0.0001559354
0000e0 f3 0a 64 39 07 9c 66 39 35 cc 52 39 91 24 3b 39
       0.00021747853 0.00021992634 0.00020103234 0.00017847332
0000f0 82 f8 26 39 8e 5d 3a 39 78 5b 18 39 69 bf ed 38
       0.0001592357 0.00017773194 0.00014529924 0.000113366936
000100 8e 2b fc 38 87 c7 2c 39 09 72 2f 39 f3 c5 2c 39
       0.00012024409 0.00016477528 0.00016731782 0.0001647694
000110 ae 2d 18 39 ec c4 0b 39 d0 05 2f 39 fb 60 28 39
       0.00014512867 0.00013329432 0.00016691466 0.00016057857
000120 3d dc 2f 39 17 68 22 39 96 95 1c 39 9c 0a 73 3c
       0.00016771346 0.000154883 0.00014933044 0.014834072
000130 9a bb 80 3c c1 a5 86 3c 47 7f 89 3c 7a ad 8b 3c
       0.015714455 0.01643646 0.016784323 0.017050494
000140 3b 89 86 3c ad 80 73 3c ca d1 5a 3c 4c 86 7c 3c
       0.016422858 0.014862222 0.013355682 0.015412878
000150 cc 3d 8a 3c 53 a2 98 3c 8c 03 87 3c 11 cd 2e 3c
       0.01687517 0.01863209 0.016481183 0.010669009
000160 50 de 50 3c 3f d1 61 3c 2b c9 94 3c 02 70 82 3c
       0.012748316 0.013782798 0.01816233 0.01592255
000170 cb 1d 37 3c 14 72 16 3c 45 bb 31 3c 23 30 7d 3c
       0.011176537 0.009182472 0.010847871 0.015453371
000180 dd c5 65 3c c9 f7 4b 3c e4 88 32 3c db 38 21 3c
       0.014024225 0.012449213 0.010896895 0.009840216
000190 a8 57 f6 3c b3 41 00 3d b0 11 f4 3c 4d 24 e4 3c
       0.030071095 0.031312656 0.02979359 0.02784934
0001a0 4f 45 d7 3c de 9e 03 3d ed 5e 00 3d 15 1b cf 3c
       0.026278166 0.03213393 0.03134053 0.025281468
0001b0 4d 22 c7 3c e2 6c c1 3c 23 b2 11 3d 8b b0 07 3d
       0.024308348 0.02361149 0.035570275 0.03312735
0001c0 4b c6 ae 3c a6 81 8b 3c b2 38 98 3c 3d b1 0e 3d
       0.021334788 0.017029595 0.018581722 0.034836996
0001d0 ca 90 00 3d 02 2f c1 3c 4a 49 93 3c c8 2b 8d 3c
       0.03138808 0.023581985 0.017979283 0.01723279
0001e0 db 44 08 3d 48 6c f0 3c 5a ad cb 3c c5 5c b1 3c
       0.03326879 0.029348508 0.024862934 0.021650681
0001f0 87 fe 9c 3c b5 78 e4 3c 75 b0 f8 3c b2 1e fa 3c
       0.019164337 0.027889589 0.030357579 0.030532215
000200 ef 97 f9 3c 45 c7 f5 3c 01 9e df 3c a3 8f f5 3c
       0.030467955 0.030002246 0.027297022 0.029975718
000210 e3 98 ec 3c 5d 97 f0 3c f3 b7 ef 3c d8 11 c3 3c
       0.028881496 0.02936905 0.029262519 0.02381222
000220 65 14 dc 3c 9f ca ca 3c 64 61 c3 3c 66 88 bd 3c
       0.026865194 0.02475482 0.02385015 0.023136329
000230 9e b0 bd 3c c3 5d ad 3c 11 05 78 3c 5a cd 8d 3c
       0.023155507 0.021162873 0.015137927 0.017309833
000240 40 54 98 3c d5 fe 91 3c 99 e8 88 3c 03 99 76 3c
       0.018594861 0.017821709 0.016712474 0.015051129
000250 15 6c 71 3c 9d 0e 76 3c f4 01 00 00 f4 01 00 00
       0.014735241 0.0150181325 7e-43 7e-43
000260 f4 01 00 00 f4 01 00 00 f4 01 00 00 f4 01 00 00
       7e-43 7e-43 7e-43 7e-43
000270 f4 01 00 00 f4 01 00 00 f4 01 00 00 f4 01 00 00
       7e-43 7e-43 7e-43 7e-43
000280 f4 01 00 00 f4 01 00 00 f4 01 00 00 f4 01 00 00
       7e-43 7e-43 7e-43 7e-43
000290 f4 01 00 00 f4 01 00 00 f4 01 00 00 f4 01 00 00
       7e-43 7e-43 7e-43 7e-43
0002a0 f4 01 00 00 f4 01 00 00 f4 01 00 00 f4 01 00 00
       7e-43 7e-43 7e-43 7e-43
0002b0 f4 01 00 00 f4 01 00 00 f4 01 00 00 ab f4 3c 30
       7e-43 7e-43 7e-43 6.8741696e-10
0002c0 3b c1 13 30 e6 8c a7 32 b5 4e e0 32 e9 ca 1b 33
       5.3752885e-10 1.9505432e-08 2.6112824e-08 3.6273295e-08
0002d0 b7 53 13 32 7d de 02 30 bd 14 cf 30 9d 8b e4 32
       8.575561e-09 4.76099e-10 1.5067126e-09 2.6606182e-08
0002e0 9d 7a 21 33 46 f5 bf 32 ec bf 61 32 2a 05 19 2e
       3.759725e-08 2.2346864e-08 1.3140362e-08 3.479276e-11
0002f0 76 22 1e 34 bc 27 b2 34 2c 1d f3 32 3a 9e 61 34
       1.4727433e-07 3.3183994e-07 2.8302189e-08 2.101232e-07
000300 83 88 a5 34 df 64 a5 34 14 c7 b1 34 7c 62 b0 34
       3.083297e-07 3.0807038e-07 3.3113668e-07 3.2854211e-07
000310 0a 59 b0 34 15 2e b0 34 0f 2d a9 34 e1 82 ac 34
       3.284734e-07 3.2816084e-07 3.1511487e-07 3.2132724e-07
000320 b8 c5 49 32 18 be 31 35 ca 8c ad 35 d3 5a ae 35
       1.1744696e-08 6.621426e-07 1.293048e-06 1.2990444e-06
000330 19 58 ae 35 3a ab 89 30 0f db 48 31 05 4c 22 35
       1.298965e-06 1.0016727e-09 2.922835e-09 6.0460326e-07
000340 7f 40 ae 35 35 10 a6 35 b3 4a 9a 30 1e 5f 6b 30
       1.2982781e-06 1.2372681e-06 1.1226206e-09 8.562767e-10
000350 b9 4e 1c 30 60 4c e4 34 71 9b a0 34 aa fc 6f 30
       5.686434e-10 4.252388e-07 2.991542e-07 8.730675e-10
000360 ae a1 42 30 87 5e 80 2f 11 18 11 30 b5 9f 63 33
       7.080655e-10 2.335023e-10 5.2784893e-10 5.299781e-08
000370 1d 49 5d 30 eb 2d 42 30 e5 fa dc 2f 07 37 90 2f
       8.050323e-10 7.064204e-10 4.0196038e-10 2.6232547e-10
000380 fb 2c a9 31 f4 01 00 00 f4 01 00 00 f4 01 00 00
       4.923661e-09 7e-43 7e-43 7e-43
000390 f4 01 00 00 f4 01 00 00 f4 01 00 00 f4 01 00 00
       7e-43 7e-43 7e-43 7e-43
0003a0 f4 01 00 00 f4 01 00 00 f4 01 00 00 f4 01 00 00
       7e-43 7e-43 7e-43 7e-43
0003b0 f4 01 00 00 f4 01 00 00 f4 01 00 00 f4 01 00 00
       7e-43 7e-43 7e-43 7e-43
0003c0 f4 01 00 00 f4 01 00 00 f4 01 00 00 f4 01 00 00
       7e-43 7e-43 7e-43 7e-43
0003d0 f4 01 00 00 f4 01 00 00 f4 01 00 00 f4 01 00 00
       7e-43 7e-43 7e-43 7e-43
0003e0 f4 01 00 00 f4 01 00 00 a8 49 46 3b 0d 75 62 3b
       7e-43 7e-43 0.0030256305 0.003455463
0003f0 18 09 6c 3b d5 39 6b 3b 02 d1 62 3b 39 23 41 3b
       0.0036016162 0.0035892625 0.0034609442 0.0029470457

exp_avg f4 [32]
000000 04 00 00 00 56 81 4a 3d b3 3a 54 36 80 2e 83 3c
       6e-45 0.04943975 3.162463e-06 0.016013384
000010 76 7c 5d bc 61 cc 18 bc 04 00 00 00 2d 83 3c b5
       -0.013518443 -0.0093260715 6e-45 -7.0226343e-07
000020 0e 4d 7f 34 04 00 00 00 5c 3f 74 3b 04 00 00 00
       2.3776758e-07 6e-45 0.003726921 6e-45
000030 30 ef fb 3a 77 c4 08 bc 89 40 d4 3b c5 9e 98 bc
       0.0019221064 -0.008347622 0.0064774198 -0.018630395
000040 7a 91 07 b5 59 84 08 bb 37 89 79 bc 04 00 00 00
       -5.0503115e-07 -0.0020830838 -0.0152304685 6e-45
000050 f8 7a 5a b4 b6 d6 62 3b f0 b2 6d 3c 65 8e e2 b8
       -2.0347568e-07 0.003461284 0.014507994 -0.00010803043
000060 ea 7f 40 bd d7 6c 49 b5 9a 19 5a b9 71 19 db b4
       -0.04699699 -7.503672e-07 -0.00020799637 -4.081044e-07
000070 4c 37 91 bc 00 00 00 00 04 00 00 00 04 00 00 00
       -0.017726563 0.0 6e-45 6e-45

exp_avg_sq f4 [32]
000000 f4 01 00 00 65 62 e7 3d 6d 25 c0 39 d7 0e 08 3d
       7e-43 0.11298064 0.00036648978 0.033217277
000010 a7 0d 5e 3d c7 d6 3c 3d f4 01 00 00 fc a5 b8 36
       0.05421224 0.046103265 7e-43 5.5029504e-06
000020 d8 82 cf 36 f4 01 00 00 d3 e0 aa 3b f4 01 00 00
       6.184313e-06 7e-43 0.0052147894 7e-43
000030 6d 88 06 3c 99 76 b3 3c b9 00 b9 3c d3 a1 d9 3c
       0.008211237 0.021907138 0.022583352 0.026566422
000040 ee d1 dd 37 c6 af d7 3b 5b 5f 24 3d f4 01 00 00
       2.644301e-05 0.006582233 0.04013 7e-43
000050 e8 0a 3b 30 3a f3 d5 3b 0d 99 35 3c a8 5e 84 3a
       6.80457e-10 0.006529239 0.011083853 0.001009901
000060 96 32 c4 3d 32 d2 0a 31 f7 b3 69 3a a9 8f 13 38
       0.09579961 2.0201125e-09 0.00089150615 3.5181325e-05
000070 86 1f 0b 3d 00 00 00 00 f4 01 00 00 f4 01 00 00
       0.03396561 0.0 7e-43 7e-43

exp_avg f4 [16, 32]
000000 04 00 00 80 4e c8 71 37 00 e8 53 39 6b 25 9c 39
       -6e-45 1.44113565e-05 0.00020208955 0.00029782517
000010 cc 55 73 39 80 87 86 38 04 00 00 80 9e 41 62 b1
       0.00023206248 6.414857e-05 -6e-45 -3.2924627e-09
000020 40 f8 3b b1 04 00 00 80 07 ee 3c 38 04 00 00 80
       -2.7353195e-09 -6e-45 4.5044373e-05 -6e-45
000030 4e e1 08 38 52 7a 1c 39 4a 58 31 38 2b 79 33 39
       3.2634758e-05 0.00014922887 4.2282314e-05 0.00017115909
000040 37 6f 1b b1 dd 3c f1 36 22 08 aa 39 04 00 00 80
       -2.2618687e-09 7.189445e-06 0.00032430986 -6e-45
000050 dc 12 35 b0 1a 95 0f 3a 7f 25 63 39 bd b6 fd 33
       -6.5874217e-10 0.0005477235 0.00021662375 1.18144705e-07
000060 85 90 3c 39 87 cd 89 b1 e9 be 12 35 1d 4c f6 b0
       0.00017982915 -4.0105905e-09 5.466705e-07 -1.7920488e-09
000070 54 93 2f 39 00 00 00 00 00 00 00 00 04 00 00 80
       0.00016744185 0.0 0.0 -6e-45
000080 04 00 00 00 47 d2 03 b8 d3 00 98 36 18 3b fb b8
       6e-45 -3.142867e-05 4.530049e-06 -0.0001197962
000090 38 e6 aa b7 82 42 52 b7 04 00 00 00 ab e1 10 2f
       -2.0372783e-05 -1.25324605e-05 6e-45 1.3176897e-10
0000a0 2b 26 76 b0 04 00 00 00 07 10 42 b6 04 00 00 00
       -8.954852e-10 6e-45 -2.8917582e-06 6e-45
0000b0 6b ea 4c b7 e4 ec c7 b8 88 de ea b7 71 08 16 ba
       -1.2213927e-05 -9.533184e-05 -2.7998598e-05 -0.0005723304
0000c0 3f 1b 06 30 64 18 24 b7 f7 21 ac b7 04 00 00 00
       4.8787635e-10 -9.780841e-06 -2.0519814e-05 6e-45
0000d0 e6 5c 2c 29 6f 72 92 b7 77 35 94 ba 2b 49 98 b2
       3.827225e-14 -1.7457844e-05 -0.0011307438 -1.7728402e-08
0000e0 06 88 2d ba 5a 14 5a 29 0b 33 2c b5 47 27 93 29
       -0.00066196953 4.8423376e-14 -6.414927e-07 6.534925e-14
0000f0 8c 21 14 ba 00 00 00 00 04 00 00 00 04 00 00 00
       -0.0005650751 0.0 6e-45 6e-45
000100 04 00 00 00 2e 21 10 b9 26 b0 8a b9 65 57 b4 b9
       6e-45 -0.0001374527 -0.00026452652 -0.0003439739
000110 24 22 98 b9 d5 b1 0f b9 04 00 00 00 c2 da dd a8
       -0.00029017136 -0.0001370379 6e-45 -2.46308e-14
000120 cf 0a 6a b0 04 00 00 80 63 55 a8 b8 04 00 00 00
       -8.5144064e-10 -6e-45 -8.026769e-05 6e-45
000130 92 c8 51 b7 5b c9 01 b9 8e 25 43 b8 5f 40 fb b9
       -1.250407e-05 -0.0001237741 -4.65266e-05 -0.0004792241
000140 56 7e 0f 1b 8c 0d 1c b7 9e 83 d9 b9 04 00 00 00
       1.1869504e-22 -9.301479e-06 -0.00041487528 6e-45
000150 f2 e3 88 9f cd a1 40 ba 13 11 9f ba af 99 ea b4
       -5.7975344e-20 -0.0007348329 -0.0012135826 -4.3697716e-07
000160 03 90 2a ba a6 ed 07 9f 1f 51 c4 b4 27 f2 84 8a
       -0.0006506445 -2.878394e-20 -3.6566868e-07 -1.2802225e-32
000170 78 4b 19 ba 00 00 00 00 04 00 00 00 04 00 00 80
       -0.00058477325 0.0 6e-45 -6e-45
000180 04 00 00 80 88 b4 ad 37 bb f3 0b 39 71 56 5d 39
       -6e-45 2.0707274e-05 0.0001334687 0.00021108404
000190 cf d3 10 39 e7 71 1a 38 04 00 00 80 8b 50 19 b1
       0.00013811815 3.682254e-05 -6e-45 -2.2310214e-09
0001a0 ce 44 fe b0 04 00 00 80 d1 07 df 37 04 00 00 80
       -1.8500488e-09 -6e-45 2.6587311e-05 -6e-45
0001b0 17 76 75 b7 af 24 70 38 9c 7e ec 37 38 61 a5 39
       -1.4630633e-05 5.7254623e-05 2.819235e-05 0.00031543686
0001c0 91 79 d4 b0 74 26 b8 36 87 f9 4f 39 04 00 00 80
       -1.5459581e-09 5.488104e-06 0.00019834015 -6e-45
0001d0 ee 27 f8 af 14 83 a4 39 19 99 2d 3a 62 1f 11 33
       -4.513931e-10 0.00031378178 0.00066222396 3.3788986e-08
0001e0 5c d9 cf 39 d4 58 3c b1 ee b3 62 34 81 c5 a8 b0
       0.00039644062 -2.7408094e-09 2.1113348e-07 -1.2279743e-09
0001f0 6a 67 a8 39 00 00 00 00 04 00 00 80 04 00 00 80
       0.00032120507 0.0 -6e-45 -6e-45
000200 04 00 00 80 fd f7 dd 36 ff 1c bd 38 e0 18 2c 39
       -6e-45 6.615183e-06 9.017623e-05 0.00016412465
000210 59 c5 ca 38 e9 d4 89 37 04 00 00 80 ab 0a 00 b1
       9.6688695e-05 1.6430817e-05 -6e-45 -1.8632516e-09
000220 a2 d8 d2 b0 04 00 00 80 a4 55 2f 38 04 00 00 80
       -1.5341082e-09 -6e-45 4.180301e-05 -6e-45
000230 4d 43 d9 b6 84 d8 4a 38 e9 2a d0 37 25 60 c7 38
       -6.474939e-06 4.83622e-05 2.4815514e-05 9.506968e-05
000240 f4 ed af b0 e6 8d 7c 35 ac f6 04 39 04 00 00 80
       -1.2800556e-09 9.4083805e-07 0.00012680393 -6e-45
000250 e3 f2 cc af 73 1c 49 39 45 85 46 39 3a c4 a7 33
       -3.7279965e-10 0.00019179452 0.00018932398 7.812237e-08
000260 42 0e ff 38 5f f8 1b b1 b1 86 b1 34 bf 62 8b b0
       0.00012162003 -2.2696651e-09 3.306682e-07 -1.0141646e-09
000270 38 55 07 39 00 00 00 00 00 00 00 00 04 00 00 80
       0.0001290635 0.0 0.0 -6e-45
000280 04 00 00 80 ba b1 18 37 3e ef a4 38 1c 1f db 38
       -6e-45 9.101286e-06 7.864692e-05 0.00010448528
000290 51 72 08 39 12 a4 ea 38 04 00 00 80 e5 d8 64 b1
       0.00013012557 0.0001118855 -6e-45 -3.3301657e-09
0002a0 32 4d 30 b1 04 00 00 80 6d c4 e0 38 04 00 00 80
       -2.5655251e-09 -6e-45 0.000107177395 -6e-45
0002b0 70 a3 97 b8 c1 0b e5 38 68 41 bc 37 6a 38 3f 39
       -7.230684e-05 0.0001092176 2.2441804e-05 0.00018236195
0002c0 8a fc a6 b1 3e cb 3c 37 a6 a7 7f 39 04 00 00 80
       -4.8599462e-09 1.1252994e-05 0.00024381149 -6e-45
0002d0 88 7a c2 b0 fa 47 f7 39 ad 48 27 39 17 25 e4 33
       -1.4150183e-09 0.00047165138 0.00015953435 1.0623824e-07
0002e0 56 07 16 39 f2 92 d0 b1 39 0b 80 b1 03 e8 83 b1
       0.00014307848 -6.0703025e-09 -3.726566e-09 -3.8389785e-09
0002f0 68 fc 1f 39 00 00 00 00 04 00 00 80 04 00 00 80
       0.0001525745 0.0 -6e-45 -6e-45
000300 04 00 00 00 b5 1e 14 b9 e2 3c 93 b9 bc bc b8 b9
       6e-45 -0.00014125819 -0.00028083386 -0.00035235833
000310 b3 6d a1 b9 cb db 01 b9 04 00 00 00 87 15 38 2e
       -0.00030790045 -0.00012384278 6e-45 4.1855876e-11
000320 a2 88 74 b0 04 00 00 00 c0 6a 0e b9 04 00 00 00
       -8.896085e-10 6e-45 -0.00013581943 6e-45
000330 31 2e 94 b8 ba f1 18 b9 65 fd 4f b8 69 05 13 ba
       -7.065794e-05 -0.000145859 -4.9588638e-05 -0.0005608411
000340 a4 ac e6 2c 1a fe 82 b6 66 76 e4 b9 04 00 00 00
       6.55616e-12 -3.903883e-06 -0.00043575763 6e-45
000350 a4 14 91 9f 83 56 46 ba 6b b1 b3 ba 61 b7 f8 b4
       -6.1444036e-20 -0.0007565992 -0.0013709491 -4.6327025e-07
000360 0f 0f 35 ba 6c 1a 59 2d e7 24 d0 b4 59 59 3f 19
       -0.0006906846 1.2340889e-11 -3.876987e-07 9.892512e-24
000370 42 4c 2c ba 00 00 00 00 00 00 00 00 04 00 00 00
       -0.00065726426 0.0 0.0 6e-45
000380 04 00 00 00 88 b2 25 b9 43 bc 93 b9 d8 76 c0 b9
       6e-45 -0.00015802134 -0.0002817829 -0.0003670964
000390 ee 6f a0 b9 16 b5 22 b9 04 00 00 00 49 fe ec a8
       -0.00030600972 -0.00015516984 6e-45 -2.6311542e-14
0003a0 38 08 7a b0 04 00 00 80 71 c4 2c b9 04 00 00 00
       -9.096115e-10 -6e-45 -0.00016476378 6e-45
0003b0 0e 04 61 b8 03 e7 54 b9 af 38 58 b8 7b 8e 2c ba
       -5.3647957e-05 -0.00020303954 -5.1551204e-05 -0.00065825105
0003c0 f1 e1 84 9b 14 bb 26 b7 f0 3e e6 b9 04 00 00 00
       -2.198358e-22 -9.937929e-06 -0.0004391591 6e-45
0003d0 ba 3c 92 9f 65 e1 49 ba 5c 82 ba ba df a2 fa b4
       -6.193387e-20 -0.0007701128 -0.0014229524 -4.6684633e-07
0003e0 7f 63 3c ba 67 21 15 9f ae 58 34 b5 49 07 8e 8a
       -0.0007186457 -3.1579607e-20 -6.718427e-07 -1.3676843e-32
0003f0 54 d6 36 ba 00 00 00 00 04 00 00 00 04 00 00 00
       -0.00069746864 0.0 6e-45 6e-45

exp_avg_sq f4 [16, 32]
000000 f4 01 00 00 e0 29 94 36 b5 ee 0c 38 18 e4 09 38
       7e-43 4.4156186e-06 3.3600914e-05 3.2875774e-05
000010 66 a3 78 37 95 22 0c 38 f4 01 00 00 47 e0 c6 2c
       1.4819996e-05 3.3410808e-05 7e-43 5.6523983e-12
000020 04 2b 0a 2f f4 01 00 00 24 68 c0 38 f4 01 00 00
       1.2566309e-10 7e-43 9.174671e-05 7e-43
000030 a6 d5 3f 38 7a 20 e4 37 c5 e9 37 37 01 93 70 38
       4.5736924e-05 2.7194841e-05 1.0962079e-05 5.7357367e-05
000040 78 78 32 30 8f 96 c3 33 c8 04 af 37 f4 01 00 00
       6.492722e-10 9.1077816e-08 2.0863852e-05 7e-43
000050 84 a7 00 2a 37 5b d3 38 65 97 88 38 4d 4d f0 32
       1.1426802e-13 0.00010078254 6.513185e-05 2.797483e-08
000060 ba b7 37 37 e8 e4 80 28 7f 7b c1 30 8c 17 98 29
       1.0950427e-05 1.4310127e-14 1.4077698e-09 6.754241e-14
000070 86 49 a4 38 00 00 00 00 00 00 00 00 f4 01 00 00
       7.833824e-05 0.0 0.0 7e-43
000080 f4 01 00 00 4a cb 64 37 6c a4 60 37 9c dc 52 37
       7e-43 1.3637191e-05 1.3389723e-05 1.256834e-05
000090 4a 69 f7 36 b4 d1 43 38 f4 01 00 00 a1 b5 bd 2b
       7.373431e-06 4.6686924e-05 7e-43 1.347967e-12
0000a0 4d 63 30 2f f4 01 00 00 27 bd f9 38 f4 01 00 00
       1.6042385e-10 7e-43 0.000119084776 7e-43
0000b0 20 bd 26 38 2e 23 a5 37 6c 4d 15 37 27 76 9d 38
       3.975362e-05 1.9685915e-05 8.899118e-06 7.508351e-05
0000c0 5f 9a 5f 30 84 d7 30 35 bb be df 36 f4 01 00 00
       8.13463e-10 6.5878726e-07 6.668122e-06 7e-43
0000d0 11 06 92 29 81 aa 6f 38 bc f7 51 39 2e 25 fe 32
       6.484755e-14 5.7140835e-05 0.00020024081 2.9586399e-08
0000e0 a8 d6 f4 37 6b be 3c 28 47 cf 27 32 a4 63 89 29
       2.9187024e-05 1.0477387e-14 9.767809e-09 6.101307e-14
0000f0 91 2e 16 39 00 00 00 00 f4 01 00 00 f4 01 00 00
       0.00014322462 0.0 7e-43 7e-43
000100 f4 01 00 00 56 7a 36 37 a5 3b 38 38 b5 0e 1f 38
       7e-43 1.0876529e-05 4.3924567e-05 3.792225e-05
000110 84 93 b3 37 1e 5b 6f 38 f4 01 00 00 85 34 7d 2b
       2.1407155e-05 5.70669e-05 7e-43 8.995654e-13
000120 4c c1 20 2f f4 01 00 00 67 8b e1 38 f4 01 00 00
       1.4620588e-10 7e-43 0.00010754802 7e-43
000130 8a 33 a6 37 ae 7d 64 37 cf 8c 3f 37 c7 28 c6 37
       1.9812742e-05 1.3619121e-05 1.1417272e-05 2.3622428e-05
000140 f9 7d 25 30 87 91 1d 35 9e 13 21 38 f4 01 00 00
       6.020567e-10 5.869883e-07 3.840366e-05 7e-43
000150 9e 9d 13 2a 69 85 2f 39 c0 a1 1e 39 4a cd 1c 33
       1.3110907e-13 0.00016739 0.00015128311 3.650829e-08
000160 b3 55 bf 37 dc 9f 89 28 2e fe 2c 30 5b 33 b0 29
       2.2808881e-05 1.5279383e-14 6.2934447e-10 7.824879e-14
000170 4e 5d 04 39 00 00 00 00 f4 01 00 00 f4 01 00 00
       0.0001262326 0.0 7e-43 7e-43
000180 f4 01 00 00 98 d3 90 36 6e 28 2e 37 f3 ed 4c 37
       7e-43 4.316167e-06 1.03806215e-05 1.2214749e-05
000190 eb 92 9c 36 3a 8f 06 37 f4 01 00 00 84 e8 20 2b
       4.666266e-06 8.02037e-06 7e-43 5.71661e-13
0001a0 74 b5 81 2e f4 01 00 00 ac 68 14 38 f4 01 00 00
       5.8984734e-11 7e-43 3.5383433e-05 7e-43
0001b0 c4 26 40 37 f2 31 95 36 c2 47 3b 36 e9 b7 dd 37
       1.1453118e-05 4.4463604e-06 2.790694e-06 2.6430893e-05
0001c0 95 3d a3 2f 68 3f 74 34 b9 bc 8f 36 f4 01 00 00
       2.9693284e-10 2.2747338e-07 4.2837023e-06 7e-43
0001d0 aa 1a 3c 29 75 94 4a 37 4c dc 99 38 1e e1 25 32
       4.1767513e-14 1.2074704e-05 7.336642e-05 9.65545e-09
0001e0 64 d1 33 37 d7 fb ec 27 d6 15 65 31 f4 3e 0d 29
       1.0717984e-05 6.5776204e-15 3.3336298e-09 3.1362892e-14
0001f0 a3 e6 42 38 00 00 00 00 f4 01 00 00 f4 01 00 00
       4.6468e-05 0.0 7e-43 7e-43
000200 f4 01 00 00 2f 7f 1d 35 28 a0 00 37 31 a1 22 37
       7e-43 5.8672134e-07 7.666684e-06 9.693483e-06
000210 b1 e9 66 36 0b ee 21 36 f4 01 00 00 b0 e6 fe 2b
       3.4408697e-06 2.4129429e-06 7e-43 1.8111814e-12
000220 97 f2 30 2e f4 01 00 00 91 6e 4b 36 f4 01 00 00
       4.023323e-11 7e-43 3.0313715e-06 7e-43
000230 cc f3 76 37 38 eb 0c 37 ce d1 6a 36 fb 67 99 37
       1.4719506e-05 8.399416e-06 3.499084e-06 1.8287441e-05
000240 22 83 64 2f 60 dd c6 32 fa 05 c4 36 f4 01 00 00
       2.0783067e-10 2.3150903e-08 5.841951e-06 7e-43
000250 ba d7 00 29 3d 66 da 37 ea 29 7c 37 e4 cb 22 31
       2.8608822e-14 2.6035234e-05 1.5030129e-05 2.369e-09
000260 91 8b 70 36 bb 91 a9 27 b9 eb be 2f 3d 02 03 28
       3.5844025e-06 4.7064924e-15 3.472829e-10 7.272446e-15
000270 f4 6f d0 36 00 00 00 00 00 00 00 00 f4 01 00 00
       6.211916e-06 0.0 0.0 7e-43
000280 f4 01 00 00 82 6e 0f 36 06 ac f8 37 81 32 e9 37
       7e-43 2.1372985e-06 2.9644008e-05 2.7799282e-05
000290 54 1c 35 37 ef 76 47 38 f4 01 00 00 4f 39 9d 2c
       1.0795036e-05 4.7556063e-05 7e-43 4.468571e-12
0002a0 0b 0b 66 2e f4 01 00 00 bb d6 30 38 f4 01 00 00
       5.2305753e-11 7e-43 4.2161653e-05 7e-43
0002b0 36 21 93 37 fe 68 b6 37 87 16 99 36 13 86 03 38
       1.753923e-05 2.1744981e-05 4.562378e-06 3.13577e-05
0002c0 d6 ec 43 31 ad fe 54 34 74 99 68 37 f4 01 00 00
       2.851086e-09 1.9836689e-07 1.3864006e-05 7e-43
0002d0 c1 14 98 2a 77 01 bd 38 68 8c 27 38 62 84 51 32
       2.7015025e-13 9.012495e-05 3.9946666e-05 1.21955015e-08
0002e0 2f d8 49 37 ec ef 38 29 ee b7 b2 30 39 bf 89 2a
       1.2030868e-05 4.1064306e-14 1.300348e-09 2.4468776e-13
0002f0 38 b7 cc 38 00 00 00 00 f4 01 00 00 f4 01 00 00
       9.761605e-05 0.0 7e-43 7e-43
000300 f4 01 00 00 dd eb 36 37 3c 3c 4f 38 d8 7a 18 38
       7e-43 1.0902962e-05 4.9408744e-05 3.635403e-05
000310 ab 0a d0 37 5a e2 f1 37 f4 01 00 00 3e 7c f2 2c
       2.48005e-05 2.8834842e-05 7e-43 6.8918473e-12
000320 d3 21 33 2f f4 01 00 00 39 bf 2b 38 f4 01 00 00
       1.6291972e-10 7e-43 4.0947667e-05 7e-43
000330 49 56 c6 37 63 93 a0 37 26 b0 57 37 23 3d d9 37
       2.3643619e-05 1.9142119e-05 1.2856011e-05 2.5896885e-05
000340 39 a7 40 30 ba 2c 13 35 43 10 3a 38 f4 01 00 00
       7.008683e-10 5.4826853e-07 4.4361e-05 7e-43
000350 09 9f fb 29 39 db 36 39 4f 24 13 39 9a 50 21 33
       1.11742274e-13 0.0001743854 0.00014032538 3.755904e-08
000360 e8 3b c4 37 d3 df 0a 28 4a 1c 7a 30 2a e7 09 29
       2.3392917e-05 7.709073e-15 9.098967e-10 3.0620614e-14
000370 ad 4d 8f 38 00 00 00 00 00 00 00 00 f4 01 00 00
       6.8332396e-05 0.0 0.0 7e-43
000380 f4 01 00 00 83 55 5a 37 43 69 52 38 49 cb 1f 38
       7e-43 1.3013722e-05 5.0165934e-05 3.8097878e-05
000390 a9 96 cd 37 a6 13 25 38 f4 01 00 00 c3 e4 01 2d
       2.4508061e-05 3.9357365e-05 7e-43 7.383596e-12
0003a0 b3 ea 35 2f f4 01 00 00 3b 11 5c 38 f4 01 00 00
       1.6545236e-10 7e-43 5.2468135e-05 7e-43
0003b0 56 f4 7e 38 d3 85 25 38 e7 6c 69 37 e5 e8 ad 38
       6.0785875e-05 3.94637e-05 1.3913238e-05 8.292663e-05
0003c0 80 ac 6c 30 10 20 19 35 f4 dd 39 38 f4 01 00 00
       8.6101437e-10 5.70436e-07 4.4314147e-05 7e-43
0003d0 82 7e ff 29 c6 7d 56 39 f2 23 36 39 c3 71 25 33
       1.13462205e-13 0.00020455485 0.00017370263 3.8520522e-08
0003e0 54 cf f2 37 ee 3a 8b 28 69 4f fe 30 74 0e 0c 29
       2.8945193e-05 1.5457657e-14 1.8503502e-09 3.109878e-14
0003f0 fa d0 b5 38 00 00 00 00 f4 01 00 00 f4 01 00 00
       8.6696775e-05 0.0 7e-43 7e-43

exp_avg f4 [16]
000000 c5 15 31 3b b3 cb 9c bb 4b 2a dd bb 8c 38 6e 3b
       0.0027021032 -0.004785025 -0.0067494265 0.0036349623
000010 35 76 af 3a 13 d1 09 3b b3 b2 f1 bb ea 6e 00 bc
       0.0013386669 0.002102916 -0.007376039 -0.007838944
000020 28 b7 9a bb 21 a5 bd ba 04 7b 9f bb 74 78 30 bc
       -0.004721541 -0.0014468768 -0.0048669595 -0.010770906
000030 90 54 92 bb 04 00 00 00 c4 8a 83 3b 04 00 00 80
       -0.004465647 6e-45 0.004014345 -6e-45

exp_avg_sq f4 [16]
000000 ed 86 0c 3b 1f 73 25 3b 7f 4f 2f 3b 0d 2e 72 3a
       0.0021442727 0.002524562 0.0026750264 0.00092384295
000010 0c 86 e4 39 71 73 a4 3b 6f 47 1b 3b f5 b7 5e 3b
       0.00043587422 0.0050186445 0.00236937 0.0033984159
000020 b5 d4 bd 3a b8 29 22 3a ff 60 c9 3a 0f f2 c4 3b
       0.0014482947 0.0006186026 0.001536399 0.006010301
000030 8a ef c6 3a f4 01 00 00 92 cb 93 3a f4 01 00 00
       0.0015177589 7e-43 0.0011275879 7e-43

exp_avg f4 [2, 16]
000000 9f 51 f9 b7 5a 6d c8 b8 33 b9 04 b9 63 78 ae b9
       -2.972112e-05 -9.5571115e-05 -0.00012657493 -0.0003327756
000010 eb 0d bb b7 b9 57 ea 37 22 83 1a b9 4c ba 1f b9
       -2.2298618e-05 2.7935823e-05 -0.00014735435 -0.00015232823
000020 78 2b 43 b9 72 c0 2a b8 08 49 2f b9 a4 dd 1e b9
       -0.00018612843 -4.0710387e-05 -0.00016716507 -0.00015150622
000030 b7 68 58 b9 04 00 00 80 af 4f 29 b9 04 00 00 00
       -0.00020638375 -6e-45 -0.0001614678 6e-45
000040 b7 51 f9 37 b1 6d c8 38 55 b9 04 39 6b 78 ae 39
       2.9721165e-05 9.557175e-05 0.00012657543 0.00033277585
000050 db 0c bb 37 ba 58 ea b7 43 83 1a 39 71 ba 1f 39
       2.2298123e-05 -2.793629e-05 0.00014735483 0.00015232876
000060 bd 2b 43 39 ba c0 2a 38 44 49 2f 39 bb dd 1e 39
       0.00018612943 4.071065e-05 0.00016716594 0.00015150655
000070 00 69 58 39 04 00 00 00 ae 4f 29 39 04 00 00 80
       0.00020638481 6e-45 0.00016146779 -6e-45

exp_avg_sq f4 [2, 16]
000000 be 93 8b 36 6c 84 3c 36 47 68 38 35 78 56 3f 37
       4.1597223e-06 2.8091263e-06 6.8697085e-07 1.140462e-05
000010 cb b4 2c 35 e6 e9 70 34 86 ce 36 35 cd 0e 14 35
       6.433808e-07 2.2436834e-07 6.8100815e-07 5.5155834e-07
000020 c5 b0 0e 36 d3 86 54 34 1e d8 05 36 8c 76 28 35
       2.1262542e-06 1.9793087e-07 1.9944341e-06 6.2757385e-07
000030 28 98 22 36 f4 01 00 00 1a 3a 44 37 f4 01 00 00
       2.4228448e-06 7e-43 1.1696038e-05 7e-43
000040 bd 93 8b 36 6e 84 3c 36 46 68 38 35 77 56 3f 37
       4.159722e-06 2.8091267e-06 6.869708e-07 1.1404619e-05
000050 ca b4 2c 35 dd e9 70 34 82 ce 36 35 cd 0e 14 35
       6.4338076e-07 2.2436821e-07 6.810079e-07 5.5155834e-07
000060 c8 b0 0e 36 d4 86 54 34 1d d8 05 36 90 76 28 35
       2.126255e-06 1.9793089e-07 1.994434e-06 6.275741e-07
000070 29 98 22 36 f4 01 00 00 17 3a 44 37 f4 01 00 00
       2.422845e-06 7e-43 1.16960355e-05 7e-43

exp_avg f4 [2]
000000 2e a4 6d ba 5b a4 6d 3a
       -0.0009065297 0.00090653234

exp_avg_sq f4 [2]
000000 29 43 93 38 26 43 93 38
       7.022016e-05 7.0220136e-05

loss f8 []
000000 55 d5 38 02 e4 f5 5a 3f
       0.001645538964010503
