47_no_regu_epoch_edge_detector.pth (torch, 25382 bytes, 19 tensors)

model.0.weight f4 [32, 25]
-0.0052157757 -0.005748622 -0.004096548 -0.0034729536 -0.0022669553 -0.0046575232 -0.006559488 -0.006672345
-0.0013830342 -0.001108038 -0.005058881 -0.0055845366 -0.0053153983 0.0011828347 -0.0007523421 -0.004710875
-0.0063458146 -0.0050620646 -0.0006538301 -0.0032131253 -0.0031576522 -0.004587381 -0.0038396476 -0.0020400428
-0.0021211663 0.040271405 0.012315156 0.00085690443 -0.0077893413 0.035256796 -0.17937054 0.025468508
0.294211 0.13724847 -0.17500341 -0.3113634 -0.19578062 0.70403516 -0.10539251 -0.3643802
-0.16761404 0.039702002 0.25146315 0.06746995 -0.219438 0.0677788 -0.0065033934 0.026362596
0.00032406353 0.031511713 -0.042206462 0.2024225 0.1672779 0.05554176 0.104381345 0.10408051
0.16414614 0.06861681 -0.00056910294 -0.059016492 -0.012432829 -0.16316403 -0.6164226 -0.3646064
-0.13818087 0.0297025 -0.022218404 0.035329048 -0.064916216 -0.0004691257 0.12730932 0.23973572
0.24790336 0.042648975 0.04524969 0.13307835 0.094420925 0.04900551 0.1359269 0.19298548
0.15470608 -0.1047978 -0.2858177 -0.042895768 0.3240947 0.3592367 -0.29013216 -0.4292304
-0.14456983 0.2931735 0.1634575 0.00949383 -0.02697047 -0.23507847 -0.058973156 -0.04424118
-0.08524716 -0.0061622006 -0.08154383 -0.10158379 -0.022419082 -0.06529412 -0.03400026 -0.041572046
0.13842389 -0.022273898 0.1423784 -0.019611485 -0.11950614 0.17975675 -0.15597151 0.5311285
-0.109315455 -0.69079584 0.044997226 0.0113079725 0.1372744 -0.042524148 -0.018726522 0.16186225
-0.060851194 0.037659507 0.053377632 -0.056363363 0.020002007 0.03060978 -0.08466712 -0.06113399
0.05601875 -0.011628986 -0.13964042 0.11684651 0.27905986 0.07426207 -0.08176259 0.072141014
0.25382707 0.4988977 0.016904235 -0.09785379 0.06453013 -0.27867186 -0.3802001 -0.6026685
-0.04503281 0.026683524 0.13335504 0.09445532 0.102266796 -0.033721257 -0.0038149555 -0.007177767
-0.005931564 -0.0011685397 -0.0012084076 -0.0013817007 -0.011540853 -0.015559604 -0.0041842274 -0.0023115524
-0.0035814173 -0.0020887754 0.006677403 -0.008359693 -0.011531942 -0.008027235 -0.0021504562 0.0010285195
-0.0022277557 -0.00598151 -0.005300437 -0.002520471 0.0005421581 -0.002183974 -0.003644859 0.07991216
-0.074067354 0.09811814 0.029760722 0.019304007 -0.0014996637 -0.13665695 -0.24091989 -0.22396024
0.031201662 0.08415726 0.02151436 -4.539661 -0.17066549 0.12680024 0.15534434 0.014661346
-0.30697805 -0.093684435 0.1615371 0.040404078 -0.055836912 0.119020164 -0.034451667 0.07076075
-0.0504708 -0.090693496 0.08373264 0.07418314 0.083789274 -0.07206865 0.049337495 -0.034421492
0.13273984 0.057634305 -0.009470108 0.15195477 -5.6909013 -0.29874313 0.07934953 0.25359383
-0.20825669 -0.20561239 -0.19403921 -0.1172428 -0.19266436 0.053455148 -0.018502153 0.2574665
0.010219033 -0.0024819984 -0.004517546 -0.006819861 -0.010190755 -0.009693822 -0.0023538054 0.0020474605
-0.002269207 -0.012152272 -0.011609481 -0.0051491433 0.003189482 -0.004983902 -0.01530916 -0.0113878865
-0.0046742233 -0.00094116165 -0.007164289 -0.013512427 -0.0096451845 -0.00088531914 0.0010772229 -0.004436472
-0.010085322 -0.011504009 0.123063646 0.23292866 0.25489616 0.1606799 0.08652584 0.22783831
00000000: 19e9 aabb f05e bcbb 563c 86bb 7e9a 63bb
00000010: 3391 14bb 239e 98bb f9f0 d6bb b0a3 dabb
00000020: ed46 b5ba 963b 91ba f8c4 a5bb 7dfe b6bb
00000030: cb2c aebb 5909 9b3a d338 45ba af5d 9abb
00000040: 8df0 cfbb addf a5bb cc65 2bba 4c93 52bb
00000050: 9df0 4ebb be51 96bb 99a2 7bbb 3db2 05bb
00000060: 4403 0bbb a1f3 243d 82c5 493c e2a1 603a
00000070: bb3d ffbb 6e69 103d e9ac 37be 55a3 d03c
00000080: d3a2 963e dd8a 0c3e 1834 33be 066b 9fbe
00000090: b77a 48be a63b 343f 07d8 d7bd 0b90 babe
000000a0: 04a3 2bbe 919e 223d c7bf 803e af2d 8a3d
000000b0: 5bb4 60be 9dcf 8a3d 6b1a d5bb 5ff6 d73c
000000c0: 12e7 a939 6d12 013d afe0 2cbd d847 4f3e
000000d0: e64a 2b3e c27f 633d e3c5 d53d 2a28 d53d
000000e0: ed15 283e f886 8c3d da2f 15ba 47bb 71bd
000000f0: 10b3 4bbc 7914 27be dfcd 1dbf b1ad babe
00000100: 497f 0dbe a852 f33c 5f03 b6bc 31b5 103d
00000110: cbf2 84bd fcf4 f5b9 605d 023e 487d 753e
00000120: 61da 7d3e b1b0 2e3d bd57 393d b145 083e
00000130: c25f c13d 00ba 483d 6c30 0b3e fc9d 453e
00000140: 456b 1e3e 3ba0 d6bd b356 92be 79b3 2fbd
00000150: beef a53e dfed b73e 348c 94be 16c4 dbbe
00000160: 1d0a 14be d61a 963e 6761 273e 028c 1b3c
00000170: 2df1 dcbc 69b8 70be d68d 71bd 3d36 35bd
00000180: 1096 aebd 49ec c9bb 7400 a7bd 290b d0bd
00000190: 39a8 b7bc ecb8 85bd db43 0bbd 7347 2abd
000001a0: febe 0d3e c077 b6bc a5cb 113e 44a8 a0bc
000001b0: a3bf f4bd 2712 383e ffb6 1fbe 0af8 073f
000001c0: c8e0 dfbd ffd7 30bf 034f 383d 1345 393c
000001d0: a991 0c3e cd2d 2ebd 5d68 99bc 38bf 253e
000001e0: 1a3f 79bd db40 1a3d 81a2 5a3d 45dd 66bd
000001f0: 40db a33c 5dc1 fa3c f465 adbd a267 7abd
00000200: eb73 653d 8187 3ebc e6fd 0ebe 394d ef3d
00000210: efe0 8e3e b616 983d 2573 a7bd abbe 933d
00000220: 9ff5 813e 856f ff3e c07a 8a3c 9167 c8bd
00000230: 5f28 843d 14ae 8ebe 96a9 c2be 7c48 1abf
00000240: 5374 38bd 6897 da3c 398e 083e ca71 c13d
00000250: 4171 d13d 4d1f 0abd 5504 7abb 7933 ebbb
00000260: 915d c2bb b029 99ba 6e63 9eba 2f1a b5ba
00000270: d915 3dbc b6ed 7ebc d81b 89bb 6a7d 17bb
00000280: 36b6 6abb d6e3 08bb 1ece da3b 18f7 08bc
00000290: 78f0 3cbc aa84 03bc abee 0cbb 63cf 863a
000002a0: 8aff 11bb 8b00 c4bb 4aaf adbb 7d2e 25bb
000002b0: 9d1f 0e3a 0121 0fbb 96de 6ebb fda8 a33d
000002c0: a0b0 97bd 2af2 c83d c2cc f33c 7023 9e3c
000002d0: 5d90 c4ba cdef 0bbe b4b3 76be d555 65be
000002e0: a19a ff3c a45a ac3d e23e b03c e744 91c0
000002f0: efc2 2ebe ecd7 013e 9612 1f3e 2436 703c
00000300: 3a2c 9dbe a0dd bfbd fb69 253e bf7e 253d
00000310: 3fb5 64bd d8c0 f33d 311d 0dbd 03eb 903d
00000320: 78ba 4ebd 83bd b9bd 057c ab3d 55ed 973d
00000330: b699 ab3d ba98 93bd 1d16 4a3d 8dfd 0cbd
00000340: f4ec 073e f311 6c3d 8328 1bbc 089a 1b3e
00000350: dd1b b6c0 dcf4 98be 0282 a23d 0dd7 813e
00000360: 3e41 55be 0e8c 52be 37b2 46be fe1c f0bd
00000370: ce49 45be c9f3 5a3d d491 97bc a6d2 833e
00000380: bb6d 273c 06a9 22bb ec07 94bb 2479 dfbb
00000390: 20f7 26bc d6d2 1ebc 4d42 1abb b02e 063b
000003a0: fab6 14bb 531a 47bc b135 3ebc 25ba a8bb
000003b0: a106 513b 0050 a3bb 45d3 7abc 4294 3abc
000003c0: 3a2a 99bb 4ab8 76ba 69c2 eabb 3a63 5dbc
000003d0: d606 1ebc c314 68ba 9a31 8d3a d35f 91bb
000003e0: e83c 25bc 507b 3cbc cb08 fc3d da84 6e3e
000003f0: c081 823e 4689 243e 7634 b13d 724e 693e

model.0.bias f4 [32]
-0.0014605677 -0.024800604 -0.09534165 -0.06305812 -0.003422302 0.0015402894 -0.0016898337 0.02096327
0.01699522 -0.0058115036 -0.09108427 -0.00058538624 -0.05947604 -0.00041940063 -0.04780368 -0.0025954084
0.027860949 0.014068864 -0.057875536 -0.00039058784 0.010575374 -0.04307341 -0.05218654 0.01009963
-0.023939155 0.044859745 0.024510399 0.02884956 0.0035741914 -0.00083829166 -0.0013147962 -0.0024983431
00000000: 8570 bfba a32a cbbc 7c42 c3bd 9e24 81bd
00000010: b348 60bb 89e3 c93a 697d ddba 2abb ab3c
00000020: 8f39 8b3c 6d6e bebb 648a babd 9b74 19ba
00000030: 269d 73bd 00e3 dbb9 cbcd 43bd ba17 2abb
00000040: a53c e43c 1881 663c e60e 6dbd d0c7 ccb9
00000050: 5544 2d3c be6d 30bd 8ec1 55bd eb78 253c
00000060: 0c1c c4bc dabe 373d 08ca c83c ea55 ec3c
00000070: fb3c 6a3b cdc0 5bba 3d55 acba 3ebb 23bb

model.2.weight f4 [16, 32]
0.0032526792 -1.2099631 0.5866597 0.89979494 -0.6029708 -0.5653454 -0.008871735 1.3732082
1.7390062 -4.8979186e-05 0.98700064 0.0002301151 0.96117747 -0.40314656 0.9332569 -0.0068740365
1.1392134 -0.56780666 -0.70003915 0.0006476846 0.64338636 0.11191572 0.11443453 -0.09916125
-1.1001757 1.5230564 -0.76324373 0.83429503 -0.15967695 -0.0007193682 8.836862e-05 -0.00071552687
0.0019001748 0.2836876 -0.7216279 -0.51279235 -0.3228633 1.3938668 0.0011760937 -0.9601421
-1.3200544 0.00025851085 0.11116235 -0.0035892746 -0.27800754 1.5685344 -0.39128715 0.6804964
-0.6232576 0.9346335 -0.46002775 -0.0032681993 -0.20797928 -0.73347855 -0.64193463 0.4681168
0.7500268 -0.84028673 1.5427688 -0.5754682 0.63953817 -0.0005302924 9.944098e-05 -0.00071496796
-0.00043966473 -1.368701 0.14350094 -0.62368435 0.8729711 0.5550881 -0.0038776912 -1.039413
-1.4628043 0.00027000564 -0.20544727 -0.00056578824 0.11902356 -0.52699584 -0.6299884 0.046428263
-0.6849521 0.6673446 0.7376857 0.0023114944 -0.3464205 -0.22904654 -0.19925402 0.95365816
1.0981603 -0.8373512 0.89299166 -0.35154274 0.3407655 -4.0382427e-05 0.00032384894 9.6719596e-05
0.0024547558 0.40139708 0.18422936 0.42176569 -0.79564345 -1.9954207 0.00035807033 1.2560383
1.5788181 0.009580637 0.31295395 -0.00012027715 0.05876046 -1.8634582 0.78077763 0.046343986
0.9548364 -0.4183287 -1.2434157 -0.0052171135 0.892285 0.017785484 1.0137174 -0.25936773
-0.42804012 1.2722926 -0.76248986 1.2980527 -0.123331614 -0.00012272489 -7.01256e-05 -0.0024115497
-0.002132113 -0.7902875 0.13092215 0.7977614 -0.51620716 -0.46088362 0.013745973 1.3535722
1.6630722 -0.008233894 -0.17218107 -0.001622058 0.30558354 -0.101733975 0.9333121 0.026906097
1.3336723 0.3116369 -0.2786598 -0.00056847394 1.1440183 0.2540966 0.24980807 0.21906891
-0.40431282 1.4652253 -0.4459004 1.6928562 0.020224666 -0.00020663683 -6.468125e-05 0.0025845508
-0.00094013265 -1.3545071 -0.23312783 -0.47703978 -0.6929822 -0.8355602 0.0033121214 1.2273172
1.2300987 0.003923606 -0.004750552 -0.00016234281 -0.116580755 -0.99091923 0.100011654 -0.97256905
0.9325699 -0.04876739 -1.3135521 -0.005239354 0.08544078 -0.34585118 -0.59565306 -0.45290986
-1.105364 1.5532738 -0.31797326 0.7843337 -0.9787099 0.0002807853 -0.00041262415 -0.0034285528
-0.002481641 -1.9240359 0.22723517 -0.5363078 0.87503326 -0.016540557 -0.004687266 -1.1548451
-1.1671511 -0.0012635023 -0.15505153 0.00040987768 0.04548067 -0.45844555 -0.5228786 0.08816411
-0.8877957 0.27956712 0.7931929 0.0019405282 -0.40853342 0.07969785 -0.08426174 0.84664315
1.2972625 -0.9299482 0.6644809 -0.32680994 0.11219851 0.0002788291 -0.00031635712 -0.00060583197
-0.00046593614 -1.5766187 0.07865004 -0.49114963 0.74644494 0.13946964 1.3770809e-06 -1.1580248
-1.1943493 -0.0031981058 -0.071585864 -0.00048846466 -0.1644604 0.06571021 -0.5935047 0.3507296
-1.0446124 0.37385246 0.68517447 0.0026223394 -0.40961418 -0.1318021 -0.3109006 0.80368924
1.4213924 -0.9422555 0.8961991 -0.40568796 0.14659965 -0.00057901297 -0.0012870063 -0.00010588566
00000000: e72a 553b 12e0 9abf 552f 163f f658 663f
00000010: 4b5c 1abf 7aba 10bf c15a 11bc 49c5 af3f
00000020: c197 de3f 006f 4db8 13ac 7c3f 0d4b 7139
00000030: ba0f 763f 3a69 cebe ede9 6e3f 993f e1bb
00000040: bfd1 913f c75b 11bf c435 33bf 61c9 293a
00000050: f8b4 243f 1234 e53d a75c ea3d 0e15 cbbd
00000060: 8fd2 8cbf 83f3 c23f f163 43bf 5c94 553f
00000070: 5b82 23be fc93 3cba 8b52 b938 3292 3bba
00000080: 490f f93a 803f 913e 9bbc 38bf 5c46 03bf
00000090: 574e a5be 3a6a b23f 2827 9a3a dfcb 75bf
000000a0: 8bf7 a8bf bd88 8739 16a9 e33d 093a 6bbb
000000b0: 0157 8ebe bcc5 c83f ca56 c8be 0335 2e3f
000000c0: cf8d 1fbf 2444 6f3f c288 ebbe 492f 56bb
000000d0: 85f8 54be 40c5 3bbf d455 24bf 01ad ef3e
000000e0: c201 403f 081d 57bf 7379 c53f e251 13bf
000000f0: c6b8 233f 5203 0bba f88a d038 b06c 3bba
00000100: cd82 e6b9 9831 afbf e9f1 123e c7a9 1fbf
00000110: 097b 5f3f 411a 0e3f dd20 7ebb 7c0b 85bf
00000120: 2c3d bbbf 8b8f 8d39 c560 52be 6851 14ba
00000130: a0c2 f33d 33e9 06bf eb46 21bf 902b 3e3d
00000140: 0559 2fbf 19d7 2a3f f8d8 3c3f 717c 173b
00000150: 075e b1be 2d8b 6abe 3f09 4cbe f122 743f
00000160: 8490 8c3f a65c 56bf 1a9b 643f 69fd b3be
00000170: d178 ae3e 4d60 29b8 45ca a939 f0d5 ca38
00000180: f8df 203b eb83 cd3e 9fa6 3c3e acf1 d73e
00000190: 4aaf 4bbf f269 ffbf 63bb bb39 ddc5 a03f
000001a0: b616 ca3f 1bf8 1c3c 803b a03e 4e3d fcb8
000001b0: cfae 703d cc85 eebf 0be1 473f 31d3 3d3d
000001c0: 2970 743f 2e2f d6be 3f28 9fbf 52f4 aabb
000001d0: ca6c 643f ddb2 913c 7ec1 813f d9cb 84be
000001e0: 1328 dbbe 7cda a23f 8932 43bf 9726 a63f
000001f0: 4995 fcbd b6af 00b9 6510 93b8 170b 1ebb
00000200: ecba 0bbb 4850 4abf 7510 063e 173a 4c3f
00000210: 2726 04bf f0f8 ebbe ca36 613c db41 ad3f
00000220: 8ddf d43f 74e7 06bc 3c50 30be 3c9b d4ba
00000230: 7275 9c3e e759 d0bd 8bed 6e3f 2d6a dc3c
00000240: c6b5 aa3f df8e 9f3e 7fac 8ebe a405 15ba
00000250: 316f 923f f318 823e b0cd 7f3e 9a53 603e
00000260: 1702 cfbe 818c bb3f 0f4d e4be 83af d83f
00000270: 33ae a53c a7ac 58b9 7ba5 87b8 9161 293b
00000280: 3c73 76ba 7d60 adbf 10b9 6ebe 8f3e f4be
00000290: 4867 31bf 46e7 55bf 2d10 593b bb18 9d3f
000002a0: e073 9d3f 9891 803b 85aa 9bbb 913a 2ab9
000002b0: e4c1 eebd e2ac 7dbf e9d2 cc3d 49fa 78bf
000002c0: e7bc 6e3f 51c0 47bd 7a22 a8bf e3ae abbb
000002d0: 93fb ae3d 6813 b1be b87c 18bf cde3 e7be
000002e0: 917c 8dbf add1 c63f 64cd a2be 18ca 483f
000002f0: bb8c 7abf 5d36 9339 7a55 d8b9 92b1 60bb
00000300: 07a3 22bb cf46 f6bf 56b0 683e 784b 09bf
00000310: 2e02 603f 1080 87bc a397 99bb f7d1 93bf
00000320: 3565 95bf 1a9c a5ba d4c5 1ebe dae4 d639
00000330: f049 3a3d 60b9 eabe 5fdb 05bf 638f b43d
00000340: 9446 63bf 6c23 8f3e b10e 4b3f 5259 fe3a
00000350: 4b2b d1be a038 a33d 6b91 acbd 9bbd 583f
00000360: b30c a63f 1611 6ebf 6c1b 2a3f a253 a7be
00000370: 55c8 e53d cf2f 9239 bcdc a5b9 b2d0 1eba
00000380: e448 f4b9 a4ce c9bf 4613 a13d f777 fbbe
00000390: 0417 3f3f 21d1 0e3e 24d4 b835 283a 94bf
000003a0: 70e0 98bf 5097 51bb 9c9b 92bd 4f0c 00ba
000003b0: 4f68 28be 1393 863d edef 17bf d592 b33e
000003c0: dcb5 85bf 9769 bf3e 9867 2f3f 8edb 2b3b
000003d0: f3b8 d1be 21f7 06be 5d2e 9fbe 94be 4d3f
000003e0: 30f0 b53f a837 71bf 4e6d 653f 55b6 cfbe
000003f0: 381e 163e e7c8 17ba c4b0 a8ba ee0e deb8

model.2.bias f4 [16]
0.113567896 0.020630892 0.028133083 0.37451547 -0.015840746 0.49241343 0.0009091749 0.027406786
0.13967766 -0.00023857651 0.15100707 0.0014543347 0.15979001 -0.0011559946 0.37630686 -0.0030574612
00000000: 4996 e83d 1e02 a93c 5a77 e63c 7ec0 bf3e
00000010: 74c4 81bc 9d1d fc3e b255 6e3a 3284 e03c
00000020: a907 0f3e 652a 7ab9 99a1 1a3e 609f be3a
00000030: fe9f 233e be84 97ba 4bab c03e b05f 48bb

model.4.weight f4 [2, 16]
-3.206134 3.646548 3.4746497 -2.1956818 -1.8200097 -6.9033375 3.6817195 3.7136793
2.2793334 3.4787676 2.366368 5.4104447 2.3338144 -0.001273328 -2.1768022 -0.00015181098
3.2056584 -3.6465542 -3.4735801 2.1955326 1.8202349 6.9017744 -3.6818898 -3.7160966
-2.2808032 -3.4770348 -2.3671808 -5.411117 -2.334739 0.00023202457 2.1783004 -0.0019055483
00000000: 4d31 4dc0 0b61 6940 a960 5e40 0d86 0cc0
00000010: 14f6 e8bf 24e8 dcc0 4ba1 6b40 ecac 6d40
00000020: 99e0 1140 21a4 5e40 9372 1740 5d22 ad40
00000030: 375d 1540 cce5 a6ba ba50 0bc0 732f 1fb9
00000040: 8229 4d40 2561 69c0 234f 5ec0 9b83 0c40
00000050: 75fd e83f 56db dc40 15a4 6bc0 87d4 6dc0
00000060: aef8 11c0 bd87 5ec0 e47f 17c0 df27 adc0
00000070: 5d6c 15c0 9f4b 7339 4669 0b40 97c3 f9ba

model.4.bias f4 [2]
-0.35785085 0.35786068
00000000: 3a38 b7be 8439 b73e

exp_avg f4 [32, 25]
6e-45 6e-45 6e-45 6e-45 6e-45 6e-45 6e-45 6e-45
6e-45 6e-45 6e-45 6e-45 6e-45 6e-45 6e-45 6e-45
6e-45 6e-45 6e-45 6e-45 6e-45 6e-45 6e-45 6e-45
6e-45 0.019331463 0.02005094 0.018667743 0.01699294 0.01675835 0.018863978 0.019776767
0.018115472 0.015298738 0.013226845 0.018588332 0.018731581 0.01833255 0.01372605 0.01364046
0.018597841 0.018277215 0.0153274285 0.0134708285 0.01403693 0.017676907 0.015569538 0.013252294
0.012288268 0.01295725 0.00033791352 0.00033335877 0.00035062764 0.000404002 0.00040882724 0.00034404002
0.00032542582 0.00033714273 0.00040054283 0.0003105335 0.0003756902 0.00036115717 0.00029406341 0.0003311685
0.00034003356 0.00036225296 0.00033793764 0.00026471826 0.00033017359 0.0003226738 0.0003280883 0.00028756933
0.0002753969 0.00027571776 0.00027252865 0.0037933774 0.003148682 0.0021423206 0.0021634197 0.0020687426
0.0040737614 0.0033709877 0.0022278882 0.0017682303 0.0018185832 0.0041421875 0.0037651174 0.0017540762
0.002313403 0.0031768382 0.0039255978 0.0035966784 0.00329266 0.0031719047 0.0030497303 0.0048515457
0.004789338 0.003892677 0.0032811738 0.0031104225 -0.012168015 -0.011280269 -0.0096589755 -0.008574327
-0.008062152 -0.012703972 -0.01188372 -0.009855692 -0.007903575 -0.0067434013 -0.012967146 -0.012554957
-0.009739744 -0.0075209728 -0.008074395 -0.012688629 -0.012061337 -0.010343509 -0.00858744 -0.008398369
-0.012939135 -0.0112980595 -0.009394558 -0.008160635 -0.008065384 -0.0056353216 -0.0054485044 -0.0048019146
-0.0044464925 -0.0042853276 -0.0053160647 -0.0054300157 -0.004850322 -0.0042026653 -0.0034519231 -0.0052185925
-0.0051644957 -0.0045323037 -0.004101292 -0.005177595 -0.005017728 -0.0047985897 -0.004776612 -0.0047186487
-0.005025107 -0.006060166 -0.0052401926 -0.004303298 -0.0038526668 -0.003891385 6e-45 6e-45
-6e-45 -6e-45 -6e-45 6e-45 6e-45 6e-45 6e-45 -6e-45
6e-45 6e-45 6e-45 6e-45 -6e-45 6e-45 6e-45 6e-45
6e-45 6e-45 6e-45 6e-45 6e-45 6e-45 6e-45 -1.3506493e-09
-6.6339254e-11 -2.0200176e-14 -1.3097457e-12 -3.064475e-08 -1.337947e-09 -7.363997e-11 -3.7885226e-15 -8.716666e-13
-2.999018e-08 -1.2200456e-10 -7.488464e-11 3.127381e-16 -8.462512e-13 -2.9851826e-08 -1.0071115e-07 -1.0065596e-07
-1.0064929e-07 -1.0064954e-07 -1.0068372e-07 -1.0075521e-07 -1.00656756e-07 -1.0064972e-07 -1.0064954e-07 -1.008973e-07
-3.0196108e-07 -2.3199522e-07 1.050607e-06 1.1788662e-06 1.1779314e-06 -3.0785284e-07 -3.0249558e-07 1.6445276e-07
1.1788959e-06 1.1798901e-06 -2.8763929e-11 -8.811232e-12 3.5126288e-08 1.170875e-06 1.4869402e-06 -6.018459e-11
-4.9660615e-17 -5.870281e-16 2.914996e-07 1.4224819e-06 -1.0926902e-10 -5.0992e-17 -6.2352827e-16 3.497911e-08
1.1657103e-06 -6e-45 -6e-45 6e-45 -6e-45 -6e-45 6e-45 -6e-45
-6e-45 -6e-45 -6e-45 6e-45 6e-45 -6e-45 -6e-45 -6e-45
6e-45 6e-45 6e-45 -6e-45 6e-45 6e-45 -6e-45 -6e-45
-6e-45 -6e-45 0.0018314878 0.0019232691 0.0016955715 0.0015699823 0.0014567333 0.0017749921
00000000: 0400 0000 0400 0000 0400 0000 0400 0000
00000010: 0400 0000 0400 0000 0400 0000 0400 0000
00000020: 0400 0000 0400 0000 0400 0000 0400 0000
00000030: 0400 0000 0400 0000 0400 0000 0400 0000
00000040: 0400 0000 0400 0000 0400 0000 0400 0000
00000050: 0400 0000 0400 0000 0400 0000 0400 0000
00000060: 0400 0000 045d 9e3c de41 a43c 18ed 983c
00000070: c734 8b3c cf48 893c a188 9a3c e302 a23c
00000080: e666 943c 8fa7 7a3c 69b5 583c 8f46 983c
00000090: f972 993c 252e 963c 3ae3 603c 3c7c 5f3c
000000a0: 805a 983c 19ba 953c e51f 7b3c c0b4 5c3c
000000b0: 27fb 653c 29cf 903c 6017 7f3c 2620 593c
000000c0: bb54 493c a54a 543c fc29 b139 a8c6 ae39
000000d0: 72d4 b739 3bd0 d339 dd57 d639 4560 b439
000000e0: ea9d aa39 88c2 b039 f3ff d139 1acf a239
000000f0: 49f8 c439 b259 bd39 862c 9a39 afa0 ad39
00000100: 8846 b239 c5ec bd39 392d b139 e2c9 8a39
00000110: 261b ad39 8b2c a939 4403 ac39 e7c4 9639
00000120: 2563 9039 368e 9039 2de2 8e39 509a 783b
00000130: 1e5a 4e3b 2d66 0c3b 29c8 0d3b be93 073b
00000140: 307d 853b caeb 5c3b c301 123b f7c3 e73a
00000150: 875d ee3a 30bb 873b 30c0 763b 08e9 e53a
00000160: 769c 173b 8032 503b 4da2 803b 40b6 6b3b
00000170: abc9 573b bbdf 4f3b fcdd 473b b7f9 9e3b
00000180: e1ef 9c3b 481c 7f3b f608 573b 3bd8 4b3b
00000190: 5b5c 47bc e1d0 38bc ae40 1ebc 567b 0cbc
000001a0: 1e17 04bc 5224 50bc efb3 42bc c579 21bc
000001b0: ff7d 01bc c0f7 dcbb 2774 54bc 4eb3 4dbc
000001c0: 7293 1fbc 7e72 f6bb 784a 04bc f8e3 4fbc
000001d0: ea9c 45bc d277 29bc 55b2 0cbc 5099 09bc
000001e0: aafe 53bc 7f1b 39bc a2eb 19bc 2fb4 05bc
000001f0: ac24 04bc 81a8 b8bb 5e89 b2bb 6159 9dbb
00000200: e2b3 91bb ef6b 8cbb 6232 aebb 46ee b1bb
00000210: 73ef 9ebb 83b6 89bb a939 62bb ba00 abbb
00000220: ee3a a9bb b883 94bb 2264 86bb d1a8 a9bb
00000230: c16b a4bb 7d3d 9dbb 2085 9cbb e59e 9abb
00000240: a7a9 a4bb 5b94 c6bb ecb5 abbb ae02 8dbb
00000250: 067d 7cbb 9b06 7fbb 0400 0000 0400 0000
00000260: 0400 0080 0400 0080 0400 0080 0400 0000
00000270: 0400 0000 0400 0000 0400 0000 0400 0080
00000280: 0400 0000 0400 0000 0400 0000 0400 0000
00000290: 0400 0080 0400 0000 0400 0000 0400 0000
000002a0: 0400 0000 0400 0000 0400 0000 0400 0000
000002b0: 0400 0000 0400 0000 0400 0000 bfa1 b9b0
000002c0: aee1 91ae 6ff2 b5a8 9054 b8ab 429e 03b3
000002d0: d3e2 b7b0 9eef a1ae f47e 88a7 335a 75ab
000002e0: 8dce 00b3 3b25 06af 4eac a4ae ff47 b425
000002f0: d332 6eab 6e36 00b3 8a46 d8b3 3328 d8b3
00000300: 8824 d8b3 ab24 d8b3 7637 d8b3 c35e d8b3
00000310: a328 d8b3 c524 d8b3 ab24 d8b3 e1ac d8b3
00000320: 371d a2b4 5c1a 79b4 9502 8d35 8939 9e35
00000330: 6a19 9e35 f946 a5b4 ad66 a2b4 6e94 3034
00000340: 8e3a 9e35 b75c 9e35 9c02 fdad 4302 1bad
00000350: c3dd 1633 f526 9d35 e092 c735 ea58 84ae
00000360: e804 65a4 0733 29a6 667f 9c34 1bec be35
00000370: fd48 f0ae ba28 6ba4 44b8 33a6 f03b 1633
00000380: 8075 9c35 0400 0080 0400 0080 0400 0000
00000390: 0400 0080 0400 0080 0400 0000 0400 0080
000003a0: 0400 0080 0400 0080 0400 0080 0400 0000
000003b0: 0400 0000 0400 0080 0400 0080 0400 0080
000003c0: 0400 0000 0400 0000 0400 0000 0400 0080
000003d0: 0400 0000 0400 0000 0400 0080 0400 0080
000003e0: 0400 0080 0400 0080 880e f03a 3416 fc3a
000003f0: f03d de3a ddc7 cd3a dcef be3a daa6 e83a

exp_avg_sq f4 [32, 25]
7e-43 7e-43 7e-43 7e-43 7e-43 7e-43 7e-43 7e-43
7e-43 7e-43 7e-43 7e-43 7e-43 7e-43 7e-43 7e-43
7e-43 7e-43 7e-43 7e-43 7e-43 7e-43 7e-43 7e-43
7e-43 0.046880234 0.04663108 0.049577672 0.04646786 0.04375996 0.046913408 0.047926523
0.0516568 0.04661322 0.04155753 0.04629253 0.04730027 0.053793438 0.04235687 0.04132808
0.04716311 0.048197962 0.047611713 0.044674642 0.042847514 0.047387205 0.04558865 0.04616978
0.042662635 0.042819295 0.00024511543 0.00027247673 0.00033113096 0.00033611243 0.00030816937 0.00022612055
0.00025362545 0.0003147028 0.00030461035 0.0002675507 0.00022720396 0.00023052347 0.00022426526 0.00021770268
0.0002570914 0.0002365569 0.00024620892 0.00024989483 0.00023069463 0.0002533391 0.00024977705 0.00024550923
0.00025058235 0.00023321135 0.00023482485 0.0114917 0.01212318 0.012617083 0.012532686 0.011583719
0.011424006 0.010856915 0.010751094 0.010918059 0.0109735355 0.011435034 0.010063784 0.006926537
0.0088097695 0.010507247 0.009699344 0.0076985415 0.0061068553 0.006595683 0.008610646 0.007737287
0.006690523 0.006083189 0.006347336 0.007092716 0.031807754 0.030726267 0.028846428 0.02682693
0.023386054 0.03290076 0.03152267 0.028278401 0.022938808 0.020326447 0.03671009 0.033510942
0.02425131 0.018656366 0.018923568 0.034275196 0.031094212 0.02686536 0.021534165 0.020798007
0.031749748 0.028764732 0.026747141 0.025034374 0.023652539 0.021749353 0.023477798 0.024991998
0.025371134 0.023399131 0.0195544 0.02155302 0.024747819 0.023580892 0.021932598 0.017553853
0.018694472 0.018257614 0.018642968 0.019626964 0.01639456 0.014991583 0.012931767 0.01472986
0.0164672 0.014241392 0.013396805 0.012818997 0.012422203 0.013016807 7e-43 7e-43
7e-43 7e-43 7e-43 7e-43 7e-43 7e-43 7e-43 7e-43
7e-43 7e-43 7e-43 7e-43 7e-43 7e-43 7e-43 7e-43
7e-43 7e-43 7e-43 7e-43 7e-43 7e-43 7e-43 3.774774e-10
3.6494208e-10 2.0633449e-08 3.371473e-07 7.4904847e-07 3.753088e-10 3.429082e-10 2.7089286e-09 3.3650485e-07
7.490023e-07 1.2095117e-09 7.644905e-10 1.1614256e-10 3.9311712e-07 8.662215e-07 8.241986e-07 8.3068073e-07
8.3465335e-07 8.378788e-07 8.6483385e-07 8.363351e-07 8.3616476e-07 8.3637747e-07 8.365783e-07 8.5087623e-07
2.7395546e-09 1.9651562e-08 7.0999924e-08 8.8761986e-08 8.8796995e-08 4.1073692e-10 1.1545301e-08 2.7736426e-08
8.7569674e-08 8.8345544e-08 2.1485841e-10 3.069181e-09 2.5240369e-11 3.594526e-08 5.8056994e-08 9.915381e-11
2.0986383e-11 6.218024e-13 1.3608891e-09 3.5022023e-08 5.0731523e-11 6.552455e-12 9.710862e-12 1.1244676e-10
1.3733159e-08 7e-43 7e-43 7e-43 7e-43 7e-43 7e-43 7e-43
7e-43 7e-43 7e-43 7e-43 7e-43 7e-43 7e-43 7e-43
7e-43 7e-43 7e-43 7e-43 7e-43 7e-43 7e-43 7e-43
7e-43 7e-43 0.0021989804 0.002406431 0.002567531 0.0024820578 0.0021424012 0.0020216363
00000000: f401 0000 f401 0000 f401 0000 f401 0000
00000010: f401 0000 f401 0000 f401 0000 f401 0000
00000020: f401 0000 f401 0000 f401 0000 f401 0000
00000030: f401 0000 f401 0000 f401 0000 f401 0000
00000040: f401 0000 f401 0000 f401 0000 f401 0000
00000050: f401 0000 f401 0000 f401 0000 f401 0000
00000060: f401 0000 7d05 403d 3b00 3f3d f511 4b3d
00000070: 1555 3e3d a53d 333d 4628 403d 9a4e 443d
00000080: 1596 533d 81ed 3e3d 3b38 2a3d 3c9d 3d3d
00000090: eebd 413d 8256 5c3d 667e 2d3d a247 293d
000000a0: 1b2e 413d 3a6b 453d 8004 433d c2fc 363d
000000b0: e080 2f3d 1619 423d 2abb 3a3d 861c 3d3d
000000c0: 04bf 2e3d 4963 2f3d d682 8039 35db 8e39
000000d0: a59b ad39 3f38 b039 cb91 a139 c61a 6d39
000000e0: 08f9 8439 b2fe a439 1cb4 9f39 0c46 8c39
000000f0: 993d 6e39 acb8 7139 bf28 6b39 1e47 6439
00000100: 39ca 8639 420c 7839 9a15 8139 5104 8339
00000110: 9ee6 7139 99d2 8439 82f4 8239 b1b7 8039
00000120: 9860 8339 328a 7439 513b 7639 af47 3c3c
00000130: 4da0 463c e2b7 4e3c e555 4d3c a4c9 3d3c
00000140: c12b 3b3c 34e1 313c 5b25 303c a9e1 323c
00000150: 58ca 333c 025a 3b3c 92e2 243c 01f8 e23b
00000160: da56 103c 9726 2c3c ffe9 1e3c 0c44 fc3b
00000170: 041c c83b 9920 d83b ab13 0d3c 1189 fd3b
00000180: 2d3c db3b 7d55 c73b 50fd cf3b 046a e83b
00000190: d948 023d a7b5 fb3c 584f ec3c 26c4 db3c
000001a0: 1c94 bf3c f3c2 063d ea1d 013d 1ba8 e73c
000001b0: 2bea bb3c a683 a63c 525d 163d c542 093d
000001c0: afaa c63c 3cd5 983c 9905 9b3c 2664 0c3d
000001d0: 4ab9 fe3c be14 dc3c 6b68 b03c 9560 aa3c
000001e0: 060c 023d 04a4 eb3c d21c db3c e314 cd3c
000001f0: f8c2 c13c b32b b23c 8354 c03c 05bc cc3c
00000200: 20d7 cf3c 89af bf3c 8d30 a03c f68f b03c
00000210: f0bb ca3c b72c c13c feab b33c 19cd 8f3c
00000220: 2625 993c fe90 953c 23b9 983c bac8 a03c
00000230: e24d 863c 429f 753c c3df 533c 8355 713c
00000240: 39e6 863c ba54 693c 467e 5b3c c506 523c
00000250: 7f86 4b3c 7244 553c f401 0000 f401 0000
00000260: f401 0000 f401 0000 f401 0000 f401 0000
00000270: f401 0000 f401 0000 f401 0000 f401 0000
00000280: f401 0000 f401 0000 f401 0000 f401 0000
00000290: f401 0000 f401 0000 f401 0000 f401 0000
000002a0: f401 0000 f401 0000 f401 0000 f401 0000
000002b0: f401 0000 f401 0000 f401 0000 3985 cf2f
000002c0: 08a1 c82f 6f3d b132 2c01 b534 3812 4935
000002d0: 0554 ce2f 0a84 bc2f fa27 3a31 e0a8 b434
000002e0: 0c0f 4935 e93b a630 3d24 5230 7366 ff2e
000002f0: 9b0d d334 4a86 6835 7f3e 5d35 f2fb 5e35
00000300: f10c 6035 98ea 6035 ee26 6835 8380 6035
00000310: ce74 6035 6c83 6035 3991 6035 c567 6435
00000320: c142 3c31 3ece a832 9f78 9833 6b9d be33
00000330: aab0 be33 15ce e12f c558 4632 0c41 ee32
00000340: f00d bc33 7ab8 bd33 443d 6c2f 9ae9 5231
00000350: 4204 de2d 3b62 1a33 575a 7933 a20a da2e
00000360: 2299 b82d 9605 2f2b 070a bb30 1f6b 1633
00000370: 9e1e 5f2e 458b e62c d6d5 2a2d e645 f72e
00000380: 12ef 6b32 f401 0000 f401 0000 f401 0000
00000390: f401 0000 f401 0000 f401 0000 f401 0000
000003a0: f401 0000 f401 0000 f401 0000 f401 0000
000003b0: f401 0000 f401 0000 f401 0000 f401 0000
000003c0: f401 0000 f401 0000 f401 0000 f401 0000
000003d0: f401 0000 f401 0000 f401 0000 f401 0000
000003e0: f401 0000 f401 0000 c51c 103b 36b5 1d3b
000003f0: 0644 283b 05aa 223b 8767 0c3b 6e7d 043b

exp_avg f4 [32]
6e-45 0.02991116 0.0002806827 0.0054103336 -0.01609438 -0.006227864 6e-45 -1.0246146e-06
1.0292766e-06 6e-45 0.0020893663 6e-45 0.0012710951 -0.0036435898 0.005681692 -0.0022835205
0.00026482053 0.002169035 -0.014023162 6e-45 -2.3531567e-07 0.004285695 0.0025470855 -0.0006920275
-0.008611573 -6.959015e-07 -0.0006419488 -1.1496672e-06 -0.004202775 0.0 6e-45 6e-45
00000000: 0400 0000 4008 f53c 9828 9339 2b49 b13b
00000010: 5cd8 83bc 1c13 ccbb 0400 0000 7d85 89b5
00000020: ad25 8a35 0400 0000 c0ed 083b 0400 0000
00000030: e09a a63a 4bc9 6ebb 7d2d ba3b 1ea7 15bb
00000040: 9cd7 8a39 5e26 0e3b 68c1 65bc 0400 0000
00000050: 14ab 7cb4 046f 8c3b 01ed 263b 2e69 35ba
00000060: 8e17 0dbc fdcd 3ab5 7448 28ba 444e 9ab5
00000070: 6fb7 89bb 0000 0000 0400 0000 0400 0000

exp_avg_sq f4 [32]
7e-43 0.099099346 0.00055322575 0.023274826 0.0518259 0.04247269 7e-43 5.0485583e-06
6.082462e-07 7e-43 0.0043421104 7e-43 0.0051686955 0.019163283 0.020380944 0.022066416
4.43485e-06 0.005227536 0.03847188 7e-43 3.0705352e-09 0.0045860405 0.010913218 0.0029619965
0.09316124 4.4659405e-09 0.0027896157 9.680397e-09 0.03199892 0.0 7e-43 7e-43
00000000: f401 0000 99f4 ca3d 5a06 113a d9aa be3c
00000010: 6547 543d d8f7 2d3d f401 0000 c966 a936
00000020: 5c46 2335 f401 0000 4348 8e3b f401 0000
00000030: 295e a93b 51fc 9c3c f0f5 a63c a1c4 b43c
00000040: 12cf 9436 c04b ab3b b194 1d3d f401 0000
00000050: 6d01 5331 7f46 963b 5bcd 323c 0e1e 423b
00000060: 52cb be3d d472 9931 fcd1 363b d64e 2632
00000070: 4d11 033d 0000 0000 f401 0000 f401 0000

exp_avg f4 [16, 32]
-6e-45 -0.00011279442 0.00012861032 -8.072435e-05 0.00010812252 -0.00027297353 -6e-45 -3.0041678e-09
-8.609192e-09 -6e-45 -0.0003894105 -6e-45 1.6651396e-05 0.00013413058 8.901388e-05 9.295135e-05
1.3495156e-07 -1.876442e-05 0.00012428674 -6e-45 -7.873047e-10 6.4887616e-05 -9.5400064e-05 1.6849734e-08
3.0113679e-06 -2.9957823e-09 1.3449304e-06 -9.130777e-09 -0.0001842383 0.0 0.0 -6e-45
6e-45 5.8872007e-05 -3.1544845e-05 0.00016890418 -4.2937816e-05 0.00015652322 6e-45 1.81583e-09
6.1397327e-09 6e-45 0.00044815868 6e-45 3.9355837e-06 -0.00011896915 -3.569255e-05 -0.00018379137
-1.5557772e-07 2.0078092e-05 2.144571e-06 6e-45 4.4813604e-11 0.00018692763 -0.00012833282 1.4898844e-09
-0.00010974078 1.0943769e-16 -2.4970414e-06 8.174565e-09 -2.1190614e-05 0.0 6e-45 6e-45
6e-45 -1.8948356e-05 -0.00024761332 8.456819e-05 -0.00029142146 -8.177817e-05 6e-45 2.4455508e-13
-2.2874351e-09 -6e-45 0.0003172501 6e-45 8.0603495e-06 -0.00020153167 -0.00010250501 -0.00010631813
-1.549674e-07 1.9963867e-05 -0.00045188385 6e-45 -2.982951e-14 -0.0008515661 -0.00017666373 -2.4951737e-06
-0.000116477975 1.8405108e-13 -9.913297e-07 -2.6603835e-15 -8.124934e-05 0.0 6e-45 -6e-45
-6e-45 -1.9174735e-05 -1.0579762e-05 -1.4803565e-05 1.4270186e-05 1.665522e-05 -6e-45 -2.0573323e-09
-4.4636312e-09 -6e-45 6.911318e-06 -6e-45 -4.619942e-05 1.3863275e-05 2.0304753e-05 6.814659e-05
9.242401e-08 -8.829636e-06 3.0117573e-05 -6e-45 -5.3921884e-10 3.7628906e-05 6.837355e-05 -1.0773441e-08
6.5901026e-05 -2.0516042e-09 1.3158044e-06 -6.2533716e-09 9.145365e-05 0.0 -6e-45 -6e-45
-6e-45 -1.7031101e-05 5.9266153e-05 1.6999189e-05 7.029414e-05 1.641668e-05 -6e-45 -1.7056165e-09
-3.7002916e-09 -6e-45 -3.9302217e-06 -6e-45 8.562985e-06 7.435548e-05 5.0627787e-05 5.525493e-05
7.661825e-08 -8.010295e-06 0.000108661996 -6e-45 -4.469873e-10 0.00023438358 -4.230051e-06 8.8607885e-09
2.2447786e-05 -1.700848e-09 6.066388e-07 -5.18394e-09 1.4051993e-05 0.0 0.0 -6e-45
-6e-45 -1.2751247e-05 -8.3694984e-05 -1.6331243e-05 9.326421e-06 -3.840129e-05 -6e-45 -6.462746e-09
-1.8412482e-08 -6e-45 -2.0130368e-05 -6e-45 -6.0260194e-05 -8.132135e-06 -4.336304e-05 2.459087e-05
-1.7337731e-08 -2.8384533e-05 3.4112018e-05 -6e-45 -1.5885396e-09 -1.737601e-05 5.2049178e-05 -1.7491736e-08
4.1797528e-05 -6.4364287e-09 -6.583679e-09 -1.9532026e-08 5.0559403e-05 0.0 -6e-45 -6e-45
6e-45 -0.00011163359 -0.0003158405 -6.627031e-05 -0.0003617258 -0.0005232088 6e-45 2.5950444e-13
-2.4241447e-09 6e-45 -0.00021157117 6e-45 -2.1537013e-05 -0.00021813542 -0.00014210309 -0.000117013056
-1.6423049e-07 -3.5074996e-07 -0.00061307324 6e-45 -3.1611757e-14 -0.0013785678 -0.00019505195 -2.6513226e-06
-0.00012285923 1.9535895e-13 -1.0573102e-06 -2.8193267e-15 -0.00030715865 0.0 0.0 6e-45
6e-45 -0.00011302353 -0.0002967283 -5.9170743e-05 -0.00037729624 -0.0005299176 6e-45 3.2777287e-16
-2.445918e-09 -6e-45 -0.00019773541 6e-45 -0.000101543235 -0.00032801257 -0.00014619512 -0.0002023041
-1.6570631e-07 -6.97804e-07 -0.00063209 6e-45 -3.1896286e-14 -0.0014550168 -0.00020584975 -2.6679982e-06
-0.00012480712 3.0936764e-16 -2.5605266e-06 -2.8446913e-15 -0.0003012185 0.0 6e-45 6e-45
00000000: 0400 0080 0b8c ecb8 92db 0639 8e4a a9b8
00000010: d6bf e238 e31d 8fb9 0400 0080 e171 4eb1
00000020: a0e7 13b2 0400 0080 cb29 ccb9 0400 0080
00000030: 9aae 8b37 67a5 0c39 f7ac ba38 e0ee c238
00000040: 34e7 1034 4968 9db7 f852 0239 0400 0080
00000050: a569 58b0 4614 8838 8511 c8b8 f5bc 9032
00000060: e816 4a36 5cde 4db1 7583 b435 95dd 1cb2
00000070: 1830 41b9 0000 0000 0000 0000 0400 0080
00000080: 0400 0000 56ed 7638 054f 04b8 df1b 3139
00000090: 2118 34b8 6220 2439 0400 0000 d790 f930
000000a0: a9f5 d231 0400 0000 d7f6 ea39 0400 0000
000000b0: 680e 8436 137f f9b8 95b4 15b8 1fb8 40b9
000000c0: e10c 27b4 606d a837 73eb 0f36 0400 0000
000000d0: a217 452e 0102 4439 1491 06b9 a6c4 cc30
000000e0: a224 e6b8 9c58 fc24 d892 27b6 1e70 0c32
000000f0: 7fc2 b1b7 0000 0000 0400 0000 0400 0000
00000100: 0400 0000 49f3 9eb7 19d2 81b9 345a b138
00000110: edc9 98b9 5280 abb8 0400 0000 1aac 892a
00000120: fc30 1db1 0400 0080 9654 a639 0400 0000
00000130: f03a 0737 3f52 53b9 f5f7 d6b8 1df7 deb8
00000140: 1d65 26b4 1478 a737 d3ea ecb9 0400 0000
00000150: 1557 06a9 a23b 5fba cf3e 39b9 c272 27b6
00000160: a345 f4b8 1d39 4f2a d40d 85b5 6ab3 3fa7
00000170: 6864 aab8 0000 0000 0400 0000 0400 0080
00000180: 0400 0080 6ed9 a0b7 bb7f 31b7 d45c 78b7
00000190: fb69 6f37 d0b6 8b37 0400 0080 f960 0db1
000001a0: 845e 99b1 0400 0080 c5e7 e736 0400 0080
000001b0: 40c6 41b8 5096 6837 2054 aa37 ece9 8e38
000001c0: a37a c633 ff22 14b7 ffa4 fc37 0400 0080
000001d0: 2738 14b0 bbd3 1d38 c563 8f38 1816 39b2
000001e0: 5834 8a38 34fc 0cb1 b29a b035 3ddd d6b1
000001f0: ceca bf38 0000 0000 0400 0080 0400 0080
00000200: 0400 0080 03de 8eb7 8c94 7838 7b99 8e37
00000210: e16a 9338 8db6 8937 0400 0080 0c6b eab0
00000220: 3848 7eb1 0400 0080 59e0 83b6 0400 0080
00000230: bea9 0f37 4bef 9b38 2c59 5438 88c1 6738
00000240: 5489 a433 f463 06b7 77e1 e338 0400 0080
00000250: dfbb f5af ddc4 7539 ddef 8db6 293a 1832
00000260: 414e bc37 45c3 e9b0 e7d7 2235 6b1e b2b1
00000270: dac0 6b37 0000 0000 0000 0000 0400 0080
00000280: 0400 0080 30ee 55b7 6785 afb8 14ff 88b7
00000290: ac78 1c37 1211 21b8 0400 0080 ea0e deb1
000002a0: 7a29 9eb2 0400 0080 a3dd a8b7 0400 0080
000002b0: e4bf 7cb8 416f 08b7 b6e0 35b8 7e48 ce37
000002c0: 13ee 94b2 521b eeb7 8013 0f38 0400 0080
000002d0: c553 dab0 b3c2 91b7 614f 5a38 bc40 96b2
000002e0: c14f 2f38 6d27 ddb1 a736 e2b1 61c7 a7b2
000002f0: bf0f 5438 0000 0000 0400 0080 0400 0080
00000300: 0400 0000 d41c eab8 6597 a5b9 9afa 8ab8
00000310: 04a6 bdb9 f327 09ba 0400 0000 8816 922a
00000320: 0196 26b1 0400 0000 34d9 5db9 0400 0000
00000330: 62aa b4b7 48bb 64b9 8201 15b9 e864 f5b8
00000340: 5557 30b4 b54e bcb4 a6b6 20ba 0400 0000
00000350: e05d 0ea9 0fb1 b4ba dc86 4cb9 60ed 31b6
00000360: c6d3 00b9 62f4 5b2a e7e8 8db5 6627 4ba7
00000370: 230a a1b9 0000 0000 0000 0000 0400 0000
00000380: 0400 0000 0c07 edb8 3392 9bb9 1a2e 78b8
00000390: d8cf c5b9 2bea 0aba 0400 0000 bdf2 bc25
000003a0: 0b15 28b1 0400 0080 3257 4fb9 0400 0000
000003b0: 9cf3 d4b8 1af9 abb9 f44b 19b9 9821 54b9
000003c0: 01ed 31b4 ba50 3bb5 d8b2 25ba 0400 0000
000003d0: eaa5 0fa9 43b6 beba 5fd9 57b9 dc0b 33b6
000003e0: a8de 02b9 9b56 b225 83d5 2bb6 4bfb 4ca7
000003f0: ddec 9db9 0000 0000 0400 0000 0400 0000

exp_avg_sq f4 [16, 32]
7e-43 4.271368e-06 1.5395162e-05 1.1777293e-05 6.097518e-06 2.163849e-05 7e-43 1.3314482e-11
3.556743e-11 7e-43 6.220443e-05 7e-43 3.4996705e-05 2.0806481e-05 1.1423903e-05 3.4189296e-05
2.2091064e-10 4.506248e-08 1.2718105e-05 7e-43 6.247353e-13 6.918439e-05 5.2297455e-05 1.4253999e-09
1.1563492e-05 1.9006045e-14 3.0643286e-09 1.3897445e-14 7.504757e-05 0.0 0.0 7e-43
7e-43 3.1039264e-05 6.1034407e-06 1.196238e-05 3.057752e-06 3.4385826e-05 7e-43 1.5214274e-11
9.426269e-12 7e-43 0.00013600559 7e-43 3.5318113e-05 2.3415165e-05 4.6426408e-06 5.553907e-05
2.8375866e-10 1.2622178e-07 7.947393e-06 7e-43 7.2674386e-13 6.915913e-05 0.00025434318 1.7897263e-09
5.3111602e-05 2.1652373e-14 1.40748915e-08 6.30473e-15 0.00020760078 0.0 7e-43 7e-43
7e-43 2.6432293e-05 2.8714523e-05 1.3773762e-05 1.3414827e-05 5.262297e-05 7e-43 1.9822319e-12
4.13107e-11 7e-43 0.00012016743 7e-43 1.968872e-05 9.845409e-06 1.1805224e-05 2.3714725e-05
2.6486096e-11 1.1072957e-07 3.6175894e-05 7e-43 6.7211715e-13 0.00017170575 0.000197107 5.1254925e-09
4.231136e-05 2.020022e-14 4.02832e-09 1.2842939e-14 0.00017533434 0.0 7e-43 7e-43
7e-43 1.0558617e-05 5.441626e-06 3.225475e-06 8.256177e-07 3.6165648e-06 7e-43 6.2531217e-12
1.6695045e-11 7e-43 4.264699e-05 7e-43 5.969316e-06 3.1366017e-06 1.4051953e-06 1.8140641e-05
1.0377463e-10 4.427789e-08 1.5153206e-06 7e-43 2.7346707e-13 1.0299634e-05 9.258488e-05 1.6814536e-10
1.9316205e-05 8.850971e-15 3.0302216e-09 6.3055343e-15 7.187179e-05 0.0 7e-43 7e-43
7e-43 3.5757182e-07 3.1308443e-06 3.3497404e-06 1.7509814e-06 2.040329e-06 7e-43 4.2809016e-12
1.1450079e-11 7e-43 2.839942e-06 7e-43 1.1094806e-05 6.4405303e-06 3.677452e-06 1.0341023e-05
7.1007096e-11 1.0508117e-08 3.3375716e-06 7e-43 2.0086058e-13 1.5750493e-05 9.626555e-06 3.2979483e-10
2.5605193e-06 6.1349195e-15 9.412767e-10 4.4353847e-15 7.941205e-06 0.0 0.0 7e-43
7e-43 7.336512e-06 4.3561777e-05 5.6059976e-06 7.146648e-06 2.36963e-05 7e-43 2.0147846e-12
3.3906049e-12 7e-43 2.275466e-05 7e-43 1.8861141e-05 1.8104587e-05 1.0539465e-05 4.2059655e-05
2.4751607e-11 1.0806517e-07 1.3431346e-05 7e-43 2.6459594e-12 9.23305e-05 4.929058e-05 1.1224792e-09
1.2598539e-05 2.5968055e-14 9.950161e-10 4.1193387e-14 7.4535055e-05 0.0 7e-43 7e-43
7e-43 1.1962668e-05 3.0333216e-05 1.1296722e-05 1.6132324e-05 3.4879507e-05 7e-43 1.7070869e-11
1.4800883e-11 7e-43 2.755437e-05 7e-43 2.7389686e-05 1.6425256e-05 1.4595348e-05 2.6742317e-05
2.8304753e-10 7.5185625e-08 4.2457305e-05 7e-43 7.3968154e-13 0.00018528913 9.724719e-05 5.4409783e-09
2.0721149e-05 1.8138904e-14 4.75864e-09 1.2744959e-14 6.409333e-05 0.0 0.0 7e-43
7e-43 1.3305998e-05 3.1348492e-05 1.169542e-05 1.5499934e-05 3.6418987e-05 7e-43 1.7437881e-11
1.6044282e-11 7e-43 3.510664e-05 7e-43 4.0586638e-05 2.6928448e-05 1.5378544e-05 5.0397754e-05
2.9273087e-10 8.58956e-08 4.3252094e-05 7e-43 7.680159e-13 0.00020002849 0.00012332828 5.5199236e-09
2.512944e-05 2.2478537e-14 8.086437e-09 1.4655593e-14 8.024239e-05 0.0 7e-43 7e-43
00000000: f401 0000 c652 8f36 dc24 8137 1797 4537
00000010: 4899 cc36 4e84 b537 f401 0000 193b 6a2d
00000020: 5e6d 1c2e f401 0000 c073 8238 f401 0000
00000030: 6dc9 1238 9489 ae37 4aa9 3f37 7a66 0f38
00000040: d1e4 722f b98a 4133 d85f 5537 f401 0000
00000050: ecd8 2f2b 1617 9138 f759 5b38 cde7 c330
00000060: d200 4237 f530 ab28 3d94 5231 a75a 7a28
00000070: db62 9d38 0000 0000 0000 0000 f401 0000
00000080: f401 0000 2830 0238 28cc cc36 08b2 4837
00000090: c833 4d36 8039 1038 f401 0000 80d3 852d
000000a0: 24d4 252d f401 0000 b99c 0e39 f401 0000
000000b0: 8922 1438 af6b c437 fbc7 9b36 9ff2 6838
000000c0: 7bff 9b2f 9487 0734 cb55 0537 f401 0000
000000d0: 6a8f 4c2b 8609 9138 5d59 8539 65fa f530
000000e0: 26c4 5e38 f906 c328 07ce 7132 df26 e327
000000f0: 69af 5939 0000 0000 f401 0000 f401 0000
00000100: f401 0000 ebba dd37 f8df f037 db15 6737
00000110: 3e10 6137 7cb7 5c38 f401 0000 b77c 0b2c
00000120: b7af 352e f401 0000 6602 fc38 f401 0000
00000130: 3429 a537 b62d 2537 0d0f 4637 fcee c637
00000140: 63f9 e82d 3aca ed33 92bb 1738 f401 0000
00000150: 252f 3d2b e90b 3439 82ae 4e39 4f1c b031
00000160: 7a77 3138 89f2 b528 7a69 8a31 9a5b 6728
00000170: f4d9 3739 0000 0000 f401 0000 f401 0000
00000180: f401 0000 ea24 3137 3697 b636 3d75 5836
00000190: 04a0 5d35 1cb4 7236 f401 0000 1d03 dc2c
000001a0: e6d9 922d f401 0000 dbdf 3238 f401 0000
000001b0: 094c c836 687e 5236 259a bc35 bb2c 9837
000001c0: ec33 e42e 0e2c 3e33 0562 cb35 f401 0000
000001d0: c2f2 992a 97cc 2c37 212a c238 b6e0 382f
000001e0: 3c09 a237 e671 1f28 393c 5031 4a2e e327
000001f0: e0b9 9638 0000 0000 f401 0000 f401 0000
00000200: f401 0000 4cf8 bf34 7f1b 5236 1acc 6036
00000210: 4303 eb35 96ec 0836 f401 0000 ef9e 962c
00000220: 926e 492d f401 0000 d595 3e36 f401 0000
00000230: d423 3a37 bc1b d836 25ca 7636 5b7e 2d37
00000240: 7125 9c2e 3087 3432 0bfb 5f36 f401 0000
00000250: 1f26 622a ed1f 8437 bd81 2137 7f4e b52f
00000260: 63d5 2b36 a508 dd27 3b5e 8130 34cd 9f27
00000270: 373b 0537 0000 0000 0000 0000 f401 0000
00000280: f401 0000 292c f636 1ab6 3638 271b bc36
00000290: 3dcd ef36 6bc7 c637 f401 0000 22c7 0d2c
000002a0: b597 6e2c f401 0000 43e1 be37 f401 0000
000002b0: fe37 9e37 4edf 9737 a8d2 3037 3669 3038
000002c0: aab7 d92d 7511 e833 3157 6137 f401 0000
000002d0: 5e31 3a2c 8fa1 c138 5bbd 4e38 ba45 9a30
000002e0: 505e 5337 42e6 e928 04c1 8830 be84 3929
000002f0: b44f 9c38 0000 0000 f401 0000 f401 0000
00000300: f401 0000 45b3 4837 1674 fe37 0d87 3d37
00000310: e753 8737 964b 1238 f401 0000 2e28 962d
00000320: a030 822d f401 0000 8f24 e737 f401 0000
00000330: e7c2 e537 f8c8 8937 8bde 7437 b054 e037
00000340: 669b 9b2f bc75 a133 2f14 3238 f401 0000
00000350: ac33 502b 2c4a 4239 30f1 cb38 5af3 ba31
00000360: 54d2 ad37 7761 a328 7181 a331 c097 6528
00000370: d869 8638 0000 0000 0000 0000 f401 0000
00000380: f401 0000 d43c 5f37 307c 0338 7237 4437
00000390: db05 8237 97c0 1838 f401 0000 9e62 992d
000003a0: 8320 8d2d f401 0000 783f 1338 f401 0000
000003b0: 923b 2a38 67e4 e137 2c01 8137 2d62 5338
000003c0: 35ee a02f 9b75 b833 9569 3538 f401 0000
000003d0: 612d 582b bdbe 5139 af51 0139 c3a9 bd31
000003e0: 10cd d237 fa77 ca28 87ec 0a32 7f01 8428
000003f0: ce47 a838 0000 0000 f401 0000 f401 0000

exp_avg f4 [16]
0.00022626796 -0.0013884256 -0.0028934677 0.00036148657 0.00060825207 -0.0004870753 -0.0038819653 -0.004311636
-0.0020544324 -0.0018673482 -0.0024886164 -0.0066479105 -0.0021032612 6e-45 0.0015976757 -6e-45
00000000: 5842 6d39 d5fb b5ba 55a0 3dbb e885 bd39
00000010: 1b73 1f3a 245e ffb9 9268 7ebb a048 8dbb
00000020: a8a3 06bb cfc1 f4ba 0e18 23bb b7d6 d9bb
00000030: ded6 09bb 0400 0000 1a69 d13a 0400 0080

exp_avg_sq f4 [16]
0.0015793466 0.0025638407 0.0025945196 0.0009254126 0.00029248974 0.004882634 0.0020531318 0.002431964
0.0012257097 0.0007349039 0.0012924119 0.0045068543 0.0012892415 7e-43 0.0009864707 7e-43
00000000: 1402 cf3a 1c06 283b d108 2a3b 6397 723a
00000010: 4f59 9939 81fe 9f3b d68d 063b 9661 1f3b
00000020: fea7 a03a 91a6 403a 2666 a93a 3cae 933b
00000030: c4fb a83a f401 0000 774c 813a f401 0000

exp_avg f4 [2, 16]
2.186849e-05 -3.1379903e-05 -8.492453e-05 -1.44283395e-05 -1.1689405e-05 2.5127174e-05 -9.6860735e-05 -8.9884874e-05
-0.00012416266 -5.714992e-05 -0.00012737527 -9.919035e-05 -0.00012916718 -6e-45 -0.0002083824 6e-45
-2.1867992e-05 3.138027e-05 8.492551e-05 1.4429335e-05 1.16893025e-05 -2.5126234e-05 9.68616e-05 8.9885616e-05
0.00012416397 5.715056e-05 0.00012737654 9.919088e-05 0.00012916853 6e-45 0.00020838584 -6e-45
00000000: 3a72 b737 ea9d 03b8 8319 b2b8 3f11 72b7
00000010: 9d1d 44b7 32c8 d237 b621 cbb8 9380 bcb8
00000020: a931 02b9 42b4 6fb8 0a90 05b9 6a04 d0b8
00000030: 0d71 07b9 0400 0080 3981 5ab9 0400 0000
00000040: 2871 b7b7 4f9e 0338 091a b238 8615 7237
00000050: 2c1d 4437 2dc6 d2b7 2d22 cb38 f980 bc38
00000060: 0332 0239 f2b4 6f38 6190 0539 b304 d038
00000070: 6a71 0739 0400 0000 2682 5a39 0400 0080

exp_avg_sq f4 [2, 16]
2.531849e-06 2.9817018e-06 5.332951e-07 1.5973636e-05 3.9922e-07 2.4099467e-07 4.161107e-07 3.5836229e-07
1.5717737e-06 1.1153147e-07 1.5072427e-06 3.2008674e-07 1.7882535e-06 7e-43 1.1011531e-05 7e-43
2.5318493e-06 2.9817027e-06 5.3329535e-07 1.5973636e-05 3.9921997e-07 2.4099464e-07 4.1611094e-07 3.5836234e-07
1.5717742e-06 1.11531534e-07 1.507243e-06 3.2008688e-07 1.7882542e-06 7e-43 1.1011531e-05 7e-43
00000000: d6e8 2936 3f19 4836 c327 0f35 1fff 8537
00000010: 6154 d634 0e62 8134 d265 df34 f064 c034
00000020: bcf5 d235 1383 ef33 774c ca35 63d8 ab34
00000030: ec03 f035 f401 0000 2abe 3837 f401 0000
00000040: d7e8 2936 4319 4836 c727 0f35 1fff 8537
00000050: 6054 d634 0d62 8134 da65 df34 f264 c034
00000060: c0f5 d235 1c83 ef33 7a4c ca35 68d8 ab34
00000070: f203 f035 f401 0000 2abe 3837 f401 0000

exp_avg f4 [2]
-0.00044263783 0.00044264417
00000000: d811 e8b9 b212 e839

exp_avg_sq f4 [2]
6.3347725e-05 6.3347776e-05
00000000: 8dd9 8438 94d9 8438

loss f8 []
0.00022343729627354806
00000000: 1cc7 a9c2 4f49 2d3f
