48_point_edge_detector.pth (torch, 25342 bytes, 19 tensors)

model.0.weight f4 [32, 25]
00000000: f967 923d 4e30 713e 1331 51bb a7a6 b43d
00000010: 88b9 033e 94bd 4f3e becf 22bd 2ec9 b7bd
00000020: ffab 9ebc f46c 3f3e a6ec 74bb db09 c3be
00000030: 95e3 33bf 9b92 b7be fa50 99bd 8a4c bd3e
00000040: 7fe2 adbb c0b3 f63d efbc f9bc 2f85 ba3e
00000050: 4f26 8dbd 2b8d 35bc 88d6 f33d 17f3 823c
00000060: 3ceb edbd 32e8 22bd 6638 833b 9870 09be
00000070: 7950 043e 72d6 b13c a386 7bbe 1949 a6be
00000080: 213c 94bd 437b d93e 9849 7f3e 0558 4fbe
00000090: 82a0 dbbd 2fbf dd3d b255 953d fdb1 fd3d
000000a0: 0d84 8b3c e732 db3e 88a4 3dbc 8b29 e1be
000000b0: 0ea2 b5be 9ff5 f33d 9ecb 8a3e 5450 e03d
000000c0: 5225 18be 27c0 5b3c 2a5a a2b9 7e07 80b9
000000d0: f43d f0b8 2931 0d39 b7f4 97b9 6945 a238
000000e0: 93e8 d737 996e 8339 d5cb 0339 f615 7eb9
000000f0: 255e b4b9 4a2a 6537 7a6d a3b7 b6b1 f238
00000100: f869 fa38 1190 acb9 c303 8bb9 3012 5439
00000110: 121f 55b8 dadb 5237 e007 2939 cde0 54b8
00000120: fdc0 76b9 4a2e 40b9 61de 01b9 537a 78ba
00000130: a6df 24ba 7ca3 30ba b13e 7cb9 66dd 25b9
00000140: 130f 03ba 8019 85ba cf26 2eba 61ff b8b8
00000150: 2f8e a639 e0a3 bc39 667a eb38 6f4d 02ba
00000160: 921d 11ba 3603 f4b7 b238 6139 597a a4b9
00000170: 434b 80ba 5b44 9eb9 5aaa 95b9 592c 35b8
00000180: 99a3 d6b9 bec8 a7b9 68da e7b8 8824 71b9
00000190: cbb9 303e db92 b8bd b3eb c8bd 3a97 3339
000001a0: 18f9 66bd 9b62 a03e 9f45 a8be be3a d1be
000001b0: 7f73 953d 9df0 0e3e da75 9cbd 47bc 1cbe
000001c0: 49c7 c7be 6dd0 b33e 7679 d53c fae3 6fbc
000001d0: 0fb1 4a3d ee85 b23e f75e d83e 9cf9 1cbe
000001e0: 1abc 60bd d9d6 90bd f497 5fbc a2cc 5e3d
000001f0: c932 41bd bb47 db3a 16f2 51bc 25f3 1cbd
00000200: 5454 18be dfac e13c c66a 26be 2505 86be
00000210: c8ce 2cbf 1199 9fbe 3440 fbbd 1998 3a3d
00000220: b0de 123e bb41 d43e 0aab fb3d d6ef e13d
00000230: 033d 1a3b 190e d93d f6c5 e33e 4bbd 553e
00000240: 6748 dcbb ddfc 9bbc 79e2 663d 4298 aebc
00000250: d160 d5bc b869 f33d 685c 1fbc 33cf 4d3e
00000260: 1e1f 603c bb09 bfbe 55da 79be 7e1f 8a3e
00000270: 0a39 a33e ba9f dc3b 8c35 a7be 6776 843d
00000280: c012 b13d 6b67 35be 5af5 213d accc 233e
00000290: 3329 0c3e f115 403d c06c 9dbe ca9c 4ebe
000002a0: 3015 923e 1d52 c43e 5726 8dbd 5d0c a8be
000002b0: fcd9 08bd 904c 11bd 6857 af3d eadc 983b
000002c0: 8004 5abd 4306 03bd 87f3 7f3d 2550 babc
000002d0: aa37 a5bd 079d a23d 5be8 d53e a46e c33e
000002e0: 2642 b1bd 387d 5b3d 1d25 83bd e54d 03be
000002f0: 6056 be3e b496 d13d b821 893a 7cdb 02bf
00000300: b070 fdbe 9c76 debb 5ae2 f53d 8e78 173d
00000310: ed8b 603d 8b92 edbd ca99 94bd 813e 8ebc
00000320: 85fb 5dbc 10ea 72be 581a 883c a9e5 58be
00000330: 73fe 31be fd02 c5bc a508 833d d1a6 b73e
00000340: cde6 6b3e 4713 acbd 3163 dfbd 5abe 0cbd
00000350: 8b8e 9b3e a9d6 aebd 5753 0cbd efad d13b
00000360: cd6e 2e3e 4956 ce3e 74b4 cd3e 3379 1fbc
00000370: 5fbd 17be 6805 3bbe 372d 16be 381e a9be
00000380: b8b5 ffbd 1214 4b3d c634 ad3d de14 e33d
00000390: 9aa1 5b3e 572e 3fbe 3236 36bd 030c be3e
000003a0: e984 bf3c bea9 a0be d45f aabe 40a2 143e
000003b0: cac4 1fbe b3ee 2e3e b4de bebd 0025 2b3e
000003c0: d4bf c0be 59ae 85be 6c2b ddbc 7a83 c63e
000003d0: d7c8 293e 4525 33be b307 073e 2328 563c
000003e0: 3f60 afbb 1c59 84bd cbb3 a0b9 1a0c 8ab9
000003f0: 0e9e 7a39 3462 9eb9 d61e 65b9 d01c 81b8
0.071487375 0.23553583 -0.003192012 0.08820849 0.12863743 0.20287162 -0.0397489 -0.08973919
-0.019369124 0.18693906 -0.0037372499 -0.38093457 -0.7026914 -0.3585404 -0.07486148 0.36972457
-0.0053065415 0.12046003 -0.030485598 0.36429736 -0.068920724 -0.01108102 0.11906153 0.015985055
-0.11617133 -0.03977222 0.004004526 -0.13421857 0.12921323 0.0217087 -0.24563079 -0.32477644
-0.07238031 0.42476854 0.24930418 -0.2024842 -0.10723974 0.10827481 0.07291736 0.12387464
0.01703074 0.42812273 -0.011574872 -0.43977007 -0.354752 0.11912083 0.27108473 0.109528214
-0.14857987 0.013412512 -0.00030966225 -0.00024419645 -0.000114556315 0.00013465121 -0.0002898329 7.7376906e-05
2.5738298e-05 0.0002506867 0.00012569067 -0.00024231509 -0.00034402419 1.365931e-05 -1.9482093e-05 0.000115725605
0.00011940667 -0.00032913734 -0.0002651495 0.00020224671 -5.0812094e-05 1.2568164e-05 0.0001612003 -5.07541e-05
-0.00023532282 -0.00018327791 -0.00012385241 -0.0009478677 -0.000628943 -0.0006738228 -0.00024055947 -0.00015818104
-0.00049994997 -0.0010154694 -0.0006643356 -8.821372e-05 0.00031767922 0.0003598025 0.00011228472 -0.0004970645
-0.00055357174 -2.9088562e-05 0.00021478793 -0.00031371674 -0.0009788055 -0.00030187037 -0.00028546416 -4.3195065e-05
-0.0004093915 -0.00032002287 -0.0001105562 -0.0002299716 0.17258374 -0.090123855 -0.09810581 0.00017127107
-0.056389898 0.3132523 -0.32865617 -0.4086513 0.0729742 0.13958974 -0.07639666 -0.15306197
-0.3901923 0.35119954 0.026058894 -0.014641756 0.049485262 0.34867805 0.42259952 -0.15329593
-0.054866888 -0.07072229 -0.013647068 0.05439437 -0.047167573 0.0016729751 -0.012814065 -0.03831782
-0.14875919 0.027548252 -0.16251668 -0.261758 -0.67503023 -0.31171468 -0.12268105 0.045555208
0.14342761 0.41456398 0.122884825 0.11032073 0.00235349 0.10598392 0.4448697 0.20872991
-0.006722498 -0.019041473 0.056368325 -0.021312837 -0.026047142 0.118853986 -0.009726621 0.20098571
0.013679294 -0.3731211 -0.24399693 0.26977152 0.31879455 0.006732908 -0.3265804 0.06467896
0.086461544 -0.17715232 0.039540626 0.15996045 0.13687591 0.046895925 -0.30747032 -0.20176998
0.2853179 0.38343897 -0.06892078 -0.32821932 -0.03341101 -0.035473406 0.08561593 0.004665007
-0.053226948 -0.031988394 0.062488105 -0.022743294 -0.08067258 0.07940107 0.41778836 0.3817035
-0.08655195 0.053586215 -0.06403563 -0.12822683 0.37175274 0.102338225 0.001046232 -0.51116157
-0.49500036 -0.0067890417 0.12006064 0.036980204 0.054820944 -0.116002165 -0.072558954 -0.017363789
-0.013548736 -0.237221 0.016614124 -0.21181358 -0.17382221 -0.024049276 0.06398133 0.35869458
0.23037262 -0.08402114 -0.10907591 -0.03436122 0.3038219 -0.08537037 -0.034259167 0.0063989083
0.17034455 0.40300205 0.40176737 -0.009733486 -0.14818333 -0.18263781 -0.14665686 -0.33030868
-0.12485832 0.049579687 0.08457331 0.110879645 0.21448365 -0.18670021 -0.04448528 0.3711854
0.023378806 -0.31379503 -0.33276236 0.14515018 -0.15602413 0.17083244 -0.09319821 0.16713333
-0.37646353 -0.2610958 -0.026998244 0.38772184 0.1658052 -0.17494686 0.13186531 0.013071093
-0.0053520496 -0.06462309 -0.00030651534 -0.00026330427 0.00023900738 -0.00030209275 -0.00021850629 -6.156566e-05

model.0.bias f4 [32]
00000000: 0ebe 933b b8b9 cc3a 4b3b c6b9 2613 24ba
00000010: 2f03 023a 3e9b 9fbc f2cd ffba e927 653a
00000020: 445a f0ba 7e06 31b8 e072 7eb9 37ac 4dbd
00000030: ecec 26bd c4e3 2f3d 14ab 893c d165 72bd
00000040: e9f5 e4b9 2ab9 88ba 8dd3 77bd 02db 93ba
00000050: 4859 473d 15b0 83ba df6c 6a3a dbc3 94b9
00000060: 02e9 3fbd 9020 543d d087 a4b9 cf90 3bbd
00000070: 6fac 12ba 7ff0 afb9 250b 68bc 8783 ecb9
0.0045087403 0.0015619313 -0.0003780968 -0.0006258957 0.0004959581 -0.019483205 -0.0019516333 0.0008741604
-0.0018337448 -4.2206135e-05 -0.00024266122 -0.050213065 -0.04075329 0.042941824 0.01680521 -0.05917913
-0.00043670766 -0.001043116 -0.060504485 -0.0011280479 0.04866913 -0.0010046983 0.00089426147 -0.00028374683
-0.046853073 0.051788867 -0.00031381706 -0.045792397 -0.00055951526 -0.00033557785 -0.014162813 -0.00045111423

model.2.weight f4 [16, 32]
00000000: fcfb ed3e b3e3 713e 1214 5836 6c87 bdb9
00000010: 9a8b 2b3f 126a 92bf 305e 463e 6bc9 603e
00000020: c43c dabe 5207 c7be f8e6 9539 80f3 a8be
00000030: bea6 a5be 2898 55c0 63cf 1d3f ba51 16bd
00000040: 30f2 fd38 bf4d 6b39 6e05 8fbf a9c7 2e3a
00000050: 9500 88be 363f 883a 53ba 633f c5f7 20ba
00000060: abc7 413f 8681 b03e 0ebc 1bb9 fa8f d1be
00000070: 61ef 87b9 0a73 04b9 9a9e 0e3d 8485 4cb9
00000080: e4c3 9bbe 0a0b 8abe ebed 8c38 b879 45b9
00000090: 990d 58bc 685f 873e 0759 4dbf bd15 a13e
000000a0: 6b09 ef3d f04e 3e3d 9a16 cfb9 a1d5 583e
000000b0: add9 9ebd 248b cdbf ba61 013e 0278 3b3d
000000c0: e303 e438 c9fd 23b9 c955 b93e dd1a d0b9
000000d0: 8b97 d6bf 4ab4 c538 0629 893e d054 b4b6
000000e0: 3ff7 96be 8c7a 363e 33ed 5d3a 4ed8 3d3c
000000f0: 2052 3db9 8b2d 4eb9 32c4 49bf 0a9e dbb9
00000100: 92f3 88bf d963 763f a851 fbb8 76aa 4cba
00000110: 1c30 3dbf a859 cdbd 9519 d03e f21e cdbe
00000120: aeb2 d9bf 2979 383f f90f f638 ef9e 90be
00000130: d0dd 3cbe e62b a73e 72a4 bc3d 98ac 55be
00000140: f9de 89b9 55ff 3ab9 f358 26bd faca f4b9
00000150: e337 493e c2bd 39b9 d181 30be 15ec bfb9
00000160: b7a9 04bf 86cb e13d c975 573a 2cd9 dcbe
00000170: 5667 c7b9 0f42 ebb9 0c78 ab3d 451b 38b9
00000180: 21ab b2bf edf3 683f c0da 96b9 6be0 09b9
00000190: d270 59bf 7442 b1bd 5a45 273f 0fb3 ffbe
000001a0: 1247 d0bf d72c a43e 9486 0839 9b24 cfbc
000001b0: bb78 303f 3b3f f2be 3a94 ea3e dacc 10bf
000001c0: eeb8 0139 23cc 093a 2abc bfbe ed30 c738
000001d0: edcd 5fbf 0f75 7dba 7334 233e 6ea8 47b8
000001e0: 337d 0dbf 34e1 20bf 4c44 473a 0bfc ebbd
000001f0: 68ff dab7 9b0b 1e39 bb2e 973d 4774 4fb9
00000200: ace1 cdbf fad9 223f 2dee b438 ab7b 97b9
00000210: 12bd d3be d55f 25be 9adf 313f f535 30bf
00000220: b0c1 9f3e 534a de3e e224 b338 d5de 383e
00000230: f904 62bd b2ed cf3f 87cb 833c 8fc9 15bf
00000240: bb09 35b9 a9f0 a939 12a5 5dbf dd86 643a
00000250: 5fd5 c639 8276 04ba bda6 cbbe 20c8 4d38
00000260: b19c 113e 1343 9c3e b710 88b8 36fd bf3e
00000270: eed8 4b39 007b c7b7 1fbf e83e 71bf 1bb8
00000280: 59d9 423f 4cbd 1abf 27d5 3239 aa87 42b9
00000290: 8393 6fbf dce3 22bf b3c3 8bbe 320f 67bf
000002a0: 8d85 6b3f 773a a0be b98f 99b8 2842 273f
000002b0: e28e 713f 30b0 88be 49e9 693d 688d 48bf
000002c0: 513d 0838 e492 64b9 77c7 82bf 843a 98ba
000002d0: 206c bc3e b7dd b5ba fcc2 9dbf 5f9f b2b9
000002e0: 2c3e 2d3f 7fd2 063f 1a7c 0bba 5d78 363f
000002f0: c734 9538 f869 b7b8 e61c 74bc 16d1 d838
00000300: 7e15 19be 770c bcbf 67e0 7637 fde8 83b9
00000310: 1f9e b0bf 50ef bbbf c6b1 53bf 6c42 d8bf
00000320: cd88 43be 3737 53bf 5406 21b8 167e b4be
00000330: c205 683f 4211 413d 634d 02be 5e5c 0ebf
00000340: b35c 8039 8442 ec39 ccaf 063f d373 d5b8
00000350: 4c13 c0be 6efa bdba 198c f1bf bc7c 1fb9
00000360: 8a93 f43c b60e 373e 095b 243a 52b2 92bd
00000370: cdd0 3939 ce96 4db9 0840 f1be 8c79 d5b8
00000380: afc1 733e 00c3 943d 8df8 9138 9283 3639
00000390: 6a01 7bbe e9f7 79be ec7a 5e3f 0347 243d
000003a0: 5480 cfbe 1b9e cc3e 5a0e 40b9 5d43 4ebf
000003b0: 2066 013e 8d2b 063f c4d1 21bf 8253 debe
000003c0: 21fc 3eb6 ddaf 2d3a df75 e3be 4c93 20b9
000003d0: d206 2ec0 71b9 9fb9 0621 9abd a46f b338
000003e0: d87a d7bd 10c7 2ebf 786a a338 c7e0 07bf
000003f0: 23b3 4f39 21ea a9b8 288a 8b3f d68b f6b8
0.4648131 0.23622017 3.219819e-06 -0.00036149786 0.6700989 -1.143862 0.19371867 0.21951835
-0.42624485 -0.38872772 0.0002859158 -0.32998276 -0.32353777 -3.3374119 0.6164457 -0.036699034
0.00012109091 0.00022440309 -1.1173532 0.0006667325 -0.26562944 0.0010394815 0.88956183 -0.0006140436
0.75695294 0.3447382 -0.00014852008 -0.40930158 -0.00025927558 -0.00012631356 0.034819223 -0.00019504695
-0.3042289 -0.26961547 6.720036e-05 -0.00018832728 -0.013186836 0.26439977 -0.8021397 0.31461897
0.11671718 0.046462 -0.00039498956 0.21175243 -0.07756362 -1.6058087 0.12634936 0.045768745
0.00010872611 -0.00015639434 0.3619826 -0.00039692866 -1.6764997 9.4272735e-05 0.2678911 -5.3742915e-06
-0.2948551 0.17820185 0.00084658264 0.011587216 -0.00018055039 -0.00019662657 -0.78814995 -0.00041888683
-1.0699332 0.96246105 -0.00011983822 -0.0007807383 -0.73901534 -0.10026866 0.40644518 -0.40062672
-1.7007654 0.72059876 0.00011733169 -0.28246257 -0.1844399 0.3265068 0.09211053 -0.2086662
-0.00026296804 -0.00017833461 -0.040612172 -0.00046690536 0.19650225 -0.00017713665 -0.17237021 -0.00036606254
-0.51821464 0.11025147 0.00082191505 -0.4313444 -0.0003803323 -0.0004487191 0.083725065 -0.00017557766
-1.3958474 0.909972 -0.0002877321 -0.0001314894 -0.84937775 -0.08655253 0.653402 -0.49941298
-1.6271689 0.3206546 0.00013020105 -0.02528601 0.6893422 -0.47313866 0.45816213 -0.5656258
0.0001237129 0.0005256554 -0.37448245 9.4981726e-05 -0.8742359 -0.0009668627 0.15937977 -4.760216e-05
-0.55269164 -0.6284363 0.00076014246 -0.11522683 -2.6106558e-05 0.00015072378 0.0738196 -0.00019784375
-1.6084495 0.63613856 8.6274325e-05 -0.00028893104 -0.41355187 -0.16149838 0.69481814 -0.6883233
0.3120246 0.4341608 8.542255e-05 0.18053754 -0.055180524 1.6244414 0.01608826 -0.5851068
-0.0001726513 0.00032413498 -0.8658 0.0008717606 0.00037924477 -0.00050530594 -0.3977565 4.906219e-05
0.1421993 0.30519924 -6.488099e-05 0.37497872 0.00019440401 -2.3779925e-05 0.45458314 -3.7133173e-05
0.76112896 -0.60445094 0.00017054808 -0.0001855182 -0.9358446 -0.63628936 -0.27297744 -0.9025756
0.9200066 -0.31294605 -7.322379e-05 0.6533532 0.94358647 -0.2669692 0.057107244 -0.7834077
3.2482032e-05 -0.00021798495 -1.0217122 -0.0011614119 0.36801243 -0.001387528 -1.232513 -0.00034069546
0.6767299 0.5266494 -0.0005320922 0.7127741 7.114704e-05 -8.745858e-05 -0.014899468 0.00010338628
-0.14949605 -1.4691304 1.471499e-05 -0.00025159857 -1.3798255 -1.4682407 -0.82693136 -1.689527
-0.19095154 -0.82506126 -3.8391285e-05 -0.35252446 0.90633786 0.0471356 -0.12724833 -0.5560969
0.0002448313 0.00045062986 0.52611995 -0.000101782054 -0.37514722 -0.001449419 -1.887088 -0.00015209889
0.029855508 0.17876706 0.0006269669 -0.07162918 0.00017720759 -0.00019606503 -0.47119164 -0.00010179271
0.23804353 0.07263756 6.960435e-05 0.00017405886 -0.24512258 -0.24410976 0.86906314 0.040106785
-0.40527594 0.39964375 -0.00018315893 -0.8057154 0.12636614 0.52410203 -0.632107 -0.43423086
-2.8458965e-06 0.0006625632 -0.44425866 -0.00015313661 -2.7191663 -0.00030465008 -0.0752583 8.55618e-05
-0.105214775 -0.68272495 7.792277e-05 -0.5307736 0.00019807792 -8.102158e-05 1.0901537 -0.000117562406

model.2.bias f4 [16]
00000000: 4f88 a13d 3f3e 333e 8b44 0f3e ef0c e23d
00000010: 5c45 503d 92b5 0e3e 4460 193f 6ad6 5f3e
00000020: fd7c 81bd 797a 25ba 73b1 31ba 157d 363e
00000030: 5afa 183e 1171 5c3e 7e02 c73d 3838 f9b9
0.07887327 0.17504214 0.13990991 0.11037623 0.050847396 0.13936451 0.59912515 0.21859136
-0.06322668 -0.00063125003 -0.0006778456 0.17821153 0.14939252 0.21527506 0.09717272 -0.00047534867

model.4.weight f4 [3, 16]
00000000: 9c78 0640 bb0b 2a40 58dc 87c0 354e b1c0
00000010: d0cb 91c0 4ac0 dbc0 2824 18c1 10ac 72c0
00000020: 47c1 e5bf 2a23 0bb8 602d 9a38 d423 4c40
00000030: c932 d23e 1b0c 8040 404c 913f bb45 4fc0
00000040: 0a41 ebbf cd49 2fc0 a6f2 e7bf d165 38bf
00000050: d6df 733f 4e8f 9840 4f4e d640 d053 56bf
00000060: 4190 cfbe 431d 7eba 1f8c cbb8 9e38 d43f
00000070: 0206 dfc0 a48d a9bf 4b1c edc0 21c2 0040
00000080: bcbd a1bf 0b97 eabf 4d3b 8f40 8aff 9a40
00000090: fe65 0440 e79f b9bf b2c9 93c0 c1ea 5840
000000a0: b120 d73f 328c f5b9 c680 8139 0bc7 9cc0
000000b0: eaf2 8f3f 2b5d 69c0 de77 d43e a2bf 883e
2.1011114 2.656966 -4.2456474 -5.5407968 -4.5561295 -6.867223 -9.508827 -3.7917519
-1.7949609 -3.317293e-05 7.351744e-05 3.1896868 0.4105437 4.0014777 1.1351395 -3.238631
-1.8379223 -2.7388794 -1.8120925 -0.7203036 0.9526342 4.7674932 6.697059 -0.8372164
-0.40539744 -0.00096936914 -9.705894e-05 1.6579778 -6.9694834 -1.324635 -7.4097037 2.0118487
-1.2636027 -1.8327345 4.475989 4.8436937 2.068725 -1.4501923 -4.618371 3.3893282
1.6806852 -0.00046834495 0.0002470074 -4.899297 1.1246006 -3.6463115 0.414977 0.26708704

model.4.bias f4 [3]
00000000: 916d d43e df3a 373e 51ea ffbe
0.41489843 0.17893551 -0.49983457

exp_avg f4 [32, 25]
00000000: 2021 ddbd 60fb 11be c0ec f1bd cffc debd
00000010: 39f1 ddbd abb1 dfbd 147d ddbd e778 eebd
00000020: 05db dbbd e3f7 dbbd ad94 e7bd 27fd d1bd
00000030: e436 52bd 8d4c 76bd c73a 47bc 05f0 d4bd
00000040: d52a 6ebd a705 29bd e9d6 a9bc 3e25 94bc
00000050: 3c55 58bd edd8 41bd 0ee4 21bd 94d8 b1bc
00000060: 1b83 afbc c2b2 d13c 2d27 6f3d fcac a03d
00000070: af8e b43d 658b cc3d 4dd5 f73c 1843 f33c
00000080: 4a5d 9e3d 97bf c43d efb9 ea3d 2814 123d
00000090: 333b 113d e2be 433d f99e b23d c9af 5c3d
000000a0: afb1 153d ca82 1a3d c78d 753d 1920 623d
000000b0: c1b7 603d 633e 213d c5ed 563d 9853 833d
000000c0: ad5b 663d 55c2 663d 0400 0000 0400 0000
000000d0: 0400 0000 0400 0000 0400 0000 0400 0000
000000e0: 0400 0000 0400 0000 0400 0000 0400 0000
000000f0: 0400 0000 0400 0000 0400 0000 0400 0000
00000100: 0400 0000 0400 0000 0400 0000 0400 0000
00000110: 0400 0000 0400 0000 0400 0000 0400 0000
00000120: 0400 0000 0400 0000 0400 0000 0400 0000
00000130: 0400 0080 0400 0000 0400 0000 0400 0000
00000140: 0400 0000 0400 0000 0400 0000 0400 0000
00000150: 0400 0000 0400 0000 0400 0000 0400 0000
00000160: 0400 0000 0400 0000 0400 0000 0400 0000
00000170: 0400 0000 0400 0000 0400 0000 0400 0000
00000180: 0400 0000 0400 0000 0400 0000 0400 0000
00000190: fb9e 063c a436 e93b de71 6c3b 5498 4b3b
000001a0: b8bb 723b e632 0b3c 2777 173c 4bc3 f93b
000001b0: 6813 aa3b bac9 273b a71b 7a3c 75fd 593c
000001c0: 3697 7d3c 5f86 813c 3e35 823c f183 843c
000001d0: 6530 8e3c 3875 c93c ad71 b53c 2229 a43c
000001e0: 3f0c 8f3c 3649 c03c 4c9c d03c 2460 c23c
000001f0: 1e68 a73c b75b 22ba 5b77 c4ba ec0b 003c
00000200: 1fa3 a83c 8b97 bc3c 9acc 803b 1112 ab3a
00000210: 3e3b 7e3c 0980 bc3c 0c2f c73c c535 2a3b
00000220: 60e7 b23b 0999 c13c 4d88 dd3c 84fb d93c
00000230: b54e 523b c468 843b 3e78 bd3b adbc 6a3a
00000240: e37a 883a 0b5c 773b d2c5 853b 338c bf3b
00000250: 1d8a 983b 4deb 0bbb c940 793d 88d3 5d3d
00000260: afc0 41bb b7c1 b9bc d7d3 a5bc f1a5 4c3d
00000270: 4180 763d 36dc d63b a806 a0bc caf3 5dbc
00000280: 5571 5b3d bcde 323d 21f3 caba 1feb eebc
00000290: fa9f 2cbd fc59 5b3d c39d f63b faa7 9cbc
000002a0: 808d a5bc 5374 babc c260 293c d213 7ebc
000002b0: 4a2a 9cbc 8cb1 bdbc bbf2 b2bc 3575 303d
000002c0: 0cb6 f83c b18b 3c3d 58ad 583d 2a02 133d
000002d0: f5ba 313d 6afc 383d b8da 603d 1a2f 2f3d
000002e0: e0d4 bd3b cac5 513d 1920 653d 5be1 873d
000002f0: 6b6b 883c 0dda 063d 045c 543d 660e 9d3d
00000300: 7506 223d 506e f83c 5763 ea3c 26fd a33d
00000310: aa33 623d 0e1d 0d3d 4c7a 093d c333 f33c
00000320: 2516 58be 24d0 55be ddb3 35be a4c8 3fbe
00000330: 42c9 26be 89fc 4cbe 45a9 58be 87be 59be
00000340: c0e6 33be 141e ecbd 9287 55be d28d 53be
00000350: ce2d 4bbe 58b3 c6bd 9e3b b1bd 7de6 56be
00000360: 2035 5ebe 2b17 15be e503 dcbd 72cd b5bd
00000370: 09e7 5dbe 3c37 36be b26c 10be 2710 f1bd
00000380: babe b6bd 051b bb39 755c 86bb 4586 b5bc
00000390: 9a65 a3bc 5648 91bc 2bc6 d3b9 b31e 71ba
000003a0: ef26 85bc 942c 90bc 9554 6abc 057f 82ba
000003b0: f98e f7bb 5c31 e6bc 7892 d3bc 3494 d6bc
000003c0: 6410 60bb 6a96 09bd e562 34bd 8a79 24bd
000003d0: 3bc7 12bd 42a9 12bd 7b08 30bd 2ca9 35bd
000003e0: 4b6f 32bd 3905 1cbd 0000 0000 0000 0000
000003f0: 0000 0000 0000 0000 0000 0000 0400 0000
-0.10797334 -0.14256048 -0.118127346 -0.10888063 -0.10837025 -0.10922559 -0.108148724 -0.11644154
-0.10735134 -0.1074064 -0.113076545 -0.10253363 -0.05132188 -0.0601316 -0.01216001 -0.103973426
-0.058146317 -0.041265156 -0.02073236 -0.018084165 -0.05281566 -0.047326017 -0.03952413 -0.021709718
-0.02142482 0.025597934 0.05838697 0.07845494 0.08816277 0.09987525 0.030253077 0.029695079
0.07732637 0.09606855 0.11461245 0.035663754 0.035456847 0.047789462 0.08721728 0.05387858
0.036546405 0.037722386 0.059949663 0.055206392 0.05486274 0.039366137 0.05247285 0.064124286
0.056239773 0.056337673 6e-45 6e-45 6e-45 6e-45 6e-45 6e-45
6e-45 6e-45 6e-45 6e-45 6e-45 6e-45 6e-45 6e-45
6e-45 6e-45 6e-45 6e-45 6e-45 6e-45 6e-45 6e-45
6e-45 6e-45 6e-45 6e-45 -6e-45 6e-45 6e-45 6e-45
6e-45 6e-45 6e-45 6e-45 6e-45 6e-45 6e-45 6e-45
6e-45 6e-45 6e-45 6e-45 6e-45 6e-45 6e-45 6e-45
6e-45 6e-45 6e-45 6e-45 0.008216615 0.0071171094 0.0036078612 0.0031066136
0.0037038159 0.008496022 0.009244717 0.0076221577 0.0051903017 0.0025602416 0.015265382 0.013305058
0.015477946 0.015811143 0.015894528 0.016176196 0.01735706 0.024592027 0.022148931 0.020039145
0.017461894 0.02347241 0.025465153 0.023727484 0.02043539 -0.0006193476 -0.0014989184 0.007815342
0.020585595 0.02302148 0.0039306404 0.0013051649 0.015517054 0.02301027 0.024314426 0.002597199
0.005459711 0.023632543 0.027042532 0.02660919 0.003209037 0.0040408093 0.0057821563 0.00089545065
0.00104126 0.003774407 0.00408242 0.0058455705 0.0046551363 -0.0021349967 0.0608528 0.05415681
-0.0029564311 -0.022675378 -0.020242615 0.04996294 0.060180906 0.006557013 -0.019534424 -0.013546893
0.05357488 0.043669447 -0.0015483835 -0.029164849 -0.042144753 0.053552613 0.007526131 -0.019123066
-0.020209074 -0.022760546 0.01033801 -0.015507655 -0.019063134 -0.02315595 -0.021844259 0.043080527
0.030360244 0.046031658 0.05289969 0.035890736 0.043391187 0.045162596 0.054896086 0.04276953
0.005793199 0.051214017 0.055938814 0.0663478 0.016652783 0.032922793 0.051845565 0.07668762
0.03955694 0.030326039 0.028611822 0.080072686 0.055225052 0.034451537 0.033563897 0.029687768
-0.21102197 -0.2088018 -0.17744394 -0.18728882 -0.16287711 -0.2001821 -0.21158321 -0.21264087
-0.17568493 -0.115291744 -0.20852497 -0.20659569 -0.19841692 -0.09702176 -0.08653949 -0.20986362
-0.21699953 -0.14559619 -0.1074293 -0.08877076 -0.21670164 -0.17794508 -0.14103964 -0.11770659
-0.08923097 0.0003568755 -0.004100377 -0.022158751 -0.019945908 -0.017734688 -0.00040392703 -0.0009197995
-0.016253917 -0.017599382 -0.0143023925 -0.0009956068 -0.0075548855 -0.028099708 -0.025826678 -0.026193716
-0.0034189457 -0.03359071 -0.044039626 -0.04015497 -0.035834532 -0.035805948 -0.042976838 -0.044350788
-0.04356317 -0.03809092 0.0 0.0 0.0 0.0 0.0 6e-45

exp_avg_sq f4 [32, 25]
00000000: f9c4 863d d638 883d 65cb 863d 94b1 813d
00000010: 3ec5 7e3d 8979 8a3d 274d 7d3d 802b 613d
00000020: 2d1f 6f3d 47d7 773d aa6a 8f3d a3c6 713d
00000030: cfa0 1b3d bab2 373d a873 4c3d bc86 803d
00000040: 1e53 5d3d b884 313d c770 323d fd6e 413d
00000050: a614 633d c9b9 4c3d 94dd 373d b0fe 353d
00000060: 0c17 3f3d 3c18 633d 5fbc 743d 9089 8e3d
00000070: 76dc a43d 4d76 ae3d d3a5 623d 2bae 613d
00000080: 5a58 873d 6c01 ab3d 0f49 ba3d af3b 833d
00000090: 9d09 813d 9af6 823d bc38 9e3d 70f4 a53d
000000a0: 1667 893d d87e 8a3d 7225 763d 9381 603d
000000b0: 6144 6d3d a2b1 883d abb4 863d 3643 783d
000000c0: a605 613d 7119 683d f401 0000 f401 0000
000000d0: f401 0000 f401 0000 f401 0000 f401 0000
000000e0: f401 0000 f401 0000 f401 0000 f401 0000
000000f0: f401 0000 f401 0000 f401 0000 f401 0000
00000100: f401 0000 f401 0000 f401 0000 f401 0000
00000110: f401 0000 f401 0000 f401 0000 f401 0000
00000120: f401 0000 f401 0000 f401 0000 f401 0000
00000130: f401 0000 f401 0000 f401 0000 f401 0000
00000140: f401 0000 f401 0000 f401 0000 f401 0000
00000150: f401 0000 f401 0000 f401 0000 f401 0000
00000160: f401 0000 f401 0000 f401 0000 f401 0000
00000170: f401 0000 f401 0000 f401 0000 f401 0000
00000180: f401 0000 f401 0000 f401 0000 f401 0000
00000190: 98ca 243d 057c 0d3d c8e5 1c3d a58e 473d
000001a0: 04e8 5b3d 849c 343d 9461 133d c15a 1a3d
000001b0: 7933 533d 9dbf 723d 75e7 383d c891 2b3d
000001c0: e538 363d c1f0 773d 21c6 843d 0601 3c3d
000001d0: 37ca 3f3d 9b65 503d 805d 773d 2349 833d
000001e0: 2eec 3d3d c5f9 453d a391 533d 1129 723d
000001f0: fd34 833d 36ba c03b 91a3 b23b 9025 a93b
00000200: 2b21 be3b 6724 d83b f649 d33b 4a3a bd3b
00000210: 5c3a b13b d401 d13b 9917 fa3b 7cc6 083c
00000220: 9451 fe3b 399b 013c 5fb5 0e3c 20b3 1b3c
00000230: 977c 133c 8986 183c 7a6f 1f3c 8d19 283c
00000240: ac43 2a3c e9f7 183c ff34 1c3c 5b17 283c
00000250: f589 2f3c 105a 2d3c 1407 e83d 5b44 e13d
00000260: 6c22 c63d 1ee6 b23d a36b b83d 8323 f43d
00000270: 8811 e53d 32a1 bd3d 8dca bc3d 5cbd d73d
00000280: d992 f13d 4050 e83d 61d2 db3d 9705 fc3d
00000290: 397a 023e 37c3 ce3d e057 ad3d c1dc a93d
000002a0: 99ad d83d 011c fa3d 29d8 af3d 23d4 9c3d
000002b0: c8be a63d 379f c43d d0b1 e83d 792a 613d
000002c0: 50c7 753d de96 873d 6809 923d f48d 903d
000002d0: 462c 573d b60a 663d 31b8 823d fdcb 8b3d
000002e0: 4a83 8c3d 801a 483d bccb 4a3d 97c0 5c3d
000002f0: c353 7e3d b261 883d 7fd1 333d 0146 233d
00000300: ccba 203d 87e6 503d 1f6b 6b3d 23c7 1b3d
00000310: c768 103d 8e52 1f3d 8ca0 413d 39cd 5d3d
00000320: 8aff f93d 189c fe3d 6ac6 033e fc9c 063e
00000330: 13d4 033e dabb fa3d 6c89 013e a42e 0c3e
00000340: 7647 0b3e 2f94 073e e089 0c3e fb8f 103e
00000350: 1650 263e 15f4 193e 751b 153e 08c7 043e
00000360: 1600 063e 192b 073e f609 0c3e 2ca2 123e
00000370: acd3 013e 9057 fd3d adc7 fe3d 23ae 013e
00000380: 6969 0b3e 0219 e63c 3b89 e43c a88e d73c
00000390: bedd c23c de2c b23c 16bc e13c 395e e53c
000003a0: 04c5 ca3c 2e2b b13c 7162 ae3c 7202 c63c
000003b0: 42d5 c13c 2971 b33c ab92 c83c 777a ca3c
000003c0: c9ad 933c 37b0 813c 2096 923c 327d be3c
000003d0: c272 cf3c 2859 803c 0428 833c 7b3f 963c
000003e0: a310 b33c 785e c73c 0000 0000 0000 0000
000003f0: 0000 0000 0000 0000 0000 0000 f401 0000
0.06580538 0.066514656 0.06581763 0.063326985 0.062199824 0.06761462 0.061841156 0.054973125
0.05837934 0.06050804 0.070027664 0.059027325 0.037995156 0.04484818 0.049914986 0.062756985
0.054034345 0.04333946 0.043564584 0.047224987 0.055439614 0.049981866 0.044889048 0.044432342
0.04665284 0.055443034 0.059749957 0.06959832 0.08049862 0.08518658 0.055333924 0.05509774
0.066086486 0.083498806 0.09095966 0.06407868 0.06300662 0.06394692 0.07725665 0.081032634
0.06709115 0.06762475 0.060094304 0.05481107 0.05792654 0.06674506 0.065774284 0.060610972
0.054937027 0.056664888 7e-43 7e-43 7e-43 7e-43 7e-43 7e-43
7e-43 7e-43 7e-43 7e-43 7e-43 7e-43 7e-43 7e-43
7e-43 7e-43 7e-43 7e-43 7e-43 7e-43 7e-43 7e-43
7e-43 7e-43 7e-43 7e-43 7e-43 7e-43 7e-43 7e-43
7e-43 7e-43 7e-43 7e-43 7e-43 7e-43 7e-43 7e-43
7e-43 7e-43 7e-43 7e-43 7e-43 7e-43 7e-43 7e-43
7e-43 7e-43 7e-43 7e-43 0.04023227 0.034542102 0.038305074 0.04872002
0.053688064 0.044094577 0.03598173 0.037684206 0.05156276 0.059264768 0.04514261 0.041887075
0.044487853 0.060532335 0.064831026 0.045899414 0.046823706 0.05087815 0.060391903 0.06410434
0.046367817 0.048333902 0.051652562 0.059121195 0.06406591 0.005881573 0.0054516275 0.0051619485
0.005802294 0.0065961364 0.006448026 0.005774771 0.0054085683 0.0063783918 0.0076322076 0.008348104
0.0077611897 0.007910543 0.008710234 0.009503156 0.0090018725 0.009309419 0.009731168 0.010259998
0.010392111 0.00933645 0.00953412 0.010259475 0.010714044 0.010580555 0.11329475 0.10999366
0.09674534 0.087352976 0.09004905 0.11920836 0.111849844 0.09259261 0.09218321 0.10534164
0.11795587 0.113434315 0.10733486 0.12305754 0.12741937 0.10095828 0.084640265 0.082940586
0.10579986 0.122123726 0.08586151 0.07657649 0.081418574 0.0960068 0.1136204 0.054972146
0.060004532 0.066205725 0.071307 0.070583254 0.052532457 0.05616256 0.06382788 0.06826017
0.06860979 0.048853397 0.049510702 0.053894605 0.0620916 0.06659259 0.043900963 0.039861683
0.039240643 0.051001098 0.057475206 0.03803171 0.035256173 0.03889709 0.04727225 0.054150794
0.12206943 0.12432116 0.12868658 0.13145822 0.12873869 0.12242861 0.12650079 0.13689667
0.13601479 0.13240121 0.1372447 0.14117424 0.16241488 0.15034516 0.14561255 0.1296655
0.1308597 0.13200034 0.13675675 0.14319676 0.12678403 0.12370217 0.12440429 0.12664084
0.1361443 0.028088097 0.027897468 0.026313141 0.023787376 0.02174991 0.027555507 0.02799903
0.024752147 0.021627035 0.021287175 0.024171088 0.02366126 0.021904545 0.024484 0.024716599
0.018027203 0.015831096 0.01789385 0.023253057 0.025323275 0.015667513 0.016010292 0.018340817
0.021858519 0.024337038 0.0 0.0 0.0 0.0 0.0 7e-43

exp_avg f4 [32]
00000000: 4fa1 86be 4a0f 063e 0400 0000 0400 0000
00000010: 7445 903c 0716 0b3d 163a 1c3d e7c0 643d
00000020: 5843 90be afa7 72bc 0400 0000 6569 d8bd
00000030: 98f5 e33c bc3b fa3c 4b63 a13c c7b7 a13d
00000040: 0400 0000 0400 0000 c8bc 2c3d 0400 0000
00000050: db62 cdbd 0400 0000 f883 eb3d 0400 0000
00000060: 7696 bbbd cc85 57ba 0400 0000 4c7e b6bc
00000070: 0400 0000 0400 0000 8554 743c 0400 0000
-0.26294944 0.1309177 6e-45 6e-45 0.017611243 0.033956554 0.038141333 0.05584803
-0.2817638 -0.014810487 6e-45 -0.105669774 0.02782707 0.030546062 0.019700667 0.07896381
6e-45 6e-45 0.042172223 6e-45 -0.10028621 6e-45 0.114997804 6e-45
-0.091595575 -0.00082215364 6e-45 -0.02227702 6e-45 6e-45 0.014912729 6e-45

exp_avg_sq f4 [32]
00000000: 1169 303e 69fe 453e f401 0000 f401 0000
00000010: ad6b 1c3e 0f67 dd3c 8608 a43e 90be 1f3e
00000020: 8e0c c13e 6704 873d f401 0000 a953 593d
00000030: 4a03 323d 3372 a03c baa4 3d3c 1c55 943d
00000040: f401 0000 f401 0000 6c14 893d f401 0000
00000050: a239 5d3e f401 0000 6491 5c3e f401 0000
00000060: 8eb8 983d 5cd0 073d f401 0000 3632 9f3d
00000070: f401 0000 f401 0000 fbb8 343e f401 0000
0.1722758 0.19335331 7e-43 7e-43 0.1527545 0.027026681 0.32037753 0.15600038
0.3770489 0.065926366 7e-43 0.0530583 0.043460168 0.019585704 0.011574918 0.07242796
7e-43 7e-43 0.06693348 7e-43 0.21604016 7e-43 0.21539837 7e-43
0.07457076 0.03315769 7e-43 0.07773249 7e-43 7e-43 0.1764869 7e-43

exp_avg f4 [16, 32]
00000000: 8c25 cb39 cfa7 01bc 0000 0000 0400 0000
00000010: c71b d33a 0800 3e3c bda5 74bb 6802 abbb
00000020: d40e 023b 1439 c73b 0400 0000 0018 9139
00000030: db15 d7b8 f6c8 39b7 87f5 1fbc 6602 b2ba
00000040: 0400 0000 0400 0080 162e 3c3a 0400 0080
00000050: 4a3f bb3b 0400 0000 9c21 d83b 0400 0080
00000060: 18ef 073c fb87 463c 0400 0000 bbc0 acbb
00000070: 0400 0000 0400 0080 2015 b9bb 0000 0000
00000080: 558d fe3a 2a9f 023b 0400 0080 0400 0000
00000090: 1614 5f3b 19f1 2a3c aa92 a33a 94ff 9b3b
000000a0: 09c0 193b e36b 783b 0400 0000 b56f 713c
000000b0: d53e a8b8 5055 6e36 1e14 a0ba af76 fc3a
000000c0: 0400 0080 0400 0080 dce2 1c3b 0400 0080
000000d0: ddc2 213c 0400 0000 0028 623c 0400 0000
000000e0: 2d8a 993b e4ee a53b 0400 0000 5151 ecba
000000f0: 0400 0000 0400 0080 96d0 9439 0400 0000
00000100: 28b5 db3b 3ceb cf3c 0000 0000 0400 0080
00000110: 4417 64bb 7555 97bb 2da7 8ebb 40a9 af3c
00000120: b9cd 083a 9573 a3bb 0400 0000 9d75 213c
00000130: 6f64 36b9 33b8 3639 e829 a83c c224 a23b
00000140: 0400 0000 0400 0080 7577 b1ba 0400 0080
00000150: 9f8a ab3c 0400 0080 24b3 3b3c 0400 0000
00000160: 33d0 55ba 2bf4 613b 0400 0000 9f2c 3c3c
00000170: 0400 0000 0400 0000 39e9 1a3c 0400 0000
00000180: 23f8 b43c 6f20 9a3c 0400 0000 0400 0080
00000190: 3882 0eba 4467 54bb e95d 103d 9fd5 da3c
000001a0: 7b26 acb9 4476 913b 0400 0000 8d7a 4a3d
000001b0: 56b8 143b 7008 c638 dbbf dc3c 8d12 233c
000001c0: 0400 0000 0400 0080 2532 61ba 0400 0080
000001d0: 5bf5 553c 0400 0080 89bb 633d 0400 0000
000001e0: 2451 7c37 e24c 833a 0400 0000 62ec 6b3c
000001f0: 0400 0080 0400 0000 826c 883c 0400 0000
00000200: 96b5 5b3b 4cb1 f53b 0400 0000 0400 0080
00000210: d34d e5b9 b802 f7ba ee04 86ba fafd 453a
00000220: 85cc a33a de17 5bbb 0000 0000 4cda da3b
00000230: 2988 993a c8ab ea37 2822 f939 1ffc ff39
00000240: 0400 0000 0400 0000 75b3 a539 0400 0080
00000250: f6d8 983b 0400 0080 640c 023c 0400 0080
00000260: 17a9 dc39 668e 9fba 0400 0000 c7fd 123b
00000270: 0000 0000 0400 0000 ed73 e83b 0000 0000
00000280: f325 323b 3c7d 03bb 0400 0000 0400 0080
00000290: b17a 8439 3f3e 1abc 1b81 993a ce46 d3ba
000002a0: dc54 99bb 3630 dcba 0400 0080 70f6 de3a
000002b0: 0c08 74ba 04ac 96b9 a5a3 43ba bfd4 70b9
000002c0: 0400 0000 0400 0080 1598 c2ba 0400 0000
000002d0: ca7c 93bb 0400 0080 eb97 aa3b 0400 0080
000002e0: 1b3e 3cbc 9075 fcbb 0400 0080 bbca 1cbb
000002f0: 0400 0080 0400 0000 4b78 dfba 0400 0000
00000300: f50b a338 7df0 55b9 0400 0080 0400 0000
00000310: e4a2 c8b9 8bce b0b9 4751 12ba 5996 0d39
00000320: a698 fdb9 c9c5 2eb9 0400 0080 c2ff f03a
00000330: 7c73 e239 e6ea 73b9 6b6d 00ba 2b47 36b8
00000340: 0400 0000 0400 0080 0d83 92b7 0400 0000
00000350: 753b 2cba 0400 0000 4d7b 313b 0400 0080
00000360: 1156 91ba 4de4 45ba 0400 0080 9a98 b0b9
00000370: 0400 0080 0400 0080 5668 363a 0000 0000
00000380: b964 3d3c 88e2 a13b 0000 0000 0400 0080
00000390: 31e9 a3bb 4606 23bc 7c2f ac3c 0377 233b
000003a0: 4ae3 d13a 9a1d 253b 0000 0000 7d9a 0e3d
000003b0: ac06 8a3a a1fa 2b39 9c89 3c3b e8b8 9a3b
000003c0: 0400 0000 0400 0000 8d09 56bb 0400 0080
000003d0: 59b3 183a 0400 0080 e370 0b3d 0400 0000
000003e0: 4f13 323a 5721 bcba 0400 0000 48ba 9f3b
000003f0: 0000 0000 0400 0080 674c 283c 0400 0000
0.00038747152 -0.007913544 0.0 6e-45 0.0016106301 0.011596687 -0.0037330233 -0.0052187927
0.0019845264 0.0060798023 6e-45 0.00027674437 -0.0001025607 -1.1073649e-05 -0.009763128 -0.0013581037
6e-45 -6e-45 0.0007178498 -6e-45 0.0057143318 6e-45 0.0065958034 -6e-45
0.0082967505 0.012117381 6e-45 -0.0052719987 6e-45 -6e-45 -0.0056482702 0.0
0.0019420782 0.0019931295 -6e-45 6e-45 0.0034039072 0.010433459 0.0012479622 0.004760692
0.002346041 0.0037906102 6e-45 0.014736106 -8.0225676e-05 3.5514422e-06 -0.0012213027 0.0019261445
-6e-45 -6e-45 0.002393893 -6e-45 0.009873119 6e-45 0.013803482 6e-45
0.0046856613 0.0050638784 6e-45 -0.0018029605 6e-45 -6e-45 0.00028384168 6e-45
0.006704945 0.025380723 0.0 -6e-45 -0.0034803906 -0.0046183416 -0.004353425 0.02144301
0.00052186433 -0.0049881437 6e-45 0.009854701 -0.00017394287 0.00017425492 0.020527795 0.0049482295
6e-45 -6e-45 -0.0013539629 -6e-45 0.020940123 -6e-45 0.011456285 6e-45
-0.0008156329 0.003447781 6e-45 0.011485248 6e-45 6e-45 0.009455019 6e-45
0.022090977 0.018814294 6e-45 -6e-45 -0.0005436274 -0.0032410184 0.03524581 0.02671319
-0.00032835067 0.004439147 6e-45 0.04943328 0.002269288 9.442947e-05 0.026946953 0.009953153
6e-45 -6e-45 -0.0008590541 -6e-45 0.013058986 -6e-45 0.05559877 6e-45
1.50392625e-05 0.001001742 6e-45 0.01439962 -6e-45 6e-45 0.016653303 6e-45
0.0033524982 0.007497942 6e-45 -6e-45 -0.00043736267 -0.0018845415 -0.0010224858 0.0007552799
0.0012496865 -0.0033430974 0.0 0.006678855 0.0011713553 2.7974966e-05 0.0004751843 0.00048825235
6e-45 6e-45 0.00031604958 -6e-45 0.0046645356 -6e-45 0.0079375245 -6e-45
0.00042087652 -0.0012173175 6e-45 0.0022429095 0.0 6e-45 0.0070938976 0.0
0.0027183264 -0.002006366 6e-45 -6e-45 0.00025268414 -0.009414255 0.001171145 -0.0016119124
-0.0046793055 -0.0016799036 -6e-45 0.00170107 -0.00093090604 -0.0002873839 -0.00074630446 -0.00022967438
6e-45 -6e-45 -0.0014846349 6e-45 -0.00450096 -6e-45 0.0052060983 -6e-45
-0.0114894165 -0.007704444 -6e-45 -0.0023924548 -6e-45 6e-45 -0.00170494 6e-45
7.774673e-05 -0.00020402852 -6e-45 6e-45 -0.00038268336 -0.00033723222 -0.0005581569 0.00013502817
-0.00048369652 -0.00016667614 -6e-45 0.0018386769 0.00043192122 -0.00023261792 -0.0004899117 -4.345846e-05
6e-45 -6e-45 -1.7465582e-05 6e-45 -0.0006570139 6e-45 0.002708155 -6e-45
-0.0011088272 -0.0007548973 -6e-45 -0.00033683033 -6e-45 -6e-45 0.0006958296 0.0
0.011559659 0.0049403347 0.0 -6e-45 -0.005002164 -0.009950226 0.021018736 0.0024942763
0.0016013172 0.0025194646 0.0 0.0348153 0.0010530553 0.00016401197 0.0028768545 0.0047217496
6e-45 6e-45 -0.0032659501 -6e-45 0.0005825065 -6e-45 0.034043204 6e-45
0.00067930383 -0.0014353198 6e-45 0.0048745014 0.0 -6e-45 0.010272122 6e-45

exp_avg_sq f4 [16, 32]
00000000: 66f1 5f39 6326 9e39 0000 0000 f401 0000
00000010: 2559 9839 7107 9439 01b3 aa39 ca85 813a
00000020: a1e2 0338 c26f 3839 f401 0000 b984 783a
00000030: c6c8 7d38 429f 4c34 9a60 643a 5149 5239
00000040: f401 0000 f401 0000 f7a8 5b37 f401 0000
00000050: c8e6 b239 f401 0000 00ed a13a f401 0000
00000060: 313b 1039 1a6b 6a39 f401 0000 c94e e039
00000070: f401 0000 f401 0000 56e4 8339 0000 0000
00000080: c5e4 1839 309c a339 f401 0000 f401 0000
00000090: ad66 083a 597e 053b 0ec9 fa39 e9ec 9d3a
000000a0: 3714 a138 afc3 5639 f401 0000 49a1 b33a
000000b0: 1bfe d638 6eb3 2533 a46a 633a 391d 8639
000000c0: f401 0000 f401 0000 b8e3 9d39 f401 0000
000000d0: 4ec9 0c39 f401 0000 667b c03a f401 0000
000000e0: 6806 e339 1e5b 5c39 f401 0000 c870 153a
000000f0: f401 0000 f401 0000 bce6 c839 f401 0000
00000100: e2cf b739 7c71 e43a 0000 0000 f401 0000
00000110: 85eb 033a 5052 ef3a 21e3 a43a bc2e 203b
00000120: 87c4 9638 9dd9 7f3a f401 0000 81b8 a23a
00000130: 19eb 8638 1809 0338 3465 093b 4031 c539
00000140: f401 0000 f401 0000 0f5e 8a39 f401 0000
00000150: f06e de3a f401 0000 ca81 063b f401 0000
00000160: ba44 9639 5485 613a f401 0000 a235 4c3a
00000170: f401 0000 f401 0000 0e5c 093a f401 0000
00000180: f028 e039 6d15 c03a f401 0000 f401 0000
00000190: a8be d939 c009 ba3a 2d9d 093b e9f0 1b3b
000001a0: a6f4 5c38 75a8 2c3a f401 0000 15f6 8c3b
000001b0: e84c d639 674d 8937 46d4 e33a 1f10 ce39
000001c0: f401 0000 f401 0000 cfa8 8b39 f401 0000
000001d0: 541a 4e39 f401 0000 b8b4 b43b f401 0000
000001e0: 58f1 0a39 f14d f638 f401 0000 9394 983a
000001f0: f401 0000 f401 0000 13a2 bb3a f401 0000
00000200: b09c 0938 f247 313a f401 0000 f401 0000
00000210: 9fef 5b3a 8b8f ed3a f8a7 8b3a 49e2 783a
00000220: dff1 2139 e079 fd39 0000 0000 0f1b 2f3a
00000230: 60ff 8938 e217 a935 551f a33a cb8f 5539
00000240: f401 0000 f401 0000 e962 7739 f401 0000
00000250: eee7 ca39 f401 0000 159a 803a f401 0000
00000260: fa8f d939 584d ba39 f401 0000 2730 4d3a
00000270: 0000 0000 f401 0000 d8c5 b239 0000 0000
00000280: 4f26 203a 8afe 173a f401 0000 f401 0000
00000290: c9f8 a939 59ad cb39 b82d 163a ed23 653a
000002a0: 0378 5c39 3e8a b939 f401 0000 6cb3 d43a
000002b0: a89f 2339 068c 1438 1dc2 bd3a 858d 4938
000002c0: f401 0000 f401 0000 126a 5237 f401 0000
000002d0: 790f 8a3a f401 0000 5675 ad3a f401 0000
000002e0: b1e0 4a3a a95c 053a f401 0000 d718 6c3a
000002f0: f401 0000 f401 0000 6995 073a f401 0000
00000300: 7779 1b39 5bad f538 f401 0000 f401 0000
00000310: 7ac2 4738 7906 8b37 8a2b 1139 eb28 f638
00000320: df46 9237 522f 7e38 f401 0000 4d33 8439
00000330: 17a0 0238 1ee2 a037 8859 5d39 a80b 0d36
00000340: f401 0000 f401 0000 fd98 bb34 f401 0000
00000350: dff3 4739 f401 0000 5fda 3039 f401 0000
00000360: aa58 6b38 280a a838 f401 0000 8296 0b39
00000370: f401 0000 f401 0000 c901 0d39 0000 0000
00000380: 1e38 003a e21d 133a 0000 0000 f401 0000
00000390: 5e8e 463a 0f8d 723b ba6c e43a fb1f eb3a
000003a0: 9fde d638 ec3a f039 0000 0000 58c3 f43a
000003b0: 20de b739 2be0 a137 3800 203a b7df 0b3a
000003c0: f401 0000 f401 0000 59c7 1b3a f401 0000
000003d0: 959f 0b37 f401 0000 766c 173b f401 0000
000003e0: 93db 703a 7242 bb38 f401 0000 a38d 433a
000003f0: 0000 0000 f401 0000 a450 c43a f401 0000
0.00021356865 0.0003016471 0.0 7e-43 0.00029058117 0.00028234304 0.00032558295 0.0009881791
3.14439e-05 0.0001758924 7e-43 0.00094802264 6.0506885e-05 1.9056918e-07 0.00087119045 0.00020054473
7e-43 7e-43 1.3092757e-05 7e-43 0.0003412275 7e-43 0.0012353957 7e-43
0.0001375496 0.00022355877 7e-43 0.0004278331 7e-43 7e-43 0.0002515639 0.0
0.00014581073 0.00031206151 7e-43 7e-43 0.0005203288 0.0020369499 0.00047833513 0.0012048754
7.6808436e-05 0.00020481528 7e-43 0.0013704683 0.00010251646 3.8580247e-08 0.00086752535 0.00025580244
7e-43 7e-43 0.00030115037 7e-43 0.00013426432 7e-43 0.0014685213 7e-43
0.00043301587 0.00021014779 7e-43 0.00057007046 7e-43 7e-43 0.00038318883 7e-43
0.00035059365 0.001742884 0.0 7e-43 0.00050323486 0.0018258784 0.0012579897 0.0024441918
7.1891634e-05 0.0009759905 7e-43 0.0012414606 6.433408e-05 3.1241303e-05 0.0020964863 0.00037611462
7e-43 7e-43 0.0002639149 7e-43 0.0016970318 7e-43 0.0020524138 7e-43
0.00028661435 0.0008602936 7e-43 0.00077899743 7e-43 7e-43 0.00052398525 7e-43
0.0004275511 0.0014654823 7e-43 7e-43 0.00041531515 0.001419358 0.0020998225 0.0023794717
5.2679934e-05 0.00065863814 7e-43 0.004301796 0.0004087456 1.6367716e-05 0.0017381988 0.00039303393
7e-43 7e-43 0.00026637918 7e-43 0.00019655499 7e-43 0.0055147074 7e-43
0.00013250613 0.00011744712 7e-43 0.0011640958 7e-43 7e-43 0.001431527 7e-43
3.2809272e-05 0.0006762735 7e-43 7e-43 0.00083898933 0.0018124444 0.0010654917 0.00094941683
0.0001544426 0.00048346724 0.0 0.0006679752 6.5802364e-05 1.2598432e-06 0.0012445251 0.0002036683
7e-43 7e-43 0.00023592603 7e-43 0.00038701243 7e-43 0.0009811545 7e-43
0.00041496736 0.0003553431 7e-43 0.00078273047 0.0 7e-43 0.0003409821 0.0
0.0006109224 0.0005798122 7e-43 7e-43 0.0003241955 0.0003884833 0.00057288585 0.000874101
0.00021025543 0.00035388948 7e-43 0.0016227788 0.00015604368 3.5416357e-05 0.0014477406 4.8053935e-05
7e-43 7e-43 1.2541672e-05 7e-43 0.0010533176 7e-43 0.0013233821 7e-43
0.000773917 0.0005087355 7e-43 0.0009006387 7e-43 7e-43 0.0005172105 7e-43
0.00014827201 0.000117148 7e-43 7e-43 4.7626418e-05 1.6573105e-05 0.00013844497 0.00011737816
1.7437558e-05 6.060239e-05 7e-43 0.00025215224 3.114351e-05 1.917878e-05 0.00021109555 2.1017422e-06
7e-43 7e-43 3.4942778e-07 7e-43 0.00019068968 7e-43 0.00016866018 7e-43
5.611094e-05 8.012756e-05 7e-43 0.00013312142 7e-43 7e-43 0.00013447473 0.0
0.00048911746 0.0005612058 0.0 7e-43 0.0007574315 0.0037010347 0.0017427423 0.0017938608
0.000102457816 0.00045820267 0.0 0.001867394 0.00035069976 1.9297082e-05 0.0006103548 0.00053357653
7e-43 7e-43 0.0005942486 7e-43 8.322201e-06 7e-43 0.002310542 7e-43
0.00091879925 8.929231e-05 7e-43 0.0007459765 0.0 7e-43 0.0014977646 7e-43

exp_avg f4 [16]
00000000: 27a2 1e3b 0332 3e3d 7414 a23d f2af c33d
00000010: a698 db3c ee67 38bc b160 61ba 3c3c 053d
00000020: 4b5c 3f3c 0400 0000 0400 0000 bd01 69bc
00000030: 026f 9f3d 37df d63b d0f8 0e3d 92cb 18bd
0.0024205537 0.046434414 0.079140574 0.09555043 0.026806187 -0.0112552475 -0.0008597477 0.032528147
0.011679719 6e-45 6e-45 -0.014221606 0.07784845 0.006557371 0.034905255 -0.037303515

exp_avg_sq f4 [16]
00000000: d60d 2f3c c858 8d3c bb78 2d3d 567c 353d
00000010: bf33 aa3c 0ec2 e23c a9b6 8b3c af99 ed3c
00000020: 1730 d03b f401 0000 f401 0000 0df2 283d
00000030: 80e4 bc3c aa0c 013d ddac 483c 57b2 3b3c
0.010684451 0.017254248 0.042351466 0.04430803 0.020776628 0.027680423 0.017054873 0.029003946
0.006353389 7e-43 7e-43 0.041246463 0.023058176 0.031506218 0.012248245 0.011456094

exp_avg f4 [3, 16]
00000000: e3df 3ebb 0112 2639 578f bcba d472 a6ba
00000010: 88c6 c239 3ed3 1939 9010 88b8 35fc 1fba
00000020: 6e06 003b 0400 0080 0400 0000 7252 e8b8
00000030: 420d ecba 03d8 66b9 f6db 3aba f797 c23a
00000040: 42e4 e9ba 1b85 afb9 8358 25b9 65e6 2c38
00000050: b99f 1abb 3c8c 13bb f357 d4b9 1025 50ba
00000060: e96b ffba 0400 0000 0400 0000 3387 1fba
00000070: 3a1c d3ba a61f 1bba b3c3 7db9 48e7 4cbb
00000080: 08e9 993b 71f8 3839 6e3a d13a a30b a13a
00000090: eb46 023b 11ef 093b 8f5c f639 a710 b83a
000000a0: 6cf0 a0b6 0400 0000 0400 0080 8f91 3c3a
000000b0: c494 5f3b bed5 543a e84c 7a3a 9f36 d73a
-0.0029125146 0.000158377 -0.001438598 -0.0012699016 0.0003715048 0.00014669911 -6.48807e-05 -0.00061029504
0.0019535082 -6e-45 6e-45 -0.00011077979 -0.0018009322 -0.0002201498 -0.00071281136 0.0014846314
-0.0017844515 -0.00033477772 -0.000157686 4.1222567e-05 -0.0023593737 -0.0022514006 -0.00040501318 -0.0007940093
-0.0019487116 6e-45 6e-45 -0.0006085515 -0.0016106435 -0.0005917497 -0.00024200864 -0.0031265784
0.004696969 0.00017640159 0.0015962848 0.0012286793 0.0019878696 0.0021047036 0.00046989738 0.0014043049
-4.7963604e-06 6e-45 -6e-45 0.0007193321 0.003411577 0.0008119008 0.0009548203 0.0016419477

exp_avg_sq f4 [3, 16]
00000000: 324c 1639 72fa 8437 5c17 df36 ffc6 ef36
00000010: e9f4 b636 573f 5e36 25ce 3d34 5732 f037
00000020: 224f 1438 f401 0000 f401 0000 8f91 7f37
00000030: 5b61 7739 ba38 4e37 b6c4 8838 c568 cc37
00000040: ac6b 0a38 ed8c 0136 0439 9c36 6708 6436
00000050: 0da7 a237 4a83 a137 4e05 7d36 41b5 a237
00000060: dd66 de37 f401 0000 f401 0000 57f3 d236
00000070: 4ac7 2637 37bd 4436 8af5 dd35 0a89 5238
00000080: f021 2339 e184 7f37 97b7 3937 7391 3237
00000090: 0383 c737 96a0 ac37 a297 8136 7792 4538
000000a0: 0d37 6638 f401 0000 f401 0000 1f1d 5c37
000000b0: 0059 7739 7d6b 4237 b4a0 8738 58d9 7938
0.000143335 1.5852249e-05 6.6486373e-06 7.1459212e-06 5.452534e-06 3.3117446e-06 1.7676992e-07 2.863367e-05
3.5359648e-05 7e-43 7e-43 1.5233075e-05 0.00023592023 1.22917645e-05 6.5216256e-05 2.4367482e-05
3.300204e-05 1.9304528e-06 4.6558e-06 3.3979538e-06 1.9389694e-05 1.9253832e-05 3.7703026e-06 1.9396308e-05
2.6512362e-05 7e-43 7e-43 6.286816e-06 9.940772e-06 2.9316413e-06 1.6537244e-06 5.019553e-05
0.00015557534 1.5230123e-05 1.1069605e-05 1.0643492e-05 2.3783656e-05 2.0578776e-05 3.862152e-06 4.7104866e-05
5.4887543e-05 7e-43 7e-43 1.3119802e-05 0.0002358891 1.1588328e-05 6.467235e-05 5.9568643e-05

exp_avg f4 [3]
00000000: da1d acb9 40de 5abc 393f 603c
-0.00032828638 -0.013358653 0.013686948

exp_avg_sq f4 [3]
00000000: 6a99 973a 9e5a 013a bddd b63a
0.0011566107 0.00049344625 0.0013951581

loss f8 []
00000000: 0000 10d1 46e5 b93f
0.10115473369660322
