50_point_edge_detector.pth (torch, 25342 bytes, 19 tensors)

model.0.weight f4 [32, 25]
000000 bb e1 91 3d 16 31 71 3e 99 93 60 bb d0 d3 b4 3d
       0.07123133 0.23553881 -0.0034267663 0.088294625
000010 70 50 03 3e 80 e0 4e 3e 21 4f 21 bd 46 96 b7 bd
       0.12823653 0.20202827 -0.039382104 -0.08964209
000020 d8 bc 97 bc f8 51 3f 3e fb 18 62 bb de 22 c2 be
       -0.018522665 0.18683612 -0.0034499753 -0.37917227
000030 69 f9 32 bf 62 f0 b5 be ec 71 97 bd ff b0 bc 3e
       -0.6991182 -0.3553496 -0.07394776 0.36853787
000040 e8 1f af bb b6 08 f9 3d 23 07 f0 bc 99 84 ba 3e
       -0.0053443797 0.121598646 -0.029300278 0.3642929
000050 00 15 8d bd e3 d8 34 bc 58 1b f2 3d e1 43 84 3c
       -0.06888771 -0.011038038 0.11821622 0.016145648
000060 d2 82 ec bd e5 2d 25 bd fa a8 61 3b 4e ba 09 be
       -0.115483895 -0.04032697 0.0034432993 -0.13449976
000070 81 07 03 3e a9 24 a7 3c bb 28 7b be 43 24 a6 be
       0.12795831 0.020403223 -0.24527256 -0.3244954
000080 d3 72 94 bd aa ac d8 3e 36 72 7d 3e 9b 57 4f be
       -0.072484635 0.42319232 0.247506 -0.20248263
000090 ab 2b dc bd 8d 30 dc 3d ec 4e 92 3d f2 10 fc 3d
       -0.107505165 0.10751448 0.071439594 0.123079196
0000a0 d3 72 84 3c 26 81 da 3e 4e 49 3b bc 1a bb e0 be
       0.016168034 0.42676657 -0.011431051 -0.43892747
0000b0 ed d9 b4 be 03 4d f3 3d 57 55 8a 3e d0 f8 df 3d
       -0.35322514 0.11879923 0.27018234 0.10936129
0000c0 af fa 17 be a9 60 5d 3c c0 2b a1 b9 77 14 7e b9
       -0.14841722 0.013511815 -0.0003074091 -0.00024230951
0000d0 ee 45 ee b8 bf 02 0c 39 4d c6 96 b9 ff 16 a1 38
       -0.0001136175 0.00013352463 -0.00028757975 7.6813616e-05
0000e0 5b 55 d6 37 2f 40 82 39 6b 9d 02 39 f0 1d 7c b9
       2.5550535e-05 0.00024843353 0.00012456409 -0.00024043745
0000f0 fe e4 b2 b9 12 97 63 37 10 3f a2 b7 b0 b9 f0 38
       -0.00034121418 1.3565428e-05 -1.934127e-05 0.00011478679
000100 f2 71 f8 38 a7 61 ab b9 59 d5 89 b9 f8 7e 52 39
       0.000118467855 -0.00032688418 -0.00026289633 0.0002007446
000110 da 8b 53 b8 a2 48 51 37 76 d9 27 39 95 4d 53 b8
       -5.0436567e-05 1.2474282e-05 0.00016007372 -5.0378574e-05
000120 f7 c8 74 b9 12 9b 3e b9 f7 af 00 b9 4d 82 76 ba
       -0.00023344519 -0.0001817758 -0.00012272583 -0.00094035716
000130 3c b1 23 ba 12 75 2f ba ab 46 7a b9 fc ae 24 b9
       -0.00062443665 -0.0006693165 -0.00023868184 -0.00015705446
000140 a9 e0 01 ba 16 eb 83 ba 65 f8 2c ba 29 6c b7 b8
       -0.00049544364 -0.0010064568 -0.0006598293 -8.7462664e-05
000150 c5 5f a5 39 a8 10 bb 39 60 82 e9 38 05 1f 01 ba
       0.00031542606 0.0003567983 0.0001113459 -0.0004925582
000160 28 ef 0f ba 30 0b f2 b7 7a a5 5f 39 ef 4b a3 b9
       -0.0005490654 -2.8853858e-05 0.00021328582 -0.00031146358
000170 6a 85 7e ba f1 15 9d b9 f0 7b 94 b9 21 99 33 b8
       -0.00097092113 -0.0002996172 -0.000283211 -4.2819538e-05
000180 61 10 d5 b9 54 9a a6 b9 c9 fc e5 b8 82 2c 6f b9
       -0.0004063873 -0.0003177697 -0.00010966656 -0.00022809397
000190 d1 8e 30 3e ca 8f b8 bd 99 2b c8 bd a8 2f 7c b9
       0.1724198 -0.090118006 -0.097739406 -0.00024050346
0001a0 e8 e3 66 bd 19 01 a0 3e 72 03 a8 be ec 5a d0 be
       -0.056369692 0.31250837 -0.3281513 -0.40694368
0001b0 d8 b7 94 3d a2 13 0e 3e 21 2d 9e bd 03 9a 1c be
       0.07261628 0.13874677 -0.077234514 -0.15293126
0001c0 77 64 c7 be 2d 13 b3 3e 36 a9 d9 3c 96 0b 67 bc
       -0.38943836 0.34975567 0.026569944 -0.014101883
0001d0 c8 19 4a 3d 08 9f b1 3e 56 74 d7 3e 46 d6 1c be
       0.049340993 0.34691644 0.42080945 -0.15316114
0001e0 a0 74 5e bd e2 e6 90 bd 99 19 6a bc 04 4f 5a 3d
       -0.05431044 -0.070752874 -0.0142883295 0.05329801
0001f0 30 19 44 bd 8f eb fb 38 52 1c 5e bc f8 ec 1e bd
       -0.047875583 0.00012012489 -0.013556557 -0.03880021
000200 90 32 18 be 06 88 dc 3c 48 8a 26 be c4 df 84 be
       -0.14863038 0.02692033 -0.16263688 -0.2595197
000210 a9 9e 2c bf 8b fc 9e be 99 2a fb bd cf 08 38 3d
       -0.67429596 -0.3105205 -0.12263984 0.044930276
000220 32 5f 11 3e 37 c3 d3 3e f5 6e f9 3d a8 61 e1 3d
       0.1419647 0.41359875 0.121793665 0.110049546
000230 3b a7 ee 3a 4d 85 d6 3d 24 2c e3 3e ad b5 54 3e
       0.0018207798 0.10474644 0.44369614 0.20772429
000240 13 75 f2 bb 8d 95 9a bc 73 d8 66 3d ae 6d b3 bc
       -0.0073992102 -0.01887014 0.056358766 -0.021902885
000250 96 50 d9 bc e5 7a f1 3d 0b 7e 1f bc 14 c6 4d 3e
       -0.026527684 0.117910184 -0.009734641 0.20095092
000260 03 29 70 3c be 01 be be 47 e6 78 be 26 af 89 3e
       0.014658215 -0.37110704 -0.24306594 0.2689144
000270 f3 c1 a2 3e 49 09 04 3c 59 4e a6 be 98 47 86 3d
       0.31788597 0.008058854 -0.3248165 0.06556624
000280 f7 62 b1 3d 00 82 34 be 1e 49 23 3d 46 4c 23 3e
       0.08661454 -0.17627716 0.03986465 0.15947065
000290 02 db 0a 3e 40 8a 43 3d 07 80 9c be 0d cd 4d be
       0.13560107 0.047739267 -0.30566427 -0.20097752
0002a0 87 4c 91 3e 98 6d c3 3e 10 3c 8b bd ac 9e a7 be
       0.28378698 0.3816955 -0.067985654 -0.32738245
0002b0 bd 55 07 bd c8 87 14 bd e6 55 ad 3d c8 f8 82 3b
       -0.03304075 -0.036262304 0.084636495 0.003996942
0002c0 e0 54 59 bd c0 8d 02 bd 49 f6 7e 3d a9 a6 ba bc
       -0.05305946 -0.031873465 0.062246595 -0.022784548
0002d0 f1 83 a5 bd 16 e9 a2 3d 7e a9 d5 3e c0 50 c2 3e
       -0.080818065 0.07954614 0.41730875 0.37952232
0002e0 67 97 b1 bd 45 5d 5d 3d 54 04 82 bd 2f 96 03 be
       -0.08671456 0.054044027 -0.06348482 -0.12850259
0002f0 ac 78 bd 3e 99 7a d0 3d 5e ce e2 39 ba 57 02 bf
       0.37006128 0.10179634 0.00043259835 -0.5091511
000300 73 89 fc be 7b 81 d8 bb f6 d3 f5 3d ca 9c 17 3d
       -0.49323615 -0.006607232 0.12003319 0.03701476
000310 dd 32 65 3d ce 0c ec bd 30 04 95 bd 62 3c 8c bc
       0.05595671 -0.1152588 -0.07276189 -0.017118637
000320 41 65 45 bc 1a 3f 71 be 94 56 8b 3c 08 de 57 be
       -0.012048067 -0.23559228 0.017009057 -0.21080792
000330 c4 4d 31 be 4d 0c b7 bc 0a 47 85 3d 08 fa b6 3e
       -0.17314821 -0.022344733 0.0650769 0.35737634
000340 c8 1f 6b 3e 6a 03 aa bd 9f 58 dc bd 5c 40 0c bd
       0.22961342 -0.083014324 -0.10759091 -0.034241065
000350 b9 aa 9a 3e f1 dd ad bd ff ae 07 bd 1e 07 fa 3b
       0.30208376 -0.084895976 -0.033125874 0.007630243
000360 72 ff 2d 3e 94 b2 cd 3e eb f2 cd 3e c8 0c 0f bc
       0.16991976 0.40175307 0.40224394 -0.008731075
000370 28 53 17 be 89 65 39 be 5a 0f 15 be 74 48 a8 be
       -0.14777815 -0.18105139 -0.14556637 -0.32867777
000380 8c 88 fd bd 1f ab 4b 3d c3 5c ae 3d a0 f2 e2 3d
       -0.1237956 0.04972374 0.08513787 0.11081433
000390 4d f0 59 3e ee 36 3f be 5c a5 33 bd e6 1b be 3e
       0.21283074 -0.18673298 -0.04385887 0.3713066
0003a0 55 63 c1 3c 35 a1 9f be 47 86 a9 be fe e5 14 3e
       0.023606936 -0.3117768 -0.33110258 0.1454086
0003b0 90 98 1f be 30 53 2f 3e 8e 9e be bd 2c 11 2a 3e
       -0.15585542 0.17121577 -0.09307586 0.16608113
0003c0 8b 67 bf be ef 38 85 be b5 cc d5 bc 2b 95 c5 3e
       -0.37383685 -0.2602 -0.026098588 0.3859037
0003d0 f8 7b 28 3e 28 8c 32 be 33 67 06 3e 2e 10 61 3c
       0.1645354 -0.17436278 0.13125305 0.013736768
0003e0 78 7e ac bb 6a a7 85 bd 61 85 9f b9 b0 dd 88 b9
       -0.0052640997 -0.06526072 -0.00030426218 -0.00026105111
0003f0 08 a6 78 39 ca 33 9d b9 9e 8b 63 b9 aa e2 7f b8
       0.00023712975 -0.0002998396 -0.00021700418 -6.1007835e-05

model.0.bias f4 [32]
000000 23 0c 93 3b 16 aa a2 3a 13 a8 c4 b9 bc e4 22 ba
       0.004487531 0.0012410309 -0.00037509258 -0.00062138936
000010 7b ff c4 39 4f 38 9f bc 00 87 1c bb 8d f6 6f 3a
       0.0003757438 -0.01943603 -0.0023884177 0.00091538654
000020 4b dd 35 ba 2b 03 62 b9 da 7a 7c b9 8e 22 4d bd
       -0.0006937577 -0.0002155422 -0.00024078359 -0.050081782
000030 64 52 27 bd aa b9 2c 3d 38 6a 7b 3c a0 49 6f bd
       -0.04085006 0.04216925 0.015345149 -0.058419824
000040 b1 62 e3 b9 c0 8a 87 ba cd 8c 77 bd 98 ac 92 ba
       -0.00043370345 -0.0010341033 -0.060437012 -0.0011190353
000050 84 0b 49 3d ab 81 82 ba 89 2a f9 39 71 95 93 b9
       0.049083248 -0.0009956857 0.00047524672 -0.00028149367
000060 71 ad 3f bd e8 2e 51 3d 66 59 a3 b9 71 dc 36 bd
       -0.046796266 0.051070124 -0.0003115639 -0.044643823
000070 05 7e 11 ba 15 c2 ae b9 da 47 76 bc 81 8b ea b9
       -0.00055500894 -0.0003333247 -0.015031779 -0.00044735897

model.2.weight f4 [16, 32]
000000 4a 68 ee 3e 7c 18 72 3e da 80 56 36 34 f4 bb b9
       0.4656394 0.23642153 3.1963486e-06 -0.00035849365
000010 39 52 2c 3f de 6d 92 bf 86 f0 44 3e 95 2e 62 3e
       0.6731296 -1.1439779 0.19232377 0.22088082
000020 ea f1 d9 be de d0 c7 be 8e b8 94 39 13 f1 a9 be
       -0.42567378 -0.3902654 0.00028366264 -0.33191738
000030 90 3f a7 be dc 3c 56 c0 fd e8 1d 3f 23 7a 18 bd
       -0.32665682 -3.3474646 0.61683637 -0.037225854
000040 2a fa fb 38 b9 55 69 39 3a ba 8e bf 3f 99 2d 3a
       0.00012015209 0.00022252546 -1.1150582 0.0006622262
000050 61 16 88 be cc 10 87 3a 5b ac 63 3f 5b c9 1f ba
       -0.26579574 0.0010304688 0.8893487 -0.0006095373
000060 64 64 41 3f 00 49 b1 3e a4 8d 1a b9 51 77 d1 be
       0.7554381 0.34626007 -0.0001473935 -0.40911344
000070 f7 c0 86 b9 a0 44 03 b9 00 5c 1a 3d 4c f2 4a b9
       -0.00025702242 -0.00012518698 0.037685394 -0.00019354484
000080 3c 58 9c be fd 4c 8a be 81 bf 8b 38 80 e6 43 b9
       -0.30536067 -0.27011862 6.663707e-05 -0.00018682517
000090 eb 54 5c bc 06 1d 86 3e d3 7a 4d bf 14 f6 a0 3e
       -0.01344798 0.26194018 -0.8026554 0.31437743
0000a0 51 6e f2 3d 5c ec 33 3d 62 83 cd b9 46 c5 57 3e
       0.118374474 0.04392658 -0.00039198535 0.21071348
0000b0 14 48 a1 bd 87 fd cd bf 58 a7 00 3e 9b ba 41 3d
       -0.07875076 -1.6092995 0.12563837 0.0472971
0000c0 ab 70 e2 38 5f cf 22 b9 d8 a3 ba 3e a5 87 ce b9
       0.00010797506 -0.00015526776 0.36453128 -0.00039392445
0000d0 13 63 d7 bf 12 21 c4 38 23 f8 87 3e fe dd b2 b6
       -1.682711 9.352168e-05 0.265565 -5.3306567e-06
0000e0 82 00 96 be b6 22 35 3e fb 59 5c 3a a8 6a 2a 3c
       -0.29297262 0.17689022 0.0008405742 0.010401405
0000f0 e8 be 3b b9 53 9a 4c b9 a7 d6 4a bf d2 0a da b9
       -0.00017904828 -0.00019512446 -0.79233783 -0.00041588262
000100 68 02 89 bf 4c b6 76 3f a2 59 f9 b8 3e 17 4b ba
       -1.0703859 0.9637191 -0.00011889941 -0.0007747299
000110 7f 8e 3d bf 8e a6 c8 bd 34 2c cf 3e 88 76 cd be
       -0.74045557 -0.09797393 0.40463412 -0.40129495
000120 37 d5 da bf e8 9a 38 3f f3 17 f4 38 95 c7 8f be
       -1.7096318 0.7211137 0.000116392875 -0.28081957
000130 d0 16 39 be 14 9b a6 3e 72 c5 bd 3d 6d 1b 55 be
       -0.18075109 0.3254019 0.09266175 -0.20811243
000140 8f b0 88 b9 1d 6c 39 b9 d5 b3 2e bd f4 d2 f2 b9
       -0.00026071488 -0.0001768325 -0.04265197 -0.0004631501
000150 51 33 4b 3e 8a 2a 38 b9 02 ea 2e be dd 58 be b9
       0.19843794 -0.00017563454 -0.17081454 -0.00036305832
000160 85 a4 04 bf 70 07 e4 3d 91 e2 55 3a d2 d8 dc be
       -0.51813537 0.11134231 0.0008159066 -0.4313417
000170 1e d4 c5 b9 09 4a e9 b9 50 90 ac 3d 0d 88 36 b9
       -0.00037732808 -0.00044496384 0.08425963 -0.00017407555
000180 64 ff b2 bf 84 b1 68 3f 56 ac 95 b9 01 b2 08 b9
       -1.3984189 0.9089587 -0.00028547895 -0.00013036282
000190 7c c3 59 bf 3c 32 b2 bd ee a5 27 3f eb b5 ff be
       -0.8506391 -0.08700988 0.65487564 -0.4994348
0001a0 15 0b d1 bf 51 39 a6 3e 2a 58 07 39 87 19 c7 bc
       -1.6331507 0.32465604 0.00012907447 -0.024304165
0001b0 e3 f1 30 3f b1 16 f4 be ba b9 ea 3e 94 2a 11 bf
       0.6911909 -0.47673562 0.45844823 -0.56705594
0001c0 84 8a 00 39 b9 9d 08 3a a6 d3 c0 be b5 9d c5 38
       0.00012258632 0.0005211491 -0.37661475 9.423067e-05
0001d0 c2 a4 5e bf 09 7d 7b ba 47 34 24 3e 36 15 46 b8
       -0.8697015 -0.0009593522 0.16035567 -4.7226633e-05
0001e0 81 cf 0d bf 60 48 22 bf 14 b1 45 3a db 15 f3 bd
       -0.5539475 -0.63391685 0.00075413403 -0.11869403
0001f0 30 6c d9 b7 31 dd 1c 39 c5 2a 97 3d 0f e1 4d b9
       -2.5918795e-05 0.0001495972 0.073812045 -0.00019634164
000200 c6 87 cd bf 89 25 23 3f f5 5a b3 38 41 4d 96 b9
       -1.605706 0.6372915 8.552327e-05 -0.00028667788
000210 c8 1c d5 be 6d 57 23 be 0d 42 32 3f d6 d6 30 bf
       -0.4162352 -0.15951319 0.69632035 -0.69077814
000220 ab c6 a0 3e e1 96 df 3e 78 f6 b1 38 97 71 3a 3e
       0.31401572 0.436698 8.485926e-05 0.18207394
000230 ae 18 62 bd 3a c4 cf 3f 6b 3e 67 3c dd 46 16 bf
       -0.055199318 1.6231759 0.014114003 -0.5870188
000240 83 76 33 b9 3f c2 a8 39 4a 4a 5f bf a5 f3 62 3a
       -0.0001711492 0.00032188182 -0.8722273 0.00086575217
000250 46 9d 87 b9 18 48 03 ba e9 a0 c9 be e8 34 4c 38
       -0.00025866384 -0.0005007996 -0.39380577 4.8686663e-05
000260 39 54 12 3e 04 1e 9d 3e 4d e2 86 b8 fb c3 c0 3e
       0.14289941 0.30686963 -6.43177e-05 0.3764952
000270 b6 45 4a 39 c8 e7 c5 b7 a4 45 e9 3e 07 91 1a b8
       0.0001929019 -2.3592162e-05 0.45560944 -3.685153e-05
000280 6f f3 42 3f 05 57 1b bf bd a6 31 39 72 f4 40 b9
       0.761527 -0.60679656 0.0001694215 -0.0001840161
000290 ee ed 6f bf 44 4f 22 bf 94 33 8b be 39 7e 67 bf
       -0.93722427 -0.634022 -0.27187788 -0.90426975
0002a0 bc e6 6b 3f 0e b1 9f be 4f 61 98 b8 f7 b5 27 3f
       0.9214895 -0.3118977 -7.26605e-05 0.6551203
0002b0 11 54 72 3f 55 ab 88 be 47 51 68 3d a8 23 48 bf
       0.94659525 -0.26693216 0.056718137 -0.7817941
0002c0 e7 0e 07 38 ac ff 62 b9 b2 ad 82 bf 1a 0c 97 ba
       3.2200387e-05 -0.00021648285 -1.0209258 -0.0011523992
0002d0 33 b1 bb 3e 7f 4a b4 ba 75 c5 9d bf f5 70 b1 b9
       0.3665863 -0.0013755112 -1.2325884 -0.0003384423
0002e0 7b ba 2d 3f 0e 5e 07 3f b0 4d 0a ba f5 bd 36 3f
       0.6786267 0.5287789 -0.00052758586 0.713836
0002f0 5d 06 94 38 c0 d6 b5 b8 1b 80 98 bc de 3d d7 38
       7.058375e-05 -8.670753e-05 -0.018615773 0.000102635226
000300 79 84 18 be 3e 68 bc bf 61 e8 74 37 93 ba 82 b9
       -0.14894284 -1.4719312 1.4597638e-05 -0.0002493454
000310 c7 b9 b0 bf 9c da bb bf 7c 0a 52 bf ae 84 d8 bf
       -1.3806695 -1.4676089 -0.8204725 -1.6915491
000320 32 85 3a be fd 3c 53 bf ea d7 1f b8 66 83 b1 be
       -0.18214872 -0.82514936 -3.810964e-05 -0.34670562
000330 f4 b1 69 3f dd ed 31 3d 9e d5 02 be fe d8 0e bf
       0.9128716 0.043439735 -0.12776801 -0.55799854
000340 7a a2 7e 39 7e 4a ea 39 5c 6d 07 3f 9b e0 d3 b8
       0.00024283855 0.0004468746 0.52901244 -0.000101031
000350 df 41 bf be 36 67 bc ba 76 d3 f1 bf 52 4e 1e b9
       -0.37354943 -0.0014374021 -1.8892658 -0.00015097231
000360 b4 95 0f 3d 46 5a 39 3e 9f 2c 23 3a 6b 28 82 bd
       0.035054877 0.18100843 0.00062246056 -0.06355365
000370 95 3d 38 39 96 03 4c b9 69 ef ef be 54 e6 d3 b8
       0.00017570549 -0.00019456292 -0.46862343 -0.00010104166
000380 61 78 72 3e 43 49 96 3d 23 ca 90 38 5a f0 34 39
       0.23678733 0.07338192 6.904106e-05 0.00017255676
000390 69 47 7c be b2 47 7a be 2f f1 5e 3f 0a f6 21 3d
       -0.24636616 -0.24441412 0.87086767 0.03954128
0003a0 ce 34 d1 be 14 b7 cd 3e 22 7b 3e b9 d0 ff 4e bf
       -0.408606 0.4017874 -0.00018165683 -0.8085909
0003b0 6e b1 01 3e 04 47 05 3f ec d5 21 bf 77 64 de be
       0.1266534 0.52061486 -0.63217044 -0.43436024
0003c0 e9 68 3d b6 73 81 2c 3a e0 13 e5 be e2 64 1f b9
       -2.822426e-06 0.0006580569 -0.44741726 -0.00015201003
0003d0 cc 9b 2e c0 07 8b 9e b9 6b 0a 9c bd 1d 32 b2 38
       -2.728259 -0.00030239692 -0.076191746 8.497036e-05
0003e0 28 c9 da bd 6d a2 2f bf 0e 3c a2 38 f0 c5 07 bf
       -0.10682899 -0.6860722 7.735948e-05 -0.53036404
0003f0 eb 1f 4e 39 b7 bb a8 b8 c2 3e 8b 3f d0 93 f4 b8
       0.00019657581 -8.045829e-05 1.0878527 -0.00011662359

model.2.bias f4 [16]
000000 a3 a5 a3 3d 52 29 32 3e 52 5b 0f 3e ee 24 e1 3d
       0.07990577 0.17398575 0.1399968 0.10993372
000010 13 cb 53 3d b9 d7 0d 3e 9f 03 19 3f a5 a0 5d 3e
       0.05170734 0.13851823 0.5977115 0.21643312
000020 6a 00 81 bd 0f 4c 24 ba 09 83 30 ba ca d0 35 3e
       -0.06298907 -0.0006267437 -0.0006733393 0.17755428
000030 71 4b 18 3e c7 e8 5b 3e 4d 36 c6 3d 23 68 78 3a
       0.14872529 0.21475516 0.09678326 0.0009475967

model.4.weight f4 [3, 16]
000000 5a 98 06 40 fd 27 2b 40 58 54 88 c0 41 12 b2 c0
       2.1030488 2.6743157 -4.260296 -5.5647283
000010 94 9b 92 c0 d7 9d dc c0 cf a6 18 c1 85 03 73 c0
       -4.5814915 -6.8942676 -9.540725 -3.7970898
000020 c3 a6 e6 bf c0 f4 09 b8 f6 fe 98 38 7f bc 4c 40
       -1.8019642 -3.2891287e-05 7.295415e-05 3.199005
000030 fe c0 d2 3e d1 48 80 40 d4 a8 91 3f ba 48 50 c0
       0.41162866 4.0088887 1.1379647 -3.2544389
000040 b7 0b eb bf 12 c2 2f c0 88 74 e8 bf 7c 72 39 bf
       -1.836295 -2.74622 -1.8160563 -0.72440314
000050 5a 71 74 3f 1d f5 98 40 85 a5 d6 40 87 d4 56 bf
       0.9548546 4.779921 6.707705 -0.8391804
000060 4b ef cf be 3d 25 7c ba e7 f8 c9 b8 bd 82 d5 3f
       -0.40612254 -0.0009618586 -9.6307886e-05 1.6680523
000070 8a f3 df c0 3d 1b a9 bf c1 6c ee c0 2d 00 01 40
       -6.998479 -1.3211437 -7.4507756 2.0156357
000080 c5 5e a2 bf d9 48 ec bf 3a ba 8f 40 47 9e 9b 40
       -1.2685171 -1.8459731 4.4914827 4.863071
000090 5f b6 04 40 66 e0 b9 bf 0c e2 93 c0 6d 70 59 40
       2.073631 -1.4521606 -4.6213436 3.397487
0000a0 a8 05 d8 3f 2c 94 f3 b9 5c 52 80 39 c3 43 9d c0
       1.6876726 -0.00046458968 0.00024475425 -4.9145217
0000b0 bb 18 90 3f 92 2f 6a c0 c0 ae d4 3e b7 f3 8a 3e
       1.1257547 -3.6591535 0.41539574 0.27139065

model.4.bias f4 [3]
000000 7e b4 d4 3e f6 c1 37 3e 6c 11 00 bf
       0.41543955 0.17945084 -0.50026584

exp_avg f4 [32, 25]
000000 cf d1 77 bc f6 da 53 bc 6b 83 a4 3a 2d cc 9a 3c
       -0.015125706 -0.012930622 0.0012551373 0.018896187
000010 77 19 a7 3c 4d d2 86 bc 7c 15 61 bc 89 a3 cb 3b
       0.020397885 -0.016457701 -0.013738032 0.0062145633
000020 ee 38 d0 3c 58 c1 ed 3c 80 8b 9e bc 3d a1 55 bc
       0.025417771 0.029022858 -0.019353628 -0.0130389305
000030 0d 01 00 3c 35 9e 26 ba 30 6c 84 ba 9a 43 f1 bc
       0.0078127505 -0.0006355972 -0.0010103043 -0.02945118
000040 c9 28 9a bc 5f 02 7a bc a7 7d 30 bc b7 48 38 bb
       -0.018818276 -0.015259354 -0.010772145 -0.0028119513
000050 51 51 c9 bc 53 dc 48 bc 77 87 37 bc f6 05 72 bc
       -0.024574907 -0.012259561 -0.011201731 -0.014771929
000060 90 c5 d4 bb a7 d0 ae bc 79 2c bc bc db 72 01 bd
       -0.006493278 -0.021339728 -0.022970425 -0.031603675
000070 06 e2 2a bd 06 78 1f bd b0 97 a3 bc 6f 56 13 bc
       -0.04171946 -0.038932823 -0.019969791 -0.008992775
000080 04 00 dd bc 7f a6 0c bd 92 34 89 bc 75 53 9e 3c
       -0.026977547 -0.03433847 -0.0167487 0.019326905
000090 03 d6 9a 3c 14 1d 11 bc 2a a5 4e bc c7 47 42 bc
       0.018900877 -0.00885703 -0.01261262 -0.011857933
0000a0 2b a2 fc 3c f0 6f ed 3c 11 41 24 3c 57 e4 02 bc
       0.030839046 0.02898404 0.010025279 -0.007989011
0000b0 1b bd 57 bc 8c 30 ec 3c 52 3c d8 3c 89 df 98 3c
       -0.013167645 0.028831743 0.02639595 0.018661277
0000c0 cc 08 cc bb 1c d0 3f bc 04 00 00 00 04 00 00 00
       -0.0062266346 -0.011707332 6e-45 6e-45
0000d0 04 00 00 00 04 00 00 00 04 00 00 00 04 00 00 00
       6e-45 6e-45 6e-45 6e-45
0000e0 04 00 00 00 04 00 00 00 04 00 00 00 04 00 00 00
       6e-45 6e-45 6e-45 6e-45
0000f0 04 00 00 00 04 00 00 00 04 00 00 00 04 00 00 00
       6e-45 6e-45 6e-45 6e-45
000100 04 00 00 00 04 00 00 00 04 00 00 00 04 00 00 00
       6e-45 6e-45 6e-45 6e-45
000110 04 00 00 00 04 00 00 00 04 00 00 00 04 00 00 00
       6e-45 6e-45 6e-45 6e-45
000120 04 00 00 00 04 00 00 00 04 00 00 00 04 00 00 00
       6e-45 6e-45 6e-45 6e-45
000130 04 00 00 80 04 00 00 00 04 00 00 00 04 00 00 00
       -6e-45 6e-45 6e-45 6e-45
000140 04 00 00 00 04 00 00 00 04 00 00 00 04 00 00 00
       6e-45 6e-45 6e-45 6e-45
000150 04 00 00 00 04 00 00 00 04 00 00 00 04 00 00 00
       6e-45 6e-45 6e-45 6e-45
000160 04 00 00 00 04 00 00 00 04 00 00 00 04 00 00 00
       6e-45 6e-45 6e-45 6e-45
000170 04 00 00 00 04 00 00 00 04 00 00 00 04 00 00 00
       6e-45 6e-45 6e-45 6e-45
000180 04 00 00 00 04 00 00 00 04 00 00 00 04 00 00 00
       6e-45 6e-45 6e-45 6e-45
000190 fc d9 50 3d db 28 58 3d 8b 66 2f 3d 5d a0 f2 3c
       0.050989136 0.052773338 0.042822402 0.029617483
0001a0 be 86 de 3c ff ca 60 3d 9f 01 42 3d 0e a5 17 3d
       0.02716386 0.054881092 0.047364827 0.037022643
0001b0 4d 16 b4 3c 4c 51 6d 3c b8 dc 5e 3d 4b 24 4e 3d
       0.02198329 0.014484715 0.054409713 0.05032758
0001c0 53 0b 43 3d 43 c1 21 3b 72 10 25 bb 7d 80 57 3d
       0.04761822 0.0024681843 -0.0025186804 0.05261277
0001d0 23 fb 53 3d 70 94 04 3d 39 00 42 3c b1 1c 41 3b
       0.051753175 0.032368124 0.011840873 0.0029466564
0001e0 e7 a5 5e 3d ec 17 4b 3d 4b d1 11 3d 0d b9 ad 3c
       0.054357436 0.04958336 0.035599988 0.021206403
0001f0 b8 0a 4d 3b 95 05 fb bb f6 1e 12 bc 83 cc fd bb
       0.0031286906 -0.0076605775 -0.0089185145 -0.007745327
000200 c4 10 41 bc fb 10 4f bc c0 72 d8 bb cd 15 0e bc
       -0.011783782 -0.012638326 -0.006605476 -0.00867219
000210 2f c2 2d bc cd 25 51 bc 42 35 b2 bc 00 de 92 bc
       -0.010605379 -0.01276536 -0.02175391 -0.017928123
000220 dc 4a 94 bc 07 16 bb bc 4d 9b 8f bc 93 e8 6e bc
       -0.018102102 -0.022837652 -0.017530108 -0.014581817
000230 76 9e 99 bc 44 30 ad bc 5d 8c c6 bc c5 e9 a9 bc
       -0.018752318 -0.021141179 -0.024236852 -0.020741353
000240 fd d9 55 bc d8 3d 9c bc e9 c9 c3 bc 59 30 c7 bc
       -0.013052461 -0.019072458 -0.02389999 -0.024315046
000250 d5 06 c6 bc f7 77 a3 bc f8 fc 5b bd 6a c3 83 bd
       -0.02417318 -0.019954665 -0.053708047 -0.06433757
000260 78 b8 4a bd 5a a0 ca bc da 04 5e bc 2e 04 4d bd
       -0.04949233 -0.024734665 -0.013550961 -0.050052814
000270 80 7b 6e bd 2a ec 51 bd 3c 5c 51 bb 66 9f 33 3d
       -0.058223248 -0.051250614 -0.0031945845 0.043853186
000280 5b 02 a3 bc 82 41 c7 bc eb b5 f7 bc 19 1f 20 3d
       -0.019898584 -0.024323229 -0.030238112 0.039092157
000290 a6 77 3d 3d 07 a1 2d bc 0d b8 85 bb 2c fe 4d 3c
       0.046256684 -0.010597474 -0.0040807785 0.012572806
0002a0 13 16 d5 3c 0a 56 0b 3d 6f ce 2f 3c d8 2e 87 3a
       0.026011502 0.0340176 0.01073037 0.0010313643
0002b0 fa 41 95 3c 7d ea b9 3c 29 d0 2c 3d ba 4a 9e 3d
       0.018219937 0.02269482 0.042190704 0.07729097
0002c0 4e 22 79 3d 9f e6 59 3d 73 3a ff 3c 8c 93 c2 3c
       0.06082373 0.053198453 0.0311558 0.023751996
0002d0 5b af 9e 3d 5c d9 8a 3d d1 05 43 3d 6b e7 bc 3c
       0.0774829 0.06779739 0.04761297 0.023059567
0002e0 40 67 5f 3c cb 9b 93 3d a8 ca 82 3d 21 5c 1e 3d
       0.013635457 0.072074495 0.0638631 0.03866208
0002f0 9a ba 5a 3c 46 7a 28 3c 1d 4c 7c 3d 94 e6 48 3d
       0.013350153 0.0102830585 0.061596025 0.04904802
000300 34 de 08 3d 02 bf 92 3c 4c 28 55 3c 4f 04 48 3d
       0.033415034 0.017913345 0.013010096 0.048832234
000310 95 2b 2d 3d e4 df 28 3d 3f b4 be 3c 48 15 3f 3c
       0.04227789 0.041229144 0.023279307 0.011662789
000320 8d ef 37 3e b2 e1 5b 3e c0 4b 4f 3e bc 86 35 3e
       0.17962475 0.21472815 0.2024374 0.17727178
000330 7d 54 1c 3e cf 8b 3b 3e fe cd 55 3e e4 f1 64 3e
       0.15266605 0.18315051 0.20879361 0.22357899
000340 dc 26 24 3e 8d 82 ef 3d 3b 22 14 3e 6a 1b 15 3e
       0.16030449 0.116948225 0.14466183 0.14561239
000350 e5 8a 43 3e c4 59 d6 3d f3 24 b8 3d 8d 4a e9 3d
       0.19095953 0.1046634 0.089914225 0.113911726
000360 70 d9 d6 3d 58 d9 fe 3d bb 4d 02 3e b1 fb b5 3d
       0.10490692 0.12443799 0.12724964 0.08885897
000370 70 30 b4 3d 8f 05 d6 3d 12 4a e0 3d fb da 08 3e
       0.08798301 0.10450279 0.10951628 0.13364784
000380 8d db e4 3d b8 f6 2f bd 34 9e 2f bd a3 f1 22 bd
       0.111746885 -0.0429599 -0.042875484 -0.039781224
000390 96 9a e6 bc 4a ea a9 bc 90 e9 36 bd 5b 40 32 bd
       -0.028149884 -0.0207416 -0.044656336 -0.043518405
0003a0 35 b7 24 bd 3a b8 cb bc 46 46 a2 bc 2a 81 46 bd
       -0.040213782 -0.02486812 -0.0198089 -0.048463024
0003b0 bf 00 4c bd 83 cc 36 bd 96 e7 0f bc 8d 1a b9 bb
       -0.0498054 -0.04462863 -0.008783242 -0.005648917
0003c0 ba 0f 2d bd 55 c5 0b bd 27 32 65 bc 83 af 49 bb
       -0.042251326 -0.034123737 -0.013989008 -0.003077478
0003d0 19 c9 45 bb a0 fa f4 bc c2 39 e9 bc da 4b 63 bc
       -0.0030179678 -0.029904664 -0.028469924 -0.013873065
0003e0 5b 86 4c bb 48 26 62 ba 00 00 00 00 00 00 00 00
       -0.0031208012 -0.000862692 0.0 0.0
0003f0 00 00 00 00 00 00 00 00 00 00 00 00 04 00 00 00
       0.0 0.0 0.0 6e-45

exp_avg_sq f4 [32, 25]
000000 37 fd 7b 3d 3f ae 6f 3d 6c b6 66 3d 33 c9 67 3d
       0.06152078 0.058515783 0.056326315 0.056588363
000010 0a 6d 6a 3d e5 28 82 3d 00 1c 6d 3d 18 93 49 3d
       0.057232894 0.06355456 0.05788803 0.049212545
000020 23 1e 59 3d b9 fd 65 3d ef 80 80 3d ae c1 5c 3d
       0.053007256 0.056150172 0.06274592 0.053895645
000030 5b 53 10 3d 1e 7c 31 3d a2 60 49 3d 5a 13 71 3d
       0.035235744 0.043331258 0.04916442 0.058856346
000040 69 62 4b 3d 4e 86 1f 3d 3e 26 26 3d de 03 3d 3d
       0.049654398 0.038946442 0.040563814 0.046146266
000050 61 a3 57 3d 1d 0a 41 3d 8f 04 27 3d 41 10 26 3d
       0.052646045 0.047128785 0.04077583 0.040542845
000060 73 5c 33 3d 70 0a 50 3d dd 9c 63 3d 65 56 85 3d
       0.04378934 0.050791204 0.05556952 0.06510619
000070 52 91 9c 3d 12 dc a9 3d 2a ef 4b 3d af e0 4f 3d
       0.07644905 0.08293928 0.04978863 0.050751384
000080 38 26 80 3d 5c 6b a2 3d 21 5b b6 3d f9 81 70 3d
       0.0625729 0.079306334 0.089041 0.0587177
000090 48 a9 6a 3d d6 c0 75 3d 3b 94 9f 3d 3a c3 a5 3d
       0.057290345 0.059998356 0.077919446 0.08093877
0000a0 bb c4 7d 3d c4 b9 7e 3d c6 35 62 3d 65 5c 4f 3d
       0.061955195 0.06218888 0.055227064 0.050625224
0000b0 a9 bc 62 3d d6 05 82 3d d8 79 7f 3d 2d a0 67 3d
       0.0553557 0.06348769 0.06237206 0.05654924
0000c0 02 d2 4e 3d 62 ea 52 3d f4 01 00 00 f4 01 00 00
       0.050493248 0.051493056 7e-43 7e-43
0000d0 f4 01 00 00 f4 01 00 00 f4 01 00 00 f4 01 00 00
       7e-43 7e-43 7e-43 7e-43
0000e0 f4 01 00 00 f4 01 00 00 f4 01 00 00 f4 01 00 00
       7e-43 7e-43 7e-43 7e-43
0000f0 f4 01 00 00 f4 01 00 00 f4 01 00 00 f4 01 00 00
       7e-43 7e-43 7e-43 7e-43
000100 f4 01 00 00 f4 01 00 00 f4 01 00 00 f4 01 00 00
       7e-43 7e-43 7e-43 7e-43
000110 f4 01 00 00 f4 01 00 00 f4 01 00 00 f4 01 00 00
       7e-43 7e-43 7e-43 7e-43
000120 f4 01 00 00 f4 01 00 00 f4 01 00 00 f4 01 00 00
       7e-43 7e-43 7e-43 7e-43
000130 f4 01 00 00 f4 01 00 00 f4 01 00 00 f4 01 00 00
       7e-43 7e-43 7e-43 7e-43
000140 f4 01 00 00 f4 01 00 00 f4 01 00 00 f4 01 00 00
       7e-43 7e-43 7e-43 7e-43
000150 f4 01 00 00 f4 01 00 00 f4 01 00 00 f4 01 00 00
       7e-43 7e-43 7e-43 7e-43
000160 f4 01 00 00 f4 01 00 00 f4 01 00 00 f4 01 00 00
       7e-43 7e-43 7e-43 7e-43
000170 f4 01 00 00 f4 01 00 00 f4 01 00 00 f4 01 00 00
       7e-43 7e-43 7e-43 7e-43
000180 f4 01 00 00 f4 01 00 00 f4 01 00 00 f4 01 00 00
       7e-43 7e-43 7e-43 7e-43
000190 30 ea 31 3d 6e ef 23 3d eb 79 34 3d 00 f6 68 3d
       0.04343623 0.04002326 0.044061583 0.05687523
0001a0 93 1e 85 3d 9f 41 3e 3d 08 ea 24 3d 9c 88 2f 3d
       0.06499972 0.0464493 0.040262252 0.04285489
0001b0 10 ba 77 3d 8b 7f 91 3d d2 a7 3f 3d d6 70 36 3d
       0.060480177 0.07104405 0.046790905 0.044541202
0001c0 0c 74 44 3d db 2f 93 3d 0d 88 a2 3d 6d f7 45 3d
       0.047962233 0.07186862 0.07936106 0.048331667
0001d0 5c 40 4a 3d 92 cc 64 3d 65 2f 91 3d b5 e8 9d 3d
       0.049377784 0.055859156 0.07089118 0.07710401
0001e0 b7 1a 4a 3d 6e 87 54 3d b4 81 6b 3d de b3 90 3d
       0.049341884 0.05188697 0.05749674 0.07065557
0001f0 72 70 9c 3d 90 2c e5 3b d9 d4 d6 3b b8 12 bd 3b
       0.07638635 0.0069938377 0.006556135 0.0057700537
000200 d5 ed d5 3b 4c 4c 01 3c 1c 9c f7 3b 92 da e1 3b
       0.006528596 0.007891726 0.0075564515 0.0068925107
000210 50 75 c8 3b 90 0e ee 3b c2 5f 16 3c f9 ca 1b 3c
       0.0061175004 0.0072649196 0.009178104 0.009508842
000220 24 6f 14 3c 32 63 14 3c 7e b0 21 3c 88 6a 2d 3c
       0.009059701 0.009056853 0.009868739 0.010584481
000230 8d d0 29 3c 1a 81 2f 3c b8 2b 33 3c cd 38 40 3c
       0.010364664 0.010711933 0.010935716 0.011732292
000240 26 88 40 3c e6 89 2e 3c ff ad 32 3c b1 51 40 3c
       0.01175121 0.010652995 0.010905742 0.011738227
000250 19 c8 4a 3c 3c 4a 47 3c 21 b6 ea 3d f8 b1 e3 3d
       0.012376809 0.012163695 0.114605196 0.11117929
000260 33 7c ca 3d de 53 b2 3d 69 ff b7 3d a4 27 fa 3d
       0.0988697 0.08707403 0.089842625 0.12214592
000270 04 4d ed 3d 08 75 c4 3d 7f 2b bc 3d c1 87 e4 3d
       0.11586955 0.095926344 0.09187984 0.111587055
000280 ae 62 f7 3d ac 1b ed 3d 9d a8 d7 3d d0 08 ff 3d
       0.120793685 0.115775436 0.10530207 0.12452853
000290 09 c1 02 3e b5 44 d4 3d df b7 b2 3d 45 7c b4 3d
       0.1276895 0.10364667 0.08726477 0.08812765
0002a0 04 b2 dc 3d 9b ba f9 3d ea 27 b9 3d 37 be a4 3d
       0.10776141 0.12193795 0.09040816 0.08044093
0002b0 2f 6f b1 3d f6 f2 cf 3d 71 95 e3 3d 57 b2 59 3d
       0.08663785 0.10153763 0.11112488 0.053148594
0002c0 aa a4 6e 3d c1 b4 85 3d 6a 7c 94 3d e2 51 9a 3d
       0.058262505 0.06528617 0.072502926 0.07535149
0002d0 80 f3 51 3d db 20 5e 3d 2b c2 7e 3d 10 8f 90 3d
       0.05125761 0.054230552 0.06219689 0.07058537
0002e0 fa 79 9b 3d 71 b9 46 3d d0 23 46 3d 38 d1 52 3d
       0.075916246 0.048516694 0.048373997 0.051469058
0002f0 cd 6f 8a 3d fd 06 98 3d a1 97 33 3d 2a e3 22 3d
       0.067596056 0.07423208 0.043845776 0.03976742
000300 c2 d7 25 3d d7 1a 65 3d d4 50 83 3d 01 d2 20 3d
       0.040488966 0.0559338 0.06411901 0.039262775
000310 4e 2f 17 3d d8 46 27 3d 83 6b 59 3d e2 f4 77 3d
       0.036910348 0.040839046 0.053081047 0.060536273
000320 10 d4 0f 3e 41 2f 12 3e 8e 10 14 3e e7 93 0e 3e
       0.14045739 0.14275838 0.1445944 0.13923608
000330 29 b8 09 3e 98 bc 11 3e 7c 45 15 3e 86 0d 1a 3e
       0.13449158 0.14232099 0.14577287 0.15044221
000340 52 da 12 3e dc 3b 11 3e 20 8b 1d 3e 19 43 21 3e
       0.14341095 0.14182991 0.15385103 0.15748252
000350 66 63 32 3e 5a c5 23 3e 4e 33 1f 3e eb 0a 08 3e
       0.1742073 0.15993252 0.15546915 0.13285415
000360 a1 4e 08 3e 62 23 12 3e 02 41 17 3e 50 10 1a 3e
       0.13311245 0.1427131 0.14770892 0.15045285
000370 1b 2a 03 3e 48 4e 05 3e a3 0e 09 3e a3 9c 0f 3e
       0.1280903 0.13018143 0.1338449 0.14024596
000380 e0 19 14 3e 39 4e d0 3c dc d1 d1 3c 17 d7 c2 3c
       0.14462996 0.025427924 0.025612764 0.023784203
000390 53 5b aa 3c 88 2f 98 3c 5b a6 c6 3c ce 09 cf 3c
       0.0207955 0.018577352 0.024249246 0.02527323
0003a0 18 73 ba 3c 24 25 9b 3c 99 19 9b 3c 1b 2c ae 3c
       0.02275996 0.018938608 0.018933104 0.021261266
0003b0 22 8f a8 3c e5 3f 99 3c 0f 19 c2 3c 89 06 c4 3c
       0.020576064 0.018707225 0.02369359 0.023928897
0003c0 e2 76 84 3c c8 ad 67 3c e6 c7 8f 3c d6 9b bc 3c
       0.016169969 0.014140554 0.017551374 0.023023527
0003d0 b0 b4 c9 3c 0b 93 69 3c d7 03 6f 3c b6 3b 94 3c
       0.024622291 0.014256249 0.014588318 0.018094879
0003e0 85 b6 b7 3c b4 b6 c1 3c 00 00 00 00 00 00 00 00
       0.0224259 0.02364669 0.0 0.0
0003f0 00 00 00 00 00 00 00 00 00 00 00 00 f4 01 00 00
       0.0 0.0 0.0 7e-43

exp_avg f4 [32]
000000 b3 b2 9e bd 63 c3 49 3d 04 00 00 00 04 00 00 00
       -0.07748928 0.0492586 6e-45 6e-45
000010 33 34 18 bd 25 8a e6 bc 50 d3 b6 bc 82 3b 7e 3d
       -0.037159156 -0.028142044 -0.022317559 0.06206847
000020 87 0c ac 3e 13 ae 0d bd 04 00 00 00 39 fb ff 3c
       0.33603308 -0.03458984 6e-45 0.031247722
000030 df ff b6 3a a1 a4 c3 3c 3f 2c a7 bd d7 fb 8e 3d
       0.0013961754 0.023882212 -0.08162736 0.069816284
000040 04 00 00 00 04 00 00 00 22 89 00 be 04 00 00 00
       6e-45 6e-45 -0.12552312 6e-45
000050 1f 22 8e be 04 00 00 00 5f c2 6b 3d 04 00 00 00
       -0.27760407 6e-45 0.057558414 6e-45
000060 fc 9d 4c 3d d7 bc 07 bd 04 00 00 00 07 23 3e 3b
       0.049955353 -0.033139076 6e-45 0.0029012577
000070 04 00 00 00 04 00 00 00 70 89 12 3e 04 00 00 00
       6e-45 6e-45 0.14310241 6e-45

exp_avg_sq f4 [32]
000000 c1 e4 23 3e 3c 88 51 3e f4 01 00 00 f4 01 00 00
       0.16005231 0.20462126 7e-43 7e-43
000010 ec ce 24 3e 0d 38 c8 3c 5d 6b a9 3e e6 21 27 3e
       0.1609456 0.02444079 0.33089724 0.16321525
000020 de 44 da 3e fd e7 89 3d f4 01 00 00 af 6e 53 3d
       0.42630666 0.067337014 7e-43 0.051619228
000030 28 e1 43 3d 34 1a b2 3c de 61 4d 3c 00 bd 82 3d
       0.047822148 0.02174101 0.01253554 0.06383705
000040 f4 01 00 00 f4 01 00 00 bb 56 91 3d f4 01 00 00
       7e-43 7e-43 0.07096621 7e-43
000050 ea 4c 82 3e f4 01 00 00 76 5a 4c 3e f4 01 00 00
       0.25449306 7e-43 0.19956383 7e-43
000060 e2 b0 96 3d 5a 4a 07 3d f4 01 00 00 1e b4 a1 3d
       0.073579565 0.03302989 7e-43 0.07895683
000070 f4 01 00 00 f4 01 00 00 60 bc 33 3e f4 01 00 00
       7e-43 7e-43 0.17552328 7e-43

exp_avg f4 [16, 32]
000000 1a ad 43 b8 f1 c8 81 bb 00 00 00 00 04 00 00 00
       -4.6652836e-05 -0.0039607217 0.0 6e-45
000010 4d 7f 00 bc 52 9f 0b bc 1a 0e c7 bb 7b c5 1b bc
       -0.007842851 -0.008521872 -0.006074679 -0.009507532
000020 6f 9a 69 ba 48 e9 06 bb 04 00 00 00 db 93 e5 3b
       -0.0008911257 -0.0020585824 6e-45 0.007006151
000030 d0 a1 d0 ba af bf fb 33 05 9d 43 bc 56 cb 91 b9
       -0.0015917365 1.1722965e-07 -0.011939292 -0.00027808052
000040 04 00 00 00 04 00 00 80 a9 36 84 ba 04 00 00 80
       6e-45 -6e-45 -0.0010087091 -6e-45
000050 5d 06 05 3b 04 00 00 00 24 e6 6d 3b 04 00 00 80
       0.0020297982 6e-45 0.0036300505 -6e-45
000060 21 62 af bb e3 25 20 bb 04 00 00 00 09 ec fa bb
       -0.005352274 -0.0024436645 6e-45 -0.007657532
000070 04 00 00 00 04 00 00 80 23 a2 a2 bb 00 00 00 00
       6e-45 -6e-45 -0.004963176 0.0
000080 61 67 a6 3a 59 8c 9e bb 04 00 00 80 04 00 00 00
       0.0012695604 -0.004838508 -6e-45 6e-45
000090 d5 03 2b bc d2 91 9f bc ac e3 8b bb a2 79 4f 3b
       -0.010437925 -0.019478712 -0.004269084 0.0031658192
0000a0 29 ee f5 3a 97 25 1a 3a 04 00 00 00 1d 88 0b 3c
       0.0018762994 0.0005880235 6e-45 0.008516339
0000b0 b1 48 4b bb c9 e2 99 35 bf 06 e2 bb ff 47 2e 3a
       -0.003101867 1.1465391e-06 -0.006897777 0.00066483015
0000c0 04 00 00 80 04 00 00 80 69 f9 e4 bb 04 00 00 80
       -6e-45 -6e-45 -0.00698774 -6e-45
0000d0 64 9a 9b 3b 04 00 00 00 bd 49 bf 3b 04 00 00 00
       0.0047486294 6e-45 0.0058376477 6e-45
0000e0 58 cf fd bb 5d 2b 57 bb 04 00 00 00 da bd 3f ba
       -0.0077456646 -0.0032832243 6e-45 -0.0007314362
0000f0 04 00 00 00 04 00 00 80 60 14 d4 bb 04 00 00 00
       6e-45 -6e-45 -0.0064721555 6e-45
000100 eb 12 53 3b 13 18 88 3b 00 00 00 00 04 00 00 80
       0.003220732 0.0041532605 0.0 -6e-45
000110 bb ca 3d 3c ee 4b 72 3c d4 fb 0c 3c 2a 78 e6 bb
       0.011583979 0.014788611 0.008604962 -0.0070333676
000120 d1 7a 8d bb 31 1d dd ba 04 00 00 00 c2 3a 16 bc
       -0.0043176194 -0.0016869662 6e-45 -0.009169282
000130 da d9 0e 3b 5c 11 54 39 fc a5 d7 3b 77 8c ac bb
       0.002179733 0.00020224362 0.006581066 -0.005265768
000140 04 00 00 00 04 00 00 80 30 4d 38 3a 04 00 00 80
       6e-45 -6e-45 0.0007030545 -6e-45
000150 44 e8 5d bc 04 00 00 80 a3 ae 06 39 04 00 00 00
       -0.013544146 -6e-45 0.00012844293 6e-45
000160 c2 54 05 3c 23 cf af 3b 04 00 00 00 1b e1 17 bb
       0.008137884 0.005365269 6e-45 -0.0023174945
000170 04 00 00 00 04 00 00 00 68 3f ac 3b 04 00 00 00
       6e-45 6e-45 0.005256582 6e-45
000180 da 57 bc b9 9d 73 03 3c 04 00 00 00 04 00 00 80
       -0.0003592361 0.00802317 6e-45 -6e-45
000190 65 3e 56 ba 36 c1 13 3b 5c d7 21 bc 9c 9c 88 bb
       -0.00081727497 0.0022545583 -0.009878006 -0.00416906
0001a0 d6 64 0a bb de af a0 bb 04 00 00 00 f1 2d 8d bb
       -0.0021117232 -0.0049037775 6e-45 -0.004308455
0001b0 95 7f 08 3b b6 12 03 39 37 fa 78 ba 95 00 03 bb
       0.0020827998 0.00012500104 -0.0009497734 -0.001998936
0001c0 04 00 00 00 04 00 00 80 bd 3b f3 b9 04 00 00 80
       6e-45 -6e-45 -0.0004639308 -6e-45
0001d0 e5 72 c4 b9 04 00 00 80 3b a5 70 3b 04 00 00 00
       -0.00037469636 -6e-45 0.0036719579 6e-45
0001e0 d6 35 c2 3b 6b 61 55 3b 04 00 00 00 c0 9d ef b9
       0.005926828 0.0032559286 6e-45 -0.00045703165
0001f0 04 00 00 80 04 00 00 00 80 40 a3 3b 04 00 00 00
       -6e-45 6e-45 0.0049820542 6e-45
000200 bd c5 6b ba 8a 38 55 3b 04 00 00 00 04 00 00 80
       -0.0008994004 0.003253492 6e-45 -6e-45
000210 dc 29 26 3c dc cb 05 3c 1c 6d 93 3b 8f 90 00 ba
       0.010141816 0.00816628 0.004499091 -0.00049043534
000220 f6 da f0 ba 45 40 61 ba 00 00 00 00 77 ab 91 bb
       -0.0018375802 -0.0008592646 0.0 -0.004445489
000230 5f 31 8e 3a 2e 21 c1 39 fb 27 80 3b bf ff dc 39
       0.0010848454 0.0003683655 0.003911016 0.00042152216
000240 04 00 00 00 04 00 00 00 d6 04 91 ba 04 00 00 80
       6e-45 6e-45 -0.0011064063 -6e-45
000250 06 07 20 bc 04 00 00 80 2c ed 06 3b 04 00 00 80
       -0.0097672995 -6e-45 0.0020588143 -6e-45
000260 d7 20 01 3c 15 3d 63 3b 04 00 00 00 c8 19 59 bb
       0.007881365 0.003467386 6e-45 -0.003312694
000270 00 00 00 00 04 00 00 00 d8 63 cd 3b 00 00 00 00
       0.0 6e-45 0.006268006 0.0
000280 6a 22 48 bc c2 ba 57 ba 04 00 00 00 04 00 00 80
       -0.012215236 -0.0008229428 6e-45 -6e-45
000290 89 7d 38 3a 75 3c 41 3b 6b ba d3 39 79 be 64 3c
       0.0007037749 0.0029485498 0.00040383948 0.013961428
0002a0 da a4 c2 3b 99 d6 ef 3b 04 00 00 80 93 b0 3a bc
       0.005940062 0.007319283 -6e-45 -0.011394638
0002b0 45 8b 1e 3a 54 5e 1f bb e9 2d b7 3c ed 67 81 3a
       0.00060479745 -0.0024317699 0.022360759 0.0009872891
0002c0 04 00 00 00 04 00 00 80 c6 15 2a 3a 04 00 00 00
       6e-45 -6e-45 0.000648823 6e-45
0002d0 e7 66 c3 3b 04 00 00 80 e2 43 d6 bb 04 00 00 80
       0.0059631946 -6e-45 -0.006538854 -6e-45
0002e0 42 76 7b b9 36 ce ea b9 04 00 00 80 a4 89 bc 3c
       -0.0002398128 -0.00044785597 -6e-45 0.02301485
0002f0 04 00 00 80 04 00 00 00 2f 78 9e 3a 04 00 00 00
       -6e-45 6e-45 0.0012090261 6e-45
000300 86 f6 bb ba dc 03 0e 38 04 00 00 80 04 00 00 00
       -0.0014340437 3.3859033e-05 -6e-45 6e-45
000310 84 eb fc b9 b8 ae ca 38 3f 34 da ba 98 6b 35 39
       -0.00048240658 9.6646545e-05 -0.0016647651 0.00017301587
000320 bf ee 98 b9 e9 8a d3 b9 04 00 00 80 09 a2 29 bb
       -0.0002916958 -0.00040348552 -6e-45 -0.0025883934
000330 67 44 a1 38 e8 59 45 ba bd 28 83 39 56 5d 7e b8
       7.689819e-05 -0.00075283507 0.0002501662 -6.0645245e-05
000340 04 00 00 00 04 00 00 80 81 04 21 39 04 00 00 00
       6e-45 -6e-45 0.00015355834 6e-45
000350 e4 fb 46 ba 04 00 00 00 30 42 6f ba 04 00 00 80
       -0.0007590635 6e-45 -0.0009126989 -6e-45
000360 70 c2 0f ba 3a cd 52 ba 04 00 00 80 1f 79 ad 39
       -0.00054839905 -0.00080414454 -6e-45 0.00033087374
000370 04 00 00 80 04 00 00 80 07 d2 b4 ba 00 00 00 00
       -6e-45 -6e-45 -0.0013795503 0.0
000380 4f c4 dc 3b 74 84 89 3c 00 00 00 00 04 00 00 80
       0.006737269 0.016786791 0.0 -6e-45
000390 35 ec c1 3c a4 9a 0b 3d df 7a 5b 3c 37 84 a1 3c
       0.023672203 0.034083024 0.013395994 0.019716365
0003a0 66 d8 ef 3a 96 2f bd 3b 00 00 00 00 9c 7d 08 bb
       0.0018298745 0.005773495 0.0 -0.0020826822
0003b0 2c f9 22 3c d3 a3 07 3a ea 72 dd 3c 44 ec f7 3a
       0.0099471025 0.0005174253 0.027032334 0.0018915017
0003c0 04 00 00 00 04 00 00 00 cb ea 34 3c 04 00 00 80
       6e-45 6e-45 0.011042307 -6e-45
0003d0 0d 9b 7c 3a 04 00 00 80 c9 41 2f 3b 04 00 00 00
       0.00096361415 -6e-45 0.0026742092 6e-45
0003e0 c0 51 9b 3c 01 20 12 3c 04 00 00 00 fc b2 82 3c
       0.01895988 0.008918763 6e-45 0.015954487
0003f0 00 00 00 00 04 00 00 80 08 2f 9c 3c 04 00 00 00
       0.0 -6e-45 0.019065395 6e-45

exp_avg_sq f4 [16, 32]
000000 e1 c5 5a 39 4a ff 9f 39 00 00 00 00 f4 01 00 00
       0.00020863816 0.00030517048 0.0 7e-43
000010 8c 8c b0 39 2e eb 93 39 bc e1 d4 39 e0 39 86 3a
       0.00033674052 0.00028213247 0.00040603976 0.0010240637
000020 6d 5d 19 38 49 13 5f 39 f4 01 00 00 8e 64 87 3a
       3.6565052e-05 0.00021274122 7e-43 0.001032965
000030 c6 de 85 38 68 15 80 34 c7 3d 8b 3a 1c f8 2d 39
       6.383429e-05 2.3857433e-07 0.001062327 0.00016590994
000040 f4 01 00 00 f4 01 00 00 fe 72 2d 37 f4 01 00 00
       7e-43 7e-43 1.0338377e-05 7e-43
000050 e1 43 d3 39 f4 01 00 00 4b fb af 3a f4 01 00 00
       0.0004029563 7e-43 0.0013426332 7e-43
000060 69 fc 01 39 48 dd 76 39 f4 01 00 00 77 62 fc 39
       0.00012396429 0.00023542822 7e-43 0.00048138548
000070 f4 01 00 00 f4 01 00 00 f9 05 99 39 00 00 00 00
       7e-43 7e-43 0.00029186884 0.0
000080 c0 d8 1d 39 62 47 ab 39 f4 01 00 00 f4 01 00 00
       0.00015053432 0.00032668846 7e-43 7e-43
000090 a0 13 02 3a f5 f5 f1 3a 1e eb 03 3a 9f ff 90 3a
       0.0004962031 0.0018460142 0.00050322886 0.0011062509
0000a0 e6 72 c2 38 8a db 66 39 f4 01 00 00 6f db df 3a
       9.2720424e-05 0.00022016294 7e-43 0.0017078946
0000b0 e7 47 03 39 9a 21 2f 33 e1 60 48 3a 96 d8 76 39
       0.00012519919 4.0775923e-08 0.00076438306 0.00023541073
0000c0 f4 01 00 00 f4 01 00 00 30 7f 8b 39 f4 01 00 00
       7e-43 7e-43 0.00026606908 7e-43
0000d0 be 53 14 39 f4 01 00 00 81 bd f7 3a f4 01 00 00
       0.00014145576 7e-43 0.0018901081 7e-43
0000e0 a2 ff d6 39 84 75 72 39 f4 01 00 00 e1 1d 0a 3a
       0.00041007722 0.00023122696 7e-43 0.00052687345
0000f0 f4 01 00 00 f4 01 00 00 7d 9d d5 39 f4 01 00 00
       7e-43 7e-43 0.00040743864 7e-43
000100 da 68 b7 39 26 01 dd 3a 00 00 00 00 f4 01 00 00
       0.000349826 0.0016861304 0.0 7e-43
000110 b7 41 49 3a 26 a0 cf 3a 6b 46 bf 3a c9 c5 26 3b
       0.0007677334 0.0015840575 0.001459313 0.002544748
000120 8f 81 82 38 be b6 98 3a f4 01 00 00 7d aa a2 3a
       6.223015e-05 0.0011651141 7e-43 0.0012410429
000130 b0 c0 4d 38 56 e4 c9 37 9c e0 15 3b 20 a7 d1 39
       4.9055263e-05 2.4067394e-05 0.0022869473 0.00039988104
000140 f4 01 00 00 f4 01 00 00 8e 83 43 39 f4 01 00 00
       7e-43 7e-43 0.00018645657 7e-43
000150 df f8 d5 3a f4 01 00 00 3b 14 13 3b f4 01 00 00
       0.001632478 7e-43 0.0022442478 7e-43
000160 ea 7c 8d 39 b2 d8 5c 3a f4 01 00 00 c2 b9 4d 3a
       0.00026986684 0.0008424624 7e-43 0.00078478095
000170 f4 01 00 00 f4 01 00 00 0d d1 15 3a f4 01 00 00
       7e-43 7e-43 0.000571505 7e-43
000180 e5 83 eb 39 c4 73 e2 3a f4 01 00 00 f4 01 00 00
       0.00044920962 0.0017276932 7e-43 7e-43
000190 73 73 0b 3a 17 d9 a9 3a 54 f8 fe 3a d8 2e 23 3b
       0.00053196325 0.0012958375 0.001945267 0.0024899747
0001a0 43 f5 73 38 52 16 3a 3a f4 01 00 00 53 9e a2 3b
       5.8164132e-05 0.0007098663 7e-43 0.0049627214
0001b0 7a 86 04 3a e7 99 e3 36 a6 53 f6 3a a0 e1 dc 39
       0.0005055439 6.783044e-06 0.001879324 0.00042129774
0001c0 f4 01 00 00 f4 01 00 00 c6 44 6b 39 f4 01 00 00
       7e-43 7e-43 0.00022436967 7e-43
0001d0 8b 7b f0 38 f4 01 00 00 16 b1 ca 3b f4 01 00 00
       0.000114671035 7e-43 0.006185661 7e-43
0001e0 7e 02 84 39 81 64 04 39 f4 01 00 00 f5 ff 9e 3a
       0.0002517886 0.00012625942 7e-43 0.0012130724
0001f0 f4 01 00 00 f4 01 00 00 c2 98 f5 3a f4 01 00 00
       7e-43 7e-43 0.0018737542 7e-43
000200 a9 59 42 38 cc 93 45 3a f4 01 00 00 f4 01 00 00
       4.6336707e-05 0.0007536977 7e-43 7e-43
000210 e7 5e 99 3a 8f 6d f1 3a 4e 65 a7 3a 22 e1 8e 3a
       0.0011701257 0.0018419492 0.001277128 0.0010900835
000220 96 19 54 39 b9 0c 14 3a 00 00 00 00 4a 9b 5d 3a
       0.00020227427 0.0005647648 0.0 0.0008453621
000230 72 9e 6b 38 c8 e7 d1 35 e3 7c e9 3a 27 7c 51 39
       5.617593e-05 1.5639171e-06 0.0017813708 0.00019978044
000240 f4 01 00 00 f4 01 00 00 43 4e 78 39 f4 01 00 00
       7e-43 7e-43 0.00023680278 7e-43
000250 3d 2c ee 39 f4 01 00 00 37 69 a1 3a f4 01 00 00
       0.00045427858 7e-43 0.0012314682 7e-43
000260 5b 7e c2 39 f9 07 bb 39 f4 01 00 00 69 74 7e 3a
       0.00037096706 0.0003567336 7e-43 0.00097066775
000270 00 00 00 00 f4 01 00 00 5f f3 ec 39 00 00 00 00
       0.0 7e-43 0.00045194753 0.0
000280 dd 9e 2c 3a 9b 11 31 3a f4 01 00 00 f4 01 00 00
       0.0006584952 0.00067546376 7e-43 7e-43
000290 0f 4a c5 39 b0 23 be 39 00 48 0b 3a a2 c9 8a 3a
       0.00037629946 0.00036266213 0.0005313158 0.0010588656
0002a0 33 66 53 39 55 53 a1 39 f4 01 00 00 2a 04 12 3b
       0.000201606 0.000307704 7e-43 0.0022280314
0002b0 e1 75 4b 39 03 9b 38 38 8e a1 fd 3a ca e4 63 38
       0.00019403502 4.4013384e-05 0.0019350515 5.4334094e-05
0002c0 f4 01 00 00 f4 01 00 00 b5 29 b6 37 f4 01 00 00
       7e-43 7e-43 2.1715512e-05 7e-43
0002d0 18 2d 89 3a f4 01 00 00 66 58 e7 3a f4 01 00 00
       0.001046571 7e-43 0.0017650246 7e-43
0002e0 6b 54 d9 39 f9 f9 0d 3a f4 01 00 00 e6 11 ab 3a
       0.00041452362 0.0005415972 7e-43 0.0013051599
0002f0 f4 01 00 00 f4 01 00 00 38 5d 1f 3a f4 01 00 00
       7e-43 7e-43 0.00060792593 7e-43
000300 30 ae 20 39 1f bd db 38 f4 01 00 00 f4 01 00 00
       0.00015323679 0.0001047796 7e-43 7e-43
000310 05 bb 81 38 b7 25 1c 38 37 e3 f7 38 13 f2 10 39
       6.1860344e-05 3.7228423e-05 0.000118202 0.0001382309
000320 9b 32 6a 37 7d 28 2f 38 f4 01 00 00 1c 87 48 39
       1.3959269e-05 4.176096e-05 7e-43 0.00019123818
000330 51 76 d8 37 a4 48 28 37 da 72 7f 39 e6 11 1d 36
       2.5804302e-05 1.0030493e-05 0.0002436148 2.3405241e-06
000340 f4 01 00 00 f4 01 00 00 89 0f 13 36 f4 01 00 00
       7e-43 7e-43 2.191375e-06 7e-43
000350 39 5f 56 39 f4 01 00 00 9f 7d 1c 39 f4 01 00 00
       0.00020444104 7e-43 0.00014924117 7e-43
000360 b7 a7 6b 38 dd 7e c9 38 f4 01 00 00 57 8f 33 39
       5.6184563e-05 9.608057e-05 7e-43 0.00017124169
000370 f4 01 00 00 f4 01 00 00 78 3b 03 39 00 00 00 00
       7e-43 7e-43 0.00012515287 0.0
000380 15 07 06 3a ce 75 2a 3a 00 00 00 00 f4 01 00 00
       0.00051127496 0.00065025396 0.0 7e-43
000390 12 f1 48 3a 85 62 46 3b 82 0d db 3a 86 b5 f9 3a
       0.0007665317 0.0030271125 0.00167124 0.0019051291
0003a0 ae d8 bc 38 d7 83 fd 39 00 00 00 00 3b 7b f9 3a
       9.004898e-05 0.0004835415 0.0 0.0019033918
0003b0 c8 d1 ba 39 07 a2 8f 37 1b ae 78 3a e4 c4 b7 39
       0.00035632984 1.7122378e-05 0.0009486393 0.00035051175
0003c0 f4 01 00 00 f4 01 00 00 7b db fa 39 f4 01 00 00
       7e-43 7e-43 0.00047847242 7e-43
0003d0 71 3d 20 37 f4 01 00 00 34 7f 13 3b f4 01 00 00
       9.551049e-06 7e-43 0.002250624 7e-43
0003e0 7a b8 3a 3a c9 2b e2 38 f4 01 00 00 bc 20 56 3a
       0.0007122826 0.000107846754 7e-43 0.000816833
0003f0 00 00 00 00 f4 01 00 00 3c 49 c2 3a f4 01 00 00
       0.0 7e-43 0.0014822851 7e-43

exp_avg f4 [16]
000000 ec 5e 38 bc a9 2f 51 3b a9 97 cd bc 40 a2 0e bd
       -0.0112531 0.0031919277 -0.025096731 -0.034822702
000010 48 f7 66 bc 7c 7c fd bb 31 e3 6f bc 8b aa ab 3d
       -0.014097042 -0.007735787 -0.014641569 0.08382138
000020 d7 37 17 bd 04 00 00 00 04 00 00 00 7d 9e c4 3d
       -0.036918487 6e-45 6e-45 0.09600542
000030 bc 76 1a bd df c9 64 3d 37 72 1f bc 18 29 b5 39
       -0.03771089 0.05585658 -0.009731821 0.00034553627

exp_avg_sq f4 [16]
000000 b2 62 3f 3c 5e fe 94 3c 53 53 3c 3d 5c 15 3a 3d
       0.011681246 0.018187698 0.0459779 0.045430526
000010 40 63 ba 3c f5 fd f3 3c eb 7f 79 3c 2c f0 ea 3c
       0.022752404 0.029784182 0.015228252 0.028678976
000020 ed 75 e8 3b f4 01 00 00 f4 01 00 00 80 7d 39 3d
       0.007094136 7e-43 7e-43 0.0452857
000030 45 34 a6 3c fe 70 0f 3d 04 c3 3f 3c 41 9d 41 3c
       0.020288596 0.035019867 0.01170421 0.011817277

exp_avg f4 [3, 16]
000000 74 44 01 bb 18 42 76 38 52 21 85 39 53 50 f7 38
       -0.001972464 5.8712525e-05 0.00025392562 0.00011792839
000010 92 2a 50 ba 1d 37 39 3a 83 ed 00 38 a1 32 bd 38
       -0.0007940914 0.00070654025 3.0738778e-05 9.021653e-05
000020 99 f7 a4 3a 04 00 00 80 04 00 00 00 fb d8 af 39
       0.0012585997 -6e-45 6e-45 0.00033540264
000030 06 85 85 bb f4 18 4f 3a 0e 0d 6a bb 0f f7 57 3a
       -0.0040746955 0.00079001416 -0.0035713348 0.0008238414
000040 f0 76 46 39 6c 44 6c 38 13 f6 fc b8 f5 25 8f b9
       0.00018927059 5.6330508e-05 -0.00012062131 -0.00027303366
000050 d3 6d ea 3a 17 ab 94 39 11 25 89 b9 71 80 43 ba
       0.0017885513 0.00028356232 -0.00026158293 -0.0007457799
000060 44 b1 3f ba 04 00 00 00 04 00 00 00 59 7f 37 3a
       -0.00073124864 6e-45 6e-45 0.0006999872
000070 91 48 aa 3a 10 26 d7 37 49 27 89 39 f0 0f bd 3a
       0.0012991597 2.5647721e-05 0.00026159946 0.0014424305
000080 0e ba e9 3a 04 42 f1 b8 62 c7 0b b9 dc a3 22 39
       0.0017831938 -0.00011504072 -0.00013330349 0.00015510566
000090 87 58 82 ba 4c c6 81 ba 97 0f 72 39 25 da 2b 3a
       -0.0009944596 -0.0009901016 0.00023084726 0.00065556384
0000a0 ec 3d 0a ba 04 00 00 00 04 00 00 80 d1 b5 87 ba
       -0.00052735093 6e-45 -6e-45 -0.0010353868
0000b0 d6 e5 35 3b 16 d2 55 ba 2e e8 58 3b b9 85 14 bb
       0.00277554 -0.00081566104 0.0033097374 -0.0022662713

exp_avg_sq f4 [3, 16]
000000 28 94 2e 39 40 ad 8d 37 61 fc f8 36 07 58 15 37
       0.00016649126 1.6889186e-05 7.4203567e-06 8.9015875e-06
000010 d5 48 e6 36 db 5e 72 36 e6 ff 5e 34 ae cb c0 37
       6.863013e-06 3.6116023e-06 2.0768456e-07 2.298303e-05
000020 22 b5 31 38 f4 01 00 00 f4 01 00 00 c6 5e 86 37
       4.236878e-05 7e-43 7e-43 1.6018177e-05
000030 59 02 79 39 0a c0 66 37 d1 ca 91 38 fc 87 ec 37
       0.00023747365 1.3753781e-05 6.951916e-05 2.8196715e-05
000040 5a 1d d8 37 37 a2 e8 35 81 50 6c 36 7b 93 f7 35
       2.5762874e-05 1.7332558e-06 3.52136e-06 1.8445857e-06
000050 59 d5 83 37 1a 8b 91 37 18 5b 2c 36 fa 35 90 37
       1.5715765e-05 1.7350121e-05 2.568302e-06 1.7191272e-05
000060 89 ba db 37 f4 01 00 00 f4 01 00 00 2f f3 ce 36
       2.6193697e-05 7e-43 7e-43 6.1675887e-06
000070 2e ba 17 37 86 36 1a 36 5d e1 cf 35 bd ef 62 38
       9.04365e-06 2.2979525e-06 1.5488291e-06 5.4105873e-05
000080 95 08 36 39 ce 7b 83 37 a6 a2 36 37 96 86 30 37
       0.0001736007 1.5674068e-05 1.0885915e-05 1.0521753e-05
000090 f6 15 b5 37 da 68 9d 37 0e 79 32 36 05 ec 1e 38
       2.1587108e-05 1.8764684e-05 2.659453e-06 3.7889946e-05
0000a0 38 6a 8c 38 f4 01 00 00 f4 01 00 00 2e 48 6b 37
       6.695505e-05 7e-43 7e-43 1.4023897e-05
0000b0 8e 15 7b 39 d6 b8 53 37 97 48 8f 38 ec 1f 96 38
       0.00023945255 1.26196155e-05 6.832292e-05 7.158503e-05

exp_avg f4 [3]
000000 23 2e 1c bb 85 b7 9f 3b b4 40 23 bb
       -0.002383121 0.004874172 -0.0024910392

exp_avg_sq f4 [3]
000000 dc d2 a1 3a 3a 55 fe 39 4d 20 c1 3a
       0.0012346166 0.00048510154 0.0014734358

loss f8 []
000000 9a 99 39 ed 0e 1b af 3f
       0.0607533135014819
