6_no_regu_epoch_edge_detector.pth (torch, 25353 bytes, 19 tensors)

model.0.weight f4 [32, 25]
00000000: 76bf a9bd adf7 babd ed3e 85bd d3af 61bd
00000010: 8068 13bd d741 97bd 6a2b d5bd f539 d9bd
00000020: 99c3 b3bc 550b 90bc 6f8a a4bd 139b b5bd
00000030: dedc acbd 99f0 993c 74c5 43bc 5749 99bd
00000040: df93 cebd d2a7 a4bd 532e 2abc f306 51bd
00000050: 7292 4dbd 0920 95bd 9c84 79bd 109a 04bd
00000060: a80a 0abd b46f 7dbd 4ad2 0e3e 71e7 733e
00000070: d3c2 233e 797a 2c3d 9e01 93be 84f2 603c
00000080: 2e1a 1b3f 0e0a bc3e 6946 a1be bf46 22bf
00000090: 1314 d3be 4e2f 833f 0367 95be 2e25 28bf
000000a0: ed32 fbbe 916a 113e a756 573f 398f 873e
000000b0: 8c3b 07bf 160a c03d 86f9 97bd e835 ca3d
000000c0: f1a0 aebd f639 3ebe ddfe 53bd 4417 16bd
000000d0: 4de3 67bc 5852 39be b3db 84bd 1a29 97bd
000000e0: 7830 83bd cf24 98bd 18ec 3bbe 5557 2bbd
000000f0: b1d5 03be e2b9 19be 3e0c 36be 82e8 5dbe
00000100: 990e 0cbe f430 17be b529 54be 06ef 7cbe
00000110: 9571 91be d0c6 6dbe 4c9a 53be bbdf 8cbe
00000120: 7b16 6dbe 77cf 84be f265 83be 0b7e c43e
00000130: 18b5 3e3e 865f 423d c311 1c3e e9cd c63e
00000140: 0b05 f73e 0734 39be 7d8f 14bf 82f9 45be
00000150: c761 043f 72af 303f 7b8d 33bf 3d2b 55bf
00000160: 5b4a 31bf 599f 293f 31cb 963e 179a 27be
00000170: 7b4b 54be 025b 87be 8e24 063e 0098 5fbd
00000180: 7ba4 0fbe 5797 4dbe 5eab cdbd e6c8 aebd
00000190: 5dbf b3bc dfa2 c7bc cb4c f53d 1041 16be
000001a0: e95f 543e 09fc 383c a7a4 8c3e 9990 8f3d
000001b0: f2e8 30bf d350 1e3f 548a 5ebe 65eb 373f
000001c0: f6a7 b2be b262 e0bf 1282 bd3d 1076 35ba
000001d0: 21d8 9c3e 66cc 973d c1b4 b9be fecd 083f
000001e0: 7d5a 34be 3316 f13d e0be 253e 242a 89be
000001f0: 4e10 03be 887a 24bc 5eb8 07bd 542c acbd
00000200: 1988 2f3e 7bc5 93bd d21b 85be 6981 463e
00000210: 59d4 b93e 3075 203e 42ae 74be 88c0 243d
00000220: 72b0 ff3e 7c52 663f 239e 2e3e 3dd1 44be
00000230: 282f 6fbe 3d7f 4abf c13a 50bf af97 85bf
00000240: fc9a 00bf 9cc6 0d3e 1a4f 893e c879 9e3e
00000250: 37db 1a3e bffb 35be 9419 78bd 9af3 e8bd
00000260: 8ea7 c0bd 7bc1 97bc 6b1f 9dbc 5f94 b3bc
00000270: 75a2 3bbe 1c23 7dbe 8229 88bd 2d3f 16bd
00000280: fb67 68bd 53f7 07bd 066e d93d a608 08be
00000290: 0d80 3bbe 1c8b 02be 9ddb 0bbd dfde 853c
000002a0: 1fce 10bd c072 c2bd ae43 acbd bdef 23bd
000002b0: 11f5 0c3c d902 0ebd 38f3 6dbd ab4d 81bd
000002c0: 2c36 f7bd 0966 50be 5820 87be 7f89 263d
000002d0: af6e b1bd cc97 9cbd 9083 efbe 19c7 edbe
000002e0: 8819 b0bc e1c6 07be 1728 5ebc 2e33 d1be
000002f0: abc4 0fbe ea9d 373e 8511 01be 0fb9 2bbe
00000300: c4ab 09bf d893 9cbe a1ae 273d 99f5 4cbe
00000310: 5d8c 89be c125 f5be c565 33be b045 0fbd
00000320: bc41 b9bd 3c6f 373e 5400 473e bb11 6dbd
00000330: 22c0 333d d332 39bc 7bbf 933d 5ca7 86be
00000340: 8041 de3e 837f 563e 29ca 323e 0401 b5bd
00000350: cbd6 edc0 5666 15bf 8b15 273d 86cb 1c3e
00000360: 648c 99be 4ae9 afbf b63f 3dbf 2e4e e4bc
00000370: d642 73be 47ac 6bbe 56d1 59bf 7cdf a5be
00000380: cab6 8a3c 2829 24bd 8203 93bd 74d6 ddbd
00000390: 55cd 25be 0787 1dbe 3b92 ebbc 7a4a 053d
000003a0: 331b 16bd 6086 45be 87ba 3cbe 6bed c5bc
000003b0: 4799 ac3d 5413 a2bd 0bc8 78be 9816 39be
000003c0: ae30 86bc a8e6 383d 689a cbbd 8fe5 5bbe
000003d0: 75c8 1cbe 2410 1a3d 0bb2 903c 5e2e 90bd
000003e0: 0ffd 23be 8012 3bbe 5200 563e b667 af3e
000003f0: 74f1 0a3f 91e2 883e 6a52 da3d e4d6 bb3d
-0.082884714 -0.09129272 -0.06506143 -0.05509932 -0.03598833 -0.07385605 -0.10408671 -0.106067576
-0.021943854 -0.017583529 -0.080342166 -0.08867469 -0.084405646 0.018791484 -0.011948932 -0.074846916
-0.10086798 -0.08039822 -0.010387021 -0.051032018 -0.05018849 -0.07281501 -0.06091748 -0.032373488
-0.03370157 -0.061874107 0.13947406 0.23818757 0.15992288 0.042108987 -0.2871217 0.013729695
0.6058682 0.3672642 -0.3149903 -0.633892 -0.41226253 1.0248811 -0.29180154 -0.6568173
-0.4906229 0.14200808 0.84116596 0.26476458 -0.52825236 0.09376924 -0.0742064 0.09873563
-0.08526791 -0.18576798 -0.05175673 -0.03664328 -0.014153314 -0.18097818 -0.06487217 -0.073808864
-0.06405729 -0.07428896 -0.18351781 -0.041831333 -0.12874486 -0.15012315 -0.17778108 -0.21670726
-0.13677444 -0.14764768 -0.20719035 -0.24700555 -0.2840697 -0.23220372 -0.20664328 -0.27514443
-0.23153107 -0.25939533 -0.25663716 0.38377413 0.1862377 0.04745438 0.1524115 0.38828972
0.48246035 -0.18086253 -0.58031446 -0.19333461 0.51711696 0.6901771 -0.7013776 -0.832691
-0.6925408 0.6625877 0.29451898 -0.16367374 -0.20731919 -0.2643662 0.13099882 -0.054588318
-0.14027588 -0.20077263 -0.10042451 -0.08534412 -0.021941835 -0.024369655 0.11977538 -0.14673257
0.20739712 0.011290559 0.2746937 0.07010002 -0.69105446 0.6184208 -0.21732455 0.7184356
-0.3489377 -1.753012 0.092533246 -0.0006922195 0.30633643 0.07412033 -0.36270717 0.5343932
-0.17612644 0.11771812 0.16186094 -0.26789963 -0.12799188 -0.010038979 -0.03313481 -0.084068924
0.17141761 -0.07215401 -0.25997788 0.19385304 0.3629482 0.15669703 -0.23894599 0.040222675
0.49939305 0.8996961 0.17052512 -0.19220443 -0.23357832 -0.791004 -0.8133965 -1.0436915
-0.5023649 0.13845295 0.26818162 0.30952287 0.15122686 -0.17771815 -0.06057127 -0.11374588
-0.094069585 -0.018524876 -0.01918002 -0.021921335 -0.18323691 -0.24720424 -0.06648542 -0.036681343
-0.05673979 -0.03319485 0.106166884 -0.13284549 -0.18310566 -0.12748379 -0.034144986 0.016341625
-0.035352822 -0.09494543 -0.084113464 -0.040023554 0.00860335 -0.034670684 -0.05809328 -0.06313642
-0.12070879 -0.20351423 -0.26391864 0.04065847 -0.08663689 -0.076461405 -0.46780062 -0.46440962
-0.02149655 -0.1325946 -0.013559363 -0.4085936 -0.14039867 0.17931333 -0.1260434 -0.16769813
-0.5377772 -0.30581546 0.040938023 -0.20015563 -0.268649 -0.47880366 -0.17519291 -0.03497857
-0.09045741 0.17913526 0.19433719 -0.057878237 0.043884404 -0.011303621 0.072142564 -0.2629956
0.43409348 0.2094708 0.1745993 -0.08838084 -7.43247 -0.5835928 0.04079203 0.15312013
-0.29989922 -1.3743069 -0.7392534 -0.02786931 -0.23755965 -0.23014937 -0.85085046 -0.32397068
0.016932864 -0.040078312 -0.071784034 -0.10831919 -0.16191609 -0.1538354 -0.028756252 0.03254173
-0.036647033 -0.19289541 -0.1843053 -0.024161061 0.08427673 -0.07913843 -0.2429506 -0.18075025
-0.016380634 0.045141846 -0.0994156 -0.21474288 -0.15310843 0.03761305 0.017663023 -0.07040094
-0.16014503 -0.18268776 0.2089856 0.34258813 0.5427468 0.26735356 0.106602505 0.091718465

model.0.bias f4 [32]
00000000: ece3 bdbc 9c6d 53bc 5eb0 8e3d e848 1bbd
00000010: d679 043e 253b 2bbd eefc dbbc c594 473e
00000020: 9260 d93d 0a61 5dbd 4826 81bc 2a10 18bc
00000030: fc7a fdbd 43e1 f23c 66cd 22be dcf9 c2bb
00000040: 11dd 693d 72ce b43e 5f8b 14bd 5f10 cbbb
00000050: b090 303d f624 08be 55d9 61bd 6b1e a33e
00000060: 3306 d63d fa35 2a3e 1c11 873e 4eb1 e13d
00000070: 1650 65bb 5473 5abc 5f0a abbc 6576 22bd
-0.02317997 -0.012904551 0.06967233 -0.037911326 0.12937102 -0.04180445 -0.026854005 0.19490345
0.106141225 -0.05404762 -0.015765324 -0.009281198 -0.12376973 0.029648429 -0.15898666 -0.0059501957
0.05709559 0.35313755 -0.036265727 -0.00619702 0.043106735 -0.1329535 -0.055138905 0.31859145
0.10450401 0.16622153 0.2638024 0.11020146 -0.0034990362 -0.01333316 -0.020878969 -0.03966369

model.2.weight f4 [16, 32]
00000000: 2766 533d 718a d2be df1f 1cbd 947f 313f
00000010: c7ad 39bd 5389 bebe 2f2b 10be baf2 723e
00000020: cd36 953f bc88 543b 9956 1f3f 3140 703b
00000030: 0b4f 233f 1154 dcbe aa8f 303f ce5f e0be
00000040: b638 9d3f b16a 02be af6c 64bf 169b 283c
00000050: 6956 d03e 7761 d63e 627b 0a3e b27f 583e
00000060: d82f 8bbe f125 8d3f 9aca 6ebe e61f 5c3e
00000070: 9032 86be 0b2a 3bbc e2cb b73a 3d20 3abc
00000080: 5442 f73c 5021 b33e 6a6d 543d b254 eabe
00000090: 2a40 66be 661f 203f 98fe 983c fac6 66bd
000000a0: b347 fbbe daac 863b a793 0fbf b6fa 68bd
000000b0: 9b5a 0dbe 191a 613f eeff 0abf 0b2f 343f
000000c0: 409c 8ebf 009e 473f 19d3 49bf 7c69 54bd
000000d0: bad7 99bf 9bb4 f8bd 4110 27bf c94c cdbe
000000e0: 5c34 fc3e 7f03 7ebe f65d 303f bea1 f7bf
000000f0: 35f7 093f b50a 0abc 271b cf3a 77f9 39bc
00000100: 1a6c e4bb af71 21bf 0b72 afbd 8581 15bf
00000110: 778d 9d3e 0c52 c33e 1a22 7cbd 8ea6 eebd
00000120: 6ee7 45bf 31e9 533a 2a9a c4be 4a25 13bc
00000130: 5447 eebe 9da1 6bbd b50f 48be f8e8 c13e
00000140: 9c3c 52bf b84b 273f aab6 2a3f 393e 163d
00000150: f62f 80be 665a 07bf 1eba e4be 977f babc
00000160: 3b7b d73e 2731 f2bd e6f0 a33e eab1 38be
00000170: f249 fa3e 3815 28ba 309c a83b 9836 c93a
00000180: 8d57 1f3d 4fb9 ab3e aeb2 133e ee66 413f
00000190: fa68 fc3d 1d74 83bf e24a ba3b b9e4 833e
000001a0: 483c 403f 67d4 1b3e 383c bd3e 3226 faba
000001b0: 7787 34bf 8f97 84be 7e3b 093e 3564 b2be
000001c0: 3b79 353f 8831 65be ea69 d5bf a5c9 a9bd
000001d0: 269a 933e 950a 93be 45cc 653f 753f 1a3f
000001e0: 8510 45be 2341 d23d e080 9ebe 3bea 423f
000001f0: 9a31 46bf 8ce1 ffba 99e5 91ba 2dcc 1cbd
00000200: 6ebe 0abd 94e6 cdbe c735 c73f 87fb c33e
00000210: c6e3 6c3e e711 a8be 3177 5f3e bad5 cc3e
00000220: e766 663f 932e 06be 69d0 6dbe 55d6 d2bc
00000230: d213 8abe a5f1 933e 6b4e ddbc 55d9 d7be
00000240: ea8c ab3f 298b 573f 3a73 f4bd 52e2 13bc
00000250: d009 2c3f 62e3 593e 1de2 ea3d 85ce 513f
00000260: 31b5 35bd 9039 9c3f ad5f da3e 4aad 573f
00000270: d410 94bc e304 57bb fac9 86ba c816 283d
00000280: e6df 74bc 1163 debe 32fb c23d 9f12 c9bd
00000290: 83d8 0ebe bd53 babe e268 573d 3030 1c3e
000002a0: 6a55 383f 1993 7f3d 422a c3be 8a18 29bb
000002b0: de48 14be be04 793e 919e 303e 66c2 c6bf
000002c0: afa0 243f b383 2f3e 0c46 c3bf 3870 aabd
000002d0: 4267 7a3e 7edf e8be 7a7a 63bf 1724 323f
000002e0: eee4 97be bb4a bd3e 4cae b5bd 600c ba3e
000002f0: 8881 99bf e10c 923b 6fa6 d6bb fbf1 5ebd
00000300: 9429 21bd 239b 8bbf 1cb5 56bd 0180 10bf
00000310: d93f c63e 84de 02be 9a37 98bd bb49 b9bd
00000320: 3015 b6be 5fba c0bc 6baf f0be c41f d53b
00000330: 2b4a f0be 147d 8cbe 0c72 f0bd 7805 513e
00000340: 4190 8cbf 2f0e 76be fcbc 603f 4968 fc3c
00000350: 9330 b5be 56aa 5ebe ee3b 42be 4720 5abe
00000360: 3eca 233f b43c 193d db84 1bbe c1b1 31be
00000370: 0f0f cd3e 06fc 903b 95a4 a4bb 0785 1dbc
00000380: ecec f2bb 756a 03bf 2ef7 99bd 7a14 eebe
00000390: 6d60 a73e 22f5 34be 0253 b737 849f c6bd
000003a0: 79f8 cbbe cef9 5ebd 6566 7dbe 34a1 febb
000003b0: 652c 00bf b683 11be 0e5a 52be 350b 1d3f
000003c0: 756d 80bf 477f 1cbe c9c4 453f 5399 2a3d
000003d0: 88ab 9cbe 2162 f1be 5101 2dbf 640e cfbc
000003e0: 6f88 183f 0781 57be 7227 1b3d c772 7ebe
000003f0: 77d2 933e 7486 16bc c656 a7bc 7b80 dcba
0.051611092 -0.41121247 -0.038116332 0.69335294 -0.045331743 -0.37214145 -0.14078973 0.23725405
1.1657349 0.0032430133 0.6224151 0.0036659355 0.63792485 -0.43032888 0.68969214 -0.43823093
1.2282932 -0.12736012 -0.8922834 0.010290882 0.40690926 0.41871235 0.1352363 0.21142462
-0.2718494 1.1027204 -0.23319474 0.21496543 -0.2621045 -0.011423598 0.0014022554 -0.011360225
0.030182995 0.34986353 0.051862158 -0.45767742 -0.22485414 0.6254791 0.018676087 -0.056342103
-0.4907814 0.004109961 -0.56084675 -0.05687972 -0.13804094 0.87930447 -0.5429677 0.7038428
-1.1141434 0.77975464 -0.78837734 -0.05185841 -1.201896 -0.12143823 -0.65259176 -0.40097645
0.49258697 -0.24806021 0.68893373 -1.9346235 0.53892833 -0.008425404 0.0015800939 -0.011350981
-0.0069708945 -0.6306409 -0.08566674 -0.58400756 0.30771992 0.38148534 -0.06155596 -0.116528615
-0.7730626 0.00080837595 -0.38398868 -0.008981058 -0.46538794 -0.057527173 -0.19537242 0.37873054
-0.8212373 0.6534991 0.66684973 0.036680434 -0.2503659 -0.5287231 -0.44673246 -0.022765918
0.42086205 -0.11825781 0.32019728 -0.18036619 0.4888454 -0.0006411853 0.005145572 0.0015351353
0.038901854 0.33539817 0.1442363 0.75547683 0.1232471 -1.026981 0.0056851963 0.2576044
0.7509198 0.15217744 0.36960006 -0.001908487 -0.705192 -0.2589688 0.134016 -0.34842077
0.7088811 -0.22382176 -1.6672947 -0.08290414 0.28828543 -0.2871901 0.89764816 0.6025308
-0.19244583 0.1026633 -0.309577 0.7613866 -0.77419436 -0.0019522174 -0.0011131048 -0.038280655
-0.033873014 -0.4021498 1.5563287 0.38277838 0.23133764 -0.32826158 0.21822812 0.4000681
0.90000767 -0.13103704 -0.23224033 -0.025736967 -0.26968247 0.28895298 -0.027014932 -0.42158
1.3402379 0.84196717 -0.1193604 -0.009026127 0.6720247 0.21278146 0.11468909 0.8195575
-0.04436225 1.2205067 0.4265112 0.84248793 -0.01807443 -0.003280931 -0.0010283582 0.04103735
-0.01494596 -0.43434957 0.09520568 -0.09818005 -0.1394978 -0.36392012 0.05259026 0.15252757
0.7200533 0.062396143 -0.38118178 -0.002580198 -0.14480922 0.24318215 0.17247988 -1.5528076
0.64307684 0.17140083 -1.5255752 -0.08322185 0.24453452 -0.4548301 -0.8885876 0.6958632
-0.29666847 0.36971077 -0.08871135 0.36337566 -1.1992655 0.0044571017 -0.006550602 -0.05442999
-0.039346293 -1.0906719 -0.052418813 -0.5644532 0.38720587 -0.12780195 -0.0743248 -0.09047266
-0.3556304 -0.023526369 -0.47008833 0.006504031 -0.46931586 -0.27439177 -0.11740503 0.20412242
-1.0981523 -0.24028848 0.8778837 0.030811446 -0.35388622 -0.21744666 -0.18968174 -0.21301375
0.6398047 0.037411407 -0.15187399 -0.17352964 0.4005055 0.004424575 -0.0050245025 -0.009614236
-0.007413497 -0.51334316 -0.07517849 -0.46499997 0.32690755 -0.17671636 2.1853954e-05 -0.09698394
-0.39838007 -0.05443745 -0.24746092 -0.0077706818 -0.5006774 -0.142104 -0.20542166 0.61345226
-1.0033404 -0.15282927 0.77253395 0.041650128 -0.30599618 -0.4714518 -0.67580134 -0.025275417
0.5958318 -0.21045314 0.037879415 -0.24848472 0.2887151 -0.00918733 -0.020427119 -0.0016822958

model.2.bias f4 [16]
00000000: 4d34 233e 9caa 863c 4e70 813e d13a a43e
00000010: 12c4 77be e040 393f b4d2 463e 2d1b 6d3e
00000020: d279 5c3e 7808 abbc cc81 303e ce5e 733e
00000030: 8733 9b3e 6846 96bc 3023 d43e edb8 46bd
0.1593792 0.016438775 0.25280994 0.32076123 -0.24195889 0.72364616 0.19416314 0.23154898
0.21530846 -0.020878062 0.17237014 0.23766634 0.3031275 -0.01834412 0.41433096 -0.048516203

model.4.weight f4 [2, 16]
00000000: 305e 98bf 4796 8c3f 47dd 443f 23dc 17c0
00000010: e60b c7be 10d8 91c0 dce3 5e3f a7dd 613f
00000020: 7481 093f 8cdb db3f 5fa5 dd3e 6a36 573f
00000030: 1389 4f3f f6bc a5bc 184d f6bf c0dc 1dbb
00000040: 22b5 973f de79 8cbf 28ca 3fbf 23be 1740
00000050: 041f c93e e041 9140 997c 5fbf 5cfc 6bbf
00000060: 4c27 10bf e4c1 d8bf e17d e4be 40aa 59bf
00000070: 25f9 52bf 4810 723b e7b1 f83f 6fe3 f7bc
-1.1903744 1.0983361 0.7690014 -2.372811 -0.38876265 -4.557625 0.87066436 0.8822884
0.53713155 1.7176375 0.4329023 0.84067404 0.81068534 -0.020231705 -1.9242277 -0.0024087876
1.1852152 -1.0974691 -0.7491784 2.37098 0.39281476 4.5392914 -0.87299496 -0.92181945
-0.5630996 -1.6934171 -0.44627288 -0.85025406 -0.82411414 0.0036935974 1.9429291 -0.030259816

model.4.bias f4 [2]
00000000: 0e4c bb3c 2819 b2bc
0.022863414 -0.021740511

exp_avg f4 [32, 25]
00000000: 0400 0000 0400 0000 0400 0000 0400 0000
00000010: 0400 0000 0400 0000 0400 0000 0400 0000
00000020: 0400 0000 0400 0000 0400 0000 0400 0000
00000030: 0400 0000 0400 0000 0400 0000 0400 0000
00000040: 0400 0000 0400 0000 0400 0000 0400 0000
00000050: 0400 0000 0400 0000 0400 0000 0400 0000
00000060: 0400 0000 5380 1c3d 8d71 093d bde1 063d
00000070: 12c1 0f3d a28a 113d b3d7 243d 3296 1d3d
00000080: a77d 043d 6613 113d beb1 0d3d 85ff 203d
00000090: 12b0 0f3d 47d4 073d ebd1 0c3d c725 093d
000000a0: f4e1 f93c 4cc0 fb3c 29e6 fb3c 9db4 033d
000000b0: 5652 e43c 8698 fb3c c71e 003d 2744 053d
000000c0: dce5 0c3d 9e5c fb3c 4366 e1ae d6af 12a8
000000d0: 72c2 c9b2 8103 4db3 fc43 4db3 aab6 aeae
000000e0: c467 2195 0400 0000 0400 0080 ce98 5cae
000000f0: 33b2 aeae 0400 0000 0400 0080 0400 0080
00000100: 4f85 5dae 01f5 97ae 0400 0080 0400 0080
00000110: 0400 0080 6bea 5aae 43ea d8b1 d056 0c80
00000120: 0400 0080 0400 0080 6cae 96af 7d25 953d
00000130: 0e68 913d 0f73 8f3d e987 903d b9bf 913d
00000140: cbc6 9a3d 2ea2 953d f415 903d 78ac 913d
00000150: ae4e 8d3d 2161 943d 8e17 833d 9d24 833d
00000160: 5a2f 8a3d dc06 873d c120 5c3d 19a0 603d
00000170: 7d3e 603d 180d 693d 1977 5f3d a188 603d
00000180: 5e75 5f3d 42f4 633d 0e37 753d bfe2 5e3d
00000190: 484b c7ba 92ed d1b9 20a6 ba38 3999 11ba
000001a0: 182e 7dba 045b 14bb e73a ccba c6a6 17ba
000001b0: df05 68ba c4de 7cba 5554 28bb e9c7 39bb
000001c0: 6efe 3abb 56f8 a3ba 1875 7cba 2d46 2bbb
000001d0: f4c1 69bb 5e8b 52bb 212f 44bb d303 f3ba
000001e0: b531 58bb 435e 67bb 2c54 4bbb c03b 55bb
000001f0: b171 3fbb 3459 183b 58c9 173b e51f 173b
00000200: cf2e da3a 57f8 aa3a a9d1 8d3a 85cb 173b
00000210: 7545 d43a 2677 a73a 9107 ab3a f6d7 053a
00000220: 53d2 5039 ca0f 4aba e151 ba39 e786 b43a
00000230: 4673 3a3a 5ff8 c4b9 b3e8 03ba f6d1 90b9
00000240: 2a82 84b9 494e 7238 9f05 02ba a42d 00ba
00000250: 0d6d 86b9 3248 70b9 0400 0000 0400 0000
00000260: 0400 0080 0400 0080 0400 0080 0400 0000
00000270: 0400 0000 0400 0000 0400 0000 0400 0080
00000280: 0400 0000 0400 0000 0400 0000 0400 0000
00000290: 0400 0080 0400 0000 0400 0000 0400 0000
000002a0: 0400 0000 0400 0000 0400 0000 0400 0000
000002b0: 0400 0000 0400 0000 0400 0000 4307 16af
000002c0: bdba feab f059 02b3 ce77 84b3 f9a9 84b3
000002d0: df76 deae 3817 2f9c 2225 4f23 c924 14ad
000002e0: cba8 c3ae b16a deae 50f0 1f21 92c2 1126
000002f0: c276 18ad cd92 c4ae f9af c2ae 5429 b298
00000300: 89dd 5826 c873 0fab e330 89ae 562d aeb2
00000310: c484 17a8 5fd5 3ab1 078b 06b2 b27f b8af
00000320: cdae 24bc 0f90 24bc d509 23bc 2ffa c2bb
00000330: 060c 89bb c3ae ebbb d5bd 24bc de6c debb
00000340: 2309 89bb 1008 89bb 7603 c0bb 0748 92bb
00000350: 4ef1 1d35 c9a7 06bb cd19 89bb 74fc b9bb
00000360: ecbd 2aba 0400 0000 fa07 2033 35dc f536
00000370: dfbe 2abb b9d5 38b0 0400 0000 cb00 73ac
00000380: 663d 2432 0400 0000 0400 0000 0400 0000
00000390: 0400 0080 0400 0080 f106 3125 0d00 0000
000003a0: 0400 0000 0400 0080 0400 0080 6f17 bc26
000003b0: 042d 2826 0400 0000 0400 0080 0400 0080
000003c0: 6f17 bc26 c330 b626 f106 3125 0400 0080
000003d0: 0400 0000 a4d5 8f26 0d00 0000 0400 0000
000003e0: 0400 0080 0400 0080 658f 3b3d 389c 333d
000003f0: 3cb7 2c3d 8cb8 313d 5fd8 313d 6bcc 413d
6e-45 6e-45 6e-45 6e-45 6e-45 6e-45 6e-45 6e-45
6e-45 6e-45 6e-45 6e-45 6e-45 6e-45 6e-45 6e-45
6e-45 6e-45 6e-45 6e-45 6e-45 6e-45 6e-45 6e-45
6e-45 0.038208317 0.033555556 0.032930125 0.035096236 0.0355326 0.04024477 0.038473316
0.032346394 0.03541889 0.034593336 0.039306182 0.035080023 0.033161428 0.03437988 0.033483293
0.03050325 0.030731343 0.030749397 0.032154668 0.027871292 0.030712377 0.03127935 0.0325357
0.0343989 0.030683812 -1.0249981e-10 -8.142756e-15 -2.3487903e-08 -4.773347e-08 -4.7792113e-08 -7.9450516e-11
-3.2595548e-26 6e-45 -6e-45 -5.0157926e-11 -7.9442584e-11 6e-45 -6e-45 -6e-45
-5.0367984e-11 -6.9102064e-11 -6e-45 -6e-45 -6e-45 -4.9775666e-11 -6.31306e-09 -1.133168e-39
-6e-45 -6e-45 -2.7408775e-10 0.07282541 0.07099925 0.070043676 0.07057173 0.07116646
0.07557448 0.07306324 0.07035437 0.07112974 0.068997726 0.07245088 0.06400977 0.06403468
0.06747313 0.06593105 0.053742174 0.05484018 0.054747093 0.056897253 0.05455694 0.0548178
0.05455529 0.055652864 0.059866957 0.05441546 -0.0015204931 -0.0004004059 8.900114e-05 -0.0005554143
-0.00096580526 -0.0022637257 -0.0015581519 -0.0005785044 -0.00088509725 -0.0009646232 -0.0025685031 -0.0028347916
-0.0028533 -0.0012509923 -0.00096304854 -0.0026134357 -0.0035668584 -0.0032126526 -0.0029935318 -0.0018540568
-0.0032988612 -0.0035303987 -0.0031025512 -0.0032536834 -0.0029212052 0.0023246529 0.0023160782 0.0023059782
0.001664603 0.0013043982 0.001081993 0.0023162079 0.0016195016 0.0012776598 0.001304852 0.0005105728
0.00019914778 -0.0007708041 0.0003553769 0.0013773114 0.0007112514 -0.00037569084 -0.00050319283 -0.00027622253
-0.00025273982 5.7770205e-05 -0.0004959944 -0.00048896135 -0.0002563972 -0.00022915078 6e-45 6e-45
-6e-45 -6e-45 -6e-45 6e-45 6e-45 6e-45 6e-45 -6e-45
6e-45 6e-45 6e-45 6e-45 -6e-45 6e-45 6e-45 6e-45
6e-45 6e-45 6e-45 6e-45 6e-45 6e-45 6e-45 -1.3645e-10
-1.8099616e-12 -3.034978e-08 -6.168521e-08 -6.177647e-08 -1.0116507e-10 -5.793265e-22 1.1229356e-17 -8.420994e-12
-8.897557e-11 -1.01143434e-10 5.4189346e-19 5.0570673e-16 -8.666569e-12 -8.939125e-11 -8.8533576e-11 -4.6053652e-24
7.524029e-16 -5.0964484e-13 -6.238723e-11 -2.0276882e-08 -8.410973e-15 -2.718785e-09 -7.831438e-09 -3.3560138e-10
-0.010051441 -0.010044112 -0.009951075 -0.0059502344 -0.0041823415 -0.007192464 -0.010055025 -0.0067878803
-0.0041819974 -0.0041818693 -0.0058597876 -0.0044641527 5.88382e-07 -0.0020546785 -0.004183984 -0.0056758467
-0.0006513286 6e-45 3.7260158e-08 7.3272045e-06 -0.002605371 -6.724253e-10 6e-45 -3.4532817e-12
9.560017e-09 6e-45 6e-45 6e-45 -6e-45 -6e-45 1.5354655e-16 1.8e-44
6e-45 -6e-45 -6e-45 1.3051472e-15 5.8347716e-16 6e-45 -6e-45 -6e-45
1.3051472e-15 1.2642004e-15 1.5354655e-16 -6e-45 6e-45 9.980526e-16 1.8e-44 6e-45
-6e-45 -6e-45 0.04579105 0.043850154 0.042166933 0.04338889 0.04341924 0.04731409

exp_avg_sq f4 [32, 25]
00000000: a564 dc23 a564 dc23 daee ed23 bb75 c624
00000010: 6bb4 da24 a564 dc23 a564 dc23 1d43 e723
00000020: 0415 aa24 450d d924 a09c d823 21ca d723
00000030: 9937 d823 460f 8d24 96a7 d824 e0c8 db23
00000040: 85d0 d923 4e37 d823 f30e 8d24 63a7 d824
00000050: e0c8 db23 e0c8 db23 fcef da23 7bcf 6524
00000060: 63a7 d824 e165 073c 967b 063c 2981 f93b
00000070: 6446 e13b a1f8 d33b 1a55 093c e5f9 0a3c
00000080: 34d3 083c f5fb e23b 82d9 ce3b 14e9 093c
00000090: 0066 0a3c c256 143c 6ce0 ca3b 2884 bf3b
000000a0: 1f69 093c c13e 0d3c 633d 063c 8455 cd3b
000000b0: f8ae be3b 1609 073c cbf9 043c 5ea3 fa3b
000000c0: 91dd d53b f101 ca3b b3f7 db33 8bee bc33
000000d0: 941c aa33 d5e0 0532 d64d 9931 51e9 e033
000000e0: 76f7 c633 9d01 b533 9249 0a33 9cfc 6531
000000f0: 1584 df33 5ef8 8a33 7e16 e231 5ce2 5331
00000100: ce8b 3631 ecd6 1333 bfcc b132 59cc a731
00000110: 11cc 0d31 fe8e 0231 8eeb d332 8b2d bf32
00000120: 9387 d631 4145 3731 5b4d 0031 2868 3d3c
00000130: fee4 3a3c 11f7 263c 09eb 2b3c 3d50 363c
00000140: bbcb 3a3c abad 283c 2a76 0e3c b32f 203c
00000150: 56e7 2a3c 6f4b 353c 789a 143c eab6 c43b
00000160: 948b fc3b 76af 1e3c 2bd3 1e3c a22b fc3b
00000170: 8fd1 a73b 13c0 d53b ec17 023c 9bc8 083c
00000180: fee4 df3b e21b ad3b c3a4 c83b 5eb3 eb3b
00000190: 97c1 cf3a 3e33 be3a 65e4 963a af2b 713a
000001a0: b2da 623a 63e6 d53a 0fe1 c33a 4b49 8e3a
000001b0: ea8c 493a 935d 393a 7b96 da3a d752 c63a
000001c0: 2fb7 893a fa72 2b3a 0d30 323a 8abd d83a
000001d0: e35e bf3a 6235 893a 99ec 3f3a b310 373a
000001e0: 4e8e c93a 0e82 af3a 618b 873a cf20 5c3a
000001f0: f407 443a 8e3c 013b 213f 153b ae7a 263b
00000200: 93e7 2b3b a5e3 313b af5c ef3a 3465 093b
00000210: 69d6 273b 262e 333b f7ae 303b e388 de3a
00000220: c472 e93a 23ff 0a3b 3761 083b 58a3 0a3b
00000230: 055d cd3a 91c9 c23a 00b2 c13a 5873 db3a
00000240: 3287 ed3a 1b3b b73a e599 b43a a4bc b73a
00000250: a92f c43a 965d dc3a a347 2022 9bc1 171f
00000260: 591e 351b 4af5 a61b 5467 741c d9de 2a22
00000270: 5d56 2122 71a5 fa20 aacd 7622 786e d51c
00000280: 3cec 6623 4658 6723 4fd8 5923 3ca9 7620
00000290: d7c8 291f a4ed 6623 4bb2 6723 dffa a322
000002a0: b800 2522 bad0 c91f d8f7 6623 1b17 3923
000002b0: 13fe 3422 0dca 2f22 f6d5 0422 1c80 1634
000002c0: 2717 1e34 01be 8a34 881b bb34 d401 1d35
000002d0: 330c 1634 bd2b dc33 b650 1a34 07de ce34
000002e0: 5514 2635 ce55 1534 38e2 1734 473c 5432
000002f0: 82ef 5135 ae61 e935 f50d 9c33 8124 6b34
00000300: e021 4135 99ab 6e35 984b de35 4af5 8833
00000310: 19a7 7334 8851 4135 8180 b735 b5ca 1036
00000320: e7f8 e239 ca98 f339 bd84 043a a738 9239
00000330: adde 6139 2ec8 d539 59bd dc39 5caa 8539
00000340: 6d14 7839 1412 5e39 f75a d239 c598 8939
00000350: 537c 4c35 3f61 9e38 8116 1c39 3f6a 9b39
00000360: 48a1 c437 4a0c 6233 51d9 e435 7a8f 2b38
00000370: 86cd d838 0d33 2637 7d3d 6333 82ce 1c33
00000380: ee76 a137 adde 682e 535c 302e 0eff e92d
00000390: 29ef 552d becb 132d 3d7f 6f2e 4fb4 382e
000003a0: 85cc d12d 7d34 ea2c 264f b52c c5f6 732e
000003b0: 54ae 482e 2c7a c92d 3324 b62c 9438 a22c
000003c0: b9c1 712e 86d2 472e 2432 af2d 8032 e82c
000003d0: 38db b92c 5d36 472e 2a72 252e 3438 952d
000003e0: ce53 f82c c59e eb2c bac8 2e3b e3be 4d3b
000003f0: ab85 673b 8538 6c3b 5793 623b 3f7d 213b
2.3895072e-17 2.3895072e-17 2.5796749e-17 8.6068255e-17 9.484807e-17 2.3895072e-17 2.3895072e-17 2.5073494e-17
7.376135e-17 9.413123e-17 2.34851e-17 2.3395952e-17 2.3442313e-17 6.117488e-17 9.395897e-17 2.3829101e-17
2.3615499e-17 2.344219e-17 6.117433e-17 9.395863e-17 2.3829101e-17 2.3829101e-17 2.3737245e-17 4.9832202e-17
9.395863e-17 0.008264036 0.008208176 0.007614274 0.0068748463 0.006468848 0.008382106 0.008482431
0.008351136 0.0069270083 0.00631255 0.008417387 0.00844717 0.009053888 0.006191304 0.0058446117
0.008386879 0.008620919 0.008193347 0.006266298 0.0058191977 0.008241912 0.008116196 0.0076488694
0.006526657 0.006164782 1.02430384e-07 8.797823e-08 7.92144e-08 7.79274e-09 4.461735e-09 1.0473253e-07
9.2651064e-08 8.428763e-08 3.219754e-08 3.3467478e-09 1.0408272e-07 6.4713035e-08 6.5800227e-09 3.0833212e-09
2.6563955e-09 3.4421575e-08 2.069862e-08 4.8835713e-09 2.0634199e-09 1.8998771e-09 2.467075e-08 2.2256037e-08
6.2436327e-09 2.6669371e-09 1.8670423e-09 0.011560477 0.011407135 0.010190741 0.0104930485 0.011127529
0.011401112 0.010295312 0.008695165 0.009776997 0.010431131 0.011065348 0.009070031 0.0060032504
0.0077070687 0.009685388 0.009693901 0.007695631 0.005121417 0.006523141 0.007940274 0.008348609
0.006832718 0.005282865 0.0061231568 0.007193013 0.0015850541 0.0014511121 0.0011512159 0.000919993
0.0008653804 0.0016319271 0.0014944392 0.0010855583 0.00076885393 0.00070711336 0.0016676927 0.0015130889
0.0010506863 0.0006540265 0.0006797321 0.0016535979 0.0014600422 0.001046818 0.00073213276 0.00069833844
0.0015377493 0.00133902 0.0010341221 0.0008397223 0.0007477992 0.0019719931 0.0022773223 0.0025402713
0.0026230558 0.0027143743 0.0018261875 0.0020964863 0.0025609976 0.002734074 0.0026959756 0.0016978051
0.0017810692 0.0021209202 0.0020809898 0.002115449 0.0015667981 0.0014861097 0.001477778 0.0016742749
0.0018121956 0.0013979407 0.0013778774 0.0014018011 0.0014967817 0.0016812559 2.1721968e-18 3.213564e-20
1.4981775e-22 2.762091e-22 8.0866376e-22 2.315727e-18 2.186529e-18 4.2461127e-19 3.3448094e-18 1.4123713e-21
1.25183496e-17 1.2541228e-17 1.1809399e-17 2.0893005e-19 3.5953273e-20 1.2518647e-17 1.256029e-17 4.444686e-18
2.236205e-18 8.547212e-20 1.2520808e-17 1.0033763e-17 2.4529055e-18 2.3823887e-18 1.8002606e-18 1.4016445e-07
1.472332e-07 2.584275e-07 3.4851496e-07 5.848972e-07 1.3974277e-07 1.0252504e-07 1.437173e-07 3.8532036e-07
6.1869406e-07 1.3907922e-07 1.4145269e-07 1.235373e-08 7.8207097e-07 1.7388281e-06 7.266855e-08 2.189936e-07
7.19474e-07 8.8911617e-07 1.656229e-06 6.377611e-08 2.2691928e-07 7.2016746e-07 1.3671962e-06 2.1575663e-06
0.00043291526 0.00046462408 0.000505518 0.000278895 0.00021540625 0.0004077567 0.00042102745 0.00025494664
0.00023658732 0.00021178304 0.00040122095 0.00026244498 7.617684e-07 7.5521406e-05 0.00014885703 0.00029643063
2.3440123e-05 5.2630902e-08 1.7050571e-06 4.09032e-05 0.00010337964 9.906257e-06 5.290848e-08 3.6509398e-08
1.9248077e-05 5.294847e-11 4.0099767e-11 2.66023e-11 1.21607524e-11 8.401222e-12 5.445532e-11 4.1996902e-11
2.3851374e-11 6.6565074e-12 5.1531166e-12 5.547098e-11 4.562957e-11 2.290531e-11 5.17677e-12 4.6105984e-12
5.4969116e-11 4.5434344e-11 1.9917464e-11 6.599443e-12 5.2823544e-12 4.5295646e-11 3.7618055e-11 1.6964298e-11
7.057888e-12 6.6967287e-12 0.0026669935 0.0031394295 0.0035327475 0.003604443 0.0034572685 0.0024641303

exp_avg f4 [32]
00000000: 0400 0000 43d7 be3c a274 e4b4 220b 7b3d
00000010: 78d5 5e3b 54ad 303c 0400 0000 47c1 24b5
00000020: 11a2 26bd 6f17 bc26 7bce d73c 0400 0000
00000030: 0148 8b3b e074 55b8 64ea e73a 6dd3 5fba
00000040: 6bd0 f03a ea10 9c3c b16b ae3c 0400 0000
00000050: e0d0 06bc 1700 78bb feb6 38bc 6bbb 26bc
00000060: a212 01bc 74b3 18b8 8d60 39ba 1022 00bc
00000070: 1c9d 08bc 0000 0000 0400 0000 0400 0000
6e-45 0.023296004 -4.255317e-07 0.061289914 0.003400175 0.010783512 6e-45 -6.1376016e-07
-0.040681902 1.3051472e-15 0.026343575 6e-45 0.004250527 -5.0892006e-05 0.0017693755 -0.000853828
0.001837266 0.019051034 0.021291586 6e-45 -0.008228511 -0.003784185 -0.0112740975 -0.01017652
-0.007877978 -3.6406753e-05 -0.0007071577 -0.007820621 -0.008338239 0.0 6e-45 6e-45

exp_avg_sq f4 [32]
00000000: 3dbf d224 247d 883c aeb4 bf34 d13b bd3c
00000010: 6e3f 3f3b 0f66 873b 724a 6c23 022c df37
00000020: fad8 073b 168d 402f 9c54 ca3b 7c3c b011
00000030: 3c3e 0a3c 3153 943a ad06 9e3b b558 b63d
00000040: 96e3 373a 0708 593a 48a6 ee3d 70a8 f012
00000050: a162 3b39 d9c9 de3b 8881 cc3c d2be 8738
00000060: 3a59 f13b 0f62 303a 0ff8 113a 04fb 9238
00000070: 3d62 853d 0000 0000 a069 1707 71f2 2a10
9.139695e-17 0.016661234 3.5707984e-07 0.023099812 0.0029182094 0.0041320394 1.280935e-17 2.6604164e-05
0.0020728693 1.7512422e-10 0.006174637 2.780518e-28 0.008437689 0.0011316297 0.004822573 0.08903638
0.0007014809 0.0008279089 0.116528094 1.5187652e-27 0.00017870452 0.0067989645 0.024964109 6.472845e-05
0.007365373 0.0006728479 0.00055682746 7.008578e-05 0.06512878 0.0 1.1391018e-34 3.371336e-29

exp_avg f4 [16, 32]
00000000: 0400 0080 6841 3b3b 0202 57b2 37d5 2e3b
00000010: 9f66 13ba 538c 05b8 0400 0080 a720 6ab3
00000020: bc83 54ba c6ba 1ba4 a492 813b 0400 0080
00000030: aab4 a738 dfc0 3438 c94e 1239 820a fbb8
00000040: b467 d636 5daa 05bb 9eff 663a 0400 0080
00000050: e093 9db7 a4eb 03b9 d5db 01b9 8213 4ab7
00000060: a360 7c3a d034 76b6 d566 1238 6d20 83b8
00000070: 42e0 c23b 0000 0000 0000 0000 0400 0080
00000080: 0400 0000 4fd5 7bba d1ad 3b32 2e8e 36bb
00000090: f1d0 9a38 b6d0 3db7 0400 0000 c4b9 4f33
000000a0: 78d5 aa39 0400 0000 eebc b9ba 0400 0000
000000b0: f8c0 ff39 39cb ef38 477e 8836 0e32 10ba
000000c0: d6b6 2c34 92a9 c83a 2290 9038 0400 0000
000000d0: 9202 c631 faf6 6eb8 dd4d 523a 1853 a733
000000e0: 59db 25b9 4c82 26b4 5e21 3ab7 551e d332
000000f0: b757 7dbb 0000 0000 0400 0000 0400 0000
00000100: 0400 0000 210d 6bba 19cd 0932 dc36 ebba
00000110: 0fed 063a 720f 8f38 0400 0000 a1fa 1533
00000120: 0df0 073a 0e00 0080 96d6 ffba 0400 0000
00000130: 8154 12ba 5096 aab9 22e4 01b9 e03a 66ba
00000140: 51a1 27b7 2a9c 033b d3f8 7eb8 0400 0000
00000150: 893b 4937 31ce 1ab9 c627 163a 4108 0137
00000160: 06e7 c4b8 cdfc 1336 2d20 02b8 f073 2738
00000170: b198 47bb 0000 0000 0400 0000 0400 0080
00000180: 0400 0080 f94d 9f3b 9c9c d6b2 57fd cb3b
00000190: 63fd 2bb9 bba4 1fb9 0400 0080 d5af e9b3
000001a0: 0bde 38ba 0400 0080 f375 c13b 0400 0080
000001b0: 299b 1736 8267 8238 954c 9cb8 fda2 ac3a
000001c0: d6b9 6cb3 4ad4 70bb 273e 043b 0400 0080
000001d0: 1de0 1bb3 49a1 7d39 b0cf fcba 3631 3eb4
000001e0: b512 e238 4c0b e7b6 f9b0 b537 8207 8ab3
000001f0: dcaa 113c 0000 0000 0400 0080 0400 0080
00000200: 0400 0080 bf46 83b8 f8c5 8ab1 6244 a9b9
00000210: 3048 79b9 8ed8 eeb7 0400 0080 994e 97b2
00000220: 39e9 87b9 36e5 41a3 f0e2 b6b9 0400 0080
00000230: 281b 0235 6137 8733 3320 c5b5 0296 8835
00000240: 0275 31b6 5d0f 3bba 060b 2fb9 0400 0080
00000250: 108b cab6 59fd 9db8 4337 d834 b5dd 81b6
00000260: 61b4 2ab9 b872 68b2 55d8 c934 2088 a8b7
00000270: ac73 a7b9 0000 0000 0000 0000 0400 0080
00000280: 0400 0080 05ff 2bbb 4d19 4db3 ae17 10bb
00000290: a828 3dbb 72a7 c8b8 0400 0080 cc68 5fb4
000002a0: 0b07 e5ba 0400 0080 5f49 69ba 0400 0080
000002b0: fcc4 d2b8 a54f 1eb6 6950 bbb8 8160 a1b8
000002c0: 32f8 ecb3 77cc a4bb 8eb7 c2bb 0400 0080
000002d0: bd76 96b8 2ff4 baba 0708 95b7 0af4 40b8
000002e0: a1b8 c9b7 64fd 28b4 9f31 a1b4 356a 7ab9
000002f0: 6700 d8ba 0000 0000 0400 0080 0400 0080
00000300: 0400 0000 596c bc39 98ac 782f ba6c 1ebb
00000310: bddf e139 9a4c 6e38 0400 0000 e1a4 3430
00000320: 2f7c af39 1000 0080 3a80 96ba 0400 0000
00000330: 8930 ccb9 8765 ffb8 e1b4 1bb9 ebfd 13ba
00000340: aa2f 40b7 0679 de3a 320c e539 0400 0000
00000350: 11b8 6637 c6ea 33b9 f001 433a 71ed 1237
00000360: b3de 06ba 381a 2836 f9ef 14b8 83f9 3f38
00000370: 70c1 37bb 0000 0000 0000 0000 0400 0000
00000380: 0400 0000 acde a7ba 33e6 2232 9550 0bbb
00000390: ff2a 053a 19ef b738 0400 0000 0760 3133
000003a0: afe8 203a 1100 0080 c777 17bb 0400 0000
000003b0: 9d04 f6b9 f6a9 50b9 71ea 20b9 3b0f 5cba
000003c0: af5c 46b7 3fa1 1b3b a436 c6b9 0400 0000
000003d0: 1f9f 6e37 feb4 fbb9 d066 333a 6af9 1837
000003e0: 3568 f3b8 669a 2f36 24d1 19b8 f090 4638
000003f0: 5988 6bbb 0000 0000 0400 0000 0400 0000
-6e-45 0.002857292 -1.2515104e-08 0.002667738 -0.0005622897 -3.1840358e-05 -6e-45 -5.4512068e-08
-0.0008106788 -3.376847e-17 0.0039542485 -6e-45 7.996832e-05 4.309497e-05 0.00013952995 -0.0001197057
6.3897696e-06 -0.0020395734 0.00088118936 -6e-45 -1.8784718e-05 -0.00012580917 -0.00012384292 -1.204468e-05
0.0009627437 -3.6687597e-06 3.4904882e-05 -6.2526065e-05 0.005947144 0.0 0.0 -6e-45
6e-45 -0.00096066756 1.0924354e-08 -0.0027855742 7.3822106e-05 -1.1313872e-05 6e-45 4.8364896e-08
0.00032583973 6e-45 -0.0014170685 6e-45 0.00048781163 0.00011434261 4.0678165e-06 -0.0005500623
1.6085264e-07 0.0015309325 6.893302e-05 6e-45 5.7628506e-09 -5.6973637e-05 0.0008022467 7.791658e-08
-0.0001581734 -1.5507356e-07 -1.1094233e-05 2.4577426e-08 -0.0038657018 0.0 6e-45 6e-45
6e-45 -0.0008966495 8.021083e-09 -0.0017945427 0.0005147019 6.821648e-05 6e-45 3.491971e-08
0.00051856117 -2e-44 -0.0019518908 6e-45 -0.000558205 -0.00032536918 -0.00012387385 -0.0008782577
-9.991535e-06 0.0020082095 -6.0790055e-05 6e-45 1.1994395e-05 -0.00014763397 0.00057279726 7.690921e-06
-9.38904e-05 2.2051856e-06 -3.102438e-05 3.9923878e-05 -0.0030456001 0.0 6e-45 -6e-45
-6e-45 0.00486159 -2.4984097e-08 0.006225269 -0.00016402225 -0.00015224789 -6e-45 -1.0881892e-07
-0.000705213 -6e-45 0.005903953 -6e-45 2.2591069e-06 6.218163e-05 -7.452924e-05 0.0013171133
-5.511705e-08 -0.0036747628 0.0020178647 -6e-45 -3.629258e-08 0.00024188044 -0.001928797 -1.7713032e-07
0.00010780004 -6.8856516e-06 2.165929e-05 -6.4274914e-08 0.008890834 0.0 -6e-45 -6e-45
-6e-45 -6.259744e-05 -4.038835e-09 -0.0003228514 -0.00023773382 -2.8472652e-05 -6e-45 -1.7614456e-08
-0.0002592297 -1.0511088e-17 -0.00034882827 -6e-45 4.846829e-07 6.296501e-08 -1.4687015e-06 1.0176448e-06
-2.6443163e-06 -0.0007135773 -0.00016693407 -6e-45 -6.036258e-06 -7.533533e-05 4.0273343e-07 -3.8703097e-06
-0.0001627966 -1.3530261e-08 3.759657e-07 -2.0090549e-05 -0.00031938904 0.0 0.0 -6e-45
-6e-45 -0.0026244533 -4.7753293e-08 -0.002198677 -0.0028863344 -9.567932e-05 -6e-45 -2.0806618e-07
-0.0017473412 -6e-45 -0.0008899178 -6e-45 -0.000100502715 -2.3590194e-06 -8.9318324e-05 -7.6950535e-05
-1.1034753e-07 -0.005029257 -0.0059422916 -6e-45 -7.174674e-05 -0.0014263446 -1.7765922e-05 -4.6003646e-05
-2.4047042e-05 -1.5738402e-07 -3.002469e-07 -0.00023881423 -0.0016479612 0.0 -6e-45 -6e-45
6e-45 0.0003593888 2.2616786e-10 -0.0024173693 0.00043082042 5.6814963e-05 6e-45 6.5717926e-10
0.00033471125 -2.2e-44 -0.0011482306 6e-45 -0.00038946074 -0.000121782585 -0.00014849335 -0.00056454417
-1.1455189e-05 0.0016973324 0.0004368737 6e-45 1.3751925e-05 -0.0001715823 0.00074389484 8.757562e-06
-0.0005144879 2.5049212e-06 -3.550944e-05 4.5770325e-05 -0.0028038882 0.0 0.0 6e-45
6e-45 -0.001280745 9.481982e-09 -0.0021257747 0.0005079954 8.7706554e-05 6e-45 4.129836e-08
0.0006138188 -2.4e-44 -0.0023112164 6e-45 -0.00046924214 -0.00019899741 -0.00015346125 -0.00083946035
-1.1823299e-05 0.0023747233 -0.00037806213 6e-45 1.4222954e-05 -0.000480093 0.00068436284 9.117977e-06
-0.00011606553 2.6166904e-06 -3.667282e-05 4.7341862e-05 -0.0035939424 0.0 6e-45 6e-45

exp_avg_sq f4 [16, 32]
00000000: f0f7 0823 348a a338 bf66 6032 e2cf cd38
00000010: 2cf6 0f38 f482 6a38 003d b620 6b5e 4534
00000020: dad8 df35 1aac 482d a222 2439 b16e 6810
00000030: 78e8 7939 b9dc ee37 7447 c338 84cb 7639
00000040: d496 2835 a262 d636 23a2 b839 bcfc 280f
00000050: f9c8 6135 d5d2 b439 7429 ea38 16bb 0133
00000060: 697a 8638 5310 d336 5c68 1236 3a51 9233
00000070: 96cb d039 0000 0000 0000 0000 bfb5 720e
00000080: 49bf 2e23 a850 1739 cfb7 8530 a85b 1438
00000090: a84f 3235 90b0 1338 dddd f721 8f36 e733
000000a0: f024 4135 5875 e22b feef e538 4fb3 ee0d
000000b0: d4b9 aa38 254d da37 6f03 4438 7857 fc39
000000c0: 2d9f 0130 debf 9636 4e16 b737 a483 090b
000000d0: bb85 b532 b6ba 6b38 4ffb ee39 9b58 3231
000000e0: 4795 0139 3ae9 5836 b7c3 fe35 048e 9a30
000000f0: b595 013a 0000 0000 201d be03 ec2f 860d
00000100: f4e0 e622 5aef ba38 dc7a 0732 7616 6038
00000110: c4eb ed37 5901 6338 f1c1 b021 46c6 b233
00000120: 3c58 3f35 c0a1 262d 800a a038 9f0a 5510
00000130: 8edc 8a38 548a 1737 3815 cb37 6cb8 5739
00000140: ec4c 4434 63d2 7036 7b2b 8f39 a418 f70e
00000150: ff22 c934 5453 7639 c5ce 5939 6842 6b32
00000160: 7eb3 7538 2676 1236 f79d 0535 4d99 de32
00000170: 9b4d 8439 0000 0000 e6e8 ea02 2e33 220e
00000180: cccc 9224 d404 253a c0c5 6131 c00d 2239
00000190: 17c7 8438 9731 8b37 3c0d d51f e21a 3535
000001a0: a858 0c36 e567 932c 4060 a239 ca29 0311
000001b0: 3639 6938 4800 7638 b152 8038 c60c ec3a
000001c0: 4ff4 5331 092a 8f37 7a7c a437 cf52 cc0e
000001d0: 6735 0135 7bd0 5437 efe5 0e3b db04 d733
000001e0: 452e fb39 46c8 4937 54d9 8536 1ce5 9334
000001f0: 9364 e63a 0000 0000 2821 0c04 9811 a20c
00000200: 6336 600d 4f08 9231 9c68 9f2e dd35 b936
00000210: 3c87 f235 3758 c434 9e2c 5b19 cd9d ec31
00000220: 1d37 1034 2900 f92a c18b 0435 ed67 4b09
00000230: 2742 1e32 9401 3c34 ff5e e733 a5d8 bc34
00000240: 95ce 7d32 d532 8134 6352 1437 96e3 6009
00000250: da1b 8132 1360 9f36 69ef c234 1ac0 4631
00000260: 0a8d 4235 404c 9734 8791 2b32 bb2b cb31
00000270: 989f 1a36 0000 0000 0000 0000 9eaa c70b
00000280: d730 5212 9a3e 8539 20b4 1332 ce73 a438
00000290: b0f1 7239 37e0 fe37 cc4e aa1e 1bc1 0a35
000002a0: cead 9935 7316 9c2d 2a9f f438 6beb a610
000002b0: e36e 0f39 f115 f238 796e dd38 f7e1 1d3a
000002c0: 302f 0734 5f9f 5b37 0d8e 103a ade7 2e0e
000002d0: a98b a835 a6a6 0639 7720 e337 9491 6333
000002e0: 2618 9d38 54e3 6b37 8fb8 7b37 5f28 5e34
000002f0: 0763 f539 0000 0000 59c9 7803 4ba9 6a0c
00000300: 689d 8522 8e74 bf38 c59a 1232 1886 8d38
00000310: 8dfd 1b38 d6a7 8538 2c6d 4d21 45df db33
00000320: c8d7 6135 2e7f 2f2d b0c8 a638 3ad1 a10f
00000330: 4138 1539 5984 a337 1239 4238 3596 9539
00000340: d398 be34 7783 4736 2c4b cc39 737f af0e
00000350: 5230 fb34 172b b539 a9a6 8c39 b78b 9032
00000360: 6519 a138 da7f 5b36 5116 5f35 d07c 0733
00000370: 62e8 9a39 0000 0000 0000 0000 58b2 f00d
00000380: 17c1 ef22 f931 fa38 f6b7 1c32 1402 9f38
00000390: f26a 2638 511d 8c38 728b ae21 3f4c f333
000003a0: 3b4d 8235 57d9 512d 9de2 d438 166c 3110
000003b0: a5a4 0c39 1c02 ba37 84b9 5d38 d527 ac39
000003c0: ef44 cf34 588c 8036 eee3 d039 bb14 da0e
000003d0: 945c 0935 7eac b439 5492 8e39 b70d a032
000003e0: a43c b038 247e 7736 7055 b635 40ac 1633
000003f0: 53c5 9e39 0000 0000 a6f4 de02 6880 140e
7.4250776e-18 7.798188e-05 1.3061878e-08 9.813883e-05 3.4323122e-05 5.5911907e-05 3.0872366e-19 1.8381404e-07
1.6677907e-06 1.1406898e-11 0.0001565316 4.5839206e-29 0.00023833092 2.8474593e-05 9.311634e-05 0.00023536204
6.280436e-07 6.3891794e-06 0.00035216016 8.331714e-30 8.4111485e-07 0.00034489357 0.00011165711 3.0205307e-08
6.4124186e-05 6.2901904e-06 2.181644e-06 6.81343e-08 0.00039824535 0.0 0.0 2.991631e-30
9.473065e-18 0.00014430529 9.729265e-10 3.537131e-05 6.642608e-07 3.5211968e-05 1.6796098e-18 1.07667e-07
7.1951854e-07 1.6090835e-12 0.00010964273 1.4711049e-30 8.140845e-05 2.6023548e-05 4.673324e-05 0.00048130355
4.715613e-10 4.4926846e-06 2.1825686e-05 2.6484276e-32 2.1131987e-08 5.6202254e-05 0.00045582137 2.5952775e-09
0.00012358009 3.2322264e-06 1.8981435e-06 1.1245338e-09 0.00049432676 0.0 1.1173883e-36 8.269924e-31
6.2579803e-18 8.913754e-05 7.885969e-09 5.342668e-05 2.8362389e-05 5.4122273e-05 1.197756e-18 8.3248366e-08
7.128144e-07 9.471923e-12 7.63135e-05 4.2015025e-29 6.621434e-05 9.032508e-06 2.4209367e-05 0.000205727
1.8281906e-07 3.5885248e-06 0.0002730748 6.091393e-30 3.746463e-07 0.0002349143 0.0002077176 1.3693899e-08
5.8579717e-05 2.1824467e-06 4.977623e-07 2.5913915e-08 0.00025234823 0.0 3.4516887e-37 1.9992684e-30
6.3664346e-17 0.000629497 3.2854217e-09 0.00015454646 6.331334e-05 1.6593183e-05 9.0230903e-20 6.7466874e-07
2.091323e-06 4.189526e-12 0.0003097076 1.0346955e-28 5.560481e-05 5.8651232e-05 6.118918e-05 0.0018009178
3.0843414e-09 1.7066503e-05 1.9608287e-05 5.0369624e-30 4.8133955e-07 1.2684725e-05 0.0021804532 1.0012601e-07
0.00047908924 1.2027163e-05 3.989009e-06 2.7547583e-07 0.0017577581 0.0 1.6472146e-36 2.497064e-31
6.9090795e-31 4.250104e-09 7.249065e-11 5.5197e-06 1.8069763e-06 3.657203e-07 1.1331045e-23 6.886444e-09
1.3431095e-07 4.4231396e-13 4.93772e-07 2.4484102e-33 9.211852e-09 1.7509439e-07 1.07740554e-07 3.5175358e-07
1.47735095e-08 2.4065108e-07 8.84067e-06 2.707003e-33 1.5030242e-08 4.7497538e-06 3.630951e-07 2.892199e-09
7.247587e-07 2.818142e-07 9.986599e-09 5.913049e-09 2.3040684e-06 0.0 0.0 7.690873e-32
6.6324516e-28 0.0002541438 8.597482e-09 7.8417e-05 0.00023168954 3.0383568e-05 1.803204e-20 5.169001e-07
1.1449972e-06 1.7745116e-11 0.00011664473 6.5838174e-29 0.00013678851 0.00011543546 0.00010558678 0.0006022746
1.2590021e-07 1.3090524e-05 0.0005514331 2.1558704e-30 1.2557622e-06 0.00012841317 2.7075626e-05 5.298496e-08
7.4908414e-05 1.40600205e-05 1.5003737e-05 2.0690048e-07 0.00046803823 0.0 7.3111786e-37 1.8077649e-31
3.6216383e-18 9.1293e-05 8.533509e-09 6.748381e-05 3.7191017e-05 6.373196e-05 6.960119e-19 1.0238595e-07
8.4133035e-07 9.975838e-12 7.952878e-05 1.5956417e-29 0.00014230704 1.9492743e-05 4.6306355e-05 0.00028531408
3.5501452e-07 2.9729833e-06 0.0003896592 4.326356e-30 4.678755e-07 0.00034555115 0.00026827052 1.6827341e-08
7.681808e-05 3.2707962e-06 8.310645e-07 3.1545653e-08 0.00029546308 0.0 0.0 1.4834077e-30
6.498552e-18 0.00011930237 9.122223e-09 7.582098e-05 3.9677085e-05 6.681181e-05 1.182761e-18 1.13294384e-07
9.708232e-07 1.1928534e-11 0.00010151158 3.499036e-29 0.00013412775 2.217391e-05 5.286328e-05 0.00032836074
3.860691e-07 3.8310354e-06 0.00039842672 5.3761112e-30 5.1171196e-07 0.00034460792 0.00027193374 1.8632688e-08
8.403629e-05 3.6879292e-06 1.3584922e-06 3.5081257e-08 0.00030283126 0.0 3.276039e-37 1.8304234e-30

exp_avg f4 [16]
00000000: 1a9c 413c d2d9 d9bb c8fa 80bb 97de b03c
00000010: c183 acba 7ebe c5bc 4907 06bb 7c34 9cbb
00000020: 4a90 3abb 06be 46bb 07aa 14bb 8fa0 1fbb
00000030: 37f5 80bb 0400 0000 62b9 df3b 0400 0080
0.011817003 -0.0066482807 -0.0039361455 0.021590514 -0.0013161824 -0.024138685 -0.002045112 -0.004766999
-0.002846735 -0.0030325665 -0.0022684352 -0.0024357175 -0.003935482 6e-45 0.0068275193 -6e-45

exp_avg_sq f4 [16]
00000000: 8628 153b b0f5 063b 876b d53a 3363 fe3b
00000010: 64ab 1b37 a3f1 963c 104d fd3a d88e 143b
00000020: 1933 823a b8ca 073b ecaa 2b3a 19e0 da3a
00000030: 21d3 db3a d099 8a05 41c8 063c fcf9 aa0d
0.002275975 0.0020593219 0.0016282656 0.0077632903 9.278625e-06 0.018425768 0.0019325335 0.002266815
0.0009933441 0.0020720195 0.00065486017 0.0016698866 0.0016771295 1.303396e-35 0.008226455 1.053724e-30

exp_avg f4 [2, 16]
00000000: 2e65 70ba 000e e6b8 1c12 113a 6ce4 58ba
00000010: 037d 333a 151d 193a 1630 b0b8 f11f 0eba
00000020: ae41 fa39 9255 fbb9 f552 ed39 379e 183a
00000030: a700 97b9 0400 0080 5c6e 9539 0400 0000
00000040: 3765 703a 650f e638 0012 11ba 7ae4 583a
00000050: 1a7d 33ba 0d1d 19ba 0231 b038 1820 0e3a
00000060: 6341 fab9 9e55 fb39 b252 edb9 1d9e 18ba
00000070: ed00 9739 0400 0000 296e 95b9 0400 0080
-0.00091703504 -0.00010969862 0.00055340095 -0.00082737836 0.00068469363 0.00058408204 -8.401291e-05 -0.000542163
0.0004773265 -0.00047938206 0.0004526597 0.00058219157 -0.0002880145 -6e-45 0.0002850172 6e-45
0.00091703556 0.00010970122 -0.0005533993 0.0008273792 -0.00068469497 -0.0005840816 8.4014624e-05 0.00054216525
-0.00047732433 0.0004793824 -0.00045265775 -0.00058219006 0.00028801654 6e-45 -0.0002850157 -6e-45

exp_avg_sq f4 [2, 16]
00000000: 2e1a dd37 b0bb 4d38 cbe3 9438 5e36 2638
00000010: eb6b ad35 7b78 6637 fd93 b038 ff8a ad38
00000020: 5036 d538 4b64 bd37 f817 c938 5418 5a38
00000030: 22b8 8338 8e89 c605 3c4f a038 bc50 130f
00000040: 311a dd37 b1bb 4d38 cae3 9438 5e36 2638
00000050: e96b ad35 7d78 6637 fb93 b038 fe8a ad38
00000060: 5236 d538 4b64 bd37 f717 c938 5618 5a38
00000070: 21b8 8338 8e89 c605 3b4f a038 bc50 130f
2.6357444e-05 4.9050606e-05 7.09962e-05 3.9628118e-05 1.2920913e-06 1.373712e-05 8.419899e-05 8.275173e-05
0.00010166748 2.2577258e-05 9.5888914e-05 5.1997908e-05 6.280864e-05 1.867036e-35 7.644153e-05 7.2632084e-30
2.635745e-05 4.905061e-05 7.099619e-05 3.9628118e-05 1.292091e-06 1.3737122e-05 8.4198975e-05 8.275172e-05
0.000101667494 2.2577258e-05 9.588891e-05 5.1997915e-05 6.2808635e-05 1.867036e-35 7.644152e-05 7.2632084e-30

exp_avg f4 [2]
00000000: f0e7 28bb 08e8 283b
-0.002577301 0.0025773067

exp_avg_sq f4 [2]
00000000: 912a 423a 8f2a 423a
0.00074068556 0.00074068544

loss f8 []
00000000: e338 feb7 77d1 393f
0.0003939549715078606
