7_point_edge_detector.pth (torch, 25249 bytes, 19 tensors)

model.0.weight f4 [32, 25]
00000000: c4a4 833e cf40 8a3e 4cc0 de3c 2ee4 da3d
00000010: 8b85 a33e 7ed1 b83e 49ae f2bc 1da4 41be
00000020: 7d3a 0cbe 6308 ce3e 23a9 0bbe ce19 5abf
00000030: 45a2 80bf a570 68bf fa4c dbbb 38f9 043f
00000040: b17d b4bd 62de 97be f04b efbd 33cc 2d3f
00000050: dc1f 8a3e 6d15 113e 7cbe 663e 1631 263e
00000060: 285b be3d bd93 19be 2daa ddbd 6da7 10be
00000070: 49a8 9e3e 004d 443e 5ddc 08bf 9c69 30bf
00000080: f16c 4cbe 1b8f 2d3f e266 0f3f 181c 3fbe
00000090: f62c 0cbe 9fcc 153d 4751 2f3e 8c08 3e3e
000000a0: 01c6 5a3e bd60 323f fe6d 393d 5104 44bf
000000b0: 2296 3abf 1bea 873e bfbb 033f c76e fe3d
000000c0: 0000 a0be 1431 02be 64db d4bb 46ed a7bb
000000d0: e4df 1dbb ec16 393b 2247 c7bb 8abc d43a
000000e0: 55fb 0d3a 6174 ac3b a70a 2d3b b8ad a6bb
000000f0: f45b ecbb deff 9539 eb7e d6b9 0f3b 1f3b
00000100: 626c 243b fe62 e2bb 2844 b6bb 1501 8b3b
00000110: 14d8 8bba 2d2f 8a39 2c01 5e3b 11a8 8bba
00000120: 583a a2bb ed50 7cbb c37d 2abb c747 a3bc
00000130: d977 58bc 72d0 67bc 2a8e a5bb c9a3 59bb
00000140: e1ed 2bbc 63ea aebc 1cbe 64bc 45a6 f2ba
00000150: e08d da3b 701f f73b adf3 1a3b 5b04 2bbc
00000160: 3b03 3ebc 6b1d 20ba 9f83 933b 8df8 d7bb
00000170: 7e43 a8bc 435f cfbb 555f c4bb 2ba0 6dba
00000180: fb08 0dbc c264 dcbb 6ee3 17bb 6559 9ebb
00000190: 35b9 3c3d 9645 55be ed16 5cbe 2e31 db39
000001a0: 591f cabc 382d b23d 0217 3abf 9c06 91bf
000001b0: abb3 41be 1db1 893d 90c1 55bd 8ac8 42bd
000001c0: 23d3 99be 69b3 0a3f d3ec c53d ba01 80bd
000001d0: aa05 853d 036e 383f 6081 2b3f 21df bcbd
000001e0: a44e f4bc 8755 cebb 5f50 723e c0f1 7d3e
000001f0: 6587 3dbd 8367 063e a23e 893c e3fd 3ebd
00000200: d954 30be e66f dd3d 9ab4 52be b6b1 24bf
00000210: 2faa 80bf 706d 52bf 81ae a3be 0735 77bc
00000220: dec0 c33e ce94 6f3f c195 523e 2d60 453e
00000230: de03 113d cff8 b83e 2898 153f 9089 a23e
00000240: 0bdd 383d 7a2c 9ebd 00dc c23c eabd f6bd
00000250: 6b79 0ebe b964 d33d a37d 093e a1ff 843e
00000260: b6e1 1fbc 3d0e 0abf 3712 abbe 7b79 1e3f
00000270: 20ad 273f 25c4 15bd 09ab 3dbf 152a 7bbe
00000280: 8e8d 5c3e bdfb 56be e6e6 a7bd 2ad7 263e
00000290: 2fe6 a03e d571 16be 029e 21bf da40 a0be
000002a0: 98be 163f e1c2 3b3f 9aea 4fbe c56a 12bf
000002b0: 9145 21be 48a4 f03c 0096 3f3e 0431 403d
000002c0: 58db c2bd 4b2a 6ebb b32b 3a3e 2cc9 813c
000002d0: c352 0cbe 00dc 933b f300 e33e a831 523f
000002e0: 974a d63d 50d2 24bd b170 febd 83e9 aabc
000002f0: 3752 423f 86f6 803e c4d1 1fbe 9b13 6ebf
00000300: 074f 7abf e914 23be ae27 553d e054 173d
00000310: 4644 9fbd 2a88 71be fb0c 5ebd 91bd 1bbc
00000320: 12ce 25be f5c2 e2be d82a 59bc 6226 cfbe
00000330: 35d4 eebe 02ab 1bbe ef09 4e3e 650f 663f
00000340: f835 dc3e a507 86be 14d9 96be c4bf e83d
00000350: bea7 3f3f cc90 153d 8add 54be fcf3 0cbe
00000360: a1f4 803e 9f43 403f 2ded ff3e 4045 d1bd
00000370: ba01 35be d7ae b7be ee45 97be a627 f1be
00000380: 6865 76be 5d2b 843d d341 373e 0ca0 ae3e
00000390: 5c1e ba3e d2bc e6be 7e71 683c cd93 bc3e
000003a0: e53f 4c3e 5b01 86bf 5072 74bf 3f66 96be
000003b0: 6d43 93bd 662e 653e 0c55 bebd b515 0c3e
000003c0: 5124 81bf 3153 a6be fd21 57be 621f 5c3d
000003d0: 13b0 8a3e 4abb 0abe b461 693c 8974 26be
000003e0: 59a8 77bb 1c5c 93bd 9983 d2bb f926 b5bb
000003f0: 5f8c a43b 8d84 cfbb 34f8 95bb c665 a9ba
0.25711644 0.2700257 0.027191304 0.10688053 0.31937823 0.3609733 -0.029624121 -0.1891026
-0.13694187 0.40240774 -0.1363874 -0.85195625 -1.0049521 -0.9079688 -0.006692526 0.5194278
-0.08813036 -0.29661852 -0.11684406 0.6788971 0.26977432 0.1416833 0.22533602 0.16229662
0.092947304 -0.14997764 -0.10823474 -0.14126368 0.30987766 0.19169998 -0.5346125 -0.6891115
-0.19963433 0.67796487 0.5601636 -0.1866306 -0.13689026 0.036572095 0.17120849 0.18557948
0.21364595 0.6967886 0.045270912 -0.76569086 -0.72885334 0.26545796 0.5145835 0.12423473
-0.3125 -0.12714034 -0.00649588 -0.0051247207 -0.0024089748 0.0028242422 -0.0060814777 0.0016230505
0.00054161745 0.005262897 0.0026404054 -0.005086627 -0.00721311 0.0002861013 -0.00040911822 0.0024296676
0.0025089015 -0.0069087734 -0.005562324 0.0042420723 -0.0010669255 0.0002635656 0.003387521 -0.0010654946
-0.004950803 -0.0038500384 -0.0026014901 -0.019931687 -0.013212168 -0.014148818 -0.0050523477 -0.0033209196
-0.0104937265 -0.021351999 -0.013961341 -0.0018512687 0.006669745 0.0075415894 0.0023643777 -0.01043805
-0.01159745 -0.0006107899 0.0045017744 -0.006590909 -0.020539995 -0.0063284948 -0.00599281 -0.00090646994
-0.008608098 -0.0067258785 -0.002317633 -0.004832434 0.046075065 -0.20827326 -0.2149312 0.00041807577
-0.02467315 0.08700031 -0.7269136 -1.1330142 -0.18916194 0.06723235 -0.05218655 -0.04755453
-0.30043897 0.5418001 0.09664311 -0.06250329 0.06495221 0.72042865 0.66994286 -0.09222246
-0.029822655 -0.0062968167 0.23663472 0.24799252 -0.0462717 0.13125424 0.016753498 -0.046628844
-0.17219867 0.108123586 -0.20576707 -0.64333665 -1.0051936 -0.8219824 -0.31969073 -0.015088326
0.38233083 0.9358643 0.20564939 0.1927497 0.03540408 0.36127326 0.58435297 0.31745577
0.045132678 -0.07723327 0.023786545 -0.12047942 -0.13913505 0.10321946 0.13426833 0.2597628
-0.0097584035 -0.53927976 -0.33412334 0.61904114 0.6549854 -0.03656401 -0.74089104 -0.24527772
0.21538374 -0.20994468 -0.08198337 0.16293016 0.31425616 -0.14691861 -0.63131726 -0.31299478
0.58884573 0.73344237 -0.20304337 -0.5719417 -0.15749194 0.02937521 0.18709564 0.046921745
-0.09514493 -0.0036341127 0.18180732 0.015842997 -0.13703446 0.00451231 0.44336662 0.8210702
0.10463446 -0.040239632 -0.12423838 -0.0208633 0.759067 0.25188082 -0.15607363 -0.92998666
-0.97776836 -0.15925945 0.052039795 0.036946177 -0.07776694 -0.23587099 -0.054211598 -0.009505645
-0.16191891 -0.44289365 -0.013254844 -0.4045897 -0.46646276 -0.15201953 0.20120977 0.8986724
0.43009925 -0.26177707 -0.29462492 0.113647014 0.7486533 0.036515042 -0.20787635 -0.13764948
0.25186637 0.7510318 0.49985638 -0.102182865 -0.1767644 -0.3587558 -0.2954554 -0.47100562
-0.24062121 0.064535834 0.17896204 0.3410648 0.36351287 -0.45065933 0.014187215 0.36831513
0.19946249 -1.0469164 -0.9548693 -0.29374883 -0.07190595 0.22380981 -0.09293565 0.13680156
-1.0089208 -0.32485345 -0.21009059 0.053740866 0.2708746 -0.13548008 0.014244486 -0.16255392
-0.0037789552 -0.07195303 -0.006424379 -0.0055283275 0.0050216164 -0.00633294 -0.0045767073 -0.0012924008

model.0.bias f4 [32]
00000000: 3a34 863c f6d2 4dbc 97c5 01bc 936c 57bc
00000010: 4a76 e83b bf77 c6bd c584 ac3b 3fd0 23bb
00000020: b658 93bc 911d a23c 98e8 a6bb 2ae7 83bd
00000030: 403d cc3c 28ff 583c 8724 a63e ae97 953d
00000040: c6dd 15bc 5899 b3bc 6bf8 9c3d 21f5 c1bc
00000050: 04ab d93d a8dc acbc ca2e 05bd a110 c3bb
00000060: da3a a4bd ba45 993d 1609 d8bb 0786 92bb
00000070: 2359 40bc a3ed e6bb f407 3abd f6db 1bbc
0.016382325 -0.012562504 -0.007920644 -0.013148445 0.0070941793 -0.096908085 0.005264851 -0.002499595
-0.017986637 0.019789489 -0.0050936453 -0.064405754 0.02493155 0.013244428 0.32449743 0.07304321
-0.009147113 -0.021923706 0.076645695 -0.023676457 0.10628322 -0.02110131 -0.032515325 -0.00595291
-0.080190375 0.074840024 -0.00659288 -0.0044715437 -0.011740002 -0.0070473715 -0.04541774 -0.009512892

model.2.weight f4 [16, 32]
00000000: eff3 bc3e d7dc c23e 6018 8e38 f43c f8bb
00000010: 02d1 423e 721c f2bf fd1e 90bd 057c e93e
00000020: d9fd 13be 1e6b e8bd 3aa5 c43b 9120 e0be
00000030: e781 ddbe ae6e 18c0 86a8 cc3e 3703 cd3e
00000040: 8d97 263b 80c3 9a3b b992 82bf 1d83 653c
00000050: a40b c1be eee0 b23c 2f1e 393f 2ae5 52bc
00000060: f66f 4e3f 4be1 143e fb49 4cbb b4f1 fbbe
00000070: 7565 b2bb 6412 2ebb 88a8 79be f946 86bb
00000080: ec78 9dbe d2b3 96be c2aa b83a 6448 81bb
00000090: 7053 0c3f 2000 e23e 2a12 32bf b926 cb3e
000000a0: ba5f 21bf 3f8a c0bd c8d1 07bc 33df 013e
000000b0: 058a 023f 5b61 eebf 3bb3 923e a09c 1abf
000000c0: 303d 153b e14f 57bb 185a 023f fe7f 08bc
000000d0: d1a0 a9bf 206c 013b 6bf8 ab3e 504d ecb8
000000e0: 9d39 a0be 4f6f 6e3e af85 913c b21e ebbb
000000f0: 2bf0 77bb 1742 87bb 455a 0dbf 7935 10bc
00000100: 99c7 92bf b5bd 853f 3afb 24bb 075f 86bc
00000110: 3448 fbbe 6fd9 363c b165 1a3f 22a2 e0be
00000120: c4f0 89bf 394b 273f 50ad 213b 18ef d9be
00000130: 0761 423e acd6 1c3f 77e1 8c3d ec1b 253e
00000140: cdf5 b4bb 0c2e 75bb ce9a 0e3e ebaf 20bc
00000150: a241 26bd 5587 73bb 7b61 0ebe 61f3 fbbb
00000160: 6316 87be a399 ac3e fba8 8d3c 22b6 a8be
00000170: 2ec0 02bc efb6 1abc 3322 5dbe 67a2 71bb
00000180: 8e21 81bf 3c9e 763f 85cc c5bb 4ef7 34bb
00000190: 149b 2abf 5b87 27be c86c 423f 4fcc 0bbf
000001a0: 7af1 7ebf 1150 083e 1e4e 333b eff5 cabe
000001b0: 8dce a43e 948b 90be 66dd 553e e5f0 803e
000001c0: 4e4a 2a3b 57e1 343c 8c79 5dbe 928f 023b
000001d0: 0f8b 94bf a44b a6bc 72c2 12be 9ef9 82ba
000001e0: 93be 39bf 9c4a 51be 89a1 823c 1288 5ebe
000001f0: cddf 0fba a019 4f3b 0210 1e3d d40f 88bb
00000200: 960e eebf 4b3a c13e dc41 ed3a 0895 c6bb
00000210: 686b 183d 8790 2ebf d35a 493f be10 05bf
00000220: bb35 eb3d 8b2b ca3e 49b2 ea3a e627 a2be
00000230: d90a 71bd 49f2 723f fd04 6f3e 7f51 bbbe
00000240: 5a6c 6dbb f61e df3b 4dcd 72be ad95 953c
00000250: 5ccf 9d3e 7317 2ebc 1bba a1be ca05 873a
00000260: 79a4 3e3d cb76 ae3e 579b b2ba ffd9 403d
00000270: 81d4 853b 52d1 02ba 149f 013f fd4d 4cba
00000280: 467f 403f 17a8 19bf d657 6a3b 5e2e 7fbb
00000290: 8cff 0dbf dcf3 29bf 0caa a7be 2f7c 6bbf
000002a0: b716 283f 7c60 1fbc 72de c9ba 1fed 083f
000002b0: 5f6d cd3e eca4 40be cd39 0b3e ef7e 40bf
000002c0: 12de 323a 7f9d 95bb be15 7fbe 8cba c7bc
000002d0: 5499 d83e 189d eebc 20e9 8dbf c815 eabb
000002e0: 91f7 f13e 87ba c33e d4d2 36bc 890d 283f
000002f0: 1ac1 c33a 5eb9 f0ba b81e 963e f190 0e3b
00000300: f86a 09bf 1e00 43bf fe4e a239 7d39 adbb
00000310: d90f c8bf 905a 64bf c7a3 a3bf 6b5f 03c0
00000320: ecc6 febd 4e02 fdbc cffa 52ba 0498 82bf
00000330: 3f72 bb3e 85b0 8a3e ee25 ae3e f9d0 913d
00000340: fd58 a83b b8b0 1b3c 0f0a fb3e 8319 0cbb
00000350: 5f91 17bf 83fa f8bc e17f cabf acf8 50bb
00000360: 197a d6be 45da ed3e 30ce 573c 6066 8dbe
00000370: a59f 733b c0e8 86bb 31dd 83bf 2e1e 0cbb
00000380: 7a91 233e c450 24bd 9557 bf3a 6388 6f3b
00000390: 75a3 10bf 095f 7dbe 4c2d 6a3f f576 9abe
000003a0: 9239 a2be bf0f 5e3e ad25 7cbb e57a 06bf
000003b0: b8e4 173e f230 2d3f 837e b8be 0d43 c9be
000003c0: 468b 7ab8 bf1b 643c 3145 ddbd 8458 52bb
000003d0: c0b7 0fc0 df45 d1bb 1ea8 49be 8507 eb3a
000003e0: 84e9 8cbd f0f8 83be 187a d63a 5acf b6be
000003f0: 353b 883b f316 dfba 68f7 893f c211 22bb
0.36904857 0.38059112 6.775628e-05 -0.0075756256 0.19025043 -1.8914931 -0.070371605 0.45602432
-0.14452304 -0.11348556 0.006001142 -0.43774846 -0.4326317 -2.3817554 0.39972323 0.40041515
0.002541992 0.0047230124 -1.0201026 0.014008311 -0.37704194 0.02183577 0.7231168 -0.01287202
0.8063959 0.14539067 -0.0031172025 -0.49207842 -0.0054442235 -0.0026561255 -0.24380696 -0.004097816
-0.3075632 -0.29434067 0.0014088976 -0.003945397 0.54814816 0.4414072 -0.69558966 0.3967798
-0.6303669 -0.09401368 -0.008289762 0.126828 0.5099185 -1.862346 0.28652367 -0.6039524
0.0022772066 -0.0032854008 0.5091872 -0.008331297 -1.3252202 0.0019748285 0.33587965 -0.000112677575
-0.31293955 0.23284648 0.01776394 -0.00717529 -0.003783236 -0.0041277516 -0.55215865 -0.008801811
-1.1467162 1.0448519 -0.0025174157 -0.016402734 -0.49078524 0.011160239 0.6031142 -0.43873698
-1.0776601 0.65349156 0.0024669953 -0.42565227 0.18982325 0.61265063 0.068789415 0.16123933
-0.005522466 -0.003741148 0.13926241 -0.009807567 -0.040589936 -0.0037159522 -0.13904373 -0.007688925
-0.26384267 0.33710966 0.01729249 -0.32951456 -0.0079803895 -0.009443029 -0.21595077 -0.003687048
-1.0088365 0.96335196 -0.0060363435 -0.0027613225 -0.6664288 -0.16360228 0.75947237 -0.54608625
-0.99587214 0.13311793 0.0027359794 -0.39640757 0.32188836 -0.2823149 0.20885238 0.25183788
0.002598423 0.011040053 -0.21628398 0.0019922 -1.1604937 -0.02029974 -0.14331988 -0.0009992605
-0.7255642 -0.20438617 0.015946167 -0.21731594 -0.0005488366 0.0031600967 0.038589485 -0.0041522775
-1.8598201 0.37739787 0.0018101293 -0.0060602464 0.037211806 -0.6818928 0.7865421 -0.5197867
0.11484858 0.39486346 0.0017905916 -0.31671065 -0.058848236 0.9490095 0.23341747 -0.36585614
-0.0036227913 0.0068091108 -0.23711129 0.018259848 0.30822265 -0.010625708 -0.315873 0.0010301408
0.046543572 0.34075007 -0.0013626617 0.047082897 0.0040841703 -0.00049902976 0.5063336 -0.00077936036
0.75194204 -0.6002211 0.003575792 -0.003893755 -0.5546806 -0.66387725 -0.32746923 -0.91986364
0.6565966 -0.0097275935 -0.0015401377 0.5348682 0.40122506 -0.18812913 0.13596268 -0.75193685
0.0006823252 -0.004565894 -0.24910638 -0.024380945 0.4230448 -0.029127643 -1.1086769 -0.00714371
0.4725919 0.38228247 -0.011158664 0.65645653 0.0014934868 -0.0018365791 0.29320312 0.0021753872
-0.53678846 -0.76172054 0.00030957902 -0.005286394 -1.5629836 -0.8920069 -1.2784356 -2.0526989
-0.12440285 -0.030884888 -0.00080482377 -1.0202641 0.366106 0.270878 0.34013313 0.071199365
0.0051375614 0.009502582 0.49031112 -0.002137751 -0.59206194 -0.03039289 -1.5820276 -0.0031886501
-0.41890028 0.4645559 0.0131717175 -0.27617168 0.0037174013 -0.0041171014 -1.0301877 -0.0021380293
0.15973464 -0.040116087 0.0014598245 0.0036549799 -0.56499416 -0.24743284 0.9147537 -0.30168882
-0.31684548 0.21685694 -0.0038474605 -0.5253127 0.14833343 0.6765281 -0.3603402 -0.39308968
-5.9734353e-05 0.013922631 -0.10804213 -0.0032096216 -2.2455902 -0.006386503 -0.19693038 0.0017931318
-0.06880477 -0.25775862 0.0016363291 -0.35705072 0.0041574487 -0.0017020389 1.0778627 -0.0024729823

model.2.bias f4 [16]
00000000: b2ac 223e 4359 ba3e 9fb1 8c3e 3d23 7d3e
00000010: ba0b 5d3e 72d2 7c3e 5f73 613f 8239 b03e
00000020: fda5 03be 2331 59bc b306 69bc c5cb e63e
00000030: a5ef 103e dcda d13e fd54 bd3e 1075 143e
0.1588619 0.36396226 0.27479264 0.24720474 0.21586505 0.24689654 0.8806667 0.34418875
-0.12856288 -0.013256344 -0.014222789 0.4507734 0.14153917 0.4098729 0.36978903 0.14497781

model.4.weight f4 [3, 16]
00000000: e54f 963f abf3 623f e23a 08c0 58f5 22c0
00000010: 25d3 b4bf a0b0 3ec0 3f95 a7c0 ef8f 10c0
00000020: 9a1e 69bf a069 36ba 5098 ca3a b117 ab3f
00000030: 2f6f 7f3e 3d07 e03f a657 5e3f a5fe bebf
00000040: 24b0 a2bf 79b0 f4bf 5974 5cbe 00d6 f4bd
00000050: b6cb 3d3e 4ae0 1c40 496a b240 e387 db3d
00000060: 0f10 123d 3bb2 a6bc 9ca2 05bb 9423 e03e
00000070: c81e 4ec0 f9d8 80bf 8e16 1dc0 fc4b a33f
00000080: 92fe 1bbf ab65 6fbe 036b ec3f 674e 0640
00000090: c38e 7f3f 55d5 4cbf 32f6 6fc0 b793 d03f
000000a0: fe7f 1d3f 0146 21bc 66fb a93b ae52 febf
000000b0: 1d6c 433f 7ed4 acbf b99e 863d 0e2c 9cbe
1.1743132 0.8865306 -2.128594 -2.5462246 -1.4126936 -2.9795303 -5.2369685 -2.258785
-0.9106232 -0.00069584884 0.001545677 1.3366605 0.24944757 1.7502209 0.8685249 -1.4921461
-1.2710004 -1.9116355 -0.21528758 -0.1195488 0.18534741 2.4511895 5.5754743 0.10719278
0.035659846 -0.020348659 -0.0020391112 0.43777144 -3.2206287 -1.0066215 -2.4545016 1.2757564
-0.6093532 -0.23378627 1.8470157 2.0985353 0.9982721 -0.8001302 -3.7494016 1.6295079
0.61523426 -0.00984335 0.0051874397 -1.9868982 0.7633684 -1.3502347 0.06573243 -0.3050236

model.4.bias f4 [3]
00000000: f163 9d3e b208 b03d 58c8 b0be
0.30740312 0.085954085 -0.3452785

exp_avg f4 [32, 25]
00000000: 2e77 adbb fa59 fabb 5382 07bc d7c3 08bc
00000010: a9ed 42bc c34a 073c 2af2 ec3a 6991 11bc
00000020: 5d08 35bc 4764 43bc 04f5 a43b 9d2a a93b
00000030: db57 efba 8246 8a3b 772a 40bb 51f8 d33b
00000040: f567 723b ab7b 9dbb 1e37 9cbb 8a52 6fbb
00000050: 4cba b63b 459b 0f3a 23c6 08bb c1e4 59bb
00000060: edf3 9cbb ecac 51bd bb8b 3dbd 10bc 39bd
00000070: 8d7b 46bd 415a 73bd a34d 8fbd 01cd 64bd
00000080: 0510 3cbd 1fed 6dbd 709f 77bd 5fa7 95bd
00000090: 9d0b 8fbd 9b41 78bd a604 8ebd d908 83bd
000000a0: 309a 96bd 10e7 9abd 519e 98bd 3f9b 89bd
000000b0: 9303 8abd 672e 98bd 9e33 adbd df11 9ebd
000000c0: d596 89bd ef28 88bd 0400 0000 0400 0000
000000d0: 0400 0000 0400 0000 0400 0000 0400 0000
000000e0: 0400 0000 0400 0000 0400 0000 0400 0000
000000f0: 0400 0000 0400 0000 0400 0000 0400 0000
00000100: 0400 0000 0400 0000 0400 0000 0400 0000
00000110: 0400 0000 0400 0000 0400 0000 0400 0000
00000120: 0400 0000 0400 0000 0400 0000 0400 0000
00000130: 0400 0080 0400 0000 0400 0000 0400 0000
00000140: 0400 0000 0400 0000 0400 0000 0400 0000
00000150: 0400 0000 0400 0000 0400 0000 0400 0000
00000160: 0400 0000 0400 0000 0400 0000 0400 0000
00000170: 0400 0000 0400 0000 0400 0000 0400 0000
00000180: 0400 0000 0400 0000 0400 0000 0400 0000
00000190: 723b 3abe aad6 3abe 2a96 35be 20e2 49be
000001a0: e00e 81be 0d1d 3bbe f13a 3abe b43a 37be
000001b0: 9754 79be 61fc 81be fc92 30be f3d2 34be
000001c0: 366c 56be 6e83 80be 10ba 81be f860 31be
000001d0: 7866 46be 4f7c 74be 70c7 77be f10d 7abe
000001e0: df35 34be edf5 70be cb43 71be 9d97 75be
000001f0: 935e 78be 8b8b 143c ea2c 143c 8158 d03b
00000200: 057a ac3b 2393 8f3b b333 173c fd30 123c
00000210: 0fbf f03b 0462 853b 50b8 473b 8b50 d4bb
00000220: a401 e8b9 3cd2 e63b de78 873b 2a4a 843b
00000230: 3501 f7bb db04 05bc 602c 14bc c7a6 25bc
00000240: c3f8 0dbc 001c d0bb 85af 72bb db88 94bb
00000250: 10c5 c5bb 6230 19bc 1217 903d eb71 903d
00000260: d23d 9b3d 941d a33d 39f9 a23d 1385 963d
00000270: 0e7f 8f3d 7378 993d 41cc a23d 8bc5 a33d
00000280: cf74 813d ea46 863d 699f 933d aab2 a33d
00000290: bda5 a53d b471 8a3d 044b 8b3d 7e81 893d
000002a0: bb4f 983d 1923 a23d 8798 8a3d 46ca 803d
000002b0: 118c 813d 77f5 8f3d bb4d 983d 781c c53c
000002c0: 17f3 b83c 66c0 f73c 32d4 f53c f384 f83c
000002d0: c9d2 643c 35f8 7f3c fc43 f33c 7e13 ee3c
000002e0: 1ab6 f63c 5129 b83c 65f1 a13c 5eed aa3c
000002f0: ae92 9b3c 9a26 e73c 0573 be3c 59db b13c
00000300: d0d8 e63c aa59 b33c 7b02 a33c e770 bf3c
00000310: 14cc d13c 14d1 083d 7880 e03c da98 b83c
00000320: 63cf 093a 7ee2 123b da2f 173c 0e6a 323c
00000330: ab84 213c 3526 133b ca08 1f3a 78a8 ae3b
00000340: ddba 4c3c 9587 3e3c bef1 8bba 852d f239
00000350: d199 053c 5825 423c c575 3f3c de0d 55ba
00000360: 2617 d2b9 8678 ae3b b44f fa3b 771c 263c
00000370: 44b6 89ba 9f2a 3aba 459d ec3a 95a7 833b
00000380: 8b7a 083c 49a4 a139 1c1e bc39 8bc8 bf39
00000390: 93d5 a839 f5b0 9838 1ce9 eb38 c041 9239
000003a0: 861a b939 885e 6f39 1ad2 3a38 b2b1 0139
000003b0: 1ce6 2339 45bf e238 d7c1 25b9 e9d2 b9b8
000003c0: 4242 3b38 9224 9937 e20f dd35 1e5e 8eb7
000003d0: 7fab 0db9 0f94 7737 acdf 9337 39f8 c536
000003e0: 0fd7 58b8 250b 2536 0000 0000 0000 0000
000003f0: 0000 0000 0000 0000 0000 0000 0400 0000
-0.0052937483 -0.0076401206 -0.008270818 -0.008347473 -0.011897483 0.008257571 0.0018077542 -0.008884766
-0.011049357 -0.011925763 0.005034091 0.0051625506 -0.0018260436 0.004219831 -0.0029322186 0.0064688106
0.0036988233 -0.004806002 -0.0047673127 -0.0036517703 0.0055764075 0.0005478154 -0.0020870052 -0.003324792
-0.0047898204 -0.0511903 -0.046275835 -0.045345366 -0.04845767 -0.059412245 -0.0699723 -0.05585957
-0.045913715 -0.058087464 -0.060454786 -0.07307314 -0.06984637 -0.06060944 -0.0693448 -0.06398172
-0.07353628 -0.07563603 -0.074520715 -0.06719064 -0.06738963 -0.074307255 -0.08457111 -0.077182524
-0.06718222 -0.066484325 6e-45 6e-45 6e-45 6e-45 6e-45 6e-45
6e-45 6e-45 6e-45 6e-45 6e-45 6e-45 6e-45 6e-45
6e-45 6e-45 6e-45 6e-45 6e-45 6e-45 6e-45 6e-45
6e-45 6e-45 6e-45 6e-45 -6e-45 6e-45 6e-45 6e-45
6e-45 6e-45 6e-45 6e-45 6e-45 6e-45 6e-45 6e-45
6e-45 6e-45 6e-45 6e-45 6e-45 6e-45 6e-45 6e-45
6e-45 6e-45 6e-45 6e-45 -0.18186739 -0.1824595 -0.17733064 -0.19715166
-0.2520666 -0.182728 -0.18186547 -0.17893487 -0.24348675 -0.25387862 -0.1724357 -0.17658596
-0.20939717 -0.25100273 -0.25337267 -0.17322147 -0.19375026 -0.23875545 -0.24197173 -0.2441938
-0.17598675 -0.23531313 -0.23561017 -0.23983617 -0.24254827 0.009066473 0.0090439115 0.0063582067
0.0052635693 0.0043815537 0.009228635 0.0089228125 0.0073469947 0.0040705223 0.003047485 -0.006479328
-0.0004425171 0.007044105 0.0041342815 0.0040371614 -0.0075379857 -0.008118833 -0.009043783 -0.010110564
-0.008665266 -0.006350994 -0.0037030887 -0.004532916 -0.0060354546 -0.009349914 0.0703565 0.07052978
0.07580151 0.07964626 0.07957692 0.07349601 0.07006656 0.07493677 0.079491146 0.07996663
0.063211076 0.065564945 0.072081394 0.07993062 0.08088253 0.067599684 0.068014175 0.06714152
0.074370824 0.079168506 0.067673735 0.062885806 0.06325544 0.070292406 0.07436701 0.024061427
0.022576852 0.03024311 0.03000841 0.030336833 0.013966271 0.015623142 0.029695503 0.029062029
0.03011613 0.022480639 0.019768426 0.020865139 0.01899084 0.028216649 0.023248205 0.021711038
0.028179556 0.021893341 0.019898644 0.023369266 0.025610007 0.033402517 0.027405009 0.022533823
0.0005257038 0.0022412832 0.009227717 0.010889543 0.009858291 0.0022453193 0.00060666783 0.0053301416
0.012495724 0.011629005 -0.0010676903 0.00046191752 0.0081543485 0.011849724 0.011685793 -0.00081273715
-0.00040071568 0.005324426 0.007638896 0.0101386225 -0.001050659 -0.0007101688 0.0018052241 0.00401778
0.008329998 0.00030830715 0.00035880588 0.00036579775 0.00032202582 7.2808856e-05 0.00011249093 0.00027896278
0.0003530571 0.00022828032 4.4541528e-05 0.00012368595 0.00015630614 0.000108121465 -0.00015807837 -8.8607725e-05
4.464598e-05 1.825605e-05 1.6470406e-06 -1.6971546e-05 -0.00013510695 1.475682e-05 1.762792e-05 5.8999544e-06
-5.1698702e-05 2.4593403e-06 0.0 0.0 0.0 0.0 0.0 6e-45

exp_avg_sq f4 [32, 25]
00000000: 9a12 a33c c419 a03c debe 9b3c 071b 9e3c
00000010: 2315 a13c 5b78 a33c ea5d 9c3c 6b84 8c3c
00000020: 1159 973c efea a23c e4fc 9c3c 9320 8b3c
00000030: 60ad 653c 0c22 863c 134d 9c3c b182 9b3c
00000040: d26c 8f3c 0882 803c 6c63 8c3c b2fc 973c
00000050: 7a33 943c c76f 8c3c 1889 853c 25dc 8c3c
00000060: 8087 943c cdc1 a33c 29fd a93c c2cd c03c
00000070: 1cce d63c fb8e e93c 2ed4 a93c 38ab a53c
00000080: 6530 b93c a5ad df3c 4740 f53c 6d2e cf3c
00000090: 4db6 cc3c 8e95 c93c 8730 e03c 7517 e23c
000000a0: 5056 db3c fdaa d73c 7da9 b83c c48d a23c
000000b0: 1924 a83c cc39 dd3c 5fb8 d73c 456d bb3c
000000c0: c728 a33c dff3 a03c f401 0000 f401 0000
000000d0: f401 0000 f401 0000 f401 0000 f401 0000
000000e0: f401 0000 f401 0000 f401 0000 f401 0000
000000f0: f401 0000 f401 0000 f401 0000 f401 0000
00000100: f401 0000 f401 0000 f401 0000 f401 0000
00000110: f401 0000 f401 0000 f401 0000 f401 0000
00000120: f401 0000 f401 0000 f401 0000 f401 0000
00000130: f401 0000 f401 0000 f401 0000 f401 0000
00000140: 7b03 0000 f401 0000 f401 0000 f401 0000
00000150: 5206 0000 e407 0000 f606 0000 8703 0000
00000160: 8905 0000 8c07 0000 fa07 0000 1305 0000
00000170: f702 0000 6a02 0000 5e02 0000 5304 0000
00000180: 6c03 0000 9002 0000 0d02 0000 3402 0000
00000190: 4186 bb3c 073c b43c 8f5a bd3c ed15 d73c
000001a0: edb8 fe3c 191d c83c 5a83 bd3c fda8 c03c
000001b0: da5e f53c b28d 073d 6ae2 db3c 3e87 dc3c
000001c0: 7815 f53c 89d7 0f3d 2949 153d 96d0 e33c
000001d0: 636e f23c 5bf4 0b3d fd21 163d d690 173d
000001e0: f958 ec3c a589 053d ee3d 0f3d 54ed 153d
000001f0: 4886 183d 5599 8a3b 4c57 773b b7b1 603b
00000200: 49d5 653b 89fc 7d3b 69dd a13b 8509 8d3b
00000210: 8580 693b 9e91 7f3b d2c6 953b 26e0 c73b
00000220: 4bfd cb3b ea0d cd3b 6170 c23b 8f3c be3b
00000230: 1e0b cf3b dc10 da3b a0de de3b 83b4 d83b
00000240: 5754 ce3b 40c2 ce3b ab57 d63b 71f3 db3b
00000250: a91e d83b fb1a d53b ab46 8f3d e504 883d
00000260: 8fe3 6e3d 246b 583d 674a 583d 3eb0 973d
00000270: 0530 8e3d e031 6c3d 539e 5b3d 16ab 693d
00000280: 354c 8f3d d8e7 8b3d 98e0 7a3d 770b 8a3d
00000290: 6833 8d3d 898b 703d cf27 523d 5981 523d
000002a0: 9b4d 7d3d d250 8e3d 8504 533d 8e1d 433d
000002b0: 62c8 4f3d d776 723d d8f8 843d 6a2f f93c
000002c0: 26f9 013d 0ff2 103d 386c 1d3d 3420 223d
000002d0: e45b ea3c af1b fa3c 7f84 0c3d 4cae 1d3d
000002e0: eb74 233d a086 dd3c 9ca0 dc3c 593a fc3c
000002f0: 0bed 153d c7b8 1e3d bd6e c13c 6168 b93c
00000300: 2634 c93c f9b5 f73c b3f0 0c3d ec80 b83c
00000310: 8700 b73c a52a c83c 0d62 e93c 915d 033d
00000320: 8d00 983c f941 963c e2c5 983c 53e2 943c
00000330: a005 913c 36cf a03c 6a03 a13c ba8c a73c
00000340: 1621 9e3c 8b9f 9a3c 27de b63c a613 be3c
00000350: d6ae d13c c5eb b43c b4b7 a93c 265c ac3c
00000360: 6a34 a83c 1fa7 aa3c 820c a23c 22d0 a13c
00000370: b844 a13c 47ee 9e3c 43b3 a33c 7299 9b3c
00000380: 3a1c 9c3c 6636 ac39 9bb6 ac39 a63d a739
00000390: a000 6939 d7bb e838 9b74 a839 3f77 a939
000003a0: 4fab 9239 d9df e838 7e06 c838 10a3 9739
000003b0: f343 8f39 f123 1f39 a77f 6f39 033f 8339
000003c0: a572 d738 816d 1138 9322 e338 2761 6b39
000003d0: 061c 9439 8ed1 0e38 9fc0 3f38 3303 aa38
000003e0: be88 5939 2f38 8d39 0000 0000 0000 0000
000003f0: 0000 0000 0000 0000 0000 0000 f401 0000
0.01990633 0.019543536 0.019011911 0.019299997 0.0196634 0.01995485 0.01908775 0.017152986
0.018475087 0.019887416 0.019163556 0.016983306 0.014018387 0.016373657 0.01907972 0.018983217
0.017507944 0.015687004 0.017137252 0.018553112 0.018090952 0.017143143 0.016300723 0.017194817
0.018131018 0.019989872 0.020750599 0.023535613 0.026221327 0.028510561 0.020731058 0.020223245
0.022606084 0.02730448 0.029937876 0.025290692 0.024989272 0.024607446 0.02736689 0.027599076
0.026774555 0.02632665 0.022541756 0.01984299 0.020525025 0.027005099 0.026333032 0.022879252
0.019916905 0.019647537 7e-43 7e-43 7e-43 7e-43 7e-43 7e-43
7e-43 7e-43 7e-43 7e-43 7e-43 7e-43 7e-43 7e-43
7e-43 7e-43 7e-43 7e-43 7e-43 7e-43 7e-43 7e-43
7e-43 7e-43 7e-43 7e-43 7e-43 7e-43 7e-43 7e-43
1.249e-42 7e-43 7e-43 7e-43 2.267e-42 2.83e-42 2.497e-42 1.265e-42
1.986e-42 2.707e-42 2.861e-42 1.82e-42 1.064e-42 8.66e-43 8.49e-43 1.551e-42
1.228e-42 9.19e-43 7.36e-43 7.9e-43 0.022891166 0.02200128 0.02311447 0.026255572
0.031094039 0.024427937 0.023133922 0.02351808 0.029952455 0.033094116 0.026841361 0.026919957
0.029917464 0.03511766 0.036446724 0.027809422 0.029593652 0.034168582 0.036653508 0.03700336
0.02885102 0.03260197 0.03497117 0.036603287 0.037237436 0.0042297044 0.0037741242 0.0034285614
0.0035069755 0.003875526 0.004939724 0.0043041133 0.0035629582 0.0038996707 0.0045708204 0.0060997186
0.0062252632 0.006257762 0.0059338068 0.005805559 0.006318464 0.006654842 0.0068014413 0.0066133155
0.006296675 0.0063097775 0.0065412126 0.00671237 0.006595452 0.0065034605 0.06995901 0.066415586
0.058322486 0.052836552 0.05280533 0.074066624 0.06942753 0.057664752 0.053617787 0.057047926
0.06996957 0.0683133 0.061249346 0.06740468 0.068945706 0.05872682 0.051307496 0.051392887
0.06184159 0.06949009 0.051517982 0.047635607 0.05072821 0.059195366 0.06492776 0.030418117
0.031731747 0.035387095 0.038433284 0.039581493 0.02860827 0.030530779 0.034306046 0.0384963
0.039906424 0.027041733 0.026932053 0.030789541 0.036603015 0.038750436 0.023612374 0.02263278
0.024561 0.030238139 0.034409236 0.022522412 0.022339119 0.024434397 0.028489137 0.032071654
0.01855495 0.018342005 0.018649045 0.018174326 0.017702878 0.019630056 0.019654948 0.020452846
0.019302886 0.018874904 0.022322727 0.023202728 0.025596064 0.02208508 0.02071748 0.021040034
0.020532805 0.020831643 0.019781355 0.019752566 0.019686088 0.019400729 0.01998294 0.018994067
0.019056428 0.00032846926 0.00032942448 0.00031898654 0.00022220844 0.0001109761 0.00032130335 0.00032323037
0.00027974925 0.00011104317 9.5379524e-05 0.00028922455 0.00027325712 0.00015176811 0.0002284037 0.00025033214
0.00010273353 3.4672677e-05 0.000108306434 0.00022447539 0.0002824964 3.40506e-05 4.571734e-05 8.1068276e-05
0.00020745673 0.00026935476 0.0 0.0 0.0 0.0 0.0 7e-43

exp_avg f4 [32]
00000000: 54b8 d73a ac02 f0bd 0400 0000 0400 0000
00000010: ff06 7dbe fd98 a1bb 35a8 db3d cd7d a13c
00000020: 6d6c f73b bda6 823a 0400 0000 4662 663d
00000030: f08f 73bb ca61 cc3a 9ab3 083c c041 813b
00000040: 0400 0000 0400 0000 c87b dabb 0400 0000
00000050: 7cdf 043d 0400 0000 dea7 393d 0400 0000
00000060: e65c 523d 6863 a73b 0400 0000 6cb7 bbbc
00000070: 0400 0000 0400 0000 8115 a1bd 0400 0000
0.0016458132 -0.117192596 6e-45 6e-45 -0.247097 -0.0049315677 0.10725442 0.019713307
0.007550767 0.0009967905 6e-45 0.056246065 -0.003716465 0.0015593108 0.008343602 0.0039446056
6e-45 6e-45 -0.006667588 6e-45 0.032439694 6e-45 0.045326106 6e-45
0.051358126 0.0051082857 6e-45 -0.02291461 6e-45 6e-45 -0.0786543 6e-45

exp_avg_sq f4 [32]
00000000: 3661 463d 015c 733d f401 0000 6517 0000
00000010: 4e95 773d 1b5c 4a3c 959f 1f3e 15c6 943d
00000020: 4a9b 663d 6322 a03a f401 0000 59f8 e53c
00000030: 9f73 493a d159 383c 6e23 923a 63c6 bd3a
00000040: f401 0000 890c 0000 845a e83a 340d 2303
00000050: 8cea b13d 3fd8 0c00 2164 9e3d f401 0000
00000060: d1db 3e3c 0a14 283a 93a2 2800 5855 f03c
00000070: f401 0000 f401 0000 3657 8b3d f401 0000
0.04843255 0.059413914 7e-43 8.392e-42 0.060445122 0.012351061 0.1558822 0.07264344
0.05630044 0.0012217279 7e-43 0.028072523 0.00076847704 0.011251883 0.0011149475 0.001447868
7e-43 4.497e-42 0.0017727171 4.791655e-37 0.086873144 1.1796e-39 0.07733942 7e-43
0.011649088 0.00064116775 3.73174e-39 0.02933757 7e-43 7e-43 0.068037435 7e-43

exp_avg f4 [16, 32]
00000000: 3f13 073c 4d97 a43b 0000 0000 0400 0000
00000010: 437b 063c 8d6f 1b3c c260 cfbb aa94 833a
00000020: 681d ceba 316d 29b9 0400 0000 6e2c ccbb
00000030: 1c6f e739 3c4c 2c37 a4b2 5b3b d238 ca3a
00000040: 0400 0000 0400 0080 beca fe38 0400 0080
00000050: 8f37 0f3b 0400 0000 8cfb b7ba 0400 0080
00000060: 0076 203c fd51 3aba 0400 0000 6898 063b
00000070: 0400 0000 0400 0080 8189 ac3b 0000 0000
00000080: 2387 5bb9 c39a 27bb 0400 0080 0400 0000
00000090: d4d7 ceba 0b0e 673b 15b8 45bb aa0f 06bc
000000a0: 0ca5 27bb ae5a 5cb7 0400 0000 b7e2 87bb
000000b0: 5148 8d38 7a5f 52b7 1681 7339 ebc2 01ba
000000c0: 0400 0080 0400 0080 bcb2 95ba 0400 0080
000000d0: 7237 54bb 0400 0000 95fe 9cba 0400 0000
000000e0: f3ed 2a3b 5eda cdb9 0400 0000 780e d7bb
000000f0: 0400 0000 0400 0080 6119 d939 0400 0000
00000100: 2184 b63a 4413 6639 0000 0000 0400 0080
00000110: 0643 4d3b 24a2 3b3b ebc7 473b 5c75 383b
00000120: 8c12 113a 94be a239 0400 0000 628b d4bb
00000130: 8600 8bb8 babe be38 945b 97ba 5627 083b
00000140: 0400 0000 0400 0080 588a 81b9 0400 0080
00000150: dcb4 9c3b 0400 0080 27a2 25bc 0400 0000
00000160: a220 d83b 48be fd39 0400 0000 1d45 e3b7
00000170: 0400 0000 0400 0000 3073 1cbc 0400 0000
00000180: 4f43 8ebb b7e0 e0bb 0400 0000 0400 0080
00000190: 5015 a0ba 94e1 a4ba 3470 90ba 4bd7 b73b
000001a0: 4dca b7b7 135e 7bb7 0400 0000 bee1 50bc
000001b0: 912d f2b8 2022 c438 d69f 8aba b474 d5b7
000001c0: 0400 0000 0400 0080 2870 1fb7 0400 0080
000001d0: a52e a2b9 0400 0080 ce69 b9bc 0400 0000
000001e0: ae07 2abb 4706 10b7 0400 0000 199d d5b9
000001f0: 0400 0080 0400 0000 b2ea 63bc 0400 0000
00000200: ead3 0e3b b41c e93a 0400 0000 0400 0080
00000210: 1a00 123b e07e a13a 0122 de3a a362 d03a
00000220: 6561 ef3a 3442 6439 0000 0000 3343 bf3b
00000230: c78c 1939 bb91 1838 9f9b 87ba 4abd ae3a
00000240: 0400 0000 0400 0000 9d69 073a 0400 0080
00000250: a5a0 7e3b 0400 0080 da15 573b 0400 0080
00000260: 8194 703b e32b 9939 0400 0000 6e43 a439
00000270: 0000 0000 0400 0000 a3d8 493b 0000 0000
00000280: 3123 3f3b 079b d03a 0400 0000 0400 0080
00000290: 7756 673c b200 493b ed49 fe3a a320 023b
000002a0: 8b8d 983b c92c 8e38 0400 0080 2160 50bb
000002b0: 7b5c 1dba ce1e 6eb9 672d ce39 6c02 7b3a
000002c0: 0400 0000 0400 0080 2cdf 123b 0400 0000
000002d0: 45c1 e73b 0400 0080 1b3d c2bb 0400 0080
000002e0: 1ec5 093c 2e01 4237 0400 0080 28ab a03b
000002f0: 0400 0080 0400 0000 d0f9 63bb 0400 0000
00000300: c468 433c 2803 eb3b 0400 0080 0400 0000
00000310: d03b 983c 7dff 9cb8 1977 2f3a 827c 80bb
00000320: d186 43b8 ce52 e1b8 0400 0080 4950 9139
00000330: f666 6eb7 3aed 0bb7 0c69 24b8 c30f 54b8
00000340: 0400 0000 0400 0080 b568 03b8 0400 0000
00000350: c234 c73b 0400 0000 67b3 7dba 0400 0080
00000360: 5660 ac3c 66c6 21b9 0400 0080 da33 efb8
00000370: 0400 0080 0400 0080 9f06 00ba 0000 0000
00000380: a386 b13b 8b4f 61bb 0000 0000 0400 0080
00000390: c84d ae3b 6101 4e3b e989 0d3c 4129 173c
000003a0: 1ce1 0539 4684 2c37 0000 0000 4776 b3ba
000003b0: 51d6 fa39 07bd cf38 0e71 d1b9 b266 013a
000003c0: 0400 0000 0400 0000 21e9 7e37 0400 0080
000003d0: 041f 813b 0400 0080 f09a c8bb 0400 0000
000003e0: 1181 d53b 955c eb37 0400 0000 0d3f 7339
000003f0: 0000 0000 0400 0080 a1b6 83bb 0400 0000
0.008244335 0.0050229193 0.0 6e-45 0.008208099 0.009487045 -0.006328673 0.0010038812
-0.0015725316 -0.00016157773 6e-45 -0.0062308824 0.00044142536 1.0269749e-05 0.0033523226 0.0015428311
6e-45 -6e-45 0.000121494275 -6e-45 0.0021853184 6e-45 -0.0014036759 -6e-45
0.009793758 -0.0007107554 6e-45 0.0020537619 6e-45 -6e-45 0.005265415 0.0
-0.0002093581 -0.0025574423 -6e-45 6e-45 -0.0015780875 0.0035256173 -0.0030169536 -0.008182446
-0.0025580553 -1.3134135e-05 6e-45 -0.0041468996 6.736874e-05 -1.2539205e-05 0.00023222374 -0.00049500045
-6e-45 -6e-45 -0.0011421065 -6e-45 -0.003238168 6e-45 -0.0011977727 6e-45
0.002608177 -0.00039263343 6e-45 -0.006563004 6e-45 -6e-45 0.00041408374 6e-45
0.0013924876 0.00021941686 0.0 -6e-45 0.0031320467 0.002863058 0.003048415 0.0028146124
0.0005534075 0.0003104104 6e-45 -0.0064863423 -6.628134e-05 9.0954316e-05 -0.0011547678 0.00207754
6e-45 -6e-45 -0.00024707871 -6e-45 0.0047823023 -6e-45 -0.010109461 6e-45
0.006595687 0.0004839769 6e-45 -2.7092692e-05 6e-45 6e-45 -0.009548947 6e-45
-0.00434152 -0.0068627256 6e-45 -6e-45 -0.0012213383 -0.0012579435 -0.0011019767 0.0056103817
-2.1909504e-05 -1.4982669e-05 6e-45 -0.012749134 -0.000115479466 9.3523646e-05 -0.0010576199 -2.5445923e-05
6e-45 -6e-45 -9.503252e-06 -6e-45 -0.000309338 -6e-45 -0.02263346 6e-45
-0.002594452 -8.58453e-06 6e-45 -0.00040743573 -6e-45 6e-45 -0.013910936 6e-45
0.002179379 0.0017785043 6e-45 -6e-45 0.0022277893 0.0012321137 0.001694739 0.0015898537
0.0018263279 0.00021768437 0.0 0.005836868 0.0001464366 3.6375346e-05 -0.0010346061 0.0013331559
6e-45 6e-45 0.0005165579 -6e-45 0.0038853076 -6e-45 0.003281942 -6e-45
0.003670961 0.00029215132 6e-45 0.00031330757 0.0 6e-45 0.0030799292 0.0
0.0029165263 0.0015915342 6e-45 -6e-45 0.014119736 0.003067058 0.0019400694 0.0019855879
0.004655545 6.7794295e-05 -6e-45 -0.0031795579 -0.00060028554 -0.00022708924 0.0003932521 0.0009575251
6e-45 -6e-45 0.0022410853 6e-45 0.0070726 -6e-45 -0.0059276945 -6e-45
0.008408813 1.1563576e-05 -6e-45 0.004903216 -6e-45 6e-45 -0.003478635 6e-45
0.011926834 0.007172007 -6e-45 6e-45 0.018583208 -7.486248e-05 0.0006693467 -0.0039210925
-4.661718e-05 -0.000107442596 -6e-45 0.00027716372 -1.4209878e-05 -8.340279e-06 -3.919848e-05 -5.0559418e-05
6e-45 -6e-45 -3.133035e-05 6e-45 0.0060792873 6e-45 -0.0009677917 -6e-45
0.02104203 -0.00015428066 -6e-45 -0.00011406066 -6e-45 -6e-45 -0.0004883799 0.0
0.0054176613 -0.0034379687 0.0 -6e-45 0.005319331 0.0031433927 0.008638837 0.009226144
0.00012767728 1.0282796e-05 0.0 -0.0013691866 0.00047843394 9.905738e-05 -0.0003994782 0.0004936262
6e-45 6e-45 1.5193859e-05 -6e-45 0.003940465 -6e-45 -0.0061219856 6e-45
0.00651563 2.8057295e-05 6e-45 0.00023197774 0.0 -6e-45 -0.004019574 6e-45

exp_avg_sq f4 [16, 32]
00000000: ef1e d539 0f3f 043a 0000 0000 f401 0000
00000010: 105a 623a e724 fa38 acca 203a b45c 153b
00000020: 5293 d538 7ba9 dc37 f401 0000 1dd3 bd3a
00000030: c1f0 d437 f62a ca35 e3aa 2239 ffd0 8e38
00000040: f401 0000 f401 0000 3fcf 2a36 7eaa a801
00000050: 8f37 093a 31e2 0000 9b4d 023b f401 0000
00000060: 2e23 dd39 a3cc 4c38 ca0e 0000 3101 183a
00000070: f401 0000 f401 0000 0915 c339 0000 0000
00000080: 935a 1739 661a 5639 f401 0000 f401 0000
00000090: 8bae 963a e6e0 2a3a b004 c239 4a11 8f3a
000000a0: f3c8 b838 1d06 2737 f401 0000 1f71 7c3a
000000b0: 6342 f337 5a98 c735 f6bb d538 05af 0937
000000c0: f401 0000 f401 0000 9135 f537 c100 3d01
000000d0: 6fa6 2739 56b0 0000 1b21 903a f401 0000
000000e0: c3dd 283a 6c3d fc37 db41 0000 815f d839
000000f0: f401 0000 f401 0000 a423 9739 f401 0000
00000100: 8c3f 4039 ae82 ed3a 0000 0000 f401 0000
00000110: 7ee8 033b d276 bf3a 56ea eb3a 62c1 4f3b
00000120: 4170 b938 e5c9 fd38 f401 0000 d087 933a
00000130: fb8c 3338 7022 8c37 640e 9c39 a836 d638
00000140: f401 0000 f401 0000 1318 2938 6696 8502
00000150: d067 693a 8111 0100 9578 013b f401 0000
00000160: 7005 103a 684d 6838 8f0b 0200 b8df 1e3a
00000170: f401 0000 f401 0000 0eca 743a f401 0000
00000180: 5473 2a39 cb12 b33a f401 0000 f401 0000
00000190: aa1a f139 c7fd e739 3edd a53a ecb6 2f3b
000001a0: bfc8 5a38 a660 0f38 f401 0000 e747 ae3a
000001b0: e0d1 8438 6142 0a37 fe76 0739 9254 6a38
000001c0: f401 0000 f401 0000 4827 2d37 3b25 da01
000001d0: 9727 3a38 a20e 0000 4b12 0a3b f401 0000
000001e0: 3b33 8f38 1736 7637 ba07 0000 4209 f939
000001f0: f401 0000 f401 0000 48b0 903a f401 0000
00000200: d091 0338 79bf fe39 f401 0000 f401 0000
00000210: 1951 d53a b7a7 303a 6e45 523a bb29 ab3a
00000220: 2cec e038 2c15 5638 0000 0000 ae8b c639
00000230: ee40 5237 da17 0736 18b7 3139 e269 0238
00000240: f401 0000 f401 0000 088c 0638 0568 9901
00000250: 4d43 ec39 038f 0000 6174 353a f401 0000
00000260: 8016 1a3a c444 c237 1637 0000 9d97 b139
00000270: 0000 0000 f401 0000 44cc d139 0000 0000
00000280: 0132 ad3a d390 843a f401 0000 f401 0000
00000290: b2a2 ab3a 876f 6639 c86d 513a 152f d43a
000002a0: b1bb b139 42a5 2b38 f401 0000 d157 273b
000002b0: 80bc c938 3cb6 b038 7698 8f39 e1a4 4d37
000002c0: f401 0000 f401 0000 bd6d 5238 35db a203
000002d0: 69e3 ba3a d407 0000 f4c7 fe3a f401 0000
000002e0: a44f 8c3a e784 dc38 308c 0000 8e3b 783a
000002f0: f401 0000 f401 0000 58d8 543a f401 0000
00000300: 00a7 2b39 2d1b 3839 f401 0000 f401 0000
00000310: 1b29 c738 7cca 1838 5aac 5039 9b8f 8338
00000320: 8429 c537 ec44 3437 f401 0000 7975 7839
00000330: 04fe 3437 997b 2e37 e88c c238 40c4 0835
00000340: f401 0000 f401 0000 89e4 9f36 dad0 ec02
00000350: 8c4b b539 f602 0000 d1a2 4c38 f401 0000
00000360: d762 8d39 ed84 7637 2939 0100 6e0f 8238
00000370: f401 0000 f401 0000 c6c9 3739 0000 0000
00000380: 4c79 493a 30e3 623a 0000 0000 da09 0000
00000390: 0238 293b c59f 033b 6705 353b 7c36 813b
000003a0: ebf8 1739 4d3e 5d38 0000 0000 a631 263b
000003b0: 537c f738 eada 8937 9580 4939 1c5d 6637
000003c0: f401 0000 5903 0000 571b 1138 227d 9703
000003d0: 762a 0038 310e 0400 d98c 743b f401 0000
000003e0: 655e 8e3a dd71 2538 f4e7 0100 1587 313a
000003f0: 0000 0000 f401 0000 1e1b 143b f401 0000
0.00040649573 0.0005044797 0.0 7e-43 0.0008634636 0.000119278026 0.0006133716 0.002279085
0.00010184072 2.6304964e-05 7e-43 0.0014482472 2.538448e-05 1.5062676e-06 0.00015513184 6.810016e-05
7e-43 7e-43 2.5452607e-06 6.19581e-38 0.0005234414 8.1142e-41 0.0019882682 7e-43
0.00042178616 4.8827973e-05 5.305e-42 0.00057985174 7e-43 7e-43 0.0003720897 0.0
0.00014434224 0.00020418465 7e-43 7e-43 0.001149611 0.0006518498 0.00037006056 0.0010915187
8.8112334e-05 9.955399e-06 7e-43 0.00096298935 2.8998771e-05 1.4870996e-06 0.00010191642 8.206586e-06
7e-43 7e-43 2.923122e-05 3.4714358e-38 0.00015988362 6.3257e-41 0.0010996194 7e-43
0.00064417365 3.0069343e-05 2.3624e-41 0.00041269886 7e-43 7e-43 0.0002882752 7e-43
0.0001833422 0.0018120611 0.0 7e-43 0.002012759 0.0014607555 0.0017998915 0.0031700958
8.842396e-05 0.00012101586 7e-43 0.0011255685 4.2808224e-05 1.6705337e-05 0.0002976536 0.00010214496
7e-43 7e-43 4.031516e-05 1.9628918e-37 0.0008903714 9.8115e-41 0.001975571 7e-43
0.00054939743 5.53852e-05 1.87817e-40 0.00060605584 7e-43 7e-43 0.000933797 7e-43
0.00016255426 0.0013662217 7e-43 7e-43 0.00045986968 0.00044248832 0.0012654436 0.002681191
5.216221e-05 3.4183868e-05 7e-43 0.0013296575 6.333343e-05 8.240896e-06 0.00012918931 5.586871e-05
7e-43 7e-43 1.0320749e-05 8.0133976e-38 4.4382727e-05 5.249e-42 0.0021068032 7e-43
6.828314e-05 1.4675336e-05 2.772e-42 0.0004749988 7e-43 7e-43 0.0011038864 7e-43
3.1368632e-05 0.00048589314 7e-43 7e-43 0.0016274779 0.00067388586 0.000802121 0.0013058701
0.00010725143 5.1041294e-05 0.0 0.00037869572 1.2532093e-05 2.013045e-06 0.00016948243 3.1093026e-05
7e-43 7e-43 3.2078504e-05 5.6352584e-38 0.0004506357 5.1303e-41 0.0006921944 7e-43
0.00058779866 2.3158624e-05 1.9761e-41 0.00033873031 0.0 7e-43 0.00040015776 0.0
0.0013213755 0.0010113962 7e-43 7e-43 0.0013094752 0.00021976056 0.0007989076 0.0016188348
0.00033899912 4.0923485e-05 7e-43 0.002553452 9.619538e-05 8.426278e-05 0.00027388678 1.2257341e-05
7e-43 7e-43 5.0170103e-05 9.571832e-37 0.0014258447 2.808e-42 0.0019438253 7e-43
0.0010704887 0.000105151725 5.029e-41 0.00094693236 7e-43 7e-43 0.0008119396 7e-43
0.00016370043 0.00017557731 7e-43 7e-43 9.496716e-05 3.6428202e-05 0.00019900632 6.2733154e-05
2.3503562e-05 1.0744883e-05 7e-43 0.00023694885 1.0787979e-05 1.03999855e-05 9.276887e-05 5.094953e-07
7e-43 7e-43 4.7651743e-06 3.4796958e-37 0.00034579297 1.062e-42 4.8789025e-05 7e-43
0.00026967257 1.4693692e-05 1.1234e-40 6.201757e-05 7e-43 7e-43 0.00017527406 0.0
0.0007685616 0.00086550694 0.0 3.534e-42 0.0025820737 0.0020084244 0.0027621628 0.0039432626
0.00014493211 5.2748528e-05 0.0 0.0025359183 0.00011801035 1.6433612e-05 0.00019216754 1.3730747e-05
7e-43 1.201e-42 3.4596156e-05 8.903711e-37 3.0557123e-05 3.72433e-40 0.0037315397 7e-43
0.0010861872 3.944511e-05 1.75045e-40 0.0006772143 0.0 7e-43 0.002259917 7e-43

exp_avg f4 [16]
00000000: 3eb1 2dbc d7f9 c5bc 574f 6dbb 01be 2ebd
00000010: 5bab b13c 6aee 2e3d b2dd a93d beaf 793c
00000020: e616 363b 0400 0000 0400 0000 6433 f13b
00000030: 077b aebc c7b6 1cbb 5f2a 16bd af39 283c
-0.01060134 -0.024166984 -0.003621062 -0.04266167 0.021688154 0.042707838 0.08294238 0.015239654
0.0027784645 6e-45 6e-45 0.0073608626 -0.021298898 -0.0023912655 -0.036661502 0.010267659

exp_avg_sq f4 [16]
00000000: 95a9 cb3b 2a14 a83b d5bc 6f3c c47f 443c
00000010: a340 c63b cc84 7e3c 35e7 403c 97f4 783c
00000020: f58b c63a f401 0000 f401 0000 2ac3 7b3c
00000030: 6fdc 2e3c a468 333c ee5c ad3b fe54 c03b
0.006215284 0.005129357 0.014632423 0.011993352 0.0060501858 0.015534591 0.011773874 0.0151950335
0.0015147912 7e-43 7e-43 0.015366355 0.010672673 0.010950241 0.005290619 0.005869507

exp_avg f4 [3, 16]
00000000: f942 faba 629b 6a3a cf61 23ba 72e6 963a
00000010: 60f3 3bba 4ac1 61bb 2d95 49bb b612 773a
00000020: 4b7d fb39 0400 0080 0400 0000 311e 59bb
00000030: a356 41ba 1241 c039 7e73 baba b748 e9ba
00000040: 22b5 43b9 bbe1 4a3b c4ff 0a3a 7ed6 c638
00000050: b308 4d3a c1c4 233b 2d8c 2e3b 93b2 30b9
00000060: d5e0 8ebb 0400 0000 0400 0000 aec5 783b
00000070: b390 59ba e8f1 473b a8f2 dd3a 1844 bc3a
00000080: d25c 093b 47c4 82bb 3011 c338 d253 a3ba
00000090: bda9 88b8 3cf2 773a 6f48 d839 0ee6 4aba
000000a0: 0352 7e3b 0400 0000 0400 0080 a43b fdb9
000000b0: b373 cd3a 05fa 5fbb 85fc 8db9 a912 b439
-0.0019093446 0.00089495454 -0.0006232531 0.001151277 -0.00071697496 -0.0034447485 -0.0030759082 0.00094250904
0.000479678 -6e-45 6e-45 -0.0033129568 -0.00073752756 0.00036669575 -0.0014225093 -0.001779816
-0.00018664126 0.00309573 0.0005302394 9.481328e-05 0.00078214257 0.00249891 0.0026633844 -0.00016851192
-0.004360298 6e-45 6e-45 0.0037959623 -0.0008299455 0.0030509178 0.0016933279 0.0014363555
0.0020959866 -0.0039906832 9.301526e-05 -0.0012460893 -6.5166016e-05 0.0009458398 0.00041252698 -0.00077399693
0.0038806207 6e-45 -6e-45 -0.00048300356 0.001567474 -0.0034176123 -0.00027081757 0.00034346178

exp_avg_sq f4 [3, 16]
00000000: 1387 fa39 14da aa39 060c 4638 9126 c537
00000010: 29af 9338 16cc 0138 0fa6 3d36 a8e2 e038
00000020: 80e5 1e39 f401 0000 f401 0000 cdbc 2e39
00000030: c78b 443a f20f e038 2842 8839 edf8 9038
00000040: b7d3 f738 c3da 1f38 f2e7 e737 03f0 7e37
00000050: 574c 5b38 eda0 c038 e2ff 4837 e319 cb38
00000060: cb56 3639 f401 0000 f401 0000 21bf bf38
00000070: 751d 9838 779b d137 42e7 0a38 c91d 3239
00000080: 06b2 f539 047a 9f39 8188 9738 ffc0 2138
00000090: 25b7 e238 fc3f b138 bae9 1637 d012 4939
000000a0: 4722 8939 f401 0000 f401 0000 1154 0539
000000b0: 02b0 4c3a ff79 bc38 a763 7f39 9b9b 3439
0.00047784354 0.00032587408 4.7218076e-05 2.3502189e-05 7.042132e-05 3.0946067e-05 2.8259853e-06 0.0001072337
0.0001515355 7e-43 7e-43 0.00016664267 0.0007497635 0.000106841224 0.00025989232 6.912821e-05
0.00011817313 3.811229e-05 2.7645354e-05 1.5195462e-05 5.2284766e-05 9.185248e-05 1.1980506e-05 9.684616e-05
0.00017389205 7e-43 7e-43 9.14319e-05 7.2534116e-05 2.4987135e-05 3.311714e-05 0.00016986499
0.0004686268 0.00030417752 7.225667e-05 3.8565133e-05 0.00010810633 8.451936e-05 8.995115e-06 0.00019175862
0.00026156215 7e-43 7e-43 0.00012715186 0.00078082096 8.987262e-05 0.00024355818 0.00017224105

exp_avg f4 [3]
00000000: 22f4 eebb 6652 d13b 720e 6d3a
-0.0072922865 0.0063879965 0.0009042985

exp_avg_sq f4 [3]
00000000: 79ce 123b 4ef4 883a 0b0f 1f3b
0.00224009 0.0010448785 0.002427044

loss f8 []
00000000: 3433 3f0e 7193 dc3f
0.4464991225366248
