9_no_regu_epoch_edge_detector.pth (torch, 25353 bytes, 19 tensors)

model.0.weight f4 [32, 25]
0	0xbd1edcd7	-0.038784828
1	0xbd2efa7e	-0.042719357
2	0xbcf96738	-0.030444726
3	0xbcd336d4	-0.02578298
4	0xbc89f4ae	-0.016840305
5	0xbd0d8efa	-0.03456018
6	0xbd477ffe	-0.048706047
7	0xbd4b4bf9	-0.049633
8	0xbc283c95	-0.01026835
9	0xbc06cee6	-0.008228039
10	0xbd19fd8e	-0.037595324
11	0xbd29f5dc	-0.041494235
12	0xbd21c72d	-0.03949659
13	0x3c1011a6	0.00879327
14	0xbbb737ab	-0.005591353
15	0xbd0f7511	-0.035023753
16	0xbd4154c2	-0.047199972
17	0xbd1a18f5	-0.037621457
18	0xbb9f44b9	-0.0048604873
19	0xbcc39f9a	-0.023879815
20	0xbcc063d0	-0.023485094
21	0xbd0b9013	-0.034072947
22	0xbce98471	-0.028505536
23	0xbc7832b2	-0.015148805
24	0xbc8130c5	-0.015770325
25	0xbcd8cf70	-0.026466101
26	0x3d4b0b24	0.04957117
27	0x3dd4823d	0.103764035
28	0x3d4d2568	0.0500845
29	0xba993092	-0.0011687449
30	0xbe9b693a	-0.3035372
31	0x3d4d71d8	0.050157398
32	0x3f144ebc	0.5793264
33	0x3ea90a2c	0.33015573
34	0xbec09168	-0.37610936
35	0xbf1b3058	-0.6062064
36	0xbec15a59	-0.37764242
37	0x3f8554ab	1.0416464
38	0xbe483433	-0.19551162
39	0xbf22926d	-0.6350468
40	0xbec3ffae	-0.38281006
41	0x3df94cdf	0.12172865
42	0x3f252d36	0.6452211
43	0x3e36f279	0.17865933
44	0xbeeaf4ed	-0.4588999
45	0x3de98795	0.11402813
46	0xbd321552	-0.043477364
47	0x3debd360	0.11514926
48	0x3c940f95	0.018073836
49	0xbcb4abe8	-0.022054628
50	0x3dac5a9f	0.08415722
51	0x3e057db8	0.13036239
52	0x3de3e3dd	0.11127446
53	0x3ba0ebab	0.0049109063
54	0x3d663df5	0.05621143
55	0x3ee0ab7a	0.43880826
56	0x3dab7b8e	0.083731756
57	0x3c8a841c	0.016908698
58	0xbc9bc41e	-0.019014414
59	0xbe31c34d	-0.17359658
60	0xbe11aa84	-0.14225203
61	0xbeff61bc	-0.49879253
62	0xbf7928e5	-0.97328025
63	0xbf4613db	-0.7737405
64	0xbed06073	-0.40698585
65	0xbed316e4	-0.41228402
66	0xbf273e22	-0.6532918
67	0xbd782067	-0.060577776
68	0xbe2c4f99	-0.16827239
69	0xbde87b78	-0.11351675
70	0xbe5e20d2	-0.21692207
71	0x3e3c279d	0.18374486
72	0x3e99a1d8	0.3000629
73	0x3db27737	0.08714145
74	0x3dde147a	0.10843749
75	0x3e921aa1	0.2853594
76	0x3dfdb562	0.12388112
77	0x3c9b474e	0.0189549
78	0x3e1b7bc9	0.15183939
79	0x3eb7a584	0.35868466
80	0x3ec1573a	0.3776186
81	0xbe6d72bf	-0.23188303
82	0xbf18b06e	-0.5964421
83	0xbe2e638b	-0.1703016
84	0x3f017208	0.5056462
85	0x3f21ba28	0.63174677
86	0xbf18e52c	-0.5972469
87	0xbf47838e	-0.7793511
88	0xbf004b8a	-0.50115263
89	0x3f095a59	0.53653485
90	0x3eb3146c	0.34976518
91	0xbd25d96f	-0.040490564
92	0xbe19996e	-0.14999935
93	0xbe9d2d48	-0.3069861
94	0x3cd61fb7	0.02613817
95	0xbd78a6c4	-0.060705915
96	0xbe2448bb	-0.1604337
97	0xbe09f7b1	-0.13473393
98	0xbe020926	-0.12698802
99	0xbde4bb5a	-0.11168547
100	0xbcf37bec	-0.029722176
101	0xbddb6649	-0.10712869
102	0x3cbdbff3	0.023162818
103	0xbdea7005	-0.11447147
104	0x3e7286a1	0.2368417
105	0xbd58f65b	-0.052969318
106	0x3e6eafeb	0.23309295
107	0xbd6004ed	-0.054692198
108	0xbef1633e	-0.47146028
109	0x3ef410c8	0.47669053
110	0xbe564030	-0.20922923
111	0x3f2b1fcb	0.6684539
112	0xbe88c1c2	-0.26710325
113	0xbfda9083	-1.7075351
114	0xbd465ef4	-0.048430398
115	0x3c505f6d	0.012718064
116	0x3e887c1e	0.26657194
117	0xbd38a290	-0.045076907
118	0xbe7944c7	-0.24342643
119	0x3e994805	0.2993776
120	0xbe1661fa	-0.14685813
121	0x3d3cbac9	0.04607657
122	0x3dcccfef	0.10000598
123	0xbe4f6153	-0.2025197
124	0xbc68ceb4	-0.014209438
125	0x3acef7aa	0.0015790362
126	0xbdc1d126	-0.0946372
127	0xbdca6b33	-0.09883728
128	0x3e076dfb	0.13225548
129	0xbda8b386	-0.082373664
130	0xbe870921	-0.26374152
131	0x3e22f261	0.15912773
132	0x3eb45f60	0.35229015
133	0x3e06f5e2	0.13179734
134	0xbe3c6ef9	-0.18401708
135	0x3e100fbf	0.14068507
136	0x3efba2e1	0.49147704
137	0x3f6e3142	0.9304391
138	0x3e297c82	0.16551402
139	0xbdf0eff9	-0.11764521
140	0xbd8eda7a	-0.06975265
141	0xbf2718d0	-0.65272236
142	0xbf305b12	-0.6888896
143	0xbf79dbaf	-0.97600836
144	0xbec3a00d	-0.38208047
145	0x3dfff1b8	0.12497276
146	0x3e460072	0.19336107
147	0x3e0946c7	0.13405906
148	0x3db5f67a	0.08884902
149	0xbd93ff7e	-0.07226466
150	0xbce830cd	-0.028343583
151	0xbd5a035a	-0.053225853
152	0xbd344cdb	-0.044018608
153	0xbc0e0663	-0.008668515
154	0xbc130c31	-0.008975075
155	0xbc281082	-0.010257842
156	0xbdaf9a41	-0.085743435
157	0xbdece7c0	-0.1156764
158	0xbcfedc8d	-0.031111026
159	0xbc8c9cca	-0.017164607
160	0xbcd980df	-0.026550708
161	0xbc7e7e9a	-0.015533114
162	0x3d4b7cc2	0.049679525
163	0xbd7e9f0c	-0.062163398
164	0xbdaf7a0f	-0.08568203
165	0xbd745847	-0.0596545
166	0xbc82e3d3	-0.015977776
167	0x3bfa9277	0.0076468545
168	0xbc878521	-0.016542973
169	0xbd35faa3	-0.04442848
170	0xbd2137c8	-0.039359838
171	0xbc996cae	-0.01872858
172	0x3b83eb5b	0.0040258593
173	0xbc84e7ab	-0.01622375
174	0xbcdeb118	-0.027184054
175	0x3cba8f8c	0.022773527
176	0xbf0913d6	-0.5354589
177	0xbd953fa9	-0.07287533
178	0xbdad0517	-0.084482364
179	0x3e0b5b85	0.1360913
180	0xbd9fb494	-0.077981144
181	0xbdc36c2c	-0.095421165
182	0xbf421c67	-0.7582459
183	0xbecafb5d	-0.396449
184	0x3e35d89f	0.17758416
185	0xbd4f8feb	-0.05067436
186	0xbcbbb7c2	-0.022914771
187	0xc081a2d0	-4.0511246
188	0xbe45be05	-0.19310768
189	0x3ea7267a	0.32646543
190	0xbda0d7e0	-0.07853675
191	0xbe4d17ee	-0.2002866
192	0xbf99b56a	-1.2008488
193	0xbeae962d	-0.3409895
194	0x3e24bfe5	0.16088827
195	0xbd5b4da3	-0.053540837
196	0xbee590e4	-0.44837105
197	0xbf0fac81	-0.56122595
198	0xbe46718c	-0.19379252
199	0x3dbbed00	0.091760635
200	0xbdbf1e72	-0.09331979
201	0x3d72b7c0	0.05925727
202	0x3e2bf81a	0.16793862
203	0x3d4514ef	0.048115667
204	0x3da169ff	0.07881545
205	0xbd045dea	-0.032316126
206	0x3e0ba681	0.13637735
207	0xbe417974	-0.18893987
208	0x3e908eab	0.28233847
209	0x3d9fa4a8	0.077950776
210	0x3e373c77	0.1789416
211	0x3cef5be9	0.02921863
212	0xc0e03078	-7.0059166
213	0xbf0b7d58	-0.54488134
214	0xbd67d064	-0.05659522
215	0x3e24e0dc	0.16101402
216	0xbe5fdab8	-0.21860778
217	0xbfa770e0	-1.3081322
218	0xbed3aacb	-0.41341242
219	0xbd81af5b	-0.063322745
220	0xbe368311	-0.17823435
221	0xbe5a4ef0	-0.21319175
222	0xbf6093ca	-0.8772551
223	0x3e25997d	0.16171832
224	0x3e1bd0d6	0.15216383
225	0xbc96db00	-0.018414974
226	0xbd096c6e	-0.033550672
227	0xbd4f9cf3	-0.050686788
228	0xbd9b2bb6	-0.075766966
229	0xbd936d3b	-0.071985684
230	0xbc8f53c2	-0.017495994
231	0x3c794bf8	0.015215866
232	0xbc8a188d	-0.01685741
233	0xbdb8dbd4	-0.09026304
234	0xbdb0a070	-0.08624351
235	0xbd1ca3d5	-0.03824218
236	0x3cc238fb	0.023708811
237	0xbd1795ae	-0.03700798
238	0xbde8d409	-0.113685675
239	0xbdad3833	-0.08457985
240	0xbd0e06ec	-0.03467457
241	0xbbe566b4	-0.0070007686
242	0xbd598d66	-0.053113364
243	0xbdcdcb9d	-0.10048602
244	0xbd92bad6	-0.071645424
245	0xbbd71aa7	-0.0065644565
246	0x3c031a96	0.008001944
247	0xbd06f178	-0.032945126
248	0xbd997923	-0.07493808
249	0xbdaf1393	-0.08548655
250	0x3e68d0e1	0.22735931
251	0x3eb839bc	0.35981548
252	0x3ef747ec	0.4829706
253	0x3e62a94f	0.22134899
254	0x3df73a5b	0.12071677
255	0x3e599fb2	0.21252325

model.0.bias f4 [32]
0	0xbc31b6b6	-0.010846784
1	0xbc518687	-0.0127884215
2	0x3ce8e4c2	0.028429393
3	0xbc859933	-0.016308403
4	0x3d998f8a	0.07498081
5	0xbc6ba15b	-0.014381732
6	0xbc4de181	-0.012565971
7	0x3e86b8b3	0.2631279
8	0x3debeccc	0.11519775
9	0xbd30d5b6	-0.04317256
10	0x3c4e34fc	0.012585875
11	0xbb8e4ff4	-0.0043430272
12	0xbc813bfa	-0.01577567
13	0x3c653a39	0.013990932
14	0xbd865454	-0.06559053
15	0xbd0c8eef	-0.034316
16	0x3d102b39	0.03519747
17	0x3eb3d285	0.3512155
18	0xbd540117	-0.05175885
19	0xbb3e0ae0	-0.0028998181
20	0x3db753bc	0.08951518
21	0xbdae6d8a	-0.08516987
22	0xbd9d2d8f	-0.07674705
23	0x3e0314df	0.1280093
24	0x3c3fc6d1	0.011705116
25	0x3dde5c87	0.10857492
26	0x3e7c8dad	0.2466342
27	0x3c14fda9	0.00909368
28	0xbcaffd8d	-0.021483207
29	0xbbcc7147	-0.0062390896
30	0xbc20129f	-0.009770065
31	0xbc980b7f	-0.01856017

model.2.weight f4 [16, 32]
0	0x3cc5d7e0	0.024150789
1	0xbf34c041	-0.70605856
2	0x3d45ba54	0.0482734
3	0x3f186520	0.59529305
4	0xbe0ad28e	-0.13556883
5	0xbec23c3c	-0.3793658
6	0xbd86ec9d	-0.06588099
7	0x3ea1ca94	0.31599867
8	0x3fa7e3f1	1.3116437
9	0xb9bec014	-0.00036382733
10	0x3f6b86a8	0.92002344
11	0x3ae0d846	0.0017154298
12	0x3f3a0038	0.72656584
13	0xbe8bdf58	-0.27318835
14	0x3f288dcd	0.6584137
15	0xbe0e4127	-0.13892041
16	0x3f72a8a9	0.94788605
17	0xbd910afd	-0.07082174
18	0xbf6c70e5	-0.92359763
19	0x3b9dcb52	0.0048154974
20	0x3eb0d691	0.345387
21	0x3eb1ffba	0.34765416
22	0x3eace71e	0.33770078
23	0x3ded8db5	0.11599294
24	0xbf17764a	-0.5916487
25	0x3f1bb9a1	0.6083012
26	0xbe0c9c28	-0.13731444
27	0x3e353a53	0.1769803
28	0xbe61aeca	-0.22039333
29	0xbbaf29a1	-0.0053455387
30	0x3a2c02c0	0.0006561689
31	0xbbae30ce	-0.0053158766
32	0x3c676742	0.01412374
33	0x3ed3ebe6	0.41390914
34	0xbdb59de4	-0.08868006
35	0xbede9343	-0.43471727
36	0xbe331ee3	-0.17492251
37	0x3f69935d	0.91240484
38	0x3c0f2f3d	0.00873929
39	0xbd3554c1	-0.04427028
40	0xbf4514f9	-0.76985127
41	0x3afc13fb	0.0019232029
42	0xbe3600a4	-0.17773682
43	0xbcda09ff	-0.026616095
44	0xbe813bc6	-0.25240916
45	0x3f93ece4	1.1556668
46	0xbf372785	-0.71544677
47	0x3f20c7f4	0.62805104
48	0xbf88a32f	-1.06748
49	0x3f3ffc3c	0.74994254
50	0xbf264bd6	-0.64959466
51	0xbcc6ca82	-0.024266485
52	0xbef97738	-0.4872377
53	0xbece39e5	-0.40278545
54	0xbf1eb9af	-0.6200208
55	0x3dc28b67	0.09499245
56	0x3f059a06	0.52188146
57	0xbe839fe5	-0.25707927
58	0x3f5cc61a	0.8623978
59	0xbf49fd33	-0.78901976
60	0x3ef23601	0.47306827
61	0xbb8130d1	-0.003942587
62	0x3a41d340	0.00073938444
63	0xbbae0c7b	-0.0053115464
64	0xbb55c644	-0.0032619396
65	0xbf5a24e1	-0.8521252
66	0x3ce17f28	0.027526453
67	0xbeec9769	-0.46209267
68	0x3ed762fb	0.42067704
69	0x3ec47439	0.3836992
70	0xbcebf72b	-0.028804382
71	0xbe3a04cd	-0.18165894
72	0xbf6a19af	-0.9144544
73	0x3b03696b	0.0020051848
74	0xbe4e5627	-0.20150052
75	0xbb89b5e3	-0.004202591
76	0xbe95ae82	-0.292347
77	0xbeb8ce15	-0.36094728
78	0xbebbf55b	-0.3671063
79	0x3e4f4d18	0.20244253
80	0xbf28c162	-0.6592008
81	0x3ef0bbe3	0.47018346
82	0x3f45a03f	0.7719764
83	0x3c8c9bea	0.01716419
84	0xbe3d1819	-0.18466224
85	0xbed7b2a3	-0.42128477
86	0xbeb50ccd	-0.3536133
87	0x3dff0ca1	0.12453581
88	0x3f0b7fd7	0.54491943
89	0xbe6dc559	-0.23219813
90	0x3c54e745	0.012994592
91	0xbdc7a810	-0.09748852
92	0x3eca676c	0.3953203
93	0xb99d4e22	-0.00030003587
94	0x3b1dcc57	0.0024078095
95	0x3a3c4f7f	0.00071834767
96	0x3c951fe6	0.018203687
97	0x3efb7a7a	0.4911688
98	0x3ee588b8	0.4483087
99	0x3f0ac3af	0.5420484
100	0x3c8f1627	0.017466618
101	0xbfaca560	-1.3487968
102	0x3b2e58df	0.0026603264
103	0x3e7747b1	0.24148442
104	0x3f7629c6	0.9615749
105	0x3d91db86	0.07121949
106	0x3e7ce524	0.24696785
107	0xba6a1bbc	-0.00089305243
108	0xbf03409f	-0.5127048
109	0xbf1fca11	-0.62417704
110	0x3f22ec61	0.63641936
111	0xbe7328bb	-0.23746006
112	0x3fae9f60	1.3642387
113	0xbea8d3a7	-0.32973978
114	0xbfd4f7b9	-1.6638099
115	0xbd1ee657	-0.038793888
116	0x3d8100f0	0.06299007
117	0xbec9434b	-0.39309153
118	0x3f6034ff	0.87580866
119	0x3e59a16a	0.21252981
120	0xbeb0ca20	-0.3452921
121	0x3e5d72ac	0.21625775
122	0xbe5f950b	-0.21834199
123	0x3f14d828	0.5814233
124	0xbf267821	-0.6502705
125	0xba6f78e8	-0.0009135143
126	0xba088a9e	-0.0005208644
127	0xbc92be52	-0.017913017
128	0xbc81d8f8	-0.01585053
129	0xbf1003e7	-0.56255955
130	0x3f86d52e	1.0533807
131	0x3ee224ec	0.44168794
132	0xbe2b736c	-0.16743249
133	0xbf416be8	-0.75555277
134	0x3dd122bd	0.10211704
135	0x3ecf6ecc	0.4051422
136	0x3f7565d3	0.95858496
137	0xbd7ac7f0	-0.06122583
138	0xbe9f1084	-0.31067288
139	0xbc455145	-0.012043302
140	0xbf107901	-0.5643464
141	0xbde9fb46	-0.1142488
142	0x3c545e08	0.012961872
143	0xbe650281	-0.22364236
144	0x3f60d91b	0.87831277
145	0x3f009cc0	0.5023918
146	0xbdd136a1	-0.10215498
147	0xbb8a66cf	-0.0042236815
148	0x3f0b5f72	0.54442513
149	0x3eb4d4be	0.3531856
150	0x3eb3e856	0.35138196
151	0x3f11e2c5	0.5698665
152	0xbe930cf8	-0.28720832
153	0x3f3ed440	0.7454262
154	0x3e2d5718	0.16927755
155	0x3ee766a5	0.451955
156	0x3ca103f1	0.0196552
157	0xbac93b32	-0.0015352725
158	0xb9fc4a91	-0.00048120742
159	0x3c9d4f92	0.019202981
160	0xbbe52c07	-0.006993774
161	0xbf53fce3	-0.8280775
162	0x3ebbda55	0.36690012
163	0xbe1405c8	-0.1445533
164	0xbd7f564a	-0.06233815
165	0xbed21352	-0.41030365
166	0x3cc998ac	0.024608932
167	0x3f288996	0.6583494
168	0x3f673535	0.9031556
169	0x3cef4336	0.029206853
170	0xbec82b01	-0.3909531
171	0xba9e40d5	-0.0012073765
172	0xbe858848	-0.26080537
173	0xbdaeef60	-0.08541751
174	0xbe5e44a5	-0.21705873
175	0xbfac77b2	-1.3474028
176	0x3f46c077	0.7763743
177	0x3e4966f5	0.19668181
178	0xbfbb0221	-1.4610025
179	0xbd1f8243	-0.038942587
180	0x3c3a200d	0.011360181
181	0xbf12295a	-0.5709435
182	0xbf6c1bba	-0.9222981
183	0x3d6c5bae	0.05770462
184	0xbe7e979e	-0.24862525
185	0x3e94825a	0.290057
186	0x3dc628c5	0.09675745
187	0x3e76e4bd	0.24110694
188	0xbf9fc8fa	-1.2483208
189	0x3b08af6f	0.002085652
190	0xbb48e2b6	-0.0030652708
191	0xbcd0a635	-0.025469879
192	0xbc96d40a	-0.018411655
193	0xbfa72ce0	-1.306057
194	0x3e12aaff	0.14323042
195	0xbede661a	-0.43437272
196	0x3eafb9a1	0.3432131
197	0xbdecc5a7	-0.11561137
198	0xbd0e74ee	-0.03477948
199	0xbe2e706f	-0.17035078
200	0xbecabdb3	-0.39597854
201	0xbc19d3f8	-0.009388916
202	0xbe8f66fa	-0.28008252
203	0x3b477514	0.0030434774
204	0xbea12ddf	-0.3148031
205	0xbe3ae2bd	-0.18250556
206	0xbe22e24c	-0.15906638
207	0x3e8d1238	0.27552962
208	0xbf59a6b2	-0.8501998
209	0xbe6384d6	-0.22218642
210	0x3f5c8b9c	0.86150527
211	0x3c6c38c7	0.014417834
212	0xbeb65c79	-0.35617426
213	0xbe1607ad	-0.14651366
214	0xbe45db3a	-0.1932191
215	0xbdf47be7	-0.11937695
216	0x3f53a019	0.82666165
217	0xbca76dc1	-0.020438077
218	0xbe9730a5	-0.295293
219	0xbdea0fc3	-0.114287876
220	0x3ea8b878	0.32953238
221	0x3b07b00c	0.0020704297
222	0xbb1a15f5	-0.0023511623
223	0xbb936b58	-0.0044988804
224	0xbb6358f8	-0.003469048
225	0xbf2b8cd9	-0.6701179
226	0x3e974f8d	0.2955288
227	0xbec9dc01	-0.39425662
228	0x3eaf6a7f	0.34260938
229	0xbdd2c71b	-0.102918826
230	0x372b919e	1.0226298e-05
231	0xbe2a2802	-0.16616824
232	0xbef1de17	-0.47239754
233	0xbcc2bec7	-0.02377261
234	0xbd846aa5	-0.06465653
235	0xbb6e4d43	-0.003636197
236	0xbea568ea	-0.32306606
237	0xbdc28b68	-0.09499246
238	0xbeb1d7cd	-0.34734955
239	0x3f045215	0.5168775
240	0xbf6012f7	-0.8752894
241	0xbe0aea54	-0.13565952
242	0x3f5eb661	0.8699704
243	0x3c9fa8c2	0.01948965
244	0xbe579185	-0.21051605
245	0xbea1096e	-0.31452507
246	0xbf077e9b	-0.5292756
247	0x3d7a8f3f	0.061171766
248	0x3f575dc6	0.8412746
249	0xbe5863c5	-0.21131809
250	0xbda10c56	-0.07863681
251	0xbe1b5ff1	-0.15173317
252	0x3e56947b	0.20955078
253	0xbb8cdf8f	-0.004299111
254	0xbc1c9be7	-0.009558654
255	0xba4e5cc8	-0.0007872102

model.2.bias f4 [16]
0	0x3df921e5	0.12164668
1	0x3d4271fe	0.047471993
2	0x3e5f5a70	0.21811843
3	0x3ea22bbe	0.31673998
4	0xbe1c6680	-0.15273476
5	0x3f373691	0.71567637
6	0x3e42bf26	0.1901823
7	0x3e60b002	0.21942142
8	0x3e77a2b0	0.24183154
9	0xbbd88cb5	-0.0066085705
10	0x3e7f05c9	0.2490455
11	0x3e24b7e7	0.16085778
12	0x3eb18a3c	0.34675777
13	0xbc0ca388	-0.008583911
14	0x3ed7f670	0.42180204
15	0xbcb9fa97	-0.022702498

model.4.weight f4 [2, 16]
0	0xbff797a4	-1.9343152
1	0x3fb339ac	1.4001975
2	0x3f6ac8d1	0.9171267
3	0xc0120a3c	-2.2818747
4	0xbee6190c	-0.44940984
5	0xc0a28d9c	-5.0797863
6	0x3f912780	1.134018
7	0x3f88a28e	1.0674608
8	0x3f12ca74	0.5734017
9	0x3ff147c0	1.8850021
10	0x3f0deb74	0.554374
11	0x3fb02abf	1.3763045
12	0x3f734b8a	0.9503714
13	0xbc1b1c60	-0.009467214
14	0xbff323d0	-1.8995304
15	0xba93bd65	-0.0011271654
16	0x3ff74774	1.9318681
17	0xbfb32d50	-1.3998203
18	0xbf686a69	-0.9078737
19	0x4011fc34	2.2810183
20	0x3ee7113f	0.45130345
21	0x40a247cf	5.0712657
22	0xbf914ba3	-1.1351207
23	0xbf8b01a1	-1.0859872
24	0xbf15e913	-0.5855877
25	0xbfefd4b9	-1.8736793
26	0xbf0f8760	-0.5606594
27	0xbfb0bdf2	-1.3807967
28	0xbf74e90d	-0.9566811
29	0x3ae28a9b	0.0017283739
30	0x3ff44235	1.9082705
31	0xbc67fe26	-0.014159715

model.4.bias f4 [2]
0	0x3c4beda1	0.012446792
1	0xbc43a1a7	-0.011940396

exp_avg f4 [32, 25]
0	0x00000004	6e-45
1	0x00000004	6e-45
2	0x00000004	6e-45
3	0x00000004	6e-45
4	0x00000004	6e-45
5	0x00000004	6e-45
6	0x00000004	6e-45
7	0x00000004	6e-45
8	0x00000004	6e-45
9	0x00000004	6e-45
10	0x00000004	6e-45
11	0x00000004	6e-45
12	0x00000004	6e-45
13	0x00000004	6e-45
14	0x00000004	6e-45
15	0x00000004	6e-45
16	0x00000004	6e-45
17	0x00000004	6e-45
18	0x00000004	6e-45
19	0x00000004	6e-45
20	0x00000004	6e-45
21	0x00000004	6e-45
22	0x00000004	6e-45
23	0x00000004	6e-45
24	0x00000004	6e-45
25	0x3bd174be	0.0063920906
26	0x3ad76da7	0.0016435877
27	0x3aa42b8b	0.0012525184
28	0x39b155a7	0.00033823887
29	0xba974f74	-0.0011544065
30	0x3c08aac9	0.0083415
31	0x3bfe4167	0.0077592614
32	0x3accef38	0.0015635258
33	0xbace148c	-0.0015722676
34	0xbabfb5cf	-0.0014626327
35	0x3c084222	0.008316549
36	0x3c12f6eb	0.008970003
37	0x3bb6a3a9	0.005573709
38	0xbab290c6	-0.0013623468
39	0xbab2509b	-0.0013604345
40	0x3bf1da16	0.007380734
41	0x3bcbb7aa	0.006216963
42	0x3bbd0d1d	0.0057693855
43	0x3b88fde9	0.004180659
44	0xbab74948	-0.0013983632
45	0x3bc31305	0.005953195
46	0x3bd4e118	0.00649656
47	0x3bb4d4a4	0.005518513
48	0x3b9c1da3	0.004764275
49	0x3b8090de	0.0039235195
50	0xb5dfbcaf	-1.6669709e-06
51	0xb5df77e9	-1.6649693e-06
52	0xb5df93ae	-1.6657775e-06
53	0xb5df9c9a	-1.6660372e-06
54	0xb5ab866a	-1.2779612e-06
55	0xb5decf6c	-1.6600657e-06
56	0xb5decd1e	-1.6599986e-06
57	0xb5ded270	-1.6601534e-06
58	0xb5aab183	-1.271765e-06
59	0xb262c2b1	-1.3199199e-08
60	0xb5dd06b9	-1.646774e-06
61	0xb5c00fe7	-1.4309743e-06
62	0xb3f0a2c4	-1.1205478e-07
63	0x043f0c86	2.2457693e-36
64	0xab255d54	-5.8749294e-13
65	0x2eb263fb	8.112263e-11
66	0x23bd4abe	2.0523076e-17
67	0xa41c11b5	-3.3842106e-17
68	0xa9443135	-4.3563423e-14
69	0xaef775d0	-1.1253187e-10
70	0xb0a40bd3	-1.1935931e-09
71	0xb0a28afa	-1.1826551e-09
72	0xb0a29bb9	-1.183131e-09
73	0xb010e036	-5.270552e-10
74	0xacf1ba94	-6.8703463e-12
75	0x3b0c49ab	0.0021406214
76	0x3b200045	0.0024414223
77	0x3b046d31	0.0020206685
78	0x3ae235ba	0.0017258443
79	0x3ada007e	0.0016632227
80	0x3b068cd1	0.002053071
81	0x3b0edd8d	0.0021799535
82	0x3ab8b9c5	0.001409345
83	0x3abf10ad	0.0014577113
84	0x3acc930b	0.0015607787
85	0x3acf2c1a	0.001580599
86	0x3a985bb0	0.0011624005
87	0x3a89a571	0.0010501576
88	0x3ac89747	0.0015303873
89	0x3acb0fa2	0.001549233
90	0x3a7fc8ec	0.0009757418
91	0x3a21ebca	0.0006176798
92	0x398e0bfe	0.00027093285
93	0x3a929711	0.0011183937
94	0x3a8f0a07	0.0010913023
95	0x39c2f192	0.00037182547
96	0x39996b38	0.00029262318
97	0x39354389	0.00017286664
98	0x3a737cd9	0.0009288318
99	0x3a969b0e	0.0011490302
100	0xbb3f603d	-0.002920165
101	0xb9e737c8	-0.00044101314
102	0xb9b30f04	-0.00034152728
103	0xb946cfe5	-0.00018960198
104	0xb88c2c15	-6.683931e-05
105	0xbb66de1c	-0.0035227602
106	0xbb42590f	-0.0029655134
107	0xb9b5743a	-0.00034609606
108	0xb857e87c	-5.1476512e-05
109	0xb753200e	-1.2584043e-05
110	0xbb559801	-0.0032591822
111	0xbb5bd95a	-0.00335463
112	0xbb333982	-0.002734751
113	0xb7960be4	-1.788693e-05
114	0xb5476c6a	-7.429104e-07
115	0xbb536ac0	-0.0032259673
116	0xbb4c45e7	-0.0031169595
117	0xbb475b8f	-0.0030419563
118	0xbb38bdcd	-0.0028189302
119	0xb999041e	-0.00029185502
120	0xbb4d5d07	-0.0031335966
121	0xbb4ae456	-0.0030958853
122	0xbb425fc9	-0.0029659143
123	0xbb409696	-0.0029386631
124	0xbb2c209c	-0.0026264554
125	0xba0ac074	-0.000529296
126	0xba7e00fa	-0.00096894766
127	0xba891f17	-0.0010461536
128	0xba76f563	-0.0009420721
129	0xba48e9e9	-0.000766425
130	0xb9d3c591	-0.00040392255
131	0xba5fa39a	-0.00085311534
132	0xba88ee63	-0.0010447021
133	0xba6e8d69	-0.0009100051
134	0xba482a7e	-0.00076357264
135	0xba2546b6	-0.0006304787
136	0xba222320	-0.00061850436
137	0xba70e4d8	-0.0009189374
138	0xba60193b	-0.00085486815
139	0xba1ae4b4	-0.0005908713
140	0xb8be719b	-9.081067e-05
141	0x37808364	1.5319973e-05
142	0x392443a9	0.00015665464
143	0x3a002030	0.0004887609
144	0x39ec316f	0.0004505026
145	0x3962516b	0.0002158337
146	0x392d72cc	0.00016541331
147	0x39107714	0.0001377727
148	0x38df73e7	0.00010655057
149	0x38b715ec	8.730203e-05
150	0x00000004	6e-45
151	0x00000004	6e-45
152	0x80000004	-6e-45
153	0x80000004	-6e-45
154	0x80000004	-6e-45
155	0x00000004	6e-45
156	0x00000004	6e-45
157	0x00000004	6e-45
158	0x00000004	6e-45
159	0x80000004	-6e-45
160	0x00000004	6e-45
161	0x00000004	6e-45
162	0x00000004	6e-45
163	0x00000004	6e-45
164	0x80000004	-6e-45
165	0x00000004	6e-45
166	0x00000004	6e-45
167	0x00000004	6e-45
168	0x00000004	6e-45
169	0x00000004	6e-45
170	0x00000004	6e-45
171	0x00000004	6e-45
172	0x00000004	6e-45
173	0x00000004	6e-45
174	0x00000004	6e-45
175	0xb93e8f64	-0.00018173229
176	0xb6ff78d9	-7.6136607e-06
177	0xb9520520	-0.0002002907
178	0xb987276a	-0.00025778572
179	0xb9871753	-0.00025766584
180	0xaf22f2ba	-1.4820048e-10
181	0xae255d84	-3.7599715e-11
182	0xb8ab9b12	-8.1827995e-05
183	0xb9871fbd	-0.00025772853
184	0xb987171d	-0.00025766427
185	0xadc770aa	-2.2673714e-11
186	0x94260f65	-8.383894e-27
187	0x359ba5c2	1.1596642e-06
188	0xb92a554c	-0.00016244239
189	0xb987171d	-0.00025766427
190	0xad974b87	-1.7200253e-11
191	0xaa2dea98	-1.5446878e-13
192	0x32bee036	2.222087e-08
193	0xb838e343	-4.4080673e-05
194	0xb97f7f02	-0.00024366009
195	0xadf45a7c	-2.7779772e-11
196	0xac11d7db	-2.0725563e-12
197	0x32bee007	2.2220787e-08
198	0x35e57352	1.7095392e-06
199	0xb92a4c1e	-0.00016240819
200	0xb8e8334c	-0.00011072177
201	0x39dbdb37	0.00041934263
202	0xb8eae63e	-0.000112008755
203	0xb9ab9545	-0.00032726876
204	0xba0b1245	-0.00053051516
205	0x39dbd10b	0.00041926684
206	0x39e16955	0.00042993823
207	0x393f9701	0.00018271433
208	0xba292728	-0.0006452673
209	0xba38c39a	-0.000704819
210	0x39dbd8cb	0.00041932458
211	0x39bedc66	0.00036403834
212	0x380a1f36	3.293083e-05
213	0xb9e16646	-0.00042991544
214	0xba38bf3f	-0.0007047541
215	0x39a44d00	0.00031337887
216	0x37abcf11	2.0481211e-05
217	0x00000004	6e-45
218	0xb8f44fd4	-0.00011649696
219	0xba2eb677	-0.00066647626
220	0x37e9225b	2.7791762e-05
221	0x3631d266	2.6497523e-06
222	0xa07fb362	-2.1658693e-19
223	0x36ac3cb9	5.1330685e-06
224	0xb9eb0e6c	-0.00044833438
225	0x80000004	-6e-45
226	0x80000004	-6e-45
227	0x00000004	6e-45
228	0x80000004	-6e-45
229	0x80000004	-6e-45
230	0x00000004	6e-45
231	0x80000004	-6e-45
232	0x80000004	-6e-45
233	0x80000004	-6e-45
234	0x80000004	-6e-45
235	0x00000004	6e-45
236	0x00000004	6e-45
237	0x80000004	-6e-45
238	0x80000004	-6e-45
239	0x80000004	-6e-45
240	0x00000004	6e-45
241	0x00000004	6e-45
242	0x00000004	6e-45
243	0x80000004	-6e-45
244	0x00000004	6e-45
245	0x00000004	6e-45
246	0x80000004	-6e-45
247	0x80000004	-6e-45
248	0x80000004	-6e-45
249	0x80000004	-6e-45
250	0x3b92af64	0.0044764746
251	0x3bb63603	0.005560638
252	0x3bb74762	0.0055932263
253	0x3ba820eb	0.0051308773
254	0x3ba254ae	0.0049539423
255	0x3b904083	0.0044022216

exp_avg_sq f4 [32, 25]
0	0x0d0a76d7	4.266758e-31
1	0x0d0a76d7	4.266758e-31
2	0x0d157c0d	4.606349e-31
3	0x0df95ea9	1.5368598e-30
4	0x0e09677b	1.6936378e-30
5	0x0d0a76d7	4.266758e-31
6	0x0d0a76d7	4.266758e-31
7	0x0d114b13	4.477194e-31
8	0x0dd5b678	1.3171066e-30
9	0x0e085d98	1.6808358e-30
10	0x0d0816db	4.1935747e-31
11	0x0d079284	4.177645e-31
12	0x0d07d757	4.1859293e-31
13	0x0db13eab	1.0923554e-30
14	0x0e081db0	1.6777588e-30
15	0x0d0a150a	4.254986e-31
16	0x0d08d82d	4.216845e-31
17	0x0d07d716	4.1858987e-31
18	0x0db13e41	1.0923454e-30
19	0x0e081d90	1.6777528e-30
20	0x0d0a150a	4.254986e-31
21	0x0d0a150a	4.254986e-31
22	0x0d098cd2	4.238589e-31
23	0x0d9061a3	8.89819e-31
24	0x0e081d90	1.6777528e-30
25	0x3cae164d	0.021250868
26	0x3ca8987a	0.020580519
27	0x3ca42b83	0.02004028
28	0x3c8acf72	0.01694462
29	0x3c83f743	0.016109115
30	0x3cb28dc9	0.021796124
31	0x3cb4376f	0.021999089
32	0x3cb16fb4	0.02165971
33	0x3c8a7d4a	0.016905446
34	0x3c7d1051	0.015445785
35	0x3cb3f49e	0.021967229
36	0x3cb5ecfe	0.022207733
37	0x3cbf9412	0.023386035
38	0x3c828c55	0.015936056
39	0x3c775aba	0.0150973145
40	0x3cb2e12b	0.021835884
41	0x3cb7116e	0.022347178
42	0x3ca8759a	0.02056389
43	0x3c8afe4f	0.016966967
44	0x3c7d65ef	0.015466197
45	0x3cb2c271	0.021821233
46	0x3cac1c8f	0.021009712
47	0x3c9f7111	0.019463094
48	0x3c8f8aa0	0.017522156
49	0x3c8beede	0.017081674
50	0x371cf709	9.355842e-06
51	0x37841eb3	1.5749922e-05
52	0x3784188f	1.5747062e-05
53	0x3782d754	1.5597478e-05
54	0x3749dd2e	1.2032031e-05
55	0x370aa4ac	8.263782e-06
56	0x3772af79	1.4465179e-05
57	0x37829290	1.5565456e-05
58	0x37185932	9.080673e-06
59	0x36fc9264	7.5272274e-06
60	0x355f5002	8.31904e-07
61	0x3515e60e	5.58416e-07
62	0x32f1beae	2.8142804e-08
63	0x369b6a53	4.6317377e-06
64	0x36fb7e48	7.495084e-06
65	0x34ebf5c4	4.395098e-07
66	0x32541749	1.23453185e-08
67	0x33452bec	4.5907584e-08
68	0x33708b79	5.6006204e-08
69	0x334f07a3	4.820289e-08
70	0x32a83518	1.9581918e-08
71	0x321ab1a5	9.0043715e-09
72	0x33701f5c	5.5907876e-08
73	0x338493d2	6.173617e-08
74	0x33846a37	6.1660494e-08
75	0x3c33cc7c	0.010974046
76	0x3c2af448	0.010434218
77	0x3c149b2a	0.009070197
78	0x3c1dae6e	0.009624107
79	0x3c25d087	0.010120518
80	0x3c335aa0	0.0109469
81	0x3c1f6afc	0.009730097
82	0x3be87047	0.0070934626
83	0x3c086a2a	0.008326093
84	0x3c18f1ad	0.009334964
85	0x3c2b1a50	0.010443285
86	0x3c0c469a	0.008561755
87	0x3b9f0e57	0.0048540044
88	0x3be76376	0.007061417
89	0x3c1129a9	0.00886003
90	0x3c179427	0.009251631
91	0x3be51f2d	0.006992242
92	0x3b8edde5	0.004359948
93	0x3bc01014	0.0058612917
94	0x3bf74533	0.007546091
95	0x3bf5afc0	0.0074977577
96	0x3bbf8c4d	0.0058455826
97	0x3b96b189	0.0045988006
98	0x3bbf728e	0.0058425134
99	0x3be356de	0.0069378456
100	0x3a8a7a44	0.0010565002
101	0x3a6c9d24	0.00090261013
102	0x3a1aa492	0.00058991567
103	0x39857919	0.00025457962
104	0x3945f7d5	0.00018879709
105	0x3a9b73bf	0.0011860057
106	0x3a875a83	0.0010326657
107	0x3a220f8d	0.0006182127
108	0x38f68fe7	0.00011756998
109	0x38ad5bc6	8.266377e-05
110	0x3aab93d4	0.0013090321
111	0x3a97f2b5	0.0011592718
112	0x3a2409e1	0.00062575756
113	0x388e1504	6.775002e-05
114	0x38826214	6.2171515e-05
115	0x3a9f3e86	0.0012149371
116	0x3a96dda6	0.0011510148
117	0x3a40ceb1	0.0007355018
118	0x39377aa4	0.00017497927
119	0x38a7c919	8.000638e-05
120	0x3a99ab51	0.001172403
121	0x3a92f583	0.0011212084
122	0x3a42f507	0.00074370246
123	0x3a020ef7	0.00049613364
124	0x39abf2ec	0.00032796653
125	0x3b404e1d	0.0029343434
126	0x3b584e26	0.0033005564
127	0x3b5d512d	0.0033770308
128	0x3b5dc9e0	0.003384225
129	0x3b5651b1	0.00327025
130	0x3b38c2b1	0.0028192217
131	0x3b4c3607	0.0031160132
132	0x3b5f0369	0.0034029132
133	0x3b6652ee	0.0035144645
134	0x3b5a8a86	0.0033346727
135	0x3b1fbdba	0.002437456
136	0x3b3da9f2	0.0028940407
137	0x3b4902c6	0.003067182
138	0x3b448fc5	0.002999292
139	0x3b3b1d49	0.002855139
140	0x3b0b6632	0.002127063
141	0x3b009367	0.0019619109
142	0x3aefd18b	0.0018296702
143	0x3b0feab0	0.0021959953
144	0x3b1ab38e	0.0023605558
145	0x3ae89e7d	0.0017747429
146	0x3aef23e3	0.0018244948
147	0x3aecd9a2	0.0018070231
148	0x3ae9445c	0.0017796862
149	0x3aeb5e5c	0.0017957198
150	0x0b49652a	3.87873e-32
151	0x083eaf6d	5.7382257e-34
152	0x04639469	2.6751868e-36
153	0x04d1c961	4.93206e-36
154	0x05998cc2	1.4439757e-35
155	0x0b56b3df	4.135022e-32
156	0x0b4ab961	3.9043248e-32
157	0x0a1d78b0	7.581974e-33
158	0x0b9b0eb3	5.9725945e-32
159	0x06061755	2.521974e-35
160	0x0c911473	2.2353095e-31
161	0x0c915851	2.239394e-31
162	0x0c88dd1e	2.1087198e-31
163	0x099af7de	3.7307245e-33
164	0x0855563c	6.4198724e-34
165	0x0c911511	2.2353466e-31
166	0x0c9190fc	2.2428047e-31
167	0x0bce0b4a	7.93653e-32
168	0x0b4f548b	3.9930353e-32
169	0x08fd95f5	1.5262138e-33
170	0x0c911bcc	2.2357517e-31
171	0x0c68920e	1.7916582e-31
172	0x0b636bd8	4.3799742e-32
173	0x0b5ce220	4.2540576e-32
174	0x0b26e941	3.2145918e-32
175	0x364527a5	2.9378364e-06
176	0x33d6b936	9.998841e-08
177	0x36d21a8b	6.2615777e-06
178	0x37594670	1.2950608e-05
179	0x37924ff4	1.7441787e-05
180	0x3140a72f	2.803471e-09
181	0x30dd1444	1.6085626e-09
182	0x357cacc5	9.412873e-07
183	0x375b365f	1.30660765e-05
184	0x37a34c5c	1.9466672e-05
185	0x3147341b	2.898793e-09
186	0x30e5f325	1.6731049e-09
187	0x31672bfe	3.363993e-09
188	0x37188a1f	9.092065e-06
189	0x37a2f79a	1.9427203e-05
190	0x2eeb871e	1.07105644e-10
191	0x2d85ff79	1.5233802e-11
192	0x32c25e9d	2.2627598e-08
193	0x36acbbca	5.147861e-06
194	0x37945183	1.7680932e-05
195	0x2d97f7a7	1.7276692e-11
196	0x2b4d1856	7.2864403e-13
197	0x34bd3cc0	3.5248195e-07
198	0x36af78f0	5.2294854e-06
199	0x375173ff	1.2484378e-05
200	0x39eff078	0.00045764796
201	0x3a5d742e	0.0008447793
202	0x3a7a7817	0.0009554638
203	0x3a7f227d	0.0009732617
204	0x3a5d16b0	0.00084338617
205	0x39d2097d	0.0004006139
206	0x3a4a63fb	0.0007720587
207	0x3a58d0f7	0.0008270884
208	0x3a40c456	0.0007353475
209	0x3a356894	0.00069201854
210	0x392e3444	0.00016613404
211	0x3930c3c9	0.00016857604
212	0x34ea6d74	4.3665534e-07
213	0x398172e0	0.00024690386
214	0x39e8973b	0.00044363164
215	0x38f43102	0.00011643955
216	0x3821b602	3.85549e-05
217	0x3344c426	4.5813202e-08
218	0x3762ed62	1.352592e-05
219	0x392d3912	0.00016519826
220	0x378ae589	1.6557768e-05
221	0x37068e0b	8.020094e-06
222	0x3344d9f4	4.5833033e-08
223	0x36c2b74b	5.8029887e-06
224	0x38b2854d	8.5125306e-05
225	0x17924f6d	9.455079e-25
226	0x175d9a1c	7.1603465e-25
227	0x1713027b	4.7501393e-25
228	0x1686680a	2.1714525e-25
229	0x1639b599	1.5001483e-25
230	0x1797deaf	9.81436e-25
231	0x176830b5	7.502472e-25
232	0x1703d262	4.2593923e-25
233	0x16132451	1.1886025e-25
234	0x15e3d1cb	9.2015565e-26
235	0x17fa9543	1.619355e-24
236	0x17918f7e	9.406628e-25
237	0x16fd29c3	4.090071e-25
238	0x15e4dd5d	9.2437716e-26
239	0x15cbd5b0	8.2328186e-26
240	0x17f931c7	1.6103813e-24
241	0x17d8d11b	1.4011458e-24
242	0x16e185ab	3.6435067e-25
243	0x1611e122	1.1784046e-25
244	0x15e98876	9.432325e-26
245	0x17b614e3	1.1766747e-24
246	0x174feabc	6.7181584e-25
247	0x16bb7f1d	3.02917e-25
248	0x161c03a8	1.2602733e-25
249	0x161407f4	1.1957854e-25
250	0x3b6c31fc	0.0036040535
251	0x3b7ecbaf	0.003887873
252	0x3b84452e	0.004036567
253	0x3b7b4b97	0.0038344616
254	0x3b68a8a5	0.003550091
255	0x3b5fea9c	0.0034166938

exp_avg f4 [32]
0	0x00000004	6e-45
1	0x3c584ab1	0.013201402
2	0xb626b23a	-2.483967e-06
3	0x3af359b4	0.0018566162
4	0xbba37df3	-0.0049893796
5	0xbb5772c4	-0.0032874802
6	0x00000004	6e-45
7	0xba88b623	-0.0010430258
8	0xbb006889	-0.0019593558
9	0x00000004	6e-45
10	0x3c109310	0.008824125
11	0x00000004	6e-45
12	0x3c2b4f40	0.010455906
13	0xbabcf099	-0.0014414965
14	0x3b995297	0.004679035
15	0x3d0b8dbf	0.034070726
16	0xbadf7bb5	-0.0017050417
17	0xba320304	-0.00067906105
18	0x3db3c0c7	0.08777004
19	0x00000004	6e-45
20	0x38013865	3.080852e-05
21	0x3c4f7556	0.012662252
22	0xbb19e641	-0.002348319
23	0xbabdad3f	-0.0014471187
24	0x3cbd37c8	0.023097888
25	0x3754ccde	1.2683884e-05
26	0xbb10f572	-0.0022118953
27	0x38d3f32c	0.00010106558
28	0x3cd8a92b	0.026447853
29	0x00000000	0.0
30	0x00000004	6e-45
31	0x00000004	6e-45

exp_avg_sq f4 [32]
0	0x0e046777	1.6320073e-30
1	0x3d30865b	0.04309688
2	0x38062abb	3.1987885e-05
3	0x3cc00d2d	0.023443783
4	0x3b2a1614	0.00259531
5	0x3bc294fc	0.0059381705
6	0x0c9473dc	2.287274e-31
7	0x3951ce2e	0.00020008601
8	0x3b774e24	0.0037735784
9	0x18914e66	3.7560784e-24
10	0x3be787e8	0.007065762
11	0x00000dd1	4.956e-42
12	0x3bb3a084	0.0054817814
13	0x3b6465ee	0.0034850794
14	0x3c1b4304	0.009476427
15	0x3d8716fe	0.06596182
16	0x3bb6e6e4	0.0055817235
17	0x3a31f34f	0.000678827
18	0x3e0c4532	0.13698271
19	0x00004b9c	2.7124e-41
20	0x386afcce	5.602539e-05
21	0x3c0bf1e6	0.00854156
22	0x3cbaf34e	0.022821095
23	0x39ccebb2	0.0003908552
24	0x3cc1af07	0.02364303
25	0x3a3b068f	0.0007134461
26	0x39965e5f	0.0002868054
27	0x3806ca17	3.21363e-05
28	0x3da7dcf0	0.08196437
29	0x00000000	0.0
30	0x000001f4	7e-43
31	0x000001f4	7e-43

exp_avg f4 [16, 32]
0	0x80000004	-6e-45
1	0x3a8fe68f	0.0010978746
2	0x3607e528	2.0249954e-06
3	0x3a156a4b	0.0005699738
4	0x390768c0	0.00012913626
5	0x3a83d233	0.0010057151
6	0x80000004	-6e-45
7	0xb7f2bcba	-2.893653e-05
8	0x36b1f282	5.3032427e-06
9	0x80000004	-6e-45
10	0x3b0a2567	0.0021079422
11	0x80000004	-6e-45
12	0x3b23d95c	0.0025001382
13	0x3ae1bece	0.0017223002
14	0x3a47cd6f	0.00076218595
15	0x3a7393e5	0.00092917524
16	0xb8fd75e6	-0.000120859404
17	0x3915ebc9	0.00014297584
18	0x3b684ae0	0.003544502
19	0x80000004	-6e-45
20	0x32f9f057	2.9096709e-08
21	0x3b6e289e	0.0036340128
22	0xb8bfa3e4	-9.138117e-05
23	0x39a45eba	0.00031351094
24	0x39800ca4	0.0002442348
25	0xb4bc6fd1	-3.5099086e-07
26	0x393a1538	0.00017746247
27	0x36fba9ca	7.500149e-06
28	0x3b2c5e35	0.002630127
29	0x00000000	0.0
30	0x00000000	0.0
31	0x80000004	-6e-45
32	0x00000004	6e-45
33	0xb855b6a9	-5.0953273e-05
34	0x31856f12	3.8834367e-09
35	0xb9c01c1f	-0.00036642046
36	0xb8293012	-4.033751e-05
37	0xba381310	-0.00070218835
38	0x00000004	6e-45
39	0x37ad07d4	2.0626852e-05
40	0x3770a572	1.43436355e-05
41	0x00000004	6e-45
42	0xba9d3573	-0.0011994079
43	0x00000004	6e-45
44	0xb8c12fe8	-9.2118804e-05
45	0xb9a32382	-0.00031116238
46	0x389c9146	7.465719e-05
47	0x3a836719	0.0010025232
48	0xb607220c	-2.0136386e-06
49	0xb86095db	-5.3545325e-05
50	0xb9adc165	-0.00033141222
51	0x00000004	6e-45
52	0x3217f24e	8.8444505e-09
53	0xb9c21484	-0.0003701785
54	0x3a4e9664	0.00078806863
55	0xb8871e6c	-6.442968e-05
56	0x39db0da3	0.00041781095
57	0x3233c195	1.0463187e-08
58	0xb9074f28	-0.00012904091
59	0x309ae46d	1.1269897e-09
60	0xbae8bf4f	-0.001775721
61	0x00000000	0.0
62	0x00000004	6e-45
63	0x00000004	6e-45
64	0x00000004	6e-45
65	0xb95ac3f5	-0.000208631
66	0xb5806b49	-9.567967e-07
67	0xb98c8172	-0.00026799325
68	0xb89df74f	-7.532408e-05
69	0xb9e7de24	-0.0004422526
70	0x00000004	6e-45
71	0x376165e2	1.34347665e-05
72	0xb631dc2e	-2.6503217e-06
73	0x80000004	-6e-45
74	0xba7adc2c	-0.00095695513
75	0x00000004	6e-45
76	0xb936501a	-0.00017386713
77	0xb921c186	-0.0001542625
78	0xb8712f1a	-5.7502744e-05
79	0x3a2153b7	0.0006154137
80	0x386c92f9	5.6403664e-05
81	0xb89634f4	-7.162421e-05
82	0x3a8dbfa3	0.0010814558
83	0x00000004	6e-45
84	0xb26a63e1	-1.36433025e-08
85	0x3a31dda4	0.0006785041
86	0x3a0cd79f	0.0005372706
87	0xb843dc7f	-4.6696976e-05
88	0x396dc2e3	0.00022674682
89	0x3331d5cb	4.1405467e-08
90	0xb89c22fd	-7.445177e-05
91	0xb66d742b	-3.538337e-06
92	0xba9c7b01	-0.0011938513
93	0x00000000	0.0
94	0x00000004	6e-45
95	0x80000004	-6e-45
96	0x80000004	-6e-45
97	0xba0262c1	-0.0004973822
98	0xb2a7b3ef	-1.9523183e-08
99	0x3a00d1fd	0.0004914103
100	0xb4097224	-1.2800643e-07
101	0x38b725ca	8.733159e-05
102	0x80000004	-6e-45
103	0xb80cefb3	-3.360184e-05
104	0xb7c54c8a	-2.3519871e-05
105	0x80000004	-6e-45
106	0x3a23ceff	0.00062488014
107	0x80000004	-6e-45
108	0xb9a66dca	-0.00031743787
109	0x39096c36	0.0001310565
110	0xb9ab7757	-0.00032704577
111	0xbb0c015c	-0.0021363115
112	0xb3b52c9e	-8.436585e-08
113	0xb89e4258	-7.5463846e-05
114	0xb61417b2	-2.206751e-06
115	0x80000004	-6e-45
116	0xb2779f72	-1.4413546e-08
117	0xb7899d92	-1.6405047e-05
118	0xbad6f5be	-0.0016400141
119	0x33ecbdc3	1.1024124e-07
120	0xba51ac48	-0.0007998389
121	0xb48b4d6b	-2.5947097e-07
122	0x38dba1ac	0.000104728475
123	0xb0fc80c1	-1.8372007e-09
124	0x3aa78770	0.0012781452
125	0x00000000	0.0
126	0x80000004	-6e-45
127	0x80000004	-6e-45
128	0x80000004	-6e-45
129	0xb0ad05f4	-1.2589099e-09
130	0xb18a1d5e	-4.0196673e-09
131	0x38cef522	9.868505e-05
132	0xb67743aa	-3.6845254e-06
133	0x366407f7	3.3979284e-06
134	0x80000004	-6e-45
135	0xb6dff958	-6.6749453e-06
136	0xb68f3b8c	-4.2686643e-06
137	0x80000004	-6e-45
138	0x383365a1	4.2771575e-05
139	0x80000004	-6e-45
140	0xb789c9b6	-1.6425602e-05
141	0xb7430038	-1.1622957e-05
142	0x37e9872e	2.7838712e-05
143	0xb735b322	-1.0830148e-05
144	0xb78c557c	-1.6729107e-05
145	0xb7201005	-9.540473e-06
146	0xb5dcce6d	-1.6451355e-06
147	0x80000004	-6e-45
148	0x31e9804d	6.7957786e-09
149	0xb69022e1	-4.295595e-06
150	0xb8017acc	-3.087036e-05
151	0xb6dbcb87	-6.5504023e-06
152	0x38869f83	6.419329e-05
153	0xb3b24927	-8.302077e-08
154	0xb5920adf	-1.0881012e-06
155	0xaffeda30	-4.6357362e-10
156	0x3868a906	5.5470526e-05
157	0x00000000	0.0
158	0x00000000	0.0
159	0x80000004	-6e-45
160	0x80000004	-6e-45
161	0xb80e5417	-3.3933753e-05
162	0xb2711adc	-1.4034153e-08
163	0xb98a34d9	-0.00026360786
164	0xb22253aa	-9.448664e-09
165	0xb7033cb3	-7.822341e-06
166	0x80000004	-6e-45
167	0xb8d87797	-0.00010321958
168	0xb8849ccb	-6.3234555e-05
169	0x80000004	-6e-45
170	0x392da976	0.00016561695
171	0x80000004	-6e-45
172	0xb6d8af18	-6.4576852e-06
173	0x368b0b2a	4.1438225e-06
174	0xb716c868	-8.987357e-06
175	0xbae88202	-0.0017738941
176	0xb26895a0	-1.3538198e-08
177	0xb9702a60	-0.0002290397
178	0xbc30630e	-0.010765804
179	0x80000004	-6e-45
180	0xb30e8d75	-3.3190606e-08
181	0xbbe0b291	-0.0068572243
182	0xbb8714ac	-0.0041223373
183	0xb344e51f	-4.584319e-08
184	0xbb007571	-0.001960125
185	0xb32c0027	-4.004701e-08
186	0xb3cca175	-9.528859e-08
187	0xb18abedf	-4.038028e-09
188	0xbac00429	-0.0014649677
189	0x00000000	0.0
190	0x80000004	-6e-45
191	0x80000004	-6e-45
192	0x00000004	6e-45
193	0xb9e7f28e	-0.0004424047
194	0xb5a00fed	-1.1925564e-06
195	0xb9ae3a53	-0.0003323132
196	0xb8dfd340	-0.00010672817
197	0xb9cab062	-0.00038659858
198	0x00000004	6e-45
199	0x378b880c	1.6633443e-05
200	0xb65fc5c0	-3.3344695e-06
201	0x00000004	6e-45
202	0xba86aff2	-0.0010275824
203	0x00000004	6e-45
204	0xbac69391	-0.0015150179
205	0xba81cc88	-0.0009902874
206	0xb9ea9c14	-0.00044748245
207	0x39c09aa2	0.00036736304
208	0x3893092b	7.011214e-05
209	0xb869ed7f	-5.5772714e-05
210	0xb9576786	-0.00020542563
211	0x00000004	6e-45
212	0xb2d120ce	-2.434572e-08
213	0xba4e7a17	-0.0007876469
214	0x3a48e228	0.00076630944
215	0xb94a662b	-0.00019302282
216	0x39b46836	0.0003440992
217	0x33a7ab8e	7.807749e-08
218	0xb8c2e21b	-9.292756e-05
219	0xb693b020	-4.401445e-06
220	0xbaa62fd1	-0.0012679045
221	0x00000000	0.0
222	0x00000000	0.0
223	0x00000004	6e-45
224	0x00000004	6e-45
225	0xb91f92ad	-0.00015218063
226	0xb596d0a6	-1.1236596e-06
227	0xb9a51601	-0.00031487647
228	0xb8d4c159	-0.000101449616
229	0xb9d7d6e1	-0.00041168093
230	0x00000004	6e-45
231	0x3784de26	1.5839072e-05
232	0xb651fc2a	-3.1290206e-06
233	0x80000004	-6e-45
234	0xba5dc86a	-0.0008460345
235	0x00000004	6e-45
236	0xbabd8a7c	-0.0014460827
237	0xba7b39bd	-0.0009583494
238	0xb9de8745	-0.00042443923
239	0x39af365c	0.00033419102
240	0x388bbd55	6.663302e-05
241	0xb85f8c27	-5.329787e-05
242	0x36f26c4f	7.224771e-06
243	0x00000004	6e-45
244	0xb28a221b	-1.6080824e-08
245	0xb9e84fc2	-0.00044309912
246	0x3a3ec79a	0.0007277668
247	0xb93fd809	-0.00018295659
248	0x39b01b45	0.00033589653
249	0x33b1a6d8	8.2725535e-08
250	0xb8d18191	-9.99003e-05
251	0xb68c1f93	-4.176001e-06
252	0xbaa2523c	-0.0012384127
253	0x00000000	0.0
254	0x00000004	6e-45
255	0x00000004	6e-45

exp_avg_sq f4 [16, 32]
0	0x0c2c1a89	1.3258383e-31
1	0x38ab71dd	8.175124e-05
2	0x366a22a3	3.4888878e-06
3	0x399e0bf8	0.00030145026
4	0x37c9f023	2.407289e-05
5	0x39125350	0.00013954681
6	0x09e4fcbf	5.5126685e-33
7	0x35be041a	1.4157297e-06
8	0x36832e20	3.909474e-06
9	0x167cc77c	2.0419344e-25
10	0x3a1d43dd	0.0005999187
11	0x0000021c	7.57e-43
12	0x39933d4c	0.00028083695
13	0x38ee0cf1	0.00011351135
14	0x392ffee1	0.0001678425
15	0x3a01540c	0.00049334834
16	0x36c3f1c9	5.8396004e-06
17	0x37b163c5	2.1146503e-05
18	0x39ea5cec	0.0004470119
19	0x000001f4	7e-43
20	0x350f3fe6	5.3364636e-07
21	0x39ef4c89	0.00045642655
22	0x39e50410	0.0004368131
23	0x388562d3	6.360342e-05
24	0x392b0ba2	0.00016312164
25	0x35c869b2	1.4931923e-06
26	0x36bf9c41	5.710434e-06
27	0x34539f58	1.9708875e-07
28	0x3a9d21d4	0.0011988231
29	0x00000000	0.0
30	0x00000000	0.0
31	0x000001f4	7e-43
32	0x0c5b92fb	1.6915377e-31
33	0x3926fbd6	0.0001592481
34	0x35d6e088	1.600959e-06
35	0x38c4c46a	9.382593e-05
36	0x36ad3449	5.1618886e-06
37	0x3898914e	7.27499e-05
38	0x0b1bb9b5	2.9991625e-32
39	0x355024e2	7.753971e-07
40	0x3600df09	1.920331e-06
41	0x150e4671	2.873224e-26
42	0x399a64ff	0.00029448417
43	0x000001f4	7e-43
44	0x38b19fbe	8.469772e-05
45	0x3863053f	5.4125903e-05
46	0x38585d8e	5.1585543e-05
47	0x39eca7e3	0.00045138513
48	0x3521a0b2	6.0211016e-07
49	0x37318190	1.0580188e-05
50	0x382c12ab	4.102538e-05
51	0x000001f4	7e-43
52	0x33ca8f0e	9.4323795e-08
53	0x3885d88d	6.38227e-05
54	0x3a012f37	0.0004927995
55	0x3770d231	1.4354054e-05
56	0x391d988e	0.00015029518
57	0x35165f8a	5.601838e-07
58	0x3655a07f	3.1832894e-06
59	0x312beccd	2.501838e-09
60	0x3a5f0a7f	0.0008508339
61	0x00000000	0.0
62	0x000001f4	7e-43
63	0x000001f4	7e-43
64	0x0c110d5b	1.1174413e-31
65	0x38abca17	8.1915576e-05
66	0x350d4b94	5.2636574e-07
67	0x38a31f42	7.778268e-05
68	0x37501be4	1.240426e-05
69	0x388d035b	6.724029e-05
70	0x0ade198a	2.1387429e-32
71	0x34bd7210	3.5286985e-07
72	0x35535cb4	7.8738526e-07
73	0x1651a2b5	1.6934227e-25
74	0x39219f8e	0.00015413595
75	0x000001f4	7e-43
76	0x389d339d	7.495957e-05
77	0x37acf787	2.0619262e-05
78	0x3815b809	3.5695764e-05
79	0x3930162b	0.00016792926
80	0x35b82b1c	1.3721615e-06
81	0x36abfdf1	5.12576e-06
82	0x39a6dd20	0.00031826738
83	0x000001f4	7e-43
84	0x340f4e3d	1.3346376e-07
85	0x399efefe	0.00030326092
86	0x3982d30e	0.0002495278
87	0x37a6dd4e	1.9891795e-05
88	0x3890ddcb	6.907767e-05
89	0x34d32ba9	3.933358e-07
90	0x356900a3	8.680019e-07
91	0x33536b9c	4.9225136e-08
92	0x39d2d008	0.00040209317
93	0x00000000	0.0
94	0x000001f4	7e-43
95	0x000001f4	7e-43
96	0x0db87506	1.1368048e-30
97	0x39b64f5f	0.0003477288
98	0x368b2182	4.1464236e-06
99	0x39809f5a	0.0002453279
100	0x358d2c35	1.0518185e-06
101	0x374ca7c1	1.2198406e-05
102	0x0905da2a	1.6111873e-33
103	0x360cdb1f	2.098917e-06
104	0x359b2e51	1.156188e-06
105	0x15b9381f	7.480945e-26
106	0x398eeb61	0.00027259722
107	0x0000054a	1.897e-42
108	0x38ccb6c2	9.761519e-05
109	0x3839caef	4.4296434e-05
110	0x39082da3	0.00012986972
111	0x3a8e166a	0.001084042
112	0x35b2d6f8	1.3324598e-06
113	0x376772bc	1.3795387e-05
114	0x3775a40c	1.4641333e-05
115	0x000001f4	7e-43
116	0x3355466a	4.965697e-08
117	0x36e0e2ce	6.7021238e-06
118	0x3abc9d66	0.001439017
119	0x37f4860a	2.9149483e-05
120	0x39d30edf	0.00040256136
121	0x35f39c02	1.8150315e-06
122	0x36a8e5be	5.0335357e-06
123	0x3200ea81	7.503901e-09
124	0x3acf06dc	0.0015794891
125	0x00000000	0.0
126	0x000001f4	7e-43
127	0x000001f4	7e-43
128	0x000001f4	7e-43
129	0x348e7192	2.6532194e-07
130	0x33ee81d5	1.1106355e-07
131	0x3774f94e	1.4601579e-05
132	0x350fb343	5.353251e-07
133	0x349b5b3b	2.893738e-07
134	0x0289b2e0	2.023301e-37
135	0x33c0a897	8.971363e-08
136	0x332f16e0	4.0766167e-08
137	0x141c71ad	7.898406e-27
138	0x36520c84	3.1299724e-06
139	0x000001f4	7e-43
140	0x33d4a342	9.901716e-08
141	0x34cd965a	3.829362e-07
142	0x36092c45	2.044036e-06
143	0x36434c73	2.9101764e-06
144	0x339a6b57	7.190709e-08
145	0x352d5999	6.4577904e-07
146	0x3769cdd8	1.3935809e-05
147	0x000001f4	7e-43
148	0x3312163a	3.401349e-08
149	0x374e8e5e	1.2311704e-05
150	0x376604cc	1.3710185e-05
151	0x3637a872	2.7367173e-06
152	0x36c49127	5.858153e-06
153	0x33619042	5.2518097e-08
154	0x32f39684	2.835737e-08
155	0x32547fcb	1.2369081e-08
156	0x37b85783	2.197526e-05
157	0x00000000	0.0
158	0x00000000	0.0
159	0x000001f4	7e-43
160	0x00002101	1.184e-41
161	0x3977dc3a	0.00023637796
162	0x35840f0e	9.839148e-07
163	0x38a843d2	8.023497e-05
164	0x375274d9	1.2544181e-05
165	0x380374aa	3.1341486e-05
166	0x07d5ff03	3.219856e-34
167	0x35e932ac	1.73746e-06
168	0x34fe892d	4.7410995e-07
169	0x16c420b1	3.168614e-25
170	0x39473edb	0.00019001534
171	0x00000386	1.264e-42
172	0x38f12313	0.000114983086
173	0x38edf61c	0.00011346882
174	0x3905a487	0.0001274516
175	0x39c771ec	0.00038041116
176	0x36ce26a4	6.143777e-06
177	0x376ebaac	1.4229368e-05
178	0x39edd030	0.00045359274
179	0x000001f4	7e-43
180	0x34453437	1.836605e-07
181	0x39380cdd	0.000175524
182	0x3855dff4	5.099173e-05
183	0x39583587	0.00020619306
184	0x3892ffe5	7.0094866e-05
185	0x3698e16b	4.556195e-06
186	0x37a8b072	2.0109324e-05
187	0x33126cf0	3.4092352e-08
188	0x3a21d442	0.00061732915
189	0x00000000	0.0
190	0x000001f4	7e-43
191	0x000001f4	7e-43
192	0x0ba7e3e9	6.466898e-32
193	0x38c5909c	9.4206276e-05
194	0x353bc076	6.9942996e-07
195	0x38f48942	0.00011660393
196	0x37864239	1.6004882e-05
197	0x38ac0ea2	8.204325e-05
198	0x0a810fc8	1.2428184e-32
199	0x350cec0e	5.249757e-07
200	0x348614d1	2.497459e-07
201	0x165cdd49	1.7841284e-25
202	0x3943f066	0.00018686205
203	0x000001f4	7e-43
204	0x3918de1e	0.00014578595
205	0x3837128f	4.3647884e-05
206	0x387aabf8	5.9764803e-05
207	0x39940d16	0.0002823851
208	0x360d12db	2.1021613e-06
209	0x36cc3469	6.085775e-06
210	0x3a008c92	0.0004903759
211	0x000001f4	7e-43
212	0x34525671	1.9589221e-07
213	0x39fe6869	0.00048524447
214	0x39c6a68e	0.00037889596
215	0x37f06f9b	2.86622e-05
216	0x38daae5b	0.00010427526
217	0x351b0c9c	5.776035e-07
218	0x35b09f17	1.3159323e-06
219	0x339b144d	7.2214426e-08
220	0x3a12f2b1	0.0005605622
221	0x00000000	0.0
222	0x00000000	0.0
223	0x000001f4	7e-43
224	0x0c16a0dc	1.1603987e-31
225	0x390eb031	0.00013607812
226	0x35328093	6.649727e-07
227	0x38dc2296	0.000104968596
228	0x3794ef43	1.775439e-05
229	0x38c051f8	9.170541e-05
230	0x0adb51e3	2.1119735e-32
231	0x34fd0fad	4.7136328e-07
232	0x3592e734	1.0945137e-06
233	0x1684043a	2.1328418e-25
234	0x395490a4	0.00020271778
235	0x000001f4	7e-43
236	0x39221eb8	0.00015460968
237	0x38514608	4.9894705e-05
238	0x3868cf27	5.5506036e-05
239	0x3994a400	0.0002835095
240	0x35fd509e	1.8873432e-06
241	0x36c00a6b	5.7232587e-06
242	0x3a1515f2	0.0005687169
243	0x000001f4	7e-43
244	0x343f767f	1.783137e-07
245	0x3a205717	0.0006116493
246	0x39b1a751	0.0003388473
247	0x37e54896	2.7332728e-05
248	0x38c4b04b	9.3788454e-05
249	0x350bc24e	5.2064286e-07
250	0x35b057c6	1.3138567e-06
251	0x338e76ce	6.634001e-08
252	0x3a062614	0.00051173684
253	0x00000000	0.0
254	0x000001f4	7e-43
255	0x000001f4	7e-43

exp_avg f4 [16]
0	0x3b22b2fc	0.0024825921
1	0x3b1fa5c1	0.0024360272
2	0x3bdd6ab8	0.0067571066
3	0xbbfecf61	-0.0077761863
4	0xb70f08df	-8.52553e-06
5	0xbd6546cd	-0.055975724
6	0x3c01c334	0.007920075
7	0x3c08de98	0.008353852
8	0x3b92c482	0.004478992
9	0x3c2a168a	0.01038135
10	0x3b827661	0.003981397
11	0x3c261dde	0.010138957
12	0x3c052bd7	0.008128128
13	0x00000004	6e-45
14	0xbc9a3c0c	-0.01882746
15	0x80000004	-6e-45

exp_avg_sq f4 [16]
0	0x3ba2b5fd	0.0049655423
1	0x3b477007	0.0030431764
2	0x3b085543	0.0020802773
3	0x3bf10e75	0.0073564597
4	0x385f50d8	5.3242635e-05
5	0x3cadc6ec	0.021213017
6	0x3b4169d6	0.0029512546
7	0x3b441701	0.0029920938
8	0x3a781317	0.0009463294
9	0x3b2104cb	0.0024569507
10	0x3a56a77a	0.0008188408
11	0x3b806cc6	0.003919217
12	0x3b18ce6e	0.00233164
13	0x000001f4	7e-43
14	0x3be0b7a2	0.0068578282
15	0x089dfee1	9.5090155e-34

exp_avg f4 [2, 16]
0	0xb957842f	-0.0002055324
1	0xb98aa652	-0.0002644533
2	0x3a910f82	0.0011067244
3	0x3a605bec	0.00085586193
4	0x3649cc60	3.0070296e-06
5	0x3a97c669	0.0011579517
6	0x3ab968d7	0.0014145625
7	0x3ab05879	0.0013454101
8	0x3a5f001a	0.000850679
9	0x39c03f2d	0.00036668163
10	0x3a6cc291	0.0009031678
11	0x3ab6fe95	0.0013961369
12	0x3ac32d14	0.0014890754
13	0x80000004	-6e-45
14	0x3ac2dd5e	0.0014866998
15	0x00000004	6e-45
16	0x39578443	0.00020553269
17	0x398aa67c	0.00026445452
18	0xba910f6f	-0.0011067222
19	0xba605bdd	-0.00085586106
20	0xb649cdcf	-3.007113e-06
21	0xba97c656	-0.0011579494
22	0xbab968c6	-0.0014145605
23	0xbab05868	-0.0013454081
24	0xba5effef	-0.0008506765
25	0xb9c03f02	-0.00036668038
26	0xba6cc261	-0.000903165
27	0xbab6fe89	-0.0013961355
28	0xbac32cff	-0.0014890729
29	0x00000004	6e-45
30	0xbac2dd4c	-0.0014866977
31	0x80000004	-6e-45

exp_avg_sq f4 [2, 16]
0	0x380173ce	3.086385e-05
1	0x38504cc5	4.966256e-05
2	0x386f1d14	5.700912e-05
3	0x3850049c	4.9595357e-05
4	0x36ab153b	5.0986687e-06
5	0x376a618e	1.3970201e-05
6	0x3883e058	6.288354e-05
7	0x38808e21	6.129989e-05
8	0x38a4931e	7.847532e-05
9	0x37727c5c	1.4453279e-05
10	0x38840e2b	6.2968895e-05
11	0x380eecf5	3.407612e-05
12	0x38951377	7.108499e-05
13	0x000001f4	7e-43
14	0x38eee1ef	0.00011390808
15	0x04874d1d	3.1809165e-36
16	0x380173cf	3.0863852e-05
17	0x38504cc4	4.9662558e-05
18	0x386f1d13	5.7009118e-05
19	0x3850049b	4.9595354e-05
20	0x36ab153b	5.0986687e-06
21	0x376a618e	1.3970201e-05
22	0x3883e058	6.288354e-05
23	0x38808e22	6.12999e-05
24	0x38a4931c	7.847531e-05
25	0x37727c5e	1.44532805e-05
26	0x38840e2b	6.2968895e-05
27	0x380eecf2	3.407611e-05
28	0x38951378	7.1085e-05
29	0x000001f4	7e-43
30	0x38eee1f3	0.00011390811
31	0x000001f4	7e-43

exp_avg f4 [2]
0	0x3b7699d0	0.00376283
1	0xbb7699b4	-0.0037628235

exp_avg_sq f4 [2]
0	0x3a31e8cf	0.00067867053
1	0x3a31e8ce	0.0006786705

loss f8 []
0	0x3f59ee19fb4a5555	0.001582646725329558
